bitcoin_lstm.pth (torch, 206101 bytes, 9 tensors)

lstm.weight_ih_l0 f4 [256, 1]
000000 99 ba df 3d d8 8b 39 bd f0 a6 a0 bd ac 38 ba bd
       0.109242626 -0.04529938 -0.07844341 -0.090928406
000010 54 3b 5f 3d ca f7 84 3c 10 9d ef bd af 78 34 bd
       0.05449994 0.016231436 -0.11699879 -0.044060405
000020 af fe 59 3c aa ad f4 bd 5d f1 3d 3e 9f c8 4c 3d
       0.01330535 -0.11947186 0.18549104 0.049996015
000030 bd b1 15 bd 49 fd 37 bd ee a3 40 be cc ec e9 bd
       -0.036546458 -0.044919286 -0.18812534 -0.114221185
000040 36 61 78 3e b2 4d 07 3e ef 59 96 bd 94 a5 6c 3d
       0.24255833 0.13213232 -0.07341372 0.057775095
000050 9e f0 12 be c8 f6 34 3d 7a 63 0b 3e 9e 22 d5 bd
       -0.143496 0.04418066 0.13612166 -0.10406993
000060 55 c7 55 be f4 b6 1a be 13 63 8f bd 6b 84 53 bd
       -0.2087682 -0.15108854 -0.07001319 -0.051639955
000070 a8 37 02 bd 87 e9 38 bd 5d c5 58 be 79 21 c4 bd
       -0.03179136 -0.045144584 -0.21169038 -0.09576697
000080 ea 3d 8c be e3 76 04 3e 1a 9d d2 bd a1 44 36 bd
       -0.27390987 0.12935977 -0.10283871 -0.044499043
000090 a8 67 a6 3d ad 06 8f bd 7c 8d df 3d 2b ff ca bd
       0.081252396 -0.06983695 0.10915658 -0.09911951
0000a0 a4 f0 ac 3d a0 ea e5 3d db 49 53 be b4 e3 46 be
       0.08444336 0.11226392 -0.20633642 -0.194228
0000b0 fc 92 03 3d 5b 51 ad bb c7 e1 0a 3d 6c fe 2c 3e
       0.032122597 -0.0052892393 0.033906724 0.16893929
0000c0 9a 08 05 3e ee e7 81 3e ca d7 d9 bc fc 5a 86 be
       0.12991562 0.2537226 -0.026592154 -0.2624129
0000d0 69 06 2b 3c bd b3 0d 3c ab 6d 0e 3d c4 28 6d be
       0.01043854 0.00864881 0.034772556 -0.23160082
0000e0 da 8d be bc d7 93 67 be 7f 1f 2b 3e 59 b2 80 be
       -0.023261 -0.2261499 0.16711234 -0.25136068
0000f0 a3 3a e2 3b e3 45 99 be 0c 77 56 bd 2d 34 c0 3d
       0.0069039627 -0.29936132 -0.052359626 0.09384952
000100 fd 6f 63 3e 9a 57 88 be 60 2c 8b 3d 4b 40 c8 bc
       0.22210689 -0.26629335 0.06795573 -0.02444472
000110 35 da 22 bd 73 4e b4 bd 45 f7 d3 bd c0 15 bf 3c
       -0.03975888 -0.088040255 -0.10349897 0.0233258
000120 da 28 2c 3d 80 13 48 3e 61 33 09 3c 76 03 15 3e
       0.042031147 0.19538689 0.008374066 0.14552101
000130 47 8c be bd 4c 82 dc 3d 62 db e5 bd 10 98 07 3e
       -0.093040995 0.1076704 -0.112234846 0.13241601
000140 f9 b4 44 3e d4 60 7a 3e b3 c0 9d 3d 67 ae 90 3d
       0.1920966 0.24451 0.0770277 0.070645146
000150 48 9f f3 3d 4a 34 80 3d a0 7e 44 3d f7 58 b9 3d
       0.11895615 0.06259973 0.04797232 0.09050172
000160 c8 05 61 bd b1 41 f2 bd 9d f1 a6 be cc 87 8c bd
       -0.054937154 -0.11828936 -0.3260621 -0.06861839
000170 36 09 cd bd d9 6e ce bd 5d 05 de bc bc 55 02 bd
       -0.100115225 -0.10079736 -0.027102167 -0.031820044
000180 17 41 80 3c 8b 94 27 3e 19 73 9d bd 01 3c fd bd
       0.015656037 0.16365258 -0.07687969 -0.123649605
000190 9d 4a 8d 3d 6a eb 10 bd 94 4c 2e 3e c0 41 65 be
       0.06898997 -0.03538076 0.170214 -0.22388363
0001a0 f5 e0 8e bd b4 6c 61 3e 9a d7 db bd 43 62 47 bd
       -0.06976501 0.22014123 -0.10734482 -0.048677694
0001b0 d0 15 86 bd 56 bf ca 3d 79 a5 34 3e 5e 3c 11 3e
       -0.06547129 0.09899776 0.17641248 0.14183185
0001c0 b4 3b b0 3d 35 5d 9e 3e 78 1a 5e bd 05 0f 26 be
       0.086051375 0.30930486 -0.05422446 -0.16216667
0001d0 4d 07 85 bd b7 5c ea 3d 02 23 00 3e 5e 45 6b be
       -0.06495533 0.11443465 0.12513354 -0.2297568
0001e0 ec 84 c6 bd 60 13 d3 3c 31 aa 78 3e bb ef d4 be
       -0.096933216 0.025766075 0.24283673 -0.4158915
0001f0 c6 e7 24 bd ab ec 50 3d 03 76 a4 bc 7a 02 ef bc
       -0.0402601 0.051006954 -0.020075804 -0.029175986
000200 93 38 61 be 22 5a 70 3e 47 5d 8f 3d 60 c2 19 be
       -0.21994238 0.23471883 0.07000213 -0.15015554
000210 ac 9e 69 be 57 44 81 3e 6a 93 14 be 48 27 0b 3e
       -0.22814435 0.25247452 -0.14509359 0.13589203
000220 21 2a 2e be 1f a0 08 be d2 27 75 3e 2d ed 8c 3e
       -0.17008258 -0.13342331 0.23940971 0.275247
000230 e2 ef 3e 3e 93 4a 0a 3e fa dc eb bd ab 54 8e bd
       0.18646196 0.1350501 -0.11516757 -0.06949743
000240 c8 02 24 be f8 38 5b 3e cf 5e 2f be 7d 59 73 3e
       -0.16016686 0.2140845 -0.1712601 0.23764606
000250 1b ef 20 3d c3 6d 61 be 8f d8 47 be 67 8a 80 3e
       0.03929053 -0.22014527 -0.19516204 0.25105593
000260 67 be f1 bd 07 80 13 be a5 c3 a3 be 2a 9d 48 be
       -0.118038945 -0.14404307 -0.31985202 -0.19591203
000270 bb ec 71 be 3a 01 46 be 9b 5f 51 3e b2 88 8f bd
       -0.23625462 -0.19336405 0.20446627 -0.070084944
000280 e3 c8 2d 3e 19 f6 5f be 5a 33 89 bd 23 7e f7 bd
       0.16971163 -0.21871223 -0.06699248 -0.120846055
000290 71 ec 81 3e 5c d0 bb 3d ae 46 8b 3e a3 53 42 be
       0.25375703 0.09170601 0.27202362 -0.18977217
0002a0 e2 66 13 be 5e 5c 7a 3e 63 56 1f 3e e7 c9 d0 3c
       -0.14394715 0.24449298 0.15560298 0.0254869
0002b0 7b 4b 8f 3e 80 1c 85 be 7d 6a 40 be 1a 49 89 3e
       0.27987275 -0.25998306 -0.18790622 0.26813585
0002c0 3b 3b 7d be f5 16 5e 3e 2b 5e 11 be a8 b3 0e be
       -0.24729626 0.21688445 -0.14196078 -0.13935721
0002d0 a6 c9 5a 3e 76 2b fe 3d 39 f5 30 be 09 a6 8a 3e
       0.21365985 0.12410633 -0.17281045 0.270798
0002e0 a1 42 85 3e 81 2d 68 be 23 8a 77 be d3 43 91 be
       0.26027396 -0.22673608 -0.24173789 -0.28372058
0002f0 7c 26 85 be 69 cc 67 3e 3a 62 56 be 32 36 47 3e
       -0.26005924 0.2263657 -0.20935908 0.19454268
000300 d7 ca 64 3e e7 37 ed bd 6c b4 ba 3d df b7 72 be
       0.22343002 -0.11582928 0.09116444 -0.23702954
000310 2a 2e 14 3e 03 5b a4 3d 8b 4f 8f bd bf 10 15 be
       0.14470735 0.080251716 -0.069975935 -0.1455717
000320 e9 54 59 bd 84 fc d4 bd 53 d4 2d 3e a9 f1 89 3d
       -0.053059492 -0.10399726 0.16975527 0.06735546
000330 cb 0f fc bd a3 5e 15 be 5b ef 20 bb 0e 28 12 3e
       -0.123077 -0.14586882 -0.002455673 0.14273092
000340 86 d5 51 3e 9e 4f 6d 3e 3f 9c 94 3d 0c 0e 2d 3b
       0.20491609 0.23174903 0.07256364 0.0026406078
000350 d2 59 ab 3c 95 53 36 3e 5f 2f 71 3e a8 07 97 3c
       0.020916853 0.17805322 0.23553227 0.018436268
000360 44 57 b5 bd 9a 27 71 be 7e b6 31 be 67 fb 78 be
       -0.08854535 -0.23550263 -0.17354771 -0.24314652
000370 21 ab f3 bb f5 fa 7b 3d 4e 8e 38 be f8 4e 6d be
       -0.0074361716 0.06151863 -0.18023035 -0.23174655
000380 10 45 a3 be da d0 66 3e 05 35 1f be cd c2 8c be
       -0.31888628 0.22540608 -0.15547569 -0.2749237
000390 bb 9c 90 3c 4d 71 43 bd d8 b9 21 3e 16 80 f2 bd
       0.01765286 -0.047715474 0.1579355 -0.11840837
0003a0 88 98 c5 bd f0 dc 1a 3e 6c 56 23 be 17 2c 75 be
       -0.09648234 0.15123343 -0.15950936 -0.239426
0003b0 b7 43 83 3a 56 45 18 3d 3d 97 1b 3e 44 7d f4 3d
       0.0010014687 0.0371755 0.15194412 0.11937955
0003c0 ed 99 ac bb 64 a3 9d 3e b9 53 0f bd 1d 9a b5 bd
       -0.005267373 0.3078872 -0.034991954 -0.088672854
0003d0 1b cd d0 3d d6 9c 2a 3c 50 9f 36 3e 16 2c 24 be
       0.10195371 0.010413369 0.1783421 -0.16032442
0003e0 b9 64 c0 bd c9 ae 6a be 37 52 33 3e 11 19 83 be
       -0.09394211 -0.22918238 0.17511831 -0.25605062
0003f0 df 21 33 bd f8 23 82 be a4 f9 ab 3d f9 1e 97 3d
       -0.043733474 -0.25418067 0.083972245 0.073789544

lstm.weight_hh_l0 f4 [256, 64]
000000 e4 32 8c 3d e6 99 b0 3c 83 80 ff 3d de 79 06 be
       0.06845644 0.02155776 0.124756835 -0.13132426
000010 8d 14 9b 3d 0e a5 ce bd 82 92 11 be f4 20 15 3e
       0.07572279 -0.100900754 -0.14216045 0.14563352
000020 07 4f 08 be a8 b8 5f 3d f0 81 0f 3d 7d 33 fc 3d
       -0.13311397 0.05461946 0.035036027 0.12314508
000030 72 ab 1b 3e 0f d7 03 3e 85 a1 f5 bd 90 fb ec bd
       0.1520212 0.12875007 -0.11993698 -0.11571419
000040 a0 e4 42 bd 4f 13 99 3d ec f0 a4 3d 3c d2 92 bd
       -0.047581315 0.07474386 0.08053765 -0.07169005
000050 86 fc 1d 3e c0 72 91 3c a8 63 68 3d 6b a0 c6 bd
       0.15428361 0.017754912 0.056735665 -0.09698566
000060 1a 4d a1 bd 1b e3 f9 bd 4f 97 7c bc a9 25 c6 bc
       -0.07876034 -0.1220152 -0.015416934 -0.02418788
000070 36 b2 31 bd aa 7f 61 bc dc 53 8e 3d 2c fc 3a 3a
       -0.043382846 -0.013763348 0.06949589 0.00071329135
000080 1d 6e d9 3c b8 1b 84 3c 5b 55 40 bc 3b 38 e9 bd
       0.026541764 0.016126499 -0.0117391 -0.11387678
000090 7b 65 55 3d ff da a0 bd 89 80 1e bd 3a 9a 3a 3d
       0.052098732 -0.0785427 -0.0386968 0.04555724
0000a0 d1 8d be bd fb 21 fc 3d e6 f5 a3 bc 5a 83 f5 bd
       -0.09304393 0.12311169 -0.020014714 -0.11987944
0000b0 b1 91 1b 3c 10 1d 06 3c f7 b6 d0 bd a1 6f f3 3d
       0.009495185 0.00818564 -0.10191148 0.11886526
0000c0 9c dd ee bd 9e 24 0f 3e e8 e0 e4 bd 72 75 ea 3c
       -0.116633624 0.13978812 -0.1117571 0.028620455
0000d0 d9 fd 9f bc 4b 00 4b bd 05 4e c8 bd 3a 4e 8d bd
       -0.019530224 -0.049560826 -0.09780506 -0.06899686
0000e0 d2 39 9b 3c 0a 27 84 bd 67 1e 37 3d b3 86 e9 3d
       0.01894847 -0.064527586 0.04470673 0.11402645
0000f0 bf 8a 85 bd 54 b2 03 be d2 28 aa 3d f4 15 3b bd
       -0.06520604 -0.12860996 0.08308567 -0.045675233
000100 1c ad 1f bc cd 87 84 3c 8f 34 06 3e 89 d5 64 3b
       -0.009745862 0.016178036 0.13105987 0.0034917316
000110 58 5a 09 be 0d f3 44 3d 04 af dc bd a7 27 08 bd
       -0.1341337 0.048083354 -0.10775569 -0.03324094
000120 85 f0 25 be d3 87 3a be 85 96 bf 3d 69 d1 61 3c
       -0.16205032 -0.18215875 0.09354881 0.013782837
000130 e2 0a 19 3b 46 35 0d 3e 27 14 ca 3c ba 44 4f bd
       0.0023352434 0.13789853 0.024667813 -0.050602652
000140 9b ff 3b be 79 57 b2 bb 27 95 9f 3d 22 2c 62 bd
       -0.18359224 -0.0054425565 0.077921204 -0.05521787
000150 f6 a8 99 3d 2f ae c1 bd 1e f7 6f be d9 bb 83 3d
       0.0750293 -0.09457051 -0.23434111 0.064323135
000160 07 46 d6 bd 21 ab 0b be 6e 53 b0 bd 3e 57 fe bd
       -0.104625754 -0.13639499 -0.08609663 -0.12418984
000170 8e bc dc bd 73 d8 2c bc 92 6b 85 bd 47 80 a2 bd
       -0.107781515 -0.010549652 -0.06514658 -0.07934623
000180 e2 f6 2a 3e f4 af 86 bd 3c ec b9 bc 5b 72 b4 3c
       0.16695741 -0.06576529 -0.022695653 0.022027185
000190 39 e4 a2 3c 8a e8 f7 ba de 78 03 3e 1d a8 2d bc
       0.019884216 -0.0018913907 0.12839076 -0.010599163
0001a0 39 cb a5 3d 8e e7 12 3d 3a ea f1 ba 27 a8 d8 bc
       0.08095402 0.03586536 -0.0018456646 -0.026447369
0001b0 3f da 8e 3d 9d 69 90 bd 14 7e d9 bc f7 7e 5f 3c
       0.06975221 -0.07051394 -0.026549377 0.013641111
0001c0 f2 72 9b bd 3a 57 5a 3e 50 f4 6a 3d 18 6f 13 be
       -0.075902835 0.21322337 0.0573619 -0.14397848
0001d0 dd dd 85 3d 43 58 26 3e b0 45 68 bd 3b dd 10 3c
       0.06536458 0.16244607 -0.056707084 0.008841808
0001e0 29 f0 66 bc ab b9 67 bd 14 c3 63 3c 4b 94 55 3d
       -0.014095345 -0.05657355 0.013901491 0.052143376
0001f0 93 03 63 3d 7b f4 1c 3e 0c 65 9e 3d f3 96 6f 3d
       0.05542333 0.15327637 0.07734117 0.058493566
000200 c2 17 1f 3e 6f 33 13 3e 88 a1 5d be 86 b0 26 bd
       0.15536407 0.14375089 -0.2164365 -0.04069569
000210 25 ae 7f bc ac 9c 81 bd 8c 0f 9a 3d c5 10 83 3d
       -0.015605484 -0.06328711 0.075224966 0.06399683
000220 ee 29 54 3e e9 5f 03 3d 67 29 6e be 2b ed 73 be
       0.2071912 0.03207389 -0.23257981 -0.23820941
000230 6c 38 01 3d 5a 72 33 be 73 da e2 3d b5 b0 00 3e
       0.03154795 -0.1752409 0.11076822 0.12567408
000240 8a 52 81 3e 4f 6f 94 bd 22 d7 74 3d bc 00 75 bd
       0.25258285 -0.07247793 0.05977548 -0.059815153
000250 9c 95 3e be 71 47 aa 3d 9e 02 82 3c 24 8b 3b 3e
       -0.18611759 0.083144076 0.015870389 0.18314797
000260 c5 c9 28 3e 73 07 15 3e 4d de a2 3d 6d 19 10 3e
       0.16483219 0.14553623 0.07952557 0.14072199
000270 dd 77 87 bd 96 f5 1d be a7 0f fb bd cb 8b f3 bb
       -0.06614659 -0.15425715 -0.12258845 -0.007432436
000280 da e7 f8 bd 82 53 22 3e ee 3e 0a bc 0e d7 64 bd
       -0.12153597 0.15852168 -0.008437855 -0.055869155
000290 50 83 79 bd 26 43 83 3c aa 79 16 be 5f 0f 19 be
       -0.060916245 0.01602323 -0.14694849 -0.1494727
0002a0 7d f3 36 3e e3 73 3e be 1a 52 2b be 6b c3 1f bd
       0.17866321 -0.18598895 -0.16730538 -0.039004724
0002b0 48 32 f5 bd aa 53 c2 ba 04 fc 3c 3e cb c8 9e be
       -0.11972481 -0.0014825959 0.18455511 -0.31012568
0002c0 ee ed 40 3d 67 a5 80 be 18 70 cd bc a0 a7 19 3e
       0.047101907 -0.25126192 -0.025077865 0.1500535
0002d0 d6 d5 a5 3d 55 33 99 bd bb 85 95 3d 21 23 1d bd
       0.080974266 -0.07480494 0.07300898 -0.03836358
0002e0 6d bf 0b be ff 06 ad 3c 88 11 1a 3d c0 98 21 be
       -0.13647242 0.0211215 0.037614375 -0.15780926
0002f0 f7 b3 d7 3b 05 ea 3b be 77 39 2a 3e 7d 5a 55 bd
       0.006582733 -0.1835099 0.16623484 -0.05208825
000300 6d b1 96 3d 3f 89 c9 3d 38 56 17 bd 1d 7d c7 bd
       0.0735806 0.09840631 -0.03694746 -0.0974066
000310 d3 ce 5b bd 1b e8 a1 bc a1 60 05 3e 90 f8 2c be
       -0.05366404 -0.019763997 0.13025142 -0.16891694
000320 15 f8 06 3e 75 80 45 3e 52 04 12 be ca 48 2e bd
       0.13180573 0.19287284 -0.1425946 -0.042549886
000330 0c 6d ca 3d d8 6e be bd 28 87 bb bb a0 ec 5d 3d
       0.0988408 -0.092984855 -0.005722899 0.05418074
000340 36 9f 2e 3d 64 af 37 be 59 a6 b2 3d de b2 49 3d
       0.042632304 -0.17938 0.087231345 0.049242847
000350 57 4f 02 be 23 bb f9 3c 11 fb 79 3d 0f d7 60 bd
       -0.12725578 0.030484742 0.06103045 -0.054892596
000360 aa 0c 21 3e 88 14 22 3d a6 9f a8 3c 0c 28 ac 3d
       0.15727487 0.03957036 0.020583939 0.08406076
000370 73 6a da 3d e6 0e 26 bc 92 36 85 bd e3 3e bd 3d
       0.10664835 -0.010135388 -0.06504549 0.0924051
000380 b6 fd 28 3e 8d 01 6f 3e 84 f2 a6 3d 56 28 98 bd
       0.16503033 0.23340435 0.08151725 -0.074295685
000390 b5 ed f1 3c b1 92 3b be 97 cb e2 3b e9 3e cd bd
       0.029532293 -0.18317677 0.0069212425 -0.10021765
0003a0 37 e7 0b 3e c8 79 74 be 14 65 d0 bd 62 61 1d 3c
       0.1366242 -0.23874581 -0.10175529 0.009605737
0003b0 85 43 8b 3b 1d 16 f4 bb fc af 20 3e 45 ea 81 be
       0.0042499923 -0.007448925 0.15692133 -0.25374046
0003c0 d5 40 0e 3d ea 1b 07 3d 0d 08 7b 3d 79 53 cf bc
       0.034729797 0.032985605 0.061286975 -0.025308358
0003d0 ef d0 a8 bc cd dc c5 bd 9f 84 d5 3d a6 0f a8 3c
       -0.02060744 -0.09661255 0.10425686 0.020515274
0003e0 a4 e1 e9 bc 3f 93 a3 bd db 08 cb bc e6 1e 6b bd
       -0.028549977 -0.07987069 -0.024784496 -0.057402514
0003f0 af e6 dd 3c c5 07 b1 bd e8 41 72 3c c3 a9 3b be
       0.027087538 -0.0864406 0.014786221 -0.18326478

lstm.bias_ih_l0 f4 [256]
000000 e4 1a a8 bd a2 5a 07 bd d8 51 fd be c2 c0 9d be
       -0.08208254 -0.03304542 -0.49476504 -0.30811125
000010 3d 58 b7 be a5 3c 84 bd 22 76 14 bf 51 ef da be
       -0.35809508 -0.064568795 -0.57992756 -0.4276071
000020 a4 bb 19 bf cf 81 b0 bd eb 46 b3 bd 34 82 59 bc
       -0.6005194 -0.08618509 -0.08753761 -0.013275672
000030 f2 a8 8c be d6 47 04 bf 07 35 3b bf e1 0c b4 be
       -0.27472645 -0.5167211 -0.7312779 -0.35166076
000040 3d 7e 3f 3c fd 7b c8 bd aa 85 be be b2 bc fc 3d
       0.011687812 -0.09789274 -0.37211353 0.12340678
000050 bb 33 1a bf 19 aa a7 bd b8 f8 84 3c f9 f3 7f 3d
       -0.60235184 -0.081867404 0.01623188 0.06248853
000060 98 1c 0f bf bc cb 45 bf a4 07 9b 3e 7b fb 15 bf
       -0.55903006 -0.77264 0.30279267 -0.58586854
000070 af 69 02 3d 6c 5b 9b be ec 2f ba bd 1d f3 3c bf
       0.03183907 -0.30343187 -0.090911716 -0.7380846
000080 8a 14 0e bf 70 78 ac bc d6 94 2e bf 2b 26 74 bf
       -0.5550009 -0.021053523 -0.68195856 -0.9537074
000090 83 b4 27 b9 8f b3 4a be fc a1 4b 3e f3 ef 97 3b
       -0.00015993607 -0.19795059 0.19886011 0.0046367585
0000a0 93 8a 39 be 96 b9 7b 3d e7 59 2b bf cd 99 71 bf
       -0.18119268 0.061456285 -0.66934055 -0.94375306
0000b0 9d 63 92 bd d8 50 33 3e 34 fc 4c 3d d3 b1 aa 3d
       -0.07147906 0.17511308 0.050045207 0.083346985
0000c0 f6 01 d9 3d e8 de bb 3d a7 ee de be 25 58 87 bf
       0.10596077 0.09173375 -0.43541452 -1.0573775
0000d0 32 ef 88 bd 9e 10 d6 be 56 38 02 be c7 8a b2 3d
       -0.06686248 -0.41809553 -0.12716803 0.08717876
0000e0 12 09 9d ba 93 a2 e9 3a 72 a1 04 3e cb 0a fa 3d
       -0.0011980853 0.001782494 0.12952211 0.1220909
0000f0 cd 02 2d bd ea 86 4a 3c 09 6f 3c be 6d a5 13 be
       -0.042239 0.012361268 -0.18401732 -0.14418574
000100 26 59 ba bc 89 68 5c 3d ae 6d 14 bf 1a cb b3 be
       -0.022747587 0.05381063 -0.5797986 -0.35115892
000110 75 b2 a0 be a8 d9 f4 bd e4 11 20 bf 1f ab c2 be
       -0.31386152 -0.11955577 -0.625273 -0.3802118
000120 e0 14 05 bf 39 0f 11 be 1d 62 be bb a6 93 aa 3c
       -0.5198498 -0.14165963 -0.005810036 0.020822357
000130 0b bd c9 be 77 49 27 bf 78 c0 ed be cf 08 ae be
       -0.3940204 -0.65346473 -0.46435905 -0.33991095
000140 92 84 2c be 55 83 84 bd 0a 5e a7 be a3 74 93 3d
       -0.16847447 -0.06470362 -0.32688934 0.07199981
000150 6c 89 18 bf 2e 87 22 bd 1e c2 54 be 00 de 0c bb
       -0.5958469 -0.0396797 -0.20777175 -0.0021494627
000160 85 0d 12 bf ae 96 3c bf f1 11 7b bd 1a 62 ec be
       -0.5705188 -0.7366742 -0.061296407 -0.46168596
000170 8f 91 bd bc b6 a8 8d be bc 77 f8 bd 41 4f 3f bf
       -0.023140697 -0.2766778 -0.121322125 -0.74730307
000180 39 05 02 bf cc 54 9a bd fd 53 2c bf bc 9a 6c bf
       -0.5078922 -0.07535705 -0.67315656 -0.92423606
000190 97 d0 10 3c 56 d1 9f be 1d 09 a3 bd 3e b9 5e be
       0.008838794 -0.31214398 -0.079607226 -0.21750352
0001a0 b7 5e b2 be 1d de 05 3d c3 15 29 bf 05 d0 4b bf
       -0.34837887 0.032682527 -0.6604883 -0.7961429
0001b0 58 0b 27 bc 9e 71 f9 3d 77 b0 8d 3d df 65 cf 3d
       -0.010195576 0.12179874 0.069184236 0.10126852
0001c0 88 52 ee bc 80 c0 5f bd 12 0c b8 be f5 ad 85 bf
       -0.029092088 -0.05462694 -0.3594671 -1.0443712
0001d0 ef 58 11 bd 04 f3 a2 be 7e c4 10 3d 5b bd 99 3d
       -0.035485204 -0.3182603 0.03534364 0.0750682
0001e0 8f f8 10 3d 91 40 52 be 01 26 7d bd a4 1e 53 bd
       0.035393294 -0.20532443 -0.06180382 -0.051542893
0001f0 ad 96 04 3e ff 79 3d be b9 cb e3 3b 3a 3a 5d bd
       0.12948103 -0.18503569 0.006951776 -0.054010607
000200 c5 a2 44 3d ad 43 e1 bc 13 66 03 3d 78 a8 25 bb
       0.04800679 -0.02749809 0.032079767 -0.0025277417
000210 97 46 88 3d 55 d7 6f bb 92 7e 34 bd 95 4d b4 3c
       0.06654089 -0.0036596854 -0.04406602 0.02200965
000220 a5 42 f4 3c 67 c9 b7 bd 6d 9a 08 bc 85 23 86 3c
       0.029816935 -0.08973961 -0.008337599 0.016374359
000230 fc 82 fd bd 98 2b c6 3b ce 58 34 3d 37 5c 00 3d
       -0.12378499 0.0060476772 0.044030003 0.031337943
000240 a2 7d 09 bd 78 ec 21 bc 06 2d a4 bd 22 6b 6c bc
       -0.03356708 -0.009883039 -0.080164 -0.014429839
000250 1e 81 91 3b 30 7d 9c bc a4 58 36 3d 93 90 6b bd
       0.004440441 -0.019102663 0.044518128 -0.057510924
000260 e4 b9 bd 3b 1a 4f 98 3d 7d 71 90 3d 65 38 19 3c
       0.005789982 0.074369624 0.07052896 0.009351824
000270 da eb 7b 3d 13 30 bc b9 fd b4 7e 3d 91 16 19 bd
       0.061504222 -0.00035893972 0.062184323 -0.037375037
000280 8c ac 08 bd 78 ae d0 bd eb 5c aa bd c9 be 74 bc
       -0.03336768 -0.10189527 -0.08318504 -0.014938065
000290 68 bc b5 bd a9 08 af bd 18 62 40 bb 1a 50 02 3d
       -0.08873826 -0.08546574 -0.0029355343 0.031814672
0002a0 e4 a3 6d 3c ef cd f9 3d b9 b8 9d bd 81 45 8c bd
       0.014504407 0.12197482 -0.07701249 -0.06849194
0002b0 91 f0 54 bd 33 87 b4 3d 4b 66 29 3d 55 95 45 3d
       -0.051987235 0.0881485 0.04135732 0.048238117
0002c0 69 7e aa 3d 59 85 b8 3b a5 b9 1e bd 7c f3 10 bd
       0.08324892 0.0056311307 -0.038751263 -0.035388455
0002d0 da bb b3 3c 2a ee 31 3c 8e cf 88 3d 6f 42 39 bd
       0.02194016 0.010860005 0.06680213 -0.04522937
0002e0 28 21 03 bb 75 e6 a2 3d 97 21 36 bd 80 ce b4 3a
       -0.0020008776 0.079541124 -0.044465628 0.0013794452
0002f0 3b e9 49 bd 2a da 44 bc e6 ca 1f bc 4a 19 f5 bc
       -0.04929469 -0.012014905 -0.009752965 -0.029919285
000300 f7 d3 cf 3d 88 84 1b bd fa 75 2b bf c4 5e e1 be
       0.10147851 -0.03796819 -0.6697689 -0.44017613
000310 c1 c1 d1 be c6 5c 94 3d b5 43 03 bf 42 8b 12 bf
       -0.40968135 0.07244258 -0.5127519 -0.5724374
000320 b4 de 17 bf 51 d4 3e be bd fe 8e 3c 7c 19 e2 bc
       -0.59324193 -0.1863568 0.017455453 -0.027600043
000330 fb 2e 32 be 04 b6 10 bf 65 92 06 bf c4 4a d4 be
       -0.17400734 -0.56527734 -0.5256713 -0.41463292
000340 b0 e4 33 be d7 28 2b 3d a9 dc f5 be 77 0d 87 3c
       -0.17567706 0.041786995 -0.48019913 0.016485913
000350 70 9f 2c bf 60 af 11 3e ac 72 02 be 0f 35 c5 3d
       -0.6743078 0.14227057 -0.12739056 0.09629261
000360 e2 b4 01 bf f5 9e 13 bf 3d 77 6d 3e e7 70 04 bf
       -0.5066663 -0.57664424 0.23190017 -0.51734775
000370 13 56 6c 3d 0f 06 a5 be 8f 38 33 bd d1 2a 44 bf
       0.057699274 -0.32231185 -0.04375511 -0.7662783
000380 75 32 00 bf 7c 61 93 bc 5a f1 44 bf 7d 15 75 bf
       -0.5007699 -0.01799082 -0.76930773 -0.95735914
000390 af 82 a9 3c ef b7 b5 be 9c 73 44 3e 9e e9 fb bd
       0.020692198 -0.35491893 0.19184726 -0.12300418
0003a0 8c 71 83 be 3e 0b 5a 3d 60 fe 0d bf 46 96 66 bf
       -0.25672567 0.053233378 -0.5546627 -0.9007305
0003b0 d7 66 c1 3d 49 cc 5c 3e 50 50 98 3d bd 34 1e bd
       0.09443443 0.21562304 0.074371934 -0.038624514
0003c0 9b 77 0d 3e 6d 72 c4 3d ad 05 85 be 64 bd 85 bf
       0.13815157 0.095921375 -0.25980893 -1.0448422
0003d0 7e 29 55 3c 54 dc f1 be 86 41 1b be ae 79 c0 3d
       0.013010381 -0.4723841 -0.15161714 0.093982086
0003e0 08 a0 2b 3e e0 e9 db bd de 8e aa 3d 59 98 5e 3e
       0.16760266 -0.107379675 0.08328031 0.21737804
0003f0 8b b6 30 3e 64 4d 98 bd 45 38 4c be 01 12 f6 bd
       0.17257135 -0.07436636 -0.1994334 -0.12015153

lstm.bias_hh_l0 f4 [256]
000000 be 66 90 bd a3 89 04 bd d8 a0 2a bf 82 28 e6 be
       -0.070508465 -0.032357823 -0.6665168 -0.4495278
000010 07 a4 ac be ac d2 32 3c 93 06 22 bf f8 9c 08 bf
       -0.33718893 0.010914486 -0.6329128 -0.53364515
000020 50 44 dd be 1d 8b 01 be 71 0e 14 bd 2a 45 2e 3e
       -0.4321618 -0.12650724 -0.036146585 0.17018571
000030 df b9 74 be 09 e3 12 bf cf 1d 28 bf 67 db d1 be
       -0.23899029 -0.5737768 -0.65670484 -0.40987703
000040 39 ce de bc 1d 0b aa bd 8c b7 11 bf 68 ee 0b 3d
       -0.027197944 -0.08302901 -0.56920695 0.03416291
000050 49 ad 0d bf 3f 31 b9 bc 08 a6 29 bd 23 0a 59 3d
       -0.5534254 -0.02260649 -0.041418105 0.052988183
000060 da 4a d3 be a8 06 3c bf 36 d5 7d 3e 1d d8 02 bf
       -0.41268045 -0.73447657 0.24788365 -0.5111101
000070 12 c9 8e bc fe 70 a3 be 56 24 a7 bd 55 84 3d bf
       -0.017429862 -0.31922144 -0.081612274 -0.7403005
000080 c7 b8 0b bf f4 8f 1d bd 0e 66 3b bf 7d 03 79 bf
       -0.5457882 -0.038467363 -0.732026 -0.9727095
000090 71 00 c7 3d 4b 2e d8 be b4 a9 bf ba c2 46 d5 bc
       0.09716881 -0.4222282 -0.0014622719 -0.026034717
0000a0 e7 d7 2c be 67 5b a7 bd e2 fe 13 bf 67 68 41 bf
       -0.16879235 -0.081717305 -0.57810795 -0.7554993
0000b0 a7 0f 29 bc 71 75 8d 3c 55 33 e2 3c 2f f3 f5 3d
       -0.010318673 0.017267914 0.027612368 0.12009274
0000c0 da bb c9 3c dc 57 f5 bd 83 f4 af be 6d dc 7a bf
       0.024625707 -0.119796485 -0.34366235 -0.97992593
0000d0 cb 8a 0a be 53 95 04 bf 42 1c 84 3d 07 37 d1 bd
       -0.13529508 -0.5179035 0.06450702 -0.10215574
0000e0 e1 4d 9b 3c 88 3b ab bd 07 49 99 bd a5 44 e0 3c
       0.018958034 -0.08360964 -0.07484632 0.027376482
0000f0 a5 24 71 3d 54 9f 76 bd b5 67 ff ba 12 57 c6 bd
       0.058872838 -0.06021054 -0.0019485863 -0.09684576
000100 79 42 99 3d 1e 06 93 3d 9c 13 05 bf e0 6e 6b be
       0.07483382 0.07178901 -0.51983047 -0.22991514
000110 ae 35 c9 be fd ef db 3c 5a 17 27 bf 6c 6d 98 be
       -0.39298767 0.026847834 -0.65270007 -0.29770982
000120 01 cc df be 52 4d 38 bd a1 e4 8c bc a4 ff 9a bd
       -0.4371033 -0.044995613 -0.017198863 -0.07568291
000130 ed 5a 8c be 91 56 2d bf 9f 25 03 bf e6 38 f2 bd
       -0.2741312 -0.67710215 -0.5122928 -0.11827259
000140 90 1e 58 be b3 04 d6 bd 5d a8 bd be 8b 69 6b bd
       -0.21105409 -0.10450115 -0.37042513 -0.0574737
000150 4f 9e 05 bf 68 20 99 3d 96 ee 56 bd a1 c8 a7 bd
       -0.52194685 0.07476884 -0.052473627 -0.08192564
000160 8a 80 1b bf 66 2e 5c bf 52 13 ac 3d 37 88 24 bf
       -0.6074301 -0.860083 0.084021226 -0.6427035
000170 1d 32 e4 3c bd bd 8f be 98 fb 59 be 35 81 3b bf
       0.027855927 -0.28074446 -0.21287382 -0.7324403
000180 ed e5 14 bf 84 2c 9c bd 7a a1 e7 be 48 82 58 bf
       -0.5816334 -0.07625678 -0.45240384 -0.84573793
000190 69 70 99 3d 28 50 50 be 7f 65 31 3b a9 cc ec bd
       0.07492144 -0.20343077 0.0027068553 -0.11562473
0001a0 1d ed 5d be 2f d7 10 3e ef 52 28 bf f2 97 53 bf
       -0.21672483 0.14144586 -0.65751547 -0.82653725
0001b0 12 51 df bc e5 5a 16 3d 1f 74 c8 3d 13 29 de 3c
       -0.027260337 0.036707778 0.09787773 0.027119195
0001c0 74 1a a6 3d d2 98 bd bd bc 6e df be 73 96 75 bf
       0.08110514 -0.09257664 -0.4363917 -0.9593269
0001d0 4f ea 01 3d b8 fb ef be c8 7a b3 3d 8c 8d 1c 3d
       0.031717595 -0.46871734 0.08763653 0.038220927
0001e0 1d 6c 7d bd 85 cb 41 be 0f 55 06 be 85 ff aa 3c
       -0.061870683 -0.18925293 -0.13118385 0.020873794
0001f0 03 00 49 3d fc 98 c2 3c f7 0c 3d be 56 84 08 be
       0.049072277 0.02375459 -0.18461977 -0.13331732
000200 cc 8f db bb ef bc 03 bd 3a 07 0a bc de 08 38 3d
       -0.0067004915 -0.032162603 -0.0084245745 0.04493033
000210 5f 7a 2f bc 05 e6 2e bd 68 3c 9e 3d 81 ae 4a bd
       -0.010710328 -0.042699832 0.07726365 -0.049482826
000220 79 c7 20 3b a5 16 c5 3d f7 55 e3 3c e1 e9 96 3c
       0.0024532957 0.0962346 0.027750952 0.018422069
000230 47 3c cc 3d 6d 8e 68 bc 22 3e 0c bd 48 4c e1 bc
       0.099724345 -0.014194113 -0.034238942 -0.027502194
000240 30 62 1a 3d 25 8b 41 bd b2 c5 d7 3d 06 0f 5b bd
       0.037691295 -0.04725184 0.10535754 -0.053481124
000250 68 b5 43 bc fb e6 23 3d b2 6d 26 bd 37 c0 a1 bc
       -0.011945106 0.040015202 -0.040631957 -0.019744975
000260 be c5 47 bc dd 6b 11 bd 6c ae 34 bc 92 f8 14 3d
       -0.0121931415 -0.035503257 -0.011027914 0.036369868
000270 96 37 19 bd 51 9e 15 3d 1b 3b be bd d2 86 38 3c
       -0.037406527 0.036527935 -0.09288617 0.011262612
000280 40 f0 a2 3c 0a 1a c1 3d 65 b9 9a 3d f2 36 12 3d
       0.01988995 0.09428795 0.075548925 0.03569693
000290 79 d9 f6 3c ef e2 83 3d f6 22 b0 3a 48 1e 97 3b
       0.030132996 0.064397685 0.0013438154 0.004611764
0002a0 52 dc c9 3a 5b 90 d8 bd 98 95 5a 3d 18 95 2a 3d
       0.0015400744 -0.105744086 0.05336532 0.041646093
0002b0 96 27 2c bb 8f 5f 24 bd 34 b0 8b 3b ee 8b f8 bc
       -0.0026268712 -0.040130194 0.0042629484 -0.030340161
0002c0 fc 84 3c bd 09 23 3d 3c 5b 91 8f 3c 20 94 8c bc
       -0.04602526 0.011543998 0.017525366 -0.017160475
0002d0 0f 2e a1 bd f7 73 e2 bc 7e 89 13 bd b3 32 64 bd
       -0.07870113 -0.027643187 -0.036019795 -0.055712413
0002e0 42 95 55 bd da fb 1c bd 43 2c 35 3d 94 6c eb 3d
       -0.052144296 -0.038326122 0.044231664 0.11495319
0002f0 39 e4 f7 3d a8 ee 2c 3c d8 e0 af 3c 3e 39 bc 3c
       0.12104077 0.010554947 0.021469519 0.022976514
000300 ea 61 38 bc b5 b7 ea bd 66 c1 36 bf 9c be 98 be
       -0.011253813 -0.114608206 -0.7138885 -0.29832923
000310 43 fe 9e be c7 27 7d bd 12 dc 08 bf e5 17 16 bf
       -0.3105336 -0.061805513 -0.534608 -0.5863021
000320 23 ef 0e bf d5 dc 24 be 55 d9 06 be 24 75 2b 3e
       -0.55833644 -0.16099866 -0.13168843 0.16743904
000330 6e e3 ce be 40 ce 36 bf f5 87 03 bf ec 25 9d be
       -0.4040789 -0.7140846 -0.5137933 -0.30692995
000340 43 b4 54 bd 5e 56 d5 bc 96 43 06 bf 5c 1f 2f 3d
       -0.051929723 -0.02604216 -0.5244688 0.042754516
000350 a8 32 3e bf 79 5b c1 3d 5b ec ff bd b1 48 0f 3d
       -0.74296045 0.09441275 -0.12496253 0.034981433
000360 b1 2c c8 be 91 f0 1e bf af 57 01 3e 66 b0 01 bf
       -0.39096597 -0.62085825 0.12631105 -0.5065979
000370 cc 3b b2 bd 4f 9a a9 be b3 99 a0 bd 53 58 6b bf
       -0.087028116 -0.3312554 -0.07841816 -0.9193165
000380 f2 47 dc be f6 54 9d bc 41 66 2d bf ff 4a 48 bf
       -0.4302364 -0.019205552 -0.6773415 -0.78239435
000390 c8 65 e0 3d 4b df c1 be f7 08 99 3d 22 74 2b bd
       0.10956913 -0.37865672 0.07472413 -0.0418588
0003a0 77 03 a0 be e0 5a 51 bd 5e 8e 02 bf 68 a9 51 bf
       -0.31252643 -0.051112056 -0.50998485 -0.8189912
0003b0 c3 0c a6 38 18 42 1b 3d 3b 74 5c 3d 98 9a bf 3d
       7.917874e-05 0.03790483 0.053821784 0.09355658
0003c0 43 6c 0f 3e 43 a4 be bd fe cd a8 be 37 38 83 bf
       0.14006142 -0.09308674 -0.3296966 -1.025153
0003d0 6d 01 5a bd 22 95 da be bf e7 1e bd cb a6 70 3d
       -0.053224016 -0.42691904 -0.03879523 0.058752816
0003e0 7e 1e 80 3d d8 7d a3 bd ef 1b b8 bc 59 cf 2b 3e
       0.06255816 -0.07982987 -0.022474257 0.16778316
0003f0 e7 50 18 3e 71 c3 54 bd 83 4e 2c be 13 b1 64 bd
       0.14874612 -0.0519442 -0.16826825 -0.055832934

lstm.weight_ih_l1 f4 [256, 64]
000000 66 cf 33 be c5 10 81 3e 0f 3c 09 be e0 02 08 bd
       -0.17559585 0.25208107 -0.13401817 -0.033205867
000010 e4 81 84 bd 66 db 63 3e bd 14 0c be b8 2d 3c bd
       -0.06470087 0.22251663 -0.13679786 -0.04594204
000020 10 a1 1b bd 3e 66 17 be 55 6e 03 bd a4 1d 45 3e
       -0.037995398 -0.14785096 -0.032087643 0.19249588
000030 44 aa 04 3e be 3b f0 3d 35 aa f6 bd e0 80 60 3d
       0.12955576 0.11730145 -0.12044183 0.054810405
000040 24 34 be 3c c1 03 10 3e d1 55 15 3e 0a c6 9c 3d
       0.023218222 0.14063932 0.14583518 0.076549605
000050 91 6e 20 be 27 98 14 be ad 51 20 bd c2 73 aa 3e
       -0.15667178 -0.14511167 -0.039140392 0.3329144
000060 d3 54 ee bc 8a 0b ae 3d d0 dc 86 be f6 5a 26 3e
       -0.029093182 0.08498295 -0.26340342 0.16245636
000070 8f 3c 94 be 59 6e f2 bc 68 7e cb bc e9 c3 bc 3d
       -0.28952453 -0.029593633 -0.024840549 0.092170544
000080 7d 51 f6 3c 2e 45 0a be c1 f7 f7 bc c8 45 0a 3e
       0.030068154 -0.13502952 -0.030269505 0.13503182
000090 73 b4 02 3e ca d4 4d 3d 2e 0a c2 3d a7 7a 16 be
       0.12764148 0.05025176 0.09474598 -0.14695226
0000a0 b0 e4 36 bd 1d 8a 1d 3e 58 c7 8c 3d e2 98 61 3e
       -0.044651687 0.15384717 0.06873959 0.22030976
0000b0 7c 01 c3 3d d2 a1 97 be 00 a4 b5 bd 3b f3 05 3e
       0.095217675 -0.29615647 -0.08869171 0.13081066
0000c0 8c b9 24 be e5 64 0e 3e a5 88 7a 3c 18 c9 dd 3d
       -0.16086406 0.13905676 0.015291368 0.10829371
0000d0 7a 9e 51 3e 0f 70 a9 3d da ea 3a bd 19 f4 01 3e
       0.2047061 0.082733266 -0.04563413 0.12690772
0000e0 9f ef 8f 3e 32 67 3e be 21 c4 bb bd d5 79 69 be
       0.28112504 -0.18594053 -0.09168268 -0.22800381
0000f0 7c d3 93 be c4 45 70 3e e8 95 2a 3d 2e fe 59 bd
       -0.28872287 0.23464113 0.041646868 -0.05322092
000100 52 b6 99 bc de c6 92 bb 9c 54 0f 3e 58 29 a5 bb
       -0.018763695 -0.004479273 0.1399712 -0.005040329
000110 99 dc 8d 3d b1 a5 17 bc ac d6 89 3c b6 cb 0a bd
       0.06926841 -0.0092558125 0.016825996 -0.03388568
000120 03 41 14 be b5 ae 9f bd f6 87 26 bc 9b 71 c7 bb
       -0.14477925 -0.077969946 -0.010164252 -0.006086541
000130 80 44 a4 bc 90 ef a7 3d e6 f0 c3 bb 3f 89 e8 3d
       -0.020052195 0.0819999 -0.005979645 0.113543026
000140 f9 18 b1 bd a5 19 26 3e 16 0c 8a bd 8c 01 e3 3d
       -0.08647341 0.1622072 -0.067405865 0.110842794
000150 4c 73 9c 3c 43 3f b5 bd 5c 4d 31 bd c3 50 12 3e
       0.019097947 -0.08849957 -0.043286666 0.1428862
000160 ca 11 8b 3d cc 8d f9 3d 7a 0f 1e be d7 f0 ac bb
       0.06790502 0.12185249 -0.15435591 -0.005277734
000170 a8 79 7c 3d 0d 81 76 3d da 2f 1d bb 8c ca 0b 3e
       0.061639458 0.060181666 -0.002398482 0.13651484
000180 49 2d 9d 3d 5f 2f bb bd 71 68 6a 3d 7f be 88 3d
       0.07674653 -0.09139895 0.05722851 0.06676959
000190 39 29 96 3b 75 90 aa bd ce aa ae 3d 21 b4 88 bc
       0.004582551 -0.08328334 0.08528672 -0.016687455
0001a0 9c c1 8e 3b 6c ef ea 3b cc 44 b6 3d a4 5f 3f 3e
       0.004356576 0.0071696546 0.08899841 0.18688828
0001b0 27 aa ef 3d 5a 44 42 be 7c 56 dc bd 95 78 a9 bd
       0.11702376 -0.18971387 -0.10758683 -0.08274952
0001c0 23 5e 0d 3c 04 aa 9e 3d 0d ee a9 bd 13 a0 f6 bc
       0.008628401 0.07747272 -0.08297358 -0.030105626
0001d0 9b 84 26 bd 2a 21 9e bd 90 83 8c 3c 2d 68 f7 3d
       -0.040653806 -0.07721169 0.017152578 0.12080417
0001e0 0c ad 19 3e 13 60 e6 bc 14 34 02 bd 8c 32 ef bd
       0.15007418 -0.028121984 -0.031787947 -0.11679563
0001f0 4a a1 2a be 08 86 75 3d a1 95 18 3e 89 2a 9b 3b
       -0.1666309 0.059942275 0.14900829 0.004735295
000200 25 9b 77 be d0 c5 ec 3d 17 c0 0f 3e 5a 9a 93 bd
       -0.24180277 0.11561167 0.1403812 -0.072071746
000210 01 8a 20 3e bc 0e b2 3c 71 1a a2 3d 93 34 1d 3d
       0.15677644 0.021735542 0.079151995 0.038380217
000220 92 7c 79 3d 98 ad fe bd 3d 81 00 3e 5d 2f 35 3c
       0.060909815 -0.12435454 0.125493 0.011058656
000230 6d 68 a7 bd d6 fd 7f 3d 65 1b fa bd 89 84 c2 bd
       -0.081742145 0.062497936 -0.12212256 -0.09497935
000240 1b 7c 0e be 0a 8e d0 3b 2c ac af 3d f1 69 ed bb
       -0.1391453 0.0063645886 0.08577761 -0.007245295
000250 a6 af 48 bd 12 8d cf bd b8 a1 8b 3c 28 09 01 3e
       -0.048995636 -0.10134329 0.017044887 0.12601149
000260 d5 91 00 bd 87 36 d1 bc ae a0 3f be 76 e4 8c 3d
       -0.031389076 -0.025538696 -0.18713638 0.06879513
000270 57 c0 ab bd ce 1c 71 3d 9a cf 00 3e 69 48 40 bc
       -0.08386295 0.05886536 0.12579194 -0.011736014
000280 ee b4 9e 3d 4f 3a ab bd a5 1c 4a 3d 8c c1 5d 3c
       0.07749353 -0.08360731 0.049343724 0.013534915
000290 b0 af 82 3d b0 a3 9f 3c 86 10 02 bc 0d d1 b6 3c
       0.06381166 0.019487232 -0.00793851 0.02231648
0002a0 19 29 b5 bd ab 8b 28 3e 59 f0 1e 3c d6 11 84 3d
       -0.088457294 0.16459529 0.009700858 0.064487144
0002b0 da 9f 47 3e 54 59 4a be 6e 0a 5a bd 11 07 97 3d
       0.19494572 -0.19760638 -0.053232603 0.07374395
0002c0 ff a3 0f be 1a 31 16 3e f0 d7 fd bd c1 d6 dc 3c
       -0.14027403 0.14667168 -0.123947024 0.026957871
0002d0 82 3c 19 3e d8 e1 e3 3a f7 c3 a9 3b a1 6e 5d bc
       0.14964488 0.0017386032 0.0051808315 -0.0135151455
0002e0 81 cf ae 3d 76 30 0f be 77 fb 48 be 28 d5 e8 bd
       0.08535672 -0.1398333 -0.19627176 -0.11368781
0002f0 64 f5 c3 bd 65 b8 4e 3e 7c 29 b5 3d d7 c7 9e 3c
       -0.09568289 0.20187528 0.08845803 0.0193824
000300 fe af 3b 3b 48 04 02 3d 4e 66 9c 3d cc 60 73 bb
       0.0028638835 0.031742364 0.076367006 -0.0037136553
000310 eb 9b 9c 3c 34 fa 0c 3e f9 52 6f bc 24 25 a8 3b
       0.019117316 0.1376732 -0.014607185 0.0051313806
000320 72 25 29 bd 19 9f 9b bc cc 31 84 3d fe 1e ea 3d
       -0.041295476 -0.018996762 0.064548105 0.114316925
000330 e2 33 70 bc 7d 8c 1c 3c 27 ad 86 bd 5e 93 c6 bd
       -0.014660807 0.009554979 -0.06575995 -0.09696077
000340 c5 37 f7 bd a8 5b 55 3e 9d e5 dd bd 2a 17 01 3e
       -0.12071184 0.20835745 -0.10834811 0.12606493
000350 e3 5d fc 3d b4 77 29 3d b6 2f 1d be 86 16 1f bd
       0.12322595 0.041373923 -0.15350232 -0.03883984
000360 b4 88 8c 3d 98 c3 6d bd 8f 73 71 bd b4 1b cd 3d
       0.068620116 -0.05804786 -0.058948096 0.100150496
000370 a9 3d bb 3d 85 01 05 3c 8d 75 0d be 4d 22 46 bd
       0.0914262 0.008118038 -0.13814373 -0.048372556
000380 f5 b9 84 bc f6 95 25 bd c0 00 8f 3d b6 49 b3 bc
       -0.016201952 -0.040426217 0.06982565 -0.021885734
000390 79 06 1b 3e 0e 10 75 3c ba d1 a5 3d 8b 58 53 bd
       0.15139188 0.014957441 0.08096643 -0.051598113
0003a0 2e 1c bb 3d 64 6f db ba c6 33 8e bb 7f 1f 1b bd
       0.09136234 -0.0016741571 -0.004339668 -0.037871834
0003b0 86 b3 1a 3e b8 47 5e 3d 64 ce 26 be 97 94 a3 3d
       0.15107545 0.054267615 -0.1628967 0.07987326
0003c0 f5 c9 1a 3c e7 16 57 3e 03 53 c8 bd ff 25 6b bc
       0.009447564 0.2100483 -0.09781458 -0.014352321
0003d0 67 98 de 3c 4b 0f f7 bc 5f a2 ff bd fb 78 be bd
       0.02717228 -0.03015866 -0.12482142 -0.09300419
0003e0 9c 0e d4 bd db 04 b8 bd 2c 5a 28 be a6 93 11 bd
       -0.10354349 -0.08985301 -0.16440648 -0.0355412
0003f0 d2 a7 e7 bd 01 c3 e3 3d fa 39 74 3d e6 6a 92 bd
       -0.11311306 0.111211784 0.059625603 -0.071492955

lstm.weight_hh_l1 f4 [256, 64]
000000 fc d9 00 3e b8 9b e3 3c a7 97 fe bc d0 7d 49 bd
       0.12583154 0.027784213 -0.031078173 -0.04919225
000010 e5 24 45 3a a3 59 d8 bc fe 11 ef bd 3d 15 41 3d
       0.00075204513 -0.02640993 -0.116733536 0.047139395
000020 2c ec c2 3b 3b 3e 86 bd df 1c ef bb a1 87 9f bc
       0.005948564 -0.06554838 -0.007297143 -0.019473853
000030 d5 86 98 bd ba f1 b8 bd 9c d7 ad bd 6e ff 9b 3b
       -0.07447592 -0.09030481 -0.0848839 0.004760674
000040 e6 a2 99 3d 46 e6 b5 bd 04 44 13 be 02 aa b9 bd
       0.075017735 -0.08881812 -0.14381415 -0.090656295
000050 87 6b c6 3d 99 00 1a be 24 40 0f bd aa 93 b4 bd
       0.09688478 -0.1503929 -0.03497328 -0.08817227
000060 85 c2 11 bd 4c c3 e3 3c 62 21 ce bd e8 5e 8f bd
       -0.0355859 0.027803086 -0.10064961 -0.07000524
000070 95 ea fc 3d 42 89 e6 3d c4 fe ba bd d7 f8 94 3d
       0.123494305 0.112566486 -0.09130624 0.07274025
000080 5d 95 c8 3d fc 58 0a 3e d7 2b 53 3d 86 25 cd bd
       0.09794114 0.13510507 0.05155548 -0.10016923
000090 39 21 c5 bd c2 54 b9 bb 9e 9d 71 3d 09 5a 50 bd
       -0.09625477 -0.005655856 0.058988206 -0.050867114
0000a0 e6 e9 64 bd 74 ca 2b 3a de 80 b3 bd 86 b7 a3 3d
       -0.055887125 0.00065533 -0.08764814 0.07993989
0000b0 08 33 8c bd 6e d0 30 bd 42 50 a8 bd 9c 94 70 3d
       -0.06845671 -0.043167524 -0.08218433 0.058735475
0000c0 a3 ef b2 bd 52 e6 c9 bd 48 6f 49 bd b0 ec a2 bc
       -0.08737113 -0.09858383 -0.04917839 -0.019888252
0000d0 7d 4a 8a bd 54 8c 75 bd 20 4a 32 ba 8f 9f f8 bd
       -0.06752489 -0.05994828 -0.00068012066 -0.121398084
0000e0 2e b2 c0 3c fc b6 b1 bd 03 8b 17 3e bc d8 f9 bd
       0.023522463 -0.086774796 0.14799123 -0.12199542
0000f0 47 d5 b5 3d 97 9a 9f bd 5d c4 d3 bd b6 c1 75 3d
       0.0887857 -0.077931575 -0.10340188 0.05999919
000100 c5 c7 c9 bd 3a cd 89 bb a9 ec 4b 3e 85 dd dd 3d
       -0.09852556 -0.004205373 0.19914497 0.10833267
000110 b9 a9 8f 3d a9 63 24 3e 3d c6 2b be 67 58 9c 3d
       0.07014794 0.16053642 -0.1677484 0.07634049
000120 69 d6 50 3e 8f bf 1a 3e de 8d b0 3d 90 73 b4 bc
       0.20394291 0.15112136 0.08620809 -0.02202776
000130 9e f4 2a be 8d 8b aa 3b 33 f7 14 3e d2 5d 5a be
       -0.16694877 0.005204624 0.14547424 -0.21324852
000140 b9 d4 72 3d d7 16 9b bd ed ed cd 3d b8 d4 20 3e
       0.0592849 -0.07572716 0.10055146 0.15706146
000150 69 4b cb bb 91 82 03 be 66 14 ac 3d 2c 46 2d 3e
       -0.006204058 -0.12842776 0.08402328 0.169213
000160 61 13 ee 3c 96 fb d1 3d 08 7b 26 bd 87 0d 29 3e
       0.029061975 0.10253064 -0.040644675 0.16509067
000170 c4 96 27 3e 25 ac d2 3d 8a 9d 30 be 5d 69 4b be
       0.16366106 0.1028674 -0.17247596 -0.19864412
000180 60 6f 04 bb 69 c0 98 3d 40 35 7c 3b 07 c9 21 3e
       -0.0020207986 0.07458574 0.0038483888 0.15799342
000190 0a 99 8e 3b 9c a6 45 3e 0e f6 4f 3d 60 1d 33 bd
       0.00435174 0.19301838 0.050771765 -0.043729186
0001a0 e4 88 4f be fb f9 1f 3e 30 53 0d bd 32 4b 41 3c
       -0.20267063 0.15622704 -0.034503162 0.011797713
0001b0 23 ce 23 3e 7c b9 f9 bd 11 08 33 be 21 de c5 3d
       0.15996604 -0.121935815 -0.17483546 0.09661508
0001c0 da 09 23 be 03 1c ac bc 99 10 ec bd b3 e8 4f bb
       -0.15921727 -0.02100945 -0.11526603 -0.0031724393
0001d0 4c 8d 3c 3e be 20 ce 3d 53 69 3a 3d 5e 10 cb bd
       0.18413275 0.10064839 0.0455106 -0.09915231
0001e0 6d 41 c1 bd 66 e5 f4 bd f9 24 54 bd c7 f7 31 be
       -0.09436307 -0.11957817 -0.051793072 -0.17379676
0001f0 d7 d0 e0 3d 2f 1c b1 bb 7f d8 d6 3d f1 69 11 3e
       0.10977333 -0.005404971 0.10490512 0.1420057
000200 06 7b 14 bd da 82 f1 bd aa 55 10 bc f1 6e f1 3d
       -0.036250137 -0.11792536 -0.008809486 0.117887385
000210 50 19 0f be 3d bb 46 3d d5 ce ba 3d 17 29 c0 3d
       -0.139745 0.048518408 0.09121481 0.09382837
000220 7a 3e 80 3d 06 3f 1e 3e 74 14 94 3c 14 bd 9d 3c
       0.062619165 0.15453729 0.018076159 0.019255199
000230 86 97 c2 3d 2d e8 bf 3c 72 e1 e5 bc 17 cb c0 bc
       0.09501557 0.02342614 -0.028061602 -0.02353434
000240 e2 95 04 3e 43 dc aa bd ba ec 96 b9 41 44 fb 3d
       0.12947801 -0.08342793 -0.00028786605 0.12268878
000250 00 12 51 bc 24 8f 02 be 33 82 0f 3e dd 15 28 bd
       -0.012760639 -0.12749916 0.14014511 -0.041036475
000260 46 48 e2 3d f4 b8 19 3e 8f fc 43 3d ce 70 2d bd
       0.11048941 0.1501196 0.04784828 -0.042343907
000270 3d c3 a6 3d f1 8f a9 3c 20 b3 fe bd e5 a5 b5 bc
       0.081427075 0.02069852 -0.12436509 -0.022173831
000280 f7 00 d3 3d ff cb c5 3c a7 aa ac bd b4 aa 82 3d
       0.103029184 0.024145124 -0.08430987 0.06380215
000290 49 48 00 3e 7f b3 86 3c fd 32 18 3e d6 27 fc bd
       0.12527575 0.016443012 0.148632 -0.123122856
0002a0 51 a4 2e be cc 8d 37 3e 9e 06 1a bd ab 7d 48 3a
       -0.17054869 0.17925185 -0.037603967 0.00076481205
0002b0 1d ff 64 3d b8 a9 09 bd 92 b0 9e bd ce bd b7 bd
       0.055907357 -0.033609122 -0.07748522 -0.08971749
0002c0 5b 1d ad bc 7e 0d 37 bd b9 ba ef 3d e0 c7 5c bd
       -0.021132162 -0.0446906 0.117055364 -0.053901553
0002d0 4e 12 d2 3c 00 03 1c 3d a9 eb 8f bb f8 db 4b bc
       0.025643494 0.0380888 -0.0043921066 -0.012442581
0002e0 f7 23 fd 3d 72 d7 d9 3c 0f c4 d0 3c f1 ea 43 bd
       0.123603754 0.02659199 0.025484113 -0.04783148
0002f0 78 6d 5d bd 17 eb 40 3d a5 fd e2 3d d8 6b 5b bd
       -0.054059476 0.0470992 0.11083535 -0.053569645
000300 39 d8 87 3d 64 78 4a bd 0d ae 0b 3d 7a 2c 8f bd
       0.06633038 -0.04943122 0.034101535 -0.06990905
000310 13 cc 21 bd 87 bf e8 3d d8 4c 42 3d 98 5e ad 3d
       -0.03950126 0.11364656 0.047436565 0.08465308
000320 0a ab 00 3e 4d 94 86 3d fc 1c b4 b8 76 ac d2 bd
       0.12565246 0.06571255 -8.5884676e-05 -0.102868006
000330 9c 28 8f bc 66 bc ad bd 27 b6 0b 3d a4 84 dc 3d
       -0.017475419 -0.084832 0.03410926 0.10767487
000340 c5 a7 11 bd 09 9a 73 bd d5 25 fc bc 52 f8 db 3d
       -0.035560388 -0.05947307 -0.030779758 0.10740723
000350 f4 4e 90 bd 5b 9d 03 be 5d 5c 94 bd 2b 86 61 bd
       -0.07046309 -0.12852995 -0.072441794 -0.055059593
000360 8e 4a ad bd f4 70 57 3c 0b ee 32 bc be f6 e8 39
       -0.08461486 0.013149489 -0.010921012 0.00044434326
000370 a5 f2 ab 3d d6 f9 4f bd a5 11 62 bd 35 6f a8 3d
       0.0839589 -0.05077537 -0.05519261 0.08224336
000380 d2 0e 17 bd 6b eb 67 3d b6 93 42 bd 0c 28 97 bd
       -0.036879368 0.056620996 -0.04750415 -0.07380685
000390 6d 17 fa 3c fb 26 91 3d 97 3c 0b 3d 15 c8 24 3c
       0.030528748 0.07087513 0.03399333 0.010057469
0003a0 34 1c dd bd 66 47 8b bd 70 16 60 3d 36 6f 51 3d
       -0.10796395 -0.068007275 0.054708898 0.05113145
0003b0 34 37 b8 3d ed a7 a3 3b 13 dc 7a 3d e5 07 1d 3d
       0.08994904 0.0049943835 0.061245035 0.038337607
0003c0 ca a7 0f bd a8 c6 71 bd 1a 32 b3 bd bb 2f 91 bd
       -0.035072125 -0.059027344 -0.087497905 -0.07089182
0003d0 a5 6b 82 3d f9 7a 40 3d 8d ff 18 bd 7d a4 5a 3c
       0.06368188 0.046992276 -0.037353087 0.013344881
0003e0 c5 cb e2 3c 14 37 83 bd 14 17 ae bc 47 fc c4 bc
       0.027685056 -0.0640699 -0.021251239 -0.024046076
0003f0 0b 43 52 3d ec a8 b8 3d b8 61 93 bd 70 2a a5 bd
       0.05133347 0.09016594 -0.07196373 -0.08064735

lstm.bias_ih_l1 f4 [256]
000000 ee 3c 9b 3c 27 7f 99 be e5 03 8c 3d 1c f8 27 3e
       0.018949952 -0.29979822 0.0683668 0.1640324
000010 26 b9 93 bd b9 20 be 3d ad 51 b2 bc c6 81 42 bf
       -0.07213049 0.09283585 -0.021767462 -0.7597927
000020 65 45 0d 3a 46 fe 81 3e 8a 6f 34 3d 3e 5c ac b9
       0.0005389064 0.25389308 0.044051684 -0.00032875122
000030 52 e8 f6 bd a3 b9 ae 3d 56 13 73 bd 45 ad c3 3d
       -0.1205603 0.08531501 -0.059344612 0.09554533
000040 b8 ac 59 3e 6e bf 16 be 7d 7f a2 bd 8c fc 99 3e
       0.21257293 -0.14721462 -0.07934473 0.3007549
000050 31 e5 aa be 2a 73 52 3e 2d 5d 38 3d 1d 81 8f 3e
       -0.33377984 0.20551744 0.045010734 0.28028193
000060 81 38 ec be e0 1b a7 3c d6 4c 86 3d cb e2 00 be
       -0.4613686 0.020399034 0.06557624 -0.12586515
000070 41 82 88 3c fb 2e 49 bf a7 ee 8f bd 2c 8e d9 bc
       0.016663672 -0.7858731 -0.07027941 -0.02655705
000080 04 db 29 be 1c 02 3e 3d 6f d5 82 bd c0 ab 1e bd
       -0.16587454 0.04638873 -0.063883655 -0.038738012
000090 92 37 e9 bd 87 5b 98 bd d5 d5 2e 3e a8 67 d9 bd
       -0.11387552 -0.074393325 0.17073758 -0.10615474
0000a0 5f d5 9c 3e 7e 8e a0 be 35 93 72 3d fa 29 ed 3d
       0.3063154 -0.31358713 0.05922242 0.11580272
0000b0 0e 2d 1f bb c3 16 7c be 93 8f bb 3e f7 c3 35 3e
       -0.002428833 -0.24618058 0.36632976 0.17750536
0000c0 09 43 84 3e 05 b1 9f be 89 92 5b bf 92 f3 19 bf
       0.25832394 -0.31189743 -0.8577047 -0.60137284
0000d0 9e 73 68 bd cf 7d 83 bd 83 6c 56 bf bb 76 86 3d
       -0.056750886 -0.064204805 -0.83759326 0.06565615
0000e0 7a 38 60 3e 8e 9f 00 bf 54 76 0b bf 4f 2e 1a 3e
       0.21896544 -0.5024346 -0.5447743 0.15056728
0000f0 04 8f aa bd 5d 4b 15 bc 9f da 0a 3e 20 be 6d 3c
       -0.08328059 -0.009112206 0.1355996 0.014510661
000100 ec a2 08 be 1b 86 28 be 06 e3 26 3c a7 3e 8d 3d
       -0.133434 -0.16457407 0.010185963 0.068967156
000110 81 72 86 3d 05 4a 10 bd 40 c9 96 bd 17 3e 0e bf
       0.06564809 -0.03522684 -0.07362604 -0.5556349
000120 a9 69 da bd 5b ab c0 bd c2 a9 df bb fd b7 1a be
       -0.10664684 -0.094076835 -0.0068256566 -0.15109248
000130 39 9e 87 be f2 4c dc 3d 22 52 2a be ff 5d 07 be
       -0.26487902 0.10756864 -0.16632894 -0.1321945
000140 ce 54 1a be e4 19 80 bc 52 10 09 bd 60 40 c9 3d
       -0.15071413 -0.015637346 -0.03346283 0.09826732
000150 f2 2a ba be c5 de 9c 3b 98 21 9c bd 6e d5 12 be
       -0.3636089 0.0047872984 -0.07623595 -0.1433923
000160 1c a8 fb be d0 94 ba bd 93 8d bb bd b1 3d e4 3c
       -0.49151695 -0.09110415 -0.091578625 0.027861448
000170 ea 58 be 3d 6e 77 42 bf d2 9f f7 3d 1a 24 0f be
       0.09294303 -0.75963485 0.1209103 -0.13978615
000180 db 1f da bd 08 f1 d1 3c 30 ac 00 be 0a fb 7a bd
       -0.10650607 0.025627628 -0.12565684 -0.061274566
000190 f1 1d a1 bd 05 e8 28 be c6 b8 9d 3d ad 12 6f 3d
       -0.07867039 -0.16494758 0.07701258 0.05836742
0001a0 6a bb 12 3e 3a d9 b6 be fb b9 cb bd 05 8d 23 bd
       0.14329305 -0.35712606 -0.09947582 -0.03992941
0001b0 6d dd 06 bd 94 db 8b be 96 90 ff 3d a0 e0 4d 3d
       -0.03292601 -0.27315962 0.124787495 0.050263047
0001c0 5c e6 ce 3d 87 a0 32 be bd 53 3b bf 9b 15 3a bf
       0.10102531 -0.17444049 -0.7317465 -0.7268922
0001d0 e5 b0 f9 3c 27 92 c3 bd 15 89 36 bf eb 92 55 3c
       0.030479858 -0.09549361 -0.7130292 0.013035516
0001e0 76 aa 25 bd 6f 62 e6 be 3a 60 25 bf 81 32 a8 bd
       -0.040445767 -0.44996974 -0.64599955 -0.08212758
0001f0 42 5d 91 3d 5e 94 53 3b bb 02 c8 3d e3 64 a3 bd
       0.07097866 0.0032284479 0.09766146 -0.07978227
000200 06 39 4a 3d 18 39 9b bd d1 80 ae bd 15 c2 d5 bc
       0.049370788 -0.07579249 -0.085206635 -0.026093522
000210 76 96 95 3b ba a1 12 be ea 17 63 3d 53 63 53 3d
       0.0045650555 -0.14319506 0.055442728 0.051608395
000220 f7 92 ec bd 6c 65 58 3c 4b 93 6d 3d a2 88 1b bc
       -0.11551469 0.013207775 0.058001798 -0.009493025
000230 78 e8 7a bc bb 70 bd 3d fa 80 4d bd 2e c7 24 3d
       -0.015314214 0.09250017 -0.05017183 0.040229015
000240 d7 da df bd fe 6d b4 3d e1 40 ac bd 22 fa 9a 3c
       -0.10930412 0.08810042 -0.08410812 0.0189181
000250 8e d0 6d 3d d2 34 61 bd f7 2e f4 3a 4f 7e b0 bc
       0.05806022 -0.054982014 0.0018629719 -0.021544604
000260 0a 06 80 3d e2 d0 d4 ba dd 97 f9 bb f5 ed ae bd
       0.06251152 -0.0016236568 -0.0076169805 -0.085414805
000270 a9 d1 45 3d b3 c6 8c bc b5 29 70 bd 58 c9 b5 3c
       0.04829565 -0.01718459 -0.058633525 0.022190735
000280 39 d0 bf 3c 0f 63 ce bc 4e 1d d3 3b 48 1c 63 bd
       0.023414718 -0.02519372 0.0064427024 -0.055446893
000290 cc 6d 71 bd 9a 1f 41 bd a3 e8 85 3d 04 f2 03 bd
       -0.0589426 -0.04714928 0.065385126 -0.032213226
0002a0 1a 44 4e bd 9e c7 d4 bd a5 44 3a 3e 2e 7c 58 bd
       -0.050357915 -0.103896365 0.18190248 -0.052852802
0002b0 b5 11 79 bb 27 68 6d bd ff f9 91 3d aa 84 13 3d
       -0.003800494 -0.057960656 0.07127761 0.03601519
0002c0 c4 8d 04 3c 31 66 0a bc dc a1 83 bc ae 75 a5 3b
       0.00809044 -0.008447216 -0.016068392 0.005049429
0002d0 6f 4c 55 bd 40 53 e1 3c 60 fa 45 bd be 5d 21 3e
       -0.052074846 0.027505517 -0.04833448 0.15758416
0002e0 59 71 97 3d 86 ed 71 3d 56 cf 96 3d 46 e8 e0 3d
       0.07394666 0.05906441 0.07363765 0.10981803
0002f0 ea 37 b7 bd 2f 7c 88 bd 6e 7d 71 bd 11 c1 c3 bb
       -0.08946212 -0.06664311 -0.05895751 -0.005973943
000300 5a 4b 8f 3d 41 95 92 be 3c d9 0e be ca a5 cc 3d
       0.06996794 -0.28629497 -0.13950056 0.09992559
000310 26 85 b9 bd df 7e 7b 3d e6 a4 91 bb cf bf 26 bf
       -0.09058599 0.06140029 -0.0044447063 -0.65136427
000320 2a b3 eb bd 4e 76 58 3e dc e8 14 bc 09 18 09 be
       -0.11508782 0.2113888 -0.009088721 -0.13388075
000330 b5 ed 9e be f1 d6 7f bd 0f 8b ae 3d d9 2a 28 bd
       -0.3104073 -0.062460843 0.08522617 -0.041056488
000340 db 8a d3 3d d5 ec f9 bd 27 d2 91 3d 1c e7 4b 3e
       0.10329219 -0.12203375 0.071201615 0.1991238
000350 33 10 1d be e2 7d 49 3e 9e cd 96 3d bb a1 1b 3e
       -0.15338211 0.19676927 0.07363437 0.15198414
000360 5d c9 d2 be 60 4e c5 3d ba 4b 27 bd 1a 1b c3 bd
       -0.41169253 0.096340895 -0.040843703 -0.095266536
000370 aa e4 b9 3d b7 1d 3d bf 1a 39 c9 3d b0 63 bb 3d
       0.09076817 -0.73873466 0.098253444 0.09149873
000380 bf 9e 04 be 5d f2 96 3d 07 fe bd bd 1c 94 c8 3c
       -0.12951182 0.07370446 -0.092769675 0.024484687
000390 d3 22 42 bd 32 71 b4 bc d8 1b 90 3d e1 a2 15 be
       -0.047396492 -0.022026632 0.07036561 -0.14612915
0003a0 05 94 c0 3e 3c 76 f7 be 03 b3 41 bd 5a e1 bc bc
       0.3761293 -0.48332393 -0.04728986 -0.023056675
0003b0 eb fa af bc 95 ef a7 be ff c5 e0 3d 68 bb 42 3e
       -0.021481952 -0.32799974 0.10975265 0.19016802
0003c0 1a 35 0c 3e d5 83 9a be 5c fc 4d bf 98 32 26 bf
       0.13692132 -0.30178705 -0.80463195 -0.6492095
0003d0 e7 02 dd bd 0b a9 42 3d e5 34 48 bf 39 16 5b 3e
       -0.10791569 0.047524493 -0.7820571 0.21395196
0003e0 83 78 1c 3e 94 3b da be f3 83 d6 be f0 45 6f bd
       0.15280347 -0.4262358 -0.41897544 -0.058416307
0003f0 ba 64 3d 3d 6e bc f0 3d a5 5b 06 3e e7 ec 8e bd
       0.04623864 0.1175469 0.13120897 -0.06978779
