data/models/aave_lstm_d.pth (torch, 215813 bytes, 10 tensors)

lstm.weight_ih_l0 f4 [256, 10]
-0.06909195 -0.074076325 -0.04403717 -0.09772206 -0.011169351 0.05538213 -0.0970156 -0.09723963
0.05608996 0.08819181 0.04514408 -0.06906886 0.0954949 0.037933998 -0.01660951 0.018261343
-0.1864656 -0.19062066 -0.1222653 0.040597044 0.0850803 -0.047659658 0.07207608 -0.029398859
0.080507755 0.12949547 0.06967251 -0.13776435 0.10227417 0.0075429208 0.02291914 0.08372497
0.09038547 -0.011809593 -0.13087131 0.031617526 0.03041258 0.0828795 0.08183741 -0.08792837
0.05680138 0.075361304 0.04689704 0.099544115 0.046575893 -0.0017747738 -0.0016081088 0.080061235
0.03660079 0.10701163 -0.009545151 0.12164946 -0.10583557 -0.06063432 0.08686635 0.12001472
0.11486928 0.039242197 0.09300886 0.11400216 -0.024192188 -0.075952135 0.046191793 0.04298826
-0.1268986 0.098605774 0.07633782 -0.082892224 0.090820156 -0.062417757 0.109726235 -0.032541044
0.11841994 -0.053526778 0.020249402 0.068802655 0.18378925 -0.007710527 0.17637222 0.2246939
-0.029423855 0.013523096 0.0746339 -0.03963401 -0.054617003 -0.16428941 -0.06564462 0.02951053
0.002683247 0.03465514 -0.12653458 -0.10696338 0.103658915 -0.025377559 -0.06923804 0.06542799
-0.009628967 -0.1508116 0.103007734 0.13281715 -0.03584906 -0.21211043 -0.17784332 -0.16696358
0.053672574 -0.04650238 0.17825583 0.0018781549 -0.011464235 -0.0700114 0.088679865 -0.10929924
-0.02785133 0.08526715 -0.07555947 0.06658917 0.06410648 0.08769977 0.07598342 -0.03019335
-0.07969841 0.082176976 -0.13777867 -0.06517116 0.107533395 0.13654445 -0.10665139 0.06207732
-0.03684805 -0.056350857 -0.021928716 -0.022213155 -0.07394557 -0.0361581 -0.10279264 -0.0082096
0.035711974 -0.06785222 0.11055297 -0.020014495 0.08838325 0.09927755 -0.04769175 0.09517358
0.10262337 0.095159315 -0.113166794 -0.043782488 -0.029056625 -0.08124788 0.0059723835 -0.16712108
-0.18827596 -0.19002551 -0.08127473 -0.077384144 0.033846486 0.14280225 -0.04408043 -0.03325885
0.08848903 0.03272717 0.024626696 0.09537768 -7.3573145e-05 0.029410703 0.13401037 0.08443222
-0.044708263 -0.046778787 -0.06696999 0.0050550583 0.09723739 -0.0016985016 0.1712572 0.12936793
-0.19192047 -0.10883805 -0.041017346 -0.18703844 0.03166162 -0.03696034 -0.058273163 0.09874279
0.04750515 0.007157556 0.06508603 -0.15251164 0.03735822 0.025249397 0.036010966 0.008136286
-0.098719195 -0.02987629 0.05902258 -0.023336127 0.15254952 -0.041764848 -0.14423889 0.063391335
-0.15041588 -0.033130288 0.023529066 -0.09187416 0.07038929 0.10689037 0.07024265 0.032592498
-0.094711505 -0.012911811 0.10759703 0.03809747 0.082912356 0.09038018 -0.034893412 -0.05123405
0.05684785 0.01940818 -0.014842832 -0.023593515 0.010859802 -0.018394662 0.096329555 -0.075627826
-0.023774607 -0.04881816 -0.021393131 0.051733013 -0.032370552 0.11439613 -0.07439512 0.008613802
-0.10418704 -0.03511186 -0.008263816 -0.13421872 0.12153502 -0.0808943 0.012523912 0.056569897
-0.10570979 0.04816656 -0.00743177 0.05584569 0.09488483 0.10734363 -0.16232881 -0.09351304
-0.021866484 -0.1302986 -0.087451674 -0.08172647 0.03839216 -0.10066132 0.11100844 -0.014046882
00000000: 1580 8dbd 54b5 97bd 5260 34bd 8122 c8bd
00000010: a7ff 36bc 5fd8 623d 1db0 c6bd 9225 c7bd
00000020: 96be 653d e89d b43d 00e9 383d f973 8dbd
00000030: d592 c33d ae60 1b3d ab10 88bc d098 953c
00000040: d7f0 3ebe 1032 43be 3b66 fabd 1649 263d
00000050: 953e ae3d c636 43bd a09c 933d e0d5 f0bc
00000060: 40e1 a43d 769a 043e 76b0 8e3d 1912 0dbe
00000070: 1f75 d13d 9b2a f73b ecc0 bb3c ff77 ab3d
00000080: 041c b93d 067d 41bc 2103 06be 6181 013d
00000090: ce23 f93c babc a93d 5f9a a73d ca13 b4bd
000000a0: 90a8 683d 0757 9a3d 1c17 403d c9dd cb3d
000000b0: 5dc6 3e3d 879f e8ba 2dc7 d2ba 25f7 a33d
000000c0: b6ea 153d ea28 db3d 4463 1cbc 5a23 f93d
000000d0: 52c0 d8bd b15b 78bd fce6 b13d 47ca f53d
000000e0: 9640 eb3d 6dbc 203d 6e7b be3d f779 e93d
000000f0: b22e c6bc cb8c 9bbd 9b33 3d3d 7514 303d
00000100: b5f1 01be d3f1 c93d 0157 9c3d 66c3 a9bd
00000110: ebff b93d c3a9 7fbd 26b8 e03d c249 05bd
00000120: 2786 f23d e53e 5bbd 13e2 a53c 68e8 8c3d
00000130: 4033 3c3e 97a8 fcbb eb9a 343e 2816 663e
00000140: 4c0a f1bc fa8f 5d3c a8d9 983d 4657 22bd
00000150: 14b6 5fbd 7c3b 28be b070 86bd 11c0 f13c
00000160: 6ad9 2f3b 8cf2 0d3d 4892 01be 9e0f dbbd
00000170: 204b d43d 99e4 cfbc accc 8dbd 1cff 853d
00000180: d1c2 1dbc 5b6e 1abe b8f5 d23d 3801 083e
00000190: 77d6 12bd 7a33 59be 8f1c 36be 80f8 2abe
000001a0: c6d7 5b3d 4879 3ebd b288 363e 6c2c f63a
000001b0: 7dd4 3bbc 2362 8fbd ca9d b53d 48d8 dfbd
000001c0: 7928 e4bc 8ba0 ae3d ecbe 9abd e75f 883d
000001d0: 424a 833d f09b b33d 329d 9b3d 0b58 f7bc
000001e0: ec38 a3bd 674c a83d da15 0dbe 7578 85bd
000001f0: 783a dc3d 4fd2 0b3e 0b6c dabd ca44 7e3d
00000200: fbed 16bd 28d0 66bd daa3 b3bc 5df8 b5bc
00000210: c670 97bd 841a 14bd f384 d2bd 8f81 06bc
00000220: b846 123d 1bf6 8abd 9869 e23d 70f5 a3bc
00000230: 4702 b53d 0752 cb3d 6d58 43bd 5eea c23d
00000240: 342c d23d e3e2 c23d fec3 e7bd 4455 33bd
00000250: 2908 eebc 4a65 a6bd fcb3 c33b ca21 2bbe
00000260: 6acb 40be 0c96 42be 5e73 a6bd 947b 9ebd
00000270: 9da2 0a3d c13a 123e ae8d 34bd 6f3a 08bd
00000280: bd39 b53d ed0c 063d edbd c93c 6055 c33d
00000290: 484b 9ab8 b7ee f03c 043a 093e cdea ac3d
000002a0: 0320 37bd 1d9b 3fbd 9027 89bd e7a4 a53b
000002b0: 6624 c73d 42a0 deba 0c5e 2f3e 0779 043e
000002c0: cd86 44be 7ce6 debd ce01 28bd 0187 3fbe
000002d0: 9daf 013d ba63 17bd d7af 6ebd a939 ca3d
000002e0: c394 423d ee89 ea3b d34b 853d 032c 1cbe
000002f0: ef04 193d d3d7 ce3c 3c80 133d 0f4e 053c
00000300: 4a2d cabd 1fbf f4bc a9c1 713d 682b bfbc
00000310: f135 1c3e 9e11 2bbd 5cb3 13be 51d3 813d
00000320: 9f06 1abe a0b3 07bd 07c0 c03c 8528 bcbd
00000330: 4328 903d 57e9 da3d 61db 8f3d b67f 053d
00000340: 1bf8 c1bd 0f8c 53bc d55b dc3d 180c 1c3d
00000350: f4cd a93d 3e19 b93d 65ec 0ebd ccda 51bd
00000360: 4bd9 683d e7fd 9e3c 5a2f 73bc 3047 c1bc
00000370: 50ed 313c 67b0 96bc 6e48 c53d c3e2 9abd
00000380: f7c2 c2bc 8df5 47bd a640 afbc ffe5 533d
00000390: fc96 04bd 8548 ea3d 785c 98bd e720 0d3c
000003a0: 0460 d5bd 74d1 0fbd f564 07bc a270 09be
000003b0: 5ae7 f83d e9ab a5bd 1831 4d3c d6b5 673d
000003c0: 607e d8bd 4c4a 453d 3586 f3bb 73be 643d
000003d0: fa52 c23d fad6 db3d 8639 26be c483 bfbd
000003e0: 5721 b3bc ff6c 05be dd19 b3bd 3560 a7bd
000003f0: 1941 1d3d 8627 cebd 6558 e33d e524 66bc

lstm.weight_hh_l0 f4 [256, 64]
-0.07111954 -0.007818869 -0.111109376 -0.029618135 -0.061462123 0.09641526 0.05029439 -0.08537462
0.071024664 0.04861374 -0.10336933 -0.082538076 -0.031002667 0.0008760441 -0.10424284 -0.11478702
0.037093673 -0.017598534 -0.037032746 0.13314267 -0.12556806 0.023592932 0.04299566 0.09951541
-0.048760228 0.019368341 -0.016504748 0.010816119 -0.11763194 -0.034984093 -0.004079006 0.008388853
-0.047654703 0.06699713 -0.13561201 -0.033376366 0.013433051 -0.09613261 -0.021931384 0.0068514077
-0.059339978 0.018725783 -0.10999249 0.057203427 -0.10048939 0.038724165 -0.08486838 0.0831575
-0.008247156 -0.09986548 0.06925787 0.04142898 -0.013024203 0.09305075 -0.0733141 0.07710278
0.09374372 0.045121666 -0.13202855 -0.09857706 -0.02584565 -0.013026977 0.016837696 -0.059860982
-0.021661269 -0.045136932 -0.037910316 0.035989758 0.07632367 -0.12791416 -0.019215316 0.14858209
-0.01976402 -0.08954781 -0.16670556 0.08050306 0.11415904 -0.02765565 -0.019209104 0.05127659
0.05124274 0.062194183 -0.099691495 -0.107879385 -0.013216115 0.09621525 0.026491348 0.011674655
-0.14516747 0.020401765 0.013185535 -0.11098108 0.06980619 -0.0021046805 -0.09225385 0.009756408
-0.04346554 0.108501166 0.04235054 0.107620165 -0.121556684 -0.09503108 0.0546212 -0.083542176
0.020577358 -0.048792318 0.042801525 -0.112317346 -0.051511258 -0.041582543 -0.03004549 -0.01542139
0.062019803 0.024192696 -0.02561411 -0.10444482 -0.017899318 -0.028896686 -0.099461734 -0.08144708
-0.022836419 -0.09051358 0.027808059 -0.08192859 -0.0922247 0.09026414 -0.12449227 0.08804736
0.08707948 -0.006528237 -0.06077191 0.013760223 0.017716926 0.098841764 -0.03238474 -0.08391724
-0.052736893 0.10416989 -0.06236083 -0.14504099 0.10095272 -0.10579347 -0.08981368 0.015741767
-0.09203836 -0.09453687 0.032676473 -0.05144885 -0.04637192 -0.04879755 -0.007653121 -0.09623986
-0.090136886 -0.025399411 0.02349719 0.00343198 -0.12865733 -0.0859098 0.07220573 0.08965348
0.051355466 0.04230361 -0.019905753 -0.099379435 -0.04267833 -0.0072544036 -0.13139375 0.049154684
0.07714967 -0.057707857 -0.006832646 0.0023777161 -0.05705895 0.0066129933 0.027577365 -0.0033285106
-0.035442673 -0.047328066 0.055843025 0.049770683 -0.056350496 -0.08240981 0.027013084 0.0785979
0.07128159 -0.0056454088 -0.083028 -0.0129299415 0.0012571316 0.0043849396 0.10178826 0.040927652
0.046612658 -0.03730091 0.08645481 -0.12428743 -0.020825801 -0.09958379 0.061100915 0.01530312
0.108360626 0.016525753 0.09092506 0.05641618 0.06649646 0.07444224 0.10561344 -0.06704803
-0.13016105 -0.03142212 0.08522529 -0.046827752 0.0018524753 -0.0943265 -0.02562387 -0.08521447
0.1322758 0.12140455 0.0019493847 7.40619e-05 -0.034249045 0.08781527 0.09961275 -0.06635229
0.111532055 0.057179302 -0.024208762 0.007421794 -0.041461132 0.024025956 -0.11266154 -0.105630346
-0.11571529 0.0025086554 -0.068334036 0.07585872 -0.010677677 0.11984956 0.069463834 0.1232458
0.03279534 0.12087103 -0.042601597 -0.039291527 -0.070044085 0.048927788 0.011441501 -0.09771627
0.114440985 0.11820722 -0.02340536 -0.11780888 -0.09629191 -0.12871578 0.11306153 0.030980144
00000000: 1fa7 91bd b71a 00bc 508d e3bd bba1 f2bc
00000010: b5bf 7bbd 5d75 c53d 7e01 4e3d e4d8 aebd
00000020: 6175 913d 331f 473d 4db3 d3bd b909 a9bd
00000030: 4ef9 fdbc 53a6 653a 457d d5bd 7515 ebbd
00000040: 89ef 173d cd2a 90bc a6af 17bd 8d56 083e
00000050: ea94 00be f745 c13c 381c 303d bcce cb3d
00000060: ceb8 47bd 5baa 9e3c f734 87bc 1736 313c
00000070: 04e9 f0bd 7b4b 0fbd 2fa9 85bb 6671 093c
00000080: 9431 43bd cb35 893d e0dd 0abe a8b5 08bd
00000090: 4d16 5c3c 2de1 c4bd 72a9 b3bc c681 e03b
000000a0: 7a0e 73bd d066 993c be43 e1bd 244e 6a3d
000000b0: 62cd cdbd 3b9d 1e3d 79cf adbd 7b4e aa3d
000000c0: 141f 07bc 4686 ccbd 12d7 8d3d 6fb1 293d
000000d0: 7763 55bc 6491 be3d b425 96bd 10e8 9d3d
000000e0: b5fc bf3d 7fd1 383d 7e32 07be c5e2 c9bd
000000f0: 42ba d3bc 1a6f 55bc 35ef 893c ca30 75bd
00000100: f972 b1bc 81e1 38bd d947 1bbd ff69 133d
00000110: 964f 9c3d eefb 02be 7069 9dbc e725 183e
00000120: 27e8 a1bc d864 b7bd ddb4 2abe cade a43d
00000130: 37cc e93d 1a8e e2bc 695c 9dbc 6707 523d
00000140: e8e3 513d 54bf 7e3d 0e2b ccbd deef dcbd
00000150: 6788 58bc 800c c53d 6204 d93c 0d47 3f3c
00000160: c8a6 14be 9a21 a73c 2408 583c 0c4a e3bd
00000170: 8cf6 8e3d aeee 09bb 96ef bcbd 57d9 1f3c
00000180: ec08 32bd dc35 de3d c377 2d3d f667 dc3d
00000190: b6f2 f8bd a89f c2bd 7bba 5f3d 2918 abbd
000001a0: d991 a83c 74da 47bd a750 2f3d a306 e6bd
000001b0: 78fd 52bd 7552 2abd f621 f6bc ffa9 7cbc
000001c0: 7a08 7e3d c32f c63c afd4 d1bc 2ae7 d5bd
000001d0: 97a1 92bc beb8 ecbc 98b2 cbbd bacd a6bd
000001e0: 7113 bbbc 2f5f b9bd bacd e33c 2dca a7bd
000001f0: 4ee0 bcbd 68dc b83d cef5 febd 2d52 b43d
00000200: ba56 b23d d2ea d5bb f7eb 78bd 8f72 613c
00000210: 1623 913c 8d6d ca3d dca5 04bd cddc abbd
00000220: a402 58bd 0657 d53d 126e 7fbd a085 14be
00000230: 4dc0 ce3d 3faa d8bd 3cf0 b7bd e1f4 803c
00000240: 9c7e bcbd 8c9c c1bd c4d7 053d 08bc 52bd
00000250: 7bf0 3dbd f1df 47bd 08c7 fabb 6719 c5bd
00000260: b099 b8bd 6d12 d0bc 2e7d c03c 12eb 603b
00000270: bfbe 03be 7af1 afbd 99e0 933d 3e9c b73d
00000280: 1c5a 523d 8d46 2d3d 6411 a3bc 7287 cbbd
00000290: 79cf 2ebd 59b6 edbb 158c 06be 6c56 493d
000002a0: a500 9e3d 135f 6cbd 64e4 dfbb 75d3 1b3b
000002b0: a5b6 69bd cfb1 d83b ede9 e13c 2423 5abb
000002c0: 562c 11bd 13db 41bd a8bb 643d 58dc 4b3d
000002d0: c7cf 66bd 79c6 a8bd 8b4a dd3c f0f7 a03d
000002e0: 15fc 913d 1ffd b8bb 960a aabd 1bd8 53bc
000002f0: 56c6 a43a 8aaf 8f3b 5d76 d03d c1a3 273d
00000300: eaec 3e3d d7c8 18bd 380f b13d 688a febd
00000310: df9a aabc 96f2 cbbd f444 7a3d f0b9 7a3c
00000320: 2dec dd3d 0461 873c eb36 ba3d a714 673d
00000330: 4c2f 883d 2c75 983d dc4b d83d 7a50 89bd
00000340: f048 05be 7bb4 00bd 998a ae3d 75ce 3fbd
00000350: c2ce f23a 412e c1bd 26e9 d1bc ed84 aebd
00000360: 4f73 073e f3a2 f83d 7f82 ff3a ae51 9b38
00000370: ba48 0cbd 7ed8 b33d c501 cc3d b6e3 87bd
00000380: eb6a e43d d834 6a3d 7451 c6bc 8532 f33b
00000390: 26d3 29bd 15d2 c43c 18bb e6bd b954 d8bd
000003a0: 23fc ecbd 4168 243b b7f2 8bbd d15b 9b3d
000003b0: 6cf1 2ebc b073 f53d 0e43 8e3d 4b68 fc3d
000003c0: 6854 063d 3b8b f73d 037f 2ebd 27f0 20bd
000003d0: 4673 8fbd 8168 483d 2275 3b3c 781f c8bd
000003e0: 0960 ea3d a116 f23d 99bc bfbc c845 f1bd
000003f0: b134 c5bd 12ce 03be ce8c e73d 12ca fd3c

lstm.bias_ih_l0 f4 [256]
-0.082837045 0.029885177 0.017358858 0.08056346 -0.061035965 0.0032922123 -0.07826245 0.045220926
0.1463792 -0.05226121 0.087055594 0.11363762 -0.010985679 0.0054381946 -0.0031453036 0.056713138
-0.07148984 0.08878429 -0.018973378 0.006116735 -0.0015677226 0.14519197 -0.101282984 0.072378635
0.014401802 0.06039814 0.10473171 0.013356699 0.12671827 0.047571916 -0.049175784 -0.045650322
-0.07727279 -0.0764523 0.08416287 -0.11673175 0.04197071 0.07922583 0.033002425 0.1100636
-0.09762104 -0.042243425 0.021195361 0.07414347 0.13074182 0.012185043 -0.07644516 0.11814218
0.07308836 0.06370645 0.13395064 -0.1015783 -0.08329668 0.08950462 0.01514129 -0.10533615
-0.07956337 -0.013163817 0.120435946 -0.113951564 0.020713514 -0.10962697 0.0064693876 -0.035810295
0.09645475 -0.03135806 -0.06685545 -0.04052898 0.00752623 0.13678555 -0.019159187 -0.04923243
-0.07720603 0.052401457 0.064929985 -0.042271208 0.07094609 -0.11505522 0.16053505 0.056128025
0.08448165 0.12229118 0.048968833 -0.08845309 -0.08713646 0.15652178 -0.11093818 -0.053331573
-0.046459667 -0.05603843 0.08604464 0.08645179 0.010174675 0.17666379 -0.04431327 -0.018662438
0.037133954 0.07520746 -0.025486734 0.00717694 -0.08627264 -0.107120484 -0.035249174 0.09569273
-0.09718052 0.073579036 -3.490643e-05 -0.11490703 -0.06128544 0.033746563 0.009540756 0.058479954
0.031861648 -0.056780603 0.019316813 0.01506073 0.033050988 -0.097386986 0.0018047513 0.04970615
0.082552455 -0.014685663 0.05606183 0.058946084 0.022695234 0.05797204 -0.028054854 0.08355523
-0.05837661 0.09999259 0.035700995 0.0009364078 0.038488485 0.11205528 0.13591069 -0.05295495
0.016068803 -0.051631343 0.07759804 0.12662691 -0.08205334 0.06834053 -0.00020358697 0.0783439
-0.057059158 -0.09296159 -0.09458495 0.045874864 -0.08119491 -0.07429373 -0.004517705 0.05682012
0.04161287 0.10313244 -0.11007465 -0.07977849 0.095314026 0.0065134466 -0.10522282 -0.068610765
0.059022274 0.09626646 0.08471777 -0.016313827 0.002801089 0.017905083 -0.0020970232 0.07810287
0.016820643 0.009315619 -0.07271196 0.06632504 0.018962072 0.012587431 -0.087739915 0.0023236852
-0.017497346 0.038616486 -0.054655287 0.011078564 0.03928685 0.0590321 -0.00016730015 -0.01999796
-0.019291494 -0.02487182 0.035893597 -0.09329152 0.06901659 -0.08955367 -0.036474064 -0.0022530244
0.030350052 -0.11436523 0.07373436 0.06323215 -0.012689884 -0.05134782 0.1075527 0.17530708
0.09393934 0.052485105 0.008259231 -0.033689886 -0.01624891 0.033657234 0.06081426 0.03104088
0.07461888 0.15603267 -0.047418077 0.111561 0.007265002 0.14998287 0.020333929 -0.010217816
0.090252146 -0.114157036 -0.01646582 2.3350745e-05 0.06743771 -0.042612802 0.09888176 -0.022485554
-0.09907984 0.021200974 -0.005133973 0.09661992 -0.08574235 -0.11224562 0.06452475 -0.08597064
0.10422071 -0.036532238 -0.007985191 -0.054212973 0.05107754 0.08402496 0.0729365 -0.011765044
-0.026882095 -0.01787245 -0.0421129 0.11919396 0.078605615 0.088245876 0.10361827 0.012348471
0.015161178 0.032682087 0.05002315 0.018113725 0.00087646005 -0.04038277 0.03331887 0.07775466
00000000: 78a6 a9bd c2d1 f43c 2a34 8e3c 75fe a43d
00000010: d900 7abd 28c2 573b 1048 a0bd 9439 393d
00000020: 6ee4 153e da0f 56bd 344a b23d d7ba e83d
00000030: 47fd 33bc e232 b23b 7021 4ebb 094c 683d
00000040: 4469 92bd 8ad4 b53d 0f6e 9bbc e46e c83b
00000050: 0b7c cdba 34ad 143e 746d cfbd 403b 943d
00000060: 89f5 6b3c 0a64 773d 947d d63d 0ed6 5a3c
00000070: 6fc2 013e c5da 423d 8c6c 49bd d5fb 3abd
00000080: 3241 9ebd 0693 9cbd 955d ac3d 0e11 efbd
00000090: 7be9 2b3d 2741 a23d 8d2d 073d 0669 e13d
000000a0: 8aed c7bd 7107 2dbd e5a1 ad3c 88d8 973d
000000b0: 2fe1 053e c6a3 473c 488f 9cbd 87f4 f13d
000000c0: 5aaf 953d 8778 823d 5b2a 093e 4908 d0bd
000000d0: 7397 aabd 334e b73d 2c13 783c 7bba d7bd
000000e0: 1ff2 a2bd 0dad 57bc 1fa7 f63d 705f e9bd
000000f0: 63af a93c 1b84 e0bd 28fd d33b d1ad 12bd
00000100: 118a c53d 4f71 00bd 83eb 88bd b701 26bd
00000110: 989e f63b 8311 0c3e baf3 9cbc f2a7 49bd
00000120: 321e 9ebd e9a2 563d 03fa 843d 9324 2dbd
00000130: 2f4c 913d 12a2 ebbd 4d63 243e 80e6 653d
00000140: b704 ad3d cc73 fa3d 8b93 483d e526 b5bd
00000150: 9a74 b2bd 3f47 203e 8e33 e3bd 3572 5abd
00000160: 7e4c 3ebd 8e88 65bd 2c38 b03d a30d b13d
00000170: aeb3 263c 5ae7 343e d581 35bd f8e1 98bc
00000180: c619 183d 5e06 9a3d 8ec9 d0bc 892c eb3b
00000190: b6af b0bd fc61 dbbd 7061 10bd 8dfa c33d
000001a0: 9506 c7bd 9bb0 963d 7e68 12b8 6054 ebbd
000001b0: 7106 7bbd d639 0a3d d550 1c3c ad88 6f3d
000001c0: 5c81 023d c792 68bd 4b3e 9e3c 48c1 763c
000001d0: 7960 073d d472 c7bd 688d ec3a ad98 4b3d
000001e0: 4311 a93d 239c 70bc 17a1 653d 7371 713d
000001f0: 5beb b93c 1774 6d3d 4bd3 e5bc 011f ab3d
00000200: 501c 6fbd eac8 cc3d 353b 123d 4479 753a
00000210: 1aa6 1d3d 3d7d e53d 2c2c 0b3e 4ae7 58bd
00000220: b9a2 833c 637b 53bd b9eb 9e3d 7caa 013e
00000230: 950b a8bd 1ff6 8b3d f679 55b9 c472 a03d
00000240: ddb6 69bd a562 bebd c1b5 c1bd 48e7 3b3d
00000250: 8449 a6bd 5027 98bd 4209 94bb 37bc 683d
00000260: 4272 2a3d 1a37 d33d d16e e1bd e862 a3bd
00000270: 0034 c33d c06e d53b 107f d7bd cd83 8cbd
00000280: 57c1 713d 5a27 c53d 8380 ad3d 93a4 85bc
00000290: 7a92 373b aead 923c 366e 09bb 66f4 9f3d
000002a0: 72cb 893c 8aa0 183c 02ea 94bd 6cd5 873d
000002b0: 5956 9b3c 833b 4e3c fcb0 b3bd f848 183b
000002c0: 9856 8fbc 522c 1e3d 39de 5fbd de82 353c
000002d0: 3feb 203d a5cb 713d 4b6d 2fb9 c3d2 a3bc
000002e0: 3209 9ebc fdbf cbbc 2a05 133d a00f bfbd
000002f0: 9258 8d3d ea67 b7bd d465 15bd 7aa7 13bb
00000300: aca0 f83c 5138 eabd 0a02 973d dc7f 813d
00000310: 3be9 4fbc 1752 52bd 9744 dc3d b383 333e
00000320: 4563 c03d 9ffa 563d ba51 073c 68fe 09bd
00000330: 6f1c 85bc 2bdc 093d 6018 793d 7249 fe3c
00000340: c9d1 983d 07c7 1f3e 7539 42bd 187a e43d
00000350: 410f ee3b 1c95 193e 5793 a63c a068 27bc
00000360: 1ed6 b83d 2acb e9bd 54e3 86bc 58e1 c337
00000370: c81c 8a3d c38a 2ebd 8582 ca3d a033 b8bc
00000380: 5fea cabd aaad ad3c e33a a8bb aae0 c53d
00000390: af99 afbd 08e1 e5bd 8d25 843d 6011 b0bd
000003a0: ab71 d53d d4a2 15bd 52d4 02bc 6c0e 5ebd
000003b0: af36 513d 4715 ac3d bb5f 953d 2cc2 40bc
000003c0: d737 dcbc 3f69 92bc 947e 2cbd f71b f43d
000003d0: fbfb a03d 41ba b43d d135 d43d 3e51 4a3c
000003e0: 9766 783c a7dd 053d 13e5 4c3d 3c63 943c
000003f0: 3dc2 653a 6768 25bd 5e79 083d d63d 9f3d

lstm.bias_hh_l0 f4 [256]
0.07124406 0.010831325 0.11069711 -0.069669046 0.03677679 -0.03846826 0.062417127 -0.030038657
-0.04522731 -0.12761687 0.060090955 0.030600186 -0.05074464 0.033839617 0.037440892 -0.0418912
-0.13790403 -0.035130315 0.110632084 0.0065577338 -0.017680448 -0.030663488 -0.08069822 0.04496264
0.04976669 0.06625929 -0.021948438 0.009181927 -0.08949493 0.17480092 -0.005143114 -0.122069106
-0.10788803 -0.07853584 -0.09454804 -0.08446486 0.009203856 -0.11571633 0.03598852 0.09875178
-0.084573746 -0.061123297 -0.046483047 -0.06632482 -0.0008211723 0.0840767 0.12778358 -0.103550635
0.14917417 0.08200767 -0.03756527 0.114803694 0.0943305 0.039827686 0.11990585 0.10477128
-0.082703315 -0.105091974 0.0018793792 0.062091943 -0.11722071 -0.054110415 0.11137642 0.09634143
0.027458979 -0.06751121 -0.13641737 0.026115546 0.052090667 0.0369569 0.0070300205 0.1283986
0.082945645 0.11495065 -0.08207516 0.036911216 0.060445346 0.10374336 -0.03791938 -0.071581304
-0.07590409 0.029815393 -0.021009527 0.11456234 -0.004411678 0.07295824 -0.012843884 -0.03338545
0.073516615 -0.12609674 -0.119208656 -0.121873654 -0.032368295 0.009853055 0.13444105 0.040183645
0.013103021 0.08174847 0.13281257 0.10215679 -0.03581965 0.043859802 0.092791855 0.14214046
-0.028270466 0.002916864 0.05071727 0.07134697 0.045419928 -0.08285384 -0.07679263 0.037395183
-0.0053647547 -0.00463792 -0.035612002 -0.07558344 0.03336415 -0.07353714 0.10387577 0.112030715
0.03247478 0.047355462 -0.019828595 -0.012898423 -0.08059361 -0.08745052 0.08341531 0.08993698
-0.010553283 0.10986819 -0.10657476 0.10850337 0.013708673 0.08509237 -0.00275366 -0.109818555
0.12106306 0.060454257 -0.01339687 -0.07055325 -0.019037824 0.06435591 0.113000646 -0.011615384
-0.07200355 -0.022675777 0.11091266 0.11778876 0.100054115 -0.05351811 -0.014091918 0.046251673
0.11648789 -0.034387123 0.021333449 -0.08825377 -0.081043586 -0.14532807 -0.03992281 -0.029309738
-0.10444539 0.06390962 -0.0055783475 0.05225157 0.008181621 0.081436835 -0.080200665 0.0573564
-0.07488066 -0.087380685 -0.0985834 0.088909864 0.09389205 0.015719406 0.075834185 0.09022099
-0.13656808 0.0039774408 0.11523417 -0.03472306 0.062469695 0.048223462 0.024321793 0.035623554
0.033003934 -0.06096033 0.07776511 -0.06290372 -0.053668853 0.05682385 -0.101003096 0.020033432
0.061883446 -0.005398439 0.07615537 0.013183276 -0.06695304 -0.05239274 -0.07604291 -0.00079814356
0.12407028 -0.014373417 0.15401031 0.0971136 0.03421403 0.11878907 -0.020928359 -0.051023312
0.002603349 -0.04632611 0.115992494 0.051468275 -0.060505893 0.1377533 -0.040724475 -0.056833796
0.108541 -0.04858332 0.10005379 0.0043164217 0.05587105 0.07930945 -0.053236805 -0.070498586
0.09559219 0.03842759 0.059054427 -0.0897266 -0.012948829 0.024428923 -0.09650077 0.12553692
0.11573309 -0.07029281 -0.058513246 0.03495355 0.00087679864 0.022504866 -0.10257814 0.0143666025
-0.062294826 0.06533642 -0.024606414 -0.026780345 0.12796095 0.120368876 0.055044897 0.078759104
-0.09035023 -0.031917337 0.12675223 0.026943691 0.052351236 -0.061340805 -0.046654634 -0.004956756
00000000: 68e8 913d df75 313c 2bb5 e23d a5ae 8ebd
00000010: 42a3 163d e590 1dbd 1aa9 7f3d a113 f6bc
00000020: 4640 39bd ffad 02be ef21 763d 3ead fa3c
00000030: 9dd9 4fbd 699b 0a3d 9f5b 193d 1b96 2bbd
00000040: b736 0dbe cee4 0fbd 1393 e23d 42e2 d63b
00000050: 96d6 90bc ff31 fbbc 1c45 a5bd bf2a 383d
00000060: 28d8 4b3d f3b2 873d 36cd b3bc cb6f 163c
00000070: 1e49 b7bd 03ff 323e 9187 a8bb 5eff f9bd
00000080: 66f4 dcbd 66d7 a0bd 67a2 c1bd eafb acbd
00000090: c5cb 163c affc ecbd b368 133d 603e ca3d
000000a0: 0035 adbd 6c5c 7abd 0265 3ebd 4fd5 87bd
000000b0: f143 57ba 6830 ac3d b3d9 023e 5b12 d4bd
000000c0: 1dc1 183e a3f3 a73d 0ade 19bd 331e eb3d
000000d0: 5930 c13d 5b22 233d 3391 f53d 5392 d63d
000000e0: 5b60 a9bd 763a d7bd 8055 f63a 1f54 7e3d
000000f0: 6911 f0bd e2a2 5dbd 5219 e43d a84e c53d
00000100: a7f1 e03c 5143 8abd ffb0 0bbe 45f0 d53c
00000110: 065d 553d 1e60 173d 165c e63b ec7a 033e
00000120: 68df a93d 3f6b eb3d 0617 a8bd 3730 173d
00000130: 8a95 773d 6677 d43d 5a51 1bbd 3899 92bd
00000140: 9b73 9bbd 693f f43c 2c1c acbc a99f ea3d
00000150: d68f 90bb 216b 953d 276f 52bc 2ebf 08bd
00000160: e18f 963d 811f 01be ab23 f4bd e598 f9bd
00000170: 9e94 04bd b56e 213c eaaa 093e 9b97 243d
00000180: 0eae 563c be6b a73d 0500 083e 9437 d13d
00000190: a0b7 12bd 56a6 333d a809 be3d 458d 113e
000001a0: 7797 e7bc db28 3f3b e9bc 4f3d 5c1e 923d
000001b0: 3f0a 3a3d 46af a9bd 7445 9dbd b12b 193d
000001c0: d3ca afbb b1f9 97bb e4dd 11bd 7ecb 9abd
000001d0: d9a8 083d a49a 96bd d2bc d43d 5c70 e53d
000001e0: 4604 053d cdf7 413d 946f a2bc e853 53bc
000001f0: 430e a5bd 4219 b3bd a5d5 aa3d e130 b83d
00000200: ade7 2cbc 9302 e13d de43 dabd 0437 de3d
00000210: 589a 603c e944 ae3d c076 34bb 8de8 e0bd
00000220: e9ef f73d e29e 773d 8c7e 5bbc 397e 90bd
00000230: 36f5 9bbc 08cd 833d e26c e73d 744e 3ebc
00000240: 9976 93bd 8dc2 b9bc 2d26 e33d 3c3b f13d
00000250: 2ce9 cc3d ce35 5bbd cae1 66bc 6572 3d3d
00000260: 3491 ee3d 83d9 0cbd 7cc3 ae3c 64be b4bd
00000270: 2efa a5bd e2d0 14be 1a86 23bd fa1a f0bc
00000280: 77e7 d5bd 0ce3 823d 92ca b6bb be05 563d
00000290: 350c 063c 5bc8 a63d 3f40 a4bd 8bee 6a3d
000002a0: 085b 99bd a5f4 b2bd 18e6 c9bd 6016 b63d
000002b0: 7a4a c03d fcc5 803c f44e 9b3d c8c5 b83d
000002c0: 81d8 0bbe 3155 823b e4ff eb3d c439 0ebd
000002d0: 39e0 7f3d f785 453d 7f3e c73c 01ea 113d
000002e0: 222f 073d 8ab1 79bd 5043 9f3d aad3 80bd
000002f0: dfd3 5bbd 20c0 683d b6da cebd 271d a43c
00000300: 7f79 7d3d 63e5 b0bb 59f7 9b3d abfe 573c
00000310: ad1e 89bd c599 56bd 63bc 9bbd 823a 51ba
00000320: 8f18 fe3d 7b7e 6bbc e1b4 1d3e 7fe3 c63d
00000330: 0324 0c3d af47 f33d f371 abbc d2fd 50bd
00000340: f39c 2a3b 72c0 3dbd 798d ed3d 66d0 523d
00000350: 07d5 77bd 330f 0d3e b5ce 26bd 8eca 68bd
00000360: be4a de3d 4eff 46bd 00e9 cc3d c570 8d3b
00000370: 0bd9 643d fe6c a23d d60e 5abd 9061 90bd
00000380: d7c5 c33d 4066 1d3d 0ee3 713d 94c2 b7bd
00000390: 5327 54bc 2a1f c83c 32a2 c5bd c08c 003e
000003a0: 7805 ed3d adf5 8fbd 96ab 6fbd 742b 0f3d
000003b0: f6d8 653a 205c b83c 7d14 d2bd e661 6b3c
000003c0: dc28 7fbd 1acf 853d 6493 c9bc 7462 dbbc
000003d0: 3208 033e f583 f63d c276 613d 744c a13d
000003e0: 8b09 b9bd c1bb 02bd 56cb 013e 04b9 dc3c
000003f0: 406e 563d 7f40 7bbd ee18 3fbd 486c a2bb

lstm.weight_ih_l1 f4 [256, 64]
0.027784294 0.08394926 0.110363625 0.00062813034 0.11312327 -0.17207298 0.07708222 0.16675717
0.030744608 -0.0514339 -0.07627642 0.06022578 -0.08462504 0.047778334 -0.007325394 -0.04798645
0.076539226 -0.109109685 0.028881883 -0.07990531 0.0807545 0.1160609 -0.094457306 -0.15124387
-0.04510119 -0.054591924 0.017101604 0.0025087136 0.09013507 0.099106446 -0.06091629 -0.015361789
-0.047151834 0.029188858 0.096609466 -0.012308326 -0.08558513 -0.03595543 -0.09176823 0.03716675
-0.08813448 0.07858141 -0.092016734 -0.09605085 0.04928278 0.0018332466 0.13117559 -0.036140017
0.07777877 -0.07119868 -0.08412061 -0.059607256 0.057614755 -0.09922498 -0.12612352 0.07811416
0.021209283 0.089213334 0.09210048 -0.11005492 -0.030416064 -0.11016074 -0.08303683 -0.036739204
-0.09628215 0.007246323 0.081248984 0.049907282 0.052117005 -0.1394422 -0.022910077 0.014673908
0.087968335 0.03745806 0.041591886 -0.08200111 0.054225132 -0.016424272 -0.15598369 -0.03903613
0.03723822 -0.09264429 0.0675561 -0.14255707 -0.06543568 -0.07080136 -0.068584114 -0.037870042
-0.13534246 0.0027467874 0.1244036 0.07628379 -0.06887826 0.14236137 -0.04363397 -0.035183195
0.03245064 0.05269765 -0.07622713 0.005078839 -0.05236008 0.040205937 -0.07710302 -0.13530912
0.10260518 -0.067724444 -0.038510945 -0.020822586 0.10179223 -0.09476781 0.114319116 -0.01881933
-0.07896787 -0.120410874 0.08840345 0.020772325 -0.07676041 0.045170818 0.05238018 0.11156577
0.09393583 -0.1460824 0.09399632 0.04636379 -0.07284737 0.01912856 -0.13348065 0.0068875956
0.026696833 0.16067313 0.08006139 0.06114494 -0.0037314778 -0.004115434 -0.08511875 0.17031498
-0.057139356 -0.13353477 -0.079964094 0.07935429 -0.003541889 -0.059293907 -0.031468164 -0.016374785
-0.16996285 0.08667919 -0.025056956 0.033389166 -0.06963574 -0.09502327 -0.051363647 -0.08277099
0.02733083 0.04752617 -0.07239227 -0.07892802 0.048321087 -0.096480645 -0.07154793 0.030420378
-0.08795919 0.0933614 0.01249952 0.09624394 -0.11452801 0.16646199 -0.10604384 -0.08250374
0.04395463 -0.038624108 -0.083988525 -0.05866059 -0.024001552 0.034303747 0.10473394 0.052056227
-0.06910837 0.0553207 0.16247767 0.0035095788 -0.13758095 0.13345183 0.033707526 -0.101906784
-0.122012496 0.034006987 0.08493943 -0.0069510993 -0.111379676 -0.15945074 -0.013706917 0.04452289
0.042566504 0.10567357 -0.012167558 -0.00824966 0.06915465 -0.075642206 -0.08800271 0.05996516
-0.07728561 -0.00510296 0.050609246 -0.1800487 -0.070837 0.05086212 0.052586004 -0.13927843
0.08282205 0.07329444 -0.027615495 -0.108938366 -0.05887379 0.10666431 -0.11620907 -0.0006035889
0.07359597 -0.0051670964 -0.03042116 -0.030713147 0.04910431 0.12252009 -0.053114224 -0.09124959
-0.001062654 -0.075120345 -0.026510514 -0.034104504 -0.16903819 0.0287088 -0.14558436 0.0734898
0.08598995 -0.090315476 -0.1559141 0.14295682 -0.036177702 -0.023087269 0.13563578 0.00261941
0.17480844 -0.0075664986 -0.07603738 -0.079380706 0.018155893 -0.06251555 -0.028334761 0.14072058
-0.11090851 -0.06498203 -0.040674817 0.054780815 -0.13657273 0.06265134 -0.073633514 -0.111800425
00000000: e39b e33c 97ed ab3d 5306 e23d 1da9 243a
00000010: 2cad e73d e633 30be 48dd 9d3d 64c2 2a3e
00000020: 1edc fb3c 5aac 52bd d036 9cbd 4faf 763d
00000030: e54f adbd 37b3 433d dc09 f0bb 718d 44bd
00000040: 99c0 9c3d e674 dfbd b399 ec3c 65a5 a3bd
00000050: 9e62 a53d 56b1 ed3d d572 c1bd acdf 1abe
00000060: 07bc 38bd c89b 5fbd aa18 8c3c 3b69 243b
00000070: bc98 b83d 52f8 ca3d 5c83 79bd 03b0 7bbc
00000080: 4822 41bd 791d ef3c 2fdb c53d dca8 49bc
00000090: 4247 afbd 0046 13bd fbf0 bbbd 293c 183d
000000a0: da7f b4bd 4aef a03d 4573 bcbd 4fb6 c4bd
000000b0: bedc 493d 8c49 f03a e552 063e 8e07 14bd
000000c0: 7a4a 9f3d 9dd0 91bd 6d47 acbd bd26 74bd
000000d0: 73fd 6b3d 7736 cbbd 8626 01be 51fa 9f3d
000000e0: 17bf ad3c 7bb5 b63d 2d9f bc3d 7964 e1bd
000000f0: 1c2b f9bc f49b e1bd 370f aabd d97b 16bd
00000100: 932f c5bd 9072 ed3b de65 a63d 946b 4c3d
00000110: a478 553d f0c9 0ebe eaad bbbc d56a 703c
00000120: be28 b43d 9f6d 193d 415c 2a3d 33f0 a7bd
00000130: 2c1b 5e3d 328c 86bc 30ba 1fbe 59e4 1fbd
00000140: 1b87 183d 4abc bdbd da5a 8a3d 7bfa 11be
00000150: 2403 86bd 4e00 91bd d475 8cbd 9e1d 1bbd
00000160: 3797 0abe 7203 343b 51c7 fe3d ad3a 9c3d
00000170: 0c10 8dbd 2ec7 113e 89b9 32bd 411c 10bd
00000180: f6ea 043d 7ed9 573d f81c 9cbd 646c a63b
00000190: 8677 56bd fbae 243d 30e8 9dbd 798e 0abe
000001a0: aa22 d23d 1db3 8abd a7bd 1dbd 2194 aabc
000001b0: 7278 d03d a015 c2bd 2420 ea3d ff2a 9abc
000001c0: e8b9 a1bd fa99 f6bd de0c b53d b92a aa3c
000001d0: 9034 9dbd 0905 393d 9a8c 563d 987c e43d
000001e0: 6e61 c03d a096 15be 2581 c03d f5e7 3d3d
000001f0: 0031 95bd 7fb3 9c3c 27af 08be 57b1 e13b
00000200: 51b3 da3c 7f87 243e 3af7 a33d 1e73 7a3d
00000210: cf8b 74bb c3da 86bb bd52 aebd 0d67 2e3e
00000220: f50a 6abd 57bd 08be 37c4 a3bd 8184 a23d
00000230: 091f 68bb 2bde 72bd c3e4 00bd 6a24 86bc
00000240: be0a 2ebe dc84 b13d 3f44 cdbc 14c3 083d
00000250: 2f9d 8ebd 8f9b c2bd b062 52bd d683 a9bd
00000260: e8e4 df3c cdaa 423d 6642 94bd 04a5 a1bd
00000270: 55ec 453d a597 c5bd b987 92bd 2834 f93c
00000280: f323 b4bd 4334 bf3d c9ca 4c3c 8b1b c53d
00000290: a98d eabd 0375 2a3e 832d d9bd b9f7 a8bd
000002a0: c509 343d 5034 1ebd 2d02 acbd 1646 70bd
000002b0: e79e c4bc 1682 0c3d bf7e d63d e938 553d
000002c0: b088 8dbd f597 623d 8c60 263e f600 663b
000002d0: 05e2 0cbe 99a7 083e e710 0a3d 81b4 d0bd
000002e0: b0e1 f9bd e94a 0b3d b9f4 ad3d 0cc6 e3bb
000002f0: 071b e4bd 0e47 23be fa92 60bc a25d 363d
00000300: 375a 2e3d 626b d83d 705a 47bc 9529 07bc
00000310: f4a0 8d3d 4dea 9abd c43a b4bd 079e 753d
00000320: eb47 9ebd bb36 a7bb a44b 4f3d b05e 38be
00000330: fd12 91bd cc54 503d 6c64 573d 019f 0ebe
00000340: 9b9e a93d 651b 963d e439 e2bc 141b dfbd
00000350: a525 71bd d172 da3d 05ff edbd 2a3a 1eba
00000360: 7cb9 963d bf50 a9bb cc35 f9bc 239a fbbc
00000370: 9a21 493d d0eb fa3d 4d8e 59bd 11e1 babd
00000380: c048 8bba b2d8 99bd 942c d9bc 2ab1 0bbd
00000390: 5918 2dbe b82e eb3c 1114 15be d281 963d
000003a0: 801b b03d 52f7 b8bd f2a7 1fbe 4663 123e
000003b0: 122f 14bd 8321 bdbc 1be4 0a3e 68aa 2b3b
000003c0: fc00 333e 64f0 f7bb 7cb9 9bbd 5a92 a2bd
000003d0: abbb 943c 2708 80bd 4d1e e8bc 0e19 103e
000003e0: 0024 e3bd 4c15 85bd a39a 26bd d961 603d
000003f0: b9d9 0bbe 594f 803d 2bcd 96bd 9ff7 e4bd

lstm.weight_hh_l1 f4 [256, 64]
0.08167997 0.08659043 -0.027990405 0.08904135 -0.029515129 0.09953362 -0.040182587 -0.021154635
-0.08127957 0.05737006 -0.062909074 -0.067056574 0.0774042 0.04424622 -0.035098467 -0.01503932
0.07936669 -0.06086577 -0.060269434 0.030725488 -0.05108999 0.06802493 -0.09443025 -0.013985239
-0.040721305 -0.10438174 0.012481837 0.09404215 -0.0044368114 0.12137554 -0.10487983 0.06999962
0.10020742 0.089286074 -0.13115759 0.00012039984 0.00893318 0.060864702 0.114560224 -0.046496347
-0.092393756 -0.04454195 -0.002303185 0.067079805 -0.07111203 -0.10816967 0.09809903 -0.045644566
-0.023234054 0.07022106 0.06576685 -0.030558746 -0.029986773 -0.019995224 0.008419798 0.06798763
0.050478972 -0.10872094 0.10027749 -0.10807746 -0.040580463 -0.01633184 -0.12638889 -0.100901894
0.11118634 0.073558085 -0.08818875 0.07629483 0.02585541 0.086275175 0.09227953 0.080530696
0.00062606105 -0.03012496 -0.015659234 0.04708994 0.115284845 -0.13073596 -0.10326992 0.12314773
0.0089802975 -0.012033852 0.09064167 0.061854016 -0.033307765 -0.05225055 -0.07150368 -0.06353122
0.019293424 0.1319048 -0.11739367 -0.12518518 -0.049746603 0.04040245 0.097116 0.037698995
0.005847288 -0.053029727 -0.007023098 0.0031797169 0.00922089 -0.024437005 -0.095398895 0.105456464
0.03982588 0.030014526 -0.0061006504 -0.10316641 -0.08716471 0.0838686 -0.02829052 -0.089611016
-0.080839485 -0.08488838 -0.10002061 0.023187533 0.061786573 0.114828534 -0.027381234 -0.12200026
-0.12180991 -0.115875065 -0.021544052 -0.0062174704 0.06535462 -0.052694082 -0.056985013 0.012222933
-0.096945845 -0.061416537 0.048914216 0.047985494 -0.0077836122 0.05853226 0.014666904 0.13449718
-0.0863691 -0.087236926 0.0063768956 -0.046808686 0.102112405 -0.07383012 -0.10161433 0.006282251
0.0132225575 -0.1255263 0.08149034 -0.024881858 0.12314188 -0.012949658 0.07978152 -0.034168046
0.08091762 0.05342551 -0.03327837 0.02791612 -0.007811729 -0.0108450735 0.10129295 0.014439666
-0.10226648 0.034221865 0.07723348 -0.060201656 0.06343442 0.020376002 -0.10597753 0.031225603
-0.09629949 -0.009677697 -0.13796028 -0.09351951 -0.014676379 -0.035708304 0.019196032 -0.0699185
-0.002177272 -0.07602804 -0.074164346 0.0009309249 0.06640345 -0.12025064 -0.15084304 0.020692201
-0.06995347 -0.091525786 -0.14448752 -0.039920688 0.043056723 -0.0052112653 -0.06129592 0.011425252
0.07820671 0.052161757 -0.06317526 0.014585545 0.086850904 -0.09642927 0.076144755 -0.03388972
0.11252336 -0.073750585 -0.10201233 0.16042647 0.036300436 0.025167037 0.059627496 0.047837004
-0.031628143 -0.041220386 -0.12151036 0.013760954 0.07235396 0.11753957 0.024668267 0.0076386556
0.13244945 0.013961853 0.07566935 -0.040128965 -0.0033992822 -0.06358724 0.12395679 0.07772935
0.061570734 0.07431144 -0.052019127 -4.0076833e-05 0.11649097 -0.0009965753 0.04410009 -0.076799646
-0.12987237 -0.07383798 0.053143483 0.0067520523 0.06459812 0.041903105 0.056111258 0.06759581
0.020337392 0.049712438 0.036908947 0.03814035 -0.04517595 0.08791672 -0.07227872 -0.051972967
-0.015720027 0.05348265 0.016980771 0.05856087 0.016738031 0.0085737305 -0.104252584 0.089557365
00000000: d447 a73d 5356 b13d 224c e5bc 505b b63d
00000010: b6c9 f1bc 48d8 cb3d 7f96 24bd 7c4c adbc
00000020: e775 a6bd defc 6a3d 79d6 80bd f554 89bd
00000030: 1886 9e3d 863b 353d 69c3 0fbd 7b67 76bc
00000040: 018b a23d 634e 79bd 15dd 76bd 05b4 fb3c
00000050: bd43 51bd a850 8b3d a664 c1bd 5822 65bc
00000060: 62cb 26bd 18c6 d5bd 9e80 4c3c 2c99 c03d
00000070: ac62 91bb bd93 f83d 3ccb d6bd f65b 8f3d
00000080: 8c39 cd3d 9edb b63d 2d4e 06be 2c7f fc38
00000090: 795c 123c 444d 793d 8d9e ea3d f472 3ebd
000000a0: f038 bdbd 9f71 36bd 08f1 16bb 2361 893d
000000b0: 2fa3 91bd 0f88 ddbd 25e8 c83d ccf5 3abd
000000c0: 5855 bebc 0fd0 8f3d c5b0 863d 5656 fabc
000000d0: d2a6 f5bc 06cd a3bc 31f3 093c 193d 8b3d
000000e0: 0ac3 4e3d 16a9 debd 495e cd3d b757 ddbd
000000f0: b337 26bd 5aca 85bc 176c 01be a7a5 cebd
00000100: aab5 e33d 9fa5 963d 4e9c b4bd 7740 9c3d
00000110: bace d33c 0ab1 b03d 0dfd bc3d 47ed a43d
00000120: 3f1e 243a 9fc8 f6bc cb47 80bc 62e1 403d
00000130: 761a ec3d a6df 05be 2e7f d3bd e134 fc3d
00000140: 1922 133c a229 45bc 57a2 b93d a35a 7d3d
00000150: b96d 08bd ac04 56bd 8570 92bd a81c 82bd
00000160: 3e0d 9e3c 0d12 073e 186c f0bd 8b30 00be
00000170: 18c3 4bbd 0a7d 253d c1e4 c63d 436a 1a3d
00000180: 9b9a bf3b b335 59bd 0422 e6bb cc62 503b
00000190: 3713 173c 1d30 c8bc 7f60 c3bd 8ff9 d73d
000001a0: 7620 233d 06e1 f53c f7e7 c7bb e948 d3bd
000001b0: 6983 b2bd 4dc3 ab3d 85c1 e7bc fb85 b7bd
000001c0: 2c8f a5bd f5d9 adbd 9bd7 ccbd c8f3 bd3c
000001d0: eb13 7d3d 392b eb3d 9c4e e0bc 46db f9bd
000001e0: 7977 f9bd e84f edbd 277d b0bc ecbb cbbb
000001f0: a5d8 853d c0d5 57bd 1e69 69bd b242 483c
00000200: 8b8b c6bd e88f 7bbd 465a 483d 708c 443d
00000210: ac0d ffbb 86bf 6f3d 744d 703c a1b9 093e
00000220: 48e2 b0bd 46a9 b2bd 47f5 d03b 77ba 3fbd
00000230: 4f20 d13d 3f34 97bd 2d1b d0bd 57db cd3b
00000240: 6da3 583c f789 00be 68e4 a63d 0ad5 cbbc
00000250: cf31 fc3d cd2a 54bc 7e64 a33d cbf3 0bbd
00000260: 23b8 a53d b5d4 5a3d e64e 08bd 59b0 e43c
00000270: 88f9 ffbb 89af 31bc ae72 cf3d 5994 6c3c
00000280: 1771 d1bd 3a2c 0c3d 962c 9e3d 0396 76bd
00000290: e8e9 813d 93eb a63c bf0a d9bd d6cc ff3c
000002a0: ab38 c5bd 348f 1ebc 7645 0dbe 2887 bfbd
000002b0: 3275 70bc df42 12bd ff40 9d3c 6e31 8fbd
000002c0: 90b0 0ebb 97b4 9bbd 7ae3 97bd 5009 743a
000002d0: 88fe 873d f845 f6bd 9976 1abe b182 a93c
000002e0: c443 8fbd df71 bbbd 89f4 13be e083 23bd
000002f0: 3f5c 303d 43c3 aabb 6e11 7bbd fb30 3b3c
00000300: d72a a03d 91a7 553d 0862 81bd 36f8 6e3c
00000310: e3de b13d b67c c5bd c8f1 9b3d f2cf 0abd
00000320: a672 e63d 8c0a 97bd d7eb d0bd d646 243e
00000330: c4af 143d 1a2b ce3c f63b 743d bcf0 433d
00000340: 838c 01bd b5d6 28bd 6cda f8bd a075 613c
00000350: 502e 943d 96b8 f03d 1b15 ca3c b04d fa3b
00000360: d4a0 073e 42c0 643c 88f8 9a3d 455e 24bd
00000370: 7ec6 5ebb 073a 82bd 0fdd fd3d 9130 9f3d
00000380: 9831 7c3d 9930 983d 0212 55bd 2c18 28b8
00000390: d192 ee3d 859f 82ba 4ca2 343d 2249 9dbd
000003a0: 43fd 04be 5e38 97bd fbac 593d 5240 dd3b
000003b0: 054c 843d 97a2 2b3d ebd4 653d ac6f 8a3d
000003c0: 9a9a a63c 459f 4b3d d62d 173d 0e39 1c3d
000003d0: 6b0a 39bd ae0d b43d de06 94bd 9be1 54bd
000003e0: 49c7 80bc a010 5b3d 421b 8b3c 86dd 6f3d
000003f0: 321e 893c d578 0c3c 6182 d5bd da69 b73d

lstm.bias_ih_l1 f4 [256]
-0.120256566 -0.09922314 0.047449857 -0.10433874 0.069758974 -0.09989008 -0.045743067 0.088655725
0.069471814 -0.017303841 0.026389578 -0.041166563 -0.04818516 -0.018134976 -0.011663819 -0.10479362
-0.0010562307 -0.11218328 0.12920973 0.076041825 -0.078433685 -0.098677956 0.05411718 0.06344006
-0.065525554 0.028285112 -0.05632272 -0.08162869 0.0013752925 -0.016772766 0.11813988 -0.007624726
-0.0026018468 0.09227694 -0.025320763 -0.047679756 0.06511502 -0.09004346 0.1257171 -0.00086688995
0.10298739 -0.07282125 -0.051696163 -0.061783984 -0.11987239 -0.09684927 0.049986932 -0.0015043186
0.02856881 0.027670365 0.036255263 0.102402955 -0.04090665 0.092914365 -0.039046604 0.05232168
-0.10320048 -0.015462617 0.14127691 0.089663655 0.11837842 0.13971254 0.09872483 -0.030574894
-0.019988583 0.0019986515 0.076406 -0.07012503 0.036688585 -0.1389728 0.09746045 0.0812012
0.038554996 0.050887473 0.022690963 0.002194475 0.11192612 0.10019895 -0.003351188 0.047914613
0.08178722 0.028885448 0.055394415 -0.103528194 0.03861886 0.09580329 0.12685119 0.092456676
0.062687695 -0.038016696 0.13655034 -0.14419654 0.10521468 0.035761017 -0.067515075 0.045935307
0.005449595 0.083306655 -0.10264989 -0.0007331121 0.1095757 -0.00879186 -0.08290675 0.044358213
-0.09791078 -0.013794283 -0.0046686763 -0.0287928 -0.112948135 0.09688154 0.061329734 0.03949209
-0.02768578 0.010551069 0.010676768 0.09674557 -0.1051273 -0.11259346 0.031436864 -0.025699817
-0.11376961 0.11367816 -0.08818759 0.022897629 0.114571996 -0.053317588 0.13221596 0.0249902
-0.07679693 -0.027731052 0.12981853 0.06880973 -0.09199301 -0.06234787 0.010394706 0.09186931
0.044634514 0.060499962 0.09450218 -0.023057144 -0.09493945 0.09202181 0.09271805 -0.017463248
-0.14330296 0.05899248 -0.12848714 -0.020781951 0.040523134 0.055439167 -0.10570375 -0.072548196
0.008244265 0.08482386 -0.02502396 -0.110715985 0.06376043 -0.029902568 0.073856376 -0.016945828
0.017290063 -0.041940417 -0.016485918 -0.06308661 0.09857515 0.060621984 -0.06001149 0.09320142
0.044002056 0.06690503 -0.04244679 0.11619409 -0.05024292 -0.024703562 0.10506807 -0.043273855
-0.11711083 -0.061965987 0.065506615 0.080213204 -0.10171446 0.04921246 0.028922569 -0.033867277
0.07381516 0.013041208 -0.10113248 -0.1153955 -0.004357389 -0.055991 0.06483139 -0.08694607
-0.033530883 0.124499016 0.03658804 0.029683119 -0.049554877 0.053749222 0.046219826 0.12889697
0.084141664 -0.038801137 0.11476428 0.16295475 0.105150625 -0.09434902 0.1324617 -0.015499055
0.10943473 -0.07160429 -0.05227941 0.08686469 -0.14136975 -0.058867756 0.05147326 0.13014199
-0.0147479065 0.048176147 -0.09761887 -0.06159533 0.12279431 0.02765429 0.10570339 0.051447794
0.057392586 -0.07346294 0.010380886 -0.09287408 0.104408264 0.0058014537 0.11011636 0.013469552
0.00971513 -0.036318455 0.032913662 -0.043074954 0.03799331 0.036694698 0.106373794 0.0750581
-0.08983443 -0.11120744 0.007123015 0.08292857 -0.003880638 -0.028627602 -0.063342504 0.017913893
0.1027559 -0.08277586 0.016131692 -0.04005876 0.033430394 0.015383462 -0.05617973 -0.03308511
00000000: 1349 f6bd 8035 cbbd c85a 423d 8daf d5bd
00000010: cbdd 8e3d 2c93 ccbd 155d 3bbd 2291 b53d
00000020: 3d47 8e3d c9c0 8dbc f52e d83c 459e 28bd
00000030: cd5d 45bd cd8f 94bc 9a19 3fbc 0a9e d6bd
00000040: 3971 8aba 59c0 e5bd 8e4f 043e d1bb 9b3d
00000050: d7a1 a0bd ab17 cabd faa9 5d3d ddec 813d
00000060: 4332 86bd 2eb6 e73c a7b2 66bd f12c a7bd
00000070: 2943 b43a 0a67 89bc 52f3 f13d d6d8 f9bb
00000080: bf83 2abb b1fb bc3d 7d6d cfbc d94b 43bd
00000090: 065b 853d b568 b8bd fcbb 003e 0040 63ba
000000a0: 0deb d23d 4f23 95bd 5bbf 53bd 3411 7dbd
000000b0: a87f f5bd e958 c6bd 19bf 4c3d 8e2c c5ba
000000c0: 2309 ea3c f6ac e23c 6680 143d a4b8 d13d
000000d0: bb8d 27bd e349 be3d 55ef 1fbd 424f 563d
000000e0: c65a d3bd eb56 7dbc e5aa 103e 94a1 b73d
000000f0: 6370 f23d ce10 0f3e 3e30 ca3d 3378 fabc
00000100: 19bf a3bc cffb 023b c07a 9c3d b69d 8fbd
00000110: c546 163d e34e 0ebe 5899 c73d d14c a63d
00000120: d8eb 1d3d 626f 503d 66e2 b93c 2ed1 0f3b
00000130: 8639 e53d 1b35 cd3d 9b9f 5bbb 1d42 443d
00000140: 0f80 a73d 2da1 ec3c 41e5 623d 9706 d4bd
00000150: cf2e 1e3d 8434 c43d 47e5 013e ed59 bd3d
00000160: 6862 803d 65b7 1bbd dad3 0b3e 42a8 13be
00000170: cb7a d73d 257a 123d 5845 8abd a926 3c3d
00000180: 8492 b23b ae9c aa3d 1b3a d2bd 522e 40ba
00000190: 3969 e03d bc0b 10bc 04cb a9bd f5b0 353d
000001a0: 7285 c8bd 6b01 62bc b2fb 98bb e1de ebbc
000001b0: 5a51 e7bd d469 c63d e334 7b3d 75c2 213d
000001c0: 4acd e2bc 64de 2c3c 9ced 2e3c 8b22 c63d
000001d0: fb4c d7bd 6697 e6bd f1c3 003d 6c88 d2bc
000001e0: 0b00 e9bd 18d0 e83d b29b b4bd cf93 bb3c
000001f0: b9a4 ea3d 8b63 5abd 9f63 073e 3fb8 cc3c
00000200: b547 9dbd 3b2c e3bc 26ef 043e 1eec 8c3d
00000210: d566 bcbd 7b60 7fbd 8f4e 2a3c fa25 bc3d
00000220: aed2 363d cfce 773d 5c8a c13d 56e2 bcbc
00000230: 9d6f c2bd ee75 bc3d f6e2 bd3d 160f 8fbc
00000240: 03be 12be 19a2 713d 2292 03be e93e aabc
00000250: 96fb 253d 2e14 633d 357b d8bd 2694 94bd
00000260: f412 073c 22b8 ad3d 0cff ccbc 10bf e2bd
00000270: d494 823d 3bf6 f4bc 0342 973d fad1 8abc
00000280: e4a3 8d3c b7c9 2bbd 7a0d 87bc 8d33 81bd
00000290: c5e1 c93d c24e 783d 9cce 75bd 63e0 be3d
000002a0: 803b 343d 8105 893d afdc 2dbd 2bf7 ed3d
000002b0: 85cb 4dbd 205f cabc ee2d d73d ed3f 31bd
000002c0: ced7 efbd 0cd0 7dbd 5528 863d d246 a43d
000002d0: ac4f d0bd 0193 493d 06ef ec3c 6ab8 0abd
000002e0: 672c 973d caaa 553c 8c1e cfbd 7a54 ecbd
000002f0: 6ec8 8ebb d256 65bd 52c6 843d c810 b2bd
00000300: ae57 09bd 57f9 fe3d 57dd 153d 032a f33c
00000310: 0efa 4abd 2528 5c3d 0051 3d3d 91fd 033e
00000320: 7752 ac3d f1ed 1ebd 8909 eb3d 9cdd 263e
00000330: 3659 d73d 0f3a c1bd 0aa4 073e c0ef 7dbc
00000340: 511f e03d 45a5 92bd ef22 56bd 1de6 b13d
00000350: 3bc3 10be 511f 71bd a0d5 523d f143 053e
00000360: 34a1 71bc 5a54 453d 67ec c7bd 624b 7cbd
00000370: 957b fb3d 408b e23c 057b d83d ecba 523d
00000380: 7d14 6b3d bd73 96bd 9714 2a3c c434 bebd
00000390: 00d4 d53d 1f1a be3b b084 e13d 65af 5c3c
000003a0: 352c 1f3c a9c2 14bd 7ad0 063d 5d6f 30bd
000003b0: df9e 1b3d 2e4d 163d 81da d93d 10b8 993d
000003c0: 1dfb b7bd bac0 e3bd 2e68 e93b 74d6 a93d
000003d0: 4d52 7ebb 6f84 eabc b7b9 81bd 28c0 923c
000003e0: af71 d23d 6486 a9bd 9c26 843c a814 24bd
000003f0: 4fee 083d eb0a 7c3c b71c 66bd 4184 07bd
