data/models/aave_gru.pth (torch, 155605 bytes, 9 tensors)

gru.weight_ih_l0 f4 [192, 1]
00000000: b3e3 a7bd 9215 5b3d 3f0d 22bd 1981 fbbd
00000010: 522a 67bd 4483 cbbd 2ace 57bd cdd3 af3d
00000020: 0dc7 b4bd 3309 cc3d 69e1 95bd 0499 1a3d
00000030: 47fc c6bc c93c 02bd b5f0 eebd b8bc 953d
00000040: db72 92bd 70a0 09bc cac2 403d 2983 1fbe
00000050: d2de 4b3d 6a79 b2bd 8b5e 173d bafd 2bbe
00000060: 5df7 89bd f646 b6bc a2de 6d3d 229d dfbd
00000070: 35dc 483c c857 22be e452 523c 0756 b1bd
00000080: dac8 efbd 5605 3d3d e06f 97bd 8dfd 443c
00000090: 7e00 84bd 6700 a8bd bd79 05be 92d8 25be
000000a0: 366f 023d 9ea3 a23d 0eae 6ebd a0e4 93bd
000000b0: 75c5 b33c ab05 74bd c076 4ebd 6444 1c3d
000000c0: dbc8 cabd 9c07 cc3d ff24 fcbc c12f d63c
000000d0: 5e92 263c 4ce7 9ebd 5a0b ad3c b24d 8db9
000000e0: b112 3bbd ae78 b2bd ceeb 9dbd e23d 633d
000000f0: 651a 1ebe 64da ec3d 8d26 e6bd 8628 b2bd
00000100: c391 203d 05ed 47be 3429 dbbd a8a7 26be
00000110: cd35 7fbc 3e09 a8be 4cd8 bebd a1e0 723e
00000120: c14b c4be 1350 b9bd e0ed 2dbd 76ab 573d
00000130: 2d67 18bd bafb 5abe bc9e 23be f680 70bd
00000140: 70cc 06be 89e5 5ebe 0ead 2cbe 899e 29bd
00000150: 16a6 8cbd 8393 39be b218 4fbe 4653 47be
00000160: d1ba 0cbe 7589 31be 5cf4 5abe 36dd 94bd
00000170: d9f9 e3be 0bc0 48bd 75f9 44be 657e 9abe
00000180: 00d8 5ebe 2f6c 40be a284 9b3e 713b aebd
00000190: 015e 0cbc af2e 25be dcef 4ebe f50b 65be
000001a0: 4383 1fbe 43cd 29be 28da 66be 8f44 4fbc
000001b0: 0d7a 1cbd 33d1 07be 0e2e 00be fc51 92bb
000001c0: 8e8f 6dbe 4356 9abe 14fd b8bd 407d ab3c
000001d0: b1ff 03be 903b 38bd a791 1bbe 478b 33be
000001e0: 8e33 50bd 96b0 e8bd fb18 f1bd dea5 dfbd
000001f0: dc2a 61be 7c84 10be 7b45 22bd 84ac 0bbe
00000200: 9fde ed3d 20de 023e ed62 023e f063 123e
00000210: d540 25be eb18 b53d f912 06be b568 7f3c
00000220: 93f3 a3bd 5b41 3e3c b3c0 17be 9364 a7bc
00000230: 5385 f9bd 807f 1bbe 120e f4bd aa23 473c
00000240: 692b 313d 771e dfbd 2fa2 21be a850 ae3d
00000250: 2c7b 203e a51c 8fbd 3695 17be 62f3 653d
00000260: 39ae cb3d 69d4 f3bd a2d8 b4bd 906d 99bc
00000270: 17ee aa3c 557c ecbd 5448 a43d d8d2 ba3d
00000280: 84ac c93d af19 bc3d 58a0 18bc 2a08 34bd
00000290: c696 4e3d 4851 2c3e 7517 d4bd 422d ff3d
000002a0: d966 0e3e bd19 c03d b5b8 c33d e8c4 bfbd
000002b0: 21c7 87bc 75f1 c8bd f429 3abd 5af9 8c3d
000002c0: 77ba 043e e6d2 b93d c506 da3d 19f7 d23d
000002d0: b4d1 61bd 087b 00be a2f7 b2bd c712 b0bd
000002e0: d5f1 95bd 5050 e23d 637a f3bd 1ac3 973d
000002f0: 5044 d0bd 970e 443d 8674 28be 0024 07be
-0.08197727 0.053487368 -0.039563414 -0.12280483 -0.056436844 -0.09937146 -0.052686848 0.0858532
-0.088270284 0.09962692 -0.07318384 0.037743583 -0.024290217 -0.03179625 -0.11667005 0.07311386
-0.07150813 -0.008400068 0.047060765 -0.15577377 0.049773045 -0.08714564 0.036955398 -0.16796008
-0.06736634 -0.022250634 0.058073647 -0.109186426 0.012259533 -0.15853798 0.0128371455 -0.086589865
-0.11708231 0.046147667 -0.07394385 0.012023342 -0.064454064 -0.08203202 -0.1303472 -0.16195896
0.03184434 0.07941364 -0.05827146 -0.07221341 0.02194474 -0.059575718 -0.050406218 0.03815116
-0.099015914 0.09962389 -0.03077936 0.026145818 0.010166733 -0.0775896 0.021123577 -0.00026951503
-0.045672122 -0.08714424 -0.07710992 0.055478938 -0.15439756 0.11565092 -0.11237822 -0.086991355
0.03920151 -0.1952401 -0.10701218 -0.16274893 -0.015576792 -0.3281955 -0.09318599 0.23718502
-0.38339046 -0.09048476 -0.042463183 0.052653752 -0.03720777 -0.21385089 -0.15978521 -0.058716737
-0.13163924 -0.21767248 -0.1686289 -0.041410957 -0.06867616 -0.18122678 -0.20224264 -0.1946536
-0.1374314 -0.17337592 -0.21382278 -0.07268755 -0.44526556 -0.04901127 -0.19235785 -0.30174556
-0.21762085 -0.18791269 0.30374628 -0.08507431 -0.008567334 -0.1613109 -0.20208687 -0.22367842
-0.15577416 -0.16582207 -0.22544158 -0.012650623 -0.038202334 -0.13263397 -0.12517568 -0.0044653397
-0.23199293 -0.30143937 -0.09032646 0.020933747 -0.12890507 -0.04497868 -0.1519228 -0.17533599
-0.050830416 -0.11361806 -0.11772343 -0.109203085 -0.21989006 -0.14113039 -0.039617043 -0.13640028
0.11614727 0.12780046 0.1273305 0.14295936 -0.16138013 0.08842643 -0.13093175 0.015588929
-0.080054425 0.011612262 -0.14819603 -0.0204337 -0.12183633 -0.15185356 -0.11916746 0.012154499
0.04325429 -0.108944826 -0.15784524 0.08511478 0.15671986 -0.069878854 -0.14803013 0.05614031
0.0994534 -0.119057484 -0.08830382 -0.018729001 0.020865483 -0.11547152 0.08021608 0.091222465
0.09847358 0.09184586 -0.009315573 -0.0439531 0.050436758 0.16827881 -0.103560366 0.12459804
0.13906421 0.09379909 0.095567144 -0.09363729 -0.016574444 -0.09811679 -0.045450166 0.068834975
0.12961756 0.09073429 0.106458224 0.103010364 -0.05513163 -0.12546933 -0.087386385 -0.085973315
-0.073215164 0.11050475 -0.11888578 0.074102595 -0.101692796 0.047865476 -0.164507 -0.13197327

gru.weight_hh_l0 f4 [192, 64]
00000000: 76e9 f7bd 2c0c 63bd 4b6b 833d 0334 393d
00000010: a757 133e 204b f7bd b3e5 5f3d 8480 ba3d
00000020: 9265 fc3c 885d a13d d987 b1bd fda2 2ebd
00000030: 8432 33bd 6260 743b 023e cabd 13b3 983d
00000040: 0916 13bd eb71 b1bc 820e dfbd 880d a83b
00000050: 039d 07be 6d3e cf3d 98f2 dbbc 97bf 853d
00000060: ea49 15be 1765 303e 9cf1 d63d a04f d6bd
00000070: 2a7c 3b3d 5669 b43d 7eae 95bd 5cba 51bd
00000080: c4c1 49be e1ae 31bd 4207 aabc aed6 8abc
00000090: bf6b c0bc 68d4 75bc eef8 863e c11e 01be
000000a0: 35a0 e0bd 89db 9f3d 25fb fcbc cef1 023b
000000b0: 99d8 373d aa1d 013e e3a7 edbd 6908 6b3d
000000c0: ef8a 60bb 89d6 49bc dc23 8bbd 4243 333d
000000d0: f809 79bd 6253 233d 267d 073e 2720 f53c
000000e0: 645f 4c3e 745d 31be 8f37 db3d 311d 25bc
000000f0: 363a 2d3e 8c46 8c3d 324c 02bd 5815 7c3d
00000100: 83d8 30bb afba cbbd 6f43 c4bd f61d e1bb
00000110: f1bf 3ebd 484e 92bd 4aa8 a6bd 9a99 c73d
00000120: db7c 4b3c be95 d5bc c8b6 c13d 8cb2 f2bd
00000130: 3a80 443d 9bbf 19be aa11 113e 4523 37bd
00000140: f536 2b3d 875c 933c 627f 0f3e f002 4a3e
00000150: a12e d0bd f7bc 053d 0251 503d 1c99 9d3d
00000160: 1588 a8bc ae54 913c 1f3d 91bd 4f15 0b3e
00000170: 68e8 1dbd dcd6 c4bd 3801 b53c b477 b3bc
00000180: 1062 293e 76af f2bd 16bd fdbb ebea 00be
00000190: 63ea c4bd 86c4 b1bc bf26 84be 9983 a43d
000001a0: 0fde 36be 2732 b63d 7fca 38be abdd 91bd
000001b0: 9c9c 0f3e ea2e 2f3d e74c f4bd 9cb0 0639
000001c0: 2086 64ba 8c95 b2bd 2fb7 703d 7ba0 97bd
000001d0: 870f e43d 03ee bebc a5ea 15bc d634 0f3e
000001e0: 79f7 d7bd 39ea 243d cfdd a13c 1c59 a0bd
000001f0: 9b1c b73b 26dc 92bb 27d3 a3bd 22b7 c13d
00000200: 0f06 353e 9972 88bd a02c 913d 9919 3e3c
00000210: 5b79 453d f425 afbd f8e9 d6b9 dbd1 7abd
00000220: 0b05 123d ba10 efbd 5ea1 42bd 94d8 3abd
00000230: 3d07 06bc 3482 653c 7ef6 debc f023 cc3a
00000240: dda8 afbc 0193 5d3c 79e5 053d 2f27 ab3d
00000250: 252d 93bd 3bd2 aa3b 2d7c a4bd cb15 813c
00000260: 949b 533d d933 f2bc e923 09bb c3fe efbc
00000270: daee cbbd 6ee9 febd fab7 473d 3fa1 7e3e
00000280: d4f0 823e cfdf 89bc 5ebf dc3c a995 073d
00000290: 5644 be3d 3335 993d c438 70bd 9e00 353e
000002a0: b6fd e6bc e538 71ba 69d0 ecbc 7018 923d
000002b0: 86a5 c3bd 3cdc 63bd 1d62 62bd d542 2c3e
000002c0: 4f21 1a3e 6a39 50bd db4f a43d be07 19bd
000002d0: d473 debd c808 443d 78a1 a83c 8386 a63d
000002e0: 07e3 d6bd 1053 6e3b cc32 59bd 1435 1d3d
000002f0: eef8 a0bd b31d 433d 2033 743c c818 dcbd
00000300: 607b 5b3e eb44 60bd 4dee e2bd ef50 353c
00000310: 5584 41bd 92bc 14be 8039 01bd f860 9d3d
00000320: 1b63 1bbd 0660 f73d b1d0 063b c5bb 7d3d
00000330: cdb0 9fbd 9771 f7bc c34a a93d 12a3 e03d
00000340: 8ab8 09be f204 fd3d 2dc9 e9bc 71c5 583e
00000350: acac 163e f67a 0cbe c4fa dcbd bdef 043e
00000360: 5aa1 b53d 2d12 77bc aba3 2dbd 61b9 6f3c
00000370: af98 9b3d fd57 93b9 b092 11be e39b 863d
00000380: d1cf 283e f3de c63d 7c14 11bc 9e6c d73c
00000390: 067d 00be 8885 3a3c 6c61 6ebe e863 403d
000003a0: 5f57 19be b599 c63d 196f 33be 1ae2 e83d
000003b0: 0bbf adbd b6f4 013e 9d28 a3bd 5910 923d
000003c0: cecd f63c 2013 63bd 4618 033e ef48 ae3d
000003d0: 0129 133e 4ebc 243e 6f12 923d 4538 a43c
000003e0: 1504 01be 1a2f f53d f732 da3c 218d 023c
000003f0: 6c38 0ebe 10f1 643e 67cb cdbd 9d05 663c
-0.12105076 -0.05543153 0.06416949 0.045215618 0.14388905 -0.12074876 0.054662418 0.09106544
0.030810151 0.07879168 -0.08668489 -0.042635906 -0.043749347 0.0037288894 -0.09875108 0.07456031
-0.035909686 -0.021660766 -0.10891439 0.005128566 -0.13243489 0.10119329 -0.026849076 0.065306835
-0.14578977 0.17226063 0.10495302 -0.10464406 0.04577271 0.08809154 -0.07308672 -0.051203117
-0.19702822 -0.04337967 -0.020755414 -0.01694807 -0.023488877 -0.015004255 0.26361793 -0.12609388
-0.10968057 0.07805545 -0.030881474 0.0019980553 0.044884298 0.12608972 -0.116042875 0.057381067
-0.0034262498 -0.012319216 -0.06793949 0.043765314 -0.060800523 0.039874442 0.13231334 0.029922558
0.19958264 -0.17320806 0.10703956 -0.010077761 0.16916737 0.06849393 -0.031810947 0.061543792
-0.002698452 -0.099477164 -0.095831744 -0.0068700267 -0.04656977 -0.07143837 -0.08137567 0.09746094
0.012419905 -0.02607238 0.09458691 -0.11850461 0.04797385 -0.15014498 0.14166895 -0.04471137
0.041800458 0.017988456 0.14013436 0.19727683 -0.10165144 0.032650914 0.050858505 0.07695219
-0.020572701 0.017740574 -0.07091736 0.13582347 -0.038551718 -0.09611294 0.022095308 -0.021907665
0.16541314 -0.11849873 -0.007743488 -0.12589614 -0.09615018 -0.021700155 -0.2581081 0.08032913
-0.17858146 0.088962846 -0.18045996 -0.07122358 0.14024585 0.04276935 -0.119287305 0.00012845028
-0.0008717496 -0.0871993 0.058768447 -0.07403656 0.11135774 -0.023306852 -0.009150182 0.13984999
-0.105452485 0.040262435 0.019759087 -0.07829496 0.005588127 -0.00448181 -0.079992585 0.09458758
0.17678092 -0.06662483 0.0708859 0.011602783 0.048211437 -0.08552161 -0.0004099158 -0.06123529
0.03564934 -0.11673112 -0.047517173 -0.0456167 -0.008180437 0.014008094 -0.027217146 0.0015574675
-0.021442825 0.013523818 0.032689545 0.08357083 -0.07186345 0.0052130497 -0.08031497 0.015757462
0.051662043 -0.029565739 -0.0020925945 -0.029296285 -0.09957667 -0.12446867 0.048759438 0.24866198
0.25574362 -0.016830353 0.02694672 0.03310171 0.09290378 0.0748085 -0.058647886 0.17676017
-0.02819715 -0.00092018984 -0.028907971 0.07133567 -0.095530555 -0.055629954 -0.05526935 0.1682237
0.15051769 -0.050836004 0.08023044 -0.0373609 -0.10861936 0.047859937 0.020584807 0.08131125
-0.10492521 0.0036365427 -0.05302696 0.038380697 -0.078599796 0.047635745 0.014904767 -0.10746914
0.21433783 -0.054753225 -0.110806085 0.011066659 -0.047245342 -0.14525059 -0.031548977 0.07684511
-0.03793631 0.12078862 0.0020571167 0.06194665 -0.07797394 -0.030205531 0.08266213 0.10968603
-0.13449302 0.12354459 -0.02853831 0.21169068 0.14714307 -0.13718781 -0.10790017 0.12982078
0.08868666 -0.015080017 -0.042392414 0.0146316 0.075974815 -0.0002810358 -0.14216113 0.06572702
0.16485526 0.09710493 -0.0088549815 0.02629691 -0.12547693 0.011384375 -0.23279351 0.046970278
-0.14974736 0.09697286 -0.17522849 0.113712505 -0.08483704 0.12691006 -0.07966731 0.07132024
0.030127432 -0.05543816 0.12802228 0.08510005 0.1437111 0.16087458 0.07132422 0.020046363
-0.12599213 0.119718745 0.02663563 0.007968218 -0.1388871 0.22357583 -0.100485615 0.014039424

gru.bias_ih_l0 f4 [192]
00000000: e035 c3bc d6a9 1abe d9b8 ccbd 73e8 ddbd
00000010: ece8 99be fec8 d5bc bd2b 9c3d f169 b83d
00000020: 3b36 92bd 0742 03be 8119 64bc a189 d63c
00000030: 6a0f 26be ed31 a0bc 1778 0abe 1f04 f9bd
00000040: 1857 383d fbb2 c9bd 05df 81bd 7c29 ec3a
00000050: ecd4 98be 0186 48bc 1f84 88be 3beb b73d
00000060: 407f 10be 2a26 21be a016 36bd 4141 78bd
00000070: e026 8b3d 63ad 4abe ea39 81be c440 67bd
00000080: e425 51bc d2d5 87be cbba adbd d05a 65bd
00000090: 0db8 c5bd ff6d 79bd 395e 4c3c 6208 e2bd
000000a0: a6a8 3cbe 63bf 76bd 27a7 12be 2fcd 153d
000000b0: ee0e 35bd dc30 173d 7e5f 073d d550 a6ba
000000c0: 23ab 08be ffc8 e13d 1552 f3bd be4e b6bc
000000d0: 862e 403d cc32 1ebc 9ce8 12be 71c6 81bd
000000e0: 2acb 0c3e 4c73 19be 0534 90bb f990 2dbe
000000f0: 7aa8 6abd 81a3 22bd 7ef7 36bd 3baf 25be
00000100: 36ae 4d3d 1529 27be cd1d 56bd d2c9 cebe
00000110: e0d7 48be c2f6 acbe 0c1d bebe 72d3 533e
00000120: 102c 3dbf 2685 f53b 6665 6abe e127 0f3e
00000130: 2965 5cbe 2342 e1be f4e9 a5be 1b24 5ebd
00000140: 104d 183d cac9 87be 340e d7be 4c4a 1abd
00000150: c1ae 54be a724 f9be 5839 dabe a14f 57be
00000160: 32d7 c4be 3b0c d3be 2a23 8fbe 67ec b6be
00000170: 5019 e0be 38ee 7dbe 0321 79be 4719 22bf
00000180: 1d3f aebe 71e0 a1be 5f9f ce3d 38e6 acbd
00000190: e755 ca3d aade edbe 0a8b 09be 8b54 0fbf
000001a0: d6f6 8ebe 073f 79be 9f11 a4be ea15 dcbd
000001b0: 3d07 8cbd e781 81be 9315 c13c 02b9 89bc
000001c0: ce8b 8ebe 6a4c 37bf 6810 babe b6b3 14bb
000001d0: 0307 72be 7004 8dbe 0c27 c7be 5412 90be
000001e0: 4c2e 35be 910e 25bd 01e4 acbd 10dd afbe
000001f0: 02f5 6dbe fb9b 91be b598 88be 7e20 b0be
00000200: 09ca 8dbd e892 823d 1eed 0a3d e3ad 7c3c
00000210: 3713 d53c 0799 d83c 8bab 91bc 5640 3d3c
00000220: 4a62 37bd c1f4 c2bc 5fe2 cb3d 0fdc 35bd
00000230: fc7a 113b 8397 9b3d 8606 6cbd 2ad6 4fbd
00000240: 0c74 74bb 61cd 53bd 3145 8bbd 517f 8fbd
00000250: 31f6 bcbd a6ac aa3d 6ee9 bb3d a885 adbd
00000260: 4173 0fbc fc07 b13d 21ac e43c a074 a9bd
00000270: 6617 07bd 8d25 24bc dc94 d03b 09d4 8abd
00000280: 72f5 52bd c897 32bd ea75 71bb 102e 14bd
00000290: f65a 0d3d 1b51 e1bc be0c 003e 0a8f c0bd
000002a0: a7c1 d13d d101 8bbd 9f03 973d 3d38 7bbd
000002b0: e178 b83c d5da 383d 50c3 eabc 6062 96bc
000002c0: 89df d3bd ce36 043d b029 2fbd 451e c0bc
000002d0: d603 bfbc 0254 7fbd d85e 303d 7127 b4bb
000002e0: 8b97 7b3d c64e c4bd 2897 9fbd b114 b4bd
000002f0: 7d9c c53d 8a38 40bd a9c1 483d 3451 3e3d
-0.0238294 -0.1510385 -0.099961944 -0.10835352 -0.30060518 -0.026096817 0.0762553 0.09004582
-0.0713925 -0.12818156 -0.013922096 0.026188673 -0.16216817 -0.019555056 -0.13522373 -0.12158989
0.045004934 -0.09848591 -0.06341366 0.0018017734 -0.29849946 -0.01223898 -0.266633 0.089804135
-0.14111042 -0.15737215 -0.04445517 -0.060609106 0.06794524 -0.19792704 -0.25239497 -0.05645825
-0.0127653815 -0.2653032 -0.084828936 -0.05599481 -0.096542455 -0.060895916 0.012473636 -0.11036755
-0.1842371 -0.060241114 -0.14321576 0.03657263 -0.04420369 0.03691183 0.033050053 -0.0012688885
-0.13346533 0.11024665 -0.1188089 -0.022254344 0.04691937 -0.009655666 -0.14346546 -0.06336678
0.13749376 -0.14985389 -0.0044007325 -0.16949834 -0.057289578 -0.03970671 -0.04466962 -0.16180126
0.05021497 -0.16324265 -0.052274514 -0.40388352 -0.196136 -0.3378201 -0.37131536 0.20686129
-0.7389536 0.007492679 -0.22890243 0.13980056 -0.21522965 -0.4399577 -0.32405055 -0.05423365
0.037182868 -0.2652114 -0.42003024 -0.03766851 -0.20769788 -0.48660776 -0.42621875 -0.2102647
-0.3844543 -0.4122027 -0.27956516 -0.35727236 -0.43769312 -0.24797904 -0.24328999 -0.6331982
-0.34032527 -0.31616548 0.100889914 -0.08442348 0.09879666 -0.46458942 -0.13431945 -0.5598838
-0.27922696 -0.2434045 -0.32044694 -0.10746367 -0.06837318 -0.2529442 0.023569858 -0.016811851
-0.27841038 -0.71600974 -0.36340642 -0.0022690124 -0.23635487 -0.27542448 -0.38896978 -0.28138983
-0.17693442 -0.040297095 -0.08441926 -0.34348345 -0.23237994 -0.28439316 -0.26679006 -0.3439979
-0.06923301 0.063756764 0.03391754 0.015422317 0.026010139 0.026440157 -0.017781993 0.011550983
-0.04477147 -0.023798348 0.09955286 -0.044399317 0.0022198549 0.07597258 -0.05762341 -0.050741352
-0.0037300615 -0.051709536 -0.068003066 -0.070067056 -0.09226645 0.08333711 0.091753826 -0.084727585
-0.008755506 0.08644101 0.027914109 -0.082741976 -0.0329813 -0.010018718 0.0063654017 -0.06778724
-0.051503606 -0.04360178 -0.0036843964 -0.03617674 0.034510575 -0.027504494 0.12504861 -0.094022825
0.102420144 -0.06787456 0.073737375 -0.06133293 0.022518577 0.04513057 -0.028657585 -0.018357456
-0.1034537 0.03227883 -0.042764366 -0.023451934 -0.023317259 -0.062335975 0.0430592 -0.005497866
0.06142382 -0.09585337 -0.07792503 -0.08793009 0.096489884 -0.04692892 0.049012814 0.04646416

gru.bias_hh_l0 f4 [192]
00000000: 061e 02bc ede9 5dbe 30a0 15be e1ac 55be
00000010: 09d3 7dbe f21d 1b3e 6a89 6cbd 8b92 eebd
00000020: b146 283d 024f 1bbe 220b 82bd 587b 4abd
00000030: fde0 4abd 3045 e53d 3cdb 87be c93a 643d
00000040: f726 43be d0b0 0d3d 0d98 3dbe a985 fc3d
00000050: 0b23 84be ef10 a6bd bbba efbd c80b f33d
00000060: adaa fcbd fc74 22be 78f2 26be dbf3 a9bd
00000070: e4c0 cebd 4a42 efbd fd72 d1bd c9d9 41bc
00000080: 0e05 ef3d 4016 03be 789e a83d 9b0f 1bbd
00000090: 9276 51bc 9bf1 dc3c fc20 293e e278 12be
000000a0: 9ceb 71bd 8d76 1dbe a05a e7bd d060 a9bc
000000b0: 2b8d b9bc debf b8bd 6a37 bebd dbcd 2d3b
000000c0: 3e87 61be 23ee 27bd 12f4 fdbd b486 55be
000000d0: 8d89 9bbc d401 7ebd 694a 0fbe 16e3 16be
000000e0: e3a7 1ebd 57cf d2bd 0814 edbd 1b89 75bc
000000f0: b1ae 7cbd 5cee 05be 3a9a d1bb cc90 9ebd
00000100: 0d8e d4bd e4c9 46be 4c94 94bd 23f7 83be
00000110: 34bf 80be 6a54 00bf 14b7 13bf e6bd 4e3d
00000120: 40f4 19bf f5ed 243e 8402 9fbe 9906 ac3c
00000130: 9bf0 81be d2d1 0bbf 6f70 c9be 4e67 383d
00000140: 525f d33d 0c93 a4be 9698 04bf 75b9 2cbe
00000150: 845b 8bbe e879 d8be 304d d7be 19d8 0cbe
00000160: 7c0a 4fbe 9509 9bbe 8e33 21be ebc6 31be
00000170: c17e d0be 0a7e c8be d961 eebe 31a2 1cbf
00000180: 9b00 efbe 9b71 acbe c895 51bd be8c 43bd
00000190: 5f58 363a f82f acbe e3e4 36be 9f14 0abf
000001a0: 2f8b 83be 138b 20be 74ba b7be cd2b d73c
000001b0: 7dde 00be 189b 50be 8c20 8f3d 7346 173d
000001c0: 7777 b9be 267b 2dbf 03d7 f7be 9010 0ebd
000001d0: 34ae 99be 983b 9bbe b876 d6be c864 05bf
000001e0: 1361 e6bd 7e8d 53be b1fa 81be 5c9a c1be
000001f0: 4536 93bd 3f3c 86be 28ce 8ebe d894 bebe
00000200: 47a7 f23c 40a6 833d 0326 a2bd 5220 5abd
00000210: 932e 923c 031a e63b d092 4b3d 3fb1 8cbc
00000220: d317 ac3d a643 2b3d 9867 4cbd 24ea b63d
00000230: 18a6 26bb 1473 9f3c 643b b43a dd81 e03d
00000240: 0530 aa3c 9be3 ce3d 4f32 973d 1458 90bb
00000250: 8030 abba 2c01 9fbd 1b5b adbd 07be d33d
00000260: fe99 dcbd c649 6bbd 697b 78bd 4391 1d3e
00000270: 79a1 263d 42f0 f43d e61d 583c 0a3e a93d
00000280: a31c d23c 8f90 873d a00f 163c 8c65 c03d
00000290: 806d e7b8 f71c ccbc 660c f6bd 7569 093d
000002a0: fdd3 39bc 411f dc3d 7019 0fbd b6e8 b83d
000002b0: 4ed4 46bd fecf 9bbd efca a13d 9a97 13bd
000002c0: 46d5 903d 0c44 d0bd 4749 d53c 121e eabc
000002d0: 3820 3ebb e800 193d 049c cb3c 5d71 0c3c
000002e0: 1381 55bd a6a2 40bd 3264 403d e9ad 053e
000002f0: 726d b7bd e663 363d d44e 993d 0233 193d
-0.007941728 -0.21671267 -0.14611888 -0.2086673 -0.24787535 0.15148142 -0.057748236 -0.116490446
0.04108304 -0.15166858 -0.0634978 -0.049434036 -0.04953097 0.11194837 -0.2653445 0.055720124
-0.19057833 0.03459245 -0.18515034 0.12330181 -0.25807986 -0.081086986 -0.11705538 0.118674815
-0.12337241 -0.15864938 -0.16303432 -0.08298465 -0.10095385 -0.116825655 -0.102270104 -0.011831709
0.11670886 -0.12801456 0.082333505 -0.03785668 -0.012784617 0.026970675 0.16516489 -0.14303926
-0.059062585 -0.15377255 -0.11296582 -0.020676047 -0.022650322 -0.09020971 -0.09287913 0.0026520404
-0.22024247 -0.04099859 -0.12400068 -0.20852166 -0.018986488 -0.062013462 -0.13993229 -0.14735064
-0.038734328 -0.10293453 -0.11576086 -0.014986302 -0.061690036 -0.13079208 -0.006396559 -0.077424616
-0.103786565 -0.19412953 -0.07254848 -0.25774488 -0.25145876 -0.50128806 -0.5770123 0.05047407
-0.6013832 0.16106398 -0.31056607 0.02099924 -0.2537888 -0.54617035 -0.39343593 0.045020394
0.10320915 -0.32143438 -0.5179533 -0.16867621 -0.27218258 -0.42280507 -0.42051077 -0.1375431
-0.20218843 -0.30280748 -0.15742323 -0.17361037 -0.40721706 -0.3915866 -0.46559027 -0.61184984
-0.4668015 -0.33680424 -0.051168233 -0.047741644 0.00069559173 -0.33630347 -0.17860751 -0.53937715
-0.25692126 -0.15678053 -0.3588444 0.026266003 -0.12584873 -0.20371664 0.0698863 0.03693242
-0.36223957 -0.67766035 -0.48406228 -0.034683764 -0.3001572 -0.30318904 -0.4188745 -0.52106905
-0.11248984 -0.20659444 -0.25386575 -0.3781308 -0.071880855 -0.2621784 -0.2789166 -0.37222934
0.02962078 0.06428194 -0.079174064 -0.05325348 0.017844474 0.007022144 0.04970056 -0.017174361
0.084029816 0.04181256 -0.049903482 0.089313775 -0.002542859 0.019464053 0.001375061 0.109622695
0.02077485 0.10102006 0.073826425 -0.004405031 -0.0013060719 -0.077638954 -0.084646426 0.10338979
-0.10771559 -0.057443403 -0.060664568 0.15387444 0.040681336 0.11959888 0.013190722 0.08263786
0.02564842 0.06619369 0.009158999 0.093943685 -0.00011035334 -0.024916155 -0.120140836 0.033547837
-0.011342046 0.10748149 -0.03493637 0.09028761 -0.048542313 -0.07608031 0.07900035 -0.03603325
0.07071929 -0.10169229 0.026035918 -0.028578792 -0.0029010903 0.03735438 0.024854667 0.00857195
-0.052125048 -0.047030114 0.046970554 0.13054623 -0.08956422 0.044528864 0.074857384 0.03740216

gru.weight_ih_l1 f4 [192, 64]
00000000: 6844 633d 4a7c 1ebe 0725 7fbd 3ff3 923d
00000010: 4a15 37bd 5a34 f8bd 15da da3d aeef 56be
00000020: 94bf 443e 10da e0bc 036f f7bd cda0 21be
00000030: 4f8d 113e b47b 7cbd e280 193d 5f41 803c
00000040: 4e7d 11be 00bc 33bc 0c0e a3bd 4673 153e
00000050: 1ab6 273e aff6 84bd 453e 4a3c 6142 3fbe
00000060: b276 2b3e 03e0 13be 8c1d bfbb d4be 203c
00000070: 2cc0 173e 15c7 e4bd ce76 07be 289c 1abe
00000080: 724b 8dbd ddf3 873d 9116 273e 87ac 2abe
00000090: 29ab babd 4105 b13d d361 ed3d 1972 4b3e
000000a0: 7af6 d0bd 9cdb 913d 0483 1bbe 0f88 a83d
000000b0: 0cb3 563d a6b5 8abd d278 e3bc 596f 693c
000000c0: bbd3 333e 378c f13b a042 df3c 9323 c93d
000000d0: 57c4 efba 3d35 b23c 9c93 b53d 9198 bbbd
000000e0: dd98 2e3e 28e5 853e d044 b03d 1910 babb
000000f0: 0c3f 0a3e 928c 2c3e 4a59 8ebd 78d9 b13d
00000100: ef74 efbd 2b2a f53c 5139 103d 6d60 293d
00000110: 7305 813d e943 01be 5c9f 243d 671c 633d
00000120: 9bc9 2a3d 1de0 64bc 7c6e 2fbd 9c5a 70bc
00000130: 6234 46bc e357 88bd a1b8 f1bc 6f89 c23d
00000140: 2ef5 95bd e5bc cf3d d754 62bb 0e74 f6bd
00000150: 193e 713d fece 293d 38ce 093c 1b1c e1bc
00000160: a599 6f3b 2729 7c3d 00b7 a7bd b40a 963d
00000170: bbba fabd 4fb9 8fbd effa 8a3d 3d23 17be
00000180: 0a0e 1ebe 8bb2 91bd 3fee 823d bd41 dfbd
00000190: 7c78 533d 6c51 a5bd 4cfb 8c3d 9793 c6bd
000001a0: 70d7 e5bd b447 d6bc f5f8 203d 770d 85bd
000001b0: 13fb ef3d be4a 64bc 9932 08bb d3b0 283d
000001c0: a226 0b3d 171d 773d 5abc 15ba e21d 91bc
000001d0: 5b8c 023e d8b6 073e 29d9 ea3d 8a12 76bd
000001e0: 7c88 b83d edae b03d 0351 c1bd 34eb 1abd
000001f0: b9a4 253e 3ecd c73d 2f0a b3bd 6a50 513d
00000200: 6f40 04bd 7556 cb3d a244 33bc d85d 9d3d
00000210: ae8b 573d 3511 8b3c fdf5 e7bd 94ee 703d
00000220: a4c9 fa3d 293d c13c 0559 24bd 76ba b0bd
00000230: 0d63 10be 390a a13b 533a 75bd 4e60 233e
00000240: c7f1 7e3c e0f7 a4bd 22d1 49bd 2e7b 6d3d
00000250: b14c 273d 8094 193d bb53 52be 8a9f c63d
00000260: 1d5a 313e 80ba 0fbe 3247 5a3d 5775 213d
00000270: 3389 1b3a 8885 a7bd 04e7 eb3c e79c 583d
00000280: 11bc d03d 441f 543c b543 b2bd babe 3c3c
00000290: 89c3 523c 0f2d d23d 848c d83c 698b da3c
000002a0: c9e1 5e3d 7e5c eb3d 2b25 e23d 3131 b43c
000002b0: de73 d23d 1752 f1bd a685 d0bd 522e 423e
000002c0: 4b4a 523e 5ce3 473d 1f6c ae3d 1a7d b43d
000002d0: 6d77 66bd 1729 553c adc5 3cbe 73d3 0b3d
000002e0: d9a1 e03b 2f0b 023e 7f1d c4bd eb6a 773d
000002f0: 748a 24be bd0f ca3d a917 563c f12d 8bbd
00000300: adf9 5f3e 541c c8bd d214 d93d bac3 64bd
00000310: 7be9 18bc 5136 283c 9c1e 99bb f5cf e03d
00000320: 9d18 d3bd afc7 f5bc 3c74 093b bae7 87bd
00000330: 7174 143e 2ba8 02be 6d46 0f3e 9869 b8bd
00000340: 8f6b 3b3c f02a a3bd afa3 753d a4af d73d
00000350: 2ce2 c93d faa1 00be 1c3a 92bd c630 803e
00000360: 7626 de3d 12b3 583d f3f3 7dbd b3b7 58bd
00000370: 14b9 e3bd 8185 a9bd b067 90bb 2776 ce3d
00000380: efef 213e 0f33 113e 7217 70bd bbfb 82bd
00000390: 61d0 edbd 7886 a53d 6a0a 24be dd49 5f3e
000003a0: 07e7 29be 2148 e13d c153 31be 4009 0ebd
000003b0: 32f7 4cbd 3d1a 26bd 4421 b5bd 48c0 2d3c
000003c0: 0215 b53d b429 17bd 9c0b 263e 5ab8 2cbd
000003d0: 3152 813d ff64 e6bc 4d91 5b3d 400c d4bb
000003e0: 20f2 9ebe 0cde 233d 1a09 4d39 963f 8cbd
000003f0: c82b 47be a458 5b3e 0d46 903b e3bb febd
0.05548516 -0.154771 -0.06229117 0.07175302 -0.044698037 -0.1211936 0.10686127 -0.20989868
0.19213706 -0.02744773 -0.12081721 -0.15783997 0.14214061 -0.06164141 0.037476428 0.015656171
-0.14207956 -0.010970116 -0.079616636 0.14594755 0.1637806 -0.06492364 0.012343948 -0.18677665
0.16744497 -0.14440922 -0.0058323797 0.009811122 0.14819402 -0.111707844 -0.13228914 -0.15098631
-0.06899156 0.0663831 0.16317202 -0.16667376 -0.091146775 0.0864358 0.11590924 0.19867744
-0.10203262 0.07121965 -0.15186697 0.08229076 0.052416846 -0.06772928 -0.027767573 0.014247739
0.17561238 0.0073714512 0.027253449 0.09821238 -0.0018292767 0.021753902 0.08866045 -0.09159959
0.170505 0.26151395 0.08606875 -0.0056781885 0.13500613 0.16850498 -0.06950624 0.08684057
-0.11692225 0.029927334 0.03521091 0.041351724 0.062998675 -0.12623562 0.04019104 0.05544701
0.041696172 -0.013969448 -0.042829975 -0.01467004 -0.01209745 -0.06657388 -0.029506983 0.0949887
-0.07322155 0.10143451 -0.0034535432 -0.120338544 0.05889711 0.04145717 0.008410983 -0.027479222
0.0036560085 0.061562683 -0.08189201 0.0732626 -0.12242647 -0.07017767 0.06786143 -0.14759536
-0.15435043 -0.071141325 0.06393098 -0.109012105 0.051628575 -0.080721706 0.068838686 -0.09696119
-0.11222732 -0.026157238 0.039299924 -0.06496709 0.117178105 -0.013933836 -0.0020782112 0.041184258
0.03397239 0.060330477 -0.00057119655 -0.017714445 0.12748854 0.13253343 0.11467201 -0.060076274
0.09010407 0.086271144 -0.0943928 -0.037821963 0.16176118 0.09755944 -0.08742177 0.05110208
-0.03228801 0.099286 -0.010941656 0.07683915 0.052623443 0.016975978 -0.113262154 0.058821276
0.12245491 0.023588734 -0.04012396 -0.086293146 -0.14100285 0.0049145487 -0.059870075 0.15954706
0.015560574 -0.08055091 -0.04927171 0.0579788 0.040844623 0.037495136 -0.20539753 0.096983984
0.17319532 -0.14035988 0.053290553 0.039418545 0.0005933225 -0.08179766 0.02879668 0.05288401
0.10192121 0.012946907 -0.0870432 0.011520082 0.012864002 0.102625005 0.02643419 0.026677804
0.054414544 0.11492251 0.110422455 0.021996113 0.10276006 -0.117832355 -0.101817414 0.18962982
0.20536153 0.04880081 0.08516716 0.08812924 -0.056266237 0.013010285 -0.18434782 0.0341372
0.0068552312 0.12699579 -0.095759384 0.0604047 -0.1606844 0.09866283 0.013067164 -0.06795872
0.21872588 -0.09771028 0.10599674 -0.055850722 -0.00933301 0.010266856 -0.0046728384 0.10977165
-0.10307429 -0.030002443 0.0020973822 -0.06635995 0.14497544 -0.12759463 0.13991709 -0.090045154
0.011439218 -0.07967174 0.059970554 0.10531548 0.09857592 -0.12561789 -0.0713999 0.2503721
0.108471796 0.05290515 -0.062000226 -0.052909564 -0.11119285 -0.08277417 -0.0044068918 0.100811295
0.15814184 0.14179634 -0.05861611 -0.0639567 -0.11612011 0.080822885 -0.16019598 0.2180552
-0.16592036 0.110000856 -0.17317106 -0.03467679 -0.05004043 -0.040552367 -0.088442355 0.010604925
0.088418975 -0.036905006 0.16215366 -0.042168 0.06314505 -0.02812433 0.053605366 -0.006471187
-0.31044102 0.040006682 0.00019553714 -0.068480656 -0.19450295 0.21420532 0.004402882 -0.1243818

gru.weight_hh_l1 f4 [192, 64]
00000000: a6bf 37be 448d b9bd d5f4 963d 4406 d53c
00000010: 57c4 4fbe 6507 8fbd 9da3 e03d 0bd7 4dbd
00000020: e62c 05be e886 21be d623 203d 2fb9 f83c
00000030: 6f13 1e3d 2605 233d 8cc7 b23c 48b1 63bc
00000040: 0078 613c 37cb 98bd 9f2d 403e b023 103e
00000050: f11d 8abd b3cb 9c3d af2e d33d a42a fe3c
00000060: ade4 4a3e df7e 03be a100 083d 6447 203e
00000070: 92e4 27be b34a cb3d 0ff1 9bbd 1258 95bc
00000080: e086 1e3d f821 2c3e 8c74 60bd e3ad 013e
00000090: 9fea b2bd 2c82 75bc 955d 91bd 97a5 4ebb
000000a0: 5a23 aebd e7f9 1b3e 1b14 f0bd 057b 913d
000000b0: a8d3 43bd 9256 123e dc5e cabd 122e 41be
000000c0: c6cb c13d 7337 38bd dd37 173e b2f1 ad3d
000000d0: f994 003e 1b03 1c3e d22b 9cbd 9eaa 503d
000000e0: 8d4c ce3d 1c20 433c 98df 62bc a47b 9a3c
000000f0: 6d2c cb3d 5af6 49be 4ef9 f0bd 5c5c 963d
00000100: 9308 c53d 8ee0 b6bd 1a3a c53d 19fd 8c3b
00000110: 35d4 e73c 989a ef3d 1a03 33bd f3dd 3a3d
00000120: 5c09 cc3b bca2 08be 84a0 d1bb d017 f2bb
00000130: 4ff3 273c cd05 433d 9f6c 87bd b7ff b1bd
00000140: afae ebbc 728b a2bc 2e78 d1bc eea3 5a3c
00000150: f897 ab3b 172b 62bc 3d02 27bd e198 82bd
00000160: b78b ce3d 362e 623d d1fb ccbc 629d cdbd
00000170: a0a7 4cbd ad89 0cbd badd c1bd da1f 08be
00000180: a80e a03c 131e 223d 7009 81bd 04f3 90bd
00000190: ce32 dfbd f7ed d53c 6aec be3d 6196 913d
000001a0: 6deb 833d 0fec 1d3e 0c70 8d3d a2ae 8abd
000001b0: 80aa 5dbd 56cb 3d3d 4222 75bd 0a2c 043e
000001c0: 2988 debd 9136 cbbc 4399 c03d e489 523d
000001d0: 4b55 46bd 0639 9d3d 51e3 b2bd 207e 8abd
000001e0: 0960 293d 43f6 283c d98a 753d cd75 80bd
000001f0: 431c c13d e4a7 acbd 33cb 19bd 63e7 25be
00000200: ab1b c73d a69e a3bd bf48 653d ed29 11be
00000210: 68cd c43d 0ff6 85bd 8f3d dabd 719d 8bbd
00000220: a05f f8bd d0e4 2cbe 978a 333c 8255 28be
00000230: dc6d 03be b91b d4bd 129a 41be 64ac e9bd
00000240: ed37 e8bd cd32 7bbc 77eb 10be a3e5 ea3d
00000250: e59b 6fbb df77 313d 5664 7bbd e825 163d
00000260: ceec 96bd ad10 f8bd 403c 363e d41a 1e3d
00000270: 8845 85bd fa49 9dbd 754b e4bc 51d7 9fbc
00000280: 6990 14bd 567e 3f3e 9a7f 3cbe 0d81 adbd
00000290: 5397 b7bd 777e f4bc ec03 083d b7b4 57bd
000002a0: 3938 353e cc72 1dbd 1050 99bb 2698 2d3c
000002b0: 8908 2d3c 2396 ae3d e0d7 b0bc 4d20 f23d
000002c0: 3a24 b1bc ffac 37be 50a4 753d e786 4fbd
000002d0: f44b 9dbd e66d a8b9 384f 5e3c 4b67 303e
000002e0: b344 30bc cfa3 67bd afcc 403e af48 103e
000002f0: af54 193d 598f b33c f0e0 d63d a8cb 9c3d
00000300: 4f5e 01be 6315 d53b 3237 8ebd 506f b83c
00000310: c010 61be 64fc e9bd 8239 dfbc cfb7 8ebd
00000320: 1fc0 c43d ad3a f6bd d4ae 3fbe 4235 5dbd
00000330: f78f 51bd 0903 9b3d 41b9 c4bc eee1 8cbd
00000340: 2d51 07bd be02 84bd 18ac 2f3e bde5 00bd
00000350: 391f da3d ecbb 04bd 8b44 47bd 0c62 8a39
00000360: 355a 463e 452e 13be a371 903d d891 153d
00000370: 3893 1fbd e611 9a3b 154c 1a3c 201e 14bc
00000380: 838b d5bd 3c16 0c3d 1090 163e 7fc8 9d3d
00000390: ef46 fbbd e8b8 003e 80c8 f03c 55bd 69bd
000003a0: d762 883d efe6 c33c 4419 5cbd 8871 373e
000003b0: 10da d83b 20f5 f63d 2ea7 c6bd 20ba 70bd
000003c0: 9fc2 6e3c 1496 a93d ac79 a1bd 82c2 953d
000003d0: 3196 a53c 9243 b0bd 394a 70bd 0df2 2dbe
000003e0: 9375 0d3d 8512 0cbe eda0 543d fa80 b9bd
000003f0: 33ad c2bd 5546 7cbd e22f 8e3c 2f54 91bc
-0.17944202 -0.090601474 0.07370917 0.026003964 -0.20289741 -0.06983832 0.10968707 -0.05025391
-0.13005409 -0.15774119 0.039096676 0.03036174 0.038592752 0.03979983 0.021823667 -0.013897248
0.01376152 -0.07460635 0.18767403 0.14076114 -0.06743992 0.0765604 0.103116386 0.031026192
0.19813795 -0.12841366 0.033203725 0.15652233 -0.16395786 0.09926357 -0.07614338 -0.018230472
0.038702846 0.16809833 -0.054798648 0.12663989 -0.08736157 -0.014984649 -0.070979275 -0.0031531805
-0.085028365 0.15232049 -0.11722585 0.07103542 -0.047809273 0.14290836 -0.09881374 -0.1886523
0.09462695 -0.044974755 0.14767404 0.08493365 0.12556829 0.1523556 -0.076255456 0.050943963
0.10073195 0.011909511 -0.013847254 0.018857785 0.09920583 -0.19722882 -0.11766301 0.07341835
0.09620776 -0.08929549 0.096302226 0.0043026325 0.02829943 0.11699408 -0.04370413 0.045621824
0.0062267017 -0.13343328 -0.006397309 -0.0073880926 0.01025088 0.047612954 -0.06612515 -0.08691352
-0.028769819 -0.019841883 -0.025570001 0.013344748 0.005236622 -0.013804219 -0.04077362 -0.063768156
0.10085242 0.05521985 -0.02502242 -0.10039784 -0.049964547 -0.034310985 -0.09466119 -0.132934
0.019538239 0.039579462 -0.06300628 -0.070776016 -0.10898362 0.026114447 0.09322436 0.071087606
0.06441388 0.1542208 0.06906137 -0.0677159 -0.05411768 0.046336494 -0.059847124 0.12907425
-0.10865814 -0.024806293 0.09404232 0.051401034 -0.048421185 0.07676892 -0.087347634 -0.06762338
0.041351352 0.01031262 0.05994687 -0.06272469 0.094292186 -0.0843046 -0.0375473 -0.16201548
0.09722074 -0.07989244 0.05597758 -0.1417615 0.09609491 -0.065410726 -0.106562726 -0.06817139
-0.12127614 -0.1688416 0.010958335 -0.16438869 -0.12834877 -0.1035685 -0.1890643 -0.11409834
-0.11338792 -0.015331936 -0.14152323 0.11469581 -0.0036561426 0.04332721 -0.061374985 0.036657244
-0.07369386 -0.12112556 0.17796421 0.038599804 -0.06507403 -0.076801255 -0.027868012 -0.01951185
-0.036270533 0.18700537 -0.18408051 -0.0847188 -0.0896441 -0.02984546 0.033206865 -0.052662577
0.17697228 -0.038439557 -0.0046787336 0.010595357 0.010561117 0.0852473 -0.021587312 0.11822567
-0.02162372 -0.17937087 0.059971154 -0.050665762 -0.076805025 -0.00032125338 0.013568692 0.17226903
-0.010758567 -0.056552704 0.1882808 0.14090227 0.037434276 0.02191894 0.10492122 0.07656032
-0.12633632 0.0065027936 -0.069441214 0.022514015 -0.21979046 -0.11425093 -0.027249102 -0.069686525
0.09606957 -0.1202291 -0.18719035 -0.05400587 -0.051162686 0.07568938 -0.024014117 -0.0687903
-0.0330364 -0.064458355 0.17155492 -0.031469095 0.106504865 -0.03240578 -0.048649352 0.00026394462
0.19370349 -0.14373119 0.070529245 0.03651604 -0.038958758 0.0047018407 0.009417553 -0.0090403855
-0.104270004 0.03420089 0.14703393 0.07704257 -0.12269389 0.12570536 0.02939248 -0.057065327
0.06659477 0.023913829 -0.053735033 0.17914402 0.006617792 0.12058473 -0.09699856 -0.058771253
0.0145727685 0.08280578 -0.07884535 0.0731249 0.020213218 -0.08606638 -0.058664534 -0.16986866
0.034535956 -0.1367894 0.051911283 -0.090578035 -0.095056914 -0.06159051 0.017356817 -0.017740337

gru.bias_ih_l1 f4 [192]
00000000: 8993 88be 3952 20be b8c2 72bd fd59 4bbe
00000010: 5ccd 0dbe 3629 4bbe 3eae 36be 8da4 23be
00000020: 13ba 2f3d d0d6 8abc 3773 bf3d 7982 e3bd
00000030: 9203 4f3d 516c 5dbe 85e0 0ebe c105 acbd
00000040: f0d2 223d d21d 32bd acae 95bd cf9b d1bd
00000050: d8d9 21bd d9ee c3bc 1b70 01be 7f28 b5bd
00000060: e396 83bc 9edc acbd 7c5a 40be f7ab 12bc
00000070: e9b1 59be efef 28be 6536 07be da01 f3bd
00000080: f14c e6bd 0c70 f3bd b36f 00be bab5 263d
00000090: 8520 d3bd 1cb7 37be 32af 17be 32ec 36be
000000a0: b983 97be 6852 b63b ef65 20be 816b 81be
000000b0: 2e7d 98bd efa0 10be adbc 30be 7dab bdbd
000000c0: 04d7 25be 09f3 4dbd 1aaf 95be 216c dfbd
000000d0: cf57 b5bd 1471 ccbd 887b 2ebe 94c4 43be
000000e0: 5a5b be3d 54db 03bc f0b4 a7bc ffee 39be
000000f0: 9f54 953b 5909 20bd 1af5 3bbd 6717 b4bb
00000100: b1e3 a0be e613 10be dacc bbbc a67f fabe
00000110: 6172 dc3d 2b0f 1fbe 7fa4 b7be 3d57 66be
00000120: 09bb 78be 244a 72be ff33 2cbe 6b7c e5be
00000130: 0c79 23be d760 3abe b74e c0be 46eb 30bd
00000140: 8b42 9dbe 3636 01bf f330 9ebe 7084 51be
00000150: 7d09 12be 5e35 94be d66a 83be 925d cabe
00000160: 0440 f1bd 9430 02bf 2c3c e53d 34b8 b2be
00000170: 060a d6be ab69 5bbd 7626 08be 456f ccbe
00000180: 2b4c a4be 9ccf 67be dde2 d5be a041 ccbe
00000190: 132d 52be 43bb edbe 50ef 79be ca49 d7be
000001a0: 19ac f2be f124 b73d 509e acbe 6da3 95bb
000001b0: c95c 09bf acd3 a1be 9713 78be db8b 28be
000001c0: 8e48 6cbd 1c8a a0be fa6a 47be f845 02bf
000001d0: ed57 eabe 08e8 e5be 07b6 9fbe 548a 13bf
000001e0: 82ba 07bf edb9 a3be bd04 cdbe de8a c5bd
000001f0: 68e1 14be 1467 d1be 6438 edbe 0cee 47bf
00000200: 8eb6 6a3d 4cf9 4d3d 64ec 6a3b 6a4a 333d
00000210: 4e44 df3d fef3 55bd 72ae 733d 35fe 693d
00000220: d2dc 14bd 47b1 9a3d 455a ebbd 4b84 b63d
00000230: 7918 043c cb46 18be 2290 6d3d a0bb 8b3d
00000240: 9e9f 113d 11b3 863d 6dc0 083a 995e 98bd
00000250: 00a6 7bbd 7b8f 8abd 7de5 ae3d 5cf1 bfbc
00000260: 387c e6bd 85da a23d b201 95bd 2be6 00be
00000270: 7e02 bb3d 9052 753d edc3 263d 9a4f fcbc
00000280: a9e3 f3bc 1e9b 10bd fb27 3b3d a4cb 27bd
00000290: d2dc ce3d 3ad7 b1bc 9ced 3b3d 2327 b7bc
000002a0: 3c80 b1bd 55a8 4abd 2d0b 653c 2b99 e8bd
000002b0: 3a66 a03b a6e0 66bd d5ae b43d c389 3a3d
000002c0: 44df a1bc 81dc a13d e99d c8bc 8073 7bbd
000002d0: 9d23 91bc 0cca 983d ec2f 443d 1ea1 aabd
000002e0: 2af2 803d 9f18 953d 251b 6dbd 3afe 993c
000002f0: 9d1e 3a3d 7757 ec3d d985 09bd a3c0 a5bc
-0.2667506 -0.15656365 -0.05926773 -0.19858547 -0.1384787 -0.1983994 -0.17839906 -0.1598074
0.042902064 -0.016948134 0.09348147 -0.1110887 0.050540514 -0.2162335 -0.13952835 -0.08399535
0.039751947 -0.04348547 -0.07308707 -0.10234796 -0.039514393 -0.023917602 -0.12640421 -0.08845615
-0.01606316 -0.08440517 -0.18784517 -0.008952132 -0.21259274 -0.16497777 -0.13204344 -0.118655875
-0.11245144 -0.118866056 -0.1254261 0.04070065 -0.10308937 -0.17940944 -0.14812925 -0.17863539
-0.29592684 0.005564023 -0.15663885 -0.2527733 -0.07445751 -0.14123891 -0.17259474 -0.092612244
-0.16195303 -0.050280605 -0.29235154 -0.10909296 -0.08854639 -0.099825054 -0.17039311 -0.19117957
0.09294768 -0.008047897 -0.02047202 -0.18157576 0.0045572068 -0.039071415 -0.045888044 -0.005495954
-0.31423715 -0.1407009 -0.02292483 -0.48925513 0.107640035 -0.1553313 -0.35867688 -0.22494216
-0.24290098 -0.23661095 -0.1681671 -0.44821486 -0.15964144 -0.18201004 -0.37560055 -0.043193124
-0.3071483 -0.50473344 -0.3089672 -0.20460677 -0.14261432 -0.28946966 -0.25667447 -0.39524513
-0.11779788 -0.50855374 0.111931175 -0.3490616 -0.41804522 -0.05356757 -0.13295922 -0.39928642
-0.32089362 -0.2263779 -0.41774645 -0.39893818 -0.20525007 -0.46431932 -0.24407697 -0.42048484
-0.47396925 0.08942593 -0.33714533 -0.004566601 -0.53657204 -0.31606805 -0.24226223 -0.164596
-0.05768638 -0.3135537 -0.19474402 -0.50888014 -0.45770207 -0.44903588 -0.31193563 -0.57632947
-0.53018963 -0.31977788 -0.40042678 -0.096456274 -0.1453911 -0.40898955 -0.46332085 -0.78097606
0.057303004 0.050286576 0.0035846466 0.04377214 0.109017 -0.052234642 0.059492536 0.057127196
-0.036343403 0.07553344 -0.11491827 0.08911952 0.008062475 -0.14870755 0.057998784 0.06822896
0.035552613 0.06577123 0.0005216662 -0.07439918 -0.061437607 -0.06765648 0.08539865 -0.023430519
-0.112541616 0.079518355 -0.07275714 -0.12587802 0.09131335 0.05989319 0.040714193 -0.030799676
-0.029771643 -0.03530418 0.045692425 -0.04096569 0.10100712 -0.021709073 0.0458809 -0.022357529
-0.08667037 -0.04947694 0.013979715 -0.113573395 0.004894999 -0.056366585 0.08822409 0.045541536
-0.019759782 0.07903386 -0.02448936 -0.061389446 -0.017717177 0.074604124 0.047897264 -0.08331512
0.06296189 0.07280087 -0.057887215 0.018797982 0.04543935 0.1154012 -0.033574913 -0.020233458

gru.bias_hh_l1 f4 [192]
00000000: 8617 85be 70bc 28be ab57 d9bd d4d8 8ebe
00000010: a5e1 79be 00a3 13be e332 83bc 5096 f2bd
00000020: dd49 5d3d 3bfd 343c 3020 1a3c 9e77 72bd
00000030: b02d b7bd 18cc 2ebe fd64 05be 5d8e dbbc
00000040: fc04 06be a459 0abd d22e 19be 6c3c 33bd
00000050: 80fc 9cbd e258 b53d fc7e b0bd 75e2 1ebd
00000060: ed79 9bbc 8712 d73c 337d fabd 18c8 1dbd
00000070: fa46 24be 74f4 33be 0ece 3b3d b63c 81bd
00000080: 11c8 38be aef8 87be de0e 1bbe 8d54 04be
00000090: e3ff 35bd de10 e9bb 9ddc 66bb 1b68 18be
000000a0: fa6c a8be 8be2 2c3c 12d8 3ebd 7c5f e4bd
000000b0: 25fc b33d d0ce dbbd 1995 01be 84ad 13be
000000c0: 70e9 b13d 7947 abbd e97b 9ebe d29b 6abe
000000d0: 3306 863b c020 70bd 597f 59be e6c4 3dbe
000000e0: 8142 f4bb a459 773d 601e babd b3f7 62bd
000000f0: 4c04 4abe e240 343d b106 07be a3c6 353d
00000100: feca acbe 65ae 25bd a33c 77bd 4a0f dfbe
00000110: 4611 fa3b 16a1 aebc 070b aebe 58b0 0ebe
00000120: 7bc9 47be 5b59 3dbe 106f 3abd 1722 cfbe
00000130: bee0 41be 7050 bbbe e124 16bf 703d 203d
00000140: 8416 45be 9458 cfbe 858b 9bbe f4db 1ebe
00000150: dffb c0bd 8f97 9abe fb7c 84be c980 11bf
00000160: e008 62be c4d2 15bf 2720 a63c f48a 01bf
00000170: 0d5d a5be 9635 5ebe 6af9 ddbd a5b6 d1be
00000180: 995a 82be f033 a5be fc62 9abe 8a3f 06bf
00000190: abeb c1be b8b9 06bf d90d 9ebe 2381 9dbe
000001a0: 66b3 8bbe 9d2a 853d 6ad3 87be 041c aa3d
000001b0: 7816 38bf 7fe0 e9be e815 73be 7ff7 fabc
000001c0: 978b 1dbe 82a6 1fbe 7257 c5be f276 06bf
000001d0: 22a3 f7be 8b88 b5be 1b38 acbe 752b c9be
000001e0: 765c 0dbf 1f37 c3be 1f75 95be 119e 50be
000001f0: f52d 16be 4cda e1be 7219 c0be 9695 3abf
00000200: ccc7 d13c f5f3 bfbc 2d4b 8f3d 9829 20bc
00000210: 4cd3 4d3d 055e 9e3b 88f9 f7bd 2c47 093d
00000220: 3ce2 91bc b1fb bb3c 5b61 483d 6027 f3bd
00000230: da97 803d 7815 08bc e1e3 20be bef0 05be
00000240: 416e 76bd 09e4 58bd 9065 b9bd 2a13 7d3d
00000250: 7973 943d 2a7b d039 2c95 e6bd e5f5 dfbc
00000260: a26b 6a3c 8775 373d 3e55 f93c b835 c43d
00000270: 6672 a9bd a431 06be 4abd 0bbd 0042 b43d
00000280: 3444 aa3d f7ca 35bc 5a43 16be c19a 833a
00000290: f22f 983d 449c 623d 3626 973d 2912 bd3d
000002a0: db81 24bd 3325 853c a1bb 1abd 3dab 3b3d
000002b0: 25d3 8f3d f5c0 83bd d5bd a1bd c30b 46bd
000002c0: 5e77 e7bc 3b33 173c 076a 74bc 58c5 d73c
000002d0: 4c34 893b 0ae5 103b d4b5 503d 1712 353d
000002e0: 9cde 97bb 1fef e3bc 6b95 1e3e ddcf dcba
000002f0: 65d4 15be ddc5 a9bd c7f4 e53d 4485 773d
-0.2599451 -0.16478133 -0.106124245 -0.27899802 -0.24402483 -0.14417648 -0.016015476 -0.11845076
0.05402552 0.011046703 0.009407088 -0.059196107 -0.08944261 -0.17070043 -0.13026805 -0.026801283
-0.13087839 -0.033776894 -0.14959267 -0.043758795 -0.07665348 0.08854844 -0.0861797 -0.038790185
-0.018979037 0.026253952 -0.12230911 -0.038520902 -0.160427 -0.1757372 0.045850806 -0.06310408
-0.1804507 -0.26556915 -0.1514239 -0.12922879 -0.044433486 -0.0071126064 -0.003522671 -0.14883463
-0.32895643 0.010552059 -0.04659278 -0.11151025 0.08788327 -0.10732806 -0.12654532 -0.1442166
0.08687103 -0.08363242 -0.3095391 -0.22911003 0.0040900945 -0.058624983 -0.21239986 -0.18532142
-0.007454217 0.060388222 -0.09087825 -0.055412006 -0.19728202 0.04400719 -0.13186146 0.044378888
-0.3374862 -0.04044952 -0.060360562 -0.43566352 0.0076314537 -0.021317046 -0.33992788 -0.13934457
-0.19510452 -0.18491118 -0.045516074 -0.40455696 -0.18933389 -0.36584806 -0.5865002 0.03912109
-0.1924687 -0.40497267 -0.30379882 -0.15513593 -0.094230406 -0.30193755 -0.25876603 -0.56837136
-0.22073698 -0.5852473 0.020279003 -0.5060265 -0.32297555 -0.21700129 -0.108385876 -0.4095966
-0.25459746 -0.32266188 -0.30153644 -0.524407 -0.37875113 -0.52627134 -0.3086994 -0.30762586
-0.27285308 0.065022685 -0.26528484 0.08306125 -0.71909285 -0.4567909 -0.23738825 -0.030635593
-0.1538528 -0.15590861 -0.38543278 -0.52525246 -0.48366648 -0.35455737 -0.33636555 -0.39290968
-0.5521921 -0.38127992 -0.2919092 -0.20372798 -0.14665969 -0.4411186 -0.37519413 -0.728845
0.025607966 -0.023431757 0.069967605 -0.009775542 0.050250337 0.0048329853 -0.12108141 0.03351514
-0.017808072 0.022947164 0.04892097 -0.118727446 0.062789634 -0.0083059 -0.15711929 -0.13080117
-0.06016374 -0.052951846 -0.09052575 0.061785854 0.07248587 0.00039764616 -0.11258921 -0.027338931
0.014307888 0.044789817 0.030436154 0.095805585 -0.08273773 -0.13104874 -0.034116067 0.08801651
0.0831379 -0.011095754 -0.1467413 0.0010040627 0.0743102 0.055324808 0.07380335 0.092319794
-0.040162902 0.01625309 -0.037776593 0.045817602 0.070226945 -0.06433288 -0.07897536 -0.04835106
-0.02825516 0.009228523 -0.014917857 0.026339218 0.0041871425 0.0022109174 0.050954655 0.044206705
-0.0046346914 -0.027823983 0.15486686 -0.0016846616 -0.14631803 -0.082896926 0.11228328 0.060429826

fc.weight f4 [1, 64]
00000000: aa97 083e f991 5d3d 749c 263d 7744 2bbe
00000010: 7aef 5b3d b252 e43d eb85 2fbe 4c3b 7b3d
00000020: c328 9ebd ae08 c7bd 5ade 923d 4662 ccbd
00000030: 1032 8cbd 408f 31be e56f 00be da8f 44bd
00000040: 0d3c e1bd 66a1 58bd 3e4f afbd aebe fb3c
00000050: ced8 953d 2bf3 1f3e abbf 05be b85b db3d
00000060: 7d0a 86bd 547a c5bd d632 113e c403 1fbe
00000070: d1ae 133e ab28 93bd 8089 c63d 78dc 19be
00000080: d440 393e 5ce9 0b3e ce66 46be 3f8f f93d
00000090: 91de c63d 6147 f4bd ebbc 92bd 02c8 24be
000000a0: 0182 073e b1be 45bb ed17 093e a6f4 fcbd
000000b0: 4c43 22be 87b1 13be e633 153e b13f 453d
000000c0: 4ff4 92bd d6de 1dbe 63ab 0e3e 4d3f b83d
000000d0: fd34 ad3d 620b bb3d fe04 193e b2a5 3d3e
000000e0: a1f3 27be 7026 383e 446f d33d ebf2 983d
000000f0: 526f c1bd fe44 203e 1fdb e43d 70ae bfbd
0.13339105 0.05409429 0.04067655 -0.16725336 0.05369518 0.111485854 -0.1714093 0.061335847
-0.077226184 -0.097184524 0.071713164 -0.09979682 -0.06845486 -0.17339802 -0.12542684 -0.04798875
-0.10997782 -0.052888297 -0.08560036 0.030730572 0.07316743 0.15620105 -0.13061397 0.10710853
-0.06544969 -0.09642473 0.14179549 -0.1552878 0.14422156 -0.07185491 0.09694195 -0.15025508
0.18091136 0.13663238 -0.19375154 0.12185525 0.0971042 -0.11927677 -0.071649395 -0.16091922
0.13233186 -0.0030173475 0.13388033 -0.123513505 -0.15845984 -0.1442319 0.14570579 0.048156444
-0.071755044 -0.15417036 0.13932566 0.08996449 0.08457372 0.091330305 0.1494331 0.18520239
-0.16401531 0.17983413 0.103239566 0.07468208 -0.09445061 0.15651318 0.111746065 -0.09359443
