data/models/aaveANDbtc_lstm.pth (torch, 206149 bytes, 9 tensors)

lstm.weight_ih_l0 f4 [256, 1]
000000 4c 0b 44 3e e8 d6 55 3b 6d e6 b5 bc 39 54 7c 3e
       0.19144934 0.0032629315 -0.022204602 0.24641503
000010 bb db a9 bd 8e ae ab 3c 1f 8d 41 3d 3c c9 20 3e
       -0.082938634 0.020957258 0.047253724 0.15701765
000020 8f e3 88 bc bc 2b 92 3c ea 65 34 3e 57 5c 48 bc
       -0.01671007 0.01784312 0.17617002 -0.012229047
000030 29 01 1c 3d e9 5d 21 3e 6a f3 fc bd 25 5d c5 bc
       0.038087044 0.1575848 -0.12351115 -0.024092266
000040 bd 82 de 3c f4 f0 e9 bd 3e f9 e3 3d 4f 7a b1 3d
       0.02716195 -0.11422911 0.111315235 0.08665907
000050 88 41 05 3e ed a6 b1 3d 7c 87 d0 bd 55 10 5b 3d
       0.1301328 0.08674417 -0.101820916 0.053482372
000060 d8 80 84 bd 18 ac ba 3c 31 22 b5 3d a7 a0 ea 3c
       -0.064698875 0.022787139 0.08844412 0.028641058
000070 a1 d7 c2 3d 11 f9 d6 3d db 89 75 bd 9e ee b9 3b
       0.09513784 0.104967244 -0.059945922 0.0056741973
000080 ea eb 23 be 14 0a bb bd 57 b6 62 bd 77 c2 db bb
       -0.16007963 -0.091327816 -0.055349674 -0.0067065316
000090 3d 71 26 be 60 18 01 3d bb d0 95 bd 11 d2 14 3e
       -0.16254134 0.031517386 -0.07315203 0.14533259
0000a0 1b f3 e1 bb 1e ef fc 3c b8 4e 8d 3d e7 ea 38 bd
       -0.0068954355 0.030875739 0.0689978 -0.045145895
0000b0 29 81 c1 3d 06 fd 4c 3e 90 b3 b0 3d 28 9e 70 3e
       0.094484635 0.20018396 0.08627999 0.23497832
0000c0 e5 6d 2f 3e 0f 97 4d 3e a4 20 e9 3d f1 a2 f9 3c
       0.17131765 0.20077156 0.11383179 0.030473204
0000d0 e3 40 df 3d 26 1c 31 be 38 03 be bd 63 c4 76 3e
       0.10901048 -0.17295894 -0.09277958 0.24098353
0000e0 75 4c cc bd 02 ea d1 3d e5 d9 c7 3d f4 a1 17 3e
       -0.099755205 0.102497116 0.09758357 0.14807874
0000f0 7c 3c 44 bd ff 31 fa bd 45 4e 40 3c 91 f0 af 3d
       -0.047909245 -0.12216567 0.011737411 0.08590806
000100 05 2a 03 3e 39 e4 9f bd 71 76 82 bc 05 6a e3 3d
       0.12808998 -0.07807202 -0.015925618 0.11104206
000110 95 db 24 be 3f b0 fb 3d 52 98 2e 3a 62 ca b0 3d
       -0.16099389 0.12289476 0.0006660271 0.086323515
000120 c3 8a 91 3d 8f de e6 3b 0d 48 60 bd be a7 44 be
       0.07106545 0.007045574 -0.054756213 -0.19204614
000130 ed cf d7 bd 31 48 b8 3d b2 e3 e1 bd 02 49 0a 3e
       -0.105377056 0.089981444 -0.110297576 0.13504413
000140 66 77 59 bd 88 b1 3e bc b1 33 fa 3d 29 7a ba bd
       -0.053092383 -0.011639006 0.122168906 -0.091053315
000150 95 9c c0 3d 4a fe 9a 3d e1 37 da 3d 0e 20 24 3e
       0.09404866 0.07568033 0.10655189 0.16027853
000160 ce 6c 26 3d 47 82 ac 3d 10 bd ab 3c d3 c7 de bd
       0.040631108 0.08423286 0.020964175 -0.10877957
000170 1a 24 53 bd 66 4c 84 3d fb f0 ac 3c 32 56 8f bc
       -0.0515481 0.06459884 0.021111002 -0.017497156
000180 00 04 52 3d ed b7 49 be 32 6c 01 3e cd cc 2d be
       0.051273346 -0.19699068 0.1263893 -0.16972657
000190 7a a0 22 be 3c 6a 4d 3c 5f 79 71 bc bf 1b eb 3d
       -0.1588153 0.012537535 -0.01473841 0.114799015
0001a0 4c 31 67 bc cc 46 20 bd ee 8c 48 bd 96 97 2c be
       -0.014110874 -0.039130017 -0.048962526 -0.168547
0001b0 d0 5a 0a 3e 7c 12 31 3d 97 19 cb 3d 96 68 33 3e
       0.13511205 0.04323052 0.0991699 0.17520365
0001c0 6e 66 08 3d 9d cc 00 3c ff 23 ee bd 2e 6d 0a 3e
       0.03330081 0.007861284 -0.116279595 0.13518211
0001d0 9f f6 9c bd 7f 7f 3f be ee 3c 87 bb 68 b8 f7 3d
       -0.07664227 -0.1870098 -0.0041271364 0.120957196
0001e0 a2 93 d2 bd 9f 97 29 3e 93 2f bb 3d 6f 83 81 3d
       -0.10282065 0.16561745 0.091399334 0.06323897
0001f0 22 c7 bf 3c 20 6e 33 be a6 8b 3d 3d a7 86 07 bd
       0.023410384 -0.17522478 0.046275757 -0.0330874
000200 6b 76 f7 3d 7c 4a 9f 3d ca 7c 21 3e 05 38 1d be
       0.12083133 0.07777879 0.1577026 -0.15353401
000210 99 ab d5 3d 8d d7 1d be b2 12 1f be aa 4d 98 3d
       0.1043312 -0.15414257 -0.15534475 0.07436688
000220 fc b4 40 3e 49 4c 8d 3e fe b2 14 3e 6c cd 28 be
       0.1881904 0.27597263 0.14521405 -0.16484612
000230 41 90 b6 3d f5 d9 02 3e f5 2d 80 3d 5e 28 21 3e
       0.08914233 0.12778457 0.062587656 0.15738055
000240 97 31 27 be 75 ba 2c 3e 08 ee 7c 3e da 99 8c 3b
       -0.16327511 0.16868003 0.24700177 0.0042908015
000250 65 9a c9 3e 3a cf 22 be 89 a4 7c 3d 35 29 0a be
       0.39375606 -0.15899363 0.06168035 -0.13492282
000260 f3 5a 05 be 2f 1a a0 bd 5c da 8c bd bd da 23 3e
       -0.13022976 -0.07817494 -0.06877586 0.16001411
000270 c6 45 25 3e 85 85 3b 3e fa cc 01 bd 08 ce 13 3e
       0.16139898 0.18312652 -0.03168962 0.14434063
000280 10 6d 1f 3e 94 7a 6d bd 3c 71 01 be 92 53 02 3e
       0.15568948 -0.057978228 -0.12640852 0.12727192
000290 ce 3d ac 3d 6f c2 59 3d 36 69 9c bd 36 09 1b be
       0.08410226 0.053163942 -0.07637255 -0.15140232
0002a0 30 f3 4e be 62 a6 e9 3d 00 ef 16 be e7 9d 25 be
       -0.20209956 0.11408688 -0.14739609 -0.16173516
0002b0 af cd 18 3e 04 8b 5c 3e 06 49 e1 bb f1 6f 35 be
       0.14922212 0.21537405 -0.00687516 -0.17718484
0002c0 49 9d 10 be f1 9b 93 3d 48 97 2a be 6e 5e 22 be
       -0.141225 0.07207478 -0.16659272 -0.15856335
0002d0 76 cf 11 3e 8b 80 cd 3d 79 0d 00 be 9a ae 27 be
       0.14239296 0.10034283 -0.1250514 -0.16375199
0002e0 f7 b0 38 3e 50 87 31 3c 5f 1d 61 3e 0c 97 fe bd
       0.18036257 0.010835484 0.2198386 -0.12431154
0002f0 cd 2e 16 be ba b9 81 bd a9 96 39 be 82 e3 85 3e
       -0.1466629 -0.06334253 -0.18123879 0.26150137
000300 72 f2 3e 3e af 1e 90 bd 94 86 e7 bd c5 7c 5e 3e
       0.18647173 -0.070371024 -0.113049656 0.21727283
000310 22 4b 8a be b3 9e 77 bd f5 ec a5 3d 59 02 41 3e
       -0.27010447 -0.06045408 0.081018366 0.18848552
000320 e3 7b 36 3e a1 1d 27 3e 89 8e 1b 3e 55 5e 67 be
       0.17820697 0.16319896 0.15191092 -0.22594579
000330 fc ed e8 bd 0f 6b b3 3d c6 fc 53 be 4c 51 87 3d
       -0.11373517 0.08760654 -0.20701894 0.06607303
000340 2d cd e0 bb be bd 06 be f8 48 66 3e 2c b7 4d 3d
       -0.0068603964 -0.13158318 0.22488773 0.050223514
000350 55 4c dc 3d 8a 5a 4e 3e 63 d2 a5 3c ed 27 8b 3e
       0.10756747 0.20151725 0.020241922 0.27178898
000360 b3 7a 7a 3c d5 4b ea 3a 03 69 c8 bc ab bd eb bd
       0.015288043 0.0017875383 -0.024464136 -0.11510786
000370 df 6d 10 bc 2a 71 c5 ba 30 f3 bd 3d 99 da 26 3d
       -0.008815258 -0.0015063633 0.092749 0.040735815
000380 87 13 56 bd 87 b4 fb bc ad 1e 2c 3e 0a a4 cf bc
       -0.052264716 -0.03072573 0.16808577 -0.025346775
000390 a3 42 66 bd f0 3d c1 bd b1 b9 df bc ca 7d 63 3d
       -0.056215893 -0.09435642 -0.027310224 0.055539884
0003a0 2f d2 ef 3d c0 8b 17 3d 72 fd 42 3e bc ba 2a be
       0.11710011 0.03699851 0.19041994 -0.16672796
0003b0 f3 0b 13 3d be 9c ea 3d 54 75 0c 3e 95 aa 89 3e
       0.035900068 0.114556774 0.13716632 0.26887956
0003c0 6e 57 1f 3e ab 2f 12 3d e0 a3 14 bd 54 ce b8 3d
       0.15560696 0.03568999 -0.036289096 0.09023729
0003d0 3c a5 ea 3b d2 94 2f be 7f 98 0a be 8e 88 41 3e
       0.0071608108 -0.17146614 -0.13534735 0.18899748
0003e0 30 c7 c9 3c a7 e8 44 3d 67 8f 08 3e 9f 50 39 bd
       0.024631113 0.048073437 0.13335954 -0.045242902
0003f0 ca 03 f2 bc 12 d0 e3 b9 5e 87 a2 bd ef 63 a0 bd
       -0.029542822 -0.00043451838 -0.079359755 -0.07831561

lstm.weight_hh_l0 f4 [256, 64]
000000 37 65 dc 3d 15 db 6f 3b 67 a3 18 3d 95 9f 30 3d
       0.10761493 0.003659909 0.037265208 0.04312094
000010 fd 33 1e be 25 21 9f 3d 35 c1 ff 3d e9 f8 15 3e
       -0.1544952 0.07769994 0.12488023 0.14645733
000020 ba a8 ad bd a5 12 1c bd b1 f1 07 3e 3a 68 93 3c
       -0.08479448 -0.03810372 0.13275792 0.017994035
000030 51 94 0e be 22 16 36 bd a1 89 83 bd 89 0d cb bd
       -0.13923766 -0.0444547 -0.06422735 -0.09914691
000040 87 b6 d7 3c 3f 7d 23 3d b7 fb e1 bc b1 4d 09 be
       0.026332153 0.039914366 -0.027585847 -0.13408543
000050 e4 d7 b2 bc 8b 6f 28 bd ad f0 9c bd a0 94 ee 3c
       -0.02183146 -0.041122 -0.07663093 0.029123604
000060 6d 03 6f bc 96 3a e3 3c ad db ec 3c 2a bd ad 3d
       -0.014588219 0.027737897 0.028913343 0.08483346
000070 4c d2 0a bd f3 39 29 3c f1 7f 51 bc b4 c5 8d 3d
       -0.03389196 0.010328758 -0.012786851 0.069224745
000080 8b 6f 96 bd 73 9e 12 3e da f4 c5 bb f9 46 f9 bc
       -0.07345494 0.14318256 -0.0060411515 -0.03042935
000090 e1 09 2a 3c 5d 83 3d be 34 54 8c bd b3 41 32 3c
       0.010378332 -0.18507142 -0.06851998 0.010879922
0000a0 7e 7c 31 3c 7b ed 22 3c 81 ce a3 bd b4 39 b6 3d
       0.010832904 0.009944315 -0.07998372 0.08897725
0000b0 d3 bb ac 3d b8 7a b4 3b 79 4f 1b 3d 57 e8 ac bb
       0.08434262 0.0055077933 0.037917588 -0.0052767205
0000c0 0f 5a d7 bd e2 b9 a9 3c f7 cb c6 bd 7f 5f 25 3d
       -0.10515224 0.020718519 -0.09706872 0.040374275
0000d0 93 8e b4 bd d0 4d b5 bc 81 b0 82 3d f5 cc 03 be
       -0.088162564 -0.02213183 0.06381322 -0.12871154
0000e0 9a 3f 11 bd 04 0f 19 3d e7 e3 1d be b7 f9 dc bb
       -0.035461046 0.037367836 -0.15418969 -0.0067436355
0000f0 02 34 ce bd 3b b3 27 3d 67 30 16 3e 5c 4a a7 3d
       -0.100685135 0.040942412 0.14666902 0.0816848
000100 d2 77 fc bd 09 65 c2 3d 5e 67 21 3d 52 9e f6 3d
       -0.123275414 0.09491927 0.03940522 0.12041916
000110 e0 7c 1e be a5 5d 39 bc eb 6e e8 3d 89 79 6a 3d
       -0.15477324 -0.0113138305 0.11349281 0.05724481
000120 0e 72 01 3e 27 ec 93 3d ea 33 77 bd 8c 4d 40 3e
       0.12641165 0.07222777 -0.060352243 0.18779582
000130 8f 32 09 be 6b 16 64 3d d6 c5 ea bd 1a 1f 66 bc
       -0.13398193 0.055685442 -0.114635155 -0.014045501
000140 96 23 d0 bc 88 d4 65 3d db 82 02 be 1c ea 4b bc
       -0.025407594 0.05611089 -0.1274523 -0.012445953
000150 47 1a cb bc 69 cd 1f 3d 06 7b e1 3c 6c 47 95 bc
       -0.024792803 0.039014254 0.027524482 -0.018222533
000160 40 a6 d6 bd ed fd b1 bc 08 04 ac bd 13 cf 01 bc
       -0.104809284 -0.021727527 -0.083992064 -0.0079229055
000170 b4 89 ae bc df 3c 20 3d e5 00 32 bb 65 aa c1 3d
       -0.021305896 0.03912055 -0.0027161178 0.09456328
000180 c5 2c 05 bd 2b b4 6a bb 5d 08 fa bd 11 41 1e be
       -0.0325134 -0.0035812955 -0.122086264 -0.15454508
000190 b9 7f d2 bd 01 c3 f3 ba 28 72 a0 bd 72 6d c3 3d
       -0.102782674 -0.0018597544 -0.078342736 0.095423594
0001a0 a7 e6 a0 3d 04 38 c7 3d d0 66 17 3d e5 9d 8b 3d
       0.078564934 0.09727481 0.036963284 0.06817225
0001b0 54 ad 3b 3d d3 fb e4 3d 72 90 67 3d a5 b0 b8 bc
       0.045819595 0.11180844 0.05653424 -0.022545168
0001c0 81 1f 50 bd 30 ec e1 bd b4 93 01 3e 64 a5 ad bd
       -0.050811294 -0.11031377 0.12654 -0.084788114
0001d0 12 ae 58 3d ae 36 a7 bd 91 1d b2 3d 4d 45 a0 3d
       0.05290038 -0.08164726 0.086970456 0.07825718
0001e0 2e 73 5f 3b 59 3a c8 bd 45 f1 86 3d 84 00 2e 3d
       0.0034095752 -0.09776754 0.06588987 0.04248096
0001f0 35 9f 87 bc 63 06 69 bd 73 18 0d 3e bd df 36 bd
       -0.016555408 -0.056890856 0.13778858 -0.044646967
000200 11 42 49 bd 7c a9 7b bd 6e d6 8f bc f2 99 6c 3d
       -0.04913527 -0.06144093 -0.017558303 0.057764
000210 87 3a fb bc 18 df cf bd fd 4a 54 3d d0 83 2a ba
       -0.030667556 -0.10149974 0.051829327 -0.0006504627
000220 13 3d e9 bc 0b e6 bf 3d 13 b8 8e bd 87 41 ce 3d
       -0.028471505 0.09370049 -0.06968703 0.10071092
000230 f3 63 08 bc 7c 8f 1b bc 11 1f bc 3d 77 42 51 3d
       -0.008324611 -0.009494659 0.09185613 0.051088776
000240 d8 02 0d be 47 27 5c 3c bc 15 fb 3d 7b d8 92 3d
       -0.13770616 0.013437099 0.12260005 0.071701966
000250 f4 ac 67 bd 55 62 c5 3c 98 02 c2 3d 56 1a 40 be
       -0.056561425 0.02409474 0.09473151 -0.18760046
000260 e4 13 ae 3d 98 43 81 bc 3f 81 ce 3d 37 ac c8 bc
       0.084998876 -0.015779302 0.100832455 -0.024496181
000270 f6 65 06 3d 34 3c 0e 3e ec f7 ac bd 94 9a 32 bd
       0.03281208 0.13890153 -0.08445725 -0.04360445
000280 57 3b bb 3d 64 a4 52 3d 56 9e 1b 3d fc 48 7c 3d
       0.091421776 0.051426306 0.037992798 0.06159304
000290 4a fc dc 3d f6 3c ab 3d ce eb 6d bd 61 1d 04 be
       0.10790308 0.08361237 -0.05808621 -0.12901832
0002a0 67 e1 82 3c 1b e6 ba bd 63 52 d4 bc 5c 9b 33 bd
       0.01597662 -0.091259204 -0.025918191 -0.043849334
0002b0 ec 4a f7 3d fc 5e 8c bc a0 e9 0b 3d 1e 19 44 3d
       0.12074837 -0.017135136 0.03415835 0.047875516
0002c0 50 3b a1 3d db 9a 92 3c ad f4 9c bd b2 8e 5a bd
       0.07872641 0.017896106 -0.07663856 -0.05335874
0002d0 27 ea 8c 3d f1 2b 07 bd 52 ff 77 bd 82 8f e2 bd
       0.068805985 -0.03300089 -0.060546227 -0.11062528
0002e0 03 9e 1e 3d f4 4f 98 b8 8d 04 de bc 30 f0 8a bd
       0.03872491 -7.262817e-05 -0.02710178 -0.067840934
0002f0 44 24 8a 3d 82 66 08 bc a5 b4 e5 bd f9 cf d1 bd
       0.06745198 -0.008325221 -0.11216096 -0.10244746
000300 1a 84 0b 3e 8a 06 03 be ab 61 d3 3c f9 b4 88 bd
       0.13624611 -0.12795463 0.025803408 -0.06675143
000310 f6 f5 c6 bd 6d 5b f6 3d bd 90 19 3d 31 61 a1 bd
       -0.09714882 0.12029157 0.03749155 -0.07879866
000320 d5 53 71 3d db 33 e3 3d 3e 4e 62 3d 34 32 02 3e
       0.05891784 0.11093875 0.0552504 0.12714463
000330 04 f0 7c bd 55 f0 6e bd a5 e0 10 be 11 23 a7 3c
       -0.061752334 -0.058334667 -0.14148195 0.020402463
000340 15 c2 f4 bd f4 37 2b be a1 55 ba bd 4c 63 96 3c
       -0.11951081 -0.16720563 -0.09098364 0.018357895
000350 42 41 83 bd 2d 5a 17 be d5 35 80 3d c3 1e e7 bc
       -0.06408931 -0.14780493 0.06260268 -0.02821291
000360 ac 72 ca ba c7 97 0a be f4 27 55 3d 31 c5 44 3d
       -0.0015445552 -0.13534461 0.052040055 0.04803962
000370 9a 95 a9 bd d1 05 df ba 86 ee 37 bd cb 5a a6 3d
       -0.08280487 -0.0017015283 -0.044905208 0.08122786
000380 51 3d 1a 3c e5 ce 8c 3d 49 83 8a 3d 64 b2 0e be
       0.009414033 0.068753995 0.06763322 -0.13935238
000390 2e 58 24 be 53 df 19 be ea 14 e8 3d 3c 19 8e bd
       -0.16049263 -0.15026598 0.11332114 -0.06938407
0003a0 12 d5 a3 3d 0f c5 f0 bc b8 af 13 be e8 85 40 bc
       0.07999624 -0.02939084 -0.144225 -0.011750676
0003b0 e5 ca 94 3d 71 c8 38 bb d4 81 a0 3d 3c c6 c2 bb
       0.072652616 -0.0028195644 0.07837263 -0.0059440415
0003c0 d0 7a 10 be ab 59 53 3d fe 61 e2 bd dd f0 a0 bd
       -0.14109349 0.051599186 -0.11053847 -0.07858441
0003d0 5c 93 03 3d bf 62 8d bd c4 86 4b 3d 65 8f 2e 3d
       0.032122955 -0.069036 0.04968907 0.04261722
0003e0 70 96 79 bd 2b c2 c4 bd 1e 36 97 bc b0 48 09 3d
       -0.060934484 -0.09607347 -0.018458422 0.033516586
0003f0 18 99 a9 bd 6c 82 2c 3e 6e 64 32 bd b9 72 cb bd
       -0.082811534 0.16846627 -0.04355281 -0.09933991

lstm.bias_ih_l0 f4 [256]
000000 74 c0 8c 3d 5e 20 a5 3d 3a 80 96 3c c0 2d 79 3c
       0.06872645 0.08062814 0.01837169 0.015208662
000010 78 f9 bb bd 81 9d f0 3d 3e fd e7 3d e5 d2 98 bd
       -0.09178442 0.117487915 0.11327599 -0.074621
000020 7c 9d 30 3e 98 af 43 3e b4 09 94 3a 42 c3 f9 3b
       0.17247576 0.19109952 0.0011294396 0.0076221535
000030 42 12 b3 3a 5a 23 ac 3d 32 b1 a5 3d ae 72 fd 3d
       0.0013662057 0.0840518 0.08090438 0.12375389
000040 9e 72 fe 3d 59 ec 96 bd 6b 28 25 3e 37 6f a3 3d
       0.12424205 -0.073692985 0.161287 0.07980197
000050 74 45 ae 3e 0b ea 0f bc 6b 05 4c 3d f9 89 d7 3d
       0.34037364 -0.008783828 0.049809854 0.10524363
000060 b8 71 d3 3d b5 16 31 bc 35 b4 c7 bd 04 26 5f 3d
       0.103244245 -0.010808636 -0.09751169 0.054479614
000070 46 c5 61 3d 27 26 e9 3d f4 4e 83 bd 17 84 15 3e
       0.055119775 0.1138423 -0.064115435 0.1460117
000080 c2 80 05 3e 32 b6 eb bd 99 1a 20 bd 7f f8 fd bc
       0.13037398 -0.115093604 -0.039087866 -0.031002281
000090 ec 61 f2 3d 89 8a 09 3e f2 75 05 3d 38 db ed 3d
       0.11835083 0.13431753 0.032583185 0.11614078
0000a0 fa d6 f4 3d 2a c5 19 bd e5 3f 08 3d b5 45 a6 3d
       0.11955066 -0.037541546 0.03326406 0.08118764
0000b0 0b 96 62 3d 73 a5 1f 3e 9e ec b0 bd 86 b3 d1 3c
       0.055318873 0.15590458 -0.08638881 0.025598299
0000c0 de 1a 61 3d 0e 26 ca bd ce c5 e6 3c f6 26 38 3d
       0.054957263 -0.098705396 0.028170493 0.04495903
0000d0 22 dc 0e 3e 4a db d3 3d 10 1f 0e 3d 13 21 4e 3e
       0.13951162 0.103445604 0.034697592 0.20129804
0000e0 91 89 9b bd 65 a1 33 3d 1e 15 6a 3e 7f 18 ce bd
       -0.07594598 0.04385509 0.22859618 -0.10063266
0000f0 b7 9a 37 bd c7 49 a3 3d b6 71 26 3e b4 14 25 3d
       -0.044825282 0.07973056 0.16254315 0.040302947
000100 a8 6a 05 be 8b 50 e8 bd d2 65 ee bd a3 cf cc bd
       -0.13028967 -0.11343487 -0.116405144 -0.10000541
000110 e2 9d 24 bd 42 45 cd 3d 1e 87 b2 3d 97 b7 94 bc
       -0.04018963 0.100229755 0.08717178 -0.018153949
000120 1f e3 c7 bd 55 31 d8 bd 13 2e b0 bd af ed c3 bd
       -0.09760117 -0.10556284 -0.08602538 -0.09566819
000130 a4 8b 08 3d 2e 51 cb bd 24 1c 96 3c e2 a6 06 3e
       0.033336297 -0.09927593 0.018323965 0.13149598
000140 8c 5b 76 3c f0 0b 00 bd 85 82 24 3d 37 b1 58 bd
       0.015036475 -0.031261384 0.040163536 -0.05290338
000150 e5 e1 e3 bc af e3 bd 3d 37 84 5e 3d 6a 47 51 bd
       -0.027817676 0.09271943 0.05432531 -0.051093496
000160 ca 59 a2 3d 1f a4 56 3d 1e cf 82 3b 85 5f db bd
       0.07927282 0.05240261 0.0039919754 -0.10711578
000170 f4 73 72 bd 3d e0 e5 3d 5a d6 cf bd 7c a7 e1 bc
       -0.059192613 0.11224411 -0.10148306 -0.027545683
000180 c2 56 dc 3c 15 63 5a bd f1 99 35 bd 10 6b ac 3d
       0.026896838 -0.05331715 -0.044336263 0.08418858
000190 39 d3 3b bd b7 e4 3c 3d fa fd 0e bc 5b d5 ca 3d
       -0.045855734 0.046116557 -0.008727545 0.099039756
0001a0 58 90 94 bc 48 9a 2c bd f7 8f 37 3d 96 84 92 3d
       -0.018135235 -0.04213932 0.04481503 0.07154195
0001b0 6d 85 84 bd 50 85 4e 3d 0a 34 10 bb 66 35 fc bd
       -0.064707614 0.050420105 -0.0022003674 -0.123148724
0001c0 a8 42 94 3b 9a 1b ea bd ea d2 22 3d ba c6 db bc
       0.0045245476 -0.11431046 0.039751925 -0.026828159
0001d0 5b f3 5a 3c db c2 b4 3d 62 39 8e 3d 70 b8 61 bd
       0.0133636845 0.08826228 0.06944539 -0.055107534
0001e0 59 ea 9d 3d 76 6e 81 3c 47 9a af bd 9c 93 00 be
       0.07710714 0.015799742 -0.08574348 -0.12556309
0001f0 63 c6 ba 3d e4 80 63 bd 98 5e 1d 3c 43 44 9c 3d
       0.091198705 -0.05554284 0.009605072 0.076302074
000200 0f c3 cc 3d 81 3a 66 3d 4f 68 e2 bd 8e fa 05 be
       0.09998142 0.056208137 -0.110550515 -0.1308386
000210 47 c1 a3 3d 34 ee c1 bd 2e 58 f3 3c d3 9d 81 3d
       0.07995849 -0.09469262 0.029705133 0.06328931
000220 4c 82 89 3d a9 ba df bc 9c 3c d3 3d 6e c2 05 3e
       0.06714305 -0.027310686 0.10314295 0.1306245
000230 f2 56 4c bd 74 da a7 3d 2b 07 47 bc 78 68 2a bc
       -0.049887605 0.081959635 -0.012147705 -0.010400884
000240 92 65 67 bd a1 82 84 bd 0e 0e c8 3d ff d5 5a 3d
       -0.05649335 -0.06470228 0.09768306 0.05342674
000250 b0 58 81 3d 7e 29 54 bd db aa da 3d 39 dc af bd
       0.06315744 -0.051797383 0.10677119 -0.08586926
000260 df 23 8d bd 6c bb d0 bb 89 44 fb 3b 03 8a a7 3d
       -0.068916075 -0.0063699987 0.007668082 0.081806205
000270 28 c6 d0 bc 5c 98 d3 3d 53 75 d8 bd c3 bb e0 3c
       -0.025485113 0.103317946 -0.10569253 0.027433282
000280 45 4f d1 bb 61 61 0d 3e 65 6e ce bd 5f ff fc bd
       -0.0063876235 0.13806678 -0.1007965 -0.12353396
000290 0f 7c 0a bd 4e 54 9e bd 97 b1 02 3d 5b 53 1f bd
       -0.033809718 -0.077309236 0.031907644 -0.038897853
0002a0 77 92 8d 3d 61 ce d7 3c 94 d8 b5 bd 93 68 c9 3d
       0.069127016 0.026343526 -0.088791996 0.09834399
0002b0 23 88 52 3d dc 5f bb 3d 84 8b cf 3d 4b 37 f3 bd
       0.05139936 0.09149143 0.10134032 -0.11875781
0002c0 c3 d0 b4 bd 86 98 4b 3c 6c 85 dd bd 26 0d a5 bd
       -0.08828881 0.012426501 -0.10816464 -0.080591485
0002d0 ef a2 b3 3d e7 62 7b bd 5b 02 cf 3d fd eb 0a 3d
       0.087713115 -0.061373618 0.10107871 0.033916462
0002e0 a0 7c 17 bd 5e 1b 8f 3d 69 cc 8e 3d 7d e5 db bc
       -0.036984086 0.06987642 0.06972582 -0.026842827
0002f0 68 35 12 3d 60 60 ba 3d 77 dd 81 3d 96 63 42 bc
       0.035695463 0.09100413 0.06341069 -0.011864563
000300 0e 1c 02 bd a7 a8 0c 3e 9c ee 84 3d 12 2e 8c 3d
       -0.031765036 0.13736211 0.064908236 0.06844725
000310 24 36 6e bd 3b 6e 57 bd 83 54 da 3d 17 15 b7 3d
       -0.0581571 -0.05259536 0.106606506 0.089395694
000320 0c 5a e5 3c 16 74 a6 3d b4 a7 06 3e 3a 3e 84 bc
       0.02799704 0.081276104 0.13149911 -0.016142953
000330 5c c3 39 3d 43 67 fa 3d de 14 ab bd 4d 26 3e bc
       0.045352325 0.12226727 -0.083535895 -0.011605811
000340 ef fc 24 bc 4a 5a 02 3d 5d e3 dc bc 3f 39 20 3d
       -0.01007007 0.031824388 -0.026963884 0.039117094
000350 bd bb 61 3e 85 f6 b5 bc 8d 2d bc 3d b1 81 f3 3d
       0.22044273 -0.022212276 0.091883756 0.11889971
000360 6b 4c 77 3d 1a 27 51 bd 7b ae c0 bc 6e bd 96 3d
       0.060375612 -0.05106268 -0.023520699 0.073603496
000370 0f 6e 53 3d f1 13 09 3e 5f d8 83 bd e1 de 89 3d
       0.051618632 0.13386513 -0.06437754 0.06731964
000380 b4 26 60 3d 67 a4 dd 3d 20 70 f6 3d a1 61 a3 bd
       0.05472441 0.10822373 0.12033105 -0.079776056
000390 5a 0c 44 bd 45 15 15 3c 01 91 c6 bc 47 fa 2d bd
       -0.047863342 0.009099309 -0.024239065 -0.04247501
0003a0 f2 5c e1 3d 30 87 5b bc 77 36 f4 3d 44 30 26 3b
       0.11004056 -0.01339893 0.11924451 0.0025358358
0003b0 a4 99 cd 3d 2d 00 24 3e a6 18 10 3d ff 4b ce 3d
       0.1003907 0.16015692 0.035179757 0.10073089
0003c0 17 a1 b8 3d bb 23 2c bd 88 78 f5 3d c2 c3 8e bc
       0.090151004 -0.042026263 0.1198588 -0.017427329
0003d0 aa 64 2a bd 06 d9 05 3e 61 aa 92 bd d5 2f 16 3d
       -0.041599907 0.13071069 -0.071614034 0.03666671
0003e0 22 15 2e bd c2 6c 2b bd a2 d2 96 3e 6d 60 9f bd
       -0.042500623 -0.041851766 0.29457575 -0.07782064
0003f0 48 0a 22 bc c8 c6 16 3e 09 bb ec 3d 65 6f a5 ba
       -0.009890147 0.14724267 0.115591116 -0.0012621699

lstm.bias_hh_l0 f4 [256]
000000 6c 5d 09 3e 41 e4 46 3d e3 7c b4 bd 0c 17 75 3d
       0.13414544 0.048557524 -0.08812883 0.059836432
000010 10 82 c9 bd e3 b1 c5 bd 2b 57 42 bd fb 2c 53 bd
       -0.098392606 -0.0965307 -0.04744641 -0.05155657
000020 52 42 0a bc 2f e2 ac 3c 75 02 3c 3d 6e b2 94 bd
       -0.008438664 0.021103946 0.04590078 -0.07260595
000030 35 c3 cb 3d db 33 d1 bb c8 c2 85 bd f7 e6 d8 39
       0.09949342 -0.0063843555 -0.06531292 0.00041370813
000040 00 ee e6 38 d1 35 98 3d 41 0e bb 3d a1 07 b6 3d
       0.000110115856 0.0743214 0.09133578 0.08888174
000050 7f 62 cd 3e d4 57 9a bd 85 f7 bf 3d 6d 91 98 3d
       0.4011421 -0.07536283 0.093733825 0.07449613
000060 43 e5 e8 bc 07 db d0 bd c7 25 b8 3d 50 3e fc bc
       -0.028429633 -0.10198026 0.089915805 -0.030791432
000070 67 25 43 3e 83 ee 1c 3e 85 ca a4 3d 0d 12 57 bd
       0.19057237 0.1532536 0.0804644 -0.05250745
000080 48 01 8c 3d 22 03 29 bd 83 1f a5 3d fc 4a fa 3d
       0.06836182 -0.041262753 0.08062651 0.122213334
000090 05 4b 58 3b 5c 15 97 3d f3 e1 b6 3d 0b 8e 3b bc
       0.00330037 0.07377121 0.08929815 -0.01144744
0000a0 c6 2a d5 3d 67 1e 06 3e ee 33 af 3c b1 4f 1e 3e
       0.10408549 0.13097535 0.021387067 0.15460087
0000b0 86 64 2c bc 7d c3 45 3e ca b9 89 bd 00 43 cf 3d
       -0.0105220135 0.19312854 -0.067248896 0.10120201
0000c0 de a9 9a 3d f8 9a be bc b7 9c 09 3e e6 6e f8 3d
       0.07551931 -0.023267254 0.13438688 0.12130527
0000d0 dd 24 1e 3e 0f e7 42 3c 93 d9 8f 3d 91 46 ef bc
       0.1544375 0.011895909 0.07023921 -0.029208453
0000e0 c7 e1 a2 3d 34 7c 8c 3d 50 db ae 3e a5 06 bf 3d
       0.0795322 0.06859627 0.34151697 0.09327439
0000f0 47 03 08 3c dd e1 d9 3d e4 74 82 3d 8c e0 08 3e
       0.008301563 0.10638783 0.06369951 0.13366908
000100 90 84 f6 bd be 07 0b ba 22 b7 9f 3d cb 0d cf 3d
       -0.12037003 -0.0005303583 0.07798602 0.10110053
000110 ef dd 1a bd 9c fe b6 bd 6a 9a d5 bd 2e 74 df bd
       -0.03780931 -0.08935282 -0.10429843 -0.109108314
000120 78 ab b3 bc c7 c4 b8 3d 59 fa 53 bc 2f 26 a9 bd
       -0.021932349 0.09021907 -0.0129381055 -0.08259236
000130 d0 dd e1 bd 71 c7 d5 bb 94 ba c1 3d e6 9a 0a 3d
       -0.110286355 -0.0065240194 0.09459415 0.03383913
000140 b4 c5 c6 3d 48 af 81 bc 7e 83 ac 3d 26 32 87 bd
       0.09705678 -0.01583065 0.08423518 -0.06601362
000150 10 a6 eb bc 46 d6 7e bd d3 25 cb bd 94 19 16 bc
       -0.028765708 -0.062216066 -0.09919324 -0.009161372
000160 cb 0c 03 bd eb dc d2 bd 24 b0 eb 3d df ed b6 3d
       -0.031994622 -0.10296043 0.115082055 0.08932089
000170 85 6c 96 3d 4a 60 29 3c 91 73 bf 3c d6 14 28 3d
       0.07344917 0.0103378985 0.023370536 0.041035496
000180 12 6d aa bd 51 bb 76 3d f2 71 61 3a 2e 92 28 bd
       -0.08321585 0.060237233 0.0008600048 -0.041155033
000190 9e 87 78 3d a5 54 1e bd d8 c1 01 3e 83 98 06 3d
       0.06067621 -0.038654942 0.12671602 0.03286029
0001a0 d5 c4 35 bc c2 63 b8 3d 85 00 4a bd 8a 68 d3 bd
       -0.011094292 0.09003402 -0.0493169 -0.103226736
0001b0 8f 83 be 3d 36 89 68 3d 67 d1 ae 3d 80 e7 e9 bd
       0.093024366 0.05677148 0.08536034 -0.11421108
0001c0 00 65 65 3d c6 0e 9b 3d 83 40 a1 bd 9e 36 8c 3d
       0.056004524 0.07571177 -0.07873633 0.06846355
0001d0 69 4c ac 3d a3 ca 63 3c c8 bd d9 bc 4f df 9c 3c
       0.084130116 0.013903293 -0.026579753 0.01914945
0001e0 e6 b5 64 bd 97 07 f3 bd 0e 34 4c be eb ce f1 bc
       -0.055837534 -0.11866682 -0.19941732 -0.029517611
0001f0 37 a5 86 3d d6 cd 92 3d ce 0a c0 bd 22 2c f8 3c
       0.06574481 0.07168166 -0.09377061 0.030294482
000200 4f 8c 7f bd 91 3d 0e bd 9d 41 df bd 1b d7 54 bd
       -0.062389668 -0.034726683 -0.109011866 -0.051962953
000210 94 64 6e bd 9a b9 e9 3d 2d a4 1c 3d 5f d5 4e 3d
       -0.058201388 0.11412354 0.038242508 0.050496455
000220 be 83 92 3d a3 83 a3 3d d1 4d 5a bd 71 77 0e bd
       0.07154034 0.07984092 -0.053296868 -0.034781877
000230 d4 de 03 be 34 40 d2 3d e6 56 03 be 95 ee 62 bd
       -0.12877971 0.10266152 -0.12826118 -0.05540331
000240 23 7f 03 bc 3f 72 d0 bd af 3b 04 3d 25 71 ac bd
       -0.008025917 -0.10178041 0.03228348 -0.08420018
000250 dd 87 3f bd 1e ae 3c bd 9f 78 e9 bd f9 e9 56 bd
       -0.04676043 -0.04606449 -0.1139996 -0.052469227
000260 2d 34 c6 3d 85 30 94 bd 23 3a ce 3c 97 b0 f9 bd
       0.096779205 -0.07235817 0.025174206 -0.12191885
000270 2f b2 b9 3d e9 fa f5 bc 09 53 c1 bd 2b 50 c4 bd
       0.09067189 -0.03002687 -0.09439666 -0.09585603
000280 23 a8 fd bd ef 0e a8 3d 1d bf df bd 4b e8 64 bd
       -0.12385585 0.08205973 -0.10925124 -0.055885594
000290 66 c1 c8 bd e4 62 89 bd 03 6d 60 bd 70 eb 93 bd
       -0.09802513 -0.06708315 -0.05479146 -0.072226405
0002a0 d1 96 bd bd 79 b6 b7 bd 79 fd 2f bd 0b 92 e5 3d
       -0.092572816 -0.08970351 -0.04296634 0.11209496
0002b0 79 8f d0 3d 5f 89 66 bd 2c d1 76 bc c7 da b1 bd
       0.10183615 -0.05628335 -0.015064519 -0.086843066
0002c0 50 a4 32 bd 51 94 e7 3d d0 a9 d1 3d 03 ae ea 3c
       -0.04361373 0.11307586 0.10237467 0.028647428
0002d0 2c f1 70 3d 6a 3d 05 bd dd fc d0 bc bc d6 db bd
       0.05882375 -0.032529272 -0.0255112 -0.10734317
0002e0 27 e8 d6 bd 90 8f b9 bc 47 39 bf bd f4 dd 3b bd
       -0.10493498 -0.022651464 -0.09337097 -0.045865968
0002f0 f9 7a c0 bd 24 f6 25 3d 93 19 a3 3d 61 81 ba bd
       -0.09398455 0.04051794 0.07963862 -0.09106708
000300 62 67 62 bc 20 16 60 bd e0 6b f0 3d b9 90 82 3d
       -0.013818594 -0.0547086 0.117393255 0.0637526
000310 d8 45 e1 bd d4 ca 99 bd 9c fb 9b 3a 0d 65 e0 bd
       -0.1099965 -0.075093895 0.0011900547 -0.10956774
000320 d2 7e a1 bc 52 08 60 3e 1b aa 5a 3d 46 28 dd 3d
       -0.019713793 0.21878174 0.05338488 0.10798697
000330 08 ba 07 bd 25 68 8c 3d 88 e9 ce bb ac 33 a9 3d
       -0.033136398 0.068558015 -0.00631446 0.08261809
000340 c1 42 9f 3d 4e e5 02 3e 86 e5 38 3e 3e 45 cc 3c
       0.07776404 0.12782785 0.18056306 0.024935361
000350 83 84 a8 3e f9 ca cc 3d 69 36 9f 3d 6b 9f 3d 3d
       0.32913598 0.099996515 0.0777405 0.04629461
000360 39 53 15 bd dc a8 14 3d 28 0b c4 3d 42 b4 7c 3d
       -0.03645632 0.03629385 0.095724404 0.061695345
000370 b4 2d 91 3d eb a9 c8 3d 0c 69 a6 3c 70 49 3f 3c
       0.07088795 0.09798034 0.020313762 0.011675224
000380 98 e2 34 3c a7 a0 a2 3d 4c 99 45 bc 2a 12 32 3c
       0.011040352 0.07940798 -0.012060475 0.010868588
000390 85 0d 63 bc 7a 82 28 bd 4e 1e c2 bb ec 92 7d 3d
       -0.013858204 -0.041140057 -0.0059240228 0.061907694
0003a0 90 1a 20 3d 56 4e 8f bd 3b c2 f8 3d 3d 10 c0 3d
       0.039087832 -0.06997363 0.121464215 0.09378097
0003b0 95 5a 40 bd 46 0b 1b 3e 48 15 b4 bc 42 43 31 3d
       -0.046961386 0.15141019 -0.021982804 0.043277033
0003c0 0a 49 17 3e b0 46 79 bc 60 83 04 3d 5b 51 11 3e
       0.14773956 -0.015214607 0.03235185 0.14191191
0003d0 16 9e f5 3d be aa c9 bd 25 bc 1b 3c d8 55 91 3d
       0.11993043 -0.098470196 0.009505306 0.070964515
0003e0 ae 72 27 bd 42 81 34 3d 26 28 fa 3d 4e 81 f2 3c
       -0.04088085 0.044068582 0.12214689 0.029602673
0003f0 56 34 65 3c 18 1f 08 3e 08 87 65 bd 1b e3 61 3d
       0.013989529 0.13293111 -0.05603698 0.055148225

lstm.weight_ih_l1 f4 [256, 64]
000000 00 f6 2b 3d 7b 4e 15 3d e1 6a cd bd 75 65 52 bd
       0.04198265 0.036451798 -0.10030151 -0.05136629
000010 50 e6 b2 3c e1 24 49 bd 37 a9 53 3d c1 db f4 3b
       0.021838337 -0.049107436 0.051675048 0.007472486
000020 b3 37 5a bd ef 8d 7b 3c bf 15 00 3e 6b 9c 92 bd
       -0.053275775 0.015353664 0.12508295 -0.071587406
000030 64 29 86 3d f8 a0 25 bc 55 6a b0 3d 56 0f 02 3e
       0.065508634 -0.010109179 0.08614031 0.12701163
000040 6d 2a 9b bd 82 63 ff 3d 72 c7 27 3e 07 ca 12 3d
       -0.075764515 0.124701515 0.16384676 0.0358372
000050 a6 a1 13 3d dd 35 15 bd 86 9e bc 3c 87 e4 76 3c
       0.03604283 -0.03642832 0.023024809 0.015069134
000060 ca 2e d9 bd d9 7f 2c bc bc 01 ff bd 82 b5 b8 bc
       -0.106046274 -0.010528528 -0.12451503 -0.022547487
000070 35 09 fd 3d fe bb 2a 3e 87 0e b7 bd a0 d8 ae 3c
       0.12355272 0.16673276 -0.08938318 0.02134353
000080 d9 03 9d 3d 60 d8 49 bd 75 7a 7a 3d 91 0a 47 3d
       0.076667495 -0.049278617 0.06115194 0.04859406
000090 e7 63 61 bd a6 7f e0 bd df c8 f8 bd e9 38 5c bd
       -0.055026915 -0.10961847 -0.12147688 -0.05376521
0000a0 46 69 0a bd 2f 6b 64 bd fd f0 b3 bd e6 cc ce bd
       -0.033791803 -0.05576628 -0.08786199 -0.10097675
0000b0 98 82 87 3c cb 32 51 3e c3 3b 44 3c 54 e3 c2 bc
       0.016541764 0.20429532 0.011977139 -0.02379004
0000c0 eb e0 d2 bd 11 69 2e 3e 01 b4 a6 bd a3 43 48 bd
       -0.10296806 0.17032267 -0.08139802 -0.04889263
0000d0 3a 8d a7 3c 2e d5 36 bd 9b 8a 83 3d 5a 3c c6 bd
       0.020453084 -0.044636898 0.06422921 -0.0967948
0000e0 82 a2 e6 bc 78 73 e6 3b 81 c1 14 3d b2 18 dd bd
       -0.028153662 0.007032808 0.036317352 -0.10795726
0000f0 a8 03 3c 3d cf 90 22 bd 5a 88 89 3d c0 71 fa bc
       0.045901924 -0.03968888 0.0671546 -0.030571818
000100 8a a4 82 3e 36 62 e0 bc c4 e2 0b be af 21 ec bd
       0.25516158 -0.02739058 -0.13660723 -0.11529862
000110 fa 6d a5 bd 51 3d 34 3c 26 d6 6a bb a6 ee 62 3e
       -0.08077617 0.011000947 -0.0035833209 0.2216135
000120 e3 fb c9 bc b8 05 cc bc d3 e1 d9 bd 2c 20 31 3d
       -0.024656242 -0.02490507 -0.10638776 0.043243572
000130 b2 3e 26 be b6 37 3a 3e 7b 0c 10 be bb 28 1f bd
       -0.16234854 0.18185315 -0.14067261 -0.038857203
000140 5f 75 8e bd 52 9a cf bb 1b 79 fc 3b 5d 7d c1 bd
       -0.069559805 -0.006335535 0.0077048666 -0.09447739
000150 7d 74 84 3d d5 34 62 3c 84 c5 3d be be ae 23 be
       0.06467531 0.013806541 -0.18532377 -0.15984628
000160 c7 da 14 bd b5 24 c3 bd ee 15 f8 3d 1e dc 15 bd
       -0.036341455 -0.09528486 0.12113558 -0.036586873
000170 10 bd 7e bc 3f 6d c5 3d 38 87 18 be ee 57 09 bd
       -0.015548006 0.09639978 -0.14895332 -0.033531122
000180 8d 62 29 bc 33 79 ae 3d 87 65 4d bd 63 de 4c be
       -0.010338438 0.08519211 -0.050145652 -0.20006709
000190 b5 c8 a6 bd 16 52 47 3d 0f 43 ea 3d 38 7e e1 bb
       -0.081437506 0.048662268 0.11438572 -0.0068815015
0001a0 d2 6c f2 3d 66 bb 72 3d a9 4f 1d be 5f bf 50 3e
       0.11837162 0.05926075 -0.15362419 0.20385502
0001b0 9e 60 17 3e 3a 56 00 bd 2c 9d 16 3e 93 0a c8 bd
       0.1478295 -0.031332232 0.14708394 -0.09767642
0001c0 35 ac eb bd b5 ac 1a 3e b9 72 9a bd 7d a1 f3 bc
       -0.11507455 0.15104945 -0.07541413 -0.02974009
0001d0 cf bd 7e 3d a6 5b 2b be f0 79 b9 3d e0 3a 58 be
       0.062192734 -0.1673418 0.09056461 -0.21116209
0001e0 58 65 40 be 0c 92 27 3e 34 5b c3 bd 3d 3e 06 be
       -0.1878866 0.16364306 -0.0953888 -0.1310968
0001f0 13 6c 1d bd 1a 8a db bc 51 75 8e 3d d7 76 bb bc
       -0.038433146 -0.02679925 0.0695597 -0.022883816
000200 34 74 77 bd f4 fb c3 bd be 73 99 3d 30 10 06 be
       -0.060413554 -0.095695406 0.07492779 -0.13092113
000210 16 94 83 bd 48 bf c3 3d 80 07 dc bd 70 af 05 3e
       -0.064247295 0.095579684 -0.10743618 0.13055205
000220 71 6a f7 3c 4d d4 bb ba ba 7d 03 bd 4b 9e 88 3d
       0.030202122 -0.0014330238 -0.032102324 0.06670817
000230 8a 4b d6 bd 19 8a 94 3c 80 df c7 bd 3e f2 78 bd
       -0.10463627 0.018132256 -0.09759426 -0.060777895
000240 f5 de 32 3c d8 de 9b bd 6f 8f 01 3d 69 c7 ad bd
       0.010917415 -0.076108634 0.03163093 -0.084853
000250 da 53 ea bc 2d 78 98 bd a5 63 b9 bd 2e b3 3b bb
       -0.028604437 -0.07444797 -0.09052209 -0.0028640735
000260 7b 46 92 3d f5 cf c3 bd 32 bf 4b bd 76 56 0d be
       0.07142349 -0.09561149 -0.049742885 -0.13802513
000270 f6 61 c9 3c 8a 62 89 3c b3 59 14 bd a5 79 b3 3d
       0.024582844 0.01677062 -0.036218356 0.08763436
000280 78 f1 e6 bd 06 5e 9a bc 12 05 a6 bd fc e5 b0 bd
       -0.11276525 -0.018843662 -0.08106436 -0.08637616
000290 ea d3 5c bd 5a dc 89 bd 64 a1 e5 bd 28 bf 1c be
       -0.053913034 -0.06731482 -0.112124234 -0.15307295
0002a0 34 4d d4 3c bd 4e d5 3d 39 f6 e0 bd c4 c1 b5 3d
       0.02591572 0.10415409 -0.10984463 0.088748485
0002b0 a4 83 ef 3c 4c 8a 14 3e 93 3d 0d bb b3 25 88 3d
       0.029237576 0.14505881 -0.0021551594 0.066478156
0002c0 41 57 01 be 11 c7 7f 3d 9a 68 9c 3d c5 0f 97 3c
       -0.12630941 0.062445704 0.07637139 0.018440137
0002d0 ca 17 e1 3d f0 ea 19 be 4f 53 b3 bc 9c 3e 18 3d
       0.109908655 -0.15031028 -0.02189031 0.037169084
0002e0 10 95 a6 bd d8 a7 1f 3e 23 5d 35 bd 26 76 ae bd
       -0.081339 0.15591371 -0.044278275 -0.08518629
0002f0 fa 74 a5 bd ae a9 98 bc d5 1f 16 3e 38 50 e0 bc
       -0.08078952 -0.018635597 0.1466058 -0.027382001
000300 29 c1 50 3d 2f 6d e6 bd 8f 24 3a be 55 f9 0c be
       0.050965462 -0.11251294 -0.18178008 -0.13766988
000310 10 37 69 bc 92 de 8e 3c fb 8b f5 bd 32 e6 aa 3d
       -0.014234319 0.017440114 -0.1198959 0.083446875
000320 a7 0c e7 3d 36 90 95 3c bb 5a 1f 3d d7 eb 11 3e
       0.1128171 0.018257242 0.038904887 0.14250122
000330 38 bd 6a 3d 7b 89 1a 3e 63 e4 22 bd ef b4 44 bd
       0.05730936 0.15091507 -0.039768588 -0.048024114
000340 14 a5 59 3d 1a 7c 91 bd a1 91 17 bd a5 ac ca bd
       0.053135946 -0.071037486 -0.037004117 -0.098962106
000350 90 c1 77 3d 8e 51 04 be 37 5d 5c bd 01 83 1e 3d
       0.06048733 -0.12921736 -0.053799834 0.038699154
000360 b6 0a 2e be ee 97 f6 3c ad 4b 0d be 9c 64 02 3d
       -0.16996273 0.030101743 -0.137984 0.03183423
000370 93 9c 17 3d 62 42 26 bd ea 52 13 3d 77 94 94 bd
       0.037014555 -0.04059065 0.035967745 -0.0725488
000380 a6 85 22 be 43 72 9d 3c 99 69 27 bd 50 b6 b4 bd
       -0.15871295 0.019219523 -0.04087219 -0.08823836
000390 e9 16 f4 bd 6e f0 4f be e0 ba 88 bd 10 5f 8d bd
       -0.11918432 -0.2030656 -0.066762686 -0.06902897
0003a0 59 b4 6e 3c 23 a1 05 3d bf 2b 79 bd 32 73 5d 3d
       0.014569365 0.032624375 -0.060832735 0.054064937
0003b0 29 34 2b bd e8 6a 0f 3e 84 75 40 3e f7 66 cf bd
       -0.04179779 0.14005625 0.18794829 -0.10127061
0003c0 02 0e f1 bd 4e ef c3 3d da e5 23 be df 49 0e be
       -0.1177025 0.09567128 -0.1600565 -0.13895367
0003d0 b2 11 18 3e 62 28 0e bd 92 0e e5 3d a7 3a 6e be
       0.148505 -0.03470648 0.1118442 -0.23264562
0003e0 87 8c 91 bd 65 f3 a5 3d 22 55 b8 ba 9a 16 18 bd
       -0.071068816 0.081030644 -0.0014063457 -0.03713093
0003f0 71 fd b1 3d 30 44 31 3e 8d e4 bf 3c e6 eb 9f bd
       0.08690918 0.17311168 0.023424411 -0.07808666

lstm.weight_hh_l1 f4 [256, 64]
000000 d1 13 f9 3c 78 06 a9 bd 6e 6f fe 3d dc 61 77 b8
       0.030404957 -0.08253187 0.12423597 -5.8980528e-05
000010 9f 69 ec bd d0 26 29 3e fd 10 bc 3c db cb cf 3d
       -0.11543583 0.16518712 0.02295732 0.10146304
000020 35 94 c6 3d 97 f5 14 3d 00 44 bd bd dc 03 25 be
       0.09696237 0.036367025 -0.092414856 -0.16114753
000030 e4 fc a3 bd d2 b3 07 3e 03 58 a0 bd 3a 09 45 bc
       -0.080072194 0.1325219 -0.07829287 -0.012026126
000040 bc cb 09 3d 82 15 19 3d 81 09 0c be f3 54 0c be
       0.033641562 0.037374027 -0.136755 -0.1370428
000050 25 ef e8 bd 47 f1 5a bd 1f f3 86 3e 9d c8 72 3d
       -0.11373738 -0.053452756 0.26357362 0.05927335
000060 aa d2 45 be f5 fc b3 3d 27 b9 08 bd 98 d6 32 3e
       -0.19318643 0.08788482 -0.0333797 0.17464674
000070 db f7 de bd 0f b2 1e be 1a 91 32 3d 12 cd ae 3d
       -0.108871184 -0.15497611 0.04359541 0.08535208
000080 4c f5 8e bd 3a 64 01 be a5 8a 8d 3d d6 f5 aa 3d
       -0.069803804 -0.1263589 0.0691121 0.08347671
000090 41 50 13 3e 9e 30 c9 bd 20 d2 ab bd 28 8f 07 3d
       0.14386083 -0.09823726 -0.083896875 0.03309551
0000a0 91 c5 b0 3d 3a c2 db bd 24 ad 5e bc d1 72 08 3c
       0.08631433 -0.10730405 -0.013591085 0.008328156
0000b0 28 6a aa bc 9b e3 bd bd 92 e8 4f 3d 17 62 dd 3d
       -0.020802572 -0.09271928 0.050758906 0.10809725
0000c0 6f 12 bd 3d 9f 75 45 3d 9a 4e 2b 3d 61 ac 30 bd
       0.092320316 0.048207875 0.041823007 -0.043133143
0000d0 43 c1 d5 bc 73 92 dc bd 4f 7f 02 3e f9 d8 52 3c
       -0.02609313 -0.107701205 0.12743877 0.012869113
0000e0 c1 9e 0f be a8 e8 99 bc a0 4f ff bd bf 5f 52 3d
       -0.14025404 -0.018787697 -0.12466359 0.05136084
0000f0 72 93 ce bd 63 c2 a1 3d b4 9f 1f 3d 7c 6e 3a 3d
       -0.10086717 0.078984044 0.038970664 0.045515522
000100 30 79 82 bd 6c 81 59 bd a9 13 b4 3d 08 c4 15 bd
       -0.06370771 -0.053101942 0.087928124 -0.036563903
000110 1b 1b 0b be 3a 4e aa 3c 43 6e 61 3d 20 9c 34 bc
       -0.13584559 0.020789254 0.055036794 -0.011023551
000120 ae 2d 62 bc 5e 08 20 3c df a8 9c bd 2f e8 31 be
       -0.013804836 0.00976762 -0.07649397 -0.17373727
000130 2f 08 59 bd 1c df 30 3d 22 4a 10 be 3d f5 a5 bd
       -0.05298632 0.043181524 -0.1409078 -0.08103416
000140 68 30 be bc 32 69 42 3e 4e f8 21 be 7f 37 b4 3c
       -0.023216441 0.18985441 -0.15817377 0.021999119
000150 e3 53 69 be 77 2c 72 bd a4 00 99 3d 3b 3e 38 bd
       -0.22785906 -0.059124436 0.07470825 -0.044981223
000160 83 58 0f be 1c 6a 93 3d 72 c1 8f bd 40 bb 33 3e
       -0.13998608 0.07197973 -0.07019319 0.17551899
000170 a7 b6 77 bd c2 c1 82 be 99 8c 15 be a2 26 ad 3d
       -0.060476925 -0.2553845 -0.14604415 0.08454634
000180 8b d3 29 3e 3d f0 50 bc 80 ea 70 3d 09 1c 4d bc
       0.16584603 -0.01275259 0.058817387 -0.012518891
000190 04 b4 97 bd 12 eb 37 3d 80 92 3e 3e f1 70 40 3d
       -0.07407382 0.044901915 0.18610573 0.04698271
0001a0 91 30 09 3d d1 d3 56 be 67 96 a3 39 8a 55 2f be
       0.033493582 -0.20979239 0.0003120184 -0.17122474
0001b0 7c 71 91 3d 42 dd 2c 3b 58 27 27 bc 97 70 0a 3e
       0.071017236 0.0026376997 -0.010202251 0.13519512
0001c0 a5 77 a0 3c 6a 11 b2 bb f9 13 63 3e ce 3e b7 3c
       0.019588301 -0.005434205 0.22175588 0.022368815
0001d0 24 bc 03 be 53 49 84 3c 4e 6d 3d 3d 10 72 af bc
       -0.12864739 0.016148245 0.04624682 -0.021416694
0001e0 b3 b9 7c be 21 b7 4e 3d fe a1 7a be 9c 21 96 bd
       -0.24680214 0.050467614 -0.24475858 -0.07330629
0001f0 1a 5f 4b be 08 fb 12 3e 62 a1 90 bd f1 b8 31 3e
       -0.19860497 0.14353573 -0.07062031 0.17355706
000200 70 ed af bc 3e 45 fb bd 46 26 91 bc 14 ea d2 3d
       -0.021475524 -0.12269066 -0.017718446 0.10298553
000210 3e 3c 13 bd 26 e9 92 bd 08 e1 8b 3d 66 14 e3 3c
       -0.035946123 -0.07173376 0.06830031 0.027719688
000220 11 1c 29 bd 85 19 11 3c c1 97 66 bd 97 ed 23 3d
       -0.04128653 0.008856182 -0.056297068 0.040021505
000230 43 49 06 3d 5c cb 5b 3d 9f 64 35 bd b2 27 13 3d
       0.03278471 0.053660735 -0.044285413 0.03592653
000240 21 e2 9f 3c 72 d7 66 3c 09 aa cf bd 9e d8 ba bd
       0.019517006 0.014089452 -0.101398535 -0.09123348
000250 c3 58 0f be 7c 4c a9 bc 68 26 27 3e 76 a2 a0 3c
       -0.13998704 -0.020666353 0.16323245 0.019608717
000260 84 2a 04 bd c6 cd 6f bd 31 3c 21 be 0d 82 ad 3d
       -0.03226711 -0.05854585 -0.15745617 0.08472071
000270 b4 37 03 be ef 50 0d 3c 9b 1e 27 3d 0e 66 96 3d
       -0.12814218 0.008625253 0.040800672 0.07343684
000280 71 6b 03 3d cf f5 ad 3d cb b1 01 3e 75 a9 ee bb
       0.032084886 0.0849415 0.12665479 -0.0072833844
000290 fe ec 63 3d 8d 04 e7 3d 3b b8 ea 3d 28 10 4e 3d
       0.055645935 0.11280165 0.114609204 0.050308377
0002a0 f8 19 37 3c 45 f7 6c 3d db 6e e5 ba e3 32 e4 bc
       0.011175625 0.057853002 -0.0017504351 -0.027856296
0002b0 af f1 e9 3d 4b 19 8d 3d e2 22 f6 3a 02 d7 1e 3d
       0.114230506 0.0688959 0.0018778706 0.038779266
0002c0 e8 b1 8e 3a 3a f2 a9 3d 49 8c e0 3d b0 be 01 be
       0.001088676 0.08298154 0.10964257 -0.12670398
0002d0 50 8c 13 be e5 de a7 bc 0a 46 11 bd a4 6c 98 3d
       -0.14408994 -0.020492027 -0.035467185 0.074425966
0002e0 f3 7b c7 bd 7a 17 f0 3c 1b b7 91 bd 9a ec 79 3c
       -0.09740438 0.02930807 -0.07115003 0.015254164
0002f0 8a 3a c3 3b e7 84 10 3e be 1a 6c bc 25 1a 3f 3c
       0.005957906 0.14113198 -0.014410673 0.011663948
000300 ff c3 81 bd 65 90 77 bd fe 77 2f bd fe 8c bf bd
       -0.063362114 -0.06044044 -0.042839043 -0.09353064
000310 61 e8 a2 bd 36 c7 59 3e 0f e7 cb bd a4 7b 5c bd
       -0.07954479 0.21267399 -0.0995618 -0.05382885
000320 87 15 86 bd cc 09 6d 3d f5 47 d5 bd c6 22 61 3c
       -0.06547075 0.05787067 -0.10414115 0.013741201
000330 a1 18 94 3d 67 61 2a 3d 53 1a 77 3c 61 15 04 be
       0.0723126 0.041596796 0.01508196 -0.1289878
000340 f9 de ce 3d e2 59 9c 3d 88 8e 53 be 91 1f e8 bd
       0.101011224 0.07634331 -0.2065984 -0.11334146
000350 f8 24 1d 3d b3 a8 bc bd 48 6c 5f 3e e2 71 18 bd
       0.038365334 -0.09211864 0.2181865 -0.037217982
000360 c2 d9 be be df 90 d9 bd 56 dd 7c 3d 37 69 47 3e
       -0.3727551 -0.10623335 0.06173452 0.1947373
000370 cb 8d 00 3d 8b 60 08 be c6 f0 c9 3a a6 b4 90 bc
       0.031385224 -0.13318078 0.0015406839 -0.017664265
000380 52 d7 fc 3d 7b aa 07 be 60 e2 17 3e 52 4e 1b 3d
       0.123457566 -0.13248627 0.14832449 0.03791649
000390 3c 0d ff 3d a1 bd c0 bd 09 a9 da bc d0 9d a5 3c
       0.12453696 -0.09411169 -0.02669193 0.020216852
0003a0 0f a9 8f 3b 74 c9 ad bc 51 66 03 be ff 7e 6f 3c
       0.004384167 -0.021214224 -0.12832 0.014617681
0003b0 92 ff 96 3d 64 b5 78 bd 37 47 bc 3d 1b c0 3e 3e
       0.07372965 -0.060719863 0.09193271 0.1862797
0003c0 b8 9b 5e 3d ee b4 8e 3d 11 e6 40 3d f0 1b aa bd
       0.054347724 0.06968103 0.04709441 -0.0830611
0003d0 30 1e 35 be a1 5f 8e 3d 74 40 b0 3d 51 c9 8b bd
       -0.17687297 0.069518335 0.086060435 -0.068255074
0003e0 36 bc ff bc 41 2d 09 3e 37 99 1e be 89 bd 8b bd
       -0.031217676 0.13396169 -0.15488134 -0.0682326
0003f0 6e 80 6a be 81 0b 10 3e 48 68 1a 3d 99 0e 9f 3e
       -0.22900555 0.14066888 0.037697107 0.31065825

lstm.bias_ih_l1 f4 [256]
000000 05 bb 75 bd ba bb 13 3e b8 26 1f 3d 3c 56 3f 3e
       -0.05999281 0.14427081 0.038855284 0.1868524
000010 ba 58 b9 bb eb 77 60 bd 64 7b 3f 3e 9b ce 8e 3d
       -0.005656329 -0.054801863 0.18699414 0.069730006
000020 a2 09 1a bd 47 64 1a 3d 85 07 96 bd bd 76 ae bd
       -0.037606843 0.03769329 -0.07325653 -0.08518741
000030 e5 b8 c0 3d 44 3c 71 3d 16 be e4 3d d5 ca 6a bd
       0.09410266 0.058895364 0.111690685 -0.057322342
000040 36 3a 2d 3b 8a ec c3 3b da 2c 16 3e f2 41 9d bc
       0.0026432402 0.0059791254 0.14665547 -0.019196484
000050 25 bb cf 3d 29 c9 35 bd b0 c1 c5 3d f8 b6 80 3d
       0.10143117 -0.044381294 0.096560836 0.062848985
000060 17 81 98 3d 1b be 90 3d fc a9 9c 3d 5d 30 b2 3d
       0.07446497 0.0706751 0.076496094 0.08700631
000070 37 22 2c 3d 90 49 b2 bc c2 53 b2 3c 9c 86 8b 3d
       0.042024817 -0.021763593 0.021768454 0.06812784
000080 96 7b 3c bd 11 be db 3c a9 ae c2 3d aa 9d 7c 3d
       -0.0460163 0.02682403 0.0950597 0.061673798
000090 fe 49 14 3e ff 02 8a 3b c0 6d 21 3e dc b2 b2 3d
       0.14481351 0.004211783 0.15764523 0.08725521
0000a0 56 93 1e bd 7c 03 24 3e 4a 31 d6 bc ae ed c2 3c
       -0.03871473 0.16016954 -0.02614655 0.023794975
0000b0 62 33 ab 3d 11 f5 fd 3d 50 c8 10 3d 02 a7 13 3d
       0.0835941 0.12400258 0.035347283 0.036047943
0000c0 06 fb 81 bd 67 c7 3f bc 51 d0 91 bd 84 7b df 3d
       -0.06346707 -0.011705256 -0.07119811 0.109122306
0000d0 d1 16 c4 3a d9 2f af bc 7c 09 ac 3d d1 50 50 bd
       0.0014960413 -0.02138512 0.084002465 -0.050858323
0000e0 48 68 f0 3d 42 bc 37 bd ad c9 e0 bc e9 44 c8 3d
       0.1173864 -0.04485727 -0.027439917 0.097787686
0000f0 13 44 14 3e 4d 6b fc 3d 38 87 77 3d 9e 2f 7f bd
       0.14479093 0.123251535 0.06043169 -0.06230127
000100 a4 5d 18 3d 93 9c 11 3c 86 df c2 3d 90 da ba 3d
       0.037198678 0.008887428 0.0951529 0.09123719
000110 be 19 27 be 6c 20 89 bd c5 20 3c bd a9 d3 db 3a
       -0.16318414 -0.06695637 -0.04592969 0.0016771454
000120 2d c3 5a 3d f9 68 e1 bd 26 e4 95 3d dc e2 e4 bc
       0.05340879 -0.1100635 0.073189065 -0.027940206
000130 37 81 0d be 52 7b aa 3d 6a 98 2d bd 11 05 9a bd
       -0.13818823 0.08324303 -0.04238168 -0.075204976
000140 c3 ba 8c 3c 12 0e c6 bd cd 62 78 3d 18 59 88 bd
       0.017178899 -0.096706524 0.0606411 -0.06657618
000150 da 4b 80 bd c1 83 a5 3c 29 fd 85 bd e6 d1 54 3b
       -0.062644675 0.020204427 -0.06542427 0.0032473742
000160 4b 67 4f bd 8a f6 40 bd 5d 70 78 3c f6 e7 2e 3e
       -0.050635617 -0.047110118 0.015163508 0.17080674
000170 52 39 9d bc a1 9f 1d 3c d1 c0 c6 3d 28 dd ad 3d
       -0.019192372 0.009620578 0.097047456 0.08489448
000180 b0 b1 4b 3d 77 fc a2 3d 17 0a fd 3d c5 72 0a be
       0.049730003 0.0795831 0.1235544 -0.13520344
000190 f6 f9 c9 3d 6f 8b 6f bd 32 ee d1 3d 9a 51 0f be
       0.098621294 -0.058482584 0.1025051 -0.13995972
0001a0 8d aa 13 be 60 fc db 3d b9 45 ac 3d 20 50 65 3d
       -0.14420529 0.10741496 0.08411736 0.055984616
0001b0 96 ae cf bd b4 56 2e bd 43 14 a1 bd 32 64 81 bd
       -0.101407215 -0.042563155 -0.07865193 -0.06317939
0001c0 c1 c0 1d bd 81 fc 17 39 f5 60 00 3e c2 dc 40 bd
       -0.038513903 0.00014494547 0.12536986 -0.04708553
0001d0 73 fc b1 3d 28 d5 da 3c 4a b8 38 3d 26 01 be 3d
       0.08690729 0.026712969 0.045097627 0.09277563
0001e0 99 ee 07 3d ce 6d 64 bc 7e fa f6 bd ed b0 8b bc
       0.03318653 -0.013942195 -0.12059496 -0.017052138
0001f0 de af d3 3b 1b c6 8f bd 43 03 63 bd 7c 0d 12 bd
       0.006460174 -0.070202075 -0.055423032 -0.03565739
000200 f9 2e 1b 3d 01 ce ea bd 78 2e 97 3c cc 56 57 3d
       0.037886593 -0.114650734 0.018454775 0.05257301
000210 e1 d4 6f bd b8 90 72 38 91 11 98 3d 47 e9 6d 3d
       -0.058552627 5.7832076e-05 0.074252255 0.0580838
000220 7e 85 e4 bc ec 3a 91 bd cc d0 65 39 45 3d 2a 3c
       -0.027895685 -0.070913166 0.00021916925 0.010390584
000230 f2 5b 5c bd 53 bf e2 3c 71 a6 5c bd 50 f1 9e bc
       -0.053798623 0.027679121 -0.05386967 -0.019402176
000240 48 a3 9b 3d 8d 11 18 bd 32 72 1b bc f0 91 08 be
       0.07599503 -0.037126113 -0.0094876755 -0.1333692
000250 d3 48 52 bc 08 53 c5 3d 31 82 4c 3d c8 c6 19 3d
       -0.012834745 0.096349776 0.049928848 0.03754309
000260 c8 20 07 bd 76 21 a8 bd 3e 63 90 bd 24 45 23 3e
       -0.032990247 -0.08209507 -0.07050179 0.15944344
000270 a4 51 13 bd 59 9b ff bd 9e f0 69 bc 0a 2a e1 3d
       -0.03596653 -0.12480802 -0.014278559 0.109943464
000280 06 21 9a 3d f8 ac b3 3d b8 91 7d 3d f5 53 12 3d
       0.0752583 0.087732255 0.061906546 0.0357246
000290 b1 eb 12 3d 90 6d 8b 3d 4d 89 c5 3d e8 cb b9 bd
       0.035869304 0.06808007 0.09645329 -0.09072095
0002a0 6f 2c c3 bd 19 5b ba bd fc 62 cf bd 9e 52 1c bd
       -0.095299594 -0.09099407 -0.10126302 -0.038164727
0002b0 04 ba c5 3d 51 6b 98 3d e6 f2 0a bb 91 b2 04 3e
       0.0965462 0.07442344 -0.0021201908 0.12958743
0002c0 37 ce af 3d 05 be 81 bd 87 ef b7 3d 59 2d 81 bd
       0.08584254 -0.063350715 0.08981233 -0.063074775
0002d0 0f b4 92 bd 5b 7f a8 bd fa 98 d3 3d 72 8c a3 bd
       -0.0716325 -0.08227416 0.10331912 -0.07985772
0002e0 01 76 35 bc 02 29 6b 3d af 8f 0f bd ab 84 5f 3d
       -0.011075498 0.057412155 -0.035049137 0.05456988
0002f0 5c b5 98 bd 46 2b b7 bd fb b2 7a bb ec af 06 3e
       -0.074564666 -0.08943801 -0.0038253653 0.13153046
000300 a2 67 c4 3d e1 33 0d 3e 8f a0 0d 3e 2b 6e 05 3e
       0.09590079 0.13789321 0.1383078 0.13030307
000310 b2 dd e3 3d e2 62 4e bc 5a 2b d4 bc 12 11 5e bc
       0.111262694 -0.012596818 -0.025899578 -0.013553875
000320 5c 03 9c 3d c7 11 d8 3d 36 75 cc ba b6 96 5e bd
       0.07617828 0.10550266 -0.0015598896 -0.054342948
000330 27 02 15 bd 6e 14 8c 3d 2a ed 31 3d 07 96 d5 3d
       -0.036379006 0.06839834 0.043439068 0.10429006
000340 61 10 7d 3d 0c 9c 43 bc 8b d5 b5 3c b0 06 5c 3c
       0.0617832 -0.01193906 0.022196552 0.013429329
000350 e0 8e 91 bb 8d d1 e3 3d 82 f8 84 3c 6a ca 19 3c
       -0.004442081 0.11123953 0.016231779 0.009386638
000360 e1 16 93 bd d9 29 84 bd 91 cc 0e 3e 5f 4a 73 3d
       -0.07182098 -0.06453294 0.13945223 0.059397098
000370 be 75 76 3c 60 a3 ed 3c e0 fe 2d 3e 24 94 ca 3c
       0.01504272 0.029008567 0.16991758 0.024728842
000380 e7 0b 2e 3d f3 18 c2 bc 9b 45 1a 3e 97 f7 86 3d
       0.04249182 -0.023693537 0.15065615 0.06590193
000390 4e 8f 40 3d 3f 0f 05 3e 9a 44 e9 bb f5 d4 c4 3b
       0.047011666 0.12994097 -0.0071187736 0.006006832
0003a0 af 49 f5 3c d0 0e 28 3e 8c 5a 84 bd 04 50 93 3d
       0.029942362 0.164119 -0.06462583 0.07192996
0003b0 ea c7 2c 3d 55 68 c2 3d d1 f4 47 3d c9 4d d0 3d
       0.04218284 0.09492556 0.04881746 0.10171086
0003c0 ca ee 87 bc d7 b6 86 bd 81 60 8d bd 33 bc 86 bd
       -0.016593356 -0.06577843 -0.06903172 -0.06578865
0003d0 5f e2 6a bb ce 4e d8 3d a2 14 a2 3d f0 48 13 3e
       -0.0035840494 0.10561906 0.07914092 0.14383292
0003e0 81 9e 38 3e f2 34 88 3c ca 30 a7 bb 38 64 af bd
       0.18029214 0.016626809 -0.0051022517 -0.08564037
0003f0 00 da bb 3d 27 1d 5c bd 3f 10 0d bd 66 0c 42 bd
       0.091724396 -0.05373874 -0.03443932 -0.047375105
