data/models/aaveANDbtc_lstm_1h.pth (torch, 215989 bytes, 10 tensors)

lstm.weight_ih_l0 f4 [256, 10]
-0.059213128 -0.049026597 -0.17779729 -0.2608095 -0.18829389 -0.17643593 -0.019963775 -0.11388801
0.0023595185 0.105159774 -0.036762033 -0.0935163 0.077762246 0.07266711 -0.063545465 0.045414537
0.065997794 0.0350054 -0.045400534 -0.04498761 -0.13080624 -0.17035095 0.0017756416 -0.102386296
-0.3549908 -0.16711 -0.187055 -0.094539255 -0.16478568 -0.00843692 -0.0853089 -0.10835929
-0.24464819 -0.17354795 -0.26890048 -0.26737094 -0.17917508 -0.11483218 -0.18893564 0.19083454
-0.103404626 0.008909787 -0.09556599 -0.07365649 -0.25967357 -0.29801533 0.12961085 -0.03570571
0.006530938 0.14934942 0.04523131 -0.05427838 -0.079697825 -0.15644772 -0.2455177 -0.27525502
0.046983715 0.058457054 -0.120689005 -0.011182232 0.015797373 -0.21597344 -0.01288131 -0.14777352
0.08464148 -0.07788233 -0.1424981 0.05302531 -0.041212007 -0.043285206 0.1188477 0.03132315
0.16764162 -0.030053066 0.08859562 -0.03600633 -0.11399852 -0.09681141 0.019610278 -0.03906272
-0.018967241 -0.098253764 0.070062496 -0.067780346 -0.15094331 -0.020753883 0.106321506 0.054455746
0.13860482 -0.4152235 0.16315797 0.17167965 0.14867833 -0.027356708 -0.05309098 0.11967007
0.23742113 0.2477873 -0.061122112 0.014587798 -0.22167715 -0.025986549 -0.20465477 -0.18677783
-0.21823753 -0.1879682 -0.24243647 -0.026286636 -0.06273378 -0.104431026 0.06166046 0.030641068
-0.0040490003 0.03225085 -0.20659834 -0.22839406 -0.14719018 -0.1286636 -0.062848605 0.026415188
0.114653334 -0.08935031 0.10288011 -0.08171321 -0.15190308 0.024706628 0.055952996 -0.12743327
0.05457358 -0.07496401 0.038995486 0.07702298 0.19020757 0.07154868 -0.09817605 -6.2413455e-05
0.024508411 0.12056604 0.05965417 0.06524068 0.031123415 -0.015347821 0.09737999 0.068069294
-0.059135184 -0.13917987 -0.04906276 -0.05119138 -0.056240246 0.08421175 0.11310679 0.06934238
-0.08499305 0.1295412 -0.19762377 -0.30464175 0.09695407 -0.07881539 0.05175175 0.15427831
-0.17936137 -0.17390373 -0.18583044 -0.154769 -0.097385176 0.0015509399 0.047665056 0.15941453
-0.06862693 -0.20427348 -0.044999238 -0.057863925 0.03610046 -0.10758462 0.07175014 0.104638994
-0.18202224 -0.14988787 0.08544185 -0.14159043 0.01164396 0.0544447 -0.030481227 -0.021869268
0.113768026 0.007128279 0.030996125 0.09470702 0.15123406 0.09028437 0.11116316 0.008400344
0.13846198 -0.0015647458 -0.00028744654 0.1120911 -0.09695366 -0.19584563 0.034577157 -0.15632163
-0.11139673 -0.1732009 -0.0972277 -0.2417271 -0.01936955 -0.13835004 -0.06965433 -0.045794997
0.0037110324 0.10813455 0.16891691 0.07722598 -0.064429276 -0.001785039 -0.10957987 -0.13653122
0.04737969 0.07207792 0.04738004 0.017050903 -0.006514572 -0.019596696 -0.060035493 0.016816182
0.08668169 -0.045753494 0.12858553 0.15373598 -0.111462034 -0.23458217 0.11290639 -0.05142326
0.061291166 -0.056586634 -0.028739708 0.051413253 0.09511875 0.23645929 0.007003196 -0.15399896
-0.08674724 -0.11934402 -0.16395816 -0.109872274 -0.12446908 -0.13421616 0.20599164 0.1810057
-0.09613389 -0.1017701 -0.1392399 0.08730084 0.042219043 -0.042284247 0.09339057 0.11494961
00000000: 7789 72bd 1dd0 48bd 7e10 36be d388 85be
00000010: 1dd0 40be 9fab 34be 128b a3bc 1e3e e9bd
00000020: 27a2 1a3b 025e d73d c993 16bd 7985 bfbd
00000030: d041 9f3d 7ed2 943d 2024 82bd 9804 3a3d
00000040: da29 873d d361 0f3d e9f5 39bd ee44 38bd
00000050: 12f2 05be 7b70 2ebe a5bc e83a e8af d1bd
00000060: 5bc1 b5be e21e 2bbe 598b 3fbe cc9d c1bd
00000070: 94bd 28be 023b 0abc 6fb6 aebd 7aeb ddbd
00000080: 0e85 7abe 8eb6 31be 53ad 89be d8e4 88be
00000090: ac79 37be 222d ebbd 5878 41be 216a 433e
000000a0: cec5 d3bd 5bfa 113c 1ab8 c3bd 37d9 96bd
000000b0: eff3 84be 7795 98be b5b8 043e 2740 12bd
000000c0: 7b01 d63b 0eef 183e 7744 393d 0253 5ebd
000000d0: 9d38 a3bd d533 20be fe68 7bbe 3aee 8cbe
000000e0: ff71 403d aa70 6f3d cc2b f7bd ae35 37bc
000000f0: 7e69 813c 2428 5dbe 210c 53bc f151 17be
00000100: 8358 ad3d c580 9fbd 06eb 11be 1131 593d
00000110: eccd 28bd d44b 31bd 6c66 f33d b44c 003d
00000120: 3faa 2b3e d931 f6bc 9f71 b53d 607b 13bd
00000130: 0e78 e9bd 0f45 c6bd bca5 a03c 3b00 20bd
00000140: 3061 9bbc 4539 c9bd ed7c 8f3d 6cd0 8abd
00000150: e290 1abe 0c04 aabc 17bf d93d fd0c 5f3d
00000160: 6cee 0d3e 2d98 d4be e212 273e cacc 2f3e
00000170: 223f 183e 2d1b e0bc ed75 59bd 9515 f53d
00000180: 861e 733e f4bb 7d3e 2e5b 7abd a901 6f3c
00000190: 56ff 62be bee1 d4bc 0591 51be b042 3fbe
000001a0: a979 5fbe bc7a 40be 4441 78be 1257 d7bc
000001b0: 917a 80bd efdf d5bd ae8f 7c3d fa02 fb3c
000001c0: 7aad 84bb 7819 043d 848e 53be 22e0 69be
000001d0: 06b9 16be 64c0 03be c5b6 80bd aa64 d83c
000001e0: 5ecf ea3d 4cfd b6bd cfb2 d23d 4159 a7bd
000001f0: 7b8c 1bbe 8e65 ca3c f82e 653d de7d 02be
00000200: 8c88 5f3d bb86 99bd bbb9 1f3d 39be 9d3d
00000210: c6c5 423e 1d88 923d 8610 c9bd f8e3 82b8
00000220: ddc5 c83c 54eb f63d ee57 743d e89c 853d
00000230: 88f6 fe3c 6d75 7bbc 296f c73d ea67 8b3d
00000240: bc37 72bd 2b85 0ebe 08f6 48bd 0dae 51bd
00000250: 2c5c 66bd 3677 ac3d 88a4 e73d 6103 8e3d
00000260: d610 aebd 73a6 043e e35d 4abe 01fa 9bbe
00000270: db8f c63d f769 a1bd a5f9 533d 22fb 1d3e
00000280: 82aa 37be d213 32be 564a 3ebe c47b 1ebe
00000290: e171 c7bd e848 cb3a 6f3c 433d 903d 233e
000002a0: 478c 8cbd 112d 51be 1f51 38bd b902 6dbd
000002b0: 13de 133d 5355 dcbd bdf1 923d f84c d63d
000002c0: 0a64 3abe 357c 19be 23fc ae3d 15fd 10be
000002d0: 4fc6 3e3c 6801 5f3d c4b3 f9bc 2e27 b3bc
000002e0: 36ff e83d 5794 e93b 96eb fd3c c1f5 c13d
000002f0: 1add 1a3e 03e7 b83d 83a9 e33d 99a1 093c
00000300: fac8 0d3e 2818 cdba 6cb4 96b9 0590 e53d
00000310: a48f c6bd c28b 48be c7a0 0d3d c712 20be
00000320: f823 e4bd 945b 31be 511f c7bd 4f87 77be
00000330: e4ac 9ebc a2ab 0dbe eea6 8ebd 8993 3bbd
00000340: cb34 733b a675 dd3d 8ef8 2c3e a828 9e3d
00000350: 7ff3 83bd f8f7 e9ba 696b e0bd d7ce 0bbe
00000360: 3511 423d 979d 933d 9311 423d 56ae 8b3c
00000370: 3178 d5bb 4089 a0bc c7e7 75bd 17c2 893c
00000380: 2b86 b13d 0468 3bbd edab 033e f76c 1d3e
00000390: 3546 e4bd 4f36 70be 773b e73d 32a1 52bd
000003a0: 720c 7b3d 63c7 67bd 896f ebbc b496 523d
000003b0: 9fcd c23d 6222 723e 117b e53b e7b1 1dbe
000003c0: 89a8 b1bd a36a f4bd a6e4 27be b704 e1bd
000003d0: a5e9 febd f66f 09be 79ef 523e 8f59 393e
000003e0: d8e1 c4bd d86c d0bd e894 0ebe c8ca b23d
000003f0: e0ed 2c3d 3f32 2dbd 8e43 bf3d b36a eb3d

lstm.weight_hh_l0 f4 [256, 64]
-0.040761728 -0.13621682 0.053265393 0.024729624 -0.061828896 0.059253797 0.14122081 -0.08375399
0.035051685 0.17485096 0.028004482 -0.020261243 0.1537806 -0.06678267 -0.071187295 0.03590823
-0.053252134 -0.010277028 -0.1938385 -0.068995826 -0.13984233 -0.14367981 -0.022096675 -0.1172968
0.042424086 0.034999676 0.09347831 0.12192331 -0.031885676 0.07985771 -0.13861063 -0.041439973
0.20536812 0.0011721394 -0.107619464 0.12500742 0.08139035 0.031120762 0.08856242 0.09208478
0.12441266 -0.06627893 0.15817404 -0.014969025 -0.17084357 -0.04012229 -0.06149322 0.11597045
0.15557446 -0.091526896 0.018997164 -0.05533968 0.10337252 -0.079793535 -0.13920267 0.040347807
-0.0993123 -0.120422825 0.10621091 0.023894006 0.0074713267 -0.0015206202 0.08314944 -0.11766884
0.05490697 0.03938703 0.003074726 -0.027734362 0.10432378 0.05756706 -0.029315565 -0.0624175
0.14171642 -0.0392177 -0.007997232 0.0029520849 -0.05439278 -0.08418383 0.08845315 -0.06767035
-0.1667707 -0.02223313 0.030841228 -0.0013551575 -0.08843345 0.0013494105 -0.15896292 -0.065585956
-0.09578806 -0.0013978637 0.12834056 -0.100432396 0.05633456 -0.032856297 0.12392888 0.058636144
-0.09433284 0.12090497 0.007366116 -0.010372141 0.049197055 -0.08718127 -0.12262888 -0.10156952
0.13155141 0.0020845963 0.043167528 -0.016811801 -0.07436962 -0.17462885 -0.05378447 0.109959565
0.056986287 -0.0606056 -0.06431396 0.021013726 0.1349581 0.032514993 0.036304407 -0.07167267
-0.048929863 -0.00913891 0.089093484 -0.055764962 0.014266203 -0.0769197 -0.016432142 0.09808376
-0.0077529363 0.13896672 -0.13155746 -0.08812699 0.05248757 -0.00886476 -0.063023135 0.029116126
0.011466302 0.21192127 0.12784863 -0.15358363 0.097516775 -0.15445907 -0.07101411 0.054188784
-0.022329058 0.06337639 -0.023321113 -0.019130396 0.19495158 -0.10070115 0.13263781 -0.16095744
0.12805538 0.045468114 -0.019755043 -0.009290882 0.02349702 0.070464 -0.069158256 0.0457263
0.11402384 -0.116600536 -0.11928877 0.024722798 -0.07223684 -0.12648928 0.07319576 0.029445611
0.034998063 -0.17977554 0.1711175 -0.082976006 -0.07678009 -0.1119464 0.10330465 -0.0042641633
0.039354157 0.18209708 -0.097102925 -0.0651095 0.06079781 0.025612585 0.044143453 -0.043625236
-0.03387447 -0.08170791 0.032021377 0.10820449 -0.08418033 -0.051225957 -0.06655885 0.038600024
-0.10985142 0.036378786 0.053756487 -0.23277472 0.00798236 -0.084004946 -0.00022600434 -0.004740392
-0.15292041 0.14292902 -0.006495875 -0.2183821 0.04620477 0.023014551 -0.11635908 -0.056471508
-0.13746914 0.044483915 -0.0017851839 0.027699998 -0.036918163 -0.10824658 0.026350968 -0.26719233
0.1415808 0.13426174 -0.009121312 -0.15266418 -0.13448226 -0.04529639 -0.21636605 -0.055217028
0.18051639 0.0562268 0.0066680345 0.013163436 0.057901602 -0.039302375 0.11377319 -0.033101384
0.0985708 -0.186804 0.07829802 -0.06302088 -0.16110136 -0.05694304 0.0648106 -0.012093741
-0.009619529 0.11851261 0.07076563 -0.023823522 0.023453008 -0.059697796 -0.0031632362 0.08945902
0.14147551 -0.0044874586 0.23667432 -0.044302605 0.011193145 -0.18031272 -0.010509938 -0.0017170049
00000000: c5f5 26bd 6c7c 0bbe d02c 5a3d c895 ca3c
00000010: 4c40 7dbd 1cb4 723d 309c 103e 3687 abbd
00000020: 5b92 0f3d 210c 333e a869 e53c e8fa a5bc
00000030: a978 1d3e 5ac5 88bd a5ca 91bd 8214 133d
00000040: e91e 5abd fb60 28bc 9a7d 46be af4d 8dbd
00000050: d432 0fbe cd20 13be 1604 b5bc 4e39 f0bd
00000060: e1c4 2d3d d25b 0f3d 8e71 bf3d eeb2 f93d
00000070: 8e9a 02bd 708c a33d f2ef 0dbe f6bc 29bd
00000080: 054c 523e 79a2 993a 9867 dcbd f201 003e
00000090: fcaf a63d f8f0 fe3c 3760 b53d f296 bc3d
000000a0: 11cc fe3d 3fbd 87bd 60f8 213e a440 75bc
000000b0: 9ef1 2ebe 4557 24bd 51e0 7bbd ea81 ed3d
000000c0: e94e 1f3e 7472 bbbd f19f 9b3c dcab 62bd
000000d0: f9b4 d33d cb6a a3bd 258b 0ebe be43 253d
000000e0: 3f64 cbbd 3ea0 f6bd 1b85 d93d 5dbd c33c
000000f0: 08d2 f43b 8c4f c7ba 414a aa3d 5cfc f0bd
00000100: 22e6 603d 4b54 213d 5881 493b 2c33 e3bc
00000110: b5a7 d53d 70cb 6b3d 3227 f0bc 7ea9 7fbd
00000120: 1c1e 113e bda2 20bd d206 03bc c477 413b
00000130: f7ca 5ebd 9268 acbd ed26 b53d c196 8abd
00000140: f0c5 2abe 4122 b6bc bea6 fc3c 8a9f b1ba
00000150: 991c b5bd b4de b03a 2dc7 22be ee51 86bd
00000160: 882c c4bd 8638 b7ba b56b 033e 80af cdbd
00000170: 11bf 663d 5394 06bd 6dce fd3d 742c 703d
00000180: 9331 c1bd 069d f73d 765f f13b eaef 29bc
00000190: da82 493d 188c b2bd da24 fbbd ae03 d0bd
000001a0: 6ab5 063e b99d 083b 6fd0 303d e7b8 89bc
000001b0: 194f 98bd e8d1 32be 1b4d 5cbd 7b32 e13d
000001c0: 746a 693d 943d 78bd 0ab7 83bd fa24 ac3c
000001d0: 7532 0a3e 712e 053d eeb3 143d 1fc9 92bd
000001e0: ae6a 48bd 5ebb 15bc a576 b63d cd69 64bd
000001f0: cbbc 693c 1388 9dbd b39c 86bc 23e0 c83d
00000200: 580c febb 4b4d 0e3e 00b7 06be ec7b b4bd
00000210: 35fd 563d 803d 11bc 4612 81bd f184 ee3c
00000220: 28dd 3b3c e401 593e c0ea 023e 0745 1dbe
00000230: e0b6 c73d 852a 1ebe d96f 91bd 0ff5 5d3d
00000240: 6eeb b6bc 7bcb 813d eb0b bfbc 59b7 9cbc
00000250: 63a1 473e 683c cebd 35d2 073e 07d2 24be
00000260: f320 033e c63c 3a3d 54d5 a1bc c938 18bc
00000270: d37c c03c 6e4f 903d d8a2 8dbd 804b 3b3d
00000280: 5585 e93d 43cc eebd ac4d f4bd 7787 ca3c
00000290: e9f0 93bd 6886 01be a9e7 953d ec37 f13c
000002a0: 215a 0f3d 1417 38be 6d39 2f3e 53ef a9bd
000002b0: e13e 9dbd 2744 e5bd 6391 d33d 65ba 8bbb
000002c0: d331 213d a877 3a3e e6dd c6bd 2158 85bd
000002d0: 2007 793d 7cd1 d13c c4cf 343d 60b0 32bd
000002e0: f5bf 0abd 7a56 a7bd d928 033d 519a dd3d
000002f0: bd66 acbd 4fd2 51bd 0250 88bd 0f1b 1e3d
00000300: c8f9 e0bd ec01 153d c32f 5c3d 7f5c 6ebe
00000310: 72c8 023c c90a acbd 94fb 6cb9 4a55 9bbb
00000320: 2b97 1cbe fc5b 123e 59db d4bb 8f9f 5fbe
00000330: 3741 3d3d 0389 bc3c ab4d eebd ab4e 67bd
00000340: b6c4 0cbe c434 363d d5fc e9ba 1beb e23c
00000350: 8037 17bd 62b0 ddbd fcdd d73c 6fcd 88be
00000360: 8ffa 103e e97b 093e 8e71 15bc 0054 1cbe
00000370: b8b5 09be b588 39bd 108f 5dbe 402b 62bd
00000380: 4ad9 383e 134e 663d 877f da3b 74ab 573c
00000390: 3b2a 6d3d 87fb 20bd eb01 e93d 5195 07bd
000003a0: 7ddf c93d 8c49 3fbe b65a a03d 1711 81bd
000003b0: c1f7 24be 1b3d 69bd 6bbb 843d d424 46bc
000003c0: 3b9b 1dbc bdb6 f23d 92ed 903d 8c29 c3bc
000003d0: 8620 c03c ad85 74bd 4c4e 4fbb 4a36 b73d
000003e0: f5de 103e 880b 93bb c15a 723e a676 35bd
000003f0: 7463 373c e6a3 38be e031 2cbc 200d e1ba

lstm.bias_ih_l0 f4 [256]
0.09029985 -0.07806246 0.016026715 0.07179858 -0.06555546 0.113805346 0.11193633 -0.06508104
0.0037823562 -0.112477995 -0.07919047 0.10202891 0.030550705 -0.03200919 -0.0110675255 0.022839395
0.056583725 0.123623446 0.016923927 0.042176485 0.19429004 -0.06136917 -0.11775345 0.00076891365
0.115952544 -0.058087595 -0.028558562 -0.012575226 0.06442251 0.07424069 -0.049726807 -0.034031313
-0.0808786 0.11011115 0.022663835 0.0027159846 0.103649616 0.008740287 0.18753336 0.080960356
0.0040631657 0.030694645 -0.15579534 0.09388786 -0.03666547 -0.033662193 0.031423897 -0.13108295
0.023148468 -0.1098932 -0.08653486 -0.04596173 -0.13746093 -0.12766105 -0.03822873 -0.089587115
0.031027073 -0.02181491 -0.02786867 0.061934963 0.068512134 0.10630126 -0.06671465 0.022903116
-0.026178312 0.048941854 -0.059726045 0.0074539455 0.07664457 0.10044506 0.06649724 0.1006113
0.14974052 0.10489823 0.08060337 0.06922608 -0.0018889409 -0.050755598 0.021588888 0.06381377
-0.053818565 0.097840026 -0.0029992098 0.045971222 0.2846882 0.10356998 -0.063291535 0.13904917
0.13266043 0.027923638 0.057230424 -0.04048427 -0.12953252 -0.07952158 -0.12938462 0.09672256
0.002131721 0.2456231 -0.125129 -0.058082495 -0.05293795 -0.052570775 -0.0004825808 -0.12865989
-0.00964366 0.040105682 -0.0018000064 0.03261733 -0.095571965 -0.16981152 -0.118407905 -0.1535553
-0.03416772 -0.117760934 -0.051933307 0.011925507 0.01121584 0.038321745 -0.072721116 0.027777305
0.027040845 -0.06877211 0.023786463 0.0773924 0.014429895 -0.106433816 0.12805341 0.026390951
-0.055429228 -0.09383953 0.10049096 0.10424553 0.030318284 0.071196124 0.0039599575 0.013080648
-0.09416862 -0.0031302073 -0.037461624 0.067365065 -0.011558953 -0.05949262 -0.0635912 -0.06668058
0.14666338 -0.1472916 -0.020971637 -0.009205992 0.0032272842 0.084999666 -0.088010885 -0.03155985
0.05763824 0.00087845617 -0.023570767 0.031882443 -0.10467938 -0.010986051 0.0944634 -0.06878737
-0.07835599 -0.03282497 0.05519833 0.051620252 0.09381356 -0.007754608 0.046916053 0.018695557
-0.052920725 -0.098094575 -0.023023147 -0.006117842 0.081466116 0.047908474 0.050812334 0.0021149102
-0.04929147 0.027456015 0.0070126713 0.083932966 -0.0849331 0.013483551 0.110983245 -0.10223388
0.14381346 0.09714438 -0.054365553 0.093987115 0.0954309 -0.04291631 0.07495022 -0.029430209
0.0064370604 0.070304014 0.052844062 0.049806267 0.06069888 0.04711854 0.048700023 0.13098061
0.0039373296 0.0047180615 0.017746003 0.1292938 -0.08960859 -0.06682195 0.017914224 -0.04995293
0.12415515 -0.05563463 0.15673259 0.115002304 0.095643006 0.024090849 0.0053530475 0.022534374
0.09288236 0.07468928 -0.057558887 -0.062517285 0.026984427 0.07717859 -0.102372766 0.00938547
-0.048679262 0.004355724 -0.07100324 0.18625912 0.007466495 -0.08912743 0.22276028 -0.07647598
-0.03277958 -0.040960707 0.043635048 0.097815976 -0.16435923 -0.082016826 0.08828343 -0.08248431
-0.16716422 -0.13018125 0.10772345 -0.06732126 -0.135305 -0.03090324 0.04441828 -0.10510132
-0.025711682 -0.011985592 -0.11111461 0.12914798 0.029518118 -0.032889504 0.033389993 -0.1390625
00000000: 21ef b83d 36df 9fbd 754a 833c 220b 933d
00000010: f141 86bd c712 e93d e03e e53d 3549 85bd
00000020: 68e1 773b dd5a e6bd 9d2e a2bd 88f4 d03d
00000030: 7945 fa3c 121c 03bd 9154 35bc af19 bb3c
00000040: 56c4 673d 4a2e fd3d 0ca4 8a3c 40c1 2c3d
00000050: f8f3 463e 3d5e 7bbd b928 f1bd ec90 493a
00000060: 8778 ed3d 42ed 6dbd a5f3 e9bc 5208 4ebc
00000070: f3ef 833d 810b 983d 56ae 4bbd 6b64 0bbd
00000080: aea3 a5bd f481 e13d 82a9 b93c a9fe 313b
00000090: 4046 d43d 6c33 0f3c bf08 403e 8bce a53d
000000a0: 4e24 853b 5673 fb3c d088 1fbe 4748 c03d
000000b0: 882e 16bd 5ee1 09bd 58b6 003d 9c3a 06be
000000c0: dba1 bd3c b00f e1bd 3039 b1bd 5e42 3cbd
000000d0: 8fc2 0cbe 94b9 02be bb95 1cbd 7379 b7bd
000000e0: 7d2c fe3c 2fb5 b2bc d64c e4bc 84af 7d3d
000000f0: 1750 8c3d 7ab4 d93d b1a1 88bd 519f bb3c
00000100: e673 d6bc 4177 483d 4ca3 74bd 3a40 f43b
00000110: d4f7 9c3d 24b6 cd3d b42f 883d 4c0d ce3d
00000120: 9455 193e e2d4 d63d 6113 a53d 67c6 8d3d
00000130: 5796 f7ba 1ae5 4fbd 2edb b03c cbb0 823d
00000140: db70 5cbd 5a60 c83d 648e 44bb 524c 3c3d
00000150: a7c2 913e 7f1c d43d fe9e 81bd e862 0e3e
00000160: 23d8 073e 1dc0 e43c 736a 6a3d d5d2 25bd
00000170: 2ca4 04be 36dc a2bd 677d 04be 7a16 c63d
00000180: 58b4 0b3b 9f84 7b3e d121 00be e9e7 6dbd
00000190: 77d5 58bd 7454 57bd e602 fdb9 6bbf 03be
000001a0: 7100 1ebc db45 243d 31ee ebba c099 053d
000001b0: 3cbb c3bd 12e3 2dbe d87f f2bd 9a3d 1dbe
000001c0: 73f3 0bbd a52c f1bd 05b8 54bd 3463 433c
000001d0: a4c2 373c 43f7 1c3d cfee 94bd 3b8d e33c
000001e0: c384 dd3c 64d8 8cbd d4db c23c e87f 9e3d
000001f0: 5e6b 6c3c f9f9 d9bd 6f20 033e d631 d83c
00000200: c209 63bd f12e c0bd 34ce cd3d ae7e d53d
00000210: 0d5e f83c 46cf 913d 88c2 813b 3750 563c
00000220: 7adb c0bd 2a24 4dbb 5c71 19bd b2f6 893d
00000230: c361 3dbc 89ae 73bd 1a3c 82bd d48f 88bd
00000240: ed2e 163e 9cd3 16be b6cc abbc bbd4 16bc
00000250: d880 533b 4e14 ae3d 0d3f b4bd e744 01bd
00000260: 1316 6c3d 3248 663a 7b17 c1bc 2a97 023d
00000270: 2562 d6bd d6fe 33bc 0776 c13d 65e0 8cbd
00000280: 1b79 a0bd 7a73 06bd a517 623d c26f 533d
00000290: 5321 c03d 5e1a febb 0c2b 403d 6d27 993c
000002a0: 67c3 58bd cfe5 c8bd 0a9b bcbc 2e78 c8bb
000002b0: b5d7 a63d ad3b 443d 9820 503d 4e9a 0a3b
000002c0: dae5 49bd 70eb e03c 8dca e53b 0ce5 ab3d
000002d0: 68f1 adbd 1dea 5c3c 2f4b e33d ff5f d1bd
000002e0: d643 133e a2f3 c63d 6aae 5ebd 517c c03d
000002f0: 4771 c33d 03c9 2fbd 807f 993d 9f17 f1bc
00000300: faed d23b 8dfb 8f3d 0473 583d a801 4c3d
00000310: 649f 783d 5fff 403d ad79 473d c81f 063e
00000320: b704 813b f899 9a3b 1160 913c 9865 043e
00000330: b584 b7bd f2d9 88bd dac0 923c 729b 4cbd
00000340: 0e45 fe3d 23e1 63bd 827e 203e 5486 eb3d
00000350: 7be0 c33d 2c5a c53c 9e68 af3b 029a b83c
00000360: 1b39 be3d b1f6 983d dec2 6bbd 1009 80bd
00000370: 720e dd3c cf0f 9e3d d0a8 d1bd 84c5 193c
00000380: e863 47bd 76ba 8e3b 266a 91bd b6ba 3e3e
00000390: 80a9 f43b 7188 b6bd 451b 643e 709f 9cbd
000003a0: e243 06bd 6ac6 27bd aaba 323d be53 c83d
000003b0: c94d 28be 70f8 a7bd f1cd b43d 89ed a8bd
000003c0: 192d 2bbe 3c4e 05be 1d9e dc3d bbdf 89bd
000003d0: 658d 0abe cb28 fdbc f1ef 353d 5c3f d7bd
000003e0: 4ea1 d2bc 375f 44bc 0f90 e3bd 5e3f 043e
000003f0: fbcf f13c 25b7 06bd f2c3 083d 6666 0ebe

lstm.bias_hh_l0 f4 [256]
0.06237051 0.08760427 0.0041618 -0.0018812466 -0.04308922 -0.05905299 0.020486565 0.07521038
0.08280274 0.0013553596 -0.028295226 0.08663081 0.057872668 -0.037011825 0.14501931 0.06486586
-0.08638797 0.0066105365 -0.0850287 -0.048365146 0.129463 0.029317856 -0.13234815 -0.07122317
0.1554201 0.10625047 0.07647405 -0.16820002 0.09604221 0.13821271 0.02395471 -0.039203208
0.037838016 0.07930487 -0.016200442 0.083745874 -0.07262748 -0.18956582 -0.001323419 -0.045157395
0.091680065 -0.00385397 -0.105690435 -0.08710349 0.06063746 -0.002449301 0.044601075 -0.09794397
0.012010946 -0.06773646 -0.02712427 0.04201761 -0.11654985 -0.12145138 -0.023923904 -0.048485298
-0.08701582 -0.029420385 0.015150906 -0.015976919 0.08344885 -0.10949701 0.09970742 -0.14943354
0.09317257 -0.019106543 -0.06655782 -0.041068498 -0.113079354 -0.0125161465 0.09235111 0.13160716
0.1738961 0.011492365 -0.12345142 -0.079212286 0.0335455 -0.07383857 0.012007444 0.026114158
0.06269173 0.15960269 -0.0028482615 0.11848223 0.1724603 0.0043300833 0.009649705 0.118103854
0.19143914 0.06530453 0.054662164 -0.040591355 0.1144528 0.068812005 -0.119232096 0.12815467
0.122232534 0.113466136 0.056764845 0.001506243 -0.037670035 -0.07555726 0.116097055 0.059174653
-0.110420994 0.07856716 -0.1363909 -0.03796167 -0.10943721 -0.13104728 -0.076517835 -0.11107461
-0.110396594 0.09600135 -0.005010967 0.1311984 0.029139513 -0.1010649 -0.035247076 0.06296961
0.070748545 0.002681535 -0.08941395 0.033670165 0.01081185 -0.09770011 0.01860275 0.11369312
0.034147702 -0.11526094 0.00639075 -0.02958407 0.08588331 -0.08398945 -0.019917758 -0.03407637
0.055457313 0.038992256 0.03783136 0.027322518 -0.0014954868 0.05844657 0.105660446 -0.03600941
0.14143915 0.080957085 0.15031837 0.0808421 0.018959818 -0.043754917 0.05318068 -0.07123295
-0.14881954 -0.11492421 0.014237861 0.026218303 -0.11245038 -0.105803125 0.053384177 -0.0090450235
0.048795454 -0.08454436 -0.05667952 -0.08923015 0.008470877 0.09311245 -0.10033599 -0.04409757
0.12689461 0.03629497 -0.053934593 -0.11139695 0.077561274 0.09059266 0.07682681 -0.00345094
0.028969878 -0.12499031 0.06467866 -0.09128448 -0.08886874 -0.09326416 0.085913084 -0.052173495
0.080957256 0.023543466 -0.011081192 0.03434518 0.014878214 0.08335385 0.05760998 -0.07075203
-0.045390345 0.03905692 -0.038527623 0.15333307 0.044747073 -0.05674175 -0.06855689 0.14079055
-0.07316988 -0.043958865 -0.07103292 -0.06958931 0.06609192 0.024907479 0.084345095 -0.043085597
0.05798689 -0.07493308 0.07192928 0.012534281 0.15454388 -0.015297346 0.005498669 0.052907374
0.010585958 0.03971574 -0.12009056 0.036894124 -0.013618914 0.033628512 0.048415303 0.06483509
0.018194424 -0.005818801 -0.20117494 0.020999895 -0.07619776 -0.04523009 0.23027782 0.11385934
-0.031225223 -0.055881128 -0.030207803 -0.022786485 -0.15779899 0.043660186 -0.11744564 -0.07285955
-0.16992815 -0.018373184 -0.004568137 0.058521356 -0.012163422 -0.018067813 -0.051426347 -0.10923854
0.07107453 0.13421279 -0.14423102 0.1520879 0.10150578 -0.055818114 0.021457706 0.08049444
00000000: 3878 7f3d de69 b33d b55f 883b 2994 f6ba
00000010: 527e 30bd 8ce1 71bd 71d3 a73c e607 9a3d
00000020: 7c94 a93d 52a6 b13a 64cb e7bc 7e6b b13d
00000030: e40b 6d3d b699 17bd f17f 143e 64d8 843d
00000040: 2dec b0bd 339d d83b 8723 aebd 881a 46bd
00000050: f391 043e 002c f03c 4686 07be 74dd 91bd
00000060: 7226 1f3e d999 d93d 6d9e 9c3d a03c 2cbe
00000070: c7b1 c43d a287 0d3e ab3c c43c 8b93 20bd
00000080: 09fc 1a3d 976a a23d cab6 84bc f582 ab3d
00000090: b7bd 94bd 8b1d 42be 9376 adba f6f6 38bd
000000a0: c2c2 bb3d e392 7cbb 3a74 d8bd 5163 b2bd
000000b0: fc5e 783d 7484 20bb 9eaf 363d d996 c8bd
000000c0: 8fc9 443c 6ab9 8abd b833 debc a81a 2c3d
000000d0: b0b1 eebd 80bb f8bd 10fc c3bc 8598 46bd
000000e0: 5a35 b2bd 0503 f1bc 813b 783c 07e2 82bc
000000f0: 3be7 aa3d f83f e0bd 6733 cc3d 1b05 19be
00000100: 43d1 be3d 5385 9cbc 774f 88bd 7137 28bd
00000110: 2696 e7bd 8610 4dbc 9422 bd3d 07c4 063e
00000120: d211 323e 794a 3c3c 19d4 fcbd 0d3a a2bd
00000130: 0267 093d ad38 97bd dfba 443c 5ced d53c
00000140: 8664 803d e36e 233e e6a9 3abb d0a6 f23d
00000150: 6f99 303e 5fe3 8d3b cc19 1e3c 6fe0 f13d
00000160: 9f08 443e 62be 853d 6fe5 5f3d 1f43 26bd
00000170: 3b66 ea3d 4fed 8c3d f52f f4bd fa3a 033e
00000180: 0d55 fa3d ef60 e83d 4182 683d 216d c53a
00000190: e54b 1abd c4bd 9abd 4bc4 ed3d 1f61 723d
000001a0: 6724 e2bd d2e7 a03d 0eaa 0bbe b27d 1bbd
000001b0: 9e20 e0bd 4231 06be 62b5 9cbd 167b e3bd
000001c0: 9c17 e2bd 5b9c c43d 0a33 a4bb e058 063e
000001d0: fdb5 ee3c 1dfb cebd 3d5f 10bd 36f6 803d
000001e0: 9de4 903d b1bc 2f3b a91e b7bd bae9 093d
000001f0: 3024 313c ff16 c8bd cb64 983c f0d7 e83d
00000200: 76de 0b3d ed0d ecbd 7f69 d13b 4b5a f2bc
00000210: 97e3 af3d a902 acbd 912a a3bc aa93 0bbd
00000220: 3527 633d 58b6 1f3d 0ef5 1a3d 79d3 df3c
00000230: 3604 c4ba ac65 6f3d 8164 d83d 9a7e 13bd
00000240: 6dd5 103e d4cc a53d 0fed 193e 8b90 a53d
00000250: 9f51 9b3c 5b38 33bd fcd3 593d 95e2 91bd
00000260: 2664 18be 625d ebbd eb45 693c c4c7 d63c
00000270: 634c e6bd 4faf d8bd 5ea9 5a3d 9431 14bc
00000280: bedd 473d 9825 adbd c928 68bd 4cbe b6bd
00000290: 6fc9 0a3c bdb1 be3d f57c cdbd a79f 34bd
000002a0: a9f0 013e 09aa 143d 85ea 5cbd 1624 e4bd
000002b0: 72d8 9e3d a588 b93d 6057 9d3d 2a29 62bb
000002c0: 3d52 ed3c ebfa ffbd 3f76 843d 5cf3 babd
000002d0: d000 b6bd 4801 bfbd 33f3 af3d e0b3 55bd
000002e0: ebcc a53d 3ade c03c e38d 35bc 88ad 0c3d
000002f0: c1c3 733c 6cb5 aa3d 71f8 6b3d 71e6 90bd
00000300: 3aeb 39bd 26fa 1f3d 24cf 1dbd 5803 1d3e
00000310: b548 373d 0a6a 68bd 8e67 8cbd 662b 103e
00000320: 17da 95bd 360e 34bd b579 91bd d784 8ebd
00000330: 335b 873d c50a cc3c 1fbd ac3d 867a 30bd
00000340: a983 6d3d 8476 99bd a94f 933d 965c 4d3c
00000350: c040 1e3e b8a1 7abc 2e2e b43b 67b5 583d
00000360: ba70 2d3c f9ac 223d 0af2 f5bd 4b1e 173d
00000370: de21 5fbc 0dbe 093d 204f 463d 42c8 843d
00000380: 790c 953c a4ab bebb ce00 4ebe f907 ac3c
00000390: 920d 9cbd 3043 39bd f3cd 6b3e 162f e93d
000003a0: 0acc ffbc 9ce3 64bd 5b76 f7bc b9aa babc
000003b0: 0f96 21be 06d5 323d 5787 f0bd 6337 95bd
000003c0: a501 2ebe 5c83 96bc 50b0 95bb 17b4 6f3d
000003d0: 1749 47bc f302 94bc 6fa4 52bd 75b8 dfbd
000003e0: 868f 913d 146f 093e 4cb1 13be eebc 1b3e
000003f0: 43e2 cf3d 89a1 64bd 12c8 af3c 45da a43d

lstm.weight_ih_l1 f4 [256, 64]
0.17888151 -0.121969506 0.133551 0.03364973 -0.042951893 0.12079647 0.17440711 -0.0058963806
0.09163556 -0.18361978 0.13731235 0.020368408 -0.10825874 0.08356306 0.0048785163 -0.027453996
-0.07593459 -0.07936176 0.040130552 0.0617885 -0.08363711 0.0024377152 -0.07931969 0.18104383
0.050388273 0.024390118 -0.139148 -0.080368154 0.039385226 0.019110901 -0.02265316 -0.025699217
-0.107355155 0.15111837 0.030856045 -0.14017873 -0.16660278 0.0502847 0.017383017 -0.032672647
-0.091512986 -0.014998523 -0.05055946 -0.07226582 0.13925138 0.042456906 -0.0056225383 0.086863495
0.0637202 0.06897742 0.0007298356 0.25251174 -0.055165563 -0.06635409 0.044408027 0.01069617
-0.046520464 0.122658685 -0.1612611 0.07404014 0.108305685 -0.0059658578 0.01644206 0.06734805
0.056692585 -0.0056477096 0.032700174 0.014026448 0.03293989 0.18286046 0.09619445 -0.07019693
0.20252152 0.08878348 -0.051656447 0.047406986 -0.097440705 -0.010169464 0.13578837 -0.020304892
-0.12948518 0.0720883 -0.107239015 0.06079789 -0.21405181 -0.015620997 -0.04522816 -0.02947367
-0.18525596 -0.010515248 -0.074275546 0.07732851 0.07271569 -0.02808786 -0.06767601 0.08228333
0.11533499 0.18787526 -0.10966341 -0.08866171 0.047579035 0.0002715051 -0.18243602 -0.17153746
-0.05659497 0.023521822 0.031575777 0.019047907 -0.03052051 0.20455165 -0.016613716 0.034890167
0.08233927 0.030131098 -0.14179118 0.021068655 0.1057913 -0.14551239 0.11924771 0.020113274
-0.14143893 -0.0008216369 -0.009897953 0.18377095 0.0057625743 -0.00766003 0.07933818 0.081577085
0.08392486 -0.021551928 0.05757826 0.056912392 -0.00806839 0.16079736 0.19405104 -0.031906176
0.021769883 -0.060196728 0.22503415 0.18765977 -0.040813617 0.2130986 0.09839612 0.02790189
0.0018470425 0.09016319 0.15144005 0.10390823 -0.19832608 -0.024402078 0.028618695 0.025959844
-0.016056525 -0.19529192 0.1263991 0.12269091 0.025333807 0.15721749 0.06914477 -0.12814
-0.048579343 -0.03678873 -0.029934837 -0.050345454 -0.10145382 0.014805927 -0.013541256 -0.14725083
-0.02075465 0.12596962 -0.08315946 0.018761788 -0.045397934 0.12988375 0.0432665 -0.1923573
0.05281566 -0.16846739 -0.1645182 0.02163306 0.051454145 -0.018009493 -0.059559572 -0.17895405
-0.21354848 -0.04470734 -0.09520972 -0.057628054 0.11254161 0.032260366 0.032505527 -0.060028948
-0.05961851 -0.061092965 -0.026709113 0.13855046 -0.022344178 0.020987332 0.016887374 0.038095266
-0.09849286 -0.069953136 0.036918208 0.0056755007 -0.123626605 -0.031174315 0.093045786 0.062368564
-0.049469367 -0.0092091495 -0.037289634 -0.13460737 -0.07163005 0.10064607 0.00090299983 0.04006768
0.11671763 0.12990013 0.045789957 -0.026937202 0.012351909 0.11768749 -0.009109145 0.07611733
0.052819766 -0.10356369 -0.032377668 -0.08064791 0.09771731 0.047056645 0.07762681 0.06996217
0.010059756 0.016748158 0.16840315 0.024699109 0.023308968 -0.09334969 0.12049094 -0.057601113
-0.03388384 0.05613484 -0.028965684 0.06876307 -0.039033175 0.021679262 0.051859505 -0.13748585
-0.03789393 0.009640498 -0.12237963 0.03591735 0.096848115 0.09433405 0.1600773 0.0067393524
00000000: b72c 373e 26cb f9bd 98c1 083e 4dd4 093d
00000010: 53ee 2fbd 2464 f73d c797 323e 6d36 c1bb
00000020: 6dab bb3d d306 3cbe 9c9b 0c3e a6db a63c
00000030: c2b6 ddbd 1c23 ab3d f6db 9f3b 34e7 e0bc
00000040: 9883 9bbd 6b88 a2bd ef5f 243d f015 7d3d
00000050: ef49 abbd 13c2 1f3b 5d72 a2bd 8e63 393e
00000060: ef63 4e3d c9cd c73c d07c 0ebe 0f98 a4bd
00000070: 6752 213d 778e 9c3c 1f93 b9bc 2a87 d2bc
00000080: 05dd dbbd c6be 1a3e d1c5 fc3c 038b 0fbe
00000090: eb99 2abe 54f7 4d3d d466 8e3c c1d3 05bd
000000a0: 296b bbbd 5dbc 75bc 7017 4fbd 1a00 94bd
000000b0: ea97 0e3e 4be7 2d3d 453d b8bb 7de5 b13d
000000c0: bc7f 823d 0944 8d3d 7052 3f3a 3849 813e
000000d0: 49f5 61bd a7e4 87bd 31e5 353d fd3e 2f3c
000000e0: 3e8c 3ebd 7a34 fb3d a121 25be 5ba2 973d
000000f0: 5fcf dd3d 3e7d c3bb 80b1 863c c6ed 893d
00000100: 7c36 683d 6c10 b9bb 9ef0 053d 30cf 653c
00000110: faeb 063d c63f 3b3e 9901 c53d 68c3 8fbd
00000120: cd61 4f3e 1dd4 b53d b695 53bd d42d 423d
00000130: fe8e c7bd d39d 26bc 1b0c 0b3e 7256 a6bc
00000140: c397 04be 08a3 933d 21a0 dbbd 3507 793d
00000150: 6630 5bbe 36ef 7fbc 2a41 39bd c472 f1bc
00000160: bdb3 3dbe 2648 2cbc c71d 98bd 695e 9e3d
00000170: f7eb 943d 8318 e6bc b899 8abd 2a84 a83d
00000180: c034 ec3d 5f62 403e 3697 e0bd 4594 b5bd
00000190: 3ce2 423d cc58 8e39 82d0 3abe 84a7 2fbe
000001a0: 21d0 67bd d6b0 c03c 9a55 013d 5b0a 9c3c
000001b0: 2606 fabc fd75 513e 7d19 88bc fee8 0e3d
000001c0: 7ea1 a83d 7ed5 f63c b531 11be 2c98 ac3c
000001d0: 1ca9 d83d 3301 15be 2538 f43d 98c4 a43c
000001e0: 5ed5 10be 1e63 57ba 062b 22bc 742e 3c3e
000001f0: fad3 bc3b fd00 fbbb 0e7c a23d e311 a73d
00000200: cce0 ab3d ab8d b0bc 2ed7 6b3d f81c 693d
00000210: 4831 04bc 10a8 243e 51b5 463e 0db0 02bd
00000220: c156 b23c d890 76bd 5a6f 663e e229 403e
00000230: 2e2c 27bd 8536 5a3e e883 c93d 8192 e43c
00000240: 7618 f23a 7ba7 b83d 1a13 1b3e d7cd d43d
00000250: fe15 4bbe dee6 c7bc c171 ea3c bda9 d43c
00000260: f988 83bc 9bfa 47be c46e 013e 5f45 fb3d
00000270: d888 cf3c 9ffd 203e c69b 8d3d 2237 03be
00000280: 22fb 46bd c8af 16bd e739 f5bc 0937 4ebd
00000290: 05c7 cfbd 8f94 723c 25dc 5dbc ecc8 16be
000002a0: a805 aabc 2efe 003e 824f aabd 52b2 993c
000002b0: 2ff3 39bd 3f00 053e 3738 313d 50f9 44be
000002c0: 3c55 583d b782 2cbe 7677 28be d137 b13c
000002d0: 95c1 523d a588 93bc bdf4 73bd bb3f 37be
000002e0: 74ac 5abe 0b1f 37bd 50fd c2bd 650b 6cbd
000002f0: 377c e63d 7223 043d 8424 053d eae0 75bd
00000300: 8a32 74bd 9e3c 7abd 12cd dabc 2ce0 0d3e
00000310: 230b b7bc a0ed ab3c 6457 8a3c c809 1c3d
00000320: a0b6 c9bd 9743 8fbd 8c37 173d 8df9 b93b
00000330: f22f fdbd 4761 ffbc ca8e be3d 2e76 7f3d
00000340: 64a0 4abd f9e1 16bc 04bd 18bd 84d6 09be
00000350: c7b2 92bd 871f ce3d 4bb7 6c3a 021e 243d
00000360: a709 ef3d 8a04 053e 408e 3b3d 68ab dcbc
00000370: a95f 4a3c 2406 f13d 863e 15bc 67e3 9b3d
00000380: 8a59 583d 3319 d4bd 729e 04bd bb2a a5bd
00000390: 0320 c83d 78be 403d cefa 9e3d 5448 8f3d
000003a0: add1 243c 6f33 893c e071 2c3e c955 ca3c
000003b0: 73f2 be3c 1f2e bfbd f4c3 f63d 25ef 6bbd
000003c0: c8c9 0abd a5ed 653d 7149 edbc a7d3 8c3d
000003d0: 40e1 1fbd b598 b13c a26a 543d 17c9 0cbe
000003e0: aa36 1bbd 2ef3 1d3c 2ca2 fabd 121e 133d
000003f0: 4e58 c63d 3632 c13d 4eeb 233e c9d5 dc3b

lstm.weight_hh_l1 f4 [256, 64]
-0.008511522 -0.109151684 0.00312864 0.099428765 0.01580917 0.014167872 0.0024896252 -0.02533391
-0.12521785 0.006953778 0.052849147 0.1363282 0.032901727 0.035379045 -0.080111295 0.06746267
-0.0372348 -0.061263245 -0.06813704 -0.12698188 -0.14895807 -0.04302648 0.059391163 0.15754299
-0.11798915 -0.10660815 -0.08741328 0.04966849 0.0016555128 -0.0036550974 0.058664188 -0.050179515
-0.06280317 -0.13326795 -0.035434 -0.14287 0.05400814 0.007954746 0.049105633 -0.08112632
-0.10600062 0.10399727 0.021472845 0.119136244 0.059268046 -0.10923226 0.070737936 0.11085126
-0.05273782 -0.12546816 -0.1406131 -0.07946323 -0.06667267 0.056478985 0.046802334 -0.15554468
0.14059101 0.07130082 -0.02579447 0.022885498 -0.07955906 -0.0031801362 -0.06160886 -0.1518091
-0.08719813 0.093625516 0.09277945 -0.07538769 -0.00874436 0.0360989 0.042798154 -0.08030487
0.050351396 -0.041144326 -0.019292034 -0.024792232 0.05114959 -0.030759262 -0.01863173 0.13893242
-0.04411922 0.14859337 -0.070388764 -0.025616182 -0.12709354 0.104258165 0.11104694 -0.05046742
0.058734357 -0.05807751 0.040813014 -0.04432033 0.02896498 0.07121715 -0.028701382 -0.043835975
0.033654973 -0.0984539 -0.12172293 -0.114155576 0.04127804 0.123744056 -0.12856093 -0.11468945
0.056811664 0.022087194 0.011364516 -0.1591218 0.05276748 -0.0637138 -0.046769638 -0.049060546
0.015850713 0.1196625 0.07143659 -0.07923348 -0.08258424 0.086114965 0.053749133 -0.019460324
-0.018719353 0.097853266 0.055448897 -0.111818425 0.059869677 0.09015748 0.057487212 0.066522464
0.07740531 0.013241599 -0.13892648 0.057281516 0.043726914 0.030277746 0.10242908 0.07600999
-0.079595216 -9.9520155e-05 -0.033471864 0.20013902 0.107240565 0.07770873 -0.06117513 -0.009663915
0.03143849 -0.17629556 0.026284255 0.07259005 0.040669847 -0.017713726 0.12215999 -0.051793933
-0.018940924 0.034854688 0.04208142 0.007471119 0.07930752 -0.015384825 0.048549227 0.0770915
0.11920765 -0.050647765 -0.06970864 -0.0014533382 -0.117062174 0.05792295 -0.06260084 -0.04713095
-0.023206636 0.14654446 0.077003 0.1787961 0.018909113 0.09161439 0.13961807 0.15026139
0.13694738 -0.11823337 -0.11150471 0.023140997 -0.11183245 -0.061351124 0.109318025 -0.070463516
0.0574877 0.050775718 -0.07582107 -0.095056914 0.072575636 0.1275781 0.15999953 -0.14301796
-0.07968421 -0.02036452 -0.02857338 -0.0235581 0.03790363 -0.101644576 0.034891613 -0.07179463
-0.012166262 -0.1204828 -0.14104085 -0.11868493 -0.063538685 0.16448192 -0.07230951 0.11225636
0.002618676 0.09749671 0.08074241 -0.03474209 -0.09361009 0.0071806894 0.11251152 0.0978957
0.080246404 -0.062389664 0.03717764 -0.06544617 -0.050607312 0.18177374 0.10064684 -0.07376984
0.051770695 0.05185677 -0.0039576497 -0.05264441 0.09136564 -0.10513923 -0.01723114 -0.09700705
0.12699704 0.016916214 -0.022492925 -0.07920573 0.1217534 -0.04134898 -0.022308938 0.11069369
0.15518282 -0.004044483 -0.09676838 -0.036570955 -0.13147251 -0.07766941 0.00022061895 -0.14697652
0.118967764 0.098921865 0.109751396 -0.11795186 -0.03582687 -0.067118846 0.08064798 -0.098378
00000000: e973 0bbc eb8a dfbd de09 4d3b 4fa1 cb3d
00000010: 3c82 813c 5d20 683c fb28 233b 0f89 cfbc
00000020: 1c39 00be 85dc e33b 5978 583d 9f99 0b3e
00000030: f6c3 063d 9ee9 103d 6411 a4bd de29 8a3d
00000040: 8583 18bd 2bef 7abd 6f8b 8bbd 8a07 02be
00000050: 7788 18be 893c 30bd 2644 733d f352 213e
00000060: 4ca4 f1bd 6055 dabd bc05 b3bd 3071 4b3d
00000070: cbfd d83a 5c8a 6fbb dc49 703d 0989 4dbd
00000080: f39e 80bd 6577 08be 3e23 11bd 834c 12be
00000090: a437 5d3d 9f54 023c fd22 493d 8e25 a6bd
000000a0: da16 d9bd 85fc d43d d2e7 af3c b4fd f33d
000000b0: 0dc3 723d 2ab5 dfbd 0ddf 903d fc05 e33d
000000c0: 9d03 58bd ba7a 00be e1fc 0fbe 9ebd a2bd
000000d0: ae8b 88bd 8256 673d ceb3 3f3d 1b47 1fbe
000000e0: 17f7 0f3e 2a06 923d ed4e d3bc 5e7a bb3c
000000f0: dcef a2bd d569 50bb 9259 7cbd d873 1bbe
00000100: ef94 b2bd bcbe bf3d 2703 be3d dc64 9abd
00000110: 8144 0fbc 71dc 133d 1e4d 2f3d e176 a4bd
00000120: 443d 4e3d f486 28bd 540a 9ebc 1419 cbbc
00000130: 3c82 513d d9fa fbbc 92a1 98bc 4d44 0e3e
00000140: 5bb6 34bd dc28 183e fc27 90bd 07d9 d1bc
00000150: cf24 02be 4e85 d53d 946c e33d edb6 4ebd
00000160: 7093 703d afe2 6dbd 8c2b 273d 3c89 35bd
00000170: f747 ed3c 4cda 913d 291f ebbc 5a8d 33bd
00000180: ccd9 093d 33a2 c9bd df49 f9bd 66ca e9bd
00000190: 2913 293d 866d fd3d 7aa5 03be 4de2 eabd
000001a0: 59b3 683d 34f0 b43c 3c32 3a3c d3f0 22be
000001b0: b722 583d 617c 82bd 8591 3fbd b6f3 48bd
000001c0: 5bd9 813c 9d11 f53d 594d 923d 2a45 a2bd
000001d0: ed21 a9bd 0b5d b03d 0d28 5c3d 426b 9fbc
000001e0: 5459 99bc 4b67 c83d 621e 633d 0f01 e5bd
000001f0: e839 753d 7ca4 b83d b677 6b3d ee3c 883d
00000200: ad86 9e3d 4bf3 583c be42 0ebe 06a0 6a3d
00000210: fe1a 333d 0909 f83c 56c6 d13d 20ab 9b3d
00000220: d102 a3bd 7ab5 d0b8 cb19 09bd 3ef1 4c3e
00000230: f1a0 db3d c125 9f3d c692 7abd 6655 1ebc
00000240: a5c5 003d d386 34be 1452 d73c 18aa 943d
00000250: 6d95 263d 601c 91bc 042f fa3d e025 54bd
00000260: ff29 9bbc cac3 0e3d 915d 2c3d 4ad0 f43b
00000270: fb6b a23d a210 7cbc 8edb 463d 26e2 9d3d
00000280: 2423 f43d 0874 4fbd 67c3 8ebd f07d beba
00000290: 4bbe efbd 9d40 6d3d df34 80bd 620c 41bd
000002a0: d81b bebc c00f 163e c0b3 9d3d 5316 373e
000002b0: 49e7 9a3c 53a0 bb3d 0af8 0e3e 1fde 193e
000002c0: ef3b 0c3e 5624 f2bd 955c e4bd 3092 bd3c
000002d0: 6908 e5bd 514b 7bbd 21e2 df3d 2d4f 90bd
000002e0: 3978 6b3d 33fa 4f3d 1448 9bbd 33ad c2bd
000002f0: 89a2 943d d5a3 023e ebd6 233e 4d73 12be
00000300: 7a31 a3bd 7ed3 a6bc b912 eabc ebfc c0bc
00000310: d640 1b3d 082b d0bd 82ea 0e3d 1009 93bd
00000320: 0055 47bc b0bf f6bd 036d 10be 1611 f3bd
00000330: 9220 82bd f36d 283e 0217 94bd aae6 e53d
00000340: 189e 2b3b 5bac c73d 475c a53d b94d 0ebd
00000350: a6b6 bfbd fd4b eb3b 716c e63d 8a7d c83d
00000360: 3a58 a43d 4e8c 7fbd 9547 183d a408 86bd
00000370: 9d49 4fbd e522 3a3e ee1f ce3d a414 97bd
00000380: 820d 543d c467 543d 2caf 81bb aaa1 57bd
00000390: e91d bb3d 3d53 d7bd 5228 8dbc a2ab c6bd
000003a0: 830b 023e df93 8a3c 1543 b8bc 9d36 a2bd
000003b0: d959 f93d 8c5d 29bd 3cc1 b6bc 60b3 e23d
000003c0: 3fe8 1e3e 9587 84bb 802e c6bd 6dcb 15bd
000003d0: bba0 06be 2411 9fbd f355 6739 0381 16be
000003e0: 5fa5 f33d 8c97 ca3d 57c5 e03d bf90 f1bd
000003f0: 32bf 12bd 9b75 89bd c52a a53d 687a c9bd

lstm.bias_ih_l1 f4 [256]
0.07469956 0.07324666 0.020549646 0.06762184 -0.115953244 -0.10271665 -0.08186941 0.14497079
-0.028856244 0.1292755 -0.19825733 0.098034166 -0.12803523 0.063797 0.13222325 -0.060360074
-0.019965298 0.003288729 0.03232339 0.13500082 -0.008432279 0.100795485 -0.117760085 0.12123027
-0.061977156 -0.13267995 -0.0065451176 -0.062187687 0.18172441 -0.075412095 0.11041681 0.12075307
0.15561882 -0.057504427 0.11633082 0.0518836 -0.11614508 0.07076248 -0.019249665 -0.08152895
-0.13664508 -0.124562144 -0.17242669 0.088249765 -0.053232558 -0.15266962 0.09274903 -0.03539073
-0.068506576 0.12913953 0.007375473 0.037717246 0.16472283 -0.04330969 0.07910098 0.052401043
-0.029953713 -0.06695394 0.1697962 -0.060114942 0.028543754 -0.16383198 -0.110525794 0.15809463
0.0071743354 0.05637821 -0.056776963 -0.049767457 0.023327943 -0.048438318 0.08381495 0.11364081
-0.00773587 0.14909637 -0.13022377 0.02331001 -0.046311706 0.18631679 0.1476871 -4.8813665e-05
0.048687246 -0.09597585 -0.0037840046 0.17161462 0.0134854205 -0.05458399 -0.09507314 0.051104527
-0.11611573 0.10457295 0.09696963 -0.011656261 0.12849432 0.022526039 0.1487401 0.0406784
0.16316828 -0.031548146 0.09750218 0.044113386 0.0504658 -0.13653836 0.11220112 -0.04473576
-0.09383561 -0.027164454 -0.079782754 -0.08327734 -0.0032474706 0.064723745 0.045061402 0.06008212
-0.034844752 0.0327596 0.042505026 -0.08003792 0.036123034 0.010095179 0.11337901 -0.028773097
0.19576937 0.05785208 0.055040717 0.05082281 -0.021673508 -0.034431014 0.068811215 0.030116739
0.038228374 -0.045817338 0.080974825 0.08670563 -0.07645141 -0.037052575 -0.058322888 0.097816795
-0.09032977 -0.033154573 -0.0080907 -0.014163796 0.11912465 0.12283336 0.13073628 -0.063081466
0.13978063 0.07693749 -0.070961356 -0.16467123 -0.09841769 0.10846946 0.119834125 0.09689131
-0.026133861 -0.11651898 -0.053174682 -0.0109644225 -0.07150199 0.06984607 -0.0043194285 0.12680845
0.11075732 -0.068940155 -0.1238053 -0.066838264 -0.082774565 0.048504815 -0.16469546 -0.065055326
0.047685504 0.08209516 -0.012629403 -0.074076444 0.14349 -0.06249675 -0.08340228 0.17800966
0.09967838 -0.056157894 -0.10803709 0.015372777 -0.094035216 -0.12833898 0.036930528 -0.05020891
0.09153323 0.16144219 0.093811505 -0.096107274 0.11542221 -0.081646845 0.049617097 -0.1369125
-0.12957275 -0.08975167 0.058250543 0.11862909 0.016746655 0.0767845 -0.10132324 0.029989466
0.004277412 -0.087941654 -0.17953281 0.079963826 -0.0498093 -0.0051150597 0.048753813 -0.13279
-0.08815581 -0.04893596 0.072443515 -0.085170954 0.031541634 -0.0187846 -0.044710923 -0.0047814767
0.0105171455 0.010693914 -0.12968093 0.14604998 0.023821205 0.037001036 0.15807083 0.117112875
-0.023608573 0.09351908 0.017822387 0.07104502 -0.045188703 0.06632233 0.045425244 0.13704935
-0.045410447 0.11135812 -0.114390604 -0.08586436 -0.10312459 -0.05903517 0.10798125 0.05918319
0.050907195 0.10786616 -0.03446061 -0.012090484 0.02061484 -0.053950552 -0.04087298 0.10362637
0.046004385 0.055243403 -0.020665087 -0.11513928 0.03408704 0.049376197 -0.055413205 0.12270888
00000000: 15fc 983d 5802 963d bb57 a83c 527d 8a3d
00000010: e578 edbd 1b5d d2bd 26ab a7bd 3973 143e
00000020: ee63 ecbc cc60 043e f803 4bbe 23c6 c83d
00000030: ab1b 03be 00a8 823d 8865 073e 203c 77bd
00000040: 448e a3bc b887 573b 8865 043d a83d 0a3e
00000050: 8b27 0abc dd6d ce3d 332c f1bd 9347 f83d
00000060: c2db 7dbd 41dd 07be 6d78 d6bb 84b8 7ebd
00000070: f715 3a3e a871 9abd 3522 e23d 634d f73d
00000080: 8a5a 1f3e c389 6bbd da3e ee3d e683 543d
00000090: 79dd edbd ebeb 903d 79b1 9dbc a6f8 a6bd
000000a0: b0ec 0bbe 701a ffbd 9f90 30be 4bbc b43d
000000b0: 620a 5abd 6d55 1cbe 34f3 bd3d dff5 10bd
000000c0: 2d4d 8cbd 273d 043e f4ad f13b 667d 1a3d
000000d0: 1aad 283e 8065 31bd b2ff a13d 7aa2 563d
000000e0: 7d61 f5bc 261f 89bd 0edf 2d3e 163b 76bd
000000f0: 97d4 e93c 92c3 27be 595b e2bd 8fe3 213e
00000100: b016 eb3b d7ec 663d f68e 68bd f6d8 4bbd
00000110: 3e1a bf3c 4267 46bd 2ca7 ab3d 83bc e83d
00000120: 2e7d fdbb b8ac 183e 6159 05be a2f4 be3c
00000130: 58b1 3dbd d4c9 3e3e 4a3b 173e 46bd 4cb8
00000140: 476c 473d fd8e c4bd 10fd 77bb bebb 2f3e
00000150: f4f1 5c3c 7693 5fbd b5b5 c2bd fb52 513d
00000160: 15ce edbd 582a d63d 0398 c63d e7f9 3ebc
00000170: 0494 033e 8788 b83c 534f 183e 659e 263d
00000180: 9615 273e a138 01bd 39af c73d 3db0 343d
00000190: 3ab5 4e3d b6d0 0bbe b3c9 e53d d83c 37bd
000001a0: e22c c0bd fd87 debc 2465 a3bd 4f8d aabd
000001b0: 84d3 54bb e28d 843d 4e92 383d ab18 763d
000001c0: 5fb9 0ebd ee2e 063d c019 2e3d ecea a3bd
000001d0: bff5 133d 4066 253c 4133 e83d 8fb5 ebbc
000001e0: c477 483e 4df6 6c3d 6072 613d 942b 503d
000001f0: a48c b1bc 8907 0dbd e5ec 8c3d 61b7 f63c
00000200: 5b95 1c3d f6aa 3bbd 21d6 a53d b992 b13d
00000210: 8f92 9cbd 71c4 17bd fbe3 6ebd 2c54 c83d
00000220: d1fe b8bd 17cd 07bd db8e 04bc 440f 68bc
00000230: a0f7 f33d 0f90 fb3d bbdf 053e db30 81bd
00000240: a722 0f3e 6791 9d3d 3054 91bd 939f 28be
00000250: 378f c9bd 3c25 de3d 986b f53d f36e c63d
00000260: ae16 d6bc 81a1 eebd b2cd 59bd 1fa4 33bc
00000270: a36f 92bd 750b 8f3d fe89 8dbb 13da 013e
00000280: bcd4 e23d 7f30 8dbd a28d fdbd 80e2 88bd
00000290: b685 a9bd fcac 463d eda5 28be ba3b 85bd
000002a0: e051 433d 8221 a83d 8eeb 4ebc 64b5 97bd
000002b0: 0bef 123e 98fc 7fbd d1ce aabd 2a48 363e
000002c0: 2e24 cc3d d205 66bd 8d42 ddbd 1ade 7b3c
000002d0: 8995 c0bd 4b6b 03be 7744 173d dca7 4dbd
000002e0: c675 bb3d 1a51 253e 3f20 c03d e4d3 c4bd
000002f0: 7b62 ec3d 7636 a7bd 4c3b 4b3d ca32 0cbe
00000300: b8ae 04be b9cf b7bd 1f98 6e3d cff3 f23d
00000310: 4830 893c 3141 9d3d 8f82 cfbd 78ac f53c
00000320: 8829 8c3b c11a b4bd 73d7 37be 13c4 a33d
00000330: d604 4cbd 3b9c a7bb 14b2 473d 1afa 07be
00000340: 098b b4bd 1371 48bd 445d 943d 1c6e aebd
00000350: cd31 013d 29e2 99bc cd22 37bd efad 9cbb
00000360: 1b50 2c3c 8735 2f3c 14cb 04be 208e 153e
00000370: b024 c33c 668e 173d 52dd 213e e0d8 ef3d
00000380: c466 c1bc ee86 bf3d 4100 923c 0d80 913d
00000390: ca17 39bd 00d4 873d d20f 3a3d aa56 0c3e
000003a0: 4e00 3abd ba0f e43d 9f45 eabd a7d9 afbd
000003b0: fc32 d3bd ddce 71bd 4625 dd3d 136a 723d
000003c0: 1084 503d efe8 dc3d 9226 0dbd 2a17 46bc
000003d0: 74e0 a83c 41fb 5cbd 6d6a 27bd 103a d43d
000003e0: 186f 3c3d e846 623d d449 a9bc 25ce ebbd
000003f0: da9e 0b3d b23e 4a3d f5f8 62bd cb4e fb3d

lstm.bias_hh_l1 f4 [256]
0.14660254 0.1622118 -0.07705158 0.043206323 -0.07492275 0.020386828 0.0352474 -0.0052110134
0.109234974 -0.021162406 -0.16661054 0.1252873 0.033618208 -0.05947706 0.10214771 -0.006750166
-0.035066295 -0.02381688 -0.05556842 0.122062035 0.014428864 0.020822743 -0.057211008 -0.005734345
-0.066090405 -0.026709503 -0.008359997 -0.079610385 0.080607794 -0.097091734 0.09623929 0.0043632863
-0.022194719 0.13380505 0.01721931 0.018566398 -0.034689166 -0.10959179 -0.06745427 -0.07972269
-0.009297248 0.012361831 -0.066379264 -0.0768879 -0.06896426 -0.031103633 -0.071167246 0.080728024
-0.06893482 0.013674715 -0.026195763 0.044241577 0.15564972 0.038959205 0.047471587 -0.033376515
0.14656772 0.09432192 0.1220541 -0.05407355 0.04485902 -0.16385344 -0.03654271 0.07645856
0.09753774 -0.07847874 -0.055528298 -0.003348275 0.07839993 0.04442709 0.07190631 -0.014026928
0.16308433 0.17858537 -0.1385507 -0.13876517 -0.049757607 0.15347433 0.145854 0.054145854
0.07239345 -0.094357304 0.063104875 0.18618482 0.16172734 0.0770878 0.087727256 0.02962912
-0.0012185415 0.059622824 0.01912615 0.018437361 0.086783744 -0.10584473 0.12975161 0.062122844
-0.026896715 -0.08821962 0.09326456 0.14231063 -0.08447823 0.011057959 0.13221073 -0.019225959
-0.06065123 0.030453222 0.021892823 -0.019947946 -0.098456025 0.018626101 -0.0221588 0.010333473
0.16110338 0.11718887 0.15849538 0.15709884 0.11164574 -0.012944038 -0.0011751041 0.15273705
0.09299859 -0.0059588323 0.039564617 -0.1452445 -0.08427056 0.042229403 -0.08277997 -0.00680222
-0.17886248 -0.062254258 0.07948624 0.16836077 0.0634608 -0.0386446 0.09621426 0.12320982
-0.11779364 -0.1414633 -0.12687434 -0.052196007 0.013682481 0.16178098 0.07832887 -0.060038846
0.021747744 -0.062812425 -0.12361441 0.047110226 -0.16880682 0.032512777 0.022877332 0.022880804
-0.09967955 -0.1075728 0.0077326056 0.13143894 -0.08132144 -0.049102668 0.18069904 0.14263844
0.046312816 -0.16704354 0.015956635 -0.118408605 0.061313003 0.009844179 -0.11858789 -0.03334133
-0.030779032 -0.04873556 -0.118268676 -0.057073206 0.05983532 0.11372007 -0.061039574 0.17990544
0.026967421 0.052829646 -0.10511536 -0.083103135 0.038599905 -0.028764734 0.15106513 -0.10683041
0.13665487 0.10218487 0.12752813 0.0085844 0.11241755 0.054778498 -0.018843967 -0.1422058
0.06737409 -0.10335543 -0.0756369 0.042141862 0.05097076 0.13081695 -0.0901854 0.09758336
0.109241374 0.027094087 0.0041245595 -0.009175872 -0.068247154 0.108338416 -0.08687127 -0.16197777
0.07458184 -0.04020561 0.0648416 0.012549648 -0.05222966 -0.0076967464 0.0016668113 0.075665504
-0.057437576 -0.015803607 0.10572519 -0.013477265 -0.051109497 -0.09003117 0.0595875 -0.02505357
-0.047746845 0.13501972 0.06365166 0.1473677 -0.10894389 0.08402173 0.041878447 0.13007987
0.01746061 -0.0773166 -0.00899528 -0.07932701 0.0066648363 0.028148683 -0.09696552 -0.006542775
-0.05507505 0.059871387 0.123994865 0.108941816 -0.14615841 -0.041834995 0.07227487 -0.0121367145
0.16251302 -0.09669979 -0.07631623 -0.07663829 -0.013837743 0.035846867 -0.1021847 -0.019869244
00000000: fa1e 163e da1a 263e 38cd 9dbd 1df9 303d
00000010: 1971 99bd 4702 a73c 945f 103d 26c1 aabb
00000020: 96b6 df3d c85c adbc f49b 2abe 504b 003e
00000030: 3fb3 093d 389e 73bd d232 d13d 7f30 ddbb
00000040: ada1 0fbd 9e1b c3bc b69b 63bd a9fb f93d
00000050: 0b67 6c3c 7594 aa3c 1756 6abd 2ce7 bbbb
00000060: 685a 87bd e3cd dabc 5ef8 08bc c50a a3bd
00000070: b315 a53d 08d8 c6bd 1b19 c53d e6f9 8e3b
00000080: b3d1 b5bc 3104 093e 830f 8d3c 8f18 983c
00000090: 3a16 0ebd a971 e0bd 7725 8abd a645 a3bd
000000a0: 7c53 18bc 4789 4a3c daf1 87bd 6777 9dbd
000000b0: 223d 8dbd 0ccd febc 22c0 91bd bc54 a53d
000000c0: b32d 8dbd e90b 603c 7f98 d6bc a836 353d
000000d0: a462 1f3e b093 1f3d 9171 423d d0b5 08bd
000000e0: d915 163e da2b c13d 80f7 f93d 3a7c 5dbd
000000f0: 17be 373d 32c9 27be cfad 15bd 4e96 9c3d
00000100: dec1 c73d 76b9 a0bd a471 63bd bc6e 5bbb
00000110: 2490 a03d 2ef9 353d 9e43 933d 33d1 65bc
00000120: 94ff 263e 15df 363e 3ce0 0dbe 7518 0ebe
00000130: a2ce 4bbd 6028 1d3e c05a 153e 0bc8 5d3d
00000140: 0443 943d 673e c1bd 213d 813d 3ca7 3e3e
00000150: da9b 253e 35e0 9d3d 59aa b33d c5b8 f23c
00000160: 78b7 9fba 1037 743d 72ae 9c3c f309 973c
00000170: adbb b13d 1fc5 d8bd 9bdd 043e 8674 7e3d
00000180: 8056 dcbc 7dac b4bd 7d01 bf3d e1b9 113e
00000190: ec02 adbd 712c 353c 4062 073e c27f 9dbc
000001a0: 6d6d 78bd 0979 f93c 9458 b33c e069 a3bc
000001b0: 50a3 c9bd c495 983c 5f86 b5bc ba4d 293c
000001c0: 49f8 243e b800 f03d 9d4c 223e 85de 203e
000001d0: 86a6 e43d 3b13 54bc f305 9aba 1a67 1c3e
000001e0: 0b76 be3d 4f42 c3bb 820e 223d f9ba 14be
000001f0: 0b96 acbd bdf8 2c3d 8b88 a9bd 28e5 debb
00000200: ba27 37be 52fe 7ebd afc9 a23d c466 2c3e
00000210: bcf7 813d cd49 1ebd fb0b c53d 6e55 fc3d
00000220: cb3d f1bd c1db 10be 59eb 01be 7bcb 55bd
00000230: 7c2c 603c eaa9 253e e36a a03d 4beb 75bd
00000240: 5328 b23c cda3 80bd 8d29 fdbd a7f6 403d
00000250: b2db 2cbe 1e2c 053d 3e69 bb3c 8670 bb3c
00000260: cb24 ccbd 214f dcbd cc61 fd3b ee97 063e
00000270: db8b a6bd e11f 49bd 2b09 393e d00f 123e
00000280: 82b2 3d3d 760d 2bbe 7db7 823c 3680 f2bd
00000290: 5823 7b3d 7b49 213c 35de f2bd eb90 08bd
000002a0: 4f24 fcbc f09e 47bd d936 f2bd 98c5 69bd
000002b0: e115 753d 11e6 e83d a204 7abd 2239 383e
000002c0: c8ea dc3c e663 583d b946 d7bd fa31 aabd
000002d0: ef1a 1e3d 05a4 ebbc d1b0 1a3e e7c9 dabd
000002e0: 41ef 0b3e 4d46 d13d bc96 023e 95a5 0c3c
000002f0: 2c3b e63d 6b5f 603d aa5e 9abc 669e 11be
00000300: 6dfb 893d 03ac d3bd 85e7 9abd f29c 2c3d
00000310: b7c6 503d e1f4 053e 1fb3 b8bd c9d9 c73d
00000320: f1b9 df3d 6bf4 dd3c 5027 873b 6656 16bc
00000330: 2ac5 8bbd 88e0 dd3d 90e9 b1bd 80dd 25be
00000340: 5dbe 983d a3ae 24bd accb 843d 0a9d 4d3c
00000350: c5ee 55bd fd34 fcbb e878 da3a 84f6 9a3d
00000360: aa43 6bbd 9176 81bc 7386 d83d bfcf 5cbc
00000370: 3158 51bd 4362 b8bd 0612 743d 253d cdbc
00000380: 3292 43bd 9c42 0a3e cd5b 823d 8fe7 163e
00000390: f91d dfbd 9613 ac3d bc88 2b3d a833 053e
000003a0: 8e09 8f3c 2a58 9ebd f060 13bc 3376 a2bd
000003b0: b364 da3b 1198 e63c dc95 c6bd c664 d6bb
000003c0: 6096 61bd b33b 753d 05f1 fd3d e31c df3d
000003d0: 8daa 15be 2c5b 2bbd d904 943d 12d9 46bc
000003e0: d069 263e 8a0a c6bd af4b 9cbd 89f4 9cbd
000003f0: b3b7 62bc 2ad4 123d 3646 d1bd d3c4 a2bc
