data/models/bitcoin_gru.pth (torch, 155653 bytes, 9 tensors)

gru.weight_ih_l0 f4 [192, 1]
-0.0811737 -0.16418712 -0.032270864 0.060882416 0.097050235 0.11197875 -0.056600694 -0.14748403
0.031612303 -0.04740861 -0.020216485 0.08425109 0.04067232 -0.08790416 0.012910957 -0.13254397
-0.16767076 0.059474453 -0.14088573 -0.15176432 -0.0023849115 0.021276014 0.10405471 -0.13614438
-0.11525291 -0.034429118 -0.12441148 -0.06254343 -0.063064374 0.051189303 -0.0028811877 0.10394123
0.04960403 -0.19457412 -0.14908072 -0.003799808 0.033557102 -0.11491966 0.04888673 0.07490453
-0.02206128 -0.071564816 -0.17137 0.022072427 -0.22457959 -0.028594611 0.004942431 0.031573664
-0.020953385 0.049903754 0.056961723 -0.12330754 0.07655646 -0.09293151 -0.117586136 0.025741836
-0.11935539 -0.12406437 -0.025736002 -0.08255273 -0.13093065 -0.19531378 -0.087570675 -0.14711429
0.097125374 -0.058497492 0.017448854 -0.15417516 0.028206473 -0.29933068 -0.13687031 -0.35689515
0.12692438 -0.049242076 -0.27053025 -0.14185189 -0.007685881 -0.05770012 -0.005373018 -0.121669
-0.091764204 0.15545727 -0.030067764 -0.049769167 -0.011550313 -0.30551502 0.008454823 -0.09261411
0.02427323 0.09246472 -0.007230655 -0.06592385 -0.22047192 0.46321777 -0.13497442 -0.13706942
-0.04716813 -0.16131371 -0.024981393 -0.0623353 0.08743398 -0.015039426 0.031957965 -0.19491117
-0.20390666 -0.1256618 -0.10575559 -0.045859925 -0.31376755 -0.11832635 -0.11272605 0.07889267
-0.07290523 0.19211979 0.25554025 -0.047359444 -0.0042490796 0.38664374 -0.11075175 0.020031719
0.053871304 -0.07861096 0.2362064 -0.18458173 -0.13433807 -0.1891351 -0.037915442 -0.13131727
-0.008251407 0.13044672 -0.0015316905 0.12767057 -0.01633651 0.17221525 -0.19013275 0.109279014
0.06834574 0.09903208 -0.033053257 -0.05095397 0.09225986 -0.122311614 -0.061447978 -0.13750416
-0.12890074 -0.0059968685 0.13092361 0.14178231 0.09246568 0.008503337 0.13766292 0.17894737
0.0033578195 0.17688207 -0.12884425 0.11917333 0.14959818 -0.06844143 -0.0728426 -0.19457462
-0.15709837 0.06064617 0.14964606 0.12171934 0.17174613 -0.11292196 -0.012314103 -3.4150362e-05
0.15828007 -0.12212004 -0.0745159 -0.18425809 -0.13872205 0.19171928 0.04769241 -0.15378895
-0.16221973 0.0071095377 0.06995193 0.12034311 -0.06551383 -0.01180009 0.18541792 -0.015342378
0.17220947 -0.1408378 -0.108113006 0.1290802 -0.1329728 0.1586133 -0.15215588 0.19364037
00000000: 663e a6bd ab20 28be 742e 04bd d75f 793d
00000010: 46c2 c63d 1d55 e53d 21d6 67bd 0e06 17be
00000020: e77b 013d 882f 42bd 0b9d a5bc d68b ac3d
00000030: 0598 263d 1907 b4bd 7b88 533c 9bb9 07be
00000040: e2b1 2bbe 7c9b 733d 5944 10be 1b68 1bbe
00000050: 2d4c 1cbb 094b ae3c a31a d53d 6f69 0bbe
00000060: b809 ecbd 8c05 0dbd 72cb febd c516 80bd
00000070: e527 81bd e0ab 513d 4fd2 3cbb 24df d43d
00000080: 982d 4b3d 703e 47be 9ea8 18be 3306 79bb
00000090: 2c73 093d 005b ebbd 743d 483d 8c67 993d
000000a0: dcb9 b4bc 9390 92bd 9e7b 2fbe 3cd1 b43c
000000b0: 31f8 65be 3f3f eabc 1ef4 a13b 6353 013d
000000c0: 6fa6 abbc e167 4c3d b250 693d aa88 fcbd
000000d0: a2c9 9c3d e052 bebd 00d1 f0bd 8be0 d23c
000000e0: 9970 f4bd 7615 febd 4fd4 d2bc 6811 a9bd
000000f0: af12 06be 5600 48be 4158 b3bd 21a5 16be
00000100: abe9 c63d 119b 6fbd e6f0 8e3c 18e0 1dbe
00000110: 4311 e73c df41 99be bb27 0cbe f6ba b6be
00000120: 77f8 013e 0fb2 49bd f182 8abe 9f41 11be
00000130: d8d9 fbbb f656 6cbd 2410 b0bb 992d f9bd
00000140: dfee bbbd 3130 1f3e ac50 f6bc c1da 4bbd
00000150: 863d 3dbc 776c 9cbe 1986 0a3c 77ac bdbd
00000160: a7d8 c63c 255e bd3d 21ef ecbb 1503 87bd
00000170: 64c3 61be e12a ed3e bc36 0abe ed5b 0cbe
00000180: 5e33 41bd 6c2f 25be c7a5 ccbc 4d53 7fbd
00000190: 9610 b33d ed67 76bc 5be6 023d cb96 47be
000001a0: e8cc 50be 7dad 00be 6396 d8bd 9ed7 3bbd
000001b0: 24a6 a0be 1655 f2bd eadc e6bd 7b92 a13d
000001c0: 564f 95bd 0dbb 443e 2cd6 823e fafb 41bd
000001d0: dd3b 8bbb 2bf6 c53e d0d1 e2bd 8f19 a43c
000001e0: 28a8 5c3d c8fe a0bd 17e0 713e fe02 3dbe
000001f0: eb8f 09be a2ac 41be 394d 1bbd 0978 06be
00000200: e930 07bc d393 053e 01c3 c8ba 13bc 023e
00000210: 25d4 85bc 3259 303e 29b2 42be adcd df3d
00000220: daf8 8b3d 55d1 ca3d da62 07bd 1cb5 50bd
00000230: bdf2 bc3d 837e fabd e0b0 7bbd e4cd 0cbe
00000240: 8efe 03be 6181 c4bb d710 063e 622f 113e
00000250: a55e bd3d 9551 0b3c 82f7 0c3e fb3d 373e
00000260: dd0e 5c3b 9320 353e bfef 03be 2611 f43d
00000270: 4430 193e 052b 8cbd 802e 95bd 923e 47be
00000280: 65de 20be 1e68 783d d13c 193e fd47 f93d
00000290: 38de 2f3e a143 e7bd 17c1 49bc ac3c 0fb8
000002a0: 2c14 223e 121a fabd cb9b 98bd 27ae 3cbe
000002b0: 270d 0ebe 0f52 443e 1e59 433d da7a 1dbe
000002c0: ee1c 26be 20f7 e83b f542 8f3d 7376 f63d
000002d0: 1d2c 86bd 2a55 41bc 32de 3d3e 995e 7bbc
000002e0: ae57 303e c937 10be 5a6a ddbd 9a2d 043e
000002f0: 062a 08be 866b 223e c0ce 1bbe a949 463e

gru.weight_hh_l0 f4 [192, 64]
-0.67496246 -0.27084452 -0.22298545 -0.17039876 0.072032616 -0.018768456 -0.001105619 -0.3457257
-0.10351533 -0.17871323 0.030130165 0.20851581 -0.16798797 0.20783533 0.06087002 0.061478455
0.09343342 -0.10275668 -0.1288088 -0.12708153 -0.007186509 0.12852077 0.018096505 -0.1455782
-0.23684718 -0.13310374 0.19901378 -0.06416646 -0.22869778 0.017264495 0.107017614 0.1904376
0.09431371 -0.32039213 -0.011725396 -0.05842378 -0.20658422 0.02606059 0.09314616 -0.06883488
-0.15192886 0.0647721 0.12783766 0.11259275 0.4307102 -0.17167473 -0.05116653 -0.116690956
0.06610388 0.24581648 -0.075540185 -0.2741017 0.14234886 -0.21991315 -0.0026587858 0.13255902
-0.037872747 0.06659793 0.14920871 -0.09872052 0.20561379 -0.10640925 0.1317254 -0.15833512
-0.036504846 -0.3027275 0.034853917 0.0020474163 -0.021394895 -0.13645929 0.117580175 -0.27010426
0.009370427 -0.019736 -0.045981344 0.03787708 -0.014382064 0.15733771 0.17761761 0.04064069
-0.0049659717 0.08459766 -0.096159875 -0.14008114 -0.03850878 -0.13068086 -0.028171804 -0.15711342
-0.10482653 0.005816266 0.13493216 -0.16477515 0.010674153 -0.08813423 0.042549312 0.11362706
0.101046875 -0.20541616 -0.16567233 -0.041625276 -0.07325858 0.08566096 -0.07565439 -0.00025853942
-0.105778106 0.054525543 0.047446012 0.11772116 0.25371757 -0.036282726 -0.1455592 0.16647762
0.018687604 -0.1385236 -0.15365162 -0.07458599 -0.038391978 0.072451636 -0.07255212 0.026220527
-0.17219299 0.21112265 0.006425644 -0.18038271 0.1009501 0.012687094 0.020231044 -0.018227821
-0.020264648 -0.28130966 0.22379619 -0.036871884 0.060129438 -0.10086293 -0.13024694 -0.36239865
-0.26859233 -0.03225676 -0.04639334 0.012182171 -0.21974759 0.21924117 -0.083224386 -0.013102295
-0.08441396 -0.11839284 -0.016304033 -0.01868606 -0.05497748 -0.017705083 -0.035736896 -0.023522416
0.03765718 -0.014396346 0.059608124 -0.016370725 -0.28489053 -0.10692359 0.22822207 0.15650903
0.038121022 -0.27568752 0.096113265 0.11697223 -0.21957394 0.020965518 -0.024478918 -0.103883095
-0.22581826 0.20236793 -0.13153125 -0.11998322 0.24242456 -0.06818488 -0.0055718464 -0.077701725
-0.12520581 -0.11199451 0.026907178 -0.05269353 0.03547207 0.03524559 0.20169432 0.011639802
-8.630166e-05 0.044324424 0.19551474 -0.28233203 -0.066123776 -0.109073 0.016247934 -0.15435755
0.10280678 -0.31893116 -0.16320992 -0.1514718 -0.21072626 -0.2732771 -0.12420643 -0.2709292
-0.35189775 -0.07547976 0.17623487 -0.025646333 -0.18140759 0.12609293 -0.13995184 0.03211496
-0.1226116 -0.12103304 -0.17470881 -0.027153747 0.20989959 0.051535625 0.007915813 -0.1024173
-0.0040286114 -0.08746623 0.3727066 0.18162248 -0.48711163 -0.25503394 0.13417622 0.20756471
-0.019675149 -0.1551503 -0.14125948 0.08512037 -0.2792482 0.04942011 0.031068364 -0.022678608
-0.1242331 0.39781445 -0.40721795 -0.05681107 0.32151592 0.016684987 -0.10178537 -0.34307483
0.023998268 0.035608478 0.011264817 -0.25909263 -0.2678307 -0.029534046 0.166227 -0.036299765
0.12359503 0.22055295 -0.031688556 -0.40718663 -0.0071225115 -0.2142668 -0.057117384 -0.13563628
00000000: 57ca 2cbf 22ac 8abe 4c56 64be 037d 2ebe
00000010: d685 933d 4ec0 99bc 6bea 90ba f502 b1be
00000020: d8ff d3bd 9a00 37be 89d3 f63c 2b85 553e
00000030: 0a05 2cbe c9d2 543e d852 793d d5d0 7b3d
00000040: 055a bf3d 1872 d2bd 74e6 03be a921 02be
00000050: cf7c ebbb f39a 033e 1f3f 943c 7412 15be
00000060: 1188 72be 594c 08be 45ca 4b3e b469 83bd
00000070: c02f 6abe 456e 8d3c 0d2c db3d 1302 433e
00000080: 8c27 c13d 700a a4be e01b 40bc c64d 6fbd
00000090: d08a 53be 057d d53c 6ac3 be3d 4df9 8cbd
000000a0: 3d93 1bbe 3ca7 843d e0e7 023e 0797 e63d
000000b0: 0c86 dc3e 80cb 2fbe ff93 51bd abfb eebd
000000c0: 7961 873d 51b7 7b3e d0b4 9abd 0f57 8cbe
000000d0: e6c3 113e ea30 61be 063f 2ebb 8dbd 073e
000000e0: 7420 1bbd 7f64 883d 2bca 183e fc2d cabd
000000f0: 6c8c 523e 18ed d9bd 06e3 063e 9a22 22be
00000100: 1b86 15bd 19ff 9abe fbc2 0e3d f22d 063b
00000110: 5944 afbc fcbb 0bbe e0cd f03d 1b4b 8abe
00000120: 6b86 193c 64ad a1bc ef56 3cbd ff24 1b3d
00000130: c0a2 6bbc 231d 213e 64e1 353e da76 263d
00000140: 97b9 a2bb 8a41 ad3d 78ef c4bd 6e71 0fbe
00000150: 62bb 1dbd 34d1 05be 8ec8 e6bc 57e2 20be
00000160: 4baf d6bd 6096 be3b a82b 0a3e d1ba 28be
00000170: a5e2 2e3c b87f b4bd 3048 2e3d 4eb5 e83d
00000180: aaf1 ce3d 9d58 52be 02a6 29be 447f 2abd
00000190: 9808 96bd 036f af3d b0f0 9abd 938c 87b9
000001a0: 31a2 d8bd 2d56 5f3d c056 423d cb17 f13d
000001b0: 45e7 813e 329d 14bd 790d 15be 1c79 2a3e
000001c0: bf16 993c 21d9 0dbe da56 1dbe 8ac0 98bd
000001d0: e840 1dbd 8661 943d 3596 94bd 6ecc d63c
000001e0: 5c53 30be 8930 583e 358e d23b 3fb6 38be
000001f0: edbe ce3d 87dd 4f3c 93bb a53c 8352 95bc
00000200: 0c02 a6bc d207 90be d42a 653e f906 17bd
00000210: 494a 763d 3991 cebd 745f 05be 518c b9be
00000220: ef84 89be aa1f 04bd f106 3ebd bb97 473c
00000230: 8305 61be c280 603e 8c71 aabd 02ab 56bc
00000240: 3ae1 acbd f277 f2bd 0990 85bc 8213 99bc
00000250: 1130 61bd 400a 91bc da60 12bd 15b2 c0bc
00000260: 6a3e 1a3d a7de 6bbc a627 743d e61b 86bc
00000270: 2cdd 91be c1fa dabd 0cb3 693e e743 203e
00000280: ca24 1c3d ea26 8dbe 08d7 c43d 238f ef3d
00000290: fed7 60be e1bf ab3c 0388 c8bc a9c0 d4bd
000002a0: e73c 67be 8a39 4f3e 21b0 06be c3b9 f5bd
000002b0: 253e 783e 84a4 8bbd 0994 b6bb 1522 9fbd
000002c0: f435 00be 615d e5bd 716c dc3c 2cd5 57bd
000002d0: 294b 113d ae5d 103d f588 4e3e deb4 3e3c
000002e0: dafc b4b8 878d 353d 0435 483e d38d 90be
000002f0: e76b 87bd aa61 dfbd 631a 853c e80f 1ebe
00000300: 5c8c d23d f24a a3be 8020 27be 6c1b 1bbe
00000310: a0c8 57be faea 8bbe f15f febd 3bb7 8abe
00000320: f12b b4be 2295 9abd ea76 343e 4218 d2bc
00000330: e9c2 39be 811e 013e 894f 0fbe fa8a 033d
00000340: ca1b fbbd 2ce0 f7bd dee6 32be 8971 debc
00000350: ebef 563e 0517 533d 53b1 013c 29c0 d1bd
00000360: 7102 84bb 7f21 b3bd 66d3 be3e 3efb 393e
00000370: b266 f9be cf93 82be 7e65 093e d88b 543e
00000380: c72d a1bc b8df 1ebe 53a6 10be 9753 ae3d
00000390: 9ff9 8ebe be6c 4a3d 1583 fe3c 7dc8 b9bc
000003a0: ec6d febd 56ae cb3e df7e d0be b9b2 68bd
000003b0: bc9d a43e f4ae 883c d974 d0bd 81a7 afbe
000003c0: 0498 c43c 32da 113d 1190 383c caa7 84be
000003d0: 1b21 89be 62f1 f1bc 6937 2a3e 10af 14bd
000003e0: 641f fd3d a2d8 613e dccb 01bd c47a d0be
000003f0: f563 e9bb c268 5bbe ebf3 69bd 3de4 0abe

gru.bias_ih_l0 f4 [192]
-0.3460943 -0.06249242 -0.30854008 -0.6875869 -0.42403024 -0.28741282 -0.12192343 0.07060057
-0.26272887 -0.04152371 -0.35245916 -0.19112831 -0.093105614 0.081683576 -0.121914044 0.04640415
-0.19854972 -0.49672583 -0.16269198 -0.32790926 -0.067373514 -0.1463538 -0.08736522 -0.26566857
-0.2109707 -0.12155238 -0.30846798 -0.30921867 -0.21848081 0.007118277 -0.025407366 -0.45853466
-0.40023538 -0.045667063 -0.13050248 -0.2539946 -0.3162797 -0.3033427 -0.2491716 -0.2150141
-0.3112541 -0.2926226 0.03292035 -0.22953334 -0.08592938 -0.19196822 -0.035065785 -0.72266555
-0.31959748 -0.15203346 -0.10039711 -0.09650669 -0.13931528 -0.16552952 -0.19491394 -0.18519521
-0.17260079 -0.15146269 0.008431349 -0.15845336 -0.02601837 -0.045666672 -0.2508635 -0.041922063
-0.2595842 -0.32026723 -0.062348 -0.35906148 -0.09752664 -0.32485273 -0.20577864 -0.13969094
0.1037005 -0.28124353 -0.13681395 0.042674076 -0.0786606 -0.175226 0.058441944 -0.095797814
-0.10954173 0.2562647 -0.23456769 -0.2871208 -0.064316235 -0.16818847 -0.3221071 -0.21919726
-0.19859928 -0.04709729 -0.17539652 -0.023366796 -0.17719865 -0.31835783 -0.09812271 -0.2909898
-0.47828305 -0.2111438 -0.19275774 -0.15867539 -0.08072766 -0.29512978 -0.12828779 0.20265248
-0.3808025 -0.055368826 -0.23587373 -0.2541569 -0.05785331 -0.25991943 -0.121574715 -0.33266723
-0.30765867 -0.014632275 0.059934434 -0.051635694 -0.2602234 0.10339268 -0.28152648 0.09752336
-0.268008 -0.27241525 0.07607901 -0.0497626 -0.3741289 -0.11881349 -0.17992815 -0.35656354
-0.023638114 -0.067726426 0.0042567244 0.010860783 0.00048065707 -0.0039025217 0.08410239 -0.023071764
0.0052985675 -0.085437566 0.010537158 0.052317526 -0.019852882 -0.063112 0.033152085 -0.059888612
0.012608422 0.0014193552 0.038871996 -0.0074319695 -0.02169403 -0.052047383 -0.063531674 -0.006495015
-0.010369083 -0.024366075 -0.019461732 -0.020819277 0.06523618 0.010185032 0.034729224 -0.055964448
0.06485782 -0.10604577 0.022278208 -0.05289892 0.012802657 0.008274448 0.0025889233 0.056028176
0.013338766 -0.01475941 0.059722725 0.1045109 0.036922768 0.04257429 0.047402896 0.07997438
0.023803476 -0.028952619 -0.015370459 0.060209062 0.051668607 0.055749126 -0.08888577 0.021758102
-0.020882789 -0.002319551 -9.617931e-05 0.0457017 0.022223013 0.063384004 0.006692005 0.033651173
00000000: 4633 b1be 0df8 7fbd f7f8 9dbe b205 30bf
00000010: 7e1a d9be c627 93be feb2 f9bd 0897 903d
00000020: 6684 86be c414 2abd 8775 b4be 24b7 43be
00000030: 28ae bebd b849 a73d 12ae f9bd 4712 3e3d
00000040: 9e50 4bbe d952 febe ba98 26be b9e3 a7be
00000050: 20fb 89bd c5dd 15be 89ec b2bd b605 88be
00000060: b408 58be 74f0 f8bd 84ef 9dbe e951 9ebe
00000070: 6fb9 5fbe 6f40 e93b 1c23 d0bc 0ec5 eabe
00000080: a7eb ccbe 630d 3bbd 71a2 05be 950b 82be
00000090: 6aef a1be bc4f 9bbe d726 7fbe a82c 5cbe
000000a0: b35c 9fbe a1d2 95be 7dd7 063d ca0a 6bbe
000000b0: befb afbd 5193 44be 24a1 0fbd 9c00 39bf
000000c0: 48a2 a3be a9ae 1bbe 009d cdbd 4da5 c5bd
000000d0: aaa8 0ebe 9280 29be 8597 47be d0a3 3dbe
000000e0: 43be 30be 0919 1bbe a423 0a3c 9941 22be
000000f0: 7a24 d5bc fa0c 3bbd 2e71 80be 78b6 2bbd
00000100: 38e8 84be 11fa a3be 9e60 7fbd e8d6 b7be
00000110: 0cbc c7bd 1953 a6be a3b7 52be 240b 0fbe
00000120: ee60 d43d 27ff 8fbe f518 0cbe 03cb 2e3d
00000130: cf18 a1bd 726e 33be d260 6f3d a531 c4bd
00000140: 6a57 e0bd 2035 833e 8332 70be 7f01 93be
00000150: 3bb8 83bd 9939 2cbe 39eb a4be 3f75 60be
00000160: 9c5d 4bbe 17e9 40bd 259b 33be b96b bfbc
00000170: 9073 35be ccff a2be 8ff4 c8bd 9dfc 94be
00000180: 84e1 f4be 1536 58be 4962 45be cd7b 22be
00000190: 8b54 a5bd 401b 97be e05d 03be 2284 4f3e
000001a0: 8cf8 c2be 6cca 62bd e288 71be da20 82be
000001b0: 98f7 6cbd 2914 85be 2afc f8bd 5c53 aabe
000001c0: 7085 9dbe 36bc 6fbc cf7d 753d f37f 53bd
000001d0: 003c 85be 8bbf d33d 3d24 90be 54ba c73d
000001e0: 5838 89be 037a 8bbe 50cf 9b3d ded3 4bbd
000001f0: d38d bfbe 7d54 f3bd 163f 38be 7f8f b6be
00000200: b8a4 c1bc 27b4 8abd fe7b 8b3b 6df1 313c
00000210: b300 fc39 73c1 7fbb e03d ac3d ff00 bdbc
00000220: 9b9f ad3b e4f9 aebd 0ba4 2c3c e74a 563d
00000230: 83a2 a2bc dd40 81bd 7bca 073d c34d 75bd
00000240: 8e93 4e3c a809 ba3a 3e38 1f3d e187 f3bb
00000250: aeb7 b1bc a32f 55bd e51c 82bd 23d4 d4bb
00000260: 16e3 29bc 5d9b c7bc 366e 9fbc 308d aabc
00000270: 8c9a 853d 1fdf 263c 3b40 0e3d fa3a 65bd
00000280: 2dd4 843d 862e d9bd ca80 b63c 8aac 58bd
00000290: 3cc2 513c 8d91 073c edaa 293b cd7d 653d
000002a0: d78a 5a3c 74d1 71bc d19f 743d d009 d63d
000002b0: 543c 173d 6162 2e3d 8a29 423d 9cc9 a33d
000002c0: 82ff c23c 0b2e edbc 61d4 7bbc c79d 763d
000002d0: 76a2 533d 3259 643d be09 b6bd 0c3e b23c
000002e0: 6212 abbc 9c03 18bb e0b3 c9b8 b531 3b3d
000002f0: 090d b63c 79cf 813d 9b48 db3b d0d5 093d

gru.bias_hh_l0 f4 [192]
-0.27568933 0.090233296 -0.5014754 -0.51568866 -0.23258229 -0.3911789 -0.2544352 -0.066188425
-0.23317958 -0.008542189 -0.1423886 -0.1272091 -0.04473696 -0.076770276 -0.09075558 0.050216913
-0.19865239 -0.64971226 -0.17376645 -0.2893585 -0.013054494 -0.21255182 -0.10602482 -0.21019953
-0.23912102 -0.27922118 -0.44263932 -0.25695115 -0.22236542 -0.16797997 -0.050574407 -0.48890257
-0.2891927 0.09780523 -0.10478624 -0.29125556 -0.33147323 -0.1968251 -0.29662445 -0.023503236
-0.40346828 -0.3236219 -0.055644102 -0.11119996 -0.06255831 -0.20971242 -0.14435256 -0.5244097
-0.1909389 -0.17402071 -0.12044141 0.010698732 -0.1987204 -0.16517034 -0.30235282 -0.16690078
-0.21378161 -0.3718183 -0.03435249 -0.066142865 -0.14965221 -0.08188094 -0.14073 -0.1902845
-0.41700593 -0.27125874 -0.14510033 -0.15895884 -0.16156328 -0.4020361 -0.41849262 -0.009511864
0.031661443 -0.23898676 -0.027996756 -0.035802774 -0.15119031 -0.22899789 0.09756637 -0.2833129
-0.29080856 0.2998092 -0.14701243 -0.122977644 0.004533459 -0.02016418 -0.16550076 -0.19646059
-0.43502498 -0.17374296 -0.109017804 -0.20356885 -0.18032968 -0.27846524 -0.11320421 -0.3032589
-0.45320904 -0.26375297 -0.39685062 -0.30215165 -0.030947533 -0.3531949 0.0047079273 0.21296223
-0.32434776 -0.25961608 -0.12109595 -0.33527577 -0.16693395 -0.27658576 -0.11017934 -0.13892083
-0.37802824 -0.009373387 0.08826593 -0.19548306 -0.18133768 0.22521241 -0.3297162 0.15751448
-0.101203494 -0.44087172 -0.0800355 -0.16113454 -0.32796904 -0.20335063 -0.2743751 -0.30885997
0.0014668488 0.08886841 0.038765594 0.030349286 0.029788923 0.028600397 -0.042815592 0.0039872737
0.018614998 0.10585031 -0.023460072 -0.11814991 0.0029280714 0.13409601 -0.043251403 0.13675445
0.06279719 -0.0051417933 -0.097643845 0.041494824 0.008562016 0.10392242 0.06708595 -0.05665741
-0.0014127109 0.06916438 -0.04166175 -0.036593538 -0.035616007 0.029097935 -0.06463791 -0.017813802
-0.05657158 0.1342759 -0.0677391 0.024894195 0.018405218 0.07445902 -0.0136876125 -0.1210235
0.032150496 -0.025108065 -0.024162503 -0.0836959 -0.015557973 -0.093505025 -0.1346678 0.019232908
0.04308029 0.02633981 0.0393258 -0.1049749 -0.056011148 -0.1417833 -0.004566602 -0.06359291
-0.06348214 0.026521824 -0.008468778 -0.06224922 0.04438603 -0.07350652 0.089743085 -0.08431061
00000000: 2727 8dbe 3ccc b83d b160 00bf 2c04 04bf
00000010: 0d2a 6ebe 9a48 c8be 5545 82be cc8d 87bd
00000020: a1c6 6ebe 8af4 0bbc 51ce 11be 1a43 02be
00000030: 1a3e 37bd bc39 9dbd 10de b9bd 40b0 4d3d
00000040: 886b 4bbe 8b53 26bf d5ef 31be cc26 94be
00000050: 84e2 55bc 2fa7 59be 8a23 d9bd 8c3e 57be
00000060: 24dc 74be 14f6 8ebe 9fa1 e2be 1a8f 83be
00000070: c3b3 63be f102 2cbe 1c27 4fbd 7051 fabe
00000080: 1111 94be 1c4e c83d 2b9a d6bd 731f 95be
00000090: dcb6 a9be 858c 49be 29df 97be dc89 c0bc
000000a0: 6593 cebe c5b1 a5be 12eb 63bd cebc e3bd
000000b0: 921e 80bd dabe 56be 28d1 13be b73f 06bf
000000c0: 7d85 43be 7c32 32be fca9 f6bd bc49 2f3c
000000d0: 5c7d 4bbe 6a22 29be fdcd 9abe 0ae8 2abe
000000e0: 91e9 5abe f85e bebe 32b5 0cbd e975 87bd
000000f0: 6e3e 19be 32b1 a7bd 861b 10be f1d9 42be
00000100: cd81 d5be 6de2 8abe 2e95 14be 1bc6 22be
00000110: d870 25be add7 cdbe aa44 d6be a6d7 1bbc
00000120: 6eaf 013d f2b8 74be 7459 e5bc eea5 12bd
00000130: a2d1 1abe 6c7e 6abe e1d0 c73d 630e 91be
00000140: dce4 94be 9780 993e 6d8a 16be b4db fbbd
00000150: 698d 943b 5a2f a5bc 0879 29be f72c 49be
00000160: 98bb debe ade9 31be ba44 dfbd 5a74 50be
00000170: 58a8 38be ff92 8ebe 9cd7 e7bd c044 9bbe
00000180: 040b e8be a10a 87be 0130 cbbe 9fb3 9abe
00000190: ae85 fdbc f6d5 b4be f544 9a3b c512 5a3e
000001a0: e910 a6be 66ec 84be 2701 f8bd 44a9 abbe
000001b0: bcf0 2abe a69c 8dbe b5a5 e1bd 4341 0ebe
000001c0: eb8c c1be d692 19bc c5c4 b43d b62c 48be
000001d0: 96b0 39be 159e 663e 90d0 a8be 7a4b 213e
000001e0: c743 cfbd f0b9 e1be a7e9 a3bd 7400 25be
000001f0: 8feb a7be 263b 50be e57a 8cbe e522 9ebe
00000200: 4743 c03a a400 b63d acc8 1e3d 119f f83c
00000210: e607 f43c 614b ea3c 675f 2fbd ada7 823b
00000220: 7b7e 983c 0cc8 d83d 562f c0bc 94f8 f1bd
00000230: e3e4 3f3b 7750 093e 6228 31bd 5c09 0c3e
00000240: d09b 803d 7d7c a8bb 7ff9 c7bd 7af6 293d
00000250: b347 0c3c 47d5 d43d 5c64 893d 9a11 68bd
00000260: b62a b9ba 0ea6 8d3d 83a5 2abd 1be3 15bd
00000270: 17e2 11bd cb5e ee3c e160 84bd 40ee 91bc
00000280: 9ab7 67bd 9f7f 093e ccba 8abd e9ee cb3c
00000290: 8ac6 963c f87d 983d 0242 60bc 2bdb f7bd
000002a0: 3db0 033d 6eaf cdbc 71f0 c5bc c268 abbd
000002b0: dee6 7ebc 907f bfbd 5be6 09be 558e 9d3c
000002c0: f574 303d 96c6 d73c 1714 213d 15fd d6bd
000002d0: f26b 65bd a42f 11be 6fa3 95bb 003d 82bd
000002e0: ed02 82bd 4c44 d93c a1c0 0abc 0af9 7ebd
000002f0: 20ce 353d 968a 96bd 39cb b73d 0bab acbd

gru.weight_ih_l1 f4 [192, 64]
0.14720835 -0.14720386 0.0588181 -0.035432346 -0.03641128 -0.044911433 0.17943658 -0.20548278
-0.0874872 -0.023724906 0.053403135 -0.025249943 -0.0878355 -0.030689301 -0.06751343 0.05768467
0.1424307 -0.022791818 -0.12937246 -0.11662233 -0.034305286 -0.09589221 -0.06972501 -0.12640563
0.13079093 -0.15322825 0.14349951 -0.0055866195 -0.14622805 0.08388749 0.09606373 0.15339664
0.03681417 -0.044425424 0.009783456 -0.06979303 0.0050701103 0.0062962733 -0.10172757 0.103924364
0.018742265 -0.005505356 0.032281525 0.04758313 0.12703839 -0.16200423 0.011423232 -0.049356412
0.0692786 -0.09468683 0.09655844 0.025076935 0.10511067 0.0010272947 -0.18121254 -0.0897645
-0.15337008 0.12930612 -0.122287534 -0.013614868 0.01154304 -0.10371419 0.10866264 -0.1949876
-0.11498451 -0.17734721 -0.06558238 0.030123986 -0.07669353 0.035747122 -0.06965893 0.05199178
0.06601551 0.13683379 -0.04713348 -0.18882835 -0.056612346 0.06488048 -0.14508499 0.0633567
0.002994958 -0.026065785 0.0024065676 0.11324644 0.17320012 0.13916314 0.0052237986 0.07325635
-0.09095215 0.10247902 0.0018395031 0.0062731286 0.033875044 -0.056154482 -0.041677687 -0.096778795
0.055705883 -0.1457086 0.04153634 0.0018392546 0.12390791 -0.08032172 -0.2102546 0.120975435
-0.054662034 0.068489246 -0.1854719 -0.014318145 0.06946414 -0.009421677 -0.018962989 -0.036868874
-0.08376663 0.1258712 0.14392875 -0.0587986 -0.16527237 -0.20580693 -0.010003693 0.058852132
0.04465636 0.056333166 0.054336503 -0.10049746 -0.0033922384 -0.02929759 -0.04251462 0.0050684367
0.06591058 -0.09700007 0.11011067 -0.07079828 -0.08545185 0.06901578 -0.19703759 -0.03713219
-0.0902661 0.19030106 0.0743885 0.027369605 -0.07395029 0.07131019 -0.042693704 0.031923372
0.014448261 0.03414741 0.14976642 0.1504852 0.13127117 0.07095222 0.09630236 0.07774992
0.10892378 -0.06380999 0.07392917 0.063357905 -0.2615563 0.0046918215 0.039985165 0.112222396
-0.05159027 0.040070884 0.009696126 0.13886902 0.009844887 -0.21357732 0.057386015 0.12644374
-0.052244466 0.11095279 -0.083798625 -0.03758683 0.309442 0.1862865 -0.06485282 -0.18095052
-0.14230603 0.07867101 -0.037906546 0.04909196 -0.08126379 0.06440168 0.056715507 -0.036120452
0.09730337 -0.13686013 -0.12091379 -0.17370792 0.06817327 -0.061996683 -0.13381286 0.0028710896
0.12880069 -0.23790346 0.0967097 0.019650413 -0.20200591 -0.08945472 -0.14017136 -0.100873925
-0.24275017 0.0372728 0.054749575 -0.0053469343 0.1605267 0.03153693 -0.14089656 -0.004548042
-0.21344455 0.10522962 0.119854465 0.10982847 0.18854196 -0.105131544 0.119566984 0.10902461
0.061167378 0.10498041 0.05592307 0.12502669 -0.019390345 -0.03668383 -0.07140502 -0.0005093548
-0.19140959 -0.045931377 0.13558093 0.075712755 -0.121609755 -0.19148824 -0.091305405 -0.012965849
-0.0048342836 0.21628673 -0.23418403 -0.04298543 0.07976837 0.1693081 -0.1282338 -0.103446655
-0.07927386 -0.04206888 0.033528205 -0.030083874 -0.07091243 0.042989597 0.05592835 -0.14938521
0.038517646 -0.04477577 0.0421956 0.0098708235 -0.10907394 -0.12241274 -0.19570203 -0.11394347
00000000: c9bd 163e 9cbc 16be 3feb 703d 8221 11bd
00000010: ff23 15bd 0df5 37bd 39be 373e 146a 52be
00000020: 7d2c b3bd bc5a c2bc 3fbd 5a3d f8d8 cebc
00000030: 19e3 b3bd 2168 fbbc 7b44 8abd c346 6c3d
00000040: 5ad9 113e e8b5 babc 377a 04be b0d7 eebd
00000050: b383 0cbd 2363 c4bd fccb 8ebd 7a70 01be
00000060: 0fee 053e dee7 1cbe 89f1 123e f60f b7bb
00000070: cebc 15be 34cd ab3d 10bd c43d 0214 1d3e
00000080: 75ca 163d 6ff7 35bd ca4a 203c a6ef 8ebd
00000090: 2b23 a63b f850 ce3b 8b56 d0bd 4cd6 d43d
000000a0: 6189 993c 4666 b4bb a239 043d 87e6 423d
000000b0: 5a16 023e 70e4 25be 8228 3b3c f329 4abd
000000c0: f0e1 8d3d 2beb c1bd 6ec0 c53d 256e cd3c
000000d0: 4344 d73d 4aa6 863a c88f 39be 73d6 b7bd
000000e0: 0c0d 1dbe d368 043e e371 fabd e510 5fbc
000000f0: 051f 3d3c 1b68 d4bd 858a de3d d4aa 47be
00000100: 007d ebbd 829a 35be 0e50 86bd 94c6 f63c
00000110: 7f11 9dbd 936b 123d 57a9 8ebd 55f5 543d
00000120: 2433 873d 281e 0c3e 090f 41bd 385c 41be
00000130: 59e2 67bd 0fe0 843d 2991 14be 28c1 813d
00000140: 0f47 443b ea87 d5bc 81b7 1d3b c0ed e73d
00000150: 5f5b 313e c880 0e3e 662c ab3b 6d07 963d
00000160: 1f45 babd 85e0 d13d 7b1b f13a d18e cd3b
00000170: 8fc0 0a3d 3e02 66bd 39b6 2abd f633 c6bd
00000180: da2b 643d a334 15be 0222 2a3d 2513 f13a
00000190: 6ec3 fd3d b77f a4bd fb4c 57be f8c1 f73d
000001a0: 4ce5 5fbd 1744 8c3d 59ec 3dbe a796 6abc
000001b0: 3743 8e3d 615d 1abc 4558 9bbc d103 17bd
000001c0: d78d abbd 61e4 003e 0f62 133e cdd6 70bd
000001d0: 293d 29be 0dbf 52be 88e6 23bc ef0e 713d
000001e0: 96e9 363d 9bbd 663d f48f 5e3d 9dd1 cdbd
000001f0: 5150 5ebb 8001 f0bc cf23 2ebd 2115 a63b
00000200: 20fc 863d f9a7 c6bd b481 e13d b0fe 90bd
00000210: 6101 afbd 2558 8d3d 39c4 49be ec17 18bd
00000220: 6fdd b8bd 48de 423e ff58 983d 3936 e03c
00000230: 4073 97bd 140b 923d 98df 2ebd 15c2 023d
00000240: 66b8 6c3c 28de 0b3d 5e5c 193e cb18 1a3e
00000250: f36b 063e 664f 913d 2c3a c53d 5a3b 9f3d
00000260: 6e13 df3d d0ae 82bd 2d68 973d cac1 813d
00000270: b5ea 85be dabd 993b 7cc7 233d dbd4 e53d
00000280: 5250 53bd 5e21 243d 80dc 1e3c ae33 0e3e
00000290: 734c 213c 03b4 5abe 990d 6b3d 787a 013e
000002a0: 4bfe 55bd 373b e33d 9d9e abbd a6f4 19bd
000002b0: 2f6f 9e3e e3c1 3e3e 8ed1 84bd 184b 39be
000002c0: acb8 11be 441e a13d e543 1bbd a714 493d
000002d0: a16d a6bd 07e5 833d 854e 683d 0af3 13bd
000002e0: fd46 c73d 1025 0cbe a6a1 f7bd 7de0 31be
000002f0: 6d9e 8b3d 3cf0 7dbd 3d06 09be e428 3c3b
00000300: 54e4 033e f79c 73be bc0f c63d e7f9 a03c
00000310: a3da 4ebe 0934 b7bd 1589 0fbe fd96 cebd
00000320: 8093 78be 5dab 183d 1741 603d 5635 afbb
00000330: 1c61 243e de2c 013d 3047 10be be07 95bb
00000340: 3591 5abe a182 d73d 4276 f53d c0ed e03d
00000350: 2511 413e 354f d7bd 89df f43d 4b48 df3d
00000360: a58a 7a3d f8ff d63d 970f 653d ff06 003e
00000370: 80d8 9ebc c941 16bd cc3c 92bd 3986 05ba
00000380: e000 44be 8a22 3cbd bad5 0a3e 4a0f 9b3d
00000390: 890e f9bd 7e15 44be 54fe babd b66e 54bc
000003a0: e968 9ebb 457a 5d3e f0cd 6fbe 7e11 30bd
000003b0: 995d a33d 1a5f 2d3e b94f 03be d7db d3bd
000003c0: 555a a2bd 6b50 2cbd df54 093d 7572 f6bc
000003d0: 893a 91bd dc15 303d 2015 653d 70f8 18be
000003e0: aec4 1d3d cc66 37bd 4bd5 2c3d 3cb9 213c
000003f0: 2862 dfbd 88b3 fabd 1d66 48be 325b e9bd

gru.weight_hh_l1 f4 [192, 64]
-0.11194616 -0.01017843 -0.06675054 -0.028512454 0.00904753 0.13285387 0.078522824 0.011487398
0.17508577 0.06785784 0.036030576 0.06598566 -0.017178502 -0.12805769 0.05937683 -0.028273635
-0.08313007 0.009071092 -0.08297922 -0.10803183 -0.14937632 -0.118766494 -0.17969522 0.05397917
-0.054355696 -0.010173398 0.03775947 -0.096466854 0.114833705 -0.044119056 0.055746175 -0.13922307
-0.05391491 0.09334943 -0.09944872 0.0977092 0.0818178 0.016667807 0.09840443 0.043878894
0.016841728 -0.18516795 -0.14674015 0.034781076 0.010148711 0.13786648 -0.005735613 0.05794424
0.037950415 -0.07214302 0.116998784 0.04864121 0.0025452632 0.042219587 -0.013721 0.12838364
0.16103107 0.084555216 0.07492748 0.024536705 -0.094017185 0.019419784 0.2008644 -0.05105892
-0.09183488 -0.4849216 -0.02325241 0.03505185 -0.070629075 0.08767921 0.07247692 -0.0985081
-0.067748815 0.11437682 0.16488425 0.077415645 0.0027805478 0.02590592 -0.13628267 -0.05457352
0.123306066 0.09407971 -0.06738791 -0.113725826 0.029729545 -0.038797338 0.30453172 -0.0044844146
0.11143695 0.042954974 -0.13152722 0.07380143 -0.12605487 -0.060525257 -0.026498664 -0.10355959
0.08287238 -0.0843552 -0.015317106 -0.11063185 -0.1661429 -0.1539969 0.09198773 -0.18916728
-0.011002398 0.20893471 0.13142812 0.19871499 0.07068258 -0.179359 0.14347462 -0.07412848
-0.1928119 0.062283188 -0.018434878 0.10781236 0.059600297 -0.035106987 0.11479189 -0.06480877
0.025504157 -0.23554882 -0.23256217 -0.18495558 0.0968991 0.029805956 0.03833327 -0.056408744
-0.027618954 0.045070462 0.082799196 -0.10515653 -0.014503991 0.049176868 -0.040175702 -0.06628632
0.12673569 -0.04483751 0.25755364 0.13191983 0.010309991 -0.0037925646 -0.124448314 0.26806238
0.1536791 0.08453132 -0.0489464 -0.21645035 0.046820775 -0.003159807 -0.1203406 -0.09174222
0.061641328 0.009928765 -0.1574497 0.0343354 -0.1525718 -0.06342295 0.02853704 -0.06285282
0.053077217 -0.080826275 -0.021439966 -0.11348071 -0.43485102 -0.012620921 0.070254646 0.13108371
-0.18894863 0.013834003 -0.11601565 -0.10472928 -0.004987304 0.039035607 0.14125572 0.15329674
-0.016835565 -0.05549413 -0.22796991 0.0672061 0.015075947 -0.09246695 0.25731072 -0.09270532
-0.112029836 -0.140104 0.050863013 0.07303133 0.029280107 0.031787563 0.122585766 -0.043953322
-0.028477306 0.10202807 0.05841749 -0.038013015 0.054041605 -0.06504812 -0.05300152 -0.04610375
0.107184015 0.11672142 0.22448422 0.2885416 0.1312779 -0.08036251 -0.06911283 0.07602317
0.05744126 0.078730114 -0.14915875 -0.12044425 -0.09772116 -0.10510624 -0.09682643 -0.09670431
-0.0870425 0.16362303 -0.08666557 -0.012643095 -0.17829673 -0.09654958 0.03674227 0.11056254
0.08353033 0.14686978 -0.055557493 0.051311716 -0.3098101 -0.0964068 -0.07077857 0.07106377
-0.11267112 -0.02850226 -0.1189325 -0.08011996 0.058256894 -0.050391138 0.070500806 0.113938816
0.001916656 -0.042754322 -0.20211554 0.032595493 0.058319665 -0.052584488 0.19498067 -0.074428774
0.06128725 -0.004694714 -0.09247574 0.06337527 -0.041905403 0.051852603 -0.019446142 0.024358952
00000000: 0744 e5bd 6ec3 26bc 82b4 88bd f392 e9bc
00000010: 173c 143c d80a 083e 93d0 a03d a435 3c3c
00000020: af49 333e 0df9 8a3d cc94 133d 7d23 873d
00000030: eeb9 8cbc 8e21 03be 1e35 733d 1c9e e7bc
00000040: 1940 aabd eb9e 143c 02f1 a9bd cb3f ddbd
00000050: 1bf6 18be d93b f3bd 0602 38be 4319 5d3d
00000060: 14a4 5ebd 53ae 26bc ada9 1a3d 6a90 c5bd
00000070: ef2d eb3d 2fb6 34bd 1a56 643d 7e90 0ebe
00000080: e1d5 5cbd fc2d bf3d c5ab cbbd c31b c83d
00000090: 1790 a73d ed8a 883c 4388 c93d 5bba 333d
000000a0: aaf7 893c ab9c 3dbe 0d43 16be 9a76 0e3d
000000b0: c746 263c df2c 0d3e cff1 bbbb f056 6d3d
000000c0: e571 1b3d b8bf 93bd 0f9d ef3d 013c 473d
000000d0: 6ece 263b 72ee 2c3d 0cce 60bc 0077 033e
000000e0: 54e5 243e 492b ad3d 9473 993d 3301 c93c
000000f0: 158c c0bd 3d16 9f3c 66af 4d3e 2823 51bd
00000100: ed13 bcbd a547 f8be d77b bebc 8792 0f3d
00000110: faa5 90bd 2891 b33d c86e 943d 9dbe c9bd
00000120: e4bf 8abd 653e ea3d 6bd7 283e 188c 9e3d
00000130: da39 363b a738 d43c af8d 0bbe 7c88 5fbd
00000140: e487 fc3d ddac c03d ac02 8abd 16e9 e8bd
00000150: 608b f33c f5e9 1ebd 95eb 9b3e fff1 92bb
00000160: 0e39 e43d 8ef1 2f3d 12af 06be 3425 973d
00000170: 8714 01be 55e9 77bd ba13 d9bc 0d17 d4bd
00000180: ffb8 a93d 6bc2 acbd 99f4 7abc f492 e2bd
00000190: 5d21 2abe 5db1 1dbe 1064 bc3d 11b5 41be
000001a0: 6743 34bc fbf2 553e 1895 063e f17b 4b3e
000001b0: 07c2 903d e3a9 37be 03eb 123e acd0 97bd
000001c0: 7c70 45be a81c 7f3d be04 97bc bacc dc3d
000001d0: 711f 743d 58cc 0fbd 0318 eb3d 76ba 84bd
000001e0: 18ee d03c b633 71be c724 6ebe ff64 3dbe
000001f0: 0973 c63d 9f2b f43c 5903 1d3d db0c 67bd
00000200: 2541 e2bc ce9b 383d a092 a93d 4f5c d7bd
00000210: 26a2 6dbc af6d 493d 478f 24bd 1fc1 87bd
00000220: 00c7 013e 89a7 37bd 12de 833e fe15 073e
00000230: 3deb 283c ad8c 78bb c2de febd 793f 893e
00000240: 0e5e 1d3e c21e ad3d 057c 48bd 29a5 5dbe
00000250: 24c7 3f3d c414 4fbb 2275 f6bd 58e3 bbbd
00000260: 9e7b 7c3d 42ac 223c 7f3a 21be 47a3 0c3d
00000270: c83b 1cbe e4e3 81bd 83c6 e93c fbb8 80bd
00000280: 7f67 593d 3f88 a5bd dea2 afbc 9368 e8bd
00000290: cba4 debe fbc7 4ebc abe1 8f3d cf3a 063e
000002a0: c07b 41be 04a8 623c 9d99 edbd 4e7c d6bd
000002b0: 8a6c a3bb cde3 1f3d 57a5 103e d2f9 1c3e
000002c0: bdea 89bc d04d 63bd f270 69be 5aa3 893d
000002d0: 1b01 773c 505f bdbd 3bbe 833e 49dc bdbd
000002e0: e66f e5bd 6c77 0fbe bc55 503d 7391 953d
000002f0: d6dc ef3c ad33 023d 3f0e fb3d 6608 34bd
00000300: 3d49 e9bc 18f4 d03d 2e47 6f3d 89b3 1bbd
00000310: bb5a 5d3d f337 85bd 1f18 59bd 49d7 3cbd
00000320: 4b83 db3d a40b ef3d 31df 653e b9bb 933e
00000330: b76d 063e 1a95 a4bd 078b 8dbd 09b2 9b3d
00000340: 8747 6b3d 413d a13d 12bd 18be 7aab f6bd
00000350: 0822 c8bd f141 d7bd ef4c c6bd e90c c6bd
00000360: 5743 b2bd cc8c 273e b87d b1bd fc24 4fbc
00000370: 6b93 36be c9bb c5bd 107f 163d 9d6e e23d
00000380: f311 ab3d 0865 163e 4190 63bd 3c2c 523d
00000390: 6e9f 9ebe ee70 c5bd 5bf4 90bd e289 913d
000003a0: 1ec0 e6bd 927d e9bc e292 f3bd ef15 a4bd
000003b0: c89e 6e3d f066 4ebd ba62 903d c158 e93d
000003c0: 4e38 fb3a 281f 2fbd 60f7 4ebe da82 053d
000003d0: 9ae0 6e3d d562 57bd 03a9 473e 1d6e 98bd
000003e0: 5708 7b3d 1ed6 99bb ec63 bdbd e5ca 813d
000003f0: 00a5 2bbd 6563 543d 844d 9fbc 6d8c c73c

gru.bias_ih_l1 f4 [192]
-0.07970548 0.05323567 -0.1874283 -0.12399859 -0.07982453 -0.13192101 -0.30873543 -0.20972581
-0.055955466 -0.24078488 -0.2326213 -0.3233253 0.08899675 -0.04384629 -0.26935813 -0.17891523
-0.021181615 -0.15197371 -0.18065614 -0.21537946 0.042173993 -0.32877973 -0.14068583 -0.3351908
-0.12198423 -0.077526264 0.16780016 -0.45833504 -0.0059787566 -0.28278977 -0.12521853 -0.4683999
-0.16114354 0.022420837 -0.07953143 -0.26789874 0.004027602 -0.09021647 0.005872804 -0.24975482
-0.29119968 -0.38943967 -0.15805449 -0.18814978 -0.2688246 -0.17121826 -0.16316861 0.00097591715
-0.0014108929 0.018207781 -0.22617942 -0.25079432 -0.5709965 -0.2634743 -0.26172116 -0.14194381
-0.23993461 -0.021536207 -0.09121434 -0.35295883 -0.43378457 -0.53956145 -0.19588867 -0.14525442
-0.3112196 -0.09419676 -0.45047575 -0.3942012 -0.26611334 0.12198929 -0.23265176 -0.3831271
-0.35815555 -0.5207298 -0.5348502 -0.3518055 -0.23179348 -0.16673267 -0.3883594 -0.36330485
-0.38658017 -0.49656355 -0.40016666 -0.38840312 -0.34042537 -0.13589567 0.055795737 -0.010831806
-0.065618806 -0.31897575 0.16580257 -0.41248274 -0.38861144 -0.24690817 -0.24588408 -0.10731527
-0.30114388 -0.18255031 0.061115067 -0.27667582 -0.17827028 0.28895319 -0.3129445 -0.13647272
-0.42602548 0.06077872 -0.25745916 -0.36791784 -0.450043 -0.17988685 -0.2473278 -0.2438215
-0.16387746 -0.24467918 -0.4153782 -0.39688167 0.23087685 -0.19707772 -0.47383854 -0.20331612
0.015412747 -0.09732313 -0.050436124 -0.25157693 -0.23597214 -0.38931486 -0.1278113 -0.32642767
-0.050114494 -0.07339119 0.030729128 0.058714326 0.040136795 -0.005399987 -0.013168574 0.009078256
-0.085580625 -0.033731066 -0.03228269 -0.09323554 -0.09727775 0.042199552 0.059565354 -0.06621662
-0.0584838 0.024756141 0.107192256 -0.04909133 0.0108211525 0.029078582 0.0680012 0.03160331
-0.043756656 -0.022399245 0.01327613 -0.05915883 0.015774813 0.044426292 -0.086575866 0.046168976
-0.028139224 -0.08196106 0.040533822 -0.055110656 -0.054954126 0.046684917 -0.043767 -0.064667895
0.06862802 0.034039374 0.036916208 0.08804109 -0.018068831 -0.10875793 0.060868453 0.02650488
-0.030216742 -0.031929635 -0.0028050705 -0.011726669 -0.03737808 -0.0061396784 -0.09539373 0.045618497
0.061039217 0.06233357 0.024393853 -0.05479737 -0.06888847 0.08588892 -0.057521995 0.048517015
00000000: a03c a3bd a50d 5a3d 34ed 3fbe f9f2 fdbd
00000010: 0b7b a3bd 4d16 07be 9212 9ebe 5dc2 56be
00000020: 8f31 65bd 5090 76be 4734 6ebe e58a a5be
00000030: ee43 b63d 2b98 33bd 4fe9 89be 8e35 37be
00000040: 1185 adbc ff9e 1bbe ecfd 38be 6f8c 5cbe
00000050: a3be 2c3d d155 a8be f20f 10be 219e abbe
00000060: ded2 f9bd 17c6 9ebd ced3 2b3e e4aa eabe
00000070: 72e9 c3bb d2c9 90be 4939 00be 1dd2 efbe
00000080: d002 25be e7ab b73c 60e1 a2bd 062a 89be
00000090: f9f9 833b 6ac3 b8bd a770 c03b babf 7fbe
000000a0: 2018 95be a364 c7be 09d9 21be 56aa 40be
000000b0: 61a3 89be d753 2fbe ac15 27be b1d4 7f3a
000000c0: b6ed b8ba 7c28 953c 949b 67be 1d68 80be
000000d0: d42c 12bf 1ae6 86be 5100 86be b859 11be
000000e0: 6bb1 75be b36c b0bc 95ce babd 05b7 b4be
000000f0: 0319 debe b320 0abf 0a97 48be 93bd 14be
00000100: 2d58 9fbe 3bea c0bd c2a4 e6be bdd4 c9be
00000110: 0240 88be 85d5 f93d 433c 6ebe 3c29 c4be
00000120: 2a60 b7be 8c4e 05bf f1eb 08bf da1f b4be
00000130: 455b 6dbe f8bb 2abe 0bd7 c6be 1803 babe
00000140: d6ed c5be 943d febe a5e2 ccbe c6dc c6be
00000150: 3c4c aebe 3c28 0bbe 128a 643d e377 31bc
00000160: 2763 86bd ca50 a3be 26c8 293e f030 d3be
00000170: 14f8 c6be 7fd5 7cbe 09c9 7bbe 1cc8 dbbd
00000180: 882f 9abe 78ee 3abe cb53 7a3d 74a8 8dbe
00000190: 7c8c 36be acf1 933e 433a a0be 81bf 0bbe
000001a0: 0320 dabe 1bf3 783d b0d1 83be ba5f bcbe
000001b0: 096c e6be 4234 38be 8043 7dbe 58ac 79be
000001c0: 7ecf 27be 2e8d 7abe 74ac d4be 1334 cbbe
000001d0: fb6a 6c3e bece 49be f79a f2be 1a32 50be
000001e0: bf85 7c3c 5951 c7bd 1c96 4ebd b1ce 80be
000001f0: aea2 71be 4754 c7be f7e0 02be 8721 a7be
00000200: db44 4dbd 1f4e 96bd a7bb fb3c 6f7e 703d
00000210: 7b66 243d 60f2 b0bb 01c1 57bc f7bc 143c
00000220: e544 afbd 9629 0abd db3a 04bd 46f2 bebd
00000230: 8f39 c7bd 70d9 2c3d cdfa 733d 949c 87bd
00000240: b68c 6fbd 64cd ca3c 9d87 db3d fe13 49bd
00000250: 344b 313c 3536 ee3c 3744 8b3d 7972 013d
00000260: 2e3a 33bd 9f7e b7bc 2084 593c 8850 72bd
00000270: 2e3a 813c 58f8 353d b04e b1bd ae1b 3d3d
00000280: 3b84 e6bc 33db a7bd cb06 263d b6bb 61bd
00000290: 9417 61bd af38 3f3d 0745 33bd 9a70 84bd
000002a0: d98c 8c3d df6c 0b3d 7335 173d e34e b43d
000002b0: 1605 94bc 7abc debd 3351 793d c320 d93c
000002c0: 1a89 f7bc a6c8 02bd 46d5 37bb 3721 40bc
000002d0: c219 19bd 5b2f c9bb ca5d c3bd 76da 3a3d
000002e0: 4204 7a3d 7c51 7f3d 9ed5 c73c 3573 60bd
000002f0: 6615 8dbd 88e6 af3d 2f9c 6bbd c7b9 463d

gru.bias_hh_l1 f4 [192]
-0.039186493 -0.11538944 -0.27179366 -0.188858 -0.21754189 -0.044009503 -0.35547945 -0.2591503
-0.16769691 -0.12143071 -0.25298402 -0.20535985 -0.006646092 -0.10688494 -0.30550134 -0.21233006
-0.22620517 -0.20059767 -0.07673417 -0.08765066 -0.024843708 -0.3213834 0.00031012658 -0.34723845
-0.10032953 -0.3049284 0.07245643 -0.4424482 -0.073778905 -0.30031928 0.03641422 -0.5187845
-0.2028787 -0.15071635 -0.27684414 -0.2640526 0.07094885 -0.19310819 -0.17046525 -0.06755017
-0.3047628 -0.4036433 -0.19565344 -0.027239751 -0.23127162 -0.04189364 -0.07474854 -0.04193885
-0.08965604 -0.028387945 -0.12586164 -0.16132289 -0.6129616 -0.1697329 -0.19177254 0.016383816
-0.08882722 0.06366859 0.11161309 -0.13764437 -0.37548757 -0.4390472 -0.09752505 -0.053406153
-0.26937273 -0.17848787 -0.33861926 -0.4419079 -0.33538753 0.030291693 -0.18653019 -0.3229131
-0.38121915 -0.36197028 -0.5089335 -0.38453028 -0.24340053 0.034070347 -0.36545357 -0.2529211
-0.31290936 -0.49309036 -0.2735043 -0.5275464 -0.4062966 -0.13767964 0.075356156 -0.023582226
0.013138515 -0.35942373 0.06816507 -0.34653866 -0.41543448 -0.25456318 -0.10509313 0.016442876
-0.2798199 -0.29891223 -0.06194022 -0.38421845 -0.017420951 0.3595198 -0.20751214 0.08487452
-0.41332856 -0.10648532 -0.37406182 -0.22284538 -0.21925041 -0.15946642 -0.38259366 -0.23517917
-0.29260966 -0.32831067 -0.2455177 -0.45077035 0.19393681 -0.19729224 -0.522409 -0.11484212
0.048125405 0.072877824 0.004729668 -0.09301855 -0.2578908 -0.26590517 0.011979674 -0.33245862
-0.06932939 0.078734495 -0.074231364 0.09999585 -0.09744252 -0.010743441 0.08566109 0.05239736
-0.06534457 -0.014395108 -0.12928882 -0.10151231 -0.058748465 0.029530913 0.10979856 0.09045868
-0.06587861 -0.0036471789 -0.101258755 0.14088671 0.008595228 0.04040384 -0.10971644 0.0013517011
0.076047085 0.037387818 -0.11723801 -0.05463218 -0.018437669 -0.0076280953 0.07442719 -0.017136928
-0.013027647 0.10425052 -0.043688424 0.13535236 -0.08251302 0.057100084 0.03514449 0.047374573
0.012124464 -0.07933804 0.054925773 -0.011866091 0.011334654 0.1082304 -0.061911732 -0.1062801
-0.07568104 -0.0579728 0.08363749 0.03585974 0.010743665 -0.045174487 0.0025336067 -0.0611263
-0.1039697 -0.12609051 -0.075109825 -0.011866081 0.025877697 -0.03245547 -0.017895194 0.03732235
00000000: 0482 20bd 4c51 ecbd 8a28 8bbe fe63 41be
00000010: 4dc3 5ebe 4f43 34bd 6701 b6be 59af 84be
00000020: bdb8 2bbe aab0 f8bd 1f87 81be da49 52be
00000030: 76c7 d9bb 7ee6 dabd ac6a 9cbe 0d6d 59be
00000040: 54a2 67be 7a69 4dbe ce26 9dbd 3082 b3bd
00000050: 0885 cbbc 5d8c a4be 7c98 a239 3dc9 b1be
00000060: 9279 cdbd 931f 9cbe 0964 943d 9288 e2be
00000070: 6519 97bd 73c3 99be 1427 153d 10cf 04bf
00000080: 6fbf 4fbe 6355 1abe 84be 8dbe e731 87be
00000090: a14d 913d 27be 45be 718e 2ebe be57 8abd
000000a0: df09 9cbe 56aa cebe 6059 48be e625 dfbc
000000b0: 78d2 6cbe aa98 2bbd c315 99bd 12c8 2bbd
000000c0: 969d b7bd d68d e8bc e0e1 00be d431 25be
000000d0: 0deb 1cbf 76ce 2dbe 0560 44be 5a37 863c
000000e0: 0ceb b5bd ad64 823d 6795 e43d a5f2 0cbe
000000f0: e83f c0be cbca e0be 37bb c7bd 69c0 5abd
00000100: 39eb 89be 86c5 36be 815f adbe c141 e2be
00000110: eab7 abbe 4926 f83c c501 3fbe de54 a5be
00000120: 282f c3be 2b54 b9be 7749 02bf 27e1 c4be
00000130: fd3d 79be 598d 0b3d bb1c bbbe e07e 81be
00000140: a835 a0be 5776 fcbe c108 8cbe 480d 07bf
00000150: 1c06 d0be e4fb 0cbe 5454 9a3d 832f c1bc
00000160: ed42 573c 6306 b8be 219a 8b3d 846d b1be
00000170: d4b3 d4be 1b56 82be 113b d7bd 36b3 863c
00000180: 8e44 8fbe 060b 99be 07b5 7dbd 48b8 c4be
00000190: 62b6 8ebc fb12 b83e 107e 54be b1d2 ad3d
000001a0: cd9f d3be fa14 dabd 0885 bfbe 9431 64be
000001b0: 2e83 60be 2a4b 23be 51e3 c3be cfd2 70be
000001c0: efd0 95be 5618 a8be fe68 7bbe 5fcb e6be
000001d0: 5f97 463e fa06 4abe 99bc 05bf 5832 ebbd
000001e0: 251f 453d f840 953d 55fb 9a3b 8280 bebd
000001f0: 430a 84be b924 88be 6546 443c 0438 aabe
00000200: 91fc 8dbd 8d3f a13d 9d06 98bd a0ca cc3d
00000210: f28f c7bd 4205 30bc 156f af3d 9d9e 563d
00000220: 60d3 85bd 76d9 6bbc 4a64 04be b0e5 cfbd
00000230: 3ba2 70bd d0ea f13c 11de e03d 6742 b93d
00000240: 5deb 86bd 8205 6fbb c060 cfbd 9b44 103e
00000250: 00d3 0c3c 7f7e 253d 03b3 e0bd 902b b13a
00000260: 93be 9b3d f823 193d 7b1a f0bd fec5 5fbd
00000270: 980a 97bc 1af5 f9bb 486d 983d be62 8cbc
00000280: e971 55bc 4c81 d53d a2f2 32bd cf99 0a3e
00000290: 96fc a8bd c7e1 693d abf3 0f3d d70b 423d
000002a0: b0a5 463c fb7b a2bd d9f9 603d fe69 42bc
000002b0: fcb4 393c e6a7 dd3d 2897 7dbd 62a9 d9bd
000002c0: a9fe 9abd e374 6dbd 224a ab3d aae1 123d
000002d0: 3206 303c e208 39bd de0a 263b 925f 7abd
000002e0: 11ee d4bd df1d 01be 2ed3 99bd f369 42bc
000002f0: 77fd d33c 07f0 04bd f198 92bc 52df 183d

fc.weight f4 [1, 64]
0.10242244 0.026762687 -0.14933631 0.13340761 -0.13219178 0.029103033 -0.0012863345 -0.11028971
0.16051921 0.03163876 -0.16929668 -0.12874416 0.13090475 -0.03529308 0.17188215 -0.109023586
-0.13517885 -0.03353245 0.18366955 0.17110446 -0.06404589 -0.014624386 -0.036980033 -0.014968461
0.005592993 -0.17961833 0.0188112 -0.15972029 0.08670612 -0.059959136 -0.07339531 -0.05262612
-0.09001573 0.058080688 -0.045310896 0.124321274 -0.04529599 -0.03469129 0.10195881 0.03871512
0.10584165 -0.06948372 -0.100890994 -0.025493132 -0.114237994 0.10765827 -0.09673181 0.031528257
0.034135364 0.15947561 0.097458646 -0.17217012 -0.03791302 0.12817723 -0.16031833 0.031416148
0.04748925 0.0020471865 0.00039715253 0.031772114 0.13582662 -0.16582325 0.080508515 -0.15399845
00000000: dbc2 d13d 6c3d db3c 9eeb 18be 019c 083e
00000010: 485d 07be 7c69 ee3c 399a a8ba 92df e1bd
00000020: 265f 243e a597 013d 1c5c 2dbe 82d5 03be
00000030: e50b 063e 7a8f 10bd e001 303e c247 dfbd
00000040: 536c 0abe 5359 09bd df13 3c3e 0236 2f3e
00000050: 7e2a 83bd 1f9b 6fbc 6078 17bd 473e 75bc
00000060: 6d45 b73b deed 37be f219 9a3c b78d 23be
00000070: fa92 b13d b697 75bd 4850 96bd 7d8e 57bd
00000080: 2b5a b8bd 04e6 6d3d eb97 39bd 279c fe3d
00000090: 4a88 39bd 7418 0ebd c8cf d03d bf93 1e3d
000000a0: 82c3 d83d 7b4d 8ebd f09f cebd f9d6 d0bc
000000b0: 9cf5 e9bd f07b dc3d 541b c6bd c623 013d
000000c0: 86d1 0b3d 934d 233e 6698 c73d 5d4d 30be
000000d0: af4a 1bbd e440 033e 7d2a 24be 38ae 003d
000000e0: 1684 423d 172a 063b e938 d039 7a23 023d
000000f0: 2216 0b3e 92cd 29be a6e1 a43d c5b1 1dbe
