data/models/btcANDeth_lstm_1h.pth (torch, 215909 bytes, 10 tensors)

lstm.weight_ih_l0 f4 [256, 10]
0.08866912 0.21183355 -0.006523736 0.25442347 -1.1636025 -0.47044277 0.1696537 0.03036281
0.03941899 -0.28744662 -0.030540083 0.06475985 -0.09699437 0.0055092457 -0.043133114 -0.12301152
0.47561494 0.26108173 0.0062407465 -0.46830463 -0.055106007 -0.16689931 -0.073695965 -0.0060486533
0.13509488 0.008989631 -0.4498503 -0.5428238 0.056827623 -0.14379211 0.02251184 0.34118435
0.0863922 0.41443697 -0.13693547 0.19819462 -0.09664951 0.04139836 0.13051902 -0.20356984
0.124875605 0.15191697 0.002971432 0.18701358 0.3073202 0.02523275 -0.089141004 -0.20367385
0.11886177 -0.11949222 -0.18232739 -0.28067115 -0.08025159 -0.1515732 0.17935397 -0.02477831
0.25778517 0.35777348 -0.24804804 -0.266944 -0.06506341 0.23371017 0.1517865 0.25722277
-0.46493486 0.16256604 -0.17444521 -0.16088927 0.099712126 -0.30478734 0.25424474 0.4130694
0.15736091 0.4403926 -0.49988043 -0.089867465 -0.28941703 -0.34882054 0.2744137 -0.27302057
-0.29125953 -0.35084477 -0.34866804 -0.24531019 -0.27350459 -0.48264226 0.066080876 -0.13200383
-0.2895419 -0.04087949 -0.02511764 -0.0699567 -0.18382804 -0.016722512 -0.077402495 0.31537378
-0.35339856 -0.3348882 -0.13340338 -0.37398204 0.09635456 0.053721905 -0.00909069 0.10926451
0.091145016 0.5917284 -0.34198448 -0.26441446 0.13145363 -0.12315371 -0.032622874 0.12899302
0.15705217 0.21988344 -0.21938404 0.075299755 -0.13104674 0.051894434 0.14738004 0.11316204
-0.013443702 0.006785699 -0.17971814 0.07972602 -0.09512453 0.075520165 0.21493311 0.11968581
-0.1971729 -0.07331433 0.043625686 0.1710596 0.07212651 0.017780675 -0.21942899 -0.14782576
-0.0325189 0.07548751 0.03707523 -0.24878149 0.14518316 0.20843582 0.1954736 0.12820905
0.18432638 -0.06577239 0.022905443 -0.048689246 0.16352633 -0.24124373 0.21728674 0.28847566
0.028108554 0.07928748 -0.47376898 -0.03924606 -0.015557659 -0.047681183 0.0940338 -0.38660908
0.018772898 0.020777488 0.065401934 0.12296805 -0.09830418 0.15425456 0.0037437985 -0.08545692
0.077736884 0.017933061 -0.12912467 0.084713876 0.07363961 -0.0712126 -0.16687487 0.25857374
0.053078145 0.092654325 -0.0408451 -0.016352434 0.13437143 -0.1169226 -0.025387727 0.020737723
0.11992844 -0.07808805 0.42428592 0.47622213 -0.1273023 0.018804884 0.004778553 -0.2750784
-0.00829314 -0.20544851 0.31954244 0.22116086 0.17527685 0.04500046 -0.060315248 0.0032837829
-0.08901431 -0.33900237 -0.12422398 -0.08589161 0.37786558 0.24103914 0.15757824 0.26116377
-0.15108435 -0.30293474 0.10567547 0.024907384 -0.161725 0.14334899 -0.017761726 0.06312567
0.12319738 0.06860247 0.0026346883 -0.41525185 -0.20381862 -0.4571524 -0.160358 -0.3730597
0.3040712 0.054356493 0.18528913 -0.03894475 -0.281336 0.16031438 -0.14768638 0.08198116
-0.11922777 -0.11321621 -0.45901325 0.15012981 -0.13133818 0.0020816901 -0.08088559 -0.048518468
0.02743008 -0.05253236 0.082197 -0.1185213 0.10389972 0.17940989 0.123197615 0.1177059
-0.0012097375 -0.2563734 -0.123709865 -0.101099305 -0.027771559 0.016108988 0.3240849 -0.06473003
00000000: 2898 b53d e5ea 583e 10c5 d5bb cb43 823e
00000010: edf0 94bf e0dd f0be b3b9 2d3e 6dbb f83c
00000020: cf75 213d 342c 93be 322f fabc d0a0 843d
00000030: fca4 c6bd e786 b43b 59ac 30bd 77ed fbbd
00000040: cd83 f33e 81ac 853e 2d7f cc3b a0c5 efbe
00000050: d6b6 61bd a7e7 2abe e9ed 96bd c833 c6bb
00000060: 5056 0a3e 3f49 133c c752 e6be 80f6 0abf
00000070: 15c4 683d 3d3e 13be c06a b83c b7af ae3e
00000080: 65ee b03d 1531 d43e d038 0cbe 88f3 4a3e
00000090: 2ef0 c5bd 5491 293d c7a6 053e 9d74 50be
000000a0: c8be ff3d 1f90 1b3e 5bbc 423b 7d80 3f3e
000000b0: 1359 9d3e eab4 ce3c 8f8f b6bd e18f 50be
000000c0: cd6d f33d 56b8 f4bd 08b4 3abe 21b4 8fbe
000000d0: f25a a4bd 0136 1bbe 91a8 373e e2fb cabc
000000e0: 6bfc 833e 162e b73e 4e00 7ebe e2ac 88be
000000f0: f73f 85bd b851 6f3e ec6d 1b3e b4b2 833e
00000100: f10b eebe b677 263e c4a1 32be 28c0 24be
00000110: df35 cc3d 160d 9cbe 5e2c 823e d57d d33e
00000120: 3823 213e 247b e13e 54f0 ffbe 6f0c b8bd
00000130: 782e 94be 9b98 b2be f47f 8c3e 5ac9 8bbe
00000140: f81f 95be eda1 b3be 9e84 b2be 9832 7bbe
00000150: cb08 8cbe e31c f7be 6955 873d 032c 07be
00000160: d63e 94be 4171 27bd 82c3 cdbc 7545 8fbd
00000170: 6b3d 3cbe a6fd 88bc 3385 9ebd ac78 a13e
00000180: a8f0 b4be 7776 abbe e59a 08be 937a bfbe
00000190: 8a55 c53d 800b 5c3d 1ef1 14bc 12c6 df3d
000001a0: 3daa ba3d 837b 173f 9718 afbe 5561 87be
000001b0: c89b 063e 0338 fcbd 909f 05bd bf16 043e
000001c0: 49d2 203e 2029 613e 36a6 60be c236 9a3d
000001d0: 1e31 06be 428f 543d cbea 163e 80c1 e73d
000001e0: f942 5cbc 925a de3b 0808 38be 6547 a33d
000001f0: a6d0 c2bd 51aa 9a3d 6d17 5c3e d51d f53d
00000200: b1e7 49be d325 96bd d9b0 323d 3f2a 2f3e
00000210: 10b7 933d c7a8 913c feb1 60be a35f 17be
00000220: 8a32 05bd 3299 9a3d 32dc 173d 93c0 7ebe
00000230: e5aa 143e 3370 553e 3b2a 483e 3c49 033e
00000240: 0ec0 3c3e adb3 86bd 32a4 bb3c 606e 47bd
00000250: 7273 273e 9908 77be 6a80 5e3e 15b3 933e
00000260: e943 e63c 7961 a23d d991 f2be 7ac0 20bd
00000270: 8de5 7ebc 584d 43bd cb94 c03d a0f1 c5be
00000280: 9fc9 993c 8d35 aa3c 73f1 853d acd6 fb3d
00000290: b453 c9bd e8f4 1d3e 845a 753b 0a04 afbd
000002a0: 8434 9f3d 5be8 923c 4239 04be 787e ad3d
000002b0: 5dd0 963d e9d7 91bd 3fe1 2abe c763 843e
000002c0: 7868 593d 8dc1 bd3d 314d 27bd 8af5 85bc
000002d0: aa98 093e 1e75 efbd ecf9 cfbc 28e2 a93c
000002e0: 0b9d f53d a1ec 9fbd 013c d93e 63d3 f33e
000002f0: 895b 02be b30c 9a3c 6895 9c3b 13d7 8cbe
00000300: f3df 07bc 1861 52be 119b a33e fe77 623e
00000310: c67b 333e 6752 383d 1f0d 77bd bc34 573b
00000320: 224d b6bd b891 adbe 2469 febd f1e7 afbd
00000330: 9977 c13e f7d2 763e 315c 213e 42b7 853e
00000340: dbb5 1abe 431a 9bbe 616c d83d 920a cc3c
00000350: 3d9b 25be 14ca 123e 0a81 91bc 0848 813d
00000360: e84e fc3d 747f 8c3d bcaa 2c3b e49b d4be
00000370: d4b5 50be e10f eabe e334 24be ae01 bfbe
00000380: 38af 9b3e eaa4 5e3d 6fbc 3d3e 8884 1fbd
00000390: 460b 90be 7429 243e 193b 17be bde5 a73d
000003a0: b02d f4bd e6dd e7bd c903 ebbe a1bb 193e
000003b0: 847d 06be f76c 083b 58a7 a5bd 4dbb 46bd
000003c0: 0cb5 e03c 2c2c 57bd e756 a83d 4cbb f2bd
000003d0: 60c9 d43d 3ab7 373e 084f fc3d ca0f f13d
000003e0: 0e90 9eba 6043 83be 995b fdbd 270d cfbd
000003f0: 2e81 e3bc fff6 833c 75ee a53e 2e91 84bd

lstm.weight_hh_l0 f4 [256, 64]
-0.12842749 0.004554206 0.038017794 0.0040018554 0.067637146 0.01297367 -0.027299603 -0.027919393
-0.27490002 -0.4701671 -0.26413596 0.047303732 -0.09333551 0.0889048 -0.14803731 -0.18406625
-0.27694383 -0.02204936 -0.06712278 -0.20068404 -0.09809519 0.14645618 0.37439024 -0.10906483
-0.18536349 -0.13720684 0.19130586 -0.02459242 -0.07592676 -0.093493775 -0.13146572 -0.03475738
-0.04419607 -0.008336492 0.005103677 -0.22997056 -0.17417656 -0.017230285 -0.023103694 -0.07460262
0.14432894 -0.0077503254 0.06415543 0.090790085 0.11931841 0.19822977 -0.053000234 0.24849898
-0.10345667 -0.32682714 -0.32011378 0.28710732 0.13862255 0.08428657 0.085968144 -0.38641384
0.024131807 -0.10917555 0.070754655 -0.47386137 0.21590929 -0.17363645 -0.07616049 -0.28092483
0.033511735 -0.4279492 -0.32939526 -0.023649136 0.009990598 0.24195844 -0.023794387 -0.13899064
-0.026137562 0.035409536 -0.20433071 -0.029801145 0.035878737 0.30998072 -0.23297563 -0.10202016
-0.042508114 0.51127434 -0.0012161174 -0.09606055 0.277967 -0.02945033 -0.10830269 0.38576332
0.25425926 -0.4191009 -0.27083248 0.37601027 0.1276496 0.034788884 0.30286634 0.095492795
-0.28901705 0.042616393 0.32756513 0.12148833 0.06428594 -0.28241476 -0.06622762 -0.12944692
0.054168355 0.28235385 -0.19372346 -0.28130877 0.113059916 0.46529853 0.23383245 -0.307533
-0.06874122 0.093695916 0.03926895 0.06957241 -0.18130429 0.42841566 -0.42396802 0.28729853
0.113170415 0.4290989 0.41108853 0.058275227 0.15111573 -0.00041111407 -0.30993077 -0.31791678
0.16230223 -0.25174168 0.16050053 0.07163317 0.16305171 0.23655108 0.054275166 0.023707349
0.27382433 0.09769243 -0.05799722 0.112394944 -0.09633177 -0.0023934864 -0.027402587 0.048077125
0.0012211194 0.21775876 0.02820981 -0.08945676 0.2817253 0.08918825 -0.24563192 0.18309009
0.037694413 -0.053239472 0.105326965 0.2789608 0.07972195 -0.017406113 0.18888465 -0.13935092
0.14083801 -0.0982733 0.14265035 0.0002828847 -0.012006047 -0.15108132 -0.20030436 0.26209316
-0.10644897 -0.1775546 -0.03439271 -0.16922642 0.24498963 0.16357176 -0.17885605 -0.006226055
-0.22719176 0.24341574 -0.11713646 -0.06577948 -0.01428759 0.23108843 -0.20146775 0.33119223
-0.0012080856 0.19048421 -0.062620796 0.30248597 0.10052104 0.050122093 0.1654357 -0.14741193
0.16488692 -0.010764597 0.11391714 0.13299651 0.020028383 0.037061624 0.004022251 -0.0028715348
-0.021409698 0.1962735 -0.27121103 -0.15038691 0.035506308 -0.009556647 0.085001945 0.07593611
0.06538035 0.052172594 0.21967755 0.21080464 0.16863428 0.38980293 0.12925349 0.15880997
0.011256245 0.041723806 -0.19826005 -0.051758263 0.19568005 0.19122264 -0.13304341 -0.3851952
-0.060775988 0.020890092 -0.008157753 0.04866035 -0.23493521 -0.041114297 -0.30746198 0.0008261434
-0.12731344 -0.077669114 0.20996545 -0.056018844 -0.1038127 0.19698946 0.15455867 -0.13647112
-0.14391123 0.15054551 0.048337955 -0.019803824 -0.0034754984 -0.034821574 -0.22788529 0.039676644
0.2116284 -0.048968345 -0.28604436 0.04869533 0.16442539 0.12872134 0.09132601 -0.1726189
00000000: 7f82 03be 733b 953b 8cb8 1b3d ff21 833b
00000010: 5885 8a3d 848f 543c 6ba3 dfbc 36b7 e4bc
00000020: b2bf 8cbe beb9 f0be d43c 87be 8fc1 413d
00000030: b026 bfbd b813 b63d 1897 17be dd7b 3cbe
00000040: 95cb 8dbe dca0 b4bc ab77 89bd 1e80 4dbe
00000050: 22e6 c8bd 9cf8 153e 14b0 bf3e 625d dfbd
00000060: edcf 3dbe f37f 0cbe afe5 433e 0b76 c9bc
00000070: 7d7f 9bbd aa79 bfbd f39e 06be c15d 0ebd
00000080: f006 35bd c895 08bc bf3c a73b 677d 6bbe
00000090: 575b 32be 8726 8dbc f543 bdbc 42c9 98bd
000000a0: f7ca 133e 71f6 fdbb ec63 833d 27f0 b93d
000000b0: 365d f43d bffc 4a3e c616 59bd 8476 7e3e
000000c0: 17e1 d3bd e355 a7be f4e5 a3be bbff 923e
000000d0: 12f3 0d3e 709e ac3d 1110 b03d 09d8 c5be
000000e0: 11b0 c53c 6e97 dfbd d1e7 903d f59d f2be
000000f0: 5317 5d3e c1cd 31be 08fa 9bbd 61d5 8fbe
00000100: 9a43 093d 281c dbbe 7fa6 a8be d5bb c1bc
00000110: 9baf 233c f4c3 773e 72ec c2bc 9053 0ebe
00000120: 711e d6bc 9709 113d 123c 51be 8821 f4bc
00000130: 95f5 123d cbb5 9e3e 2a91 6ebe f2ef d0bd
00000140: fd1c 2ebd e0e2 023f 2166 9fba 65bb c4bd
00000150: b151 8e3e d241 f1bc cdcd ddbd c582 c53e
00000160: 452e 823e 6594 d6be 8eaa 8abe 6b84 c03e
00000170: 94b6 023e ca7e 0e3d 4c11 9b3e ba91 c33d
00000180: 0bfa 93be 878e 2e3d 9eb6 a73e e0ce f83d
00000190: 59a8 833d ab98 90be 59a2 87bd bc8d 04be
000001a0: a3df 5d3d af90 903e 715f 46be b407 90be
000001b0: f58b e73d 9c3b ee3e c671 6f3e f774 9dbe
000001c0: 32c8 8cbd a5e3 bf3d 7ad8 203d fb7b 8e3d
000001d0: d5a7 39be 4c59 db3e 5612 d9be cb18 933e
000001e0: e4c5 e73d dab2 db3e 327a d23e 01b2 6e3d
000001f0: 15be 1a3e cc8a d7b9 3faf 9ebe fdc5 a2be
00000200: 8e32 263e 49e4 80be 405a 243e 69b4 923d
00000210: 07f7 263e 723a 723e a34f 5e3d ea35 c23c
00000220: b432 8c3e f812 c83d 7e8e 6dbd 522f e63d
00000230: 9749 c5bd 0adc 1cbb 647b e0bc 85ec 443d
00000240: f80d a03a 27fc 5e3e 4218 e73c 1b35 b7bd
00000250: 4c3e 903e 54a8 b63d ef86 7bbe f87b 3b3e
00000260: 7565 1a3d a211 5abd aab5 d73d f3d3 8e3e
00000270: 4345 a33d 4497 8ebc fa6a 413e 02b2 0ebe
00000280: d737 103e 8343 c9bd ef12 123e 2450 9439
00000290: 03b5 44bc 10b5 1abe 961c 4dbe 1331 863e
000002a0: eb01 dabd e0d0 35be 5fdf 0cbd b149 2dbe
000002b0: 90de 7a3e 5b7f 273e 0a26 37be ef03 ccbb
000002c0: f5a4 68be fa41 793e 3ee5 efbd 64b7 86bd
000002d0: 7f16 6abc 72a2 6c3e 904d 4ebe 0792 a93e
000002e0: a058 9eba 4b0e 433e 553f 80bd 71df 9a3e
000002f0: fadd cd3d d34c 4d3d fa67 293e 27f3 16be
00000300: 1ed8 283e fe5d 30bc 644d e93d 3d30 083e
00000310: 9012 a43c eecd 173d 16cd 833b 5c30 3cbb
00000320: 6463 afbc ecfb 483e 2cdc 8abe 07ff 19be
00000330: 106f 113d 7c93 1cbc 8015 ae3d 6484 9b3d
00000340: 22e6 853d eeb2 553d 27f3 603e 2cdd 573e
00000350: 77ae 2c3e 4094 c73e 075b 043e 159f 223e
00000360: 1d6c 383c 95e6 2a3d af04 4bbe 7900 54bd
00000370: 5a60 483e decf 433e 883c 08be 4e38 c5be
00000380: 3ef0 78bd b321 ab3c 19a8 05bc 1350 473d
00000390: db92 70be 7767 28bd a86b 9dbe 8c91 583a
000003a0: 745e 02be fc10 9fbd 2f01 573e 0474 65bd
000003b0: c19b d4bd 9bb7 493e a144 1e3e 16bf 0bbe
000003c0: 775d 13be 9a28 1a3e 05fe 453d a13b a2bc
000003d0: 30c5 63bb 11a1 0ebd c35a 69be fa83 223d
000003e0: 1eb5 583e 0893 48bd 6874 92be c174 473d
000003f0: 215f 283e 87cf 033e 2209 bb3d 02c3 30be

lstm.bias_ih_l0 f4 [256]
-0.02613394 0.122219585 -0.25096947 -0.02099256 -0.35743573 -0.20540857 -0.22943664 -0.05960789
-0.14868318 -0.14729844 -0.3780945 0.0141878845 -0.055951335 0.2865713 -0.2367764 -0.0938591
-0.05528092 -0.13818747 -0.24910192 -0.20327288 -0.3025303 -0.23497443 -0.22472958 0.13775645
-0.06425934 0.11313099 -0.14094037 -0.18103899 -0.3772418 -0.14360774 -0.2442087 -0.14287286
-0.13786602 0.08458964 -0.017437315 -0.279905 -0.21194369 0.011741022 -0.25799894 0.3189229
-0.18586059 -0.14345379 -0.046887215 -0.19071814 -0.15773438 0.18952687 -0.24410348 -0.23307805
0.03593136 -0.13481508 0.10293901 -0.07930989 -0.093252435 0.21084602 -0.050891202 0.18601227
0.121556915 -0.0092871 -0.08637395 -0.07618225 0.040675975 -0.017316682 -0.13089119 -0.2371885
-0.0693714 -0.10985937 0.1422024 -0.01355261 -0.12924191 -0.23387893 -0.06427865 -0.46786457
-0.17747301 0.010319874 0.14997157 0.03383872 -0.22570382 -0.4393542 -0.07515958 0.010766957
-0.22355747 -0.3483534 0.033376057 -0.26667678 -0.11905389 -0.31768498 -0.09455745 -0.15705957
-0.037861306 -0.20215471 -0.15277651 0.009686968 -0.2716255 0.01815383 0.0012531437 -0.12667982
-0.12770708 -0.34194884 -0.058989216 -0.23274858 0.0650272 -0.2113896 -0.19618271 -0.03815415
-0.06923996 -0.080328114 0.011484067 0.030174525 -0.020446025 -0.29673192 -0.269335 -0.09987922
-0.29584 -0.008750723 0.32062757 -0.073535495 0.16318214 -0.44976524 -0.2619859 0.29997817
-0.10241901 0.0012381062 -0.21643849 -0.034058373 0.01108091 -0.1536465 0.028384764 0.08765658
0.00852042 0.052384973 0.04853482 -0.06372122 0.039918464 -0.12132502 0.08105107 0.004665032
0.02144027 0.029729076 -0.0629089 -0.12232616 -0.0051775957 -0.04806723 0.15199442 0.0767975
0.017262736 0.13842738 0.06947191 0.09777801 -0.16549297 -0.009099138 0.07151285 0.012144644
-0.08863738 -0.034188177 0.02277143 -0.08797696 -0.025369035 0.018402575 0.15381877 0.007371274
-0.019501336 -0.031016462 -0.038400594 -0.05768041 -0.10273704 0.111887984 -0.04800793 0.066644005
-0.14441137 -0.012735538 0.02253596 0.12910827 0.026586171 -0.13154897 -0.098401345 0.090211496
-0.107290536 -0.12686135 0.088532224 0.101501256 0.028492248 0.018590342 0.026278032 -0.08974245
-0.08504193 0.101680584 0.0433253 -0.20221125 0.09868002 0.101702966 0.016934348 -0.036780532
-0.0666699 0.33009076 -0.21018851 -0.06928775 -0.06303296 -0.08004065 -0.19248107 0.038100865
-0.1479724 -0.06021868 0.03393646 -0.005830255 -0.26631927 0.39978594 -0.06540399 -0.18003811
0.039466746 0.0006641159 -0.059875492 -0.21279298 -0.16425247 -0.23342852 -0.07240981 0.36980224
0.030172082 0.18900655 -0.09469749 -0.111089446 -0.14621773 -0.21135023 0.017819142 0.12676379
0.0517793 -0.12767316 -0.018351665 -0.23141532 -0.0013051735 0.08073652 -0.1269059 0.33839008
-0.082512766 -0.30633238 -0.1633987 -0.010419073 -0.04212584 0.31509337 -0.3638058 -0.26470393
-0.08306482 -0.16357152 0.24573062 -0.14766182 0.2748545 0.40919548 0.08609515 0.1189044
0.080860324 0.045132652 -0.0450431 -0.04933875 -0.039702356 -0.0006931451 -0.13049878 0.11986638
00000000: d816 d6bc 434e fa3d 127f 80be 97f8 abbc
00000010: d101 b7be a056 52be 70f1 6abe 6727 74bd
00000020: 6740 18be 67d5 16be 9a95 c1be 4d74 683c
00000030: 3a2d 65bd 79b9 923e 8375 72be 3339 c0bd
00000040: 3f6e 62bd 0481 0dbe 9314 7fbe c426 50be
00000050: 40e5 9abe 239d 70be 831f 66be 0710 0d3e
00000060: 679a 83bd 38b1 e73d ac52 10be 4962 39be
00000070: d625 c1be e80d 13be d811 7abe 434d 12be
00000080: c02c 0dbe 553d ad3d b3d8 8ebc b54f 8fbe
00000090: c407 59be 6a5d 403c 7018 84be dd49 a33e
000000a0: 3d52 3ebe 8de5 12be cf0c 40bd 9e4b 43be
000000b0: 1f85 21be 5513 423e 43f6 79be 03ac 6ebe
000000c0: c32c 133d f70c 0abe b0d1 d23d 396d a2bd
000000d0: 22fb bebd 05e8 573e 4b73 50bd 007a 3e3e
000000e0: d5f2 f83d ec28 18bc d3e4 b0bd 7105 9cbd
000000f0: da9b 263d b7db 8dbc 5708 06be 8be1 72be
00000100: 9812 8ebd f3fd e0bd 829d 113e c40b 5ebc
00000110: fe57 04be f57d 6fbe 86a4 83bd f28b efbe
00000120: 7cbb 35be b014 293c 2692 193e 789a 0a3d
00000130: e71e 67be 09f3 e0be 44ed 99bd e467 303c
00000140: 40ec 64be 605b b2be 55b5 083d dc89 88be
00000150: 87d2 f3bd 9ba7 a2be 56a7 c1bd 39d4 20be
00000160: 7514 1bbd a501 4fbe 7271 1cbe 17b6 1e3c
00000170: 7f12 8bbe 57b7 943c 8640 a43a 5bb8 01be
00000180: a5c5 02be eb13 afbe ad9e 71bd a555 6ebe
00000190: fb2c 853d 8476 58be 1fe4 48be 8747 1cbd
000001a0: aecd 8dbd 1183 a4bd ab27 3c3c 9130 f73c
000001b0: 6c7e a7bc 3fed 97be 47e6 89be 7a8d ccbd
000001c0: 5778 97be 315f 0fbc 4c29 a43e c799 96bd
000001d0: 3819 273e a147 e6be 0423 86be bd96 993e
000001e0: 0fc1 d1bd f347 a23a 0da2 5dbe cb80 0bbd
000001f0: b58c 353c 8255 1dbe 2a87 e83c 4b85 b33d
00000200: 3b99 0b3c a091 563d 73cc 463d 4580 82bd
00000210: 8b81 233d 4179 f8bd 1afe a53d 20dd 983b
00000220: 81a3 af3c 648a f33c 62d6 80bd 2386 fabd
00000230: d2a8 a9bb 25e2 44bd 6da4 1b3e 0248 9d3d
00000240: 956a 8d3c e8bf 0d3e 4a47 8e3d d63f c83d
00000250: fd76 29be 8d14 15bc 5475 923d 54fa 463c
00000260: 8487 b5bd e708 0cbd 268b ba3c 442d b4bd
00000270: b9d2 cfbc ffc0 963c ab82 1d3e ba8a f13b
00000280: 44c1 9fbc 3c16 febc f149 1dbd 4b42 6cbd
00000290: cc67 d2bd 8725 e53d f7a3 44bd a77c 883d
000002a0: 93e0 13be b8a8 50bc 559d b83c f534 043e
000002b0: 3ecb d93c c6b4 06be a586 c9bd cec0 b83d
000002c0: 24bb dbbd f1e7 01be 6250 b53d e4df cf3d
000002d0: 9368 e93c c64a 983c 0745 d73c e4ca b7bd
000002e0: 772a aebd e93d d03d df75 313d 7710 4fbe
000002f0: c018 ca3d a549 d03d e7b9 8a3c 2fa7 16bd
00000300: 3b8a 88bd a801 a93e a83b 57be bce6 8dbd
00000310: 6d17 81bd 5aec a3bd c219 45be a70f 1c3d
00000320: 1486 17be dda7 76bd f500 0b3d b90b bfbb
00000330: 005b 88be beb0 cc3e 87f2 85bd e95b 38be
00000340: e2a7 213d 1018 2e3a 0140 75bd 67e6 59be
00000350: cd31 28be e307 6fbe 984b 94bd b856 bd3e
00000360: 712b f73c ef8a 413e c2f0 c1bd dd82 e3bd
00000370: 1aba 15be 326c 58be 73f9 913c 5ece 013e
00000380: 8816 543d c1bc 02be 3b56 96bc 23f8 6cbe
00000390: 5b12 abba 3059 a53d 9ff3 01be 7741 ad3e
000003a0: 74fc a8bd 99d7 9cbe fd51 27be c2b4 2abc
000003b0: 258c 2cbd eb53 a13e c144 babe 4687 87be
000003c0: e31d aabd 4b7f 27be cfa0 7b3e a934 17be
000003d0: bbb9 8c3e 1282 d13e a752 b03d 2684 f33d
000003e0: 199a a53d 04dd 383d 1d7f 38bd 6e17 4abd
000003f0: f09e 22bd 2eb4 35ba 79a1 05be 817c f53d

lstm.bias_hh_l0 f4 [256]
0.078421004 -0.022460278 -0.27448815 -0.16409293 -0.19649477 -0.2457059 -0.118282795 -0.026249034
-0.1722561 -0.20711417 -0.2762185 -0.0054471656 -0.0951971 0.2271807 -0.20712362 -0.19440013
-0.09705971 -0.15338716 -0.14940774 -0.236765 -0.22087063 -0.273717 -0.117079325 0.2207114
0.008575426 0.1240059 -0.14520305 -0.058620945 -0.30313116 -0.17886722 -0.27165747 0.052677497
0.034824897 -0.12933634 0.0032767083 -0.40383795 -0.19271985 -0.1362166 -0.16237046 0.25714013
-0.093778096 -0.26953986 -0.009237262 -0.034805503 -0.13437478 0.27268666 -0.2642776 -0.14612721
0.0803322 -0.10119703 0.25615692 0.0862521 -0.111028984 0.19950603 0.048843626 0.3222224
-0.0003299742 0.092621215 -0.17889142 -0.055617027 -0.020521367 -0.2175872 -0.26149094 -0.3161401
-0.2035909 -0.18929663 0.093911126 -0.20025745 -0.1929119 -0.0830725 -0.19084331 -0.37500173
-0.10004781 -0.14696406 0.03349133 -0.15332231 -0.17319877 -0.2383129 -0.015003835 -0.11989362
-0.074484706 -0.32830906 -0.06912346 -0.14722662 0.09848712 -0.21102269 0.011531287 -0.17325187
-0.07707912 -0.13913094 -0.37710923 0.044861056 -0.1570374 0.039387543 -0.0032914758 -0.18377988
-0.012941351 -0.29288152 -0.15634006 -0.19942401 -0.024610905 -0.004720895 -0.06902788 -0.024658937
-0.09007933 0.010177829 0.084511265 -0.044626806 -0.07669825 -0.31014273 -0.4004106 -0.15502839
-0.27531785 -0.081091136 0.34571582 -0.11021691 0.07385922 -0.46554098 -0.07061336 0.4074408
-0.15926754 -0.14841132 -0.21399914 0.013536384 -0.0714741 0.07039474 0.09643902 0.09992536
0.09317225 -0.06311289 0.027408928 0.01396921 0.0018848106 0.016970452 0.015386397 0.020027103
-0.15492721 0.02292785 -0.008789992 0.015733117 -0.059930306 -0.009195644 -0.001066773 0.15355435
0.0060938476 0.024399204 0.029368116 -0.0482428 -0.06691588 -0.064073294 0.049050998 -0.06040746
0.042763125 0.06518992 -0.008395664 -0.06827072 -0.01029135 0.11749337 0.04856849 -0.097897656
-0.038230408 -0.04708112 0.027033135 -0.058358204 -0.09665735 -0.065559156 -0.065815754 0.15343398
0.044291865 0.026725732 -0.106640935 0.15077846 0.010816774 0.049106598 0.1177626 -0.05086147
0.023991518 -0.12568241 0.17003386 0.09266478 0.06966055 0.025287077 -0.019663148 -0.16727395
0.08195264 0.046903696 0.007187772 -0.09657488 0.0076518278 0.017294154 0.01950912 -0.024647154
0.10590318 0.22864248 -0.078214176 -0.14185247 -0.09407657 -0.09176266 -0.20766392 -0.10487211
-0.20426016 -0.1599387 -0.08766015 0.0608458 -0.14241709 0.45544356 0.020470284 -0.12378276
-0.0636947 -0.052859318 -0.13279429 -0.2644017 -0.16980638 -0.08903808 -0.06680271 0.21582876
-0.06277596 0.28214818 -0.037025772 -0.018106628 -0.27384338 -0.06673252 -0.03030279 -0.05545851
0.06160842 -0.00038616033 -0.1337619 -0.39172325 -0.07720998 0.20280477 -0.08728938 0.2819105
-0.07747473 -0.26498595 -0.006947488 -0.11949381 0.06494782 0.193834 -0.4031593 -0.25688866
0.061392803 -0.1984828 0.09030059 -0.16006364 0.19385931 0.27845648 0.056495637 0.1662994
-0.07422206 0.06805214 -0.063818134 -0.08863722 -0.1310073 0.011822325 -0.18660185 0.025549458
00000000: 319b a03d 9efe b7bc b689 8cbe fa07 28be
00000010: ed35 49be 549a 7bbe 403e f2bd 3708 d7bc
00000020: e763 30be bd15 54be 836c 8dbe 237e b2bb
00000030: b2f6 c2bd 0fa2 683e 3718 54be d410 47be
00000040: 3ec7 c6bd 8611 1dbe 58fe 18be 8672 72be
00000050: e92b 62be a224 8cbe 49c7 efbd 2b02 623e
00000060: f27f 0c3c cef6 fd3d 1cb0 14be 841c 70bd
00000070: 0234 9bbe f828 37be b016 8bbe 5cc4 573d
00000080: 8da4 0e3d bf70 04be 0bbe 563b d9c3 cebe
00000090: 5a58 45be 5d7c 0bbe 7144 26be dfa7 833e
000000a0: bb0e c0bd 2101 8abe e357 17bc 3790 0ebd
000000b0: 8b99 09be 969d 8b3e 654f 87be 5fa2 15be
000000c0: 3585 a43d 6340 cfbd 0027 833e f1a4 b03d
000000d0: 2a63 e3bd 4f4b 4c3e 4110 483d 56fa a43e
000000e0: 6300 adb9 31b0 bd3d 502f 37be aece 63bd
000000f0: 6d1c a8bc 2ecf 5ebe 24e2 85be 1ddd a1be
00000100: 227a 50be fad6 41be 7a54 c03d 4a10 4dbe
00000110: b28a 45be ea21 aabd 6e6c 43be 3a00 c0be
00000120: dee5 ccbd bf7d 16be 342e 093d 8600 1dbe
00000130: 055b 31be 4c08 74be a5d2 75bc c98a f5bd
00000140: 708b 98bd 2018 a8be 9a90 8dbd 93c2 16be
00000150: 9db3 c93d 5516 58be b9ed 3c3c f068 31be
00000160: a8db 9dbd 5778 0ebe 7614 c1be 3ac0 373d
00000170: 6ace 20be d554 213d cdb5 57bb cb30 3cbe
00000180: f607 54bc 91f4 95be 9c17 20be cf35 4cbe
00000190: cf9c c9bc bdb1 9abb 7d5e 8dbd 8a01 cabc
000001a0: 837b b8bd e9c0 263c 3e14 ad3d 99ca 36bd
000001b0: f913 9dbd 07cb 9ebe 9e02 cdbe c3bf 1ebe
000001c0: 76f6 8cbe 1c13 a6bd aa01 b13e 67b9 e1bd
000001d0: 8143 973d 635b eebe bd9d 90bd 159c d03e
000001e0: 0817 23be 23f9 17be 9722 5bbe b6c7 5d3c
000001f0: 0361 92bd 1e2b 903d d281 c53d aba5 cc3d
00000200: 18d1 be3d 5541 81bd b088 e03c 1ddf 643c
00000210: c00b f73a 9e05 8b3c 3a17 7c3c e10f a43c
00000220: 3da5 1ebe 30d3 bb3c e603 10bc bde2 803c
00000230: 7b79 75bd 54a9 16bc f6d2 8bba 5a3d 1d3e
00000240: e6ae c73b d7e0 c73c 6795 f03c 3e9a 45bd
00000250: 310b 89bd dc38 83bd b3e9 483d d06d 77bd
00000260: 6328 2f3d 4b82 853d f88d 09bc 85d1 8bbd
00000270: 0d9d 28bc 5da0 f03d c1ef 463d 917e c8bd
00000280: 7d97 1cbd 22d8 40bd 9874 dd3c 0309 6fbd
00000290: 4af4 c5bd e143 86bd 69ca 86bd cc1d 1d3e
000002a0: 636b 353d ecef da3c 9066 dabd ab65 1a3e
000002b0: d738 313c 0024 493d 852d f13d 1e54 50bd
000002c0: dc89 c43c e4b2 00be 5b1d 2e3e 08c7 bd3d
000002d0: 31aa 8e3d d826 cf3c 9c14 a1bc dd49 2bbe
000002e0: c9d6 a73d 171e 403d 6787 eb3b 0dc9 c5bd
000002f0: 2fbc fa3b 78ac 8d3c 97d1 9f3c d4e8 c9bc
00000300: c4e3 d83d 4121 6a3e c12e a0bd c641 11be
00000310: 37ab c0bd 10ee bbbd daa5 54be 30c7 d6bd
00000320: 9329 51be f8c6 23be 2a87 b3bd 7239 793d
00000330: c9d5 11be e62f e93e 4cb1 a73c d181 fdbd
00000340: 5e72 82bd 0383 58bd 3afb 07be a95f 87be
00000350: b9e1 2dbe 9959 b6bd dccf 88bd 3702 5d3e
00000360: af90 80bd ba75 903e 56a8 17bd 5a54 94bc
00000370: 3335 8cbe 0fab 88bd 8f3d f8bc 7628 63bd
00000380: 1c59 7c3d 9075 cab9 e1f8 08be f38f c8be
00000390: 4420 9ebd 0eac 4f3e c6c4 b2bd 9356 903e
000003a0: 12ab 9ebd 3dac 87be c1a7 e3bb 2cb9 f4bd
000003b0: 5d03 853d 6c7c 463e e56a cebe e986 83be
000003c0: 0577 7b3d 133f 4bbe 84ef b83d b9e7 23be
000003d0: 0e83 463e d991 8e3e f867 673d 644a 2a3e
000003e0: bc01 98bd ec5e 8b3d 15b3 82bd 6e87 b5bd
000003f0: c726 06be 6db2 413c 8e14 3fbe 194d d13c

lstm.weight_ih_l1 f4 [256, 64]
0.14253533 0.2135979 0.18551049 0.2580201 -0.019341292 0.12122201 -0.11184562 -0.052647386
-0.14420173 -0.112468034 0.10511938 0.12682226 -0.19398864 0.017123178 0.22936898 0.102133155
-0.07680718 -0.11672872 -0.16686714 -0.09407464 0.038259864 -0.17871425 0.11240611 -0.18117698
-0.012584104 0.063493185 0.1335184 -0.041350175 0.08413875 0.114692435 -0.07226601 0.14586927
0.20137464 -0.34660065 -0.17107555 -0.34015566 -0.10105715 -0.008981193 0.15548995 0.05006898
0.039874155 -0.16600432 0.12869482 0.18056011 -0.080954194 0.012108911 -0.14243549 0.105722345
0.15613796 -0.039706457 0.013037627 0.45275018 0.17232016 0.13973403 0.2580597 -0.35151705
-0.31118688 -0.047666863 -0.22151041 -0.30538288 0.3306211 0.19694011 -0.021022154 0.06078018
-0.37344772 0.30970204 0.027947862 -0.06919187 0.038366787 0.064831756 -0.27351177 0.033389416
-0.08543991 -0.03590655 -0.088852234 0.063059784 0.10430232 0.14876318 -0.16730416 -0.1616333
0.1698955 -0.22940242 -0.0067668464 0.15648682 0.1468805 -0.046496607 0.06266638 0.20443851
0.10582475 0.12644628 0.029044852 -0.16601968 -0.004644412 -0.13719542 -0.41966486 0.24058187
-0.07102513 0.15306927 -0.35225847 0.22475465 -0.09558648 0.16688861 0.23516248 -0.55519223
0.06694318 0.13846825 -0.1492493 -0.0009428059 0.53163 0.021186171 -0.14451383 -0.060521692
0.15758933 0.1203874 0.04720868 0.046797708 0.32330897 -0.12104364 0.062907726 0.19358554
-0.03189749 -0.4220946 -0.07189102 0.11545033 -0.001630333 -0.07896698 0.25298542 -0.24203171
-0.4275802 0.16823538 -0.06325357 -0.027106164 0.019203229 0.19201252 -0.20781639 -0.24048495
0.16463645 -0.09029926 -0.20203647 -0.14180994 -0.022219962 0.04305898 -0.37898397 -0.3768438
-0.08913494 -0.29190192 -0.1674067 -0.16025403 0.02883995 -0.044542484 0.10536689 0.06430934
0.2910953 0.2431103 -0.19692935 -0.11200476 0.0614483 -0.110634156 -0.30419728 0.03391707
-0.15466432 0.27497008 -0.34503213 0.20149796 0.16655457 0.09647084 0.37224454 -0.5696676
0.1003909 0.3527921 -0.0837626 -0.19320576 0.29472688 0.0383845 -0.015364892 0.019370224
0.23631924 0.06985551 -0.050942715 -0.068853006 0.12715417 0.0018942456 0.28305307 0.23302273
-0.14264932 -0.38153183 0.32425445 -0.059722677 -0.08130397 -0.048241034 -0.008238571 -0.011774293
-0.4032607 0.076938696 0.18327022 -0.14039074 0.08998294 0.23753837 -0.28982288 -0.021832563
0.13096933 -0.16367753 0.0066664335 -0.0769524 -0.16907395 0.091900505 -0.32820913 -0.473297
-0.21041624 -0.15711038 -0.016285505 -0.008961454 0.22566798 -0.18475059 0.09914051 -0.14983445
0.051236548 0.18314552 -0.10967107 -0.064845495 -0.23450898 -0.21166158 -0.10640981 0.038882874
-0.13850974 0.22999693 -0.3757686 0.21419449 0.13899024 0.24906076 0.10272682 -0.40906578
0.20641202 0.052864503 -0.044694476 -0.09774224 0.15289353 -0.16003641 0.048174042 -0.10977977
0.20925808 0.34288234 -0.14246379 0.022909176 0.23831598 -0.07504682 0.09984839 0.027882928
0.19396017 -0.28678748 0.2883361 0.16401035 -0.24255018 -0.2496075 0.38692307 0.102607355
00000000: c8f4 113e 68b9 5a3e 76f6 3d3e 361b 843e
00000010: a171 9ebc 3f43 f83d 510f e5bd c9a4 57bd
00000020: 9ea9 13be a455 e6bd d448 d73d b2dd 013e
00000030: f5a4 46be e845 8c3c b4df 6a3e 302b d13d
00000040: 154d 9dbd 780f efbd 38df 2abe 34aa c0bd
00000050: 60b6 1c3d de00 37be 2d35 e63d 7586 39be
00000060: 8f2d 4ebc b708 823d 0cb9 083e cd5e 29bd
00000070: f050 ac3d dee3 ea3d 3400 94bd c15e 153e
00000080: 2735 4e3e a475 b1be 6e2e 2fbe e228 aebe
00000090: 0df7 cebd db25 13bc c238 1f3e 2115 4d3d
000000a0: 1553 233d 09fd 29be 93c8 033e c0e4 383e
000000b0: 50cb a5bd 7464 463c 9cda 11be f584 d83d
000000c0: a1e2 1f3e 3da3 22bd c59b 553c dfce e73e
000000d0: b274 303e 7016 0f3e 6720 843e 0bfa b3be
000000e0: e353 9fbe 543e 43bd a0d3 62be 255b 9cbe
000000f0: 2b47 a93e abaa 493e a736 acbc a3f4 783d
00000100: 8a34 bfbe 4491 9e3e eaf2 e43c 78b4 8dbd
00000110: 7e26 1d3d 83c6 843d bc09 8cbe 57c3 083d
00000120: 1ffb aebd bf12 13bd 29f8 b5bd 7d25 813d
00000130: 749c d53d 6055 183e c851 2bbe 3383 25be
00000140: 16f9 2d3e 78e8 6abe 6cbc ddbb 153e 203e
00000150: d767 163e 3a73 3ebd 3b57 803d 5458 513e
00000160: a6ba d83d 227b 013e 78ef ed3c 1001 2abe
00000170: 2730 98bb f57c 0cbe 50de d6be 185b 763e
00000180: a075 91bd 31be 1c3e 395b b4be 1526 663e
00000190: d8c2 c3bd d9e4 2a3e 6fce 703e 1421 0ebf
000001a0: 8219 893d 9fca 0d3e cfd4 18be a226 77ba
000001b0: e718 083f 9f8e ad3c 6ffb 13be 98e5 77bd
000001c0: 195f 213e ab8d f63d e45d 413d f4ae 3f3d
000001d0: c188 a53e bae5 f7bd c4d5 803d 4a3b 463e
000001e0: f1a6 02bd c91c d8be 993b 93bd 3971 ec3d
000001f0: e6b0 d5ba 71b9 a1bd 4e87 813e 29d7 77be
00000200: cbeb dabe e545 2c3e 168b 81bd bf0d debc
00000210: 1750 9d3c ee9e 443e d2cd 54be b041 76be
00000220: 7596 283e d2ee b8bd a6e2 4ebe a036 11be
00000230: a306 b6bc 9d5e 303d 300a c2be acf1 c0be
00000240: 618c b6bd 2b74 95be a96c 2bbe a219 24be
00000250: c241 ec3c 2e72 36bd 99ca d73d 9eb4 833d
00000260: 710a 953e e8f1 783e d9a7 49be c062 e5bd
00000270: 36b1 7b3d 2994 e2bd bfbf 9bbe a0ec 0a3d
00000280: 5360 1ebe e1c8 8c3e 0da8 b0be 7b55 4e3e
00000290: 488d 2a3e 8192 c53d d696 be3e bcd5 11bf
000002a0: bf99 cd3d 2ba1 b43e ba8b abbd bbd7 45be
000002b0: 71e6 963e 1139 1d3d 07bd 7bbc 4eae 9e3c
000002c0: acfd 713e 6810 8f3d 4fa9 50bd ce02 8dbd
000002d0: b434 023e 5648 f83a 55ec 903e 839d 6e3e
000002e0: aa12 12be 2458 c3be ae04 a63e c49f 74bd
000002f0: b282 a6bd 6498 45bd 12fb 06bc f7e8 40bc
00000300: 3078 cebe 0992 9d3d 30ab 3b3e 97c2 0fbe
00000310: fa48 b83d 423d 733e aa63 94be 34da b2bc
00000320: d31c 063e 159b 27be 1972 da3b 3899 9dbd
00000330: b921 2dbe 5536 bc3d 070b a8be fc53 f2be
00000340: 5b77 57be 8be1 20be 2e69 85bc 10d3 12bc
00000350: 8215 673e 422f 3dbe 2e0a cb3d 346e 19be
00000360: 6add 513d 808a 3b3e 3a9b e0bd b7cd 84bd
00000370: 1f23 70be d0bd 58be 63ed d9bd a643 1f3d
00000380: 7fd5 0dbe 5184 6b3e be64 c0be cd55 5b3e
00000390: 7553 0e3e c909 7f3e 7062 d23d 1271 d1be
000003a0: ac5d 533e 7388 583d 8e11 37bd 152d c8bd
000003b0: 1f90 1c3e 96e0 23be 2552 453d 37d4 e0bd
000003c0: c047 563e 468e af3e 07e2 11be 06ac bb3c
000003d0: 1b09 743e 26b2 99bd 507d cc3d bd6a e43c
000003e0: 7f9d 463e cfd5 92be caa0 933e 54f2 273e
000003f0: 135f 78be 1c99 7fbe c81a c63e ce23 d23d

lstm.weight_hh_l1 f4 [256, 64]
0.14979227 -0.045411248 0.16040172 0.050305143 0.06993612 0.066011205 0.12576859 0.033781126
0.10977626 0.017262332 -0.2063358 0.245418 -0.017502042 0.10315356 -0.06740747 0.13821524
0.081332155 -0.18019153 -0.05291811 -0.18909399 0.10345821 0.13763134 -0.09994825 0.044022754
-0.23025788 -0.026253734 0.09941638 0.18860085 0.043426033 0.06377919 0.06649636 0.042052012
0.006895546 -0.09332942 0.08976622 0.059298478 0.09044259 0.22410901 0.0704678 -0.20925538
0.20704927 -0.21610643 0.123217076 0.050314147 0.043154377 0.16417795 0.009201653 -0.058339287
-0.091169484 -0.2109743 0.024200197 0.17878354 0.07958615 -0.12391004 0.17836027 0.255554
0.07370632 0.09423421 0.015184322 -0.14312394 -0.032217357 0.1130476 0.023370216 0.010224581
0.21165997 -0.1996142 0.21487755 0.08700032 0.16431685 0.20644982 0.046057053 0.16192275
-0.041752804 0.35194567 -0.14936727 0.0086682895 -0.060758654 0.09143511 -0.14801373 0.20029935
-0.009252863 -0.114942364 0.026956959 -0.013063697 0.037354656 0.17861898 -0.25733978 0.065253265
-0.06403771 0.14823203 0.1460122 0.15574552 0.006269181 0.09596065 0.17878644 -0.14490451
0.112759724 -0.06008241 0.19177292 0.016943447 -0.019785669 0.052389394 0.13669537 -0.15722424
0.042134 -0.05768429 -0.15942335 -0.27939254 -0.0012621562 0.14223284 -0.27967432 -0.29834884
-0.11604464 -0.18657228 0.013076254 0.10183779 0.07541429 -0.10102017 0.04407448 0.27976203
0.07826097 -0.013685095 0.10058318 -0.19368687 -0.03820173 -0.18092534 0.2017256 0.09743788
-0.0935036 -0.07576946 0.09694216 0.12654926 -0.015621516 0.12554583 0.20189622 -0.052184764
-0.08357208 0.21702358 -0.09650002 0.04687514 -0.013009661 0.18245384 -0.14320944 -0.06750592
-0.106720254 -0.1751969 -0.14060315 -0.072936594 -0.02075359 0.19428836 -0.17231455 -0.020110022
-0.21685146 0.029595839 0.12909655 0.13911863 0.06029006 0.077200726 0.10584246 0.049961418
0.17750363 -0.0011995401 -0.008931658 0.08190375 -0.031265263 0.06987505 0.10004013 0.032369275
0.11693929 -0.087097734 0.061134562 -0.24393828 0.0044794115 0.12083124 -0.1531617 -0.25989157
0.013124126 0.017439742 0.03676805 0.16249399 -0.0005125856 0.081801325 -0.027834324 0.13240087
0.0052419496 -0.013257833 -0.023654463 -0.14547549 -0.11539921 -0.025233436 0.07383687 0.10601271
-0.060322873 -0.076599054 -0.10102712 0.019885454 -0.10261262 -0.09365474 0.033067103 -0.061361134
-0.20844847 0.16580349 -0.06611383 0.14506936 -0.13530883 -0.0931629 0.0075940765 -0.11862433
-0.051215608 0.08801555 0.047692668 0.026534546 0.09255934 0.13539883 0.03277757 0.053480152
-0.02150066 0.059802912 0.0028736321 -0.099921666 -0.145724 0.034613643 -0.05357189 -0.07446245
0.1762807 -0.01668365 -0.07666447 -0.14907908 0.08864392 0.021127556 -0.07678034 -0.024072193
-0.103306085 -0.06063043 0.0399741 -0.22957213 0.015828397 -0.10300179 -0.17679462 -0.13111608
-0.08048703 0.07158026 -0.031657703 0.049350876 -0.047231745 -0.098790325 0.014390931 0.15461853
-0.05176281 0.06173656 0.025410948 -0.11406488 0.032182854 -0.05351766 0.11117549 0.07728238
00000000: 2563 193e 2501 3abd 5940 243e c40c 4e3d
00000010: ab3a 8f3d e230 873d 7bc9 003e 145e 0a3d
00000020: 60d2 e03d bc69 8d3c b149 53be db4e 7b3e
00000030: 7160 8fbc 2c42 d33d ed0c 8abd 4c88 0d3e
00000040: 7991 a63d 2184 38be a9c0 58bd dba1 41be
00000050: e6e1 d33d 3bef 0c3e abb1 ccbd 3451 343d
00000060: b9c8 6bbe 1212 d7bc d19a cb3d 9520 413e
00000070: 7fdf 313d aa9e 823d 3e2f 883d bb3e 2c3d
00000080: 08f4 e13b 7f23 bfbd 5ad7 b73d f6e2 723d
00000090: f739 b93d d57c 653e 6c51 903d 0b47 56be
000000a0: b904 543e 014b 5dbe 3c59 fc3d 3516 4e3d
000000b0: a5c2 303d 441e 283e 88c2 163c 2df5 6ebd
000000c0: 11b7 babd a609 58be 7e3f c63c 0813 373e
000000d0: 10fe a23d 8cc4 fdbd 13a4 363e f9d7 823e
000000e0: 57f3 963d defd c03d aac7 783c 158f 12be
000000f0: 59f6 03bd 8085 e73d e572 bf3c 0085 273c
00000100: 64bd 583e aa67 4cbe dc08 5c3e 392d b23d
00000110: ad42 283e 9567 533e 52a6 3c3d 14cf 253e
00000120: fd04 2bbd 3932 b43e bcf3 18be 7105 0e3c
00000130: 11de 78bd 5542 bb3d e990 17be 461b 4d3e
00000140: 5299 17bc e766 ebbd d7d4 dc3c 1e09 56bc
00000150: 3201 193d e5e7 363e 0ac2 83be 81a3 853d
00000160: 3426 83bd 23ca 173e 3984 153e c17b 1f3e
00000170: b46d cd3b 0487 c43d cb13 373e d961 14be
00000180: 92ee e63d f918 76bd 1f60 443e fccc 8a3c
00000190: 8e15 a2bc 4396 563d dff9 0b3e 64ff 20be
000001a0: b494 2c3d 5d46 6cbd e03f 23be 8a0c 8fbe
000001b0: ef6e a5ba 7ca5 113e 7931 8fbe 2ec1 98be
000001c0: d0a8 edbd ce0c 3fbe c93d 563c 5590 d03d
000001d0: cf72 9a3d aae3 cebd 7187 343d f83c 8f3e
000001e0: 4a47 a03d 7337 60bc 8efe cd3d da55 46be
000001f0: 6b79 1cbd 7e44 39be 2891 4e3e 838d c73d
00000200: d17e bfbd 052d 9bbd 9c89 c63d 2196 013e
00000210: 63f1 7fbc 168f 003e e2bd 4e3e b1bf 55bd
00000220: d727 abbd 6e3b 5e3e cda1 c5bd 2600 403d
00000230: 7926 55bc 2ed5 3a3e 7fa5 12be 8b40 8abd
00000240: 2690 dabd d166 33be 46fa 0fbe c85f 95bd
00000250: 6f03 aabc 87f3 463e 3a73 30be c6bd a4bc
00000260: 4f0e 5ebe f972 f23c e331 043e 1d75 0e3e
00000270: b6f2 763d 6a1b 9e3d efc3 d83d 58a4 4c3d
00000280: 83c3 353e e339 9dba 1756 12bc 27bd a73d
00000290: 0110 00bd a61a 8f3d d7e1 cc3d a595 043d
000002a0: de7d ef3d 4c60 b2bd 3c68 7a3d f5ca 79be
000002b0: 07c8 923b 5f76 f73d 6cd6 1cbe 8210 85be
000002c0: 9306 573c cadd 8e3c 189a 163d d364 263e
000002d0: 0a5f 06ba 7487 a73d cf04 e4bc 1894 073e
000002e0: a9c4 ab3b 6237 59bc 01c7 c1bc 87f7 14be
000002f0: 6c56 ecbd 5ab6 cebc c937 973d 311d d93d
00000300: 1e15 77bd f7df 9cbd 4fe7 cebd d2e6 a23c
00000310: 9126 d2bd 0ece bfbd 5f71 073d d055 7bbd
00000320: 8473 55be 64c8 293e b066 87bd 108d 143e
00000330: 668e 0abe 31cc bebd bbd7 f83b 50f1 f2bd
00000340: 75c7 51bd 7f41 b43d 6359 433d fa5e d93c
00000350: c08f bd3d fea5 0a3e c641 063d 010e 5b3d
00000360: 2722 b0bc e6f3 743d 8c53 3c3b bba3 ccbd
00000370: ac38 15be 09c7 0d3d 336e 5bbd c57f 98bd
00000380: ee82 343e 26ac 88bc 4302 9dbd 30a8 18be
00000390: f28a b53d b213 ad3c 033f 9dbd 0c33 c5bc
000003a0: 2492 d3bd 9d57 78bd e2bb 233d f514 6bbe
000003b0: 8eaa 813c 9af2 d2bd a609 35be 4b43 06be
000003c0: 62d6 a4bd ac98 923d 82ab 01bd 2524 4a3d
000003d0: 1376 41bd 9552 cabd f1c7 6b3c 5254 1e3e
000003e0: 3e05 54bd 7adf 7c3d 9f2a d03c d99a e9bd
000003f0: 2bd2 033d 5535 5bbd faaf e33d 3946 9e3d

lstm.bias_ih_l1 f4 [256]
-0.15412322 -0.06312387 -0.06930526 0.022879932 0.005786637 -0.075984515 0.008027545 -0.104369216
0.51092607 0.39078817 -0.02297201 -0.0037105451 -0.008677373 -0.12631881 -0.17306064 -0.14204721
-0.22849171 0.00042790794 0.021022169 -0.034685165 0.12350056 -0.09476566 -0.16325155 -1.2867356e-05
0.05213151 0.33041304 0.03152101 -0.03723306 0.06547825 0.33933377 -0.07342109 0.007587627
0.4013343 0.087378055 -0.12229726 -0.19339839 0.16180645 0.028520964 -0.05980569 0.06432891
0.01623493 -0.1937257 -0.21507265 0.23853308 -0.21822503 -0.12827744 0.052718572 0.030492663
-0.058173124 -0.10105625 -0.08780027 0.012997172 -0.1452056 -0.2697227 -0.16995725 -0.011092582
0.074629664 -0.1338655 0.0326565 0.28475225 -0.18779965 0.24150923 0.23045538 -0.15958822
-0.22490528 -0.32727286 -0.1263262 -0.13417488 -0.07838951 -0.22478378 0.07362749 -0.06407205
-0.7091731 -0.49049637 0.25173026 0.18890212 -0.05401618 -0.113526724 -0.004919911 0.0043118643
-0.289731 -0.11823509 -0.12502652 0.006584189 -0.19084166 0.04353597 -0.1469639 -0.24981683
0.03557393 -0.17155816 0.114276074 0.03211299 -0.055739667 -0.37518182 -0.13277614 -0.04095132
-0.32446095 -0.08753773 -0.13598613 -0.0880089 -0.111840755 0.035414618 0.011943699 0.26098457
0.14293855 0.06319368 -0.088056475 0.13162927 0.013269705 0.012679615 -0.06078793 0.0040077223
-0.21505131 0.052513048 -0.21697679 -0.08872052 -0.056176033 0.046290763 -0.029755345 -0.01889363
-0.15963279 -0.1994011 -0.19773106 0.37184155 0.07912138 -0.6297688 -0.22767997 -0.10592452
-0.024315244 0.043189384 -0.15770732 -0.18824877 -0.077088326 -0.12710197 -0.12183682 -0.1340521
0.010451661 0.059158932 0.14562301 -0.025061226 0.18922792 -0.08858719 0.1473889 -0.14253153
0.032050412 0.12661286 -0.016647749 0.17091608 0.12966946 -0.03686296 0.1295244 0.07011982
0.09528861 0.06480345 -0.05983176 -0.1270413 -0.013276019 0.016721806 -0.14200158 0.12722042
-0.010842808 0.081689924 -0.19700608 -0.16948658 0.036852695 -0.012157392 -0.17015131 0.05587359
-0.15138328 0.18052526 0.08172177 0.070922546 0.10391273 0.021857034 0.26963574 0.11013258
0.048109476 0.08634741 0.05984185 -0.25482965 -0.24701133 0.097485736 -0.20203048 -0.10574776
-0.027954822 0.007864129 -0.2093665 0.28974432 -0.023928678 -0.12915127 0.095466636 -0.10907086
-0.14719492 -0.14854404 -0.07016612 -0.07404549 -0.1968331 -0.19437937 -0.0046031917 -0.25220627
0.48143157 0.55156994 -0.069369785 -0.17538594 -0.089190945 -0.17235844 -0.17907709 -0.18226857
-0.14024729 -0.008731249 -0.12120836 -0.19052652 -0.0589663 0.05124532 -0.049332492 -0.14388503
-0.18089506 0.037587296 0.05013366 -0.21526055 -0.012274807 0.21614544 -0.06987357 0.07122419
0.2735682 0.03526192 -0.15332094 -0.14753938 0.12705418 0.023202833 -0.2451908 -0.06574993
-0.17799106 -0.1028821 -0.15830079 0.02681771 -0.19696017 -0.18175204 -0.021928465 -0.2681337
-0.2024724 -0.027867135 0.08218523 -0.08538071 -0.12071308 -0.22836882 -0.010353558 -0.10649558
0.12276221 -0.10195165 -0.118074745 0.023951456 -0.019570606 0.24748597 0.16380562 -0.05400917
00000000: 7ad2 1dbe 1647 81bd ebef 8dbd b26e bb3c
00000010: d49d bd3b c59d 9bbd f785 033c 87bf d5bd
00000020: 0dcc 023f 6315 c83e cc2f bcbc 9e2c 73bb
00000030: 8a2b 0ebc b859 01be cf36 31be d374 11be
00000040: bbf9 69be d558 e039 af36 ac3c 0812 0ebd
00000050: dded fc3d 8014 c2bd 6a2b 27be e0e0 57b7
00000060: da87 553d e62b a93e 2d1c 013d b181 18bd
00000070: 7619 863d 28bd ad3e cc5d 96bd a1a1 f83b
00000080: b07b cd3e 44f3 b23d fc76 fabd 3a0a 46be
00000090: 97b0 253e cca4 e93c d0f6 74bd e0be 833d
000000a0: 1eff 843c 0860 46be 013c 5cbe 0442 743e
000000b0: 6276 5fbe 295b 03be 6eef 573d c0cb f93c
000000c0: f146 6ebd 94f6 cebd a1d0 b3bd 17f2 543c
000000d0: c7b0 14be 1819 8abe 4609 2ebe a9bd 35bc
000000e0: 70d7 983d 0a14 09be d2c2 053d 0ccb 913e
000000f0: 8d4e 40be 324e 773e 7ffc 6b3e 186b 23be
00000100: 924d 66be 4f90 a7be a85b 01be 2465 09be
00000110: ae8a a0bd b82d 66be 02ca 963d 3538 83bd
00000120: 5e8c 35bf 5722 fbbe cae2 803e 8f6f 413e
00000130: 1240 5dbd b380 e8bd 3437 a1bb 8a4a 8d3b
00000140: 9f57 94be 3d25 f2bd f406 00be 2ec0 d73b
00000150: ff6b 43be c652 323d b47d 16be fccf 7fbe
00000160: f8b5 113d f1ac 2fbe 9309 ea3d e988 033d
00000170: 474f 64bd d517 c0be 78f6 07be 92bc 27bd
00000180: bf1f a6be fb46 b3bd f33f 0bbe 033e b4bd
00000190: c40c e5bd eb0e 113d 81af 433c c59f 853e
000001a0: 7c5e 123e b06b 813d f456 b4bd d3c9 063e
000001b0: 2d69 593c 29be 4f3c c4fc 78bd 3653 833b
000001c0: 6936 5cbe ec17 573d 2a2f 5ebe 1bb3 b5bd
000001d0: d718 66bd 629b 3d3d 7bc1 f3bc d0c6 9abc
000001e0: c776 23be cd2f 4cbe 037a 4abe 0462 be3e
000001f0: 640a a23d 8738 21bf f024 69be f4ee d8bd
00000200: c330 c7bc 5ae7 303d 077e 21be 49c4 40be
00000210: 7ce0 9dbd 0527 02be 9585 f9bd f444 09be
00000220: 723d 2b3c a350 723d 331e 153e 334d cdbc
00000230: f7c4 413e 336d b5bd 1eed 163e c9f3 11be
00000240: 4b47 033d cda6 013e dc60 88bc a004 2f3e
00000250: 12c8 043e 9dfd 16bd 0ba2 043e fb9a 8f3d
00000260: ad26 c33d acb7 843d 2612 75bd 1d17 02be
00000270: a983 59bc 2bfc 883c dd68 11be 1246 023e
00000280: 08a6 31bc 0c4d a73d f6bb 49be e48d 2dbe
00000290: daf2 163d cc2f 47bc 253c 2ebe b5db 643d
000002a0: 3804 1bbe 9ddb 383e be5d a73d d73f 913d
000002b0: 33d0 d43d 860d b33c b20d 8a3e 318d e13d
000002c0: 710e 453d e9d6 b03d ba1c 753d 0879 82be
000002d0: 8af0 7cbe 9aa6 c73d 14e1 4ebe 4892 d8bd
000002e0: 8301 e5bc 8cd8 003c 2c64 56be 5e59 943e
000002f0: 1306 c4bc 3b40 04be 0384 c33d 8b60 dfbd
00000300: 44ba 16be ee1b 18be 41b3 8fbd 29a5 97bd
00000310: 9e8e 49be 630b 47be 5fd6 96bb 2e21 81be
00000320: 337e f63e b033 0d3f bf11 8ebd 5f98 33be
00000330: bea9 b6bd bb7e 30be fc5f 37be 9da4 3abe
00000340: fc9c 0fbe 830d 0fbc 173c f8bd 6219 43be
00000350: a686 71bd 9de6 513d de10 4abd 9956 13be
00000360: 8e3c 39be 23f5 193d f458 4d3d 436d 5cbe
00000370: 461c 49bc 3b55 5d3e e019 8fbd fddd 913d
00000380: 2211 8c3e ce6e 103d 2a00 1dbe 9014 17be
00000390: 7e1a 023e de13 be3c 4c13 7bbe e6a7 86bd
000003a0: 4a43 36be dab3 d2bd 9a19 22be d0b0 db3c
000003b0: edaf 49be 351d 3abe 53a3 b3bc d248 89be
000003c0: ed54 4fbe 9e49 e4bc bb50 a83d 15dc aebd
000003d0: 6b38 f7bd 84d9 69be f8a1 29bc 5b1a dabd
000003e0: c16a fb3d 07cc d0bd 2cd1 f1bd d835 c43c
000003f0: 8952 a0bc f66c 7d3e a9bc 273e b838 5dbd

lstm.bias_hh_l1 f4 [256]
0.0010268744 -0.2598256 -0.07393214 0.0108794635 -0.039206516 -0.15157808 -0.025715856 -0.0918945
0.3758779 0.40061042 -0.13653164 0.009101213 -0.098138146 -0.054340567 -0.09132829 -0.1485881
-0.14307107 0.11621254 -0.017671602 -0.19736753 -0.06620901 -0.019355983 -0.026851796 -0.13051634
-0.15976302 0.15917513 -0.058858402 -0.18407397 0.15882307 0.4531042 -0.13582085 -0.09382372
0.3255815 -0.058780447 -0.14256096 -0.059037905 0.010768104 -0.15469143 -0.04083664 -0.048039746
-0.1081346 0.030994566 -0.16560857 0.2460039 -0.24383289 -0.22419456 0.026571942 -0.17746246
-0.29840618 0.121625565 -0.08900986 -0.057058726 -0.16800289 -0.18928163 0.057949416 -0.004070803
0.07173715 -0.27403837 0.04119827 0.2862087 -0.10340285 0.26353344 0.09225189 -0.19173887
-0.12587006 -0.1356919 -0.18687153 -0.11226682 -0.17986621 -0.25021023 0.09570171 -0.07805212
-0.6954343 -0.54888487 0.1618319 0.117636666 -0.23314603 0.03210215 0.052468445 0.038043447
-0.11929187 -0.083281964 -0.07454173 0.08455088 -0.08524718 0.012048892 -0.00996103 -0.28760555
-0.16393384 -0.1815805 0.22159615 -0.15646942 -0.13647872 -0.4138122 -0.13689888 -0.025030805
-0.4846982 -0.2211613 -0.057877056 -0.27003658 -0.21035391 0.04750586 -0.12843707 0.23153642
0.08987837 -0.017025284 -0.2439451 0.22561434 -0.058171894 0.11639507 -0.08178848 -0.1216383
-0.24814574 -0.057176698 -0.10346595 0.007140519 -0.02656187 -0.13903269 -0.13014911 -0.061742935
-0.036636863 -0.19966243 -0.102984175 0.4940666 -0.13544184 -0.70624906 -0.31504726 -0.20369169
-0.11354208 0.20447524 -0.1929108 -0.05296727 -0.068563595 -0.20985837 -0.21945682 -0.18174097
0.13178068 -0.090058625 0.17143571 -0.11730826 0.13418248 -0.06153872 0.10563121 -0.10507655
-0.12522505 0.054975435 -0.09129415 0.12707092 -0.08943823 -0.20135874 0.013186101 0.017653767
0.19467519 0.09036371 -0.1921418 -0.018460136 0.07039793 -0.06422151 -0.25700065 0.14573002
-0.08658705 0.11557655 -0.06945883 -0.05335472 0.06682888 -0.20358567 -0.1395656 0.10424314
-0.15413734 0.080834724 0.09114063 0.2731746 0.010406904 -0.17593825 0.41056132 0.068211354
-0.12161174 -0.018726066 0.006210785 -0.31723073 -0.06720646 0.08876093 -0.12566738 -0.22452885
-0.076314844 -0.04523672 -0.07503319 0.20711155 0.013473028 0.043718506 -0.08883525 -0.1501423
0.03311286 -0.2560998 -0.2640919 -0.17890236 -0.14879306 -0.04777756 -0.10671429 -0.059549116
0.54927015 0.35953707 0.03156255 -0.14813648 -0.16148981 -0.25216162 -0.19428414 -0.12090784
-0.27236354 0.046864398 -0.09920727 -0.13486825 -0.00719814 0.02426355 -0.027751211 -0.07923219
-0.1808567 0.11412307 -0.073854335 -0.159535 0.14910807 0.33858377 -0.14553225 -0.035149522
0.4309696 0.06730428 -0.050860025 -0.16850722 0.1533252 -0.13203378 -0.2059266 0.11516376
-0.18485516 -0.10691552 -0.2108872 -0.038402718 -0.13343485 -0.059704877 -0.039784327 -0.2568272
-0.13829492 -0.10218111 0.09586974 -0.12150962 -0.18964998 -0.22442448 -0.07658032 -0.03359725
0.13161707 -0.10071962 0.023545766 0.042703185 -0.12884153 0.123296455 0.20533763 -0.22879654
00000000: 3098 863a dc07 85be bc69 97bd c73f 323c
00000010: 0397 20bd 4937 1bbe 0faa d2bc 2f33 bcbd
00000020: 1173 c03e cf1c cd3e f3ce 0bbe 411d 153c
00000030: a7fc c8bd 3794 5ebd 540a bbbd 7b27 18be
00000040: 3981 12be d700 ee3d 09c4 90bc b71a 4abe
00000050: 9798 87bd 7090 9ebc 4cf8 dbbc 13a6 05be
00000060: eb98 23be cefe 223e 8215 71bd e37d 3cbe
00000070: 84a2 223e 46fd e73e 9f14 0bbe a726 c0bd
00000080: 9eb2 a63e c4c3 70bd 80fb 11be bbd1 71bd
00000090: b46c 303c 6e67 1ebe 5244 27bd 53c5 44bd
000000a0: ac75 ddbd 51e8 fd3c 4b95 29be 72e8 7b3e
000000b0: 54af 79be 4293 65be 67ad d93c b8b8 35be
000000c0: b2c8 98be d316 f93d cd4a b6bd 69b6 69bd
000000d0: f308 2cbe 0bd3 41be 5e5c 6d3d 5f64 85bb
000000e0: edea 923d c24e 8cbe 84bf 283d f289 923e
000000f0: e0c4 d3bd dbed 863e 8fee bc3d 3257 44be
00000100: 15e4 00be d1f2 0abe 405b 3fbe 26ec e5bd
00000110: d92e 38be 8e1b 80be 42ff c33d cad9 9fbd
00000120: fb07 32bf b883 0cbf 43b7 253e 7eeb f03d
00000130: d5bd 6ebe 8b7d 033d 27e9 563d 72d3 1b3d
00000140: 4c4f f4bd bc8f aabd 56a9 98bd 0329 ad3d
00000150: 1396 aebd b768 453c 9733 23bc 0941 93be
00000160: 46de 27be 3df0 39be 1aea 623e 8539 20be
00000170: 14c1 0bbe 31df d3be 382f 0cbe 670d cdbc
00000180: 5d2a f8be 1c78 62be 7e10 6dbd 3c42 8abe
00000190: 0467 57be 8195 423d 0285 03be e217 6d3e
000001a0: 2712 b83d 9c78 8bbc bfcc 79be 7207 673e
000001b0: a745 6ebd 8a60 ee3d b880 a7bd 801d f9bd
000001c0: eb19 7ebe 1d32 6abd f5e5 d3bd 04fb e93b
000001d0: 4798 d9bc 965e 0ebe cf45 05be 29e6 7cbd
000001e0: 8910 16bd 4f74 4cbe 5ee9 d2bd 4cf6 fc3e
000001f0: 44b1 0abe bdcc 34bf e04d a1be 8e94 50be
00000200: c088 e8bd f561 513e 698a 45be 35f4 58bd
00000210: 126b 8cbd 1de5 56be 4ab9 60be 4e1a 3abe
00000220: 84f1 063e a870 b8bd d88c 2f3e 503f f0bd
00000230: 2267 093e 0610 7cbd 2d55 d83d 6032 d7bd
00000240: ff3a 00be ec2d 613d 6df8 babd e11e 023e
00000250: 642b b7bd fc30 4ebe 840a 583c a29e 903c
00000260: ef58 473e 9c10 b93d d2c0 44be b639 97bc
00000270: ca2c 903d 9186 83bd 9795 83be 403a 153e
00000280: 8d54 b1bd 66b3 ec3d 6e40 8ebd 7b8a 5abd
00000290: 94dd 883d c378 50be 49ea 0ebe 6d7d d53d
000002a0: 2ed6 1dbe ad8c a53d f0a7 ba3d 8bdd 8b3e
000002b0: b881 2a3c 2829 34be 1835 d23e 65b2 8b3d
000002c0: 930f f9bd 6867 99bc d783 cb3b 116c a2be
000002d0: 8aa3 89bd 4ac8 b53d f3ae 00be e4ea 65be
000002e0: f54a 9cbd 244a 39bd 00ab 99bd 0d15 543e
000002f0: fabd 5c3c 2d12 333d 41ef b5bd e7be 19be
00000300: 5aa1 073d 831f 83be 0e37 87be 2e32 37be
00000310: 355d 18be 67b2 43bd 068d dabd c6e9 73bd
00000320: f89c 0c3f 3e15 b83e bc47 013d 17b1 17be
00000330: 965d 25be 541b 81be 6cf2 46be 889e f7bd
00000340: 3c73 8bbe e2f4 3f3d 2e2d cbbd e71a 0abe
00000350: 60de ebbb 5ac4 c63c 8256 e3bc 7d44 a2bd
00000360: 8032 39be 5bb9 e93d f140 97bd 255d 23be
00000370: c9af 183e da5a ad3e 6806 15be f2f8 0fbd
00000380: 0ca8 dc3e d4d6 893d 9a52 50bd 288d 2cbe
00000390: 4801 1d3e dd33 07be 6cde 52be fada eb3d
000003a0: ac4a 3dbe 86f6 dabd d0f2 57be 2b4c 1dbd
000003b0: 25a3 08be 1a8d 74bd e4f4 22bd db7e 83be
000003c0: 2f9d 0dbe 5444 d1bd 5b57 c43d 09da f8bd
000003d0: 9b33 42be 88cf 65be 25d6 9cbd 459d 09bd
000003e0: a0c6 063e 1746 cebd 0de3 c03c 89e9 2e3d
000003f0: 09ef 03be da82 fc3d 0744 523e a449 6abe
