data/models/btcANDeth_lstm.pth (torch, 206133 bytes, 9 tensors)

lstm.weight_ih_l0 f4 [256, 1]
-0.050539266 0.09409038 -0.014476993 0.123249315 0.10535637 0.11115809 -0.06058789 0.09122168
0.13651185 0.19566016 -0.16699095 0.06305015 0.08404401 -0.19933803 0.03910885 0.124431245
0.014889901 -0.09615542 -0.08322829 0.120010495 0.17303017 0.12268526 -0.1948914 -0.023713503
0.085249335 0.039351713 0.1424357 0.07610817 -0.16097738 -0.03645426 0.07370811 0.00104907
0.1336365 -0.2300975 0.035208732 0.089110866 0.046623047 0.07994528 -0.06802464 -0.06502526
-0.22454458 0.04009508 0.1988928 -0.12783474 -0.015437445 -0.026520202 -0.12426943 0.15921444
-0.079909064 0.122693546 -0.13402827 -0.0016212715 0.039850883 0.017219523 0.022948997 -0.025961787
0.07741576 0.11714266 -0.042411666 0.046986483 0.09132689 -0.07459097 -0.1050141 0.014526174
-0.026513023 0.05696813 0.0151701635 0.24797888 0.13029628 -0.113046154 0.09150848 0.13524546
-0.065082096 0.21843024 -0.20090261 0.14650677 0.061555073 -0.084378086 0.057847954 0.18605748
-0.0989652 0.05383853 0.07488037 -0.19720104 0.030256638 0.21680696 -0.122518495 -0.15611748
-0.0074772644 -0.014829308 -0.02580304 0.0703187 0.034680005 -0.0664185 -0.012439631 0.011879772
0.14561044 -0.10905183 0.14826372 0.17392918 -0.017374959 0.048480034 0.1039115 -0.17937246
-0.0072275866 -0.09261292 0.22394906 -0.10512173 0.011652281 0.03697914 -0.06848376 0.19138062
-0.08906661 -0.011074904 -0.14950311 0.16018756 -0.04062192 -0.18864138 -0.06751013 0.076182105
-0.0035925354 0.12862174 0.08354555 0.15785232 0.063023895 -0.13413282 -0.0851592 0.043689083
-0.15986206 0.22739197 -0.093545005 -0.22906454 -0.03714886 -0.20537701 0.119386435 0.033944767
0.18461303 -0.17628333 0.15355077 0.006269175 -0.19770202 0.18422925 -0.04677752 0.21182586
0.1358159 0.18255745 0.16538289 -0.18313557 0.17542021 -0.1258367 0.17554072 -0.11537268
0.21924919 0.19445463 0.17230663 -0.17717478 -0.03317803 -0.14669117 -0.22880186 -0.069946684
-0.19369537 0.24529415 0.20870712 -0.08736455 0.16095987 0.2029007 -0.14995483 0.23506501
-0.11710415 0.26734748 -0.181833 0.12695593 0.2113808 -0.1289693 -0.14020656 -0.15392661
0.22426791 0.20990756 0.1995322 0.12976536 -0.25552493 0.22468571 -0.13009492 -0.097040914
-0.15719835 0.19194598 0.12819909 -0.07488801 -0.19308212 0.0653762 0.0739712 0.102655105
-0.0012473677 0.07924466 0.18243489 0.2565766 0.029646989 0.003662392 -0.0021798052 0.07000349
0.18619052 0.20209885 -0.22823855 0.090968594 0.23256634 -0.19775525 0.16741772 0.2167826
-0.12993482 0.03432431 -0.10604152 0.002740617 0.20626092 0.14608292 -0.1038529 -0.0437732
0.11535205 0.08410809 0.15053973 -0.0009064878 0.01194226 -0.19979753 0.012917001 -0.08701977
0.11315792 -0.22482003 0.18818177 0.06573014 0.057354562 0.11463174 0.041507002 0.049105156
-0.21873055 0.04404789 0.19554558 0.008891918 0.028847644 0.014970257 -0.20239817 0.18254253
0.053801063 0.05286073 -0.19291748 0.19545063 0.22678612 -0.112597495 0.0026429375 -0.035173014
0.17671634 0.072357364 -0.13740431 0.10811221 0.08030842 -0.09306663 -0.115824 0.13536534
00000000: 4302 4fbd 75b2 c03d e930 6dbc 236a fc3d
00000010: 15c5 d73d daa6 e33d 022b 78bd 6fd2 ba3d
00000020: c3c9 0b3e 235b 483e adff 2abe 7020 813d
00000030: 441f ac3d 451f 4cbe 9a30 203d cfd5 fe3d
00000040: c5f4 733c 22ed c4bd 9873 aabd 10c8 f53d
00000050: d22e 313e 6942 fb3d 9c91 47be d242 c2bc
00000060: 3497 ae3d 432f 213d aada 113e 9ade 9b3d
00000070: 41d7 24be 1051 15bd 47f4 963d f380 893a
00000080: 02d8 083e ae9e 6bbe 0837 103d c27f b63d
00000090: cff7 3e3d 5aba a33d 8150 8bbd f72b 85bd
000000a0: 04ef 65be bd3a 243d 8eaa 4b3e 1ce7 02be
000000b0: 56ed 7cbc e540 d9bc f980 febd 1c09 233e
000000c0: 5da7 a3bd c146 fb3d b53e 09be d880 d4ba
000000d0: ae3a 233d f50f 8d3c 89ff bb3c d0ad d4bc
000000e0: 278c 9e3d 7ee8 ef3d dbb7 2dbd e674 403d
000000f0: 9809 bb3d 27c3 98bd a211 d7bd 31ff 6d3c
00000100: d731 d9bc 6a57 693d 478c 783c 2dee 7d3e
00000110: 636c 053e be84 e7bd cc68 bb3d c97d 0a3e
00000120: c349 85bd 2dac 5f3e 6ab9 4dbe df05 163e
00000130: 2c21 7c3d 6bce acbd faf1 6c3d da85 3e3e
00000140: 44ae cabd ca85 5c3d e15a 993d 12ef 49be
00000150: c5dc f73c a502 5e3e faea fabd 43dd 1fbe
00000160: d703 f5bb a0f6 72bc e660 d3bc 4003 903d
00000170: 9f0c 0e3d 6c06 88bd 98cf 4bbc 60a3 423c
00000180: e71a 153e 9156 dfbd 72d2 173e 7e1a 323e
00000190: ee55 8ebc 0093 463d 8dcf d43d 6aad 37be
000001a0: 64d5 ecbb d8ab bdbd e752 653e 104a d7bd
000001b0: 35e9 3e3c 7077 173d 3741 8cbd 48f9 433e
000001c0: 8e68 b6bd 8473 35bc 5817 19be 3508 243e
000001d0: 2c63 26bd 352b 41be c042 8abd 5d05 9c3d
000001e0: be70 6bbb 6bb5 033e ee19 ab3d 0aa4 213e
000001f0: ac12 813d 1d5a 09be f267 aebd 53f3 323d
00000200: e1b2 23be 71d9 683e 8694 bfbd e58f 6abe
00000210: 6729 18bd 5a4e 52be e080 f43d ab09 0b3d
00000220: 330b 3d3e 9e83 34be 6a3c 1d3e a76d cd3b
00000230: 6672 4abe 98a6 3c3e c999 3fbd e1e8 583e
00000240: 5313 0b3e 57f0 3a3e 225a 293e e487 3bbe
00000250: 5ba1 333e 56db 00be f2c0 333e 8348 ecbd
00000260: dc82 603e 1d1f 473e 2671 303e 4e6d 35be
00000270: b0e5 07bd 3636 16be 094b 6abe 3540 8fbd
00000280: 1458 46be 642e 7b3e 52b7 553e 2fec b2bd
00000290: aad2 243e 33c5 4f3e c28d 19be e2b4 703e
000002a0: 4dd4 efbd c5e1 883e 6e32 3abe bc00 023e
000002b0: 3574 583e 8710 04be 4f92 0fbe f09e 1dbe
000002c0: 7da6 653e 02f2 563e 2b52 4c3e 36e1 043e
000002d0: 2ad4 82be 0314 663e 9a37 05be 63bd c6bd
000002e0: 9bf8 20be 7d8d 443e 9f46 033e e35e 99bd
000002f0: 52b7 45be f5e3 853d 367e 973d d73c d23d
00000300: b77e a3ba 064b a23d 36d0 3a3e 025e 833e
00000310: 3ede f23c be04 703b 10db 0ebb fd5d 8f3d
00000320: baa8 3e3e 00f3 4e3e 5eb7 69be be4d ba3d
00000330: df25 6e3e 5a80 4abe 8d6f 2b3e 42fc 5d3e
00000340: a20d 05be a697 0c3d 4c2c d9bd ec9b 333b
00000350: 1036 533e c396 153e d4b0 d4bd 874b 33bd
00000360: b23d ec3d dd40 ac3d 1627 1a3e 5ea1 6dba
00000370: 78a9 433c b997 4cbe d4a1 533c 6c37 b2bd
00000380: 57bf e73d 3937 66be b9b2 403e 869d 863d
00000390: 9eec 6a3d 0cc4 ea3d 3f03 2a3d 7d22 493d
000003a0: e7fa 5fbe 8f6b 343d 1a3d 483e 68af 113c
000003b0: e551 ec3c cf45 753c 7741 4fbe 6eec 3a3e
000003c0: 815e 5c3d 7e84 583d 298c 45be 3624 483e
000003d0: 9f3a 683e 8499 e6bd 2235 2d3b 9411 10bd
000003e0: 21f5 343e 1930 943d b7b3 0cbe ef69 dd3d
000003f0: be78 a43d b899 bebd 2235 edbd 369d 0a3e

lstm.weight_hh_l0 f4 [256, 64]
0.025738915 0.09919181 -0.073210455 0.03241511 0.008468993 -0.11694745 0.06059377 0.03366212
0.038803935 -0.010762364 0.021794306 0.049043324 -0.12345014 0.049065553 0.14470501 -0.037574116
0.14273044 0.09003656 -0.03158749 0.07056794 0.09521228 0.055224746 -0.045485903 0.029298425
0.10207675 -0.031201359 -0.081509165 -0.0385551 0.080697805 0.034318943 0.06775074 0.08754724
-0.11103953 0.060466897 -0.009499919 0.008085221 -0.065658905 0.09703958 -0.13485435 -0.022289563
-0.012317532 0.12869261 -0.06746986 0.018807333 0.11378057 -0.036341324 0.010599048 -0.00011051596
0.0050432547 0.08163709 0.12181029 -0.109029025 -0.08503867 0.079130255 -0.009196182 -0.048812665
-0.036630575 0.029410053 0.08697458 0.083647564 -0.010462826 -0.063144095 0.11865355 -0.06138453
-0.016869634 -0.029432574 -0.09902745 -0.15133388 -0.091122195 -0.01660797 -0.06839383 -0.03079884
-0.008312409 -0.14871193 -0.19000673 -0.021221967 -0.00626849 -0.08223082 -0.14515486 0.02814318
0.09292544 -0.09764387 -0.012269637 -0.10161157 -0.03544923 -0.02634138 -0.21740769 0.08314093
-0.03326499 0.045327246 -0.06675383 0.14375268 0.17143868 0.05080236 0.081299886 0.08633218
-0.12723508 -0.20439166 -0.014063851 0.07564614 0.06098614 0.09790738 -0.0091517605 -0.15345883
0.08024658 -0.016478758 -0.057089154 -0.08237642 -0.14310998 0.009530831 0.19252877 0.06311788
-0.061907407 -0.012697862 -0.14872429 -0.10889151 0.081631295 -0.04404307 0.005157416 0.082993075
0.047941893 -0.0073215063 -0.12566353 0.010586301 0.104200676 -0.15527585 -0.112537526 0.020052975
-0.022281278 -0.08004848 -0.019083073 0.0209088 -0.08371733 0.08625963 0.07508801 -0.054067772
0.043766405 -0.0068525034 -0.10933565 0.09473831 0.1252755 -0.19880643 0.06371294 0.03504936
-0.13477671 -0.035537526 0.00956218 -0.060852148 0.047808345 -0.07698852 -0.059530098 0.027849942
0.08015045 -0.11399158 0.06721032 -0.0028509072 0.016304137 0.07569898 0.13866407 0.1199511
-0.023977961 -0.040252198 -0.0108715845 -0.013119125 -0.05994196 -0.0032896637 -0.031920128 -0.12022783
0.14077923 0.13191903 0.03876664 0.012260382 -0.025880337 0.0066187275 0.11360455 0.037864465
-0.08274802 0.09887408 -0.18534757 -0.040904444 -0.051264502 0.004952998 0.058803454 0.13333459
-0.06818125 0.13195354 0.090660125 -0.058339253 0.04364758 -0.17188573 -0.011430983 -0.0043338165
0.13830476 0.072641104 -0.052890427 0.043668352 0.1331521 0.018025782 -0.006037515 -0.11592995
-0.03889265 0.01567611 -0.09246241 0.06634122 0.027464755 -0.09777481 -0.0460572 0.13620664
0.05551619 -0.108214796 0.10649974 0.075325064 0.046909537 -0.028369714 -0.22918461 0.15634738
0.024917854 0.028976012 0.08907938 0.053704124 0.07357287 0.07446716 0.20676202 0.05232914
-0.053444 -0.22855584 0.020357864 0.123541296 -0.0621518 -0.00042075687 -0.046459302 -0.20706633
0.24130325 0.010617284 0.07376016 -0.22251944 0.028375084 0.017468888 0.16490743 0.07004049
-0.041039973 0.103863105 -0.064978406 0.085507914 -0.10023938 -0.03636615 -0.056811415 -0.060079142
-0.023534307 -0.014594794 -0.19258909 -0.05959846 0.109093614 -0.105786204 0.11957604 -0.14723459
00000000: 6bda d23c 1325 cb3d 5def 95bd b5c5 043d
00000010: 88c1 0a3c 2582 efbd 2c31 783d 4be1 093d
00000020: e0f0 1e3d a054 30bc f989 b23c a7e1 483d
00000030: 6dd3 fcbd f6f8 483d 8d2d 143e 51e7 19bd
00000040: ee27 123e 1765 b83d e261 01bd ed85 903d
00000050: a8fe c23d 5833 623d 6d4f 3abd 4003 f03c
00000060: 9d0d d13d fe99 ffbc 47ee a6bd f4eb 1dbd
00000070: e444 a53d 0592 0c3d e6c0 8a3d f84b b33d
00000080: b168 e3bd 23ac 773d 8ca5 1bbc e077 043c
00000090: 2d78 86bd b0bc c63d 4217 0abe 9a98 b6bc
000000a0: 79cf 49bc ffc7 033e a32d 8abd d611 9a3c
000000b0: ca05 e93d a4da 14bd a1a7 2d3c cec4 e7b8
000000c0: e341 a53b 5931 a73d ac77 f93d 9c4a dfbd
000000d0: c128 aebd 0b0f a23d 95ab 16bc caef 47bd
000000e0: f109 16bd 5aed f03c bb1f b23d 6a4f ab3d
000000f0: 466c 2bbc b151 81bd a200 f33d 586e 7bbd
00000100: 3032 8abc 951c f1bc e7ce cabd 45f7 1abe
00000110: 469e babd 700d 88bc 1012 8cbd d94d fcbc
00000120: c530 08bc f147 18be 2091 42be b1d9 adbc
00000130: e867 cdbb a268 a8bd 7aa3 14be 878c e63c
00000140: b14f be3d 82f9 c7bd 9606 49bc ba19 d0bd
00000150: 3633 11bd e1c9 d7bc 1fa0 5ebe cb45 aa3d
00000160: df40 08bd 10a9 393d 3bb6 88bd e733 133e
00000170: 9f8d 2f3e 2316 503d 8e80 a63d edce b03d
00000180: ea49 02be 0c4c 51be 116c 66bc 5dec 9a3d
00000190: 9acc 793d aa83 c83d 44f1 15bc 5024 1dbe
000001a0: 5258 a43d 76fe 86bc 51d6 69bd f8b4 a8bd
000001b0: 6c8b 12be 3427 1c3c 4326 453e f243 813d
000001c0: 9f92 7dbd b20a 50bc 2e4b 18be 8302 dfbd
000001d0: 4f2e a73d 8266 34bd 8bff a83b 46f8 a93d
000001e0: b85e 443d 3fe9 efbb f1ad 00be 2a72 2d3c
000001f0: 2a67 d53d a200 1fbe 137a e6bd 2346 a43c
00000200: 3a87 b6bc 75f0 a3bd 1b54 9cbc ef48 ab3c
00000210: fe73 abbd e4a8 b03d bec7 993d 2b76 5dbd
00000220: 6744 333d f78a e0bb 5feb dfbd 2906 c23d
00000230: 3848 003e ea93 4bbe ee7b 823d eb8f 0f3d
00000240: e802 0abe cc8f 11bd b1aa 1c3c 1a40 79bd
00000250: afd2 433d 28ac 9dbd d5d5 73bd 9025 e43c
00000260: eb25 a43d 6b74 e9bd 90a5 893d 49d6 3abb
00000270: 4190 853c 1108 9b3d f4fd 0d3e eca8 f53d
00000280: 6e6d c4bc 7ddf 24bd bb1e 32bc 99f1 56bc
00000290: b385 75bd 6697 57bb aebe 02bd 023a f6bd
000002a0: 6e28 103e c815 073e c5c9 1e3d c5df 483c
000002b0: 0003 d4bc e9e1 d83b 81a9 e83d c517 1b3d
000002c0: cb77 a9bd 7e7e ca3d c1cb 3dbe 6b8b 27bd
000002d0: bafa 51bd c24c a23b e4db 703d dd88 083e
000002e0: 9ca2 8bbd d41e 073e 04ac b93d 24f5 6ebd
000002f0: cec7 323d d002 30be 0549 3bbc b002 8ebb
00000300: c39f 0d3e dcc4 943d a2a3 58bd 96dd 323d
00000310: 0659 083e ceaa 933c 59d6 c5bb ae6c edbd
00000320: e64d 1fbd 2f6b 803c ef5c bdbd e8dd 873d
00000330: c4fd e03c 293e c8bd 79a6 3cbd c179 0b3e
00000340: f264 633d b89f ddbd 891c da3d 0744 9a3d
00000350: 3724 403d 9a67 e8bc 5faf 6abe 8719 203e
00000360: 8720 cc3c 1a5f ed3c 406f b63d dbf8 5b3d
00000370: 5fad 963d 3d82 983d 6cb9 533e 1557 563d
00000380: 19e8 5abd 8b0a 6abe 89c5 a63c 3803 fd3d
00000390: e392 7ebd 0899 dcb9 1c4c 3ebd 3209 54be
000003a0: 3318 773e 1ef4 2d3c 910f 973d 23dc 63be
000003b0: dd72 e83c ea1a 8f3c 7edd 283e 6371 8f3d
000003c0: 8819 28bd 2eb6 d43d 6613 85bd c61e af3d
000003d0: 4e4a cdbd acf4 14bd 16b3 68bd 8c15 76bd
000003e0: 05cb c0bc 011f 6fbc 1336 45be 841d 74bd
000003f0: 796c df3d 70a6 d8bd 48e4 f43d aac4 16be

lstm.bias_ih_l0 f4 [256]
-0.0013186329 0.15713035 -0.016692756 0.015578214 -0.23992324 0.08213567 -0.1734131 -0.24779947
0.022727905 0.09610955 -0.0049328827 -0.37549192 0.037485003 -0.11260897 -0.11578968 0.084906295
-0.136915 0.11008301 -0.15754263 0.04464777 0.016370367 -0.026029017 -0.13888802 -0.23737627
0.11317789 0.09068932 -0.12208772 0.054641757 -0.3645803 -0.22675522 0.25239113 -0.34915835
-0.046688095 0.124262035 0.03620844 -0.101444766 0.079013966 0.083477676 -0.11322134 0.116903216
-0.0051879063 0.31437284 0.090356134 -0.04528027 0.13210073 -0.049412396 -0.11567196 -0.017789247
-0.07334745 0.11985794 0.06267594 -0.10023721 0.03448101 0.04954608 0.0028229437 -0.2311754
0.110421166 0.11840725 -0.10665703 -0.23567653 0.062237803 -0.21667482 -0.4126404 -0.115863115
-0.060403705 -0.12343345 -0.17086916 -0.14635454 -0.041249856 0.07452701 0.026265962 -0.16825217
-0.039885964 0.107883915 0.06242411 -0.3014441 -0.10691677 -0.010956596 -0.27436912 -0.040488012
-0.058285125 0.029224275 0.008931685 -0.006058814 -0.12236428 0.06955632 -0.100259446 -0.08933235
0.0009881762 0.08794007 -0.11639202 -0.13509764 -0.2728154 -0.083942525 -0.090029456 -0.23093495
-0.15369414 -0.13277571 -0.083857566 -0.1548171 -0.051686127 -0.077043265 -0.03274091 0.06829447
-0.17801157 -0.0068131234 0.0055889552 -0.12036602 -0.10912312 -0.22545357 0.061689056 -0.057172954
0.0904037 0.04023883 -0.06974624 -0.14387192 -0.09545331 0.052484125 0.005351864 -0.070034854
0.041986275 -0.019435931 -0.112732254 -0.15709785 0.019390985 -0.19106905 -0.30517447 -0.13346684
0.005301055 -0.025262937 -0.055271845 -0.04180107 -0.06693767 -0.060016945 -0.050680116 -0.04257519
0.036561724 -0.10668462 -0.03259191 -0.03504452 -0.055099674 -0.12318905 0.010953278 0.02927284
-0.053520102 -0.044570953 0.038718063 -0.0016721324 0.0028133416 -0.057577156 -0.06505829 0.04141534
0.05743819 0.007619291 0.034778714 0.034961123 0.065466225 0.0010666195 -0.03637933 -0.04013862
-0.00529932 -0.052851632 -0.0528081 0.026263751 -0.02205883 0.020509496 0.112600505 -0.032582946
0.08166551 0.016274272 -0.036964264 -0.03251124 -0.10962957 0.062928215 -0.041081745 -0.07054249
0.057432007 0.0043342793 0.052362345 -0.020138988 -0.012318065 -0.09339801 -0.12066836 0.023673903
-0.0643452 0.08324318 -0.0046401746 -0.035178922 -0.04971477 -0.0049294503 0.029628271 -0.0037042946
-0.08759721 0.1720679 -0.121058404 0.06493866 -0.2938293 0.024696065 -0.106351614 -0.27289557
0.014303656 -0.0379631 0.07584628 -0.37271225 -0.08509366 -0.08698717 -0.22466968 -0.12829018
-0.04713971 0.026439609 0.013406134 0.082562126 0.07989568 0.0070355423 -0.069529705 -0.14867495
0.067744374 -0.017912038 0.094264545 -0.02617604 -0.33265007 -0.21438 0.18213022 -0.5100364
0.051269032 0.10582628 0.15603651 0.036851116 -0.019311287 0.091926396 -0.061115466 0.026006369
-0.093415864 0.32534096 0.13612725 -0.1608532 0.067082904 -0.13751197 -0.0012238254 0.09042029
0.07587787 0.09072322 0.1112077 0.038861867 0.018730506 0.027027713 -0.018903872 -0.0787997
-0.02486126 -0.09953224 -0.020023549 -0.0825963 0.09294952 -0.23144026 -0.40715173 -0.08214719
00000000: fad5 acba c7e6 203e 3fbf 88bc c43b 7f3c
00000010: 70ae 75be bf36 a83d 3493 31be 25bf 7dbe
00000020: df2f ba3c 15d5 c43d 05a4 a1bb 7a40 c0be
00000030: e089 193d 889f e6bd 2423 edbd 5ae3 ad3d
00000040: 7233 0cbe 3373 e13d db52 21be 94e0 363d
00000050: 261b 863c ce3a d5bc a938 0ebe c412 73be
00000060: cfc9 e73d 52bb b93d 2009 fabd 09d0 5f3d
00000070: 45aa babe 8532 68be 6939 813e e2c4 b2be
00000080: 043c 3fbd 187d fe3d 4d4f 143d 46c2 cfbd
00000090: 13d2 a13d 58f6 aa3d 97e0 e7bd f46a ef3d
000000a0: 50ff a9bb 7af5 a03e a30c b93d ce77 39bd
000000b0: 6a45 073e a764 4abd 6ce5 ecbd c1ba 91bc
000000c0: 3037 96bd 1478 f53d 3e5c 803d 2b49 cdbd
000000d0: f63b 0d3d d5f0 4a3d 2301 393b 3eb9 6cbe
000000e0: 7e24 e23d 807f f23d 006f dabd 3055 71be
000000f0: 11ed 7e3d 01e0 5dbe 9a45 d3be a449 edbd
00000100: e069 77bd adca fcbd 53f8 2ebe f7dd 15be
00000110: 9cf5 28bd 9ea1 983d b72b d73c 4c4a 2cbe
00000120: 775f 23bd 3ef2 dc3d 6cb0 7f3d e256 9abe
00000130: 2ef7 dabd 4b83 33bc 1c7a 8cbe c2d6 25bd
00000140: 62bc 6ebd bf67 ef3c 3456 123c 0489 c6bb
00000150: 209a fabd 8b73 8e3d d354 cdbd e1f3 b6bd
00000160: b185 813a ec19 b43d f05e eebd 0957 0abe
00000170: 76ae 8bbe 0fea abbd 5d61 b8bd 367a 6cbe
00000180: ff61 1dbe 5bf6 07be 84bd abbd 6088 1ebe
00000190: d5b4 53bd dcc8 9dbd 551b 06bd f9dd 8b3d
000001a0: aa48 36be 9f40 dfbb 8e23 b73b 7682 f6bd
000001b0: f17b dfbd 4ddd 66be aaad 7c3d 302e 6abd
000001c0: 9325 b93d 79d1 243d 1ed7 8ebd 2953 13be
000001d0: 067d c3bd 98f9 563d b05e af3b 6f6e 8fbd
000001e0: cdf9 2b3d 1a38 9fbc 2be0 e6bd 42de 20be
000001f0: d8d9 9e3c 9ba7 43be d43f 9cbe 88ab 08be
00000200: 79b4 ad3b 38f4 cebc bb64 62bd 9937 2bbd
00000210: 9e16 89bd 54d4 75bd f495 4fbd 5363 2ebd
00000220: bfc1 153d 777d dabd 187f 05bd d88a 0fbd
00000230: 32b0 61bd 8a4a fcbd 6175 333c 98cd ef3c
00000240: e537 5bbd 0890 36bd d596 1e3d 742b dbba
00000250: 0a60 383b 06d6 6bbd 483d 85bd 22a3 293d
00000260: 4f44 6b3d 3fab f93b 2074 0e3d 6533 0f3d
00000270: 2813 863d d0cd 8b3a 7e02 15bd 6568 24bd
00000280: eba5 adbb f47a 58bd 4e4d 58bd 1427 d73c
00000290: b8b4 b4bc 8803 a83c 189b e63d b275 05bd
000002a0: 3f40 a73d 9f51 853c d767 17bd 822a 05bd
000002b0: 7885 e0bd 82e0 803d 5545 28bd 9578 90bd
000002c0: d33d 6b3d 9206 8e3b e679 563d 85fa a4bc
000002d0: b6d1 49bc 7547 bfbd f920 f7bd c6ef c13c
000002e0: 6bc7 83bd 667b aa3d 9b0c 98bb c617 10bd
000002f0: b7a1 4bbd 3a87 a1bb fdb6 f23c c0c3 72bb
00000300: 2b66 b3bd 9132 303e 78ed f7bd 8ffe 843d
00000310: cb70 96be 674f ca3c e0ce d9bd f8b8 8bbe
00000320: e259 6a3c 327f 1bbd 4b55 9b3d 24d4 bebe
00000330: 9645 aebd 5426 b2bd cf0f 66be 805e 03be
00000340: 9215 41bd e197 d83c 67a5 5b3c 5516 a93d
00000350: 59a0 a33d 688a e63b 9765 8ebd 3f3e 18be
00000360: 90bd 8a3d 44bc 92bc c50d c13d 226f d6bc
00000370: 1c51 aabe 6e86 5bbe 5880 3a3e bf91 02bf
00000380: 7aff 513d 73bb d83d 09c8 1f3e 32f1 163d
00000390: b432 9ebc e843 bc3d 3654 7abd 4f0b d53c
000003a0: d150 bfbd 1793 a63e f164 0b3e b4b6 24be
000003b0: c362 893d f0cf 0cbe c468 a0ba 462e b93d
000003c0: db65 9b3d 18cd b93d ddc0 e33d 9f2d 1f3d
000003d0: b870 993c 3969 dd3c 4bdc 9abc bd61 a1bd
000003e0: d7a9 cbbc 8fd7 cbbd 6d08 a4bc 4028 a9bd
000003f0: 515c be3d adfe 6cbe 3176 d0be c93c a8bd

lstm.bias_hh_l0 f4 [256]
-0.020819 0.03547684 -0.13895983 0.1093366 -0.13166444 0.012177185 -0.09385148 -0.35363457
-0.0500678 -0.03134774 -0.0023518675 -0.43081164 0.06494627 0.004153747 -0.27156842 0.094136596
-0.11036225 0.1001293 -0.09449896 -0.08081906 -0.079316534 -0.04774915 -0.0035428444 -0.21436471
0.106026776 -0.10463852 0.06659797 0.06402245 -0.38685486 -0.2697619 0.018963106 -0.47292066
0.023530042 0.091190286 0.20725591 -0.019829247 -0.050205622 -0.08042547 -0.1528126 0.15671891
1.7742292e-05 0.2811954 -0.03484937 0.057551347 0.090530336 -0.1689159 -0.027526796 -0.052593313
-0.015570537 0.030767333 0.040878534 -0.026725503 0.01071325 -0.09137984 0.0069339066 -0.16175136
-0.016949574 0.086373046 -0.122683406 -0.12652883 -0.07867928 -0.014435706 -0.41203386 -0.22106563
-0.12657231 0.10867124 0.036910687 -0.11772787 -0.22743316 0.06578767 0.059021324 -0.30776095
0.00021702267 -0.11993119 -0.09183341 -0.34319353 0.12231362 -0.06464506 -0.08340337 6.528415e-05
-0.034965746 0.057012238 -0.1949059 -0.12760557 0.09232089 0.098689474 -0.008198503 -0.21488115
0.011992332 0.07552382 0.036918715 -0.13949208 -0.35353974 -0.11148777 -0.043590095 -0.24757972
0.06601901 -0.05159557 -0.112476334 0.027124485 -0.102798074 0.029882053 -0.16238004 -0.07519943
0.03126655 0.067915164 -0.079115465 0.0013258338 -0.0058871615 -0.16585533 -0.17436187 -0.1381175
-0.047946602 -0.015411594 0.0976492 -0.07331461 -0.085929975 0.13353695 -0.12701061 -0.07238508
-0.07680517 0.06361709 -0.276339 0.004094799 0.05309027 0.023632573 -0.5208969 -0.010904279
0.008062547 0.029282283 0.05706579 -0.016789973 0.070057064 0.06554953 0.04189387 0.041012775
-0.062420312 0.08289393 -0.0691919 0.04159619 0.004002375 0.031551868 -0.014108562 0.04410086
0.05898386 0.037262097 -0.04271399 0.026790163 -0.0018913011 0.06435464 -0.018884992 -0.01292936
-0.092727564 -0.014126064 -0.022669636 -0.05355299 -0.046498768 0.027770769 0.08068136 0.03419925
-0.0014009232 0.0079134535 0.069041 -0.013878372 0.02160982 -0.004983463 -0.089964926 -0.013913607
-0.084159456 -0.044289324 -0.0088602565 -0.0021557475 0.09432109 -0.059820622 0.080012314 -0.009532914
-0.07317765 -0.028612861 -0.09955772 0.026305089 -0.03915671 0.056947965 0.12307943 -0.021080043
0.07563158 -0.11110045 0.0009925304 0.03164687 0.007534589 -0.007918311 -0.03871356 0.007191019
-0.094569184 0.073597915 -0.03725117 -0.07758849 -0.1637591 0.056258235 -0.14049274 -0.14807293
-0.08402194 -0.015256207 -0.0839429 -0.42963916 -0.053635284 0.115824535 -0.32575592 -0.12628824
-0.2131853 0.0120747825 -0.11376465 0.087143116 0.06607311 -0.11443831 0.0016147947 -0.28442574
0.01608799 0.065352835 -0.030254107 -0.07670487 -0.19485222 -0.19174096 0.038037013 -0.483805
0.10224417 0.102496706 0.108688116 -0.13384055 -0.01425695 0.06535891 -0.15403366 0.05606287
0.047232423 0.31753966 0.07490535 -0.10112527 -0.053651854 0.044870548 -0.08092347 -0.10063937
0.004104843 0.19348289 -0.01536469 0.03529836 -0.003377277 -0.0741209 0.050682902 -0.19003282
-0.06472067 -0.041077144 -0.04971741 -0.08020191 0.09035028 -0.08622992 -0.46696535 -0.17749277
00000000: 9c8c aabc 2a50 113d 7c4b 0ebe deeb df3d
00000010: 0bd3 06be d182 473c 3435 c0bd 970f b5be
00000020: e513 4dbd 7d66 00bd ca21 1abb 5893 dcbe
00000030: 8d02 853d 281c 883b 040b 8bbe b0ca c03d
00000040: 9a05 e2bd 9710 cd3d ac88 c1bd 7784 a5bd
00000050: b570 a2bd 9d94 43bd 112f 68bb 6c82 5bbe
00000060: 9124 d93d b84c d6bd 8464 883d 341e 833d
00000070: d711 c6be 3b1e 8abe 8458 9b3c a822 f2be
00000080: 13c2 c03c f9c1 ba3d e53a 543e f270 a2bc
00000090: 69a4 4dbd 1cb6 a4bd e87a 1cbe ec7a 203e
000000a0: 48d5 9437 d8f8 8f3e 37be 0ebd f6ba 6b3d
000000b0: f867 b93d 4af8 2cbe e07f e1bc 166c 57bd
000000c0: 911b 7fbc c60b fc3c 4070 273d 71ef dabc
000000d0: a186 2f3c 5b25 bbbd d335 e33b 26a2 25be
000000e0: d5d9 8abc 5ae4 b03d 7041 fbbd c690 01be
000000f0: 9a22 a1bd bd83 6cbc 1af6 d2be 075f 62be
00000100: 2c9c 01be 078f de3d a92f 173d 4f1b f1bd
00000110: 3de4 68be b0bb 863d 58c0 713d d892 9dbe
00000120: 9490 6339 7c9e f5bd 2813 bcbd 10b7 afbe
00000130: 907f fa3d a164 84bd 63cf aabd 29e9 8838
00000140: 3e38 0fbd aa85 693d 6a95 47be 09ab 02be
00000150: bc12 bd3d b51d ca3d 0453 06bc ce09 5cbe
00000160: 7c7b 443c 3cac 9a3d 1438 173d 03d7 0ebe
00000170: 2903 b5be b353 e4bd 878b 32bd 8a85 7dbe
00000180: fa34 873d e055 53bd fe59 e6bd 2b34 de3c
00000190: cc87 d2bd 35cb f43c f446 26be 2902 9abd
000001a0: 5b11 003d 1b17 8b3d 4a07 a2bd 9ac7 ad3a
000001b0: 17e9 c0bb fbd5 29be eb8b 32be ad6e 0dbe
000001c0: a863 44bd e980 7cbc 4efc c73d f825 96bd
000001d0: 0efc afbd e9bd 083e 120f 02be a13e 94bd
000001e0: 074c 9dbd ad49 823d 4e7c 8dbe aa2d 863b
000001f0: 2f75 593d 1999 c13c 8059 05bf dca7 32bc
00000200: c618 043c 66e1 ef3c d1bd 693d 208b 89bc
00000210: 147a 8f3d d53e 863d e898 2b3d 03fd 273d
00000220: 71ac 7fbd 4bc4 a93d 7cb4 8dbd c460 2a3d
00000230: 5b26 833b 883c 013d 9927 67bc 1aa3 343d
00000240: 0f99 713d 24a0 183d ddf4 2ebd 0b77 db3c
00000250: 89e5 f7ba 5ecc 833d b3b4 9abc abd5 53bc
00000260: f3e7 bdbd 0271 67bc acb5 b9bc 615a 5bbd
00000270: 7e75 3ebd 867f e33c 453c a53d 8314 0c3d
00000280: 2f9f b7ba 6ea7 013c 5e65 8d3d 1c62 63bc
00000290: 1407 b13c 514c a3bb 883f b8bd e6f5 63bc
000002a0: cb5b acbd b968 35bd 9c2a 11bc 7147 0dbb
000002b0: 6a2b c13d 7806 75bd 7fdd a33d f02f 1cbc
000002c0: 2ade 95bd 8565 eabc ebe4 cbbd c57d d73c
000002d0: c962 20bd 4542 693d 1111 fc3d 0eb0 acbc
000002e0: bbe4 9a3d a288 e3bd cb17 823a 26a0 013d
000002f0: b7e4 f63b cebb 01bc 1c92 1ebd a4a2 eb3b
00000300: 7dad c1bd 81ba 963d af94 18bd b7e6 9ebd
00000310: 77b0 27be 096f 663d 54dd 0fbe 6ea0 17be
00000320: b213 acbd 2cf5 79bc 41ea abbd aaf9 dbbe
00000330: acb0 5bbd 6a35 ed3d 7bc9 a6be b451 01be
00000340: 3f4d 5abe 4fd5 453c 71fd e8bd 1778 b23d
00000350: 5751 873d a25e eabd 85a7 d33a 40a0 91be
00000360: f6ca 833c b5d7 853d 76d7 f7bc 7117 9dbd
00000370: 5787 47be be57 44be b3cc 1b3d 4ab5 f7be
00000380: 6465 d13d cbe9 d13d e097 de3d 7f0d 09be
00000390: fb95 69bc e4da 853d 00bb 1dbe 2ea2 653d
000003a0: c976 413d 8f94 a23e fa67 993d c41a cfbd
000003b0: 0cc2 5bbd 2eca 373d 34bb a5bd 041c cebd
000003c0: eb81 863b 6120 463e 2ebc 7bbc 0395 103d
000003d0: 4e55 5dbb b3cc 97bd e098 4f3d f797 42be
000003e0: 458c 84bd 8240 28bd 7ca4 4bbd e640 a4bd
000003f0: 9109 b93d 5099 b0bd 1516 efbe aac0 35be

lstm.weight_ih_l1 f4 [256, 64]
-0.051924534 0.06110881 -0.07864758 0.053413134 -0.06708557 -0.06515738 0.05167888 0.1367023
0.063922 -0.13561684 0.014324011 -0.14683059 -0.05067457 -0.07746093 0.011245964 -0.020903334
-0.11464221 0.1557536 -0.034110017 -0.15662998 0.021355553 -0.017420352 0.12977678 0.05239958
0.011819867 0.026587265 0.13576612 -0.117008366 -0.031792127 0.012075731 -0.19364001 -0.07157585
-0.1465714 -0.016124915 0.058825944 -0.09595936 0.01677346 -0.01426161 0.07839996 0.18928607
-0.08553669 0.19466826 -0.13302818 0.11208773 0.06673394 -0.04654745 -0.104452804 0.049310215
0.048816774 0.1084059 -0.04855809 0.13829057 -0.15571438 -0.020315856 -0.040517405 -0.01537506
-0.19563164 -0.042313043 0.10235275 0.096043445 -0.081550784 -0.08463934 -0.11929754 -0.08120525
-0.014757265 -0.04909185 -0.011439716 -0.09297437 -0.10800638 0.093938306 -0.10786641 0.069838986
0.09242501 -0.047917448 0.016053068 0.034793943 -0.10352658 -0.1537438 0.02178411 0.035687096
0.00878349 -0.14795227 -0.07984824 -0.06624573 0.11729911 -0.03724016 0.048029646 -0.08286432
0.0581524 -0.03138906 0.09382703 0.09645511 -0.008581738 -0.007888278 0.06886127 -0.034305464
-0.08313215 -0.07906395 -0.02989315 -0.087627016 -0.025255658 0.04453442 0.13440983 -0.08482039
0.13072301 0.11663778 -0.16395563 -0.08443466 0.08606309 -0.008273895 0.13965748 0.033629645
-0.0843253 0.013107868 -0.040278744 0.12711956 0.07339923 0.026380545 0.023946429 -0.09636311
-0.06745184 0.037389252 -0.053083267 -0.11950798 0.013643735 0.03369942 0.0720019 0.01978102
-0.085769884 0.08213111 -0.13499494 -0.10716956 -0.023046404 -0.06197588 0.0036273794 0.008120137
0.09225942 -0.010898728 -0.16200921 -0.13123064 -0.067061536 -0.016895745 0.025554614 0.04461059
0.06817246 -0.024160555 -0.049521986 0.00911507 0.08267871 -0.18480873 0.074607685 0.058677826
0.10223743 0.1063521 0.05768792 0.020314481 0.04991065 -0.057030924 -0.1096008 0.021754565
-0.18550321 -0.06884435 0.063118495 -0.08297874 0.08491963 0.19786596 0.040543634 0.120936714
-0.019543625 0.061545823 -0.065954715 -0.019181397 0.13412926 -0.148904 0.12619486 -0.2119146
0.15873533 0.12818582 -0.09347281 0.02272724 -0.14816768 -0.02805513 -0.13813229 -0.12581697
-0.18084042 -0.012823998 0.040242895 -0.11848693 0.010172611 -0.033589333 0.06660392 0.106632896
0.13284272 0.08499956 0.023815006 -0.15396146 -0.011713958 -0.06837826 -0.0502094 0.18907502
0.047582757 -0.21532324 -0.22257528 -0.0232594 0.011371905 -0.030431677 -0.103129275 -0.015332438
-0.01593908 0.09236954 -0.034225296 0.04907484 0.16409756 -0.18677998 -0.21483487 0.07594957
0.025159916 0.044933315 0.074011356 -0.1168592 -0.14267564 -0.07515061 -0.1333115 -0.03706247
0.04957363 -0.16499293 0.092715025 -0.09744113 0.022655195 0.13424976 -0.03112076 -0.13470866
0.25835788 0.11858952 -0.1810779 -0.04188491 0.124795444 -0.0065851705 0.10513778 -0.011232578
0.0606824 0.07462043 -0.011803313 0.015524183 -0.17203663 -0.10731191 0.04663789 0.15689078
-0.06399819 0.18002728 -0.07879194 0.047365777 -0.09970824 -0.038504627 -0.05328745 0.09701461
00000000: d2ae 54bd 3b4d 7a3d fc11 a1bd bbc7 5a3d
00000010: 2964 89bd 3c71 85bd 3cad 533d b0fb 0b3e
00000020: 8ae9 823d 24df 0abe 42af 6a3c c25a 16be
00000030: 2390 4fbd d6a3 9ebd fe40 383c 783d abbc
00000040: 89c9 eabd df7d 1f3e f2b6 0bbd 9c63 20be
00000050: d7f1 ae3c 20b5 8ebc 34e4 043e f1a0 563d
00000060: 1ea8 413c 89cd d93c 4606 0b3e 15a2 efbd
00000070: 7638 02bd 49d9 453c 9149 46be 5c96 92bd
00000080: d016 16be 6618 84bc 79f3 703d 5786 c4bd
00000090: 7f68 893c 87a9 69bc 2990 a03d 35d4 413e
000000a0: dc2d afbd 1e57 473e 8a38 08be 408e e53d
000000b0: ceab 883d 8aa8 3ebd 5aeb d5bd 82f9 493d
000000c0: 19f4 473d ea03 de3d d9e4 46bd 0b9c 0d3e
000000d0: 9773 1fbe 706d a6bc 94f5 25bd ade7 7bbc
000000e0: a953 48be 7150 2dbd 529e d13d 6db2 c43d
000000f0: 1904 a7bd 6457 adbd 4552 f4bd f04e a6bd
00000100: 75c8 71bc 8914 49bd a66d 3bbc 5969 bebd
00000110: 7332 ddbd ba62 c03d 10e9 dcbd be07 8f3d
00000120: 5349 bd3d 1645 44bd b981 833c 1884 0e3d
00000130: be05 d4bd 046f 1dbe 9774 b23c a22c 123d
00000140: a1e8 0f3c cd80 17be 7987 a3bd d7ab 87bd
00000150: 843a f03d 2389 18bd bcba 443d c5b4 a9bd
00000160: 3631 6e3d d191 00bd 6328 c03d 428a c53d
00000170: 6b9a 0cbc d63d 01bc 2307 8d3d e383 0cbd
00000180: 3041 aabd 48ec a1bd 7be2 f4bc cb75 b3bd
00000190: f4e4 cebc b969 363d bba2 093e 50b6 adbd
000001a0: 41dc 053e cadf ee3d fce3 27be 14ec acbd
000001b0: d841 b03d 3b8f 07bc 5f02 0f3e 3dbf 093d
000001c0: beb2 acbd 62c2 563c 53fb 24bd a12b 023e
000001d0: 5652 963d 031c d83c 4d2b c43c 065a c5bd
000001e0: 3124 8abd 7925 193d d76d 59bd 9ac0 f4bd
000001f0: f989 5f3c 6708 0a3d bb75 933d ce0b a23c
00000200: 1fa8 afbd 5b34 a83d 1d3c 0abe b77b dbbd
00000210: d0cb bcbc 6cda 7dbd 54b9 6d3b 530a 053c
00000220: 82f2 bc3d 9490 32bc bee5 25be 5361 06be
00000230: 8f57 89bd f268 8abc e957 d13c 98b9 363d
00000240: 019e 8b3d 5bec c5bc 91d7 4abd 6057 153c
00000250: 7553 a93d 803e 3dbe eacb 983d 2958 703d
00000260: dc61 d13d 21cf d93d 2b4a 6c3d 8e6a a63c
00000270: 1c6f 4c3d 4299 69bd 6276 e0bd a136 b23c
00000280: 8ef4 3dbe 44fe 8cbd 4544 813d c2f0 a9bd
00000290: 58ea ad3d 609d 4a3e 1511 263d abad f73d
000002a0: f419 a0bc 7917 7c3d 4413 87bd 4e22 9dbc
000002b0: 2e59 093e 4a7a 18be 3a39 013e 2400 59be
000002c0: 848b 223e 2543 033e ac6e bfbd 7a2e ba3c
000002d0: 45b9 17be dfd3 e5bc 8d72 0dbe 2ad6 00be
000002e0: 3b2e 39be bf1b 52bc bcd5 243d 47a9 f2bd
000002f0: 06ab 263c f894 09bd a367 883d 5962 da3d
00000300: ec07 083e 4014 ae3d b017 c33c 13a8 1dbe
00000310: e7eb 3fbc e709 8cbd 5fa8 4dbd e29c 413e
00000320: 23e6 423d b27d 5cbe c6ea 63be 7f8a bebc
00000330: 3a51 3a3c da4b f9bc 7135 d3bd e834 7bbc
00000340: ac92 82bc 3e2c bd3d d32f 0cbd b302 493d
00000350: 3109 283e 4043 3fbe acfd 5bbe 738b 9b3d
00000360: 2b1c ce3c ff0b 383d 4493 973d e053 efbd
00000370: 9019 12be 90e8 99bd cf82 08be d1ce 17bd
00000380: b80d 4b3d e8f3 28be 60e1 bd3d 378f c7bd
00000390: 6397 b93c c578 093e f7f0 febc 11f1 09be
000003a0: 7c47 843e 10df f23d 7c6c 39be 838f 2bbd
000003b0: c194 ff3d 6ac8 d7bb 7a52 d73d d908 38bc
000003c0: 1c8e 783d 99d2 983d af62 41bc 2559 7e3c
000003d0: 5f2a 30be 59c6 dbbd 5f07 3f3d faa7 203e
000003e0: 7c11 83bd 1259 383e ab5d a1bd 9e02 423d
000003f0: d533 ccbd 07b7 1dbd f143 5abd 99af c63d

lstm.weight_hh_l1 f4 [256, 64]
-0.112819545 0.0031001857 0.075124465 0.10659077 0.056942165 -0.123479314 -0.12875983 0.06281241
-0.015235181 0.044950716 0.10341555 0.10167249 -0.05960801 -0.020206494 -0.029811494 0.13165455
0.04771655 -0.06627514 0.04527399 0.014985205 -0.059535637 -0.07936011 -0.13042721 -0.023972198
-0.13102059 -0.03620366 0.067017965 0.042023595 0.0676766 0.04035695 -0.0036703239 0.027763072
-0.09006719 -0.038882818 -0.138612 0.08519113 -0.13628367 -0.13590086 -0.0489029 0.17720386
-0.03389755 0.0146211395 -0.07473014 0.14480387 -0.017178558 -0.018070376 0.064844385 -0.10805862
0.011132933 -0.1272461 0.07652138 0.11936965 0.028266776 0.10490095 -0.08608651 -0.15771896
-0.030440282 0.064718366 -0.034405813 -0.14165029 0.065872185 -0.14441866 -0.0034227474 0.051501073
-0.032706525 -0.12991944 0.0023626832 0.076657504 -0.0040044794 0.08801348 -0.1189806 0.03571655
-0.07743968 -0.09875956 0.09027702 0.1173927 0.11736993 -0.07527718 -0.012521847 -0.11895893
0.11732635 -0.036514696 0.07776878 -0.02165926 -0.12707561 -0.07319766 -0.057735804 0.0050768056
-0.08638398 -0.032535683 0.02548057 0.121288165 -0.123124585 -0.0055040536 -0.04572247 -0.1289698
0.04972494 -0.13486435 -0.04141907 0.011691276 0.067665316 0.03414641 -0.06691474 0.023125898
-0.08661717 -0.062258255 0.05017885 0.0542297 -0.004302038 -0.0032559414 -0.071712 -0.025007773
0.00663311 0.07899439 -0.09271021 0.12784512 -0.12473718 0.06439761 -0.07311771 -0.06988574
-0.01462212 0.034388743 -0.07880259 -0.10119481 0.001128367 0.12333453 -0.015023382 -0.071766935
0.09080424 -0.013925757 0.14331563 0.012266272 -0.036324393 -0.06431409 -0.0439165 0.06450028
-0.020011568 0.043655522 -0.019516625 -0.12574849 -0.13115855 0.040669005 0.07442973 -0.009190731
0.07136497 -0.053718362 -0.01215574 0.0794984 -0.08093882 0.07204524 -0.067268424 0.16218543
0.095123045 -0.012550876 -0.017423393 0.010913935 -0.049826004 0.08063144 0.06210606 -0.060141224
-0.031590395 0.01798788 0.0811273 0.10516142 -0.077394664 -0.10381786 -0.06645956 0.2539185
0.0153274555 -0.07359496 0.10722505 0.044652145 0.09390535 -0.0339963 0.1633886 -0.061601494
-0.011630485 -0.13017604 -0.11682162 -0.014103876 0.05163148 -0.020804686 -0.19770907 -0.03572532
-0.078688964 -0.096708074 -0.07953861 0.13983068 -0.005998615 0.094983555 0.069934785 -0.15811557
-0.0050746975 -0.029320508 0.006144743 -0.087032154 -0.101710565 -0.028608011 -0.15870072 0.012834445
-0.33716542 0.06767939 -0.0060831876 0.040117387 -0.10309316 -0.21256141 -0.07128659 0.005420254
-0.09937137 0.02100564 -0.055276737 0.11443878 -0.065031014 -0.05112118 -0.13775368 0.190788
-0.071984455 -0.049138337 -0.1215118 0.084168024 0.009743163 0.07890957 0.027955763 0.1110499
-0.036608044 -0.055730253 0.04010028 -0.007722104 -0.20198111 -0.17608944 0.067027695 0.38036764
-0.08250542 -0.12793677 0.14582756 0.08260797 -0.062576115 0.13025647 -0.07559586 0.08420522
-0.121414326 -0.23130228 0.07850712 0.043233376 -0.08435912 0.0429786 -0.064353034 0.09743466
0.12107637 -0.023461541 0.054956406 0.08960026 0.13835229 0.008609025 -0.14466873 -0.1314792
00000000: ef0d e7bd 7c2c 4b3b dbda 993d 434c da3d
00000010: 303c 693d b9e2 fcbd 9ed9 03be cba3 803d
00000020: fb9c 79bc 3e1e 383d 88cb d33d ab39 d03d
00000030: 8727 74bd 1788 a5bc 3c37 f4bc 73d0 063e
00000040: 6e72 433d 43bb 87bd 3871 393d 8184 753c
00000050: a4db 73bd 8e87 a2bd b68e 05be 5861 c4bc
00000060: 432a 06be 4a4a 14bd b740 893d ef20 2c3d
00000070: 079a 8a3d 544d 253d d189 70bb 626f e33c
00000080: 2675 b8bd 9743 1fbd 4ef0 0dbe b078 ae3d
00000090: f28d 0bbe 9829 0bbe 684e 48bd ee74 353e
000000a0: 28d8 0abd 818d 6f3c 1e0c 99bd 7747 143e
000000b0: 0cba 8cbc 5308 94bc 22cd 843d d64d ddbd
000000c0: e866 363c cd4c 02be 3eb7 9c3d 1378 f43d
000000d0: ba8f e73c 4fd6 d63d 204e b0bd 1481 21be
000000e0: e65d f9bc 108b 843d 1ced 0cbd c60c 11be
000000f0: ffe7 863d 7ce2 13be 2c50 60bb caf2 523d
00000100: 47f7 05bd 9a09 05be 3fd7 1a3b 9cfe 9c3d
00000110: 0238 83bb 6940 b43d 1aac f3bd 844b 123d
00000120: b298 9ebd 7442 cabd 29e3 b83d 956b f03d
00000130: a55f f03d ec2a 9abd 6f28 4dbc bda0 f3bd
00000140: cc48 f03d 6f90 15bd 3d45 9f3d c36e b1bc
00000150: 1c20 02be a8e8 95bd 617c 6cbd 555b a63b
00000160: 16ea b0bd 2344 05bd a1bc d03c ee65 f83d
00000170: be28 fcbd 595b b4bb 7c47 3bbd a910 04be
00000180: 61ac 4b3d e119 0abe 0ba7 29bd c48c 3f3c
00000190: 1d94 8a3d 1bdd 0b3d 980a 89bd 8672 bd3c
000001a0: 5864 b1bd 8302 7fbd 5688 4d3d f61f 5e3d
000001b0: 1cf8 8cbb a261 55bb bedd 92bd 1add ccbc
000001c0: 8f5a d93b d0c7 a13d dade bdbd d5e9 023e
000001d0: 3576 ffbd e5e2 833d bdbe 95bd 4120 8fbd
000001e0: 9e91 6fbc 36db 0c3d 4163 a1bd 393f cfbd
000001f0: b7e5 933a d096 fc3d a224 76bc 8bfa 92bd
00000200: 93f7 b93d dc28 64bc 55c1 123e 79f8 483c
00000210: e3c8 14bd 1bb7 83bd cae1 33bd b918 843d
00000220: 4def a3bc 22d0 323d 54e1 9fbc 36c4 00be
00000230: 6d4e 06be 8b94 263d 9d6e 983d b894 16bc
00000240: cc27 923d c907 5cbd de28 47bc 0fd0 a23d
00000250: 41c3 a5bd 748c 933d 07c4 89bd f013 263e
00000260: dfcf c23d 30a2 4dbc 81bb 8ebc 5cd0 323c
00000270: 5a16 4cbd 1922 a53d ed62 7e3d a556 76bd
00000280: ee64 01bd 525b 933c 1226 a63d df5e d73d
00000290: 1881 9ebd 759e d4bd f31b 88bd 9b01 823e
000002a0: 0220 7b3c f4b8 96bd cf98 db3d 2be5 363d
000002b0: 7351 c03d b43f 0bbd 574f 273e d951 7cbd
000002c0: ca8d 3ebc de4c 05be 2c40 efbd f213 67bc
000002d0: 887b 533d 976e aabc 3f74 4abe b754 12bd
000002e0: ae27 a1bd e20e c6bd 24e5 a2bd c62f 0f3e
000002f0: 0890 c4bb bd86 c23d f839 8f3d 0ce9 21be
00000300: a649 a6bb 9031 f0bc d759 c93b ea3d b2bd
00000310: a14d d0bd 595b eabc 7182 22be 9047 523c
00000320: f2a0 acbe 7e9b 8a3d 7a55 c7bb 2152 243d
00000330: 8222 d3bd b3a9 59be b4fe 91bd 639c b13b
00000340: 3883 cbbd 0514 ac3c dc69 62bd e15e ea3d
00000350: fb2e 85bd 7164 51bd 4d0f 0dbe ee5d 433e
00000360: 966c 93bd 4845 49bd 2edb f8bd 4960 ac3d
00000370: caa1 1f3c 579b a13d 7c03 e53c 216e e33d
00000380: 51f2 15bd 6845 64bd 3140 243d b409 fdbb
00000390: 23d4 4ebe ca50 34be d145 893d 8cbf c23e
000003a0: 9af8 a8bd db01 03be d253 153e 5e2e a93d
000003b0: e827 80bd f461 053e 01d2 9abd c973 ac3d
000003c0: 13a8 f8bd 81da 6cbe 57c8 a03d 7b15 313d
000003d0: 79c4 acbd 540a 303d 86cb 83bd d38b c73d
000003e0: e3f6 f73d 6b32 c0bc f819 613d 5780 b73d
000003f0: 39ac 0d3e de0c 0d3c 0a24 14be 7ca2 06be

lstm.bias_ih_l1 f4 [256]
-0.061653137 -0.01099247 0.028053131 0.06708496 0.010389782 -0.12734985 0.00092295907 -0.017234122
0.41588637 -0.09988255 -0.13922891 0.017116569 0.095809855 -0.16081889 0.4105299 -0.1115237
0.10192894 -0.014306664 -0.016690232 0.37510917 0.07327044 -0.30843642 -0.09339521 -0.123483546
0.10572953 0.07991091 -0.0805273 0.0157471 0.101704106 -0.4318412 0.18695155 -0.036972288
-0.10867556 0.064972 -0.36576927 -0.0036182615 0.13759585 0.19470419 0.16845933 0.041759804
-0.104714185 0.4081541 0.16100812 0.011703864 0.04884926 -0.14987645 0.1297719 0.06597506
0.041165505 -0.017917205 0.13189602 -0.29029045 0.17403512 0.102994904 0.0927621 0.052836537
-0.09574164 -0.27501604 -0.01216969 -0.03419291 0.10524862 0.2480079 -0.2510486 -0.14363149
-0.0733153 0.08399322 -0.045679614 0.14258923 -0.066040404 -0.11940493 -0.025449766 0.00573268
-0.0730854 -0.12689546 -0.10482138 -0.014308088 -0.0063391915 -0.1249687 0.123705275 -0.04993053
-0.10869436 -0.17921998 -0.013044788 -0.18165556 0.08827873 -0.12628625 -0.03593836 0.00632639
0.13938282 -0.034991365 -0.15135615 -0.0009643261 0.1008793 -0.2626525 0.0010504455 -0.08888247
0.09456826 0.09499475 -0.18234369 -0.07896302 0.14370875 -0.17736368 0.11880371 -0.006791807
0.07835644 -0.1426259 0.06281253 0.02923599 0.017066404 -0.2286123 -0.10472824 0.0909477
-0.026485894 -0.1359009 -0.10815006 -0.2902443 0.0060853995 -0.12600856 0.104490854 -0.10029736
0.15502676 -0.22767055 0.041111507 -0.086673945 0.05500793 -0.11757067 -0.211376 -0.025814202
0.03316206 -0.027104476 -0.02469832 -0.026613366 0.007084751 0.039498538 -0.065914415 0.03354468
-0.08830458 -0.07247695 0.067882285 -0.092957795 -0.092863895 -0.04359749 0.09616235 -0.08407731
-0.020640776 -0.06603992 -0.08065949 -0.09068919 -0.110672235 -0.034301084 0.045340113 0.053769685
0.008053047 0.03943429 0.080464624 -0.07395686 -0.065912336 0.008698926 -0.08765374 -0.027556513
0.07213148 -0.03634526 0.005715945 0.026218237 -0.075208895 0.03874984 -0.007179112 0.05791921
-0.0845082 -0.005239459 0.07821428 -0.029357754 -0.041833233 -0.036442365 0.08327889 0.054055866
0.021042652 -0.059243225 -0.01279723 0.05855447 -0.061149288 -0.08849436 -0.13125423 -0.032073222
0.003510829 0.03263115 -0.08665782 0.05845764 0.034818072 -0.0020922835 0.120737 -0.053554144
-0.09369621 0.0037385656 0.1120948 0.116872095 -0.041254748 -0.08468163 0.011991444 -0.11088914
0.35642597 0.0099088065 0.030909074 0.01833405 0.04501396 -0.16342849 0.24387378 -0.24630082
0.09105017 -0.031271636 0.05259054 0.2994237 0.19101033 -0.2950689 0.016153185 0.009453516
0.124584906 0.055020347 0.07661685 -0.13563864 -0.02045096 -0.314492 0.11165627 -0.08172934
0.07470406 0.104341865 -0.35076916 -0.0058299517 0.14573313 0.2654062 0.042300746 -0.18162477
-0.07650845 0.39140648 0.06753205 0.021234324 -0.05900079 -0.111513495 0.15113547 -0.03260016
-0.061761137 0.13328716 -0.001783572 -0.46156904 0.06613122 0.057812948 0.14914165 0.10958448
-0.019879721 -0.18515716 -0.08344756 -0.018904544 -0.010257641 0.2111614 -0.21598731 -0.055957895
00000000: 0088 7cbd c319 34bc aecf e53c d763 893d
00000010: e739 2a3c 0068 02be bcf2 713a 932e 8dbc
00000020: 0fef d43e 398f ccbd 0692 0ebe 0c38 8c3c
00000030: f537 c43d b5ad 24be fa30 d23e 8a66 e4bd
00000040: 1fc0 d03d 7f66 6abc f4b9 88bc 4f0e c03e
00000050: d00e 963d 61eb 9dbe fd45 bfbd f1e4 fcbd
00000060: b988 d83d 55a8 a33d 7feb a4bd 1000 813c
00000070: 3e4a d03d 4a1a ddbe 3a70 3f3e 4170 17bd
00000080: 4b91 debd 0a10 853d 1c46 bbbe 5b20 6dbb
00000090: ede5 0c3e 8960 473e 9a80 2c3e 540c 2b3d
000000a0: 6474 d6bd 93f9 d03e 50df 243e 90c1 3f3c
000000b0: 2916 483d 3679 19be ede2 043e ef1d 873d
000000c0: 299d 283d 1ac7 92bc c00f 073e f3a0 94be
000000d0: 4336 323e feee d23d 0efa bd3d 206b 583d
000000e0: 3114 c4bd e7ce 8cbe 6163 47bc dd0d 0cbd
000000f0: 978c d73d c8f5 7d3e 7189 80be 2214 13be
00000100: 5526 96bd a304 ac3d 8c1a 3bbd e902 123e
00000110: 3140 87bd 928a f4bd 077c d0bc 35d9 bb3b
00000120: ccad 95bd e2f0 01be 97ac d6bd 796c 6abc
00000130: feb8 cfbb 97ef ffbd 3159 fd3d f583 4cbd
00000140: 269b debd 7185 37be ceb9 55bc ea03 3abe
00000150: 7bcb b43d 2f51 01be 1a34 13bd 9b4d cf3b
00000160: 5fba 0e3e 1b53 0fbd 1bfd 1abe d4ca 7cba
00000170: ce99 ce3d 637a 86be 1aaf 893a 0308 b6bd
00000180: 01ad c13d 9c8c c23d 4eb8 3abe 5db7 a1bd
00000190: 6328 133e d39e 35be 5c4f f33d ce8d debb
000001a0: 5779 a03d 860c 12be dba3 803d 5180 ef3c
000001b0: d8ce 8b3c 5819 6abe c27b d6bd ca42 ba3d
000001c0: f2f8 d8bc 9b29 0bbe c77d ddbd e79a 94be
000001d0: 0868 c73b 6308 01be 4dff d53d b468 cdbd
000001e0: 56bf 1e3e 7822 69be 8a64 283d 1c82 b1bd
000001f0: ff4f 613d e4c8 f0bd f372 58be 4e78 d3bc
00000200: f1d4 073d 350a debc 2254 cabc 4604 dabc
00000210: 3327 e83b 38c9 213d 23fe 86bd 2566 093d
00000220: 08d9 b4bd cc6e 94bd de05 8b3d a860 bebd
00000230: 6d2f bebd 4893 32bd c4f0 c43d ba30 acbd
00000240: d816 a9bc f03f 87bd cd30 a5bd 41bb b9bd
00000250: 20a8 e2bd 4b7f 0cbd 8eb6 393d 9a3d 5c3d
00000260: edf0 033c da85 213d a3ca a43d b276 97bd
00000270: 0cfd 86bd f185 0e3c ce83 b3bd 32be e1bc
00000280: abb9 933d c4de 14bd d24c bb3b a1c7 d63c
00000290: 1f07 9abd 27b8 1e3d c23e ebbb b23c 6d3d
000002a0: a312 adbd c5af abbb cf2e a03d ac7f f0bc
000002b0: 5359 2bbd 9744 15bd 1f8e aa3d af69 5d3d
000002c0: a461 ac3c 06a9 72bd 79ab 51bc d0d6 6f3d
000002d0: ad77 7abd 883c b5bd 8267 06be 365f 03bd
000002e0: f015 663b 3ea8 053d a879 b1bd 4771 6f3d
000002f0: 659d 0e3d b11e 09bb f644 f73d 975b 5bbd
00000300: cce3 bfbd b902 753b f591 e53d a35a ef3d
00000310: bdfa 28bd 906d adbd c377 443c d819 e3bd
00000320: 777d b63e 8c58 223c 0735 fd3c 4a31 963c
00000330: 8f60 383d cc59 27be 0cba 793e 4836 7cbe
00000340: 8378 ba3d b016 00bd 2e69 573d 104e 993e
00000350: 3698 433e 4513 97be af53 843c ece2 1a3c
00000360: 5f26 ff3d 045d 613d 4ce9 9c3d dbe4 0abe
00000370: c688 a7bc 1805 a1be 0bac e43d b661 a7bd
00000380: 71fe 983d 30b1 d53d 0498 b3be 2e09 bfbb
00000390: 113b 153e 52e3 873e 8c43 2d3d d8fb 39be
000003a0: 76b0 9cbd 6e66 c83e 3e4e 8a3d 9bf3 ad3c
000003b0: d0aa 71bd 3061 e4bd 42c3 1a3e bf87 05bd
000003c0: 3ff9 7cbd 6e7c 083e bfc6 e9ba c752 ecbe
000003d0: ce6f 873d 45cd 6c3d 97b8 183e d46d e03d
000003e0: ccda a2bc d799 3dbe 8ee6 aabd b4dd 9abc
000003f0: aa0f 28bc b23a 583e c72b 5dbe 1b34 65bd

lstm.bias_hh_l1 f4 [256]
0.008647422 -0.041588094 0.112517715 -0.07139993 -0.052880645 -0.09088119 -0.1629552 -0.03952357
0.3914741 0.116970725 -0.06265865 0.11810079 -0.04759691 -0.15487613 0.26535922 -0.25076115
0.10370714 -0.11745526 -0.061746415 0.14457054 0.09376843 -0.18276511 -0.20620035 -0.12441102
0.13186787 -0.11678276 -0.037452064 -0.07148287 -0.1096874 -0.3875059 0.15248558 -0.0805585
-0.118646584 -0.017476907 -0.41569024 -0.036357183 0.14268269 0.26184896 0.043766953 0.12759003
0.083783954 0.47106448 0.06808737 -0.02539571 0.14781982 -0.24313188 -0.0073226197 0.1500495
0.021735951 -0.09645784 0.037785426 -0.4089376 -0.048066128 -0.03429657 0.051702894 -0.06933755
0.07003821 -0.3186275 -0.0018850644 0.006703738 -0.06184474 0.18177971 -0.17388222 -0.017188963
-0.005797268 -0.034198135 -0.08175337 0.0018957709 0.09528317 -0.04939664 0.027938118 0.0660606
-0.10421267 -0.097697824 -0.040955428 -0.029978847 0.09094751 -0.18603607 0.042240337 -0.023709225
-0.09587264 -0.17596182 -0.033446006 -0.03522954 -0.004183609 -0.17831495 0.02823103 -0.12824701
-0.09769312 -0.023390021 -0.010376911 -0.047767535 0.039682414 -0.28040698 -0.14139885 -0.23085354
-0.011011173 -0.091444224 -0.29350036 -0.059100844 -0.08579548 -0.039950352 0.12561204 -0.09643348
0.08650742 -0.01849362 -0.027387453 -0.074485034 -0.09212242 -0.080441445 0.084082946 -0.08610146
-0.10678088 0.068552606 -0.03127917 -0.23749767 -0.070542574 -0.022928502 0.112703316 0.10990423
0.12302664 -0.24315333 -0.09864046 0.017906284 -0.05929118 0.017057732 -0.23514457 0.006311142
-0.015788388 0.00205829 0.108691566 0.011336525 0.054248396 0.01268242 -0.047529195 -0.008484254
0.08032979 -0.057764728 -0.07533406 0.115121394 -0.036007345 0.017948331 0.016710179 0.06952502
0.030900892 0.022886895 0.03861261 0.07030784 -0.02053548 0.01878028 -0.023090519 0.006870592
0.04211452 -0.07215985 -0.07903228 0.09220894 -0.064257436 -0.013005018 0.09611608 0.012916636
-0.05441493 0.052724056 0.001666884 -0.058679834 0.0017455921 -0.03294557 0.056605883 0.07302915
0.05976111 0.08629511 -0.031607807 -0.043113958 0.038641963 0.0033999109 0.05828073 0.05360676
-0.054710448 -0.059772007 -0.025007393 -0.07276408 -0.0020346602 0.07144752 0.06858805 0.07052983
0.08366621 0.0006282568 0.040338047 -0.041375194 0.07768146 0.07863052 -0.10056767 -0.09820917
0.060792644 0.056034185 0.09384342 0.0028234064 0.041997995 0.011834649 0.07959168 0.04841512
0.5650932 -0.04591169 -0.1342555 -0.019683853 0.056708198 -0.110078365 0.36061192 -0.20866442
-0.027418427 -0.19896139 -0.054572158 0.3110389 0.08917874 -0.32298604 -0.03910242 -0.079202086
0.10086159 -0.049862012 0.07262817 0.054911055 0.08079733 -0.29028264 -0.04649447 -0.20366585
-0.06521178 0.09894191 -0.31285763 0.033270255 0.10302238 0.20984325 0.09984363 -0.16743657
0.0673804 0.35250348 0.01974577 0.021510543 0.07759571 -0.29563308 0.068761006 0.08249096
-0.10484138 -0.09895467 0.19562887 -0.45320585 0.0745933 0.014273177 0.17816262 -0.025932254
0.025673967 -0.22370157 0.04149559 -0.001589987 0.11952625 0.071339086 -0.30379027 -0.1442968
00000000: ebad 0d3c 4758 2abd b06f e63d 203a 92bd
00000010: 6099 58bd eb1f babd badd 26be 78e3 21bd
00000020: 4b6f c83e 598e ef3d 2e53 80bd d4de f13d
00000030: faf4 42bd d997 1ebe 2add 873e c463 80be
00000040: 6964 d43d 628c f0bd cfe9 7cbd 4d0a 143e
00000050: aa09 c03d c726 3bbe 2f26 53be 34cb febd
00000060: 5f08 073e cd2b efbd 5667 19bd 9c65 92bd
00000070: caa3 e0bd 2c67 c6be 2e25 1c3e dbfb a4bd
00000080: fbfc f2bd bb2b 8fbc 5ad5 d4be 45eb 14bd
00000090: 691b 123e 1111 863e fa44 333d f6a6 023e
000000a0: ec96 ab3d 5d2f f13e 6471 8b3d aa0a d0bc
000000b0: 145e 173e 90f7 78be 96f2 efbb 93a6 193e
000000c0: 980f b23c b08b c5bd e4c4 1a3d 4560 d1be
000000d0: fde0 44bd 8f7a 0cbd 6ac6 533d d800 8ebd
000000e0: 3170 8f3d 2523 a3be 4414 f7ba 08ab db3b
000000f0: e950 7dbd 7624 3a3e 2e0e 32be decf 8cbc
00000100: 02f7 bdbb 5813 0cbd 506e a7bd 847b f83a
00000110: d323 c33d 2254 4abd 7bde e43c c84a 873d
00000120: 746d d5bd cc15 c8bd e1c0 27bd 3396 f5bc
00000130: b042 ba3d 3d80 3ebe 3404 2d3d d939 c2bc
00000140: e058 c4bd 562f 34be aefe 08bd da4c 10bd
00000150: a816 89bb 3298 36be c344 e73c 2f53 03be
00000160: 5513 c8bd 6e9c bfbc eb03 2abc e4a7 43bd
00000170: 078a 223d 8191 8fbe dcca 10be df64 6cbe
00000180: 3568 34bc 1c47 bbbd ae45 96be ba13 72bd
00000190: 8ab5 afbd fba2 23bd 71a0 003e eb7e c5bd
000001a0: cd2a b13d ef7f 97bc a75b e0bc 9c8b 98bd
000001b0: aeaa bcbd 7cbe a4bd ae33 ac3d f655 b0bd
000001c0: efaf dabd 4f65 8c3d 961e 00bd 9732 73be
000001d0: a078 90bd 8ed4 bbbc ffd0 e63d 7815 e13d
000001e0: 64f5 fb3d 30fd 78be 0204 cabd 33b0 923c
000001f0: 4fdb 72bd a8bc 8b3c bdc9 70be b2cd ce3b
00000200: a656 81bc 60e4 063b af99 de3d d5bc 393c
00000210: 9133 5e3d edc9 4f3c f9ad 42bd 8a01 0bbc
00000220: f283 a43d b59a 6cbd be48 9abd c4c4 eb3d
00000230: 707c 13bd 6108 933c c9e3 883c 2263 8e3d
00000240: de23 fd3c 4c7d bb3c 4228 1e3d 8ffd 8f3d
00000250: 063a a8bc 1ad9 993c 5428 bdbc b422 e13b
00000260: 4680 2c3d 8bc8 93bd addb a1bd 0ad8 bc3d
00000270: 6799 83bd 0013 55bc 82d8 c43d 4ca0 533c
00000280: 31e2 5ebd 2ef5 573d 597b da3a 445a 70bd
00000290: 5acc e43a eff1 06bd 92db 673d 4f90 953d
000002a0: 11c8 743d 7ebb b03d 3077 01bd 4398 30bd
000002b0: 0947 1e3d 0ad1 5e3b c6b7 6e3d c392 5b3d
000002c0: 1018 60bd 7ed3 74bd 4edc ccbc 5505 95bd
000002d0: ef57 05bb 1453 923d e477 8c3d f271 903d
000002e0: 3159 ab3d 9ab1 243a 8239 253d 0979 29bd
000002f0: 7517 9f3d 0a09 a13d 6cf6 cdbd e421 c9bd
00000300: b501 793d 1a84 653d fb30 c03d e608 393b
00000310: 1706 2c3d 1ee6 413c f600 a33d ef4e 463d
00000320: f3a9 103f e50d 3cbd 467a 09be 0840 a1bc
00000330: db46 683d c470 e1bd 20a2 b83e 20ac 55be
00000340: 9c9c e0bc 89bc 4bbe 0e87 5fbd 7e40 9f3e
00000350: 58a3 b63d 6d5e a5be dc29 20bd b434 a2bd
00000360: 8590 ce3d 1c3c 4cbd 14be 943d 6aea 603d
00000370: 1279 a53d ed9f 94be fc70 3ebd c88d 50be
00000380: c18d 85bd 0ea2 ca3d e02e a0be 6446 083d
00000390: 66fd d23d 26e1 563e d17a cc3d 7e74 2bbe
000003a0: bcfe 893d 567b b43e e2c1 a13c e136 b03c
000003b0: 80ea 9e3d 385d 97be 92d2 8c3d 05f1 a83d
000003c0: 14b7 d6bd bfa8 cabd ef52 483e 990a e8be
000003d0: 5fc4 983d 0bda 693c 4370 363e e16f d4bc
000003e0: 3652 d23c 0612 65be 48f7 293d 1c67 d0ba
000003f0: 2eca f43d 3a1a 923d 668a 9bbe 8ac2 13be
