data/models/chainlink_lstm.pth (torch, 206133 bytes, 9 tensors)

lstm.weight_ih_l0 f4 [256, 1]
0.14392559 -0.022689413 0.08733416 0.17847183 0.076561 0.080847494 0.044371814 -0.04108812
0.016705608 0.0071346974 -0.01286233 0.08558189 6.315825e-05 -0.15440726 0.091723695 0.10889759
-0.10379652 -0.077254295 -0.057442863 0.092857465 0.1298837 0.0061547733 0.009986909 -0.10052211
-0.12768252 0.009512303 0.094729505 0.012268584 0.16670027 -0.040027034 0.14753087 -0.09906284
-0.037186407 -0.015180056 0.055100843 -0.11395818 -0.12276443 0.10912659 0.16362579 -0.08513281
0.099588364 0.13017842 0.08531323 -0.14359878 0.123876914 0.000734644 0.07190014 -0.17497568
-0.05060262 0.121657886 0.09298613 0.014028425 0.13116167 -0.045229148 -0.017655404 -0.026368886
0.050847594 -0.058552317 0.1599066 0.16578422 0.06843551 0.110112205 -0.010173888 -0.1197333
0.10257463 0.06472784 0.13202898 0.019048946 0.098131895 0.14504312 0.12863183 -0.00013364438
0.14437282 0.014788736 0.047877137 -0.06822765 -0.030460719 -0.20568793 -0.014154375 0.04630513
-0.04242359 -0.14553647 -0.1467308 0.0074516535 0.18026552 -0.038726516 0.04898184 0.08247963
-0.15756351 -0.09806955 0.14196065 0.12706439 0.09987842 0.053614624 -0.033148654 -0.08215461
-0.18415876 -0.14072931 -0.18114239 -0.037363958 0.049269132 0.11157908 -0.03696074 0.073045395
-0.07102438 0.13104153 0.1538239 -0.008901225 0.12741803 0.14618316 0.006718448 -0.18673058
0.019724533 0.06506798 -0.025855983 -0.049818795 -0.06436826 0.035685252 0.010624531 0.097804725
0.06548492 0.099206306 0.1494997 0.17346925 0.010600264 0.045741037 0.08771198 -0.09155917
-0.116014175 -0.15763186 0.13808556 -0.18475586 0.135194 0.19600257 -0.12713085 0.17609274
-0.20660886 0.19878349 0.13271484 0.16996647 -0.1823852 -0.19083133 -0.10313865 -0.16971067
0.032364424 -0.15299387 0.09346844 -0.18453813 0.16982578 -0.29779103 0.1837808 -0.1996261
-0.14507616 -0.1885737 0.19884154 0.16190162 0.21486188 -0.15442286 -0.18491277 0.09433177
-0.20324035 -0.09566122 -0.15764295 -0.14928614 0.20310618 -0.18476954 -0.14735146 0.20076796
-0.105949044 0.06062539 0.16039069 0.04029451 -0.18020241 0.14713794 -0.103994496 -0.16308007
-0.05514416 -0.16438834 0.14334488 0.18107411 -0.16339013 0.19515638 0.11306352 0.14004411
-0.1257532 0.07774173 0.11351296 -0.15363325 0.08954313 -0.09226166 0.17656544 0.20541354
0.038900472 -0.0037786714 -0.016432965 0.21247059 -0.07532986 0.12199726 0.15527537 -0.14206305
0.074159555 0.07815237 0.0065978933 0.076598085 0.16432779 -0.09336911 0.01702906 0.022101257
-0.08934352 -0.12845841 -0.26477188 0.12600772 0.22083716 -0.19357917 -0.101402946 -0.12889107
-0.10596839 0.023581047 0.04092358 0.053663444 0.25682324 -0.0068260618 0.099470094 -0.11461896
-0.3014349 -0.21751203 0.0012319521 0.002829989 -0.0478767 0.1574908 0.17483567 -0.13926879
0.029067509 0.18587422 0.20801643 -0.15289907 0.026195753 0.17735648 0.11531385 -0.190484
0.06641099 0.022373518 0.07624683 -0.0052648955 0.19294767 -0.03133829 0.0015761472 0.11260071
0.0759141 0.024465123 0.04463582 0.032878097 0.041410975 0.022260752 0.032920253 -0.17483589
00000000: 3b61 133e 26df b9bc 41dc b23d 52c1 363e
00000010: 03cc 9c3d 5f93 a53d 38bf 353d 044c 28bd
00000020: 33da 883c 2eca e93b 86bc 52bc 8f45 af3d
00000030: d473 8438 f01c 1ebe a2d9 bb3d b305 df3d
00000040: 4593 d4bd 8037 9ebd 3549 6bbd 0e2c be3d
00000050: 3c00 053e fbad c93b 22a0 233c 89de cdbd
00000060: 35bf 02be 7ed9 1b3c 8b01 c23d 2c02 493c
00000070: 7ab3 2a3e 63f3 23bd 5512 173e 75e1 cabd
00000080: c650 18bd c5b5 78bc 6cb1 613d e862 e9bd
00000090: eb6b fbbd c37d df3d 858d 273e 1c5a aebd
000000a0: fcf4 cb3d 7e4d 053e b4b8 ae3d 8f0b 13be
000000b0: 2eb3 fd3d 2095 403a 6140 933d d32c 33be
000000c0: b144 4fbd c527 f93d 836f be3d 7bd7 653c
000000d0: 3f4f 063e 3342 39bd 11a2 90bc 9003 d8bc
000000e0: 9145 503d 8ed4 6fbd 8ebe 233e 57c3 293e
000000f0: eb27 8c3d 8282 e13d 61b0 26bc bb36 f5bd
00000100: a612 d23d 0890 843d 9b32 073e 890c 9c3c
00000110: 60f9 c83d 2f86 143e 10b8 033e e422 0cb9
00000120: 78d6 133e 744c 723c d11a 443d f0ba 8bbd
00000130: c288 f9bc db9f 52be c0e7 67bc 73aa 3d3d
00000140: 5cc4 2dbd 8307 15be 9940 16be 002d f43b
00000150: 8697 383e b29f 1ebd 2fa1 483d 15eb a83d
00000160: 5458 21be b0d8 c8bd 225e 113e 2b1d 023e
00000170: 0f8d cc3d 029b 5b3d e2c6 07bd ad40 a8bd
00000180: 1d94 3cbe 581b 10be 647d 39be f30a 19bd
00000190: 6ece 493d 9383 e43d 2564 17bd d398 953d
000001a0: 3b75 91bd c02f 063e 0384 1d3e 72d6 11bc
000001b0: df79 023e 0ab1 153e 6d26 dc3b 4d36 3fbe
000001c0: 5895 a13c 5c42 853d edcf d3bc cb0e 4cbd
000001d0: 82d3 83bd b32a 123d 8312 2e3c d84d c83d
000001e0: f51c 863d ad2c cb3d 7316 193e eca1 313e
000001f0: bbac 2d3c f45a 3b3d 57a2 b33d 6083 bbbd
00000200: d798 edbd 3f6a 21be 4d66 0d3e a430 3dbe
00000210: 4c70 0a3e e6b4 483e 972e 02be a851 343e
00000220: 4691 53be e68d 4b3e 66e6 073e b10b 2e3e
00000230: 30c3 3abe 4a69 43be 5b3a d3bd a2c8 2dbe
00000240: 8f90 043d 6daa 1cbe 626c bf3d 90f7 3cbe
00000250: cfe6 2d3e 1178 98be 0931 3c3e c96a 4cbe
00000260: d88e 14be 7719 41be 1e9d 4b3e 8ac9 253e
00000270: c104 5c3e 0721 1ebe c659 3dbe 0431 c13d
00000280: 3d1e 50be 08ea c3bd 276d 21be 77de 18be
00000290: 11fb 4f3e 3a34 3dbe 4de3 16be 1e96 4d3e
000002a0: d0fb d8bd 5452 783d 753d 243e db0b 253d
000002b0: fb86 38be 54ab 163e 11fb d4bd 76fe 26be
000002c0: d8de 61bd 6b55 28be 00c9 123e 7e6b 393e
000002d0: be4f 27be 13d7 473e d98d e73d b967 0f3e
000002e0: 72c5 00be 0e37 9f3d 7c79 e83d 0952 1dbe
000002f0: 6362 b73d aef3 bcbd 92cd 343e ed57 523e
00000300: 1a56 1f3d 96a3 77bb 6d9e 86bc e491 593e
00000310: 8b46 9abd b3d9 f93d 8200 1f3e fa78 11be
00000320: f7e0 973d 5a0e a03d 2433 d83b 75df 9c3d
00000330: 8b45 283e 4e38 bfbd 8780 8b3c b20d b53c
00000340: bcf9 b6bd 9a8a 03be 2e90 87be 2b08 013e
00000350: 2323 623e 9e39 46be 59ac cfbd 05fc 03be
00000360: f505 d9bd 0a2d c13c 7c9f 273d 33ce 5b3d
00000370: 567e 833e 28ad dfbb fab6 cb3d 58bd eabd
00000380: ad55 9abe 79bb 5ebe 7479 a13a 5677 393b
00000390: 5c1a 44bd 4545 213e 1f08 333e 7a9c 0ebe
000003a0: fc1e ee3c d055 3e3e 4202 553e 9391 1cbe
000003b0: 7a98 d63c f09c 353e ab29 ec3d 3d0e 43be
000003c0: 7c02 883d ab48 b73c 4c27 9c3d 2585 acbb
000003d0: 1394 453e 945c 00bd b996 ce3a 339b e63d
000003e0: da78 9b3d 156b c83c 0dd4 363d 2fab 063d
000003f0: 8e9e 293d 2e5c b63c 63d7 063d 2e08 33be

lstm.weight_hh_l0 f4 [256, 64]
0.093034476 0.06937521 0.115651414 -0.12107953 -0.10969339 0.025011962 0.023030115 -0.100374065
-0.08983877 0.03717905 -0.116326615 -0.027872745 -0.0151920775 0.042219486 0.060678765 0.07261288
0.003587823 -0.042230774 -0.09214058 -0.012039108 0.08763234 0.024406008 0.03773385 0.03106123
0.16431704 -0.1159952 -0.100824565 -0.03101687 0.10700735 0.1231243 -0.10458687 0.018399961
0.08021892 0.020561185 -0.04733892 0.06886096 0.0714326 0.034694295 -0.08211936 -0.089735754
-0.057472114 -0.030433232 0.110740736 -0.022693248 0.04332617 -0.07005267 -0.07792026 0.15207188
0.026103452 0.030201526 -0.052193195 -0.09053582 0.04538933 -0.022467174 0.0895155 0.04767518
-0.11828899 -0.029037377 -0.04565484 -0.046524175 0.059835013 -0.10692634 0.010089952 -0.113285504
-0.094447725 -0.032597046 -0.08699394 -0.019161195 -0.08714838 0.12732053 0.025684526 -0.13435893
0.030251559 -0.04950347 0.06568501 -0.06456091 0.026231114 0.20028234 0.008929623 -0.07932233
-0.058476876 -0.07754877 -0.063970126 -0.08818177 0.11859729 0.0338569 0.099835545 -0.024688378
-0.0033963406 0.077576935 0.0030940692 0.12779033 -0.08256244 -0.08485555 0.009843186 -0.14708145
0.0776586 -0.035008043 0.08968771 0.11022196 -0.05775471 -0.10600805 0.017335344 0.013718832
-0.06529722 0.11606939 0.026907647 0.09665135 -0.10707397 0.03735784 -0.031572443 0.21695498
-0.011520774 0.07251824 0.11041173 0.062037 -0.12429318 0.09043342 0.01877325 0.04099682
0.11896419 0.09660667 -0.025814228 0.0044049993 0.012812161 -0.12050879 -0.022365151 0.06580168
-0.12751026 0.030659683 0.11704248 0.0030892764 0.075872086 0.095883094 -0.11455299 -0.14154638
-0.0724355 -0.009360638 0.14768438 -0.042890582 -0.08450586 0.1403636 0.10072547 0.032694165
-0.07479233 -0.053164944 0.012224999 -0.10439947 -0.009886038 0.0065790853 0.023821145 0.16179217
-0.08766172 -0.056605704 0.019420343 -0.082022004 0.041265924 0.11729337 -0.096034534 0.061947465
-0.02470661 0.014018623 0.009610706 0.115621366 -0.025270453 0.08067521 0.03773449 -0.10711485
-0.06408053 0.056688666 0.007823786 0.03243159 0.0581217 0.026600132 -0.043309398 0.14313935
0.1262053 -0.11124772 0.080508515 -0.080915675 0.08469839 -0.11640295 0.088508494 -0.101856805
0.031085696 -0.021401286 -0.011013044 0.028496929 0.09232355 4.8424583e-05 0.04564108 0.05063416
0.050103184 0.13824444 0.008962713 0.1286217 0.06429471 -0.020453542 0.07387576 0.05022297
-0.088475 -0.117542036 -0.021352783 -0.11036344 0.0112251295 0.19405474 0.15846345 -0.05671768
-0.16047838 -0.06176063 0.09252326 -0.0051803025 0.0860424 0.16193952 -0.056015596 0.047896344
0.040436223 0.029378332 -0.047961295 -0.13697986 -0.065866716 0.09891085 0.098361544 -0.087253205
0.021279758 -0.11808787 0.027493615 -0.025552778 0.04929201 0.07394851 0.03839 -0.08895345
-0.04822266 0.05721302 -0.029303227 -0.026135433 0.11865042 -0.15255871 0.12705411 0.11725925
-0.0163852 0.07220057 -0.020158838 -0.07255103 -0.048236385 -0.08783623 -0.1490876 0.039478935
0.099360034 -0.013647486 -0.13672353 0.07913741 0.10294906 0.033364244 -0.00693825 -0.0629577
00000000: dc88 be3d 9714 8e3d a6da ec3d 8bf8 f7bd
00000010: eea6 e0bd e3e5 cc3c a7a9 bc3c eb90 cdbd
00000020: 64fd b7bd 0f49 183d a63c eebd 6255 e4bc
00000030: 31e8 78bc 57ee 2c3d 4c8a 783d 10b6 943d
00000040: ae21 6b3b 2dfa 2cbd 33b4 bcbd ae3f 45bc
00000050: 9678 b33d 1cef c73c cf8e 1a3d 1f74 fe3c
00000060: ba42 283e e48e edbd 1c7d cebd 1717 febc
00000070: ab26 db3d 9828 fc3d a431 d6bd 84bb 963c
00000080: d149 a43d ee6f a83c 75e6 41bd fa06 8d3d
00000090: 414b 923d 9b1b 0e3d 322e a8bd 61c7 b7bd
000000a0: e167 6bbd 1d4f f9bc 0acc e23d 31e7 b9bc
000000b0: c876 313d c677 8fbd a894 9fbd bbb8 1b3e
000000c0: e8d6 d53c 3169 f73c 88c8 55bd d86a b9bd
000000d0: 29ea 393d 140d b8bc e753 b73d 0d47 433d
000000e0: 7f41 f2bd cbdf edbc 9200 3bbd 2290 3ebd
000000f0: 8f15 753d 32fc dabd 5350 253c 3b02 e8bd
00000100: cf6d c1bd 7b84 05bd e129 b2bd f0f7 9cbc
00000110: da7a b2bd 5060 023e 5b68 d23c 6395 09be
00000120: 1ed2 f73c 27c4 4abd dd85 863d 8338 84bd
00000130: a2e2 d63c d016 4d3e 8e4d 123c bf73 a2bd
00000140: 7385 6fbd e4d1 9ebd c502 83bd a598 b4bd
00000150: 23e3 f23d 88ad 0a3d 9476 cc3d 483f cabc
00000160: 2495 5ebb a8e0 9e3d dec5 4a3b 78db 023e
00000170: 7f16 a9bd bfc8 adbd 5045 213c 859c 16be
00000180: 790b 9f3d 9864 0fbd 31ae b73d 0dbc e13d
00000190: 3490 6cbd c01a d9bd da02 8e3c f4c4 603c
000001a0: 8dba 85bd cab5 ed3d 6d6d dc3c 25f1 c53d
000001b0: 9949 dbbd 8904 193d 1b52 01bd 7229 5e3e
000001c0: a1c1 3cbc 7184 943d 8c1f e23d 821a 7e3d
000001d0: 6c8d febd 2835 b93d 5cca 993c 48ec 273d
000001e0: 7fa3 f33d b8d9 c53d 5c78 d3bc d057 903b
000001f0: 19ea 513c 50cd f6bd 1f37 b7bc 08c3 863d
00000200: 0d92 02be 042a fb3c f8b3 ef3d 7575 4a3b
00000210: d362 9b3d 5b5e c43d c29a eabd 89f1 10be
00000220: 1059 94bd 5d5d 19bc 933a 173e 09ae 2fbd
00000230: 6911 adbd 7abb 0f3e 2849 ce3d 51ea 053d
00000240: b92c 99bd 7cc3 59bd 5d4b 483c 64cf d5bd
00000250: 0cf9 21bc 5e95 d73b 9024 c33c d9ac 253e
00000260: fd87 b3bd 62db 67bd 6917 9f3c 27fb a7bd
00000270: 7506 293d 8237 f03d c1ad c4bd a0bc 7d3d
00000280: 8465 cabc 5eae 653c 3976 1d3c e5ca ec3d
00000290: fb03 cfbc 0b39 a53d 7b8f 1a3d 085f dbbd
000002a0: a73c 83bd 6032 683d 562f 003c fdd6 043d
000002b0: 0511 6e3d 85e8 d93c 3265 31bd 1f93 123e
000002c0: f63b 013e d8d5 e3bd a6e1 a43d 1eb7 a5bd
000002d0: 5976 ad3d ab64 eebd f143 b53d 4d9a d0bd
000002e0: 6ea7 fe3c c051 afbc 0e70 34bc 6472 e93c
000002f0: 2114 bd3d 801b 4b38 24f2 3a3d c465 4f3d
00000300: ff38 4d3d f38f 0d3e 58d8 123c 68b5 033e
00000310: f2ac 833d 308e a7bc 2d4c 973d 9ab6 4d3d
00000320: 6132 b5bd e1b9 f0bd 08ec aebc 3a06 e2bd
00000330: 9be9 373c 49b6 463e 3e44 223e cc50 68bd
00000340: 7254 24be b7f8 7cbd d67c bd3d 87bf a9bb
00000350: ff36 b03d 79d3 253e 9c70 65bd f52e 443d
00000360: 74a0 253d d4aa f03c 1073 44bd 7344 0cbe
00000370: 21e5 86bd c691 ca3d c771 c93d cfb1 b2bd
00000380: e352 ae3c 0ed8 f1bd 4a3a e13c 0f54 d1bc
00000390: 6be6 493d 5172 973d d53e 1d3d 3a2d b6bd
000003a0: 2085 45bd 3358 6a3d 520d f0bc fa19 d6bc
000003b0: fefe f23d 5a38 1cbe 791a 023e 9e25 f03d
000003c0: 413a 86bc e4dd 933d 2624 a5bc a295 94bd
000003d0: 8493 45bd 7be3 b3bd 6baa 18be aab4 213d
000003e0: 467d cb3d b599 5fbc 4101 0cbe cb12 a23d
000003f0: f5d6 d23d f2a8 083d 425a e3bb f7ef 80bd

lstm.bias_ih_l0 f4 [256]
0.05184117 0.05501207 -0.016430251 -0.05431327 -0.033077076 0.04190542 0.15192944 0.057271212
0.17560406 0.0068086544 -0.01725054 0.37098762 0.13228865 0.06737981 0.11090357 0.11635641
-0.0849782 0.11555548 -0.010651576 -0.03907166 -0.082921565 0.14462158 0.08202074 -0.00120797
-0.03482736 0.1345502 0.13380295 0.104324006 0.0564819 0.017946335 -0.105262734 0.06980882
-0.0041127554 -0.075756796 -0.05818838 -0.019014323 0.096480235 0.03115144 0.08375525 0.059852555
0.1417945 -0.16292231 -0.09678071 -0.048520166 0.02148705 -0.022581944 -0.09859918 0.001985136
-0.05839454 0.0041469475 -0.085453816 -0.07025768 -0.09734249 -0.011308914 0.021103738 0.044770006
0.0713033 0.043220233 0.039930176 0.09497092 -0.13205104 -0.10831293 -0.112021275 0.067123644
0.08440699 0.0633675 0.048658393 0.034585647 0.05468912 0.04784512 -0.10918418 -0.0559137
0.10905102 -0.059461556 -0.08471433 -0.083829395 -0.06738907 -0.11529707 -0.026329646 -0.120137155
0.094208404 -0.047117032 0.10310458 0.11089211 0.0096655125 -0.12042876 0.04693406 0.0063551897
-0.013072027 -0.05998013 0.05992492 0.031123294 -0.055011384 0.12169299 0.030750804 -0.123525314
-0.10819061 0.007576119 0.024831887 -0.08128294 -0.022069726 -0.02895949 -0.1563087 -0.11721753
-0.13818407 -0.1502076 0.06675068 -0.107569985 -0.10076347 -0.021048024 -0.12608668 -0.07720506
-0.015525705 -0.11582108 -0.11995712 -0.15338579 0.075825565 0.136656 -0.10403486 -0.03285033
-0.097328916 -0.0055189123 0.018848808 0.06946015 -0.06264098 0.07638873 0.065181494 -0.037407067
0.011392602 -0.04615065 0.0045489115 -0.04639442 -0.018964805 0.0812852 0.10667432 -0.0042665605
-0.09937638 0.027940761 0.0155434 0.029441949 0.07704195 0.07182432 -0.05051921 -0.0660214
0.10623702 0.09702463 -0.09375163 0.069162995 0.013989781 0.077516265 0.013037868 0.08671562
-0.00096129405 0.030920126 0.06506764 -0.1066485 0.08464335 0.065423556 -0.06414589 0.0018314311
0.009290446 0.051477466 0.07965873 0.06822462 -0.1083727 -0.038093314 0.0051854094 -0.02363883
-0.08250909 -0.07297959 0.08566026 -0.037221752 0.0763025 0.072156474 0.0043469546 -0.006570709
0.037903644 -0.045438383 -0.0310619 0.025870295 -0.09080741 -0.10507593 -0.07326794 0.013010839
0.024194667 -0.052311283 0.02705443 -0.08297503 0.046155237 0.026270112 0.06327121 0.059754718
0.021427603 0.10310317 0.09144506 -0.11000394 -0.13106203 0.12829666 0.10631887 0.0957844
0.2039692 0.021468692 -0.047691133 0.4843277 0.016817715 -0.032790765 -0.09641241 0.025400426
0.10739268 0.07121813 -0.07699736 0.022605 0.012638827 0.021077191 0.16369872 0.07726105
0.041916344 0.08038273 0.17833659 0.046786483 0.08547278 0.030965459 0.05706059 -0.085185
0.15976302 0.025531963 0.05291566 0.007902188 0.045726165 0.00040176453 -0.116408706 0.106793635
0.085197836 0.059801146 -0.064530134 -0.08956578 -0.07016172 -0.09181161 0.02720625 0.031449415
-0.079538144 0.046635475 0.09370273 0.1686067 -0.031077439 -0.065144986 0.10222718 0.025212338
0.114510484 -0.14344482 0.10320457 -0.0759197 -0.1511305 -0.071255304 -0.10149797 0.08328394
00000000: 6857 543d 5654 613d bc98 86bc 9777 5ebd
00000010: d47b 07bd 05a5 2b3d 6493 1b3e 3895 6a3d
00000020: 8dd1 333e 221b df3b 0151 8dbc 17f2 bd3e
00000030: ad76 073e 6dfe 893d 6921 e33d 454c ee3d
00000040: 0d09 aebd 5aa8 ec3d f383 2ebc 9b09 20bd
00000050: c8d2 a9bd ae17 143e 7dfa a73d bf54 9eba
00000060: 22a7 0ebd 87c7 093e a403 093e d3a7 d53d
00000070: 9159 673d 3104 933c fd93 d7bd edf7 8e3d
00000080: 4bc4 86bb 6126 9bbd f056 6ebd edc3 9bbc
00000090: 6e97 c53d 4e31 ff3c df87 ab3d f427 753d
000000a0: 9432 113e 1bd5 26be f734 c6bd 15bd 46bd
000000b0: 9c05 b03c c5fd b8bc 5eee c9bd 0e19 023b
000000c0: 1d2f 6fbd 1ee3 873b 6902 afbd 42e3 8fbd
000000d0: 805b c7bd 0649 39bc bfe1 ac3c c160 373d
000000e0: 7707 923d b307 313d d38d 233d 1d80 c23d
000000f0: 6338 07be 2bd3 ddbd 696b e5bd 1f78 893d
00000100: 92dd ac3d d2c6 813d 064e 473d aea9 0d3d
00000110: b301 603d 3ff9 433d f59b dfbd c405 65bd
00000120: 2456 df3d f68d 73bd b57e adbd bfae abbd
00000130: 4803 8abd df20 ecbd 45b1 d7bc 780a f6bd
00000140: 56f0 c03d cafd 40bd 7e28 d33d 671b e33d
00000150: 195c 1e3c 5ba3 f6bd ee3d 403d 323f d03b
00000160: 0e2c 56bc baad 75bd d573 753d 47f6 fe3c
00000170: 9e53 61bd 2d3a f93d 1ce9 fb3c d7fa fcbd
00000180: 0a93 ddbd 1841 f83b 3e6c cb3c ac77 a6bd
00000190: 92cb b4bc 743c edbc 630f 20be bf0f f0bd
000001a0: 2080 0dbe 05d0 19be 95b4 883d a74d dcbd
000001b0: 145d cebd e86c acbc de1c 01be b01d 9ebd
000001c0: 875f 7ebc 9a33 edbd 14ac f5bd 2a11 1dbe
000001d0: 6f4a 9b3d 8def 0b3e 3b10 d5bd 118e 06bd
000001e0: 6254 c7bd fed7 b4bb d168 9a3c 2041 8e3d
000001f0: ea49 80bd b271 9c3d e07d 853d 2738 19bd
00000200: 09a8 3a3c 7708 3dbd 090f 953b 1308 3ebd
00000210: 145c 9bbc db78 a63d 1178 da3d 81ce 8bbb
00000220: d885 cbbd 06e4 e43c bfa9 7e3c 3e30 f13c
00000230: 2bc8 9d3d a118 933d 3bed 4ebd 3a36 87bd
00000240: cb92 d93d d9b4 c63d db00 c0bd 54a5 8d3d
00000250: 6535 653c d9c0 9e3d c89c 553c f597 b13d
00000260: 5aff 7bba 344c fd3c 2f42 853d 876a dabd
00000270: 7e59 ad3d c9fc 853d ec5e 83bd a10c f03a
00000280: f436 183c 09da 523d 1e24 a33d 59b9 8b3d
00000290: 82f2 ddbd bc07 1cbd 5eea a93b 38a6 c1bc
000002a0: 87fa a8bd 5376 95bd a56e af3d d675 18bd
000002b0: 7c44 9c3d c6c6 933d e670 8e3b 1a4f d7bb
000002c0: da40 1b3d 991d 3abd 8775 febc f1ed d33c
000002d0: 3cf9 b9bd 0d32 d7bd 800d 96bd 6a2b 553c
000002e0: e533 c63c 5b44 56bd 41a1 dd3c d0ee a9bd
000002f0: 460d 3d3d 6b34 d73c 5694 813d 5dc1 743d
00000300: f188 af3c c127 d33d 8c47 bb3d bf49 e1bd
00000310: 2035 06be 3360 033e b5bd d93d 9d2a c43d
00000320: 4ddd 503e 1cdf af3c c757 43bd cdf9 f73e
00000330: 4ec5 893c 9c4f 06bd df73 c5bd 8e14 d03c
00000340: b2f0 db3d d0da 913d cbb0 9dbd 1f2e b93c
00000350: 1513 4f3c 13aa ac3c a3a0 273e 0b3b 9e3d
00000360: 79b0 2b3d b39f a43d de9d 363e 2fa3 3f3d
00000370: 5a0c af3d 46ab fd3c 5db8 693d 7975 aebd
00000380: eb98 233e 6828 d13c 17be 583d 2e78 013c
00000390: 5c4b 3b3d eca3 d239 b067 eebd 9fb6 da3d
000003a0: 347c ae3d 0cf2 743d 6028 84bd 436e b7bd
000003b0: f3b0 8fbd ba07 bcbd a4df de3c 1ad1 003d
000003c0: e5e4 a2bd d704 3f3d 38e7 bf3d 3ca7 2c3e
000003d0: 1d96 febc bc6a 85bd 7c5c d13d 1b8a ce3c
000003e0: 7984 ea3d 33e3 12be eb5c d33d ca7b 9bbd
000003f0: f4c1 1abe 4dee 91bd 2bde cfbd c590 aa3d

lstm.bias_hh_l0 f4 [256]
-0.10898823 0.1571159 -0.022998827 -0.0011213381 0.09214395 0.123844646 0.0258613 -0.0864086
0.19139455 0.08481463 -0.024103556 0.582001 0.15004672 -0.08840253 0.03570237 0.0036960084
-0.09622855 -0.0507317 0.027485581 0.031403806 -0.11462709 0.22903153 -0.035531722 -0.0558965
0.104481876 0.16838838 0.16431087 -0.009503239 0.12622692 0.106534846 -0.05025286 0.10501028
0.10049248 -0.051354367 0.069568716 0.09943349 0.11451876 -0.07911169 -0.08706231 0.090972304
0.11125602 0.054591443 0.102702 -0.05930662 -0.016747922 0.066535555 -0.033669632 -0.0933305
0.07513595 -0.017508484 -0.06695522 -0.07214204 -0.03370986 0.09123674 -0.024902837 0.0638349
-0.08632677 -0.023224844 0.015823899 -0.046930104 -0.12163166 -0.121123545 -0.0012642131 0.005426784
0.06537688 0.10388846 0.124805875 0.072495274 -0.13331093 -0.09479239 -0.08701412 -0.03787435
0.13459721 -0.101709135 -0.02916053 -0.148716 0.044530455 -0.03856979 0.021462739 -0.021706607
-0.02432801 -0.040849186 -0.0026491927 0.05768578 -0.0978995 -0.10047882 0.056958966 0.00056586065
0.037717834 -0.04393795 -0.0025930097 0.015309636 -0.031906787 -0.10444177 -0.11843229 -0.05851659
-0.14635293 -0.15723433 0.100587934 0.10081868 -0.02930554 -0.07130198 -0.025787469 0.059826545
-0.1462786 -0.020111041 -0.08102659 -0.028160432 -0.09755942 -0.12895374 -0.071276106 -0.14045398
0.06921957 -0.058794472 -0.08451505 -0.15243965 -0.15060356 0.10082845 0.055097822 0.03816016
0.053921692 -0.007071321 -0.15002504 0.037004292 0.041007318 -0.019229013 -0.026398906 0.07472778
0.004247273 0.015759131 -0.013317125 -0.018990645 0.055272963 0.005925181 -0.106360264 -0.07415516
0.12419682 -0.093529716 -0.030106356 -0.02897872 -0.048230823 -0.0312787 0.07105573 0.13202795
-0.12759197 -0.079452656 0.02431445 -0.020613536 0.07576859 0.048085164 -0.029734297 0.026952427
0.054195665 0.07121678 -0.05739181 0.009983002 -0.020462941 -0.01067311 -0.058089647 -0.0490931
0.050085936 -0.0073696924 0.056939445 0.04692238 -0.085939825 0.0022535594 -0.06679122 -0.099828914
0.059701703 0.06302085 0.049621005 -0.034482777 -0.0005080082 -0.012777749 -0.064916834 0.036518075
-0.027457058 0.054134343 -0.02467656 -0.044408623 0.07612498 0.04291611 0.08554691 0.034538187
-0.021161402 0.06589451 0.038904607 0.06013338 -0.029720966 -0.008656219 -0.07685005 -0.14098
-0.0664451 -0.052319083 0.016839687 0.002450355 0.103251584 0.004515612 0.10661697 0.09275908
0.14138658 0.17909917 -0.054006796 0.58946353 -0.03020686 -0.038127016 0.093210556 0.23120546
-0.107238315 0.01057284 -0.029413996 0.005714548 -0.03275501 0.055717118 -0.003867982 0.053621512
-0.05293138 0.06095953 0.08456653 -0.038906466 0.13966176 0.10221429 -0.053758312 -0.122994535
0.079771705 0.059660483 -0.049603123 0.03217539 0.13194926 0.026785104 -0.15993965 -0.087413825
0.06401007 -0.07184932 0.09375033 -0.10872414 -0.00385611 -0.021053057 0.114407375 0.0698079
-0.110989735 0.10598256 0.09538908 0.031905714 0.07822466 0.11071582 -0.080247596 0.058968928
0.01073798 0.079507396 -0.0206722 0.058465727 0.034677405 -0.0026168863 0.086167194 -0.047506925
00000000: 3935 dfbd fee2 203e 0968 bcbc ddf9 92ba
00000010: f8b5 bc3d 43a2 fd3d 14db d33c fef6 b0bd
00000020: effc 433e 4bb3 ad3d d274 c5bc 04fe 143f
00000030: d9a5 193e 630c b5bd a63c 123d bb38 723b
00000040: 7913 c5bd 0bcc 4fbd 7129 e13c 47a1 003d
00000050: 9cc1 eabd 3e87 6a3e b689 11bd baf3 64bd
00000060: 98fa d53d 016e 2c3e 1c41 283e 79b3 1bbc
00000070: a141 013e f12e da3d f1d5 4dbd a10f d73d
00000080: 00cf cd3d f558 52bd 0b7a 8e3d c9a3 cb3d
00000090: d088 ea3d 4f05 a2bd b94d b2bd b04f ba3d
000000a0: 32da e33d 479b 5f3d 6d55 d23d 80eb 72bd
000000b0: f032 89bc cb43 883d 2be9 09bd 1024 bfbd
000000c0: e1e0 993d f46d 8fbc d21f 89bd 35bf 93bd
000000d0: 5a13 0abd 54da ba3d 0901 ccbc dfbb 823d
000000e0: 17cc b0bd 0742 bebc 1fa1 813c c839 40bd
000000f0: 051a f9bd 9f0f f8bd f4b3 a5ba 2ad3 b13b
00000100: 50e4 853d 79c3 d43d 399a ff3d 6778 943d
00000110: a982 08be 8322 c2bd 7534 b2bd 2222 1bbd
00000120: dad3 093e e14c d0bd 10e2 eebc 0249 18be
00000130: 9165 363d 5bfb 1dbd a0d2 af3c 0ed2 b1bc
00000140: 894b c7bc 7a51 27bd 149e 2dbb ed47 6c3d
00000150: 887f c8bd d7c7 cdbd ce4d 693d 4456 143a
00000160: 047e 1a3d 48f8 33bd 7cef 29bb 44d5 7a3c
00000170: b1b0 02bd 91e5 d5bd a18c f2bd 18af 6fbd
00000180: 8bdd 15be 0902 21be 0c01 ce3d 067a ce3d
00000190: 2c12 f0bc c606 92bd 3e40 d3bc ae0c 753d
000001a0: 0fca 15be e9bf a4bc 45f1 a5bd b5b0 e6bc
000001b0: 3ccd c7bd 730c 04be 35f9 91bd 2bd3 0fbe
000001c0: fdc2 8d3d 79d2 70bd 3a16 adbd 2419 1cbe
000001d0: d237 1abe 257f ce3d 41ae 613d d44d 1c3d
000001e0: fedc 5c3d 8ab6 e7bb 2aa0 19be d091 173d
000001f0: 4af7 273d 2a86 9dbc 8542 d8bc e10a 993d
00000200: b52c 8b3b 4b19 813c 1230 5abc 4592 9bbc
00000210: e765 623d 0528 c23b 69d3 d9bd a9de 97bd
00000220: e75a fe3d 828c bfbd 9ba1 f6bc c864 edbc
00000230: af8d 45bd 181e 00bd ab85 913d 5632 073e
00000240: 78a7 02be 13b8 a2bd 192f c73c b8dd a8bc
00000250: 902c 9b3d f3f4 443d 5795 f3bc 56cb dc3c
00000260: 46fc 5d3d 1ada 913d ad13 6bbd bf8f 233c
00000270: e6a1 a7bc 45de 2ebc 69ef 6dbd d915 49bd
00000280: e926 4d3d 767d f1bb 5639 693d ae31 403d
00000290: 3801 b0bd 74b0 133b d6c9 88bd 1a73 ccbd
000002a0: c689 743d 1311 813d 653f 4b3d d03d 0dbd
000002b0: da2b 05ba c459 51bc 1ef3 84bd fa93 153d
000002c0: a0ed e0bc f9bb 5d3d 7f26 cabc d1e5 35bd
000002d0: 6ae7 9b3d cec8 2f3d 3833 af3d ea77 0d3d
000002e0: ad5a adbc b3f3 863d 705a 1f3d 6b4e 763d
000002f0: 6279 f3bc d0d2 0dbc 8f63 9dbd 105d 10be
00000300: 5e14 88bd 894c 56bd 62f3 893c 2396 203b
00000310: 9175 d33d b3f7 933b ff59 da3d 79f8 bd3d
00000320: a5c7 103e c665 373e 3b36 5dbd 15e7 163f
00000330: 6074 f7bc 132b 1cbd 2de5 be3d 20c1 6c3e
00000340: c39f dbbd b539 2d3c 9ff5 f0bc 1a41 bb3b
00000350: 1e2a 06bd a237 643d f87d 7dbb 3ba2 5b3d
00000360: 93ce 58bd b3b0 793d 3831 ad3d 635c 1fbd
00000370: 7e03 0f3e ba55 d13d ad31 5cbd 8fe4 fbbd
00000380: 595f a33d 8d5e 743d a52c 4bbd 57ca 033d
00000390: b51d 073e 6f6c db3c 38c7 23be 0506 b3bd
000003a0: b617 833d bc25 93bd 2c00 c03d c3aa debd
000003b0: cab6 7cbb 7677 acbc 6a4e ea3d 72f7 8e3d
000003c0: 964e e3bd 620d d93d 5a5b c33d 91af 023d
000003d0: 4034 a03d fabe e23d da58 a4bd 6789 713d
000003e0: 5aee 2f3c c6d4 a23d bf58 a9bc c279 6f3d
000003f0: e509 0e3d 1180 2bbb 6d78 b03d 9f96 42bd

lstm.weight_ih_l1 f4 [256, 64]
-0.082675576 -0.19595066 0.17676258 -0.11682914 0.11711229 0.14140883 -0.2709877 0.16155024
-0.10555189 0.15676652 -0.015764434 0.48656878 -0.16419083 0.020515697 -0.110998325 -0.1547154
0.033505607 -0.24550101 0.15238447 -0.16080573 0.16543622 -0.027765684 0.11226333 -0.17548005
-0.11279412 -0.055314537 -0.03316055 0.10846196 0.1440997 -0.203053 -8.66389e-05 0.14778899
-0.14366655 0.006141402 0.027282607 -0.04221576 0.013324846 -0.05014651 -0.046113916 0.0053598876
-0.15934195 0.024744965 0.029122628 0.04625099 -0.09777421 0.013533466 -0.1486276 0.03817161
-0.1301535 0.015220271 0.023725757 0.24729589 -0.07556469 0.17605576 0.18893749 -0.029923527
-0.062008202 0.14015356 0.22311851 -0.09064759 -0.092510745 0.016071968 0.16011654 -0.07039592
0.033527452 -0.010827933 0.1500099 -0.17988117 0.07362089 0.1469037 -0.14260149 -0.03661493
-0.12941323 0.040993996 0.17099957 0.28034243 0.00756781 -0.041851163 -0.16166385 -0.1847038
0.091087274 -0.11661206 -0.0100968005 -0.035181124 0.13404013 -0.17092386 0.059022874 -0.05044312
-0.063095 -0.10023447 -0.045632772 0.121086545 0.21276948 -0.14073156 -0.05445893 0.058961663
-0.1936366 -0.08021904 -0.007133678 -0.12113627 0.119323485 0.018180747 -0.036700416 -0.028921233
-0.07104934 0.025413001 0.01015037 0.1189798 -0.019428913 -0.062862664 0.0640641 -0.05535673
-0.15099187 -0.11666034 0.1793991 0.083455436 -0.048222166 0.15952109 0.11360032 -0.008321383
-0.119429104 0.07043984 0.06334027 -0.105549335 -0.066421956 -0.080575004 0.02483962 -0.037213527
-0.023583405 0.03523512 0.005433019 0.028605869 0.090163134 -0.07651314 -0.078671835 0.08735997
-0.13371022 0.1599294 0.06514719 0.12084616 0.02044271 -0.009363193 0.10253038 -0.03294405
0.0644068 -0.13939081 0.02537227 -0.12531084 -0.0038691387 0.01182255 0.024920812 0.0052585322
-0.12530541 -0.10639986 -0.005626574 0.056344572 0.11607501 0.013336691 0.090918444 0.06923025
-0.10646567 -0.01593779 0.009593148 0.042004365 0.039321586 0.04740719 0.02949996 0.14487767
0.11057677 0.1304902 0.08116891 0.059418257 -0.15705885 -0.027997067 -0.13182256 -0.02587523
0.038419887 -0.13036145 0.011996943 0.09143247 -0.053309985 0.13056925 -0.00399479 0.025298472
-0.094153486 0.048419923 0.059905373 -0.08643662 0.08224146 0.049622137 0.012897922 0.050498243
-0.019417249 -0.13537617 0.0012551269 -0.0017659056 -0.04195327 0.0038846182 -0.05269225 -0.07305118
-0.13010822 -0.005953891 0.11568406 0.23075481 0.0054072607 0.012185404 -0.15062939 -0.007997116
0.08661683 0.03011059 0.1199315 -0.12964262 0.07131305 -0.15773806 0.06590682 -0.14203079
-0.07636437 -0.22584824 0.16100737 -0.013067242 0.047018487 -0.19714414 0.08570329 0.058459245
-0.13073814 -0.13412106 -0.1539518 0.020653114 -0.05943395 0.043499943 -0.12992352 0.09321554
-0.11396277 0.122950636 -0.01471292 0.033180624 -0.15646079 0.062958 -0.0062862523 0.055216435
-0.009445049 -0.0307843 0.019473074 -0.07385418 -0.040862802 -0.02476505 0.1258607 -0.06235459
0.016616967 -0.09666611 -0.044140194 -0.14660707 0.06619376 -0.12782028 0.049132064 0.09052294
00000000: d051 a9bd 4aa7 48be 4001 353e 1e44 efbd
00000010: 91d8 ef3d 7acd 103e e6be 8abe 6d6d 253e
00000020: 972b d8bd 6787 203e 6a24 81bc 8b1f f93e
00000030: a421 28be 8910 a83c 1753 e3bd b76d 1ebe
00000040: 2d3d 093d 9e64 7bbe ad0a 1c3e 42aa 24be
00000050: 1d68 293e dc74 e3bc 51ea e53d 0bb1 33be
00000060: 9b00 e7bd 7f91 62bd 5bd3 07bd 4e21 de3d
00000070: df8e 133e 20ed 4fbe e8b1 b5b8 ff55 173e
00000080: 531d 13be d03d c93b c67f df3c 6fea 2cbd
00000090: 7450 5a3c 6d66 4dbd f2e1 3cbd ffa1 af3b
000000a0: 892a 23be f4b5 ca3c 9492 ee3c ae71 3d3d
000000b0: d83d c8bd 78bb 5d3c d531 18be d659 1c3d
000000c0: f646 05be 725e 793c 855c c23c 223b 7d3e
000000d0: a9c1 9abd f647 343e d478 413e 2f22 f5bc
000000e0: 50fc 7dbd 6a84 0f3e 2e79 643e 72a5 b9bd
000000f0: 4676 bdbd 5ca9 833c 97f5 233e bc2b 90bd
00000100: 1554 093d a567 31bc 329c 193e c532 38be
00000110: 8dc6 963d ec6d 163e 2006 12be 89f9 15bd
00000120: e784 04be 52e9 273d 831a 2f3e 0b89 8f3e
00000130: 64fb f73b 206c 2bbd 358b 25be fe22 3dbe
00000140: f78b ba3d 4ed2 eebd 0d6d 25bc 151a 10bd
00000150: d141 093e aa06 2fbe f8c1 713d 729d 4ebd
00000160: f437 81bd bb47 cdbd 6ee9 3abd 39fc f73d
00000170: 3ee0 593e ef1b 10be 5410 5fbd c981 713d
00000180: ac48 46be e149 a4bd a1c1 e9bb 4b16 f8bd
00000190: df5f f43d caef 943c 2d53 16bd 39ec ecbc
000001a0: 5182 91bd ed2e d03c bd4d 263c aeab f33d
000001b0: 6229 9fbc 24be 80bd 0a34 833d bdbd 62bd
000001c0: 9d9d 1abe 9eeb eebd 66b4 373e afea aa3d
000001d0: 9b84 45bd 7f59 233e 49a7 e83d 6956 08bc
000001e0: 3f97 f4bd c342 903d 8bb8 813d 402a d8bd
000001f0: 3c08 88bd 8204 a5bd 757c cb3c 366d 18bd
00000200: fc31 c1bc b452 103d 7707 b23b db56 ea3c
00000210: 73a7 b83d ecb2 9cbd b31e a1bd c9e9 b23d
00000220: 55eb 08be 88c4 233e e46b 853d 317e f73d
00000230: 7877 a73c 1468 19bc 73fb d13d 57f0 06bd
00000240: b6e7 833d 77bc 0ebe 82d9 cf3c 7c51 00be
00000250: 6091 7dbb 5eb3 413c bb26 cc3c c44f ac3b
00000260: 1050 00be 2be8 d9bd 205f b8bb 91c9 663d
00000270: bcb8 ed3d 2382 5a3c 7333 ba3d 97c8 8d3d
00000280: ac0a dabd f88f 82bc 942c 1d3c c50c 2c3d
00000290: ac0f 213d 0b2e 423d e6a9 f13c d05a 143e
000002a0: 1376 e23d 399f 053e e33b a63d 8f60 733d
000002b0: 09d4 20be 1b5a e5bc 7efc 06be 4af8 d3bc
000002c0: 2c5e 1d3d 797d 05be d38e 443c f240 bb3d
000002d0: 925b 5abd f2b3 053e bae6 82bb be3e cf3c
000002e0: 8bd3 c0bd f853 463d 565f 753d af05 b1bd
000002f0: 366e a83d 9540 4b3d ce51 533c 3fd7 4e3d
00000300: ec10 9fbc 0da0 0abe 1283 a43a f675 e7ba
00000310: 31d7 2bbd 1495 7e3b d4d3 57bd db9b 95bd
00000320: 173b 05be dc18 c3bb c4eb ec3d fd4a 6c3e
00000330: 642f b13b 4aa5 473c 973e 1abe 5606 03bc
00000340: 2a64 b13d 7caa f63c a59e f53d 09c1 04be
00000350: 940c 923d 1686 21be 28fa 863d 8570 11be
00000360: ec64 9cbd c344 67be 1edf 243e fc17 56bc
00000370: 7596 403d 27e0 49be 3585 af3d f672 6f3d
00000380: 38e0 05be 0857 09be 8aa5 1dbe b830 a93c
00000390: 0371 73bd ff2c 323d ac0a 05be cae7 be3d
000003a0: 5065 e9bd 8bcd fb3d 760e 71bc 68e8 073d
000003b0: 4237 20be 20f0 803d e8fc cdbb a12a 623d
000003c0: 68bf 1abc 5b2f fcbc ff85 9f3c dc40 97bd
000003d0: c15f 27bd 13e0 cabc a1e1 003e 8767 7fbd
000003e0: 4e20 883c e2f8 c5bd 59cc 34bd 2a20 16be
000003f0: 9890 873d 52e3 02be b43e 493d 1764 b93d

lstm.weight_hh_l1 f4 [256, 64]
-0.072169766 0.026209246 -0.10225925 0.10259049 -0.15651444 0.032077275 -0.006622323 0.06731989
-0.08914268 0.10674325 0.11035753 -0.041533895 -0.09299402 0.11783719 -0.02434021 -0.08048455
0.119753554 0.09804452 -0.1613951 -0.0025854807 -0.01456536 0.062086456 0.09213597 -0.036238868
0.0937277 0.029395914 0.10056971 -0.004263429 -0.036213268 0.19778591 0.04836666 0.13490807
-0.12321568 -0.007610483 0.12961043 -0.06488341 -0.07245292 -0.02314082 0.10959356 -0.108360134
0.18071912 -0.14356606 0.105275705 0.019867187 0.10119318 0.0701304 -0.08324275 -0.13006578
0.094676405 -0.09148437 0.080083594 -0.119455986 -0.05292143 -0.10563474 -0.014118898 0.05859651
-0.05048522 0.030196847 -0.080624044 -0.009477619 0.06367424 0.062180407 0.14190435 -0.03147049
0.02868926 0.08283383 -0.09431762 -0.009119591 -0.048400715 -0.10700925 0.14730772 0.14127041
-0.18389578 0.23820691 -0.07538716 -0.019745238 0.046665527 0.16319455 -0.0638857 0.0005099208
0.11221709 0.039903488 -0.17244834 -0.17941573 0.08716741 0.02718032 -0.033620715 0.023586923
0.06648435 0.016363904 0.06477875 0.044112768 -0.012385056 0.14535889 -0.026175369 0.080664136
-0.1532351 0.040938944 0.022831645 0.05035156 -0.15557271 -0.07028738 -0.060609717 0.005298482
0.076075666 -0.18592975 0.118678674 -0.027600247 -0.03921115 -0.014453182 -0.02763474 -0.029406695
-0.061522022 -0.07871239 0.016007522 -0.06510853 0.04109905 -0.12997921 -0.07426083 0.041835878
-0.05248527 0.156891 0.014259775 -0.052721467 -0.013093641 0.17443907 0.14640522 0.11551337
-0.15008703 -0.14772525 0.05602819 -0.14070651 0.055255726 -0.0971983 -0.08675225 0.11122177
0.010771475 0.007031879 0.017910661 -0.08358909 -0.07126028 0.16009781 0.12739766 0.06934736
0.13050641 0.047763947 -0.019005105 0.031491622 -0.08494208 -0.026604276 0.047073994 -0.0927179
0.027673053 0.041942466 0.072354086 0.20544566 -0.0397304 0.025623798 -0.02261688 0.06774648
-0.17229196 -0.10793283 0.030401291 -0.038313113 -0.123349324 -0.016317511 -0.016389307 0.060448345
0.026594074 0.027425092 0.06792348 -0.025518505 -0.13033691 0.14348902 -0.20194899 -0.036878455
0.13464758 0.045256577 -0.1213558 -0.0017796811 -0.102268875 -0.098424196 -0.103394076 -0.105409846
-0.15055206 0.17217463 0.05353437 -0.050025888 -0.054149937 0.05867715 0.09423751 -0.017673375
-0.15350474 -0.12531888 -0.062643774 -0.1299159 -0.06594665 -0.04681526 0.01806751 -0.10042699
-0.12331587 0.18974307 0.08904496 -0.0068261204 -0.11471344 0.06514891 -0.06891493 0.10108639
-0.023480354 -0.018263053 -0.12110949 -0.013383739 -0.11824753 0.05819558 0.12177866 0.032579694
-0.042441104 0.009786146 0.02840747 0.089804366 -0.060830157 0.16555567 -0.0027376632 -0.014641709
-0.06216952 0.056368485 0.012927659 0.06290415 -0.038311567 0.057625003 -0.009614975 -0.09110211
-0.044646233 -0.15248944 0.022001315 0.07103755 -0.087031 -0.05001189 -0.16519095 -0.05344698
0.0026256547 0.095905006 0.07472818 -0.11776519 -0.083112724 0.0135080805 0.085367605 -0.09162138
0.023397079 -0.030671136 0.07361029 0.12550691 -0.056070123 -0.022253832 -0.027321218 -0.043061778
00000000: becd 93bd c6b4 d63c 4c6d d1bd f61a d23d
00000010: 5245 20be 7663 033d 1200 d9bb 03df 893d
00000020: 7090 b6bd 349c da3d 2103 e23d 721f 2abd
00000030: a673 bebd a054 f13d 1f65 c7bc 15d5 a4bd
00000040: 5a41 f53d 91cb c83d c244 25be 2b71 29bb
00000050: 8ca3 6ebc 5e4e 7e3d c9b1 bc3d 356f 14bd
00000060: 4ff4 bf3d b3cf f03c 7ef7 cd3d 3cb4 8bbb
00000070: 5d54 14bd 6488 4a3e 1e1c 463d 5725 0a3e
00000080: 8158 fcbd 5c61 f9bb 99b8 043e 98e1 84bd
00000090: 3262 94bd d191 bdbc 9772 e03d ebeb ddbd
000000a0: 6f0e 393e fb02 13be ca9a d73d 83c0 a23c
000000b0: 5f3e cf3d 87a0 8f3d 2d7b aabd f72f 05be
000000c0: b4e5 c13d 285c bbbd de02 a43d 57a5 f4bd
000000d0: 24c4 58bd 0757 d8bd f352 67bc e502 703d
000000e0: 97c9 4ebd 615f f73c 381e a5bd 0448 1bbc
000000f0: a467 823d e2b0 7e3d 604f 113e 33e7 00bd
00000100: bd05 eb3c c8a4 a93d 9929 c1bd 566a 15bc
00000110: d43f 46bd aa27 dbbd d6d7 163e 31a9 103e
00000120: 2d4f 3cbe 83ec 733e 9564 9abd c4c0 a1bc
00000130: 5a24 3f3d 791c 273e 82d6 82bd 35ac 053a
00000140: 13d2 e53d d771 233d 4c96 30be c2b8 37be
00000150: d484 b23d 43a9 de3c e0b5 09bd 5d39 c13c
00000160: f228 883d 980d 863c b9aa 843d 97af 343d
00000170: b1ea 4abc f6d8 143e ba6d d6bc 3d33 a53d
00000180: a9e9 1cbe 98af 273d 6e09 bb3c 703d 4e3d
00000190: 744e 1fbe d4f2 8fbd e541 78bd e39e ad3b
000001a0: 8fcd 9b3d 5e64 3ebe ce0d f33d ea19 e2bc
000001b0: df9b 20bd 0acd 6cbc 4062 e2bc 4fe6 f0bc
000001c0: 84fe 7bbd f633 a1bd 3522 833c 9f57 85bd
000001d0: 7a57 283d 4519 05be 1016 98bd 195c 2b3d
000001e0: cbfa 56bd 09a8 203e d5a1 693c 77f2 57bd
000001f0: b686 56bc 28a0 323e 40eb 153e 4692 ec3d
00000200: 6ab0 19be 4a45 17be d17d 653d 5e15 10be
00000210: d453 623d e70f c7bd 2aab b1bd 3dc8 e33d
00000220: d77a 303c ad6b e63b 61b9 923c c230 abbd
00000230: e9f0 91bd aef0 233e 8874 023e fd05 8e3d
00000240: 79a3 053e 21a4 433d 98b0 9bbc 5cfd 003d
00000250: 1df6 adbd 36f1 d9bc a9d0 403d e2e2 bdbd
00000260: 99b2 e23c ddcb 2b3d 612e 943d 5960 523e
00000270: 58bc 22bd 00e9 d13c 0947 b9bc abbe 8a3d
00000280: 4e6d 30be e30b ddbd 210c f93c 36ee 1cbd
00000290: 929e fcbd 4dac 85bc de42 86bc af98 773d
000002a0: d1db d93c 96aa e03c 771b 8b3d 2f0c d1bc
000002b0: 0a77 05be c9ee 123e b7cb 4ebe dd0d 17bd
000002c0: 0ee1 093e f65e 393d 6489 f8bd 3044 e9ba
000002d0: 5872 d1bd a092 c9bd 46c0 d3bd 1ee1 d7bd
000002e0: 522a 1abe 8c4e 303e db46 5b3d f2e7 4cbd
000002f0: 53cc 5dbd 7457 703d 98ff c03d c1c7 90bc
00000300: 5930 1dbe 9853 00be 614b 80bd ac08 05be
00000310: 0a0f 87bd 5cc1 3fbd 5102 943c aaac cdbd
00000320: 088d fcbd 024c 423e 345d b63d a6ad dfbb
00000330: e1ee eabd cb6c 853d 4523 8dbd 6206 cf3d
00000340: df59 c0bc 669c 95bc 4108 f8bd 7847 5bbc
00000350: c32b f2bd 7d5e 6e3d 1767 f93d 4972 053d
00000360: b9d6 2dbd 1256 203c c8b6 e83c 5aeb b73d
00000370: 0b29 79bd 6d87 293e 5e6a 33bb c7e3 6fbc
00000380: 77a5 7ebd a4e2 663d 88ce 533c e4d3 803d
00000390: 97ec 1cbd 3208 6c3d 2188 1dbc be93 babd
000003a0: f8de 36bd 3126 1cbe 1a3c b43c 237c 913d
000003b0: 4f3d b2bd 44d9 4cbd d127 29be 38eb 5abd
000003c0: 2d13 2c3b d869 c43d 170b 993d e02e f1bd
000003d0: 0137 aabd ff50 5d3c 36d5 ae3d fda3 bbbd
000003e0: 3bab bf3c 0942 fbbc fec0 963d e284 003e
000003f0: c9a9 65bd ab4d b6bc bfd0 dfbc 8c61 30bd

lstm.bias_ih_l1 f4 [256]
0.09337741 0.09523136 0.12396408 -0.1084777 0.10706245 -0.006616353 0.18505713 -0.01167655
0.23013458 0.09667791 0.107039936 0.21569258 0.14587855 -0.01998381 0.08344578 0.19150428
-0.002256774 0.23862784 -0.040615004 0.08220104 0.014354655 -0.08602823 0.09671267 0.114011444
0.109408304 -0.0036858828 0.20560741 0.1941619 -0.013145159 0.30275658 0.051154632 -0.10069741
0.09001462 0.0392672 0.003705396 -0.10177917 0.10369203 0.07365846 0.1371792 -0.06709784
0.26775703 0.19935957 -0.01724486 0.03332497 -0.046673585 0.13212717 -0.010663829 0.01242522
-0.1290877 0.047020823 0.17332226 -0.045617756 0.1479381 0.09534055 0.029918363 -0.047080994
-0.05586551 0.23460416 -0.12276366 -0.024580223 0.10138886 0.062774956 0.2579004 -0.07882357
-0.002665123 -0.13500878 -0.010478625 -0.13850614 -0.109039 -0.12323937 0.08476331 0.07999221
-0.13632405 0.10878193 0.008691765 -0.02489349 0.029223643 -0.1035939 0.0057930658 -0.027643953
9.519886e-05 -0.054649904 -0.11845484 0.108613305 0.030073438 -0.10910984 -0.0893754 0.00016217469
0.074843876 -0.050109364 -0.15035291 0.11861188 -0.03462261 -0.060340922 -0.024541248 -0.038926575
0.028417133 -0.057302143 0.11233852 -0.16604689 -0.038852233 0.085587054 0.046248153 0.022356562
-0.08018282 0.03729764 0.0687591 0.019078942 0.03962953 -0.14548811 -0.008024924 -0.090904675
0.0041155703 -0.061874967 -0.07728321 -0.07105227 -0.07160698 -0.13761106 -0.10428137 -0.05467177
0.023214115 -0.16204306 0.026459185 -0.030058865 0.015826996 0.08745301 0.07228883 -0.013482417
0.10351886 -0.03187074 0.06908491 0.075156905 0.11125927 0.103792176 -0.010837172 -0.039949726
0.08863475 0.02819884 0.034030356 -0.081061825 -0.0780795 0.07370687 -0.06614917 0.07273965
-0.051053006 -0.07336622 -0.058318276 -0.029244915 0.092583925 -0.092693724 0.045160443 -0.058317166
0.086434774 -0.08514945 -0.021100124 0.013448866 -0.065567195 -0.03801913 -0.027215457 -0.03767477
-0.03498903 -0.025846457 -0.081173174 0.00070648396 -0.095606275 -0.012969283 -0.010703006 -0.10964171
0.03500981 -0.03876777 0.00052524346 -0.069016114 -0.055919148 -0.12530038 -0.09819831 -0.074884586
-0.059578747 0.02356056 0.067490965 0.064722024 0.01655218 -0.0635427 0.10716971 -0.041349076
0.014715571 0.03461262 0.099831276 -0.053304054 -0.061334185 0.06240582 -0.04295475 0.058661804
0.059309315 0.08628163 0.06623115 0.008297977 0.045886513 0.096530415 0.19886616 0.046408042
0.14673263 0.016028138 0.34862775 0.14091183 0.15008661 -0.049139027 -0.020547949 0.17661065
0.1034676 0.00028859777 0.07183577 -0.061223026 -0.009516202 0.11725277 -0.060988963 0.014149307
0.05360358 -0.011894203 -0.021343205 0.10035697 0.1235322 0.22482072 0.112511896 0.004796456
0.017665908 0.009663176 -0.007250558 0.08211351 0.16257915 -0.004008259 0.0070232893 0.005523781
0.1562001 0.20065755 -0.007786903 -0.006156418 -0.06483229 0.21166676 0.16715644 0.059961047
0.033583727 -0.02369712 0.12155597 0.04452832 0.08410354 0.012681186 0.05136657 0.08728865
-0.0010259333 0.38986573 0.00084580865 -0.05378227 -0.07161322 0.13202667 0.32421568 0.058397908
00000000: a83c bf3d a908 c33d e1e0 fd3d 8e29 debd
00000010: 8f43 db3d fecd d8bb 9e7f 3d3e 004f 3fbc
00000020: 66a8 6b3e 11ff c53d c137 db3d 84de 5c3e
00000030: 3061 153e 16b5 a3bc 9fe5 aa3d b319 443e
00000040: 63e6 13bb db5a 743e eb5b 26bd 0559 a83d
00000050: c92f 6b3c 922f b0bd 4b11 c63d d57e e93d
00000060: 7611 e03d da8e 71bb c08a 523e 61d2 463e
00000070: cb5e 57bc e902 9b3e 8587 513d 723a cebd
00000080: 9659 b83d a5d6 203d 3bd6 723b 9971 d0bd
00000090: 7d5c d43d 3fda 963d b478 0c3e 986a 89bd
000000a0: 7317 893e ea24 4c3e 1845 8dbc c47f 083d
000000b0: cd2c 3fbd 584c 073e 57b7 2ebc 2693 4b3c
000000c0: 912f 04be e898 403d 647b 313e afd9 3abd
000000d0: 167d 173e e841 c33d 5b17 f53c 00d8 40bd
000000e0: 3cd3 64bd 133c 703e 846b fbbd 775c c9bc
000000f0: f6a4 cf3d 2890 803d 850b 843e 406e a1bd
00000100: 58a9 2ebb be3f 0abe 8aae 2bbc 8ed4 0dbe
00000110: d74f dfbd ec64 fcbd 6398 ad3d f5d2 a33d
00000120: 8898 0bbe 0fc9 de3d e867 0e3c 6fed cbbc
00000130: 6c66 ef3c 0a29 d4bd c2d3 bd3b 9275 e2bc
00000140: 80a5 c738 94d8 5fbd 7398 f2bd a770 de3d
00000150: 925c f63c fb74 dfbd 730a b7bd 700d 2a39
00000160: bf47 993d 7a3f 4dbd 1df6 19be c9ea f23d
00000170: 70d0 0dbd 0b28 77bd ba0a c9bc 7971 1fbd
00000180: 0ccb e83c a7b5 6abd bd11 e63d 3208 2abe
00000190: 8523 1fbd 4448 af3d b46e 3d3d 1c25 b73c
000001a0: e436 a4bd 69c5 183d 92d1 8c3d 714b 9c3c
000001b0: 9352 223d d6fa 14be f97a 03bc 3b2c babd
000001c0: e8db 863b 9b70 7dbd a946 9ebd da83 91bd
000001d0: aea6 92bd eae9 0cbe 7991 d5bd 82ef 5fbd
000001e0: 872b be3c 9eee 25be efc0 d83c 023e f6bc
000001f0: 9ea7 813c 901a b33d 2b0c 943d 5be5 5cbc
00000200: b201 d43d e58a 02bd 647c 8d3d ddeb 993d
00000210: e6db e33d fe90 d43d 658e 31bc 53a2 23bd
00000220: 2386 b53d 4101 e73c 6a63 0b3d be03 a6bd
00000230: 25e8 9fbd a1f3 963d 3779 87bd 87f8 943d
00000240: f51c 51bd 0741 96bd 25df 6ebd 0893 efbc
00000250: a49c bd3d 35d6 bdbd 28fa 383d fbdd 6ebd
00000260: b704 b13d d662 aebd 2bda acbc a258 5c3c
00000270: 1848 86bd f2b9 1bbd f3f2 debc dc50 1abd
00000280: a850 0fbd f3bb d3bc 1f3e a6bd 5633 393a
00000290: 39cd c3bd 1e7d 54bc a95b 2fbc d58b e0bd
000002a0: 7266 0f3d f4ca 1ebd 7eb0 093a 5258 8dbd
000002b0: 7a0b 65bd be4e 00be 321c c9bd 175d 99bd
000002c0: d808 74bd 1302 c13c b438 8a3d fb8c 843d
000002d0: 7098 873c ad22 82bd cb7b db3d a65d 29bd
000002e0: 9419 713c f6c5 0d3d 5774 cc3d 5a55 5abd
000002f0: 8e39 7bbd 3f9d 7f3d 52f1 2fbd 5c47 703d
00000300: 53ee 723d 6cb4 b03d 32a4 873d 3df4 073c
00000310: 7ff3 3b3d bdb1 c53d 92a3 4b3e 5c16 3e3d
00000320: 1441 163e 714d 833c 567f b23e 314b 103e
00000330: 4eb0 193e 0146 49bd 2c54 a8bc 6cd9 343e
00000340: d2e6 d33d f04e 9739 a21e 933d ffc4 7abd
00000350: d8e9 1bbc 3822 f03d 90cf 79bd 7fd2 673c
00000360: 6d8f 5b3d e7df 42bc f2d7 aebc f587 cd3d
00000370: 73fe fc3d 6737 663e a36c e63d 972b 9d3b
00000380: 18b8 903c 4c52 1e3c 1796 edbb 212b a83d
00000390: 267b 263e b757 83bb 9f23 e63b d500 b53b
000003a0: ebf2 1f3e 2c79 4d3e 4729 ffbb c7bb c9bb
000003b0: cbc6 84bd 2cbf 583e 0f2b 2b3e b799 753d
000003c0: 178f 093d 7620 c2bc 56f2 f83d 5463 363d
000003d0: 7a3e ac3d c0c4 4f3c c165 523d 64c4 b23d
000003e0: 9c78 86ba 7b9c c73e 42b9 5d3a cc4a 5cbd
000003f0: f4a9 92bd 0032 073e 99ff a53e a532 6f3d

lstm.bias_hh_l1 f4 [256]
0.0036176257 -0.11144345 0.041861307 -0.05319516 -0.03500786 0.14012732 -0.027423065 0.06861697
0.033206347 0.15734924 0.21043885 0.101584606 0.0027296974 0.06889806 0.04041893 0.18281506
0.14465436 0.15352072 0.14153607 0.011885368 0.0096258065 -0.0031053796 0.056501463 -0.012960058
0.06476259 0.088679254 0.205625 0.089225195 -0.09903724 0.10212233 0.14146252 0.087635174
-0.10870828 0.033177402 0.033137817 -0.13097543 0.078586526 -0.09021968 -0.06574094 0.09615533
0.19201148 0.14794299 0.024046542 0.12595695 0.060642842 0.024500422 -0.04151801 0.06265535
-0.010011374 0.10328408 0.012966142 0.17469186 0.061995182 -0.08516136 -0.07300458 -0.029212868
-0.023126012 0.27279437 0.11572884 -0.08349668 0.038020868 0.031650573 0.25441018 0.015080922
-0.020426014 0.08600126 -0.03784472 -0.05179901 0.10694163 0.10247712 0.0058584246 0.07935365
-0.15534651 0.08750536 -0.09543916 0.010685205 0.06780312 0.06773731 0.07180195 -0.009435307
-0.08422388 -0.005231587 -0.07479585 -0.104496114 -0.019262489 0.023891585 0.08263921 -0.11607134
-0.041670155 -0.10736407 -0.07790212 -0.058794383 -0.065462045 0.02928444 0.12369032 0.048678547
0.032852564 -0.041309785 -0.018868325 0.026625836 0.09507394 0.031180872 -0.07704377 -0.082564995
-0.12656987 -0.069349326 -0.11395119 -0.012278 -0.08308146 -0.15066218 0.010708414 0.053020563
-0.12632807 -0.06309237 -0.04047213 -0.12656572 0.020362658 0.07340345 0.040047787 0.029940756
0.050686825 -0.08444701 -0.108397715 0.0112982085 -0.061460726 0.10014854 -0.03043162 -0.057313863
0.0028862848 0.119637504 -0.13297628 0.07998001 -0.09172581 0.0604354 -0.024099851 0.050438482
-0.089763336 0.013870421 0.044007882 0.13354698 0.059198935 0.07757876 0.096479364 -0.12428719
-0.08409353 0.094039485 -0.042102106 -0.08355163 0.1359061 -0.016048407 -0.08736223 -0.021483649
-0.011717233 0.019802814 0.10358451 0.043026578 -0.058849145 0.09885385 -0.039844036 -0.012569817
0.0011355323 -0.088211685 -0.023155214 0.03961565 -0.02566999 0.055580795 0.088123545 0.06533066
0.06699808 -0.03719133 0.04524109 -0.0034797753 0.12304465 0.023416923 0.03084387 0.029782552
0.008773402 -0.049939927 0.11561233 0.047598787 -0.016169881 -0.05171643 0.12424117 0.071636625
0.027339052 -0.0275154 0.036613327 0.012619101 -0.05394407 0.058787014 0.045811698 -0.06712615
-0.049393672 -0.0065311776 -0.05782853 0.059022967 0.19183522 0.100949906 0.04709625 0.07700698
0.058607608 0.035390843 0.34564197 0.19643106 -0.008640862 0.14631474 -0.025159758 0.23807374
0.028567772 0.0050014057 -0.07778977 -0.014162583 -0.063505225 0.035114765 0.16474816 -0.034097478
-0.017359754 -0.120656416 0.18136913 0.030260751 0.07860304 0.14115225 0.01601804 -0.04998555
-0.0459583 0.1553262 0.05869883 -0.027807182 -0.06294948 -0.14485478 0.042098697 0.14523278
0.2609759 0.018085616 0.15200402 -0.027042214 0.0003301336 -0.0063051693 -0.061862785 0.055284705
-0.08672744 0.07102552 0.0353842 0.12962906 0.18057601 -0.071638174 0.12196805 0.1674968
0.037808206 0.3435045 0.055182837 -0.07975436 -0.07123467 0.12915125 0.3206318 0.098738685
00000000: b015 6d3b 773c e4bd c376 2b3d 2be3 59bd
00000010: 6764 0fbd 897d 0f3e 56a6 e0bc 0e87 8c3d
00000020: 6103 083d 2920 213e 487d 573e 970b d03d
00000030: b9e4 323b 6d1a 8d3d 528e 253d df33 3b3e
00000040: 4620 143e 8934 1d3e d5ee 103e d9ba 423c
00000050: 8fb5 1d3c a083 4bbb 146e 673d 6c56 54bc
00000060: 40a2 843d 789d b53d 5c8f 523e b3bb b63d
00000070: 09d4 cabd 8325 d13d 8ddb 103e 127a b33d
00000080: 72a2 debd 07e5 073d 85bb 073d 6c1e 06be
00000090: f9f1 a03d 18c5 b8bd 30a3 86bd 16ed c43d
000000a0: a89e 443e 5e7e 173e 41fd c43c dcfa 003e
000000b0: a164 783d 1cb5 c83c ca0e 2abd 7351 803d
000000c0: bf06 24bc 9b86 d33d f16f 543c 6ce2 323e
000000d0: a9ee 7d3d 1469 aebd 6d83 95bd d34f efbc
000000e0: c372 bdbc b4ab 8b3e 3e03 ed3d 4f00 abbd
000000f0: c5bb 1b3d 08a4 013d 0d42 823e f915 773c
00000100: 7554 a7bc 6e21 b03d 1103 1bbd 332b 54bd
00000110: 3704 db3d 86df d13d 07f8 bf3b 2b84 a23d
00000120: 2813 1fbe 0336 b33d 9b75 c3bd 0011 2f3c
00000130: 5ddc 8a3d dcb9 8a3d e70c 933d 8c96 1abc
00000140: 927d acbd bc6d abbb 912e 99bd 0f02 d6bd
00000150: 5ecc 9dbc 49b8 c33c bf3e a93d d0b6 edbd
00000160: 53ae 2abd b2e1 dbbd 268b 9fbd 61d2 70bd
00000170: f710 86bd ece5 ef3c 5a51 fd3d 2863 473d
00000180: 6990 063d 7334 29bd bf91 9abc 6d1e da3c
00000190: 20b6 c23d 076f ff3c 20c9 9dbd d617 a9bd
000001a0: 889b 01be 0507 8ebd 3e5f e9bd aa29 49bc
000001b0: 9d26 aabd 3047 1abe 5872 2f3c 172c 593d
000001c0: 255c 01be 9336 81bd 1bc6 25bd 729a 01be
000001d0: 97cf a63c 8c54 963d 2609 243d 5146 f53c
000001e0: fd9c 4f3d 8ef2 acbd 9fff ddbd 1f1c 393c
000001f0: 3ebe 7bbd ae1a cd3d bc4b f9bc f1c1 6abd
00000200: d327 3d3b 8204 f53d ef2a 08be 8fcc a33d
00000210: beda bbbd 1c8b 773d 0d6d c5bc 9598 4e3d
00000220: d7d5 b7bd c340 633c 9c41 343d 8ac0 083e
00000230: 957a 723d 9de1 9e3d f996 c53d 488a febd
00000240: 3b39 acbd c697 c03d 4273 2cbd 1e1d abbd
00000250: f82a 0b3e f377 83bc f8ea b2bd 7afe afbc
00000260: a3f9 3fbc 8339 a23c 1e24 d43d a33c 303d
00000270: cd0b 71bd e373 ca3d 8033 23bd a2f1 4dbc
00000280: 24d6 943a 54a8 b4bd 01b0 bdbc 0544 223d
00000290: df49 d2bc b0a8 633d 1e7a b43d 15cc 853d
000002a0: 4a36 893d f055 18bd b94e 393d f10c 64bb
000002b0: d5fe fb3d d9d4 bf3c 49ac fc3c 8afa f33c
000002c0: 51be 0f3c cf8d 4cbd 28c6 ec3d f2f6 423d
000002d0: b376 84bc 9bd4 53bd 2872 fe3d 39b6 923d
000002e0: 26f6 df3c fa67 e1bc dbf7 153d 59c0 4e3c
000002f0: 75f4 5cbd a7ca 703d 0ca5 3b3d 6f79 89bd
00000300: 0551 4abd 7d03 d6bb 9cdd 6cbd 11c2 713d
00000310: 7470 443e d3be ce3d ffe7 403d d6b5 9d3d
00000320: 880e 703d fdf5 103d fcf7 b03e 3925 493e
00000330: 6792 0dbc 88d3 153e d61b cebc 9ac9 733e
00000340: f606 ea3c d5e2 a33b 3e50 9fbd 2e0a 68bc
00000350: 070f 82bd 80d4 0f3d beb3 283e cca9 0bbd
00000360: 0b36 8ebc b61a f7bd d4b8 393e 65e5 f73c
00000370: a1fa a03d 378a 103e 4438 833c a6bd 4cbd
00000380: c53e 3cbd d50d 1f3e 2f6e 703d e3cb e3bc
00000390: a8eb 80bd d054 14be af6f 2c3d e7b7 143e
000003a0: a29e 853e 4928 943c f1a6 1b3e a287 ddbc
000003b0: c815 ad39 989b cebb d563 7dbd 3772 623d
000003c0: 289e b1bd d475 913d 06ef 103d 7bbd 043e
000003d0: ebe8 383e 09b7 92bd 63ca f93d 4884 2b3e
000003e0: c7dc 1a3d d2df af3e 6607 623d 4156 a3bd
000003f0: 7ce3 91bd 3a40 043e da29 a43e 8237 ca3d
