data/models/chainlink_lstm_1h.pth (torch, 215909 bytes, 10 tensors)

lstm.weight_ih_l0 f4 [256, 10]
0.009399506 -0.024309136 -0.069819756 0.07424778 -0.101652235 -0.034656003 0.04924488 -0.14141934
0.18022531 -0.1366073 0.17115642 0.22569446 0.20469664 0.104541674 -0.23043396 -0.27419475
-0.19515792 -0.07241914 0.06811802 -0.085453704 -0.11360128 -0.19016589 -0.17180814 -0.14302011
0.031845167 -0.09555787 -0.2353468 -0.24997085 0.00013888843 -0.043919813 0.3096119 0.26897135
0.29958925 0.12034293 -0.05845021 -0.030243028 -0.14530185 0.064447716 0.13907479 -0.02927588
-0.027002875 -0.0025992854 0.040012598 -0.1632079 -0.06069383 -0.04655899 -0.13686544 -0.013842524
0.010143616 0.29594114 -0.0490606 0.0074198986 0.012223158 0.0039951033 -0.6540728 -0.53634685
-0.12914178 -0.07293217 0.065934375 -0.022801876 -0.21437499 -0.19297464 -0.0760161 -0.135039
-0.34257498 -0.26109645 -0.19475988 -0.0854506 -0.10641924 -0.17065963 -0.2714835 -0.3396613
-0.30408078 -0.10351804 -0.037836004 0.06421247 0.10870132 0.016948706 -0.31564036 0.004766858
0.2719765 0.2278761 0.14511824 0.2344511 0.14030881 0.1446513 0.09118979 0.07835956
0.16590406 0.0065234546 -0.14770292 -0.2363505 -0.12918271 -0.18373159 -0.21969697 0.003088668
-0.06120075 -0.03225517 -0.22838233 -0.09061663 0.18359636 0.16245453 0.18062717 0.1333328
0.19311702 0.16757032 -0.068200186 0.070260964 -0.004496468 0.25280073 -0.07594905 -0.085606426
-0.104212776 0.04498204 -0.13368161 -0.23332706 -0.307914 -0.32834688 -0.102522396 0.15693645
-0.26731664 -0.15432046 -0.13495474 -0.2683411 0.0037475713 0.022578467 0.14276052 0.0018447964
-0.1628812 -0.10168647 -0.11080246 -0.1825635 -0.1919402 -0.2454767 0.16119723 0.12542734
-0.1940156 -0.077258356 -0.2634869 -0.25174922 0.13015747 0.0634182 0.0076428377 0.17493935
0.17423102 0.18976249 -0.101382755 -0.17753848 0.16831298 -0.10685954 -0.09269367 -0.27866462
-0.16469118 -0.045188714 -0.13467297 0.0053345747 0.02448872 -0.09969017 -0.20634939 0.056959826
0.08702078 0.030885473 0.16252993 0.02534658 0.12423098 -0.007112229 -0.062420502 -0.10664688
0.16258648 -0.11522286 0.027482001 -0.0801591 -0.060667343 0.028849442 -0.16603073 0.06813179
-0.16920571 0.017417843 0.05943424 0.38669592 -0.02305514 -0.03422515 -0.22466742 -0.2368251
0.041109066 0.09816293 -0.0416523 0.03011222 -0.16932958 0.1648143 0.13266574 0.24702275
0.08018044 0.229187 0.034729257 -0.011947263 -0.27087918 -0.122730486 0.09444793 0.13815972
-0.1729582 -0.24448244 -0.14512192 -0.04748339 0.09407113 0.35793018 -0.054032452 -0.026890771
0.0051745884 0.03152701 -0.04787736 -0.068587504 -0.11408288 -0.10751054 0.04428202 -0.12468223
-0.16286716 -0.21014386 -0.24048966 0.1380621 -0.067286134 0.087249644 -0.10777996 -0.051171914
0.22345066 0.11305938 0.14091203 0.011977988 -0.042258665 -0.07488815 -0.16192274 -0.21494932
-0.09607103 -0.03089398 0.27886486 0.28854078 0.018210163 -0.080767766 -0.105541736 0.011512692
-0.09379309 0.08969449 0.10893 -0.052453395 -0.017069384 0.04850623 -0.1540433 -0.35243908
0.023742631 -0.32352105 -0.4151312 -0.41105965 -0.38748053 -0.4550265 -0.026573049 0.05688138
00000000: 6300 1a3c f423 c7bc a9fd 8ebd 380f 983d
00000010: 0c2f d0bd 74f3 0dbd 00b5 493d 3bd0 10be
00000020: fc8c 383e c9e2 0bbe a143 2f3e 731c 673e
00000030: ff9b 513e f219 d63d e1f6 6bbe 4163 8cbe
00000040: 7ad7 47be 7c50 94bd 7681 8b3d 5a02 afbd
00000050: caa7 e8bd d9ba 42be 79ee 2fbe dd73 12be
00000060: 1470 023d d8b3 c3bd c0fe 70be 5cf8 7fbe
00000070: 94a2 1139 43e5 33bd 7385 9e3e 9db6 893e
00000080: c363 993e 5b76 f63d 7d69 6fbd 3ac0 f7bc
00000090: 02ca 14be 2afd 833d 9f69 0e3e f8d3 efbc
000000a0: 2235 ddbc c658 2abb 40e4 233d f91f 27be
000000b0: 189a 78bd a4b4 3ebd 7426 0cbe c1cb 62bc
000000c0: 6931 263c 9985 973e c5f3 48bd 9f22 f33b
000000d0: a443 483c 5be9 823b 5171 27bf 074e 09bf
000000e0: be3d 04be 765d 95bd 9a08 873d 00cb babc
000000f0: 1e85 5bbe 259b 45be 54ae 9bbd aa47 0abe
00000100: fd65 afbe 6fae 85be 226f 47be b900 afbd
00000110: 55f2 d9bd 66c1 2ebe e3ff 8abe 16e8 adbe
00000120: 7ab0 9bbe 4401 d4bd edf9 1abd d481 833d
00000130: cc9e de3d 03d8 8a3c 9d9b a1be 4e33 9c3b
00000140: 8140 8b3e 5a58 693e e099 143e f313 703e
00000150: 1dad 0f3e 781f 143e b6c1 ba3d fa7a a03d
00000160: c1e2 293e b4c2 d53b 6f3f 17be de05 72be
00000170: 7948 04be 2224 3cbe 3ef8 60be 406b 4a3b
00000180: a3ad 7abd ff1d 04bd 0fdd 69be 3695 b9bd
00000190: af00 3c3e 7b5a 263e 54f6 383e 6588 083e
000001a0: 78c0 453e 8e97 2b3e 8aac 8bbd fbe4 8f3d
000001b0: 1c57 93bb 196f 813e 2d8b 9bbd 6c52 afbd
000001c0: 826d d5bd 163f 383d d5e3 08be 4aed 6ebe
000001d0: e7a6 9dbe 151d a8be 43f7 d1bd f3b3 203e
000001e0: badd 88be 2f06 1ebe 9331 0abe 0164 89be
000001f0: d099 753b 7af6 b83c d02f 123e 18cd f13a
00000200: 54ca 26be ff40 d0bd 66ec e2bd edf1 3abe
00000210: f98b 44be 3e5e 7bbe e310 253e 0670 003e
00000220: 07ac 46be a139 9ebd c1e7 86be 46e5 80be
00000230: 0048 053e 67e1 813d c570 fa3b 4d23 333e
00000240: 9e69 323e 1951 423e c3a1 cfbd a6cc 35be
00000250: 3d5a 2c3e 2dd9 dabd 2ed6 bdbd 21ad 8ebe
00000260: cea4 28be cd17 39bd b6e7 09be a8cd ae3b
00000270: 919c c83c 5c2a ccbd 414d 53be b54e 693d
00000280: f337 b23d 8803 fd3c 3f6e 263e a2a3 cf3c
00000290: d06c fe3d b30d e9bb a4ac 7fbd ae69 dabd
000002a0: 127d 263e f6f9 ebbd ef21 e13c 742a a4bd
000002b0: 527e 78bd aa55 ec3c f603 2abe ae88 8b3d
000002c0: 4344 2dbe ddaf 8e3c 5171 733d 02fd c53e
000002d0: 22de bcbc ac2f 0cbd 370f 66be 4782 72be
000002e0: fb61 283d a509 c93d 9a9b 2abd e7ad f63c
000002f0: bc64 2dbe 14c5 283e 87d9 073e 88f3 7c3e
00000300: a435 a43d ffaf 6a3e 4440 0e3d 74be 43bc
00000310: adb0 8abe 1f5a fbbd eb6d c13d be79 0d3e
00000320: f41b 31be 9b59 7abe d79a 14be f17d 42bd
00000330: 5da8 c03d a042 b73e 2251 5dbd 094a dcbc
00000340: 988f a93b 7722 013d 0d1b 44bd 9b77 8cbd
00000350: 49a4 e9bd 7c2e dcbd 1061 353d 6659 ffbd
00000360: a6c6 26be f42f 57be ec42 76be 2760 0d3e
00000370: 50cd 89bd f1af b23d bdbb dcbd a499 51bd
00000380: 40d0 643e ad8b e73d 3e4b 103e 533f 443c
00000390: 6c17 2dbd f55e 99bd 13cf 25be ad1b 5cbe
000003a0: e3c0 c4bd 5f15 fdbc 60c7 8e3e 9ebb 933e
000003b0: 7b2d 953c 9269 a5bd 4426 d8bd bb9f 3c3c
000003c0: 9716 c0bd bfb1 b73d b116 df3d 5fd9 56bd
000003d0: 18d5 8bbc 78ae 463d 87bd 1dbe e572 b4be
000003e0: e87f c23c 8da4 a5be 148c d4be 6976 d2be
000003f0: d963 c6be 3cf9 e8be b9af d9bc 73fc 683d

lstm.weight_hh_l0 f4 [256, 64]
0.0013046383 0.26255548 -0.024328787 -0.17383282 0.01430228 -0.03574922 0.16906123 0.05108534
0.25673527 -0.033308484 0.0548724 -0.011497943 0.015827121 0.053025704 -0.053161986 -0.002352298
-0.09416494 -0.04925852 -0.18105428 0.22448364 -0.048647624 0.107763015 0.37840927 0.04287257
0.03725092 -0.09445388 -0.2623914 -0.27718005 0.015947636 -0.15608846 -0.035531923 -0.20959418
-0.2760081 0.020772148 0.17854986 0.12242858 -0.24294697 0.14765169 -0.17434591 0.107811
-0.13788907 0.13641827 0.04812058 -0.024679827 -0.022431562 -0.1326144 0.035329312 -0.0869038
-0.14551021 0.09536457 -0.096894816 -0.058824796 -0.0016236713 -0.11591264 -0.25764698 -0.043891635
0.016871726 0.23574042 0.05585327 0.19662663 0.13111605 -0.12536117 -0.039504435 -0.0435138
-0.2121514 -0.059263606 0.039601408 0.05090417 -0.021866646 0.16543038 0.012311569 -0.42858124
-0.15803008 -0.5141832 0.06342045 -0.06529355 0.12802319 -0.17408621 -0.04568714 0.12259206
-0.06206138 0.28135702 0.14340317 -0.03059768 0.21862607 0.15414187 -0.26486862 -0.3038196
-0.08669444 0.24585024 0.032986246 0.18275268 -0.37141353 0.072277464 0.11005297 -0.100869104
-0.024129378 -0.2250383 -0.01717586 -0.06616979 0.043179706 0.053898375 0.059886236 0.1764768
-0.013681208 0.089274496 -0.04254705 0.14597504 0.23366472 0.27070743 -0.066631496 0.008467434
0.1383347 0.009388844 0.026972156 -0.020653633 0.20007317 0.32079825 0.16469125 -0.07557578
0.031016784 0.11628346 0.06759712 -0.033428933 0.08306864 0.23945907 0.37049052 -0.06968154
-0.023230055 -0.19114813 0.09555739 0.23042285 0.1483303 0.22758858 0.080473796 -0.12692603
-0.23036706 -0.08260704 -0.23285107 0.114338435 0.07287783 -0.00755219 0.029630153 0.112435855
-0.21879795 0.048264954 -0.070638835 -0.18064417 0.04935211 0.09657306 0.09960281 -0.0392574
0.13100371 0.0018190171 0.11712381 -0.023848865 -0.11406822 -0.03520773 0.061786886 -0.10132814
0.12406837 -0.03434468 0.024846993 -0.05650794 -0.14483932 -0.2828148 0.20603424 -0.057429116
0.1919933 0.023076558 0.122361615 -0.014635498 -0.05688303 -0.082977936 0.18948741 0.042024568
0.06939774 0.13217825 0.23555918 0.114092655 0.105144195 -0.03968488 0.27332887 0.028397476
-0.034548417 -0.08810705 -0.18791746 -0.1260153 -0.07266192 0.034776676 -0.04161778 -0.080888726
-0.25780368 -0.07355009 0.27772382 -0.051788084 -0.015686765 0.012102966 0.09287338 -0.2661911
-0.13428833 -0.18680099 -0.0060171518 0.026898727 0.2795709 0.20385921 -0.038549636 0.26707512
0.15266994 0.26994962 0.2681662 -0.0847349 -0.01768728 0.2678649 0.16424131 -0.09942687
0.061387718 0.263056 0.058354907 0.09249431 -0.31635207 -0.011430949 0.0027803457 -0.24776049
0.047936283 -0.21051049 -0.01847488 -0.1981056 -0.46144253 -0.09996488 -0.046216745 -0.03698822
0.11538374 -0.18702635 0.15175228 0.3037868 -0.098733164 0.26729882 0.048764005 -0.0388503
0.051415984 0.04137924 -0.04184632 0.04269344 0.10582648 0.23257557 0.03530351 -0.21970023
0.18133773 -0.12250252 0.15798403 -0.10491965 -0.113172375 -0.034273297 0.26672158 -0.30006024
00000000: 6600 ab3a ac6d 863e 2a4d c7bc 3b01 32be
00000010: 1c54 6a3c c66d 12bd 631e 2d3e dd3e 513d
00000020: ce72 833e 7a6e 08bd e2c1 603d de61 3cbc
00000030: e1a7 813c 7b31 593d 62c0 59bd 0329 1abb
00000040: 8cd9 c0bd 4dc3 49bd 4b66 39be 0adf 653e
00000050: bb42 47bd dbb2 dc3d dcbe c13e 269b 2f3d
00000060: 6c94 183d 0971 c1bd 2a58 86be 8bea 8dbe
00000070: 9ea4 823c a7d5 1fbe ec89 11bd db9f 56be
00000080: ef50 8dbe 5a2a aa3c c6d5 363e d6bb fa3d
00000090: 17c7 78be 0132 173e bc87 32be 03cc dc3d
000000a0: cb32 0dbe 3bb1 0b3e 161a 453d 592d cabc
000000b0: 65c2 b7bc 12cc 07be 78b5 103d 9ffa b1bd
000000c0: a100 15be 804e c33d ca70 c6bd 45f2 70bd
000000d0: 5ed1 d4ba 9b63 edbd 4eea 83be b7c7 33bd
000000e0: 9336 8a3c f065 713e 66c6 643d 7e58 493e
000000f0: 4943 063e ae5e 00be 67cf 21bd 873b 32bd
00000100: 373e 59be 65be 72bd 1635 223d e480 503d
00000110: ae21 b3bc 9566 293e 77b6 493c 006f dbbe
00000120: a3d2 21be 83a1 03bf 95e2 813d a0b8 85bd
00000130: 8318 033e a843 32be 7022 3bbd 8c11 fb3d
00000140: 1334 7ebd 070e 903e 48d8 123e fca7 fabc
00000150: 83df 5f3e 5ed7 1d3e dc9c 87be 3e8e 9bbe
00000160: db8c b1bd 2ac0 7b3e 961c 073d 8523 3b3e
00000170: ea29 bebe 3506 943d 7463 e13d 7694 cebd
00000180: f9aa c5bc 7170 66be 64b4 8cbc 0784 87bd
00000190: 34dd 303d 8bc4 5c3d 454b 753d 56b6 343e
000001a0: 2527 60bc 8cd5 b63d d145 2ebd 7b7a 153e
000001b0: ce45 6f3e 2a9a 8a3e 1876 88bd feba 0a3c
000001c0: 9da7 0d3e aad3 193c b6f4 dc3c cf31 a9bc
000001d0: fbdf 4c3e ab3f a43e d3a4 283e 79c7 9abd
000001e0: e916 fe3c 0626 ee3d 5c70 8a3d c7ec 08bd
000001f0: e41f aa3d c234 753e efb0 bd3e 32b5 8ebd
00000200: f54c bebc 56bc 43be 98b3 c33d f8f3 6b3e
00000210: e6e3 173e fb0c 693e 72cf a43d e6f8 01be
00000220: 58e5 6bbe e12d a9bd 8370 6ebe 452a ea3d
00000230: f940 953d 5d78 f7bb efba f23c c544 e63d
00000240: 920c 60be 79b1 453d 18ab 90bd c9fa 38be
00000250: 7025 4a3d 19c8 c53d 8ffc cb3d 5ecc 20bd
00000260: d625 063e 166c ee3a 9cde ef3d b25e c3bc
00000270: 999c e9bd fb35 10bd 3f14 7d3d 2185 cfbd
00000280: 8f17 fe3d 02ad 0cbd ec8b cb3c df74 67bd
00000290: c250 14be 1acd 90be a4fa 523e cb3a 6bbd
000002a0: e499 443e 0d0b bd3c ba98 fa3d bac9 6fbc
000002b0: 2efe 68bd 56f0 a9bd fd08 423e f421 2c3d
000002c0: 6720 8e3d bc59 073e 6d36 713e 69a9 e93d
000002d0: d755 d73d 9d8c 22bd c3f1 8b3e d3a1 e83c
000002e0: a482 0dbd 7871 b4bd 6f6d 40be 280a 01be
000002f0: c6cf 94bd fd71 0e3d 6877 2abd fda8 a5bd
00000300: d8fe 83be 6ea1 96bd d131 8e3e be1f 54bd
00000310: 8881 80bc 854b 463c 6634 be3d 334a 88be
00000320: e182 09be c248 3fbe 872b c5bb b85a dc3c
00000330: eb23 8f3e 78c0 503e 39e6 1dbd 12be 883e
00000340: 8255 1c3e d636 8a3e 154d 893e 7e89 adbd
00000350: eae4 90bc 9725 893e e02e 283e 51a0 cbbd
00000360: b071 7b3d 47af 863e 8e05 6f3d a86d bd3d
00000370: e6f8 a1be e048 3bbc 7636 363b edb4 7dbe
00000380: d658 443d 1090 57be a258 97bc 32dc 4abe
00000390: 3242 ecbe 63ba ccbd c54d 3dbd f680 17bd
000003a0: 4f4e ec3d d683 3fbe f364 1b3e f289 9b3e
000003b0: 9d34 cabd 64db 883e c4bc 473d 7e21 1fbd
000003c0: 9199 523d 477d 293d 0c67 2bbd 51df 2e3d
000003d0: 8ebb d83d 4a28 6e3e 6a9a 103d 19f9 60be
000003e0: 99b0 393e 9ae2 fabd 91c6 213e 1de0 d6bd
000003f0: ebc6 e7bd 2862 0cbd bb8f 883e 7fa1 99be

lstm.bias_ih_l0 f4 [256]
0.061010726 -0.10230311 -0.13811111 0.107530914 0.1748552 -0.03573823 0.0114117935 -0.029765174
-0.08611303 -0.035962693 -0.10860238 -0.23956153 -0.04284208 -0.005313795 -0.0915747 -0.05751542
-0.018141583 -0.2614684 -0.1268425 0.025975952 0.020127524 -0.12048069 0.15947591 -0.13462569
-0.09767843 -0.07903412 -0.13017187 0.06999165 0.046620246 -0.20085067 -0.035899248 0.027914967
-0.06094564 -0.1175759 -0.06313207 0.19289036 0.04489216 0.019651933 -0.12862 -0.010584604
-0.14374402 0.016489133 -0.15368377 0.040414408 -0.2520047 0.011032284 -0.02023896 0.033324685
-0.13164142 0.095246345 -0.044385068 -0.044236965 -0.12743117 0.039286144 -0.04332074 -0.04147978
-0.09512428 0.039521143 -0.02425314 -0.042320024 0.12515008 0.07389294 -0.15122214 0.09649697
-0.1146126 -0.11474063 -0.14927733 0.02972398 -0.19672897 -0.12497948 -0.03805288 -0.07328
0.03164751 -0.04314578 -0.20972128 0.18257922 -0.13229212 -0.13371016 0.055247653 0.054654688
-0.049389053 -0.05524456 -0.06161088 0.0148721095 0.0812915 -0.08491023 -0.112506814 0.096652396
-0.19914041 0.12009527 -0.17164895 -0.1925544 0.025253138 0.19462134 -0.0961628 -0.16164182
-0.14312948 0.15182418 -0.044349972 -0.28489304 -0.11454951 0.092810035 -0.045954805 -0.06238013
-0.104133084 -0.01970856 -0.06777775 0.011386284 0.033836108 0.045246746 -0.079854645 0.08534731
-0.13829227 -0.08791811 0.09837546 0.11710892 -0.18971583 -0.0045026788 0.14983712 0.07672561
0.01970637 -0.09683337 -0.19693656 -0.11446463 0.01468153 -0.1465251 0.010389075 0.06327747
-0.028902687 -0.10827222 -0.0721259 0.001715611 -0.018361578 0.08431193 0.047759827 0.026905863
-0.15297519 -0.022060506 0.028824486 -0.018022923 0.0054257005 -0.09656455 -0.035655443 -0.10151476
0.09857559 0.12987389 -0.05474846 -0.11941532 -0.02637763 0.034964744 -0.024470804 0.0064962865
-0.01728878 0.003282654 -0.015734276 -0.026928036 -0.11385365 0.18149187 0.012726218 0.002884191
0.00085277064 -0.16882497 0.12157543 0.06010543 -0.03139468 0.0636183 0.05700202 -0.023323454
0.12168539 -0.007511423 -0.0066670747 0.054583907 -0.06020046 0.08197248 0.0026611465 0.04986479
-0.050051153 -0.04453111 0.0763349 0.0502114 0.02888507 -0.0065951208 0.03861735 0.074175164
-0.033137616 -0.20792626 0.10831673 0.03902086 -0.060869552 -0.012032801 0.0009144703 -0.0664417
0.1071144 -0.092616074 -0.033620376 -0.11152525 0.29522717 -0.18707383 -0.1570159 -0.020868462
-0.06105238 -0.11770941 -0.10298982 0.1215393 -0.15497111 -0.06552477 -0.021913052 -0.06102414
-0.07492566 0.02638829 -0.18918039 -0.018451625 -0.10025944 -0.23249795 0.09412103 0.04788004
-0.045977898 0.020259155 -0.21517895 0.010136397 -0.05726728 0.054166846 -0.058050793 -0.056427684
-0.02166599 0.0140042985 0.14440154 -0.003471949 0.20644356 0.05089331 -0.09662885 -0.027132697
0.0033133554 -0.1812753 0.13489363 -0.08892657 -0.004342112 0.03308561 0.035239454 -0.09450486
0.1017436 -0.057118062 0.091638714 0.041598942 0.005837461 0.016945126 -0.0021193027 -0.01895801
-0.1692823 -0.0013759169 -0.14062105 0.010654955 -0.019677175 0.13758893 -0.18858556 -0.1186953
00000000: 62e6 793d 4b84 d1bd 006d 0dbe 2b39 dc3d
00000010: 3e0d 333e 4062 12bd 88f8 3a3c 18d6 f3bc
00000020: 075c b0bd 9e4d 13bd ed6a debd 9e4f 75be
00000030: 2d7b 2fbd 581f aebb 848b bbbd 4a95 6bbd
00000040: a89d 94bc 30df 85be 00e3 01be 85cb d43c
00000050: 7ae2 a43c 94be f6bd a74d 233e 51db 09be
00000060: a10b c8bd a4dc a1bd c64b 05be c857 8f3d
00000070: dff4 3e3d ccab 4dbe 170b 13bd eead e43c
00000080: 23a2 79bd a2cb f0bd 634b 81bd 0d85 453e
00000090: d7e0 373d 17fd a03c f6b4 03be 0c6b 2dbc
000000a0: a231 13be 3814 873c 475f 1dbe 9489 253d
000000b0: c306 81be c1c0 343c 2dcc a5bc 777f 083d
000000c0: 02cd 06be 8410 c33d 1ecd 35bd d231 35bd
000000d0: 517d 02be 82ea 203d 1771 31bd b4e6 29bd
000000e0: 85d0 c2bd ece0 213d 85ae c6bc c357 2dbd
000000f0: 5827 003e 2f55 973d fad9 1abe 34a0 c53d
00000100: 03ba eabd 23fd eabd 28dc 18be b47f f33c
00000110: 5273 49be 3ef5 ffbd 56dd 1bbd d313 96bd
00000120: d2a0 013d a1b9 30bd 2dc1 56be 0cf6 3a3e
00000130: 9677 07be 51eb 08be 5d4b 623d 98dd 5f3d
00000140: 2d4c 4abd 1f48 62bd b15b 7cbd 26aa 733c
00000150: 287c a63d 6ae5 adbd f969 e6bd b1f1 c53d
00000160: 77eb 4bbe 82f4 f53d bec4 2fbe fb2c 45be
00000170: abdf ce3c d14a 473e 01f1 c4bd 6f85 25be
00000180: 8990 12be cc77 1b3e 51a8 35bd 80dd 91be
00000190: ef98 eabd 3013 be3d 1b3b 3cbd 4f82 7fbd
000001a0: ba43 d5bd d973 a1bc 10cf 8abd 898d 3a3c
000001b0: bb97 0a3d a754 393d d58a a3bd 92ca ae3d
000001c0: 7d9c 0dbe 690e b4bd 1379 c93d cdd6 ef3d
000001d0: de44 42be 358b 93bb e76e 193e 5122 9d3d
000001e0: 416f a13c 9350 c6bd bda9 49be 6f6c eabd
000001f0: cd8a 703c ad0a 16be f036 2a3c 9e97 813d
00000200: 54c5 ecbc d3bd ddbd beb6 93bd 5ade e03a
00000210: 056b 96bc bcab ac3d cf9f 433d af69 dc3c
00000220: 87a5 1cbe 3cb8 b4bc 5421 ec3c cfa4 93bc
00000230: 13ca b13b a3c3 c5bd 710b 12bd f8e6 cfbd
00000240: 00e2 c93d a9fd 043e ec3f 60bd 0590 f4bd
00000250: e615 d8bc 3137 0f3d ff76 c8bc cdde d43b
00000260: 33a1 8dbc cc21 573b 2be5 80bc 2f98 dcbc
00000270: 1a2c e9bd 01d9 393e a181 503c b204 3d3b
00000280: 788c 5f3a 74e0 2cbe 8afc f83d 1d31 763d
00000290: b597 00bd 504a 823d f37a 693d d410 bfbc
000002a0: 3136 f93d 6222 f6bb 7a77 dabb 6093 5f3d
000002b0: c294 76bd 30e1 a73d a166 2e3b 063f 4c3d
000002c0: 7002 4dbd 4166 36bd 7955 9c3d 78aa 4d3d
000002d0: 62a0 ec3c e21b d8bb 3a2d 1e3d 26e9 973d
000002e0: 4fbb 07bd 9fea 54be 29d5 dd3d 56d4 1f3d
000002f0: 5a52 79bd 3a25 45bc 10b9 6f3a 9612 88bd
00000300: cb5e db3d 7fad bdbd 85b5 09bd 5a67 e4bd
00000310: 0428 973e 4890 3fbe c7c8 20be 56f4 aabc
00000320: 0f12 7abd a211 f1bd 54ec d2bd 99e9 f83d
00000330: bfb0 1ebe da31 86bd 0083 b3bc 73f4 79bd
00000340: a072 99bd 412c d83c 81b8 41be dd27 97bc
00000350: d254 cdbd f113 6ebe 87c2 c03d dc1d 443d
00000360: 5253 3cbd 87f6 a53c df57 5cbe 2113 263c
00000370: 1891 6abd 0ede 5d3d abc6 6dbd b720 67bd
00000380: e07c b1bc 4972 653c ffdd 133e a389 63bb
00000390: f165 533e 8175 503d 59e5 c5bd 6445 debc
000003a0: e124 593b 3ba0 39be 8e21 0a3e 221f b6bd
000003b0: 4748 8ebb c784 073d 3f57 103d c48b c1bd
000003c0: f35e d03d a1f4 69bd 14ad bb3d a763 2a3d
000003d0: 2c48 bf3b 81d0 8a3c 00e4 0abb d44d 9bbc
000003e0: 5758 2dbe 1c58 b4ba f7fe 0fbe 1f92 2e3c
000003f0: 0732 a1bc 1de4 0c3e 931c 41be 8516 f3bd

lstm.bias_hh_l0 f4 [256]
0.11201612 0.08083039 -0.1387203 0.04378844 0.22625694 -0.07308084 0.06165944 0.038518045
-0.22159038 0.067057215 -0.11108089 -0.10106485 -0.16828622 0.0023832666 -0.13657083 0.063621655
-0.08966683 -0.15163118 -0.22072464 -0.06505846 0.07252247 -0.087991476 0.2651886 -0.023042968
-0.2158533 0.08335009 -0.17665994 -0.09678294 0.086064264 0.03216385 0.003844651 0.0656322
-0.032649346 0.016197553 0.015702706 0.08593702 0.061927367 0.05534754 0.10523894 -0.10704843
0.030378254 -0.12354064 -0.14855997 -0.14762735 -0.11700094 -0.033672836 0.13130918 -0.17000207
-0.12893005 0.010552891 0.092958346 -0.084548235 -0.1775914 -0.022345046 0.076814294 0.0053580203
-0.25370222 0.018925693 -0.16011128 -0.14872438 -0.07338508 0.019158196 -0.10937648 -0.02339094
-0.21765368 -0.013243664 -0.005450328 0.05495067 -0.19640592 -0.06662493 0.09330212 -0.109359585
0.027779903 0.08605971 -0.09918569 0.16112009 0.04886659 -0.16681238 -0.02533198 0.13388158
-0.20254406 0.03356123 -0.17037433 0.13002177 0.09251286 -0.19637568 -0.33412406 0.12753937
-0.08120034 0.10718948 -0.04054109 -0.2080277 0.09493019 0.15451755 0.010788132 -0.08311748
-0.09668734 0.09933547 -0.057357963 -0.36272708 -0.11303305 0.10002814 0.03790837 -0.1969442
-0.017416922 -0.0074050315 0.024656422 0.0070495065 -0.056446657 0.03468721 -0.056465868 -0.006101998
-0.12300673 -0.12112266 -0.08621173 -0.0268866 -0.13735947 -0.1515651 -0.0055425707 0.056183588
-0.054041244 -0.117508 -0.03573729 0.0738539 0.027398296 -0.14957283 -0.09680788 -0.083573036
0.04824347 0.008406832 -0.042559676 0.120747976 -0.0166244 0.023766156 0.07740666 -0.01271974
0.021585573 0.034808658 0.035617594 0.025452537 0.08027799 0.016404312 -0.088101126 0.028657116
-0.00022897503 -0.06593677 0.06583161 0.039282218 -0.01044737 -0.08886038 0.00832351 0.015912794
-0.041392684 0.034721415 0.017447012 0.10471581 -0.00982476 0.034105264 -0.09800492 0.033668954
0.0015241354 0.045640826 -0.0063759983 -0.008419845 -0.0045652003 -0.06952357 0.06777225 -0.043260474
-0.05077826 0.020528633 0.10727384 0.021156454 0.028617144 0.023537334 -0.0635092 0.047223814
0.13925631 -0.088628925 -0.06488115 -0.081182994 -0.055685837 -0.024185905 0.10856355 0.07109019
0.078256495 -0.07515716 0.009357492 -0.004123714 -0.039246365 -0.015263996 -0.12197634 -0.022985032
0.12804039 -0.12518603 -0.027997818 0.0065498836 0.3020112 -0.117595546 0.055305265 -0.10390969
-0.12389677 -0.12116649 -0.030454284 -0.0012743787 0.051185954 0.0043418994 -0.08349904 -0.038964517
-0.08430183 -0.20932813 -0.09678171 0.1105767 -0.09075475 -0.24623004 0.19661155 -0.017821116
-0.07718776 0.03288741 -0.11334225 0.057291716 0.09769646 0.025459535 0.03952078 -0.10035931
-0.13880041 -0.13563456 0.1525849 0.17379913 0.13897558 -0.042315286 -0.0476031 -0.110737324
0.03831511 -0.14348146 0.08681884 -0.15673666 -0.09381998 -0.086873986 0.019776125 -0.13678242
-0.10244312 -0.123685636 -0.12159599 -0.021949502 -0.053937174 -0.18608846 0.04442704 -0.14843279
0.011363379 0.083821915 0.010661287 -0.014176713 0.08236881 0.010851114 0.019592317 0.096357964
00000000: b568 e53d 678a a53d b20c 0ebe 825b 333d
00000010: e6af 673e 68ab 95bd 9c8e 7c3d 19c5 1d3d
00000020: 97e8 62be 4b55 893d 617e e3bd 17fb cebd
00000030: 3953 2cbe 9430 1c3b 39d9 0bbe 124c 823d
00000040: 3ea3 b7bd 3445 1bbe a405 62be 5f3d 85bd
00000050: a986 943d e034 b4bd cdc6 873e 9bc4 bcbc
00000060: a608 5dbe 74b3 aa3d 58e6 34be 2236 c6bd
00000070: 7642 b03d 3ebe 033d 8af6 7b3b 2d6a 863d
00000080: 52bb 05bd bbb0 843c f6a2 803c c0ff af3d
00000090: 8da7 7d3d 1ab4 623d 8387 d73d 353c dbbd
000000a0: d1db f83c e002 fdbd 1b20 18be a02b 17be
000000b0: 309e efbd 87ec 09bd ea75 063e 0615 2ebe
000000c0: 3d06 04be 08e6 2c3c f260 be3d a027 adbd
000000d0: 85da 35be f50c b7bc d050 9d3d 5592 af3b
000000e0: 42e5 81be 0e0a 9b3c 36f4 23be 344b 18be
000000f0: eb4a 96bd a6f1 9c3c c700 e0bd 5b9e bfbc
00000100: 9be0 5ebe f4fb 58bc aa98 b2bb f413 613d
00000110: a21e 49be a772 88bd 2f15 bf3d ebf7 dfbd
00000120: ae92 e33c 1340 b03d de21 cbbd aafc 243e
00000130: 5528 483d ddd0 2abe 0385 cfbc 4118 093e
00000140: b667 4fbe 8077 093d 9c76 2ebe 6d24 053e
00000150: 6277 bd3d b516 49be 4f12 abbe ae99 023e
00000160: 5d4c a6bd 2886 db3d 6a0e 26bd 3705 55be
00000170: c26a c23d d939 1e3e b5c0 303c 7f39 aabd
00000180: 0304 c6bd 6570 cb3d 2ff0 6abd 5db7 b9be
00000190: df7d e7bd 8edb cc3d cf45 1b3d beab 49be
000001a0: efad 8ebc e8a5 f2bb 44fc c93c 8cff e63b
000001b0: 9c34 67bd 2d14 0e3d c148 67bd 45f3 c7bb
000001c0: f4ea fbbd 280f f8bd c78f b0bd 4941 dcbc
000001d0: f6a7 0cbe e233 1bbe 749e b5bb c320 663d
000001e0: 5a5a 5dbd 09a8 f0bd 4461 12bd b740 973d
000001f0: 6472 e03c 9f29 19be 3643 c6bd 5728 abbd
00000200: f29a 453d cfbc 093c 0e53 2ebd b74a f73d
00000210: e52f 88bc 3eb1 c23c 6287 9e3d 7566 50bc
00000220: 3ad4 b03c 8693 0e3d c1e3 113d d781 d03c
00000230: c968 a43d 5662 863c 5d6e b4bd 54c2 ea3c
00000240: 0419 70b9 db09 87bd b9d2 863d 64e6 203d
00000250: 722b 2bbc 6efc b5bd 555f 083c 8c5b 823c
00000260: 608b 29bd 0b38 0e3d 09ed 8e3c 3e75 d63d
00000270: 08f8 20bc f6b1 0b3d ceb6 c8bd 75e8 093d
00000280: 7fc5 c73a e0f1 3a3d c0ed d0bb 64f3 09bc
00000290: ad97 95bb 6062 8ebd 2dcc 8a3d e531 31bd
000002a0: ddfc 4fbd aa2b a83c 63b2 db3d 4d50 ad3c
000002b0: 806e ea3c 5ed1 c03c 1d11 82bd c26d 413d
000002c0: 3599 0e3e 1583 b5bd 69e0 84bd 4543 a6bd
000002d0: d516 64bd 8521 c6bc 9156 de3d bc97 913d
000002e0: f144 a03d ffeb 99bd 2b50 193c 3820 87bb
000002f0: ccc0 20bd d715 7abc bbce f9bd 1b4b bcbc
00000300: 051d 033e c430 00be ae5b e5bc 68a0 d63b
00000310: 36a1 9a3e efd5 f0bd c687 623d 9bce d4bd
00000320: 97bd fdbd 2326 f8bd 437b f9bc 0e09 a7ba
00000330: 5da8 513d 7e46 8e3b 8b01 abbd 4299 1fbd
00000340: 70a6 acbd 1d5a 56be 7d35 c6bd 0976 e23d
00000350: a0dd b9bd ba23 7cbe 8a54 493e 97fd 91bc
00000360: 9e14 9ebd f3b4 063d fb1f e8bd b8aa 6a3d
00000370: 1515 c83d 8490 d03c 8be0 213d 2f89 cdbd
00000380: b221 0ebe c9e3 0abe 373f 1c3e 66f8 313e
00000390: 9d4f 0e3e cb52 2dbd 78fb 42bd 40ca e2bd
000003a0: 4ef0 1c3d ceec 12be 13ce b13d 937f 20be
000003b0: b124 c0bd fdea b1bd 8a01 a23c b110 0cbe
000003c0: b3cd d1bd e54e fdbd 5207 f9bd 71cf b3bc
000003d0: 3aed 5cbd f98d 3ebe 21f9 353d c4fe 17be
000003e0: 772d 3a3c d3aa ab3d aeac 2e3c 7245 68bc
000003f0: fbb0 a83d dfc8 313c 1180 a03c 5357 c53d

lstm.weight_ih_l1 f4 [256, 64]
0.08031505 -0.09221064 0.21818991 0.09880929 -0.18188332 0.22893605 0.12823042 -0.27281818
-0.057268083 -0.21763055 -0.123545624 0.0012993538 0.29893595 -0.20886138 0.05491881 0.203911
0.14265575 0.33682933 0.27785522 -0.12704374 0.15841265 0.0051775714 0.019555531 -0.26520327
0.014648082 0.34138 -0.000688164 0.12493004 -0.08961821 -0.10543579 -0.008068449 -0.16056369
0.069039084 -0.19440092 -0.09409427 -0.13201489 0.06957036 -0.18230312 0.16415115 0.037076022
-0.01616056 -0.10826341 0.006495833 0.044896476 0.29262948 0.30818385 0.054597728 0.28056565
0.11864833 -0.018895075 0.069919586 -0.052023944 0.27026668 0.25808284 0.09288094 0.08194266
0.21058583 -0.18290965 -0.16115586 -0.1417216 -0.12864868 0.06961242 0.20667976 -0.080716066
-0.020423079 0.2044935 0.0982753 -0.09923242 0.104154795 -0.07595629 -0.1877538 0.014296232
0.09312143 -0.06814168 -0.059533358 -0.095166124 -0.080237165 0.01007106 -0.30230093 -0.09373312
-0.026397157 -0.22442558 -0.18732224 0.10163393 -0.115416646 0.07387252 0.041370362 0.14739445
0.02875157 0.07748111 -0.028077202 -0.08140882 0.043976266 0.053113256 0.28998014 0.10573582
-0.2019452 0.049876947 -0.06547953 -0.22419111 -0.1637131 0.047186375 -0.07661744 0.0019340501
-0.110675424 -0.0037179964 -0.3510251 -0.035003062 -0.1446104 -0.0949224 -0.35028085 -0.124717444
-0.15872766 0.075113006 -0.11264874 -0.07321904 -0.06955987 -0.0038110937 -0.14330302 0.12373553
-0.19089286 0.12050079 0.120442 0.12509622 0.049078733 0.02967412 0.109087124 0.11401933
0.167996 -0.030075956 0.008710154 -0.04356937 0.0856684 -0.13524367 -0.022773277 -0.050851792
0.17885841 0.08774032 0.10900937 0.03144712 -0.13433623 0.050644685 -0.0024028406 0.17159174
-0.07509813 -0.077671565 -0.15936328 0.0602366 0.12722561 0.002202188 -0.18520887 -0.021061169
0.14140339 0.021507008 -0.06470257 -0.11707413 0.017313998 -0.16448998 0.29972416 0.1435125
-0.03901117 0.010544499 -0.12536104 0.012038958 0.17712073 -0.08183384 -0.111102305 -0.09856415
-0.1678394 0.034903694 -0.0618445 -0.13130665 -0.10888707 0.024967518 -0.098690614 -0.18970536
-0.11606676 0.070892796 -0.10789461 -0.10986283 -0.042586606 -0.046774134 0.06987081 0.04532575
-0.07860033 0.052987475 -0.10004486 0.04654438 0.12576209 -0.055908453 0.14908756 0.11847858
-0.026832283 0.14274974 0.13568108 -0.031114647 0.093748346 -0.2711346 -0.026661955 0.05837056
0.023995321 -0.032370675 -0.17375834 -0.07442166 -0.053745735 0.04462397 -0.0871294 -0.011450766
-0.14362173 -0.19483374 0.036056403 0.20135024 -0.14809354 -0.076732256 -0.35746285 0.082188725
0.06889757 -0.11577567 -0.13596314 0.081178404 0.24454427 -0.05628514 -0.18300349 0.05768518
-0.15665446 0.13634904 0.17587368 0.25381207 0.2460743 0.105733424 -0.018262787 0.11182914
-0.059489466 -0.055137344 -0.05745549 -0.0646465 -0.03416117 -0.0030766455 -0.116161846 0.045725126
0.025240734 0.0956029 0.02155893 -0.06770889 -0.18198128 -0.008067057 0.02798807 0.034940816
-0.032138184 0.35252956 0.09159851 -0.059199605 -0.010790029 -0.11486944 -0.013170192 0.08901364
00000000: 387c a43d efd8 bcbd 2d6d 5f3e 865c ca3d
00000010: 9f3f 3abe 366e 6a3e d64e 033e d3ae 8bbe
00000020: f091 6abd 8bda 5ebe 7d05 fdbd 144f aa3a
00000030: 220e 993e c2df 55be 8cf2 603d 0cce 503e
00000040: 5914 123e e574 ac3e 0a43 8e3e c117 02be
00000050: ed36 223e 9ea8 a93b ec32 a03c b9c8 87be
00000060: 82fe 6f3c 5cc9 ae3e e765 34ba 52db ff3d
00000070: c189 b7bd b8ee d7bd 8731 04bc cf6a 24be
00000080: 5d64 8d3d 0911 47be 7fb4 c0bd e92e 07be
00000090: e87a 8e3d abad 3abe 3d17 283e 07dd 173d
000000a0: 2763 84bc 35b9 ddbd ffda d43b 5ee5 373d
000000b0: 88d3 953e 46ca 9d3e dea1 5f3d 4da6 8f3e
000000c0: e5fd f23d d8c9 9abc 0032 8f3d 0f17 55bd
000000d0: 6560 8a3e 6f23 843e 5d38 be3d 8ed1 a73d
000000e0: d0a3 573e ab4c 3bbe 0b06 25be 781f 11be
000000f0: 7bbc 03be f590 8e3d dca3 533e 774e a5bd
00000100: 4d4e a7bc be66 513e 8f44 c93d 5e3a cbbd
00000110: 1c4f d53d f98e 9bbd 8842 40be be3a 6a3c
00000120: 73b6 be3d dd8d 8bbd 40d9 73bd 75e6 c2bd
00000130: 6253 a4bd 1601 253c 30c7 9abe 26f7 bfbd
00000140: da3e d8bc d2cf 65be 67d1 3fbe 7325 d03d
00000150: 905f ecbd 7a4a 973d f873 293d 92ee 163e
00000160: 6a88 eb3c 6bae 9e3d 2902 e6bc abb9 a6bd
00000170: 7520 343d 498d 593d 4778 943e 068c d83d
00000180: b9ca 4ebe c54b 4c3d 221a 86bd 5b92 65be
00000190: 68a4 27be 8046 413d 9be9 9cbd f47f fd3a
000001a0: cca9 e2bd a1a9 73bb 90b9 b3be 5f5f 0fbd
000001b0: c014 14be ad66 c2bd 0358 b3be dc6b ffbd
000001c0: 8189 22be d9d4 993d 62b4 e6bd ddf3 95bd
000001d0: 6875 8ebd 8bc3 79bb 07be 12be 0e69 fd3d
000001e0: 6b79 43be 1ec9 f63d 4caa f63d 3919 003e
000001f0: c806 493d 2417 f33c 1269 df3d f782 e93d
00000200: 2507 2c3e da61 f6bc 09b5 0e3c cc75 32bd
00000210: ea72 af3d 517d 0abe 068f babc f849 50bd
00000220: a926 373e 32b1 b33d 4e40 df3d b2ce 003d
00000230: 708f 09be cd70 4f3d fa78 1dbb bfb5 2f3e
00000240: 0ccd 99bd 4512 9fbd 2130 23be a7ba 763d
00000250: 6e47 023e 9552 103b 65a7 3dbe 7988 acbc
00000260: 0dcc 103e 772f b03c c882 84bd 90c4 efbd
00000270: 16d6 8d3c 1070 28be 7275 993e f1f4 123e
00000280: 2dca 1fbd d6c2 2c3c a55e 00be 0d3f 453c
00000290: 235f 353e 8098 a7bd 9b89 e3bd 00dc c9bd
000002a0: 17de 2bbe 2df7 0e3d a950 7dbd 4075 06be
000002b0: 2f00 dfbd ae88 cc3c 4e1e cabd 1f42 42be
000002c0: 69b4 edbd 3e30 913d d9f7 dcbd c3ff e0bd
000002d0: 4b6f 2ebd 3c96 3fbd 6d18 8f3d 7ea7 393d
000002e0: 36f9 a0bd 6509 593d 52e4 ccbd 52a5 3e3d
000002f0: c7c7 003e 4300 65bd 69aa 183e e6a4 f23d
00000300: 60cf dbbc fd2c 123e fbef 0a3e 25e4 febc
00000310: 22ff bf3d 27d2 8abe 2c6a dabc f815 6f3d
00000320: d691 c43c 1d97 04bd b5ed 31be 626a 98bd
00000330: 7d24 5cbd a0c7 363d e670 b2bd fe9b 3bbc
00000340: 9311 13be 7f82 47be e1af 133d c22e 4e3e
00000350: d5a5 17be cd25 9dbd 5f05 b7be 9052 a83d
00000360: 2b1a 8d3d cb1b edbd ec39 0bbe dd40 a63d
00000370: d069 7a3e 3f8b 66bd 4465 3bbe 4c47 6c3d
00000380: 076a 20be 159f 0b3e 3b18 343e a8f3 813e
00000390: e7fa 7b3e c48a d83d d79b 95bc ad06 e53d
000003a0: 3aab 73bd b2d7 61bd 7356 6bbd 6265 84bd
000003b0: 95ec 0bbd 8ca1 49bb 43e6 edbd 454a 3b3d
000003c0: a8c5 ce3c 74cb c33d 5a9c b03c f5aa 8abd
000003d0: 4d59 3abe b02b 04bc 3d47 e53c 1a1e 0f3d
000003e0: 54a3 03bd c17e b43e 0098 bb3d 497b 72bd
000003f0: a9c8 30bc ab40 ebbd cac7 57bc c94c b63d

lstm.weight_hh_l1 f4 [256, 64]
-0.06837491 0.1696901 0.016203722 0.04879393 -0.15675314 0.023862487 0.21955603 -0.20000772
-0.090890184 0.13667008 -0.005653523 -0.15571937 0.21545029 -0.04565928 -0.010374474 -0.047807027
0.10571754 0.0064422726 -0.12586954 -0.1353575 -0.121808246 0.0060130265 0.068715736 0.26074573
-0.04796287 -0.010108086 0.09946757 0.16295786 -0.16691418 0.085247196 0.026610648 -0.0048551126
-0.017431911 0.07442146 0.049968492 -0.15489078 0.05079849 0.10612058 0.075003356 -0.021833561
0.013073544 0.021507211 0.07491666 -0.006039563 -0.10568998 -0.015536045 0.117102936 -0.05880132
0.06136828 -0.07750381 0.111305326 -0.24682844 -0.08095874 0.15095773 0.043060496 -0.051050283
0.062980406 -0.12976585 0.10637409 0.063049756 0.094539724 -0.06564795 0.08854476 0.017372537
-0.09713859 0.05354731 0.15116732 -0.037376333 -0.047081042 0.0033902365 -0.052446146 0.21109705
-0.020978525 0.09646317 0.098390736 0.04063009 -0.12236149 -0.0671309 0.058559045 -0.06567707
0.0947084 0.0074120536 -0.17160158 -0.05177289 -0.04749208 0.13579333 0.017019808 -0.12876852
-0.069693334 0.0214539 0.15420131 0.031576183 -0.02640445 0.006924356 0.11856218 0.047121894
0.009642159 -0.041771192 -0.039218873 0.14992006 -0.053384047 -0.012495889 0.10422737 -0.057238642
-0.022298396 0.2536124 -0.085382186 -0.14897494 -0.04001201 0.12509847 0.0445017 0.08594643
0.356776 0.124411345 0.06607727 0.04261011 0.054401904 0.014498334 -0.16247544 -0.029691184
-0.18047395 0.14268647 -0.043063737 -0.102564834 -0.20692332 0.12557682 0.117246345 0.06259192
0.0007435708 -0.10835484 0.057310052 0.10948914 0.074083336 -0.042167284 -0.038726907 -0.20271921
0.0011837151 -0.05204498 -0.036918197 0.038454153 -0.061253734 -0.055191446 0.062285107 0.31218767
-0.18600573 -0.19509788 -0.2151663 -0.0756697 -0.07400795 0.02316416 0.08007299 -0.088831246
-0.0942137 0.12613727 0.24292585 -0.05446321 0.017661627 0.07240604 0.09324817 0.08863807
-0.10560661 -0.14411415 -0.0871268 0.038566206 -0.036255833 0.0060942243 -0.0074723554 -0.055802558
-0.19180533 0.11878526 0.099703364 -0.11218963 0.093971856 -0.06080714 0.07859619 0.18619691
0.25549763 0.110761575 0.10622776 0.06184087 0.022353392 -0.085267894 -0.089121126 0.037583932
-0.2207362 0.2815695 -0.1430863 -0.048808385 -0.07282867 0.016015982 0.2053643 0.09642257
-0.0034568615 0.018091105 0.061700962 0.04065658 0.07265211 0.057156395 0.08684162 -0.09836506
0.002006816 -0.12633368 0.2277104 0.21958987 0.011892624 0.16099085 0.0062364796 0.29884234
-0.104908414 -0.37525004 0.08449079 0.19944651 0.028123476 -0.10605924 -0.030152224 -0.06549985
-0.10314213 0.15031613 0.19374354 0.018093754 -0.08475162 -0.0096440185 -0.014711015 0.11909083
-0.061061617 -0.023489285 0.016988436 -0.08610314 -0.065271534 0.099787086 0.17465979 -0.021727875
-0.071660176 0.073321156 0.004603279 -0.19204395 0.24221852 -0.089699626 0.009022106 0.20596243
0.38522398 0.111112945 0.2733577 -0.019796751 -0.006183315 -0.094968334 -0.22086103 0.0020634313
-0.15040769 0.10714999 -0.22566676 -0.31815276 -0.12447757 0.08027315 0.32750002 0.10753918
00000000: 2508 8cbd 3ec3 2d3e abbd 843c 25dc 473d
00000010: e583 20be 437b c33c 4cd3 603e d3ce 4cbe
00000020: a224 babd 3ef3 0b3e 3041 b9bb e674 1fbe
00000030: 009f 5c3e 3a05 3bbd b3f9 29bc 4dd1 43bd
00000040: 7082 d83d b319 d33b f2e3 00be 289b 0abe
00000050: 9a76 f9bd ec08 c53b d6ba 8c3d 7780 853e
00000060: b774 44bd 639c 25bc a7b5 cb3d 6dde 263e
00000070: 8deb 2abe 1596 ae3d 93fe d93c a317 9fbb
00000080: 5ecd 8ebc 476a 983d c3ab 4c3d b09b 1ebe
00000090: 1412 503d bf55 d93d 5c9b 993d 4cdc b2bc
000000a0: 6b32 563c e42f b03c e86d 993d 87e7 c5bb
000000b0: fd73 d8bd e58a 7ebc aad3 ef3d a7d9 70bd
000000c0: 4e5d 7b3d 51ba 9ebd 0cf4 e33d 98c0 7cbe
000000d0: b2cd a5bd aa94 1a3e 3460 303d 1a1a 51bd
000000e0: dffb 803d 57e1 04be a9da d93d 3b20 813d
000000f0: 0b9e c13d 6f72 86bd f556 b53d da50 8e3c
00000100: 99f0 c6bd 6d54 5b3d 9bcb 1a3e ed17 19bd
00000110: 0dd8 40bd bb2e 5e3b c5d1 56bd d329 583e
00000120: 28db abbc 7c8e c53d 1581 c93d bd6b 263d
00000130: a998 fabd ed7b 89bd 9cdb 6f3d b381 86bd
00000140: 7af6 c13d d0e0 f23b 53b8 2fbe cf0f 54bd
00000150: 0e87 42bd 680d 0b3e 206d 8b3c e5db 03be
00000160: 61bb 8ebd 17c0 af3c f3e6 1d3e 0756 013d
00000170: 254e d8bc b5e5 e23b bad0 f23d e302 413d
00000180: 25fa 1d3c 4518 2bbd f8a3 20bd a584 193e
00000190: 3ba9 5abd 8fbb 4cbc 2975 d53d 1173 6abd
000001a0: 20ab b6bc 7cd9 813e dbdc aebd e38c 18be
000001b0: a2e3 23bd d019 003e 6a47 363d af04 b03d
000001c0: 58ab b63e 60cb fe3d 8553 873d f087 2e3d
000001d0: 88d4 5e3d 6c8a 6d3c f65f 26be ed3a f3bc
000001e0: 2ace 38be 671c 123e 9a63 30bd 830d d2bd
000001f0: b5e3 53be 3697 003e da1e f03d 3130 803d
00000200: 31ec 423a 24e9 ddbd f2bd 6a3d d83b e03d
00000210: 01b9 973d 9ab7 2cbd 1ba0 1ebd a095 4fbe
00000220: e326 9b3a 1e2d 55bd 8937 17bd 1a82 1d3d
00000230: 32e5 7abd 6d10 62bd ab1e 7f3d 10d7 9f3e
00000240: 4978 3ebe bdc7 47be 8e54 5cbe b7f8 9abd
00000250: 7b91 97bd c4c2 bd3c 4ffd a33d 28ed b5bd
00000260: 1df3 c0bd 212a 013e 8ec1 783e d114 5fbd
00000270: 1eaf 903c 9e49 943d e6f8 be3d e087 b53d
00000280: 4748 d8bd a992 13be 896f b2bd 99f7 1d3d
00000290: ff80 14bd 0fb2 c73b a9da f4bb 3991 64bd
000002a0: 9e68 44be b045 f33d 4731 cc3d adc3 e5bd
000002b0: 5174 c03d e810 79bd 0af7 a03d 67aa 3e3e
000002c0: 96d0 823e f7d6 e23d f18d d93d da4c 7d3d
000002d0: 761e b73c efa0 aebd 2385 b6bd 9cf1 193d
000002e0: ac08 62be e129 903e 3785 12be 4deb 47bd
000002f0: 3327 95bd f333 833c 054b 523e 3279 c53d
00000300: 838c 62bb cc33 943c 26ba 7c3d 8487 263d
00000310: a1ca 943d d31c 6a3d 05da b13d 9f73 c9bd
00000320: c984 033b 9e5d 01be ea2c 693e 2bdc 603e
00000330: 48d9 423c c9da 243e 625b cc3b dd01 993e
00000340: 39da d6bd c620 c0be 8209 ad3d b53b 4c3e
00000350: 3463 e63c 9635 d9bd cc01 f7bc c924 86bd
00000360: 2e3c d3bd 79ec 193e b564 463e 5a39 943c
00000370: 4292 adbd f201 1ebc 7806 71bc e5e5 f33d
00000380: bf1b 7abd 9a6c c0bc 552b 8b3c d856 b0bd
00000390: 15ad 85bd 2c5d cc3d 04da 323e a8fe b1bc
000003a0: 92c2 92bd 6729 963d 1ad7 963b 2ba7 44be
000003b0: 2208 783e 70b4 b7bd 75d1 133c d1e7 523e
000003c0: 143c c53e 2f8f e33d 8af5 8b3e cc2c a2bc
000003d0: 689d cabb c27e c2bd 6529 62be a23a 073b
000003e0: 7904 1abe 7471 db3d 3015 67be ebe4 a2be
000003f0: 19ee febd 4066 a43d 15ae a73e 803d dc3d

lstm.bias_ih_l1 f4 [256]
-0.06617009 0.04054572 -0.26706633 -0.06613077 -0.033738613 0.098112814 0.008573244 0.04394608
0.023649735 -0.19133155 0.16105035 -0.16381814 0.048050936 0.014607917 0.030370818 0.5801631
-0.041329246 -0.02680002 0.31325123 0.039055355 0.03227813 0.14240144 -0.089356035 -0.10136507
-0.057164654 -0.14305842 0.11211898 -0.16217658 0.14942318 -0.18086137 0.11576907 -0.13364695
-0.08015113 -0.09321266 0.25165367 -0.2382819 0.050887864 0.039172992 -0.18729742 -0.06311765
0.07421739 -0.09695726 -0.11408984 0.2627681 0.08549908 -0.056805454 -0.07151598 -0.19971085
0.042312805 -0.11346409 0.08098612 -0.12487497 -0.061243907 -0.018253006 -0.061767682 0.1814641
0.06277308 0.037877988 -0.077077426 -0.04807201 -0.04454041 -0.016445398 0.064473055 -0.07616028
-0.086132705 -0.20499426 -0.005396769 -0.07958249 0.019187164 -0.006906573 0.057473063 -0.3458549
-0.051726997 -0.031252753 0.08025727 -0.015037342 -0.15360565 0.1660627 -0.04775597 -0.769881
-0.14680727 -0.33226353 0.083530165 -0.0792338 -0.14786747 -0.02250648 -0.16876133 0.037002407
0.05685514 -0.010668503 -0.025565654 -0.18105477 0.18643264 -0.06306622 0.05834455 0.045436718
-0.046352573 -0.105042785 0.03654273 -0.14479971 -0.04967225 -0.34470612 0.09970056 0.03065933
0.10307237 -0.16541262 -0.17605856 -0.33744326 0.08639097 0.0197823 -0.09471844 -0.13104843
-0.059384268 0.10206185 -0.052217435 -0.033463698 -0.078722514 -0.15580879 0.0032453598 -0.0029825107
-0.16411951 -0.018898476 -0.04805134 0.0879576 -0.04174901 0.088909015 0.052669715 0.04151085
0.06391921 -0.03997656 0.06927844 0.060899954 0.071203366 0.0068763094 -0.091134384 0.023812408
-0.019799553 -0.059456546 -0.11594682 -0.056532145 -0.1481123 -0.019800492 -0.091398865 -0.11231085
-0.044687957 -0.06617114 0.18849763 0.15057765 -0.026314229 -0.051200546 0.06880684 0.03575541
0.019868504 0.06361225 -0.09554924 -0.10269318 0.05486716 -0.052538287 0.010602748 -0.06517035
-0.044698995 -0.06436056 -0.04594433 0.09390767 0.027900042 0.07232553 0.09921686 -0.028482866
0.196514 -0.029586175 -0.073794186 0.053451728 -0.1501798 -0.07489344 -0.07638452 0.07844896
-0.06298836 0.044911142 -0.056825705 0.102284305 0.013814933 -0.021193016 -0.03349518 0.12905875
0.016344212 -0.05050214 0.0461077 0.16012916 -0.11090694 -0.030065738 -0.0634799 0.035721816
-0.04396042 -0.02001426 -0.049376458 -0.076021045 -0.117522344 -0.08282902 -0.051772963 0.085019216
0.030251289 0.042374678 -0.026913466 -0.18271567 0.09197543 -0.002449122 0.13712595 0.548577
0.041702513 -0.011314838 0.1000612 0.11279056 0.066938676 0.004337987 -0.19031109 -0.017759627
0.11401401 -0.10702633 0.10209531 -0.076714106 0.06602747 -0.07616683 0.20866707 -0.0072608287
-0.17190734 -0.12544325 0.014359848 -0.14226481 0.15929538 0.07998041 0.047461007 0.07175616
-0.06721881 -0.10392527 -0.23607613 0.17959583 0.0211188 -0.050805442 -0.023354037 0.037015893
-0.014126777 -0.07336759 -0.01731798 -0.047150224 -0.021270657 -0.007421911 -0.0058427947 0.19965294
0.02664193 0.13482696 -0.13465102 -0.040348403 0.15337591 -0.1869558 -0.15675296 0.12326102
00000000: 2f84 87bd 4513 263d ebbc 88be 926f 87bd
00000010: 8031 0abd 5fef c83d cb76 0c3c ce00 343d
00000020: 17bd c13c 6bec 43be 62ea 243e f1bf 27be
00000030: 0fd1 443d 0b56 6f3c 39cc f83c 9285 143f
00000040: db48 29bd b78b dbbc 7762 a03e 82f8 1f3d
00000050: 1336 043d afd1 113e 4c00 b7bd 7d98 cfbd
00000060: 7c25 6abd e87d 12be a39e e53d 9e11 26be
00000070: 6402 193e b933 39be 5618 ed3d bfda 08be
00000080: 4726 a4bd 47e6 bebd c0d8 803e 2c00 74be
00000090: cb6f 503d dc73 203d e5ca 3fbe d443 81bd
000000a0: 49ff 973d 8791 c6bd efa7 e9bd 8a89 863e
000000b0: 241a af3d d6ac 68bd f876 92bd 0081 4cbe
000000c0: 3150 2d3d dc5f e8bd 0ddc a53d 73be ffbd
000000d0: e4da 7abd 5487 95bc 1c00 7dbd bad1 393e
000000e0: 2c8f 803d f325 1b3d c5da 9dbd 28e7 44bd
000000f0: 0170 36bd 80b8 86bc 730a 843d ecf9 9bbd
00000100: 5866 b0bd 04ea 51be 61d7 b0bb 25fc a2bd
00000110: 662e 9d3c 8950 e2bb e068 6b3d e513 b1be
00000120: b0df 53bd e302 00bd ec5d a43d 2f5f 76bc
00000130: cd4a 1dbe 570c 2a3e c49b 43bd ec16 45bf
00000140: a554 16be 721e aabe dd11 ab3d 5545 a2bd
00000150: 926a 17be 825f b8bc c5cf 2cbe d68f 173d
00000160: efe0 683d f2ca 2ebc 106f d1bc 6c66 39be
00000170: 33e8 3e3e dd28 81bd b2fa 6e3d da1b 3a3d
00000180: 32dc 3dbd ac20 d7bd d4ad 153d 6046 14be
00000190: 2175 4bbd 527d b0be cf2f cc3d 4629 fb3c
000001a0: 9b17 d33d ed61 29be b248 34be 5dc5 acbe
000001b0: c0ed b03d 7d0e a23c befb c1bd 8f31 06be
000001c0: eb3c 73bd ce05 d13d f3e1 55bd 3b11 09bd
000001d0: 4539 a1bd 578c 1fbe 1ab0 543b 3a76 43bb
000001e0: f20e 28be fad0 9abc 7bd1 44bd 1d23 b43d
000001f0: 0301 2bbd ee15 b63d 33bc 573d 4807 2a3d
00000200: 13e8 823d 76be 23bd dbe1 8d3d 3b72 793d
00000210: 12d3 913d aa52 e13b aaa4 babd 3d12 c33c
00000220: ac32 a2bc b588 73bd 8775 edbd 408e 67bd
00000230: c0aa 17be a434 a2bc 542f bbbd 3b03 e6bd
00000240: b80a 37bd bc84 87bd 8605 413e 0731 1a3e
00000250: f090 d7bc aab7 51bd 9aea 8c3d 4474 123d
00000260: 46c3 a23c 2447 823d 52af c3bd cd50 d2bd
00000270: 63bc 603d 6332 57bd 26b7 2d3c 0878 85bd
00000280: 4b16 37bd 78cf 83bd 1f30 3cbd aa52 c03d
00000290: a18e e43c 681f 943d 3632 cb3d e654 e9bc
000002a0: f73a 493e b55e f2bc 6821 97bd 33f0 5a3d
000002b0: bcc8 19be bb61 99bd 7d6f 9cbd d9a9 a03d
000002c0: 0b00 81bd bff4 373d 12c2 68bd 6f7a d13d
000002d0: 0758 623c fa9c adbc 3e32 09bd fa27 043e
000002e0: 4ce4 853c 55db 4ebd 6ddb 3c3d e6f8 233e
000002f0: 2e23 e3bd 6c4c f6bc c001 82bd 0a51 123d
00000300: d70f 34bd f2f4 a3bc f83e 4abd ecb0 9bbd
00000310: 8eaf f0bd 43a2 a9bd e30f 54bd 8e1e ae3d
00000320: 8dd1 f73c 1291 2d3d a179 dcbc d119 3bbe
00000330: 9d5d bc3d 7381 20bb bf6a 0c3e 8b6f 0c3f
00000340: 41d0 2a3d df61 39bc e3ec cc3d bdfe e63d
00000350: 2517 893d ac25 8e3b e9e0 42be a37c 91bc
00000360: 2d80 e93d 9f30 dbbd 5917 d13d 491c 9dbd
00000370: 6939 873d 5bfd 9bbd d2ac 553e 3fec edbb
00000380: 7a08 30be 3274 00be 9145 6b3c dead 11be
00000390: 541e 233e c5cc a33d 7966 423d e5f4 923d
000003a0: 04aa 89bd c6d6 d4bd f1bd 71be f8e7 373e
000003b0: 5501 ad3c 5e19 50bd f750 bfbc fa9d 173d
000003c0: ff73 67bc bf41 96bd 70de 8dbc 9820 41bd
000003d0: cd3f aebc 8133 f3bb ea74 bfbb d271 4c3e
000003e0: 2d40 da3c 1410 0a3e f5e1 09be 5e44 25bd
000003f0: 930e 1d3e 5771 3fbe d983 20be 4670 fc3d

lstm.bias_hh_l1 f4 [256]
0.0034795636 -0.14166856 -0.04114836 0.0054119397 -0.081661165 -0.10503242 -0.0016021191 -0.029101467
-0.10856256 -0.12217351 0.1995846 -0.009644465 -0.12638353 0.014155689 0.005136903 0.64680445
-0.064865604 -0.14992683 0.40176854 0.022075681 -0.119237095 -0.068869516 -0.13106386 -0.08143185
-0.1026552 0.051081307 0.08259737 0.04521888 0.090030126 -0.11939857 -0.06808763 -0.05931029
-0.016867725 -0.12137792 0.0885737 -0.052325472 0.059775032 0.040767316 -0.20703839 0.11094851
0.101003945 0.010774695 -0.057717733 0.30927566 0.14668639 -0.0972585 -0.20087637 -0.15475565
0.06984003 -0.15133297 -0.046260785 -0.1900109 -0.1752543 -0.19543207 -0.13427003 0.29638138
-0.09847637 0.0705499 0.05790686 0.08862503 -0.03465011 -0.12367648 -0.024438092 -0.09672895
-0.083088204 -0.08745316 0.042216405 -0.0632212 0.051118575 -0.18492489 0.07168791 -0.2954492
-0.11755387 -0.12909047 -0.023678387 0.00909224 0.016060898 0.1857426 -0.10874371 -0.7300694
0.06588296 -0.42429075 0.066326104 -0.26864105 -0.19294342 0.11354441 0.012816607 0.012397185
0.029517332 0.011503195 -0.057973236 -0.013034399 0.097306155 0.04490619 0.083774425 -0.09567594
-0.018899588 0.000698803 -0.10562404 -0.21898924 -0.2038699 -0.20898011 -0.058105294 -0.15051228
0.16013628 -0.10249272 -0.17638838 -0.40731862 0.029107772 -0.10976623 -0.0775387 -0.16055329
-0.094411835 0.11470583 -0.2427759 -0.029634131 -0.14282575 0.03246749 0.06806064 -0.12620701
-0.12442083 -0.039940827 -0.25222343 -0.015908716 -0.013150061 0.0017629289 0.018985426 0.12361532
0.16680077 -0.11874819 -0.016464919 -0.112242095 0.008075357 0.063751295 -0.07760182 0.032297485
-0.0038400507 -0.08702314 0.0078003537 -0.02065577 0.09214455 0.04854649 -0.092681825 -0.07785153
0.033016518 0.10117383 0.07890424 0.17599015 -0.03830596 -0.010361979 0.09464681 -0.089211024
0.06452538 -0.014121306 -0.07209928 0.042353958 -0.015475085 -0.017968912 -0.05485613 0.03633084
0.037749078 0.08598368 0.11651785 -0.107668325 -0.05866707 -0.013137976 -0.099086225 0.08203369
0.13473873 -0.09471976 -0.058457818 0.08447019 -0.060578052 0.049963094 0.030745307 -0.15001164
-0.09758062 0.034422923 0.016963122 -0.027378421 0.106336646 -0.04682378 0.092929326 0.13690665
0.020055223 0.04809059 -0.023950567 0.1408445 0.05009105 0.10888873 -0.048081238 -0.0606054
0.06455974 0.035318065 -0.02103722 -0.007862364 -0.011193101 -0.09044448 -0.03975833 -0.0015462819
0.07318221 -0.14002089 0.036002878 -0.10799523 -0.13398278 -0.08014139 -0.0786962 0.6373305
0.1106468 0.0075844973 0.038812358 -0.045287352 -0.14068773 -0.017793084 -0.09385015 -0.03738613
0.034742728 -0.12989241 -0.108124934 -0.06508926 -0.057211116 0.0071498086 0.13148844 -0.023508988
-0.05854712 -0.08338654 0.026507562 -0.20076157 -0.020042403 0.07197533 -0.12635174 -0.063298196
-0.117486164 0.04543397 -0.2211686 0.3548506 0.14935906 -0.10392777 -0.20624773 -0.007812681
0.037599042 0.0006890696 -0.0155534465 0.014360774 -0.09417413 -0.040494747 0.1007883 0.062672175
-0.0483011 -0.0415779 0.04603464 -0.10846034 0.11361211 -0.15867195 0.0051752306 0.13088655
00000000: 6409 643b 9011 11be 2f8b 28bd a456 b13b
00000010: f83d a7bd 3d1b d7bd 32fe d1ba 3366 eebc
00000020: 0c56 debd 1b36 fabd e85f 4c3e d103 1ebc
00000030: af6a 01be 43ed 673c 7753 a83b fa94 253f
00000040: 42d8 84bd 6b86 19be 9bb4 cd3e 0fd8 b43c
00000050: 9432 f4bd 760b 8dbd 9b35 06be bec5 a6bd
00000060: e43c d2bd a23a 513d cf28 a93d 6f37 393d
00000070: b761 b83d 3d87 f4bd 8771 8bbd 59ef 72bd
00000080: 2f2e 8abc fd94 f8bd 2166 b53d 3c53 56bd
00000090: aad6 743d a1fb 263d df01 54be f938 e33d
000000a0: 28db ce3d 5988 303c 6e69 6cbd 6159 9e3e
000000b0: f534 163e 772f c7bd 89b2 4dbe 4478 1ebe
000000c0: 4a08 8f3d 08f7 1abe f37b 3dbd 3892 42be
000000d0: dd75 33be 581f 48be 157e 09be 4dbf 973e
000000e0: fbad c9bd 777c 903d be2f 6d3d 0a81 b53d
000000f0: 46ed 0dbd 184a fdbd 6532 c8bc d419 c6bd
00000100: 262a aabd a41a b3bd 1ceb 2c3d 1e7a 81bd
00000110: b661 513d f35c 3dbe 1cd1 923d 1e45 97be
00000120: 15c0 f0bd 4b30 04be 2df9 c1bc 9ef7 143c
00000130: 2592 833c 4f33 3e3e 06b5 debd d4e5 3abf
00000140: a5ed 863d a33c d9be fbd5 873d 528b 89be
00000150: f692 45be f989 e83d bffc 513c 901d 4b3c
00000160: 55ce f13c e677 3c3c 5875 6dbd 3b8e 55bc
00000170: 7348 c73d 8eef 373d ed91 ab3d bff1 c3bd
00000180: 4fd3 9abc e02f 373a 6b51 d8bd b73e 60be
00000190: 45c3 50be e2fe 55be d1ff 6dbd e41f 1abe
000001a0: c4fa 233e b4e7 d1bd 289f 34be 118c d0be
000001b0: 6c73 ee3c 1ecd e0bd 9ccc 9ebd 1568 24be
000001c0: fe5a c1bd e4ea ea3d 3f9a 78be 47c3 f2bc
000001d0: ea40 12be a1fc 043d 6063 8b3d 693c 01be
000001e0: 59d0 febd fe98 23bd 6e23 81be ff52 82bc
000001f0: 5a73 57bc 1412 e73a 5387 9b3c 072a fd3d
00000200: d2cd 2a3e 4032 f3bd 70e1 86bc 2fdf e5bd
00000210: 814e 043c 0a90 823d b4ed 9ebd 5e4a 043d
00000220: 5ca9 7bbb 3039 b2bd 1c9a ff3b 4a36 a9bc
00000230: 48b6 bc3d afd8 463d f8cf bdbd 9f70 9fbd
00000240: 543c 073d 3a34 cf3d 8c98 a13d c336 343e
00000250: b6e6 1cbd 4ac5 29bc 30d6 c13d 45b4 b6bd
00000260: e225 843d 0d5d 67bc caa8 93bd 587b 2d3d
00000270: 368b 7dbc 8a33 93bc d2b0 60bd a6cf 143d
00000280: c79e 1a3d 3618 b03d e9a0 ee3d 3681 dcbd
00000290: e24c 70bd aa40 57bc b8ed cabd 4701 a83d
000002a0: f3f8 093e 6ffc c1bd 7771 6fbd b5fe ac3d
000002b0: b120 78bd 1aa6 4c3d 95dd fb3c a79c 19be
000002c0: 59d8 c7bd 0dff 0c3d 3ff6 8a3c b648 e0bc
000002d0: 07c7 d93d 4bca 3fbd bb51 be3d 4231 0c3e
000002e0: da4a a43c a3fa 443d fb33 c4bc 8a39 103e
000002f0: 462c 4d3d 0e01 df3d d5f0 44bd 5e3d 78bd
00000300: e637 843d ada9 103d 3f56 acbc 25d1 00bc
00000310: 4563 37bc f53a b9bd a1d9 22bd 9cac caba
00000320: 8ee0 953d a361 0fbe c177 133d 9a2c ddbd
00000330: c832 09be 2b21 a4bd 792b a1bd 1728 233f
00000340: ca9a e23d 6087 f83b b5f9 1e3d 3b7f 39bd
00000350: 7210 10be cdc2 91bc 8234 c0bd 3322 19bd
00000360: 644e 0e3d 8402 05be 9b70 ddbd 854d 85bd
00000370: 3456 6abd f148 ea3b e8a4 063e ec95 c0bc
00000380: 1bcf 6fbd 90c6 aabd 6326 d93c 7194 4dbe
00000390: f72f a4bc cd67 933d 5a62 01be 7ca2 81bd
000003a0: 969c f0bd f818 3a3d 057a 62be faae b53e
000003b0: 95f1 183e 15d8 d4bd 9b32 53be c200 00bc
000003c0: 7401 1a3d aea2 343a e2d3 7ebc 7449 6b3c
000003d0: 5ede c0bd d2dd 25bd 196a ce3d 455a 803d
000003e0: 60d7 45bd 974d 2abd d28e 3c3d 7420 debd
000003f0: 77ad e83d e67a 22be fb94 a93b 2007 063e
