data/models/chainlink_lstm_d.pth (torch, 215893 bytes, 10 tensors)

lstm.weight_ih_l0 f4 [256, 10]
0.055571884 -0.15295863 0.047755495 -0.11471859 -0.0054906136 0.0062086857 -0.12424907 0.1066717
0.016980866 0.09760391 -0.011675857 -0.15147841 -0.12354067 0.0039655305 -0.12255333 -0.12701151
0.0017247911 -0.033614844 0.020561025 -0.07113431 0.02163415 -0.12757991 0.039701644 -0.13173828
0.053039834 -0.09158776 0.025510823 0.06703241 0.008195016 0.08741297 -0.18200353 -0.08512486
-0.106310494 -0.013072045 0.08098561 0.03446506 0.058983594 0.049856454 -0.043882873 0.0804642
-0.06682336 -0.07061888 -0.042365376 0.048848197 0.09132179 0.082935914 0.068247184 0.10745669
-0.0031396435 0.061272684 -0.021103472 0.08421249 0.005673356 0.07603382 -0.07833813 -0.07249276
-0.057813067 -0.10545387 -0.08740494 0.041378256 0.014743127 -0.022707181 0.08493413 -0.0748681
-0.07537642 0.074169986 0.07457661 -0.024353247 0.008257491 -0.037081584 0.01887775 0.11659569
-0.06111955 0.10837459 0.042133033 -0.037884742 0.049468145 0.106406584 0.06861041 0.053415675
-0.054080933 0.081184015 0.052107394 -0.006318084 -0.03872643 -0.03939642 0.010404191 -0.03776025
0.13878135 -0.05847002 -0.081357926 0.016434848 -0.08322749 0.116114125 -0.10168426 0.038210366
-0.01973546 -0.006806938 -0.054192614 0.10721728 -0.05123887 0.059128035 0.058861766 -0.007130451
-0.1504526 -0.1646168 0.011643434 0.09625121 -0.07661032 0.23725453 -0.09469931 -0.008544949
0.007314961 -0.016111013 -0.163451 -0.14559236 0.10043769 0.036083106 -0.013347922 0.067453355
-0.012629206 -0.16113774 0.024136933 -0.13341583 0.1741612 0.09399957 -0.12468267 0.03535625
-0.109737106 -0.090225436 -0.07037183 0.028337745 -0.014147413 -0.18267521 0.019644318 -0.011995823
0.11858214 0.17262428 -0.014293626 -0.07567868 0.029767027 0.060935955 -0.024230985 -0.03311842
-0.20447724 0.07197124 0.14601134 0.111969575 -0.019831149 0.109726675 0.082980536 0.015381616
0.057967275 -0.116013475 -0.09496131 -0.018653998 -0.18136874 -0.19121543 -0.012076958 0.0108954115
-0.12067969 -0.09947103 -0.05214071 -0.02417479 0.16223302 0.20959064 0.064398654 -0.011591103
-0.12787136 0.115283534 -0.082054235 -0.12831554 -0.046824872 0.038028322 0.07464591 -0.09485421
0.071475 0.055999115 -0.018975118 0.013686493 0.106204785 0.08412725 -0.0018985722 0.014948736
0.0052470397 0.10410963 -0.10401583 0.009235836 -0.0023793005 -0.041664857 -0.063460834 -0.031947806
-0.036053073 -0.00039391126 0.100379355 0.06789857 -0.031241024 -0.07359404 0.0075637302 -0.016520169
0.038352553 0.029622993 -0.14150618 0.00703681 0.048767682 0.11470718 -0.085150175 -0.07051606
-0.02604495 0.0045810337 -0.10327875 -0.15911227 -0.15520589 -0.11029404 -0.040148463 0.034642503
-0.20818783 -0.17568558 -0.03982102 -0.0013486574 0.12084382 0.038862742 0.16335917 0.040791787
-0.027624318 0.043890502 -0.026985653 0.005474573 0.13114578 0.21927233 -0.13082059 -0.10020294
-0.057338174 -0.1458003 -0.15245135 0.04267104 0.12538001 0.06921538 -0.14363344 -0.10132097
-0.03564505 0.023665184 -0.14978138 -0.0443723 -0.0731951 -0.11812856 -0.0943942 -0.0038553998
0.020708546 0.08487838 0.04634186 -0.13146526 -0.05298047 -0.03901807 0.105102696 -0.08461817
00000000: 589f 633d 30a1 1cbe 449b 433d 95f1 eabd
00000010: 9bea b3bb 3b72 cb3b 4c76 febd b176 da3d
00000020: 751b 8b3c 8fe4 c73d 184c 3fbc 281d 1bbe
00000030: e402 fdbd 48f1 813b 3efd fabd 4e0f 02be
00000040: 6312 e23a b8af 09bd 986f a83c ddae 91bd
00000050: 1a3a b13c 4fa4 02be 319e 223d 66e6 06be
00000060: 4c40 593d 5d92 bbbd 13fc d03c 4a48 893d
00000070: 6344 063c 9205 b33d 225f 3abe f155 aebd
00000080: 51b9 d9bd 212c 56bc c9db a53d 3c2b 0d3d
00000090: c898 713d 4836 4c3d 87be 33bd 6aca a43d
000000a0: b0da 88bd a2a0 90bd 5187 2dbd 0c15 483d
000000b0: eb06 bb3d 4eda a93d 2ec5 8b3d 4112 dc3d
000000c0: 7ac2 4dbb 11f9 7a3d 30e1 acbc 9977 ac3d
000000d0: 8fe7 b93b 9fb7 9b3d be6f a0bd 1677 94bd
000000e0: 65cd 6cbd 33f8 d7bd 5c01 b3bd 3f7c 293d
000000f0: 288d 713c 6904 babc f2f1 ad3d 7254 99bd
00000100: f45e 9abd 6fe6 973d 9fbb 983d 7680 c7bc
00000110: 6d4a 073c dce2 17bd 83a5 9a3c b9c9 ee3d
00000120: 7e58 7abd 7ff3 dd3d b093 2c3d 082d 1bbd
00000130: 1c9f 4a3d b2eb d93d 9d83 8c3d 65ca 5a3d
00000140: f883 5dbd ce43 a63d 906e 553d ee07 cfbb
00000150: 9b9f 1ebd 245e 21bd 5776 2a3c 7eaa 1abd
00000160: b31c 0e3e 427e 6fbd fc9e a6bd 60a2 863c
00000170: 2d73 aabd 3ecd ed3d d63f d0bd 7982 1c3d
00000180: 42ac a1bc bc0c dfbb 13f9 5dbd bc94 db3d
00000190: d9df 51bd 3d30 723d 0919 713d 8fa6 e9bb
000001a0: 3f10 1abe 4e91 28be 1ac4 3e3c 5b1f c53d
000001b0: dfe5 9cbd daf2 723e b6f1 c1bd 1d00 0cbc
000001c0: 57b2 ef3b 3efb 83bc b35f 27be 2a16 15be
000001d0: 47b2 cd3d e1cb 133d 3eb1 5abc fc24 8a3d
000001e0: bbea 4ebc 4b01 25be d1ba c53c 299e 08be
000001f0: 5057 323e d982 c03d a159 ffbd b7d1 103d
00000200: d9bd e0bd 1dc8 b8bd 1b1f 90bd 8f24 e83c
00000210: 8dca 67bc 360f 3bbe 1fed a03c 218a 44bc
00000220: 31db f23d 6bc4 303e d02f 6abc 6cfd 9abd
00000230: fbd9 f33c fb97 793d 0f80 c6bc 2ea7 07bd
00000240: 7b62 51be a865 933d ff83 153e 4e50 e53d
00000250: ef74 a2bc 61b8 e03d b3f1 a93d 2c03 7c3c
00000260: 186f 6d3d 7998 edbd 137b c2bd 45d0 98bc
00000270: bab8 39be facd 43be 6fde 45bc ab82 323c
00000280: ea26 f7bd 78b7 cbbd 7f91 55bd 360a c6bc
00000290: 6a20 263e ee9e 563e 71e3 833d 9ce8 3dbc
000002a0: b6f0 02be c619 ec3d 0d0c a8bd 2665 03be
000002b0: 70cb 3fbd 96c3 1b3d f4df 983d ed42 c2bd
000002c0: 7c61 923d 545f 653d b571 9bbc 503d 603c
000002d0: e581 d93d e84a ac3d 83d9 f8ba 8beb 743c
000002e0: 5cef ab3b 6e37 d53d 4006 d5bd e751 173c
000002f0: 0aee 1bbb c5a8 2abd c1f7 81bd b4db 02bd
00000300: 63ac 13bd e085 ceb9 b193 cd3d 680e 8b3d
00000310: 2ded ffbc 79b8 96bd 2bd9 f73b 4e55 87bc
00000320: 9117 1d3d ebab f23c ffe6 10be 0a95 e63b
00000330: 9fc0 473d 99eb ea3d 3763 aebd b96a 90bd
00000340: 385c d5bc 7f1c 963b cf83 d3bd 54ee 22be
00000350: 4bee 1ebe d7e1 e1bd b772 24bd 4ce5 0d3d
00000360: 312f 55be ece6 33be 5e1b 23bd 6fc5 b0ba
00000370: f77c f73d 8a2e 1f3d a047 273e 4a15 273d
00000380: 654c e2bc 87c6 333d 0411 ddbc 0c64 b33b
00000390: 144b 063e ed88 603e d5f5 05be 3337 cdbd
000003a0: 6fdb 6abd ad4c 15be 351c 1cbe d4c7 2e3d
000003b0: 9e63 003e cbc0 8d3d a514 13be 5e81 cfbd
000003c0: 8b00 12bd 7ddd c13c 4a60 19be bbbf 35bd
000003d0: 50e7 95bd 63ed f1bd bf51 c1bd e0aa 7cbb
000003e0: f8a4 a93c b7d4 ad3d f6d0 3d3d d49e 06be
000003f0: 0d02 59bd 69d1 1fbd 1540 d73d 4b4c adbd

lstm.weight_hh_l0 f4 [256, 64]
0.13067582 0.11781377 0.02734787 0.09582476 -0.010156266 -0.13203585 0.025826132 0.007957083
0.042569075 0.16507034 -0.20028295 -0.051536143 0.03897388 -0.033277027 -0.051904853 -0.089821406
-0.07073753 -0.040092584 0.028954115 -0.025604166 0.022706132 -0.00039510478 -0.06706634 0.109276675
0.022683693 -0.0868055 -0.039796498 -0.048564136 -0.06624092 -0.048344348 -0.0513401 -0.054736797
0.12819278 -0.017343538 -0.06417544 0.11648395 0.083790004 -0.0036191237 0.2282656 0.040357433
-0.0055275834 -0.06685466 -0.0051118536 -0.088581994 0.12506177 0.028483177 -0.015184203 0.11926135
-0.007026054 -0.12551108 0.067887306 -0.015605954 0.076805875 0.050728556 -0.010272182 -0.094058305
-0.124938615 -0.11189558 -0.10670727 -0.073360175 -0.012552358 0.022318214 -0.14747137 0.074517325
-0.020577714 0.057245035 -0.07258448 0.054131504 -0.009150132 -0.13673441 0.024054924 -0.09394348
0.08028948 0.022141298 -0.021599054 0.12598374 0.0059802397 -0.07267299 -0.013001032 -0.06817737
0.03635958 -0.021133935 0.01129634 -0.07096374 0.09749013 -0.0115253925 0.06801053 0.11007649
-0.08680563 -0.025259335 -0.1220835 0.05505981 0.01269871 0.13016169 0.001452194 0.13185778
-0.023152888 0.1125716 0.086077355 -0.093790695 0.047865205 -0.06815274 0.08940632 -0.1465646
0.12000375 0.08169198 -0.06332421 0.10158765 -0.07320299 0.009451458 -0.07939597 -0.06978726
-0.07977609 -0.020733835 -0.11794193 -0.0149947945 -0.08569078 0.01985593 0.15435371 -0.013467553
-0.034482032 -0.15114424 -0.026698595 -0.038949765 0.079398096 0.046612516 0.043167382 0.040077016
0.06712614 0.02474304 0.027843526 -0.10421087 -0.09551061 0.048202913 0.07340764 0.03230502
0.029246913 0.12017118 -0.08953735 0.08382706 -0.12868853 0.02897459 -0.014699164 0.09718385
0.056654815 -0.1188004 0.08430578 0.06570119 -0.09439193 -0.027253028 -0.10546387 0.049661145
-0.033452142 -0.11644357 0.086588964 0.0020959745 -0.07780726 -0.08631403 0.025107909 0.094299704
0.06411023 -0.0929065 0.0026974306 -0.08051192 0.05539973 0.11351265 0.03767966 0.02798552
0.04841353 0.12132708 -0.016943807 -0.07238755 -0.064455256 -0.12997727 0.057093613 -0.09434477
0.08180119 0.10250887 0.08731381 0.084346704 -0.12650095 0.038103275 -0.13518003 0.03004228
0.046733875 0.090012394 -0.123624064 -0.10377928 -0.11834226 -0.10281794 -0.15331414 -0.06600106
0.085305564 -0.015972199 -0.12595363 0.0629221 -0.13509874 -0.09213572 -0.12805177 -0.16804072
0.03859391 0.1624974 -0.07774844 -0.023295764 0.045961972 -0.1560246 0.053326342 -0.0473684
-0.011902046 0.060809862 0.12974314 -0.016474577 -0.15177846 -2.2417662e-05 -0.031990495 0.06448084
-0.0688272 -0.03823776 0.0015904198 0.1410848 -0.18273029 -0.005763974 -0.07958288 0.12290385
0.111334294 -0.0055365018 -0.03624385 -0.0086065605 -0.14040992 -0.15285297 0.08991046 0.07549914
0.1121549 -0.03410803 0.06073661 0.11252425 0.12040285 -0.06398376 -0.05480807 0.065522626
0.0057704425 0.011546056 -0.04948334 -0.0007561424 -0.12691219 -0.03223947 -0.0039036262 -0.024333889
0.003997557 -0.12692487 -0.04628383 -0.028055055 -0.02770975 -0.05411381 -0.19715106 -0.04836925
00000000: e2cf 053e 5948 f13d a408 e03c c63f c43d
00000010: 7866 26bc 6834 07be 5391 d33c 6d5e 023c
00000020: e95c 2e3d 3308 293e f916 4dbe 9017 53bd
00000030: 13a3 1f3d 7e4d 08bd 2f9a 54bd 49f4 b7bd
00000040: d7de 90bd 1f38 24bd 2e31 ed3c d4bf d1bc
00000050: 3602 ba3c 1126 cfb9 145a 89bd 73cc df3d
00000060: 27d3 b93c 15c7 b1bd a701 23bd 30eb 46bd
00000070: 52a9 87bd b904 46bd ff49 52bd b133 60bd
00000080: f844 033e 0914 8ebc 6a6e 83bd 238f ee3d
00000090: 189a ab3d d22e 6dbb 75be 693e d64d 253d
000000a0: bb20 b5bb 19eb 88bd 5681 a7bb 7a6a b5bd
000000b0: 3110 003e 8d55 e93c 2ac7 78bc 4b3f f43d
000000c0: d03a e6bb fa85 00be 8008 8b3d 1eb0 7fbc
000000d0: 664c 9d3d bfc8 4f3d a74c 28bc a4a1 c0bd
000000e0: d1df ffbd 8329 e5bd 5789 dabd dc3d 96bd
000000f0: 68a8 4dbc b0d4 b63c bc02 17be 8a9c 983d
00000100: 9892 a8bc c579 6a3d 2ca7 94bd ffb8 5d3d
00000110: 6fea 15bc 1b04 0cbe d50e c53c 7065 c0bd
00000120: d06e a43d ab61 b53c 80f0 b0bc e201 013e
00000130: e3f5 c33b 94d5 94bd 4802 55bc 94a0 8bbd
00000140: c8ed 143d 1321 adbc 4914 393c 7055 91bd
00000150: e8a8 c73d 00d5 3cbc 1b49 8b3d c86f e13d
00000160: 26c7 b1bd aaec cebc ea06 fabd 6586 613d
00000170: 400e 503c 1b49 053e 8b57 be3a ba05 073e
00000180: 20ab bdbc f08b e63d 5349 b03d 5615 c0bd
00000190: 4e0e 443d aa93 8bbd a91a b73d 0815 16be
000001a0: 87c4 f53d 204e a73d 20b0 81bd 300d d03d
000001b0: 73eb 95bd 4ada 1a3c 5b9a a2bd 9fec 8ebd
000001c0: a661 a3bd 01da a9bc 8a8b f1bd baac 75bc
000001d0: a67e afbd e7a8 a23c e60e 1e3e 03a7 5cbc
000001e0: 083d 0dbd 8ec5 1abe 03b7 dabc ca89 1fbd
000001f0: 789b a23d c4ec 3e3d 48d0 303d cc27 243d
00000200: 6e79 893d eab1 ca3c 1b18 e43c 826c d5bd
00000210: 119b c3bd 6b70 453d bf56 963d 4552 043d
00000220: 3997 ef3c 4f1c f63d 5c5f b7bd 86ad ab3d
00000230: edc6 03be 1f5c ed3c c3d4 70bc 5408 c73d
00000240: e10e 683d a04d f3bd 82a8 ac3d 588e 863d
00000250: 8e50 c1bd be41 dfbc 71fd d7bd 7c69 4b3d
00000260: 1d05 09bd f779 eebd 8e55 b13d 9e5c 093b
00000270: 6a59 9fbd 69c5 b0bd 1aaf cd3c 3420 c13d
00000280: 394c 833d c345 bebd 60c7 303b 6fe3 a4bd
00000290: d4ea 623d 5279 e83d fd55 1a3d e441 e53c
000002a0: 444d 463d 557a f83d bdcd 8abc ec3f 94bd
000002b0: 1e01 84bd c318 05be feda 693d d537 c1bd
000002c0: 6287 a73d 2cf0 d13d 95d1 b23d f7bd ac3d
000002d0: 7789 01be 2e12 1c3d a26c 0abe 3a1b f63c
000002e0: 056c 3f3d 6b58 b83d 9d2e fdbd 3b8a d4bd
000002f0: 6d5d f2bd 3692 d2bd 62fe 1cbe 902b 87bd
00000300: afb4 ae3d 21d8 82bc fdf9 00be 4ddd 803d
00000310: 5357 0abe a7b1 bcbd 0120 03be de12 2cbe
00000320: a614 1e3d b865 263e 933a 9fbd c2d6 bebc
00000330: 9f42 3c3d eac4 1fbe b96c 5a3d 5e05 42bd
00000340: cd00 43bc c313 793d 63db 043e b1f5 86bc
00000350: d06b 1bbe 900d bcb7 7708 03bd 880e 843d
00000360: 46f5 8cbd 339f 1cbd a275 d03a 8978 103e
00000370: a61d 3bbe b8df bcbb 59fc a2bd 04b5 fb3d
00000380: 3c03 e43d 8b6b b5bb 6e74 14bd 8802 0dbc
00000390: 9ec7 0fbe 7d85 1cbe fa22 b83d 4b9f 9a3d
000003a0: 78b1 e53d ddb4 0bbd f4c6 783d 1d73 e63d
000003b0: c595 f63d eb09 83bd 6d7e 60bd ba30 863d
000003c0: fb15 bd3b ab2b 3d3c 0baf 4abd dc37 46ba
000003d0: 45f5 01be 890d 04bd fbd3 7fbb dd57 c7bc
000003e0: f0fd 823b 98f8 01be 1d94 3dbd b7d3 e5bc
000003f0: 8fff e2bc 71a6 5dbd f8e1 49be d61e 46bd

lstm.bias_ih_l0 f4 [256]
0.04388452 0.088383086 0.033010777 0.028442146 0.10706673 0.1222115 -0.110442966 0.110848
-0.012302348 0.09792829 -0.017751025 -0.10927842 -0.060369328 0.113069594 -0.04987025 -0.011897786
0.045059886 0.081217356 -0.09154888 -0.061942 0.07275143 -0.10882937 0.1930664 0.053973895
0.1099198 -0.07301136 0.107902445 -0.018271789 -0.08721041 0.011423864 -0.024898687 0.14273244
0.046605248 -0.036539283 -0.05030595 0.12691283 -0.12026413 0.030225225 0.13976532 -0.023514653
-0.08735371 -0.05046792 0.12500753 0.07661452 -0.0037532267 -0.04311972 -0.06456025 -0.015975334
0.10501721 0.120258674 0.10729724 -0.05157701 0.039757594 0.1103454 0.07708103 -0.016584413
0.09814538 -0.029388892 0.09723336 0.042667396 -0.028508948 0.051108345 -0.042546336 -0.034780946
0.0025297378 0.12095461 -0.043222804 -0.075274006 -0.045109253 0.029821498 0.1117022 -0.06082068
-0.059401866 0.11284179 0.122488044 0.068261586 0.16066048 0.030324383 0.13075107 0.0063276924
-0.11508502 -0.12468667 -0.049129616 -0.10188678 0.12628703 -0.06875226 0.05161458 -0.009446292
0.13063723 -0.043797117 0.11388434 0.09641569 0.027923606 0.10576764 -0.03885316 -0.056056146
0.09783693 0.13948709 -0.008551938 -0.054401617 0.09900108 -0.035104804 0.087044075 -0.012724613
-0.08816003 -0.09253082 -0.11821542 0.078837834 0.029000053 -0.009901101 0.003036859 -0.015650686
0.057437308 0.10746105 0.03707888 -0.06006825 0.019671388 -0.00053402595 -0.07308818 0.11350331
0.05908727 -0.061075736 0.05344423 0.15999874 -0.07356001 -0.08993767 -0.053525772 -0.085207194
0.08991184 0.100104496 -0.069788724 -0.0961932 0.039019648 -0.14083879 -0.04679421 -0.013143053
-0.056542117 0.03282784 -0.034288608 0.0067819366 0.10926149 0.045122538 0.09993164 0.016929265
0.031384386 0.036236983 0.08069819 0.10380308 0.06739482 -0.076242246 -0.058443606 0.013245018
0.10771233 0.05551325 -0.0020239365 -0.01549885 0.078020476 -0.01960903 -0.037383612 -0.018463844
-0.02990656 -0.043053307 -0.056410506 -0.050973646 0.0216174 -0.067907296 -0.09521595 0.04638123
0.04933364 0.044542894 0.07198517 -0.011373377 0.11525369 0.036240876 -0.09098572 -0.099560745
-0.03224891 -0.07969661 -0.02252086 -0.0112224035 0.0036893722 -0.03417967 0.00656401 0.027094321
0.008740085 0.03288802 -0.09040234 -0.037630048 -0.031118838 0.030581549 -0.115846865 0.06448772
-0.10650399 0.059101425 0.01851525 -0.07502191 0.027227145 -0.043506872 -0.07331661 -0.0067494083
-0.045082815 0.06915113 0.03401411 0.029728526 -0.022717457 0.036376216 0.1278641 0.005315025
0.101738855 0.035383996 -0.08771673 0.037712406 -0.0900677 0.042800087 0.13625568 0.058126178
0.0724684 0.024655033 0.037874922 -0.03942884 0.08132086 0.056228086 0.034636926 0.14990218
0.058411285 0.095814064 0.10444927 -0.055717546 -0.0050620413 0.05760052 -0.028457338 -0.1277921
-0.054270416 0.10798134 0.0849713 0.078655735 0.11098636 -0.10779352 0.03629672 0.20955035
0.08258831 0.015669322 0.071221344 0.026767325 0.032058716 0.001951523 -0.06987946 -0.034980785
0.030834572 -0.038626086 0.046997726 0.0037036063 -0.012914012 0.028157901 0.06605863 -0.026981007
00000000: 41c0 333d 3102 b53d 4f36 073d 81ff e83c
00000010: cd45 db3d 064a fa3d ec2f e2bd 4704 e33d
00000020: ca8f 49bc a18e c83d 996a 91bc 5dcd dfbd
00000030: d445 77bd 0891 e73d bf44 4cbd eeee 42bc
00000040: b790 383d 4955 a63d fb7d bbbd e5b6 7dbd
00000050: b4fe 943d efe1 debd 33b3 453e bb13 5d3d
00000060: a21d e13d fb86 95bd f5fb dc3d b8ae 95bc
00000070: 5f9b b2bd 292b 3b3c 55f8 cbbc 7428 123e
00000080: 25e5 3e3d 37aa 15bd 9d0d 4ebd 70f5 013e
00000090: 0a4d f6bd e49a f73c a41e 0f3e cda1 c0bc
000000a0: 80e6 b2bd 73b7 4ebd f901 003e 13e8 9c3d
000000b0: b2f8 75bb 4e9e 30bd 2a38 84bd b4de 82bc
000000c0: 4313 d73d 2e4a f63d a8be db3d 6a42 53bd
000000d0: dcd8 223d c5fc e13d a9dc 9d3d 09dc 87bc
000000e0: 7200 c93d f9c0 f0bc 4922 c73d 02c4 2e3d
000000f0: 998b e9bc fc56 513d 1145 2ebd 7776 0ebd
00000100: f5c9 253b 0db7 f73d 650a 31bd 4229 9abd
00000110: 7bc4 38bd 374c f43c 1fc4 e43d 1b1f 79bd
00000120: 5f4f 73bd 9919 e73d 03db fa3d bbcc 8b3d
00000130: 2e84 243e d76a f83c 9ce3 053e 8858 cf3b
00000140: b2b1 ebbd ba5b ffbd 233c 49bd 04aa d0bd
00000150: 6351 013e fccd 8cbd cf69 533d 9fc4 1abc
00000160: c4c5 053e 9b64 33bd 313c e93d 9775 c53d
00000170: 0cc0 e43c b49c d83d 7e24 1fbd 219b 65bd
00000180: ba5e c83d b4d5 0e3e 6e1d 0cbc 3bd4 5ebd
00000190: 14c1 ca3d 0eca 0fbd 2a44 b23d e57a 50bc
000001a0: 3f8d b4bd cc80 bdbd ed1a f2bd bb75 a13d
000001b0: 8591 ed3c 3a38 22bc 0a06 473b de35 80bc
000001c0: 6243 6b3d 8a14 dc3d 06e0 173d 200a 76bd
000001d0: e425 a13c e0fd 0bba 41af 95bd 6c74 e83d
000001e0: 7e05 723d 8d2a 7abd 56e8 5a3d b6d6 233e
000001f0: a1a6 96bd 3e31 b8bd d73d 5bbd 1c81 aebd
00000200: b323 b83d 9603 cd3d 64ed 8ebd f100 c5bd
00000210: 11d3 1f3d 0b38 10be 49ab 3fbd f655 57bc
00000220: b598 67bd 7c76 063d 3672 0cbd 023b de3b
00000230: 7dc4 df3d 69d2 383d f6a8 cc3d 3eaf 8a3c
00000240: ea8c 003d 3b6d 143d 1845 a53d b696 d43d
00000250: 4c06 8a3d e524 9cbd 9062 6fbd a201 593c
00000260: 4898 dc3d dd61 633d 05a4 04bb e3ee 7dbc
00000270: 33c9 9f3d 1ea3 a0bc 8f1f 19bd 7d41 97bc
00000280: 9afe f4bc aa58 30bd b40e 67bd bec9 50bd
00000290: f916 b13c fb12 8bbd 9400 c3bd 3ffa 3d3d
000002a0: 1212 4a3d 9c72 363d f66c 933d 6757 3abc
000002b0: 200a ec3d 5071 143d b956 babd 81e6 cbbd
000002c0: 6f17 04bd fa37 a3bd ab7d b8bc 2cde 37bc
000002d0: 65c9 713b fbff 0bbd e816 d73b e9f4 dd3c
000002e0: 9332 0f3c 97b5 063d dd24 b9bd f721 1abd
000002f0: efec febc 2886 fa3c 1f41 edbd 2312 843d
00000300: c41e dabd 5614 723d 4bad 973c 16a5 99bd
00000310: 760b df3c 4334 32bd 0527 96bd 242a ddbb
00000320: c2a8 38bd 1c9f 8d3d 6152 0b3d 3d89 f33c
00000330: f619 babc 3aff 143d ceee 023e a929 ae3b
00000340: 765c d03d cfee 103d d4a4 b3bd 5378 1a3d
00000350: 6a75 b8bd 254f 2f3d 9c86 0b3e b715 6e3d
00000360: 506a 943d 5af9 c93c bc22 1b3d 2380 21bd
00000370: 8d8b a63d 6c4f 663d 73df 0d3d f57f 193e
00000380: ac40 6f3d 2a3a c43d 80e9 d53d 1538 64bd
00000390: 7bdf a5bb 86ee 6b3d 5d1f e9bc efdb 02be
000003a0: a84a 5ebd 5225 dd3d 6f05 ae3d 4216 a13d
000003b0: d14c e33d d9c2 dcbd dfab 143d 5e94 563e
000003c0: 0f24 a93d f35c 803c 7fdc 913d 2647 db3c
000003d0: 0050 033d 3fca ff3a f61c 8fbd 0348 0fbd
000003e0: c998 fc3c 6336 1ebd b080 403d 34b8 723b
000003f0: 4b95 53bc 66ab e63c bf49 873d 4607 ddbc

lstm.bias_hh_l0 f4 [256]
-0.026368542 -0.044308767 -0.10014857 -0.012231482 0.0069680894 0.086574644 -0.054022327 0.11860201
-0.07111294 0.09647391 0.07499822 0.052102994 0.05441837 -0.08545209 -0.06568879 -0.10393837
0.09099236 -0.06513485 0.069534205 0.08153527 -0.009848513 0.056027886 -0.036072645 0.13777272
-0.06728731 0.124397196 -0.05625439 -0.06052496 0.05530255 -0.025918024 0.040942628 0.07077545
-0.038090777 0.14437722 -0.0011236913 -0.085431464 -0.07284412 0.027648814 -0.05440177 -0.0400251
0.09712711 -0.10675922 0.09955411 0.006145897 0.040437873 -0.111013815 -0.03363268 0.15871942
0.12945448 -0.04717307 0.04615412 0.112473354 -0.087617375 -0.042757474 -0.08558697 0.040508326
0.10585307 0.05036156 -0.04960405 0.0780544 0.004032196 0.09702775 0.063557826 -0.022811487
0.12797406 0.07463877 0.04682387 0.111432195 0.13943699 0.1511363 -0.08564664 -0.007901341
0.11201834 0.06290064 -0.03278345 -0.10656684 0.046618085 0.008563375 -0.032671474 -0.093022086
-0.06810802 0.020407764 0.07996448 0.06136955 0.13394324 0.08903023 0.20853458 0.05171225
-0.08724116 -0.08836677 -0.013226076 -0.09563259 0.143942 0.03793852 0.15337083 -0.10920107
-0.056969248 0.11346085 0.10381489 -0.009087953 -0.10539116 0.09283137 0.12537904 0.036973316
0.05967306 0.092227995 -0.062483177 -0.05279049 -0.02352644 -0.0036236064 0.036871787 0.05995314
-0.040128015 0.11451082 -0.06582378 -0.050020058 0.13664529 0.06790684 0.0831067 0.113271475
-0.063151404 0.04477965 0.099356085 0.096123844 -0.05422539 0.117654994 -0.010108476 0.11789118
-0.0404991 -0.044564877 -0.03046306 0.08455124 0.13873437 -0.12645175 -0.10796978 0.02992921
0.060051735 0.0075693536 0.15977974 -0.11485093 -0.02642823 0.11339505 -0.08871447 0.07564137
0.025842942 0.10505214 0.08394216 0.055120233 0.0033805484 -0.10521553 0.07261455 -0.14360306
-0.022583308 0.039463375 -0.028138215 -0.029024277 -0.11202965 0.013052432 0.1300685 -0.011859423
-0.03388353 0.06752887 -0.082547605 0.005731282 -0.08934852 0.05621509 -0.07423569 0.103176504
-0.0059846155 -0.0072507625 0.099029124 0.028482456 0.102096796 -0.0798699 0.08828352 -0.14899571
0.0071589183 0.061917953 -0.059313208 0.04143945 -0.059074283 0.068653196 0.036424436 0.0139190685
-0.081898786 -0.08742438 -0.03990684 0.007256876 -0.09857976 -0.079517245 0.08032238 0.087657325
-0.095488116 0.099801436 -0.025044257 -0.046922162 -0.017956875 0.16709007 0.0155652985 0.116423845
0.014048116 0.053952172 0.12595746 -0.082536474 6.337568e-05 0.012183368 -0.07163544 0.11503776
-0.06519961 0.0456339 -0.04289181 0.09579615 -0.06865868 -0.015338619 0.117081866 0.123030476
0.0706559 0.016830107 0.05838541 -0.06368558 0.018228466 -0.049819767 -0.05929533 0.11145261
0.10465163 -0.055048667 -0.022163065 0.10114134 0.018346442 -0.07690198 -0.054422375 -0.12776318
-0.018399235 0.051232688 0.12545736 0.10360433 -0.023120983 0.05398627 -0.030466136 -0.019965272
0.07987113 -0.08713081 -0.057169765 -0.008925272 -0.036568664 -0.0021924183 0.082737096 -0.008545985
-0.01299266 -0.0875071 0.029886564 0.18946041 0.033502545 -0.051540885 0.120357 0.1195967
00000000: d702 d8bc 1c7d 35bd b21a cdbd 8e66 48bc
00000010: 9254 e43b 0c4e b13d 8446 5dbd 9ce5 f23d
00000020: a9a3 91bd 1d94 c53d ab98 993d f369 553d
00000030: cce5 5e3d 8101 afbd d887 86bd a4dd d4bd
00000040: 345a ba3d 6c65 85bd f367 8e3d f7fb a63d
00000050: a85b 21bc 7f7d 653d e9c0 13bd 4b14 0d3e
00000060: eecd 89bd f5c3 fe3d 016b 66bd 05e9 77bd
00000070: ed84 623d 0952 d4bc 75b3 273d b8f2 903d
00000080: 1305 1cbd 9fd7 133e d348 93ba b1f6 aebd
00000090: 4c2f 95bd c47f e23c 64d4 5ebd 5cf1 23bd
000000a0: 94ea c63d 94a4 dabd 06e3 cb3d 8563 c93b
000000b0: 2fa2 253d 365b e3bd 6cc2 09bd 5887 223e
000000c0: b78f 043e 8d38 41bd 1a0c 3d3d 6e58 e63d
000000d0: bd70 b3bd 7622 2fbd 3948 afbd 0fec 253d
000000e0: 7fc9 d83d ec47 4e3d 9e2d 4bbd fcda 9f3d
000000f0: 8320 843b 7cb6 c63d 9b2a 823d 28df babc
00000100: a20b 033e 36dc 983d 63ca 3f3d 9036 e43d
00000110: 92c8 0e3e 79c3 1a3e 8167 afbd a074 01bc
00000120: df69 e53d 0dd2 803d f047 06bd b73f dabd
00000130: 9bf2 3e3d 664d 0c3c 86d2 05bd 5d82 bebd
00000140: 387c 8bbd 2f2e a73c 6bc4 a33d a35e 7b3d
00000150: 6b28 093e 7b55 b63d 178a 553e 39d0 533d
00000160: 7eab b2bd a3f9 b4bd 2fb2 58bc 05db c3bd
00000170: 8865 133e 6c65 1b3d 3e0d 1d3e d0a4 dfbd
00000180: 9658 69bd 2a5e e83d e79c d43d a3e5 14bc
00000190: 52d7 d7bd 601e be3d 5d63 003e 5571 173d
000001a0: bd6b 743d 08e2 bc3d 5cee 7fbd d73a 58bd
000001b0: 85ba c0bc 077a 6dbb df06 173d 6c91 753d
000001c0: 465d 24bd a684 ea3d 9ece 86bd d5e1 4cbd
000001d0: beec 0b3e be12 8b3d d833 aa3d e0fa e73d
000001e0: 8655 81bd de6a 373d 347b cb3d 94dc c43d
000001f0: 711b 5ebd 1af5 f03d 059e 25bc ee70 f13d
00000200: 62e2 25bd a989 36bd ab8d f9bc 3329 ad3d
00000210: 6210 0e3e 917c 01be 431f ddbd 1a2e f53c
00000220: cff8 753d 5708 f83b 4d9d 233e f736 ebbd
00000230: 0480 d8bc aa3b e83d efaf b5bd dde9 9a3d
00000240: 94b4 d33c 9425 d73d dee9 ab3d c1c5 613d
00000250: 318c 5d3b 3d7b d7bd f0b6 943d ae0c 13be
00000260: a100 b9bc 59a4 213d 1d82 e6bc 52c4 edbc
00000270: cd6f e5bd ded9 553c ad30 053e 064e 42bc
00000280: 75c9 0abd 944c 8a3d b80e a9bd 7acd bb3b
00000290: 5bfc b6bd cb41 663d e208 98bd 344e d33d
000002a0: 981a c4bb ce97 edbb c8cf ca3d 0a54 e93c
000002b0: 2018 d13d d592 a3bd fdcd b43d 5592 18be
000002c0: 5c95 ea3b ae9d 7d3d 68f2 72bd 6abc 293d
000002d0: e0f7 71bd 0c9a 8c3d ca31 153d ce0c 643c
000002e0: 8dba a7bd 8e0b b3bd 5b75 23bd 17cb ed3b
000002f0: 2fe4 c9bd f0d9 a2bd 0f80 a43d af85 b33d
00000300: 468f c3bd b264 cc3d 9d29 cdbc 7431 40bd
00000310: 4c1a 93bc a919 2b3e 9805 7f3c a06f ee3d
00000320: 122a 663c f4fc 5c3d fefa 003e e208 a9bd
00000330: 8fe8 8438 c09c 473c 9ab5 92bd eb98 eb3d
00000340: 6087 85bd 9dea 3a3d 53af 2fbd c630 c43d
00000350: ec9c 8cbd d54e 7bbc 9ec8 ef3d 67f7 fb3d
00000360: 0ab4 903d 4bdf 893c 8a25 6f3d 966d 82bd
00000370: dd53 953c d00f 4cbd a9df 72bd 4441 e43d
00000380: 9853 d63d b67a 61bd 518f b5bc 3123 cf3d
00000390: 474b 963c c97e 9dbd ffe9 5ebd 5ad4 02be
000003a0: feb9 96bc 5ed9 513d e577 003e 822e d43d
000003b0: 3768 bdbc b520 5d3d 1e94 f9bc 368e a3bc
000003c0: 7a93 a33d a371 b2bd d82a 6abd 4e3b 12bc
000003d0: 06c9 15bd adae 0fbb 1172 a93d 7604 0cbc
000003e0: 2adf 54bc ec36 b3bd abd4 f43c e901 423e
000003f0: f739 093d 891c 53bd bb7d f63d 1def f43d

lstm.weight_ih_l1 f4 [256, 64]
-0.111043185 -0.068701476 0.0012965045 -0.029786969 0.02798381 -0.079478525 -0.017497674 0.13052301
-0.07431514 -0.028076464 0.15769425 -0.060845014 0.017290076 -0.017355014 0.007843943 -0.07260102
0.11436212 0.051742878 0.06933111 0.053550404 0.1194606 -0.04366758 0.026853174 -0.040514924
0.051566284 0.066835135 0.07188934 -0.094925575 0.05997141 -0.05861622 -0.10019831 0.06816462
-0.1030107 -0.020935394 -0.11289949 -0.101051465 0.11210577 0.04688423 0.009755313 -0.075036645
0.13733377 0.014015795 -0.03130603 -0.08778011 -0.12995645 0.025616715 -0.083243705 -0.028109819
-0.03392494 -0.060112994 0.025578737 0.023417808 0.08897241 0.06283747 0.064989395 -0.06625153
0.058297943 0.006224305 0.066848345 -0.06456702 -0.027312914 -0.07893644 -0.01223791 -0.036443852
0.049290966 0.027488546 0.09624548 0.12473589 -0.0018237967 -0.07476319 -0.088345595 -0.065973535
-0.066018105 0.12964025 0.011172648 0.0836629 -0.06013211 -0.11057425 0.034265276 -0.07871336
-0.059061084 -0.0111983195 -0.12782656 -0.10266807 -0.0723592 -0.113537334 0.0816117 -0.05326123
0.07451851 0.06885998 -0.0425192 0.047702454 -0.091805786 0.064634256 -0.106506996 0.05709091
-0.09336677 -0.1205183 0.022852438 -0.014759072 0.04558773 -0.05515484 0.018922126 -0.079203784
0.07651879 -0.034009553 0.030709047 -0.12984517 0.02443149 -0.12116077 -0.0048216335 -0.06245794
0.10525881 0.010446591 -0.050946344 0.10389799 -0.10804464 -0.0415845 -0.101060525 -0.090998
0.043030478 -0.07744422 0.013424675 0.02140967 0.06633435 -0.055587742 -0.0018629291 0.03325959
-0.061563388 0.03297647 -0.10587053 -0.036820117 -0.011315307 0.050808996 -0.0022104438 0.15415858
0.07624577 0.061330773 -0.0931322 -0.07727244 -0.024071746 0.105244994 -0.014349632 -0.07406132
0.13852917 -0.037985392 -0.016680045 -0.07738359 0.05433516 -0.13066599 0.14045437 -0.012852819
3.8826445e-05 -0.11175603 -0.11612588 0.11761 0.013924466 0.13771965 -0.007611572 0.07397464
-0.060219605 0.035912465 0.09764836 0.06670672 0.010646174 -0.04751215 0.0063595707 0.12940198
-0.0024697643 0.009357635 0.13382238 0.12817337 -0.093169466 0.012070287 0.028239489 -0.024709495
0.028372597 -0.08351625 0.07486711 -0.00846663 -0.08763782 0.09108479 -0.0064872997 0.094228335
-0.06765152 0.002217658 0.083970755 0.13326858 0.096114986 0.00016824288 0.11703086 -0.014524925
-0.038515564 0.09628219 -0.050364774 0.0043121334 -0.031802267 0.026455563 0.103275724 0.086822726
-0.0551339 0.100782536 0.07378328 0.032333504 0.05277462 -0.065959096 -0.070962675 -0.07759643
0.032527525 -0.13690037 0.008387621 -0.09522261 0.020518849 -0.1576967 -0.03435152 0.09714652
-0.008293367 -0.09214713 -0.03982152 0.09728287 0.020000597 0.165394 -0.13239105 0.022361739
-0.03163141 -0.065705955 0.012865619 -0.045367442 0.08696635 -0.026633697 -0.019340353 -0.06637315
-0.04761138 0.027432872 0.10763276 -0.10950527 0.05356899 -0.13814203 -0.055416718 -0.13288303
-0.110755816 0.054691397 -0.05154801 -0.1471065 -0.15970092 -0.1430772 -0.015346435 -0.08263823
0.03685091 -0.03549168 -0.03209338 -0.01787252 0.06948012 -0.04300934 0.017368942 0.08466075
00000000: 9c6a e3bd 5cb3 8cbd 79ef a93a cd03 f4bc
00000010: 4e3e e53c a3c5 a2bd 4857 8fbc d3a7 053e
00000020: 8932 98bd 9d00 e6bc 9a7a 213e 9f38 79bd
00000030: eba3 8d3c 1a2c 8ebc e283 003c d8af 94bd
00000040: b036 ea3d 57f0 533d 78fd 8d3d ab57 5b3d
00000050: c2a7 f43d c7dc 32bd 30fb db3c faf2 25bd
00000060: 2b37 533d dce0 883d b83a 933d 5768 c2bd
00000070: 95a4 753d 9017 70bd c634 cdbd e499 8b3d
00000080: 46f7 d2bd b480 abbc d937 e7bd 12f4 cebd
00000090: b697 e53d ae09 403d c0d4 1f3c d0ac 99bd
000000a0: 39a1 0c3e 81a2 653c c03a 00bd 0fc6 b3bd
000000b0: 4e13 05be 25da d13c ad7b aabd 9046 e6bc
000000c0: e1f4 0abd 0b39 76bd 808a d13c b4d6 bf3c
000000d0: 2b37 b63d eeb0 803d 2919 853d e2ae 87bd
000000e0: d3c9 6e3d 41f5 cb3b c9e7 883d b73b 84bd
000000f0: 55bf dfbc 6ea9 a1bd 8481 48bc 2646 15bd
00000100: 53e5 493d a92f e13c 5a1c c53d 8875 ff3d
00000110: 760c efba 711d 99bd 89ee b4bd 221d 87bd
00000120: 8034 87bd 6ac0 043e 7b0d 373c 7457 ab3d
00000130: 164d 76bd c174 e2bd bf59 0c3d 7834 a1bd
00000140: 09ea 71bd 2879 37bc f7e4 02be a343 d2bd
00000150: 0f31 94bd 4386 e8bd 0924 a73d 7328 5abd
00000160: 299d 983d 7606 8d3d 9d28 2ebd a663 433d
00000170: ac04 bcbd f75e 843d 5720 dabd 28d8 693d
00000180: 1437 bfbd 4cd2 f6bd 0935 bb3c 09d0 71bc
00000190: 33ba 3a3d 0bea 61bd 9302 9b3c 9835 a2bd
000001a0: e2b5 9c3d 9a4d 0bbd 8a91 fb3c 22f6 04be
000001b0: 8c24 c83c 2323 f8bd cbfe 9dbb e6d3 7fbd
000001c0: ee91 d73d 2e28 2b3c 1dad 50bd 78c8 d43d
000001d0: 8246 ddbd 8254 2abd d2f8 cebd 295d babd
000001e0: ba40 303d 139b 9ebd 2bf3 5b3c 5563 af3c
000001f0: 4eda 873d f9af 63bd 872d f4ba 353b 083d
00000200: e429 7cbd 5612 073d a6d2 d8bd b1d0 16bd
00000210: d663 39bc 181d 503d 18dd 10bb bfdb 1d3e
00000220: be26 9c3d fa35 7b3d 18bc bebd 0341 9ebd
00000230: 1c32 c5bc b08a d73d b81a 6bbc 76ad 97bd
00000240: 97da 0d3e 9296 1bbd 97a4 88bc 4a7b 9ebd
00000250: 8b8e 5e3d 4ecd 05be 45d3 0f3e a194 52bc
00000260: 94d9 2238 58e0 e4bd 68d3 edbd 83dd f03d
00000270: 7223 643c 6106 0d3e 7e6a f9bb 0480 973d
00000280: d5a8 76bd f318 133d ddfb c73d 889d 883d
00000290: 4a6d 2e3c 1a9c 42bd f263 d03b f481 043e
000002a0: c5db 21bb c450 193c bc08 093e e13f 033e
000002b0: a2cf bebd 74c2 453c 8056 e73c 916b cabc
000002c0: a66d e83c 910a abbd ed53 993d 9fb7 0abc
000002d0: 757b b3bd aa8a ba3d 6a93 d4bb c9fa c03d
000002e0: e18c 8abd 2156 113b dcf8 ab3d 8f77 083e
000002f0: efd7 c43d 5b6a 3039 e0ad ef3d f3f9 6dbc
00000300: 7fc2 1dbd 992f c53d 4b4b 4ebd cc4c 8d3b
00000310: 1843 02bd 56b9 d83c 3982 d33d 1dd0 b13d
00000320: 16d4 61bd 1367 ce3d b01b 973d 2370 043d
00000330: 332a 583d 9015 87bd e154 91bd e1ea 9ebd
00000340: 953b 053d 9c2f 0cbe 3b6c 093c 1204 c3bd
00000350: 2517 a83c 3e7b 21be 2eb4 0cbd c1f4 c63d
00000360: e7e0 07bc a2b7 bcbd e41b 23bd 3e3c c73d
00000370: 4bd8 a33c 0b5d 293e 8591 07be f72f b73c
00000380: f08f 01bd d890 86bd 51ca 523c 36d3 39bd
00000390: 6a1b b23d e92e dabc a96f 9ebc a5ee 87bd
000003a0: 2704 43bd e7ba e03c 916e dc3d 4d44 e0bd
000003b0: 286b 5b3d 1b75 0dbe a4fc 62bd 7d12 08be
000003c0: f2d3 e2bd 1604 603d 0224 53bd 16a3 16be
000003d0: a388 23be d482 12be 9d6f 7bbc 3b3e a9bd
000003e0: fbf0 163d b95f 11bd 5974 03bd 6469 92bc
000003f0: 984b 8e3d 902a 30bd 5049 8e3c 9e62 ad3d

lstm.weight_hh_l1 f4 [256, 64]
0.06066812 0.054085176 -0.02411059 0.041089598 0.024153875 0.01122887 -0.011919063 -0.040875986
0.000473157 -0.11025141 -0.042207222 0.03877551 -0.06273778 -0.00080042833 -0.11742888 0.077938266
-0.12014965 0.0637347 0.11100067 -0.07223014 0.10282683 -0.061713915 -0.00040092767 0.06328648
-0.10426351 -0.047655907 0.011757731 0.081922226 -0.10221963 0.04683946 -0.050424933 -0.1307314
-0.033453654 0.003795993 -0.011232305 0.076705664 -0.039353613 -0.054875378 0.055748034 -0.10890096
-0.10245661 0.07491361 -0.065084904 0.058761705 -0.058642626 -0.06579808 -0.060605668 0.11324118
-0.0972641 0.06364691 -0.098822735 -0.11004536 0.06761344 -0.11509516 0.07704949 0.086267106
0.02638862 0.046824384 -0.0277076 -0.107652515 0.089943856 0.12005943 -0.12528057 0.084253296
0.09742965 -0.061440676 -0.03667062 0.0018434102 -0.061054237 -0.0048004733 0.004129845 -0.10630126
0.04677055 0.07335267 -0.108190134 -0.08154952 -0.09139044 -0.09069161 0.013354143 0.008709143
-0.023779832 0.07888871 0.09860828 -0.10598719 -0.08478997 0.06968191 0.1103904 -0.0249779
-0.0026712643 -0.112885624 0.06035458 -0.011987463 -4.5192322e-05 0.04504 0.028247694 -0.094534606
-0.095204696 0.04405828 -0.06931428 0.078334816 -0.066817686 0.08539649 0.05590764 0.08737611
-0.086580865 -0.021906616 0.049888548 -0.019453438 0.07337812 -0.1142131 -0.11681297 -0.07734663
0.09249332 -0.026729312 0.028827058 -0.00038858064 0.015430233 0.1054087 0.037988532 -0.006680444
0.040973637 -0.08116086 -0.0720029 0.04261055 -0.01909654 0.10393225 -0.13069504 0.067004874
-0.12792207 -0.102440566 -0.040029954 -0.108590186 -0.0036216185 -0.04952326 -0.056359425 -0.048841674
0.01049573 0.106618024 0.056034427 0.12110027 0.08106097 0.015801061 -0.03041675 0.028722454
-0.054614753 0.026563771 -0.008647723 -0.11523493 -0.05387236 0.019016335 0.012290541 -0.014860668
-0.034004215 -0.016346734 0.040068816 0.089803554 -0.06723266 0.0955816 -0.112542324 0.015713587
0.010118383 -0.116568334 -0.1303477 0.034745492 0.017662255 -0.11875202 -0.035497278 0.07915064
0.023545595 0.030481663 -0.12151995 0.10704465 0.025704019 -0.033963352 0.05271056 0.068748094
0.042516675 -0.08437171 -0.11614586 -0.10630239 0.09139226 -0.08785377 0.0425344 -0.098902345
0.091537446 -0.120969124 -0.03529776 -0.089213856 -0.030338617 -0.11437243 -0.11699975 -0.1014474
-0.13777125 -0.12487905 -0.019280935 -0.0034264433 0.038112435 0.012117792 -0.05695303 0.08730273
0.12965716 0.08715914 0.041529752 0.0901855 -0.11728937 -0.036656927 -0.071434975 0.12149909
-0.12798789 0.09194413 -0.0065449453 0.05399792 -0.07861302 0.03851419 -0.032043215 0.10043406
-0.056168213 0.037124608 0.08566044 -0.08386171 0.003865598 -0.12357256 -0.052768905 -0.033231303
-0.08019167 0.11002868 0.11279829 0.077115305 0.045534194 -0.10412741 -0.08074808 -0.054908272
-0.018727317 0.101227455 0.06890188 -0.0155772995 0.032391347 0.03077111 0.05955706 0.031242676
0.113445945 -0.027371528 -0.12363921 0.0045600994 0.03282139 -0.13486081 -0.055615027 0.013278569
-0.0060906583 -0.12018864 0.032579854 0.08115161 -0.055747755 0.024189113 0.028495552 0.021815002
00000000: 227f 783d 6b88 5d3d 9283 c5bc 914d 283d
00000010: 59de c53c 4bf9 373c 2c48 43bc 946d 27bd
00000020: 0f12 f839 7ecb e1bd 7be1 2cbd 12d3 1e3d
00000030: aa7c 80bd d6d3 51ba 8d7e f0bd 199e 9f3d
00000040: 0511 f6bd 5787 823d 5254 e33d 65ed 93bd
00000050: e096 d23d bbc7 7cbd 9a33 d2b9 589c 813d
00000060: 1b88 d5bd d732 43bd 80a3 403c d7c6 a73d
00000070: 8658 d1bd bcda 3f3d 608a 4ebd 74de 05be
00000080: b306 09bd 32c6 783b b407 38bc dc17 9d3d
00000090: 4131 21bd 01c5 60bd 0d58 643d 7707 dfbd
000000a0: c5d4 d1bd 4f6c 993d 3c4b 85bd 1db0 703d
000000b0: 4033 70bd 25c1 86bd a63d 78bd feea e73d
000000c0: 6732 c7bd 5059 823d 9363 cabd 765f e1bd
000000d0: ea78 8a3d 03b7 ebbd 1fcc 9d3d cfac b03d
000000e0: f22c d83c edca 3f3d 0cfb e2bc ec78 dcbd
000000f0: 7c34 b83d b8e1 f53d 8d49 00be fe8c ac3d
00000100: 3289 c73d 38a9 7bbd ef33 16bd 959e f13a
00000110: 0214 7abd 4a4d 9dbb a753 873b 7ab4 d9bd
00000120: 7a92 3f3d ed39 963d ca92 ddbd 6f03 a7bd
00000130: e92a bbbd 86bc b9bd 56cb 5a3c cbb0 0e3c
00000140: eccd c2bc 6790 a13d 23f3 c93d d00f d9bd
00000150: 5da6 adbd 64b5 8e3d 5d14 e23d 749e ccbc
00000160: 6110 2fbb 9430 e7bd 5d36 773d 1067 44bc
00000170: e38c 3db8 dd7b 383d b567 e73c 5c9b c1bd
00000180: aefa c2bd 7476 343d a5f4 8dbd 016e a03d
00000190: b6d7 88bd 5be4 ae3d 69ff 643d 3ff2 b23d
000001a0: 4f51 b1bd 8175 b3bc ef57 4c3d d15c 9fbc
000001b0: 4547 963d 8fe8 e9bd a33b efbd e967 9ebd
000001c0: 236d bd3d 6ef7 dabc b926 ec3c 69ba cbb9
000001d0: 17cf 7c3c 84e0 d73d dd99 1b3d a0e7 dabb
000001e0: f9d3 273d aa37 a6bd 4276 93bd 6688 2e3d
000001f0: 5970 9cbc 6eda d43d ecd4 05be da39 893d
00000200: 01fe 02be 5ccc d1bd 73f6 23bd 8864 debd
00000210: ad58 6dbb e7d8 4abd 24d9 66bd 350e 48bd
00000220: 48f6 2b3c 8d5a da3d 5b84 653d 6b03 f83d
00000230: 4b03 a63d 3a71 813c 8c2c f9bc 5a4b eb3c
00000240: b8b3 5fbd 449c d93c 2eaf 0dbc 4a00 ecbd
00000250: 44a9 5cbd 25c8 9b3c 445e 493c 297a 73bc
00000260: 0148 0bbd 96e9 85bc 331f 243d edea b73d
00000270: 47b1 89bd 49c0 c33d 977c e6bd c8b9 803c
00000280: 93c7 253c 61bb eebd de79 05be 4a51 0e3d
00000290: 6fb0 903c 4234 f3bd 9865 11bd bb19 a23d
000002a0: b1e2 c03c aeb4 f93c 74df f8bd 3a3a db3d
000002b0: 3c91 d23c 281d 0bbd 07e7 573d cdcb 8c3d
000002c0: f725 2e3d 13cb acbd e1dd edbd 11b5 d9bd
000002d0: dd2b bb3d adec b3bd 8d38 2e3d 508d cabd
000002e0: fc77 bb3d a9be f7bd 6294 10bd c1b5 b6bd
000002f0: b188 f8bc 183c eabd 919d efbd a8c3 cfbd
00000300: e813 0dbe 96c0 ffbd 0df3 9dbc 2e8e 60bb
00000310: c91b 1c3d b489 463c 9547 69bd c6cb b23d
00000320: d9c4 043e 7e80 b23d 1a1b 2a3d 2db3 b83d
00000330: 6935 f0bd 9325 16bd 804c 92bd 84d4 f83d
00000340: 420f 03be 344d bc3d fb76 d6bb ec2c 5d3d
00000350: ddff a0bd 0ec1 1d3d bf3f 03bd 5fb0 cd3d
00000360: a410 66bd f90f 183d be6e af3d b0bf abbd
00000370: f955 7d3b 9c13 fdbd 3524 58bd 8c1d 08bd
00000380: 883b a4bd b756 e13d ca02 e73d a1ee 9d3d
00000390: 1082 3a3d c040 d5bd 405f a5bd 7fe7 60bd
000003a0: 086a 99bc 5750 cf3d 6e1c 8d3d ee37 7fbc
000003b0: caac 043d b213 fc3c 1bf2 733d a4f0 ff3c
000003c0: 5956 e83d 413a e0bc 8e36 fdbd e36c 953b
000003d0: b96f 063d f418 0abe 95cc 63bd 5b8e 593c
000003e0: 2594 c7bb 7625 f6bd 7472 053d d132 a63d
000003f0: c257 64bd 3f28 c63c 816f e93c 60b5 b23c

lstm.bias_ih_l1 f4 [256]
-0.058320634 0.06810854 -0.0009552885 0.021899182 0.14481097 -0.06567715 -0.10333105 -0.10354165
0.0861207 0.07471589 -0.05727927 0.07617365 0.07899223 0.054478165 0.067642555 0.099017926
0.13256198 -0.07736177 -0.0040023397 0.042871866 0.061811715 0.12923561 0.084430136 0.1467058
-0.07753947 -0.03230837 -0.012768596 0.045962926 -0.09050425 0.07288174 0.03722666 0.048632205
0.049253203 0.083137676 -0.008819263 0.059375737 0.059568956 0.10622824 0.099213526 -0.07844191
0.017205745 -0.009498132 0.074698016 0.004560722 -0.033649717 -0.068626225 -0.016819462 -0.062487252
0.04694027 0.094419576 -0.09032301 -0.09565703 -0.043579314 0.087317854 -0.03854346 0.08668763
0.057240624 -0.0029110136 0.03724133 0.0043782173 0.034229167 0.07095888 -0.070596516 0.13169649
0.011131629 -0.13380487 0.034725066 -0.01955464 0.06009847 0.1255157 0.10093949 -0.06864288
0.09637989 0.011741074 0.057129517 -0.10622964 -0.068753354 0.095683366 -0.052637655 -0.06780705
-0.09188453 0.09526495 0.066986345 -0.05469316 0.004759834 0.004853812 -0.0036143172 0.0802981
-0.11566065 0.0459102 -0.0024628951 -0.07876213 -0.009027633 -0.10546913 -0.06440187 0.0074274186
-0.05196185 0.081631996 0.03325846 0.05033797 0.10586511 -0.09668088 -0.09638784 0.10875437
-0.09486571 -0.033302374 0.033547767 0.1206206 -0.07252967 0.113894425 0.057477802 -0.03167119
0.10208538 0.030850647 0.017281536 0.094635956 -0.12359635 0.011967864 -0.026418034 -0.045875836
-0.079092205 -0.10813533 -0.040000517 0.022848513 0.028532775 -0.041523006 -0.06754468 -0.0015446867
-0.06259609 0.045004882 0.032585464 0.051726896 -0.008909497 0.097123265 0.026889145 -0.07202618
0.10521475 -0.07057517 0.10732261 0.076400645 -0.043707803 -0.111392274 -0.1197831 0.11376295
0.021659343 0.10618537 -0.012033815 -0.081811234 0.066404216 -0.025124956 0.048619732 -0.07060044
0.030110948 0.094973326 0.060517788 0.0063420646 0.042283174 0.06578466 0.10332994 -0.0146488175
-0.09152801 -0.07963526 -0.11551707 -0.0044805077 -0.063627824 0.03122125 0.099893704 -0.039840825
-0.012581176 -0.09489479 0.078605525 0.082629785 0.07989686 0.12787908 0.05751968 -0.08685059
0.02404441 0.11184364 -0.11474971 -0.04047748 0.00825605 -0.038522344 -0.049138457 0.035728574
0.094690405 -0.109126136 -0.025697866 0.10948577 -0.11530612 -0.11795256 0.039368566 -0.10950121
-0.049246244 -0.08380545 -0.06726472 0.026050512 -0.08341493 -0.07595287 -0.12881087 -0.036420185
-0.055564214 0.033018693 -0.0078671705 0.09665002 -0.07883547 0.11046789 0.038738474 0.05176311
-0.07083999 -0.08698168 0.15551776 -0.08155663 -0.050214335 0.07391548 0.13374215 -0.025723176
0.05155987 0.06678325 0.028685128 -0.078640625 -0.021636326 0.089158416 -0.021200476 0.08381661
0.12471425 -0.05225193 -0.02615096 -0.10560891 -0.0010335773 0.13210124 -0.07011622 0.012020688
0.10783669 0.05329016 0.022184653 0.01696222 -0.10684754 0.046867006 0.038562823 0.056165695
0.05257132 0.05571494 -0.040708747 0.017328192 0.005951351 -0.06605886 -0.017282851 -0.08884745
-0.07597063 0.08135408 0.12122141 -0.0036190015 -0.0082267225 0.006566858 0.0040868344 0.10544595
00000000: 9ee1 6ebd 7d7c 8b3d 536c 7aba ea65 b33c
00000010: 5449 143e be81 86bd 3b9f d3bd a50d d4bd
00000020: 0d60 b03d a504 993d ab9d 6abd ee00 9c3d
00000030: aec6 a13d 7f24 5f3d 2e88 8a3d e9c9 ca3d
00000040: 54be 073e d96f 9ebd 0f26 83bb 699a 2f3d
00000050: 482e 7d3d 5756 043e b5e9 ac3d 0c3a 163e
00000060: 03cd 9ebd c855 04bd 6033 51bc 9f43 3c3d
00000070: 4b5a b9bd 0643 953d fb7a 183d 9032 473d
00000080: babd 493d 1644 aa3d ac7e 10bc f933 733d
00000090: 94fe 733d 318e d93d 7630 cb3d 27a6 a0bd
000000a0: 10f3 8c3c 0e9e 1bbc 46fb 983d 1c72 953b
000000b0: 49d4 09bd e88b 8cbd f8c8 89bc a2f2 7fbd
000000c0: 7144 403d 0d5f c13d 45fb b8bd d5e7 c3bd
000000d0: 3980 32bd b4d3 b23d bfdf 1dbd 4989 b13d
000000e0: 2575 6a3d b4c6 3ebb 5d8a 183d 2677 8f3b
000000f0: e233 0c3d e452 913d e894 90bd 72db 063e
00000100: 7061 363c 2504 09be df3b 0e3d 0d31 a0bc
00000110: d029 763d 3087 003e 5db9 ce3d a394 8cbd
00000120: d262 c53d a25d 403c a400 6a3d ed8e d9bd
00000130: 8fce 8cbd a4f5 c33d 959a 57bd 6cde 8abd
00000140: f52d bcbd 451a c33d 2330 893d ef05 60bd
00000150: 62f8 9b3b ba0c 9f3b 2ede 6cbb 5573 a43d
00000160: 7edf ecbd 550c 3c3d 8668 21bb 0a4e a1bd
00000170: a3e8 13bc 3300 d8bd 21e5 83bd b461 f33b
00000180: f3d5 54bd ad2e a73d 063a 083d 302f 4e3d
00000190: cfcf d83d a000 c6bd fd66 c5bd 9cba de3d
000001a0: f448 c2bd 1268 08bd 6269 093d ef07 f73d
000001b0: 708a 94bd 7b41 e93d d86d 6b3d a6b9 01bd
000001c0: 2412 d13d 7fba fc3c 0292 8d3c 7fd0 c13d
000001d0: 1520 fdbd dc14 443c a26a d8bc 4de8 3bbd
000001e0: 18fb a1bd 0e76 ddbd 95d7 23bd ce2c bb3c
000001f0: 91bd e93c 0714 2abd dd54 8abd 1677 caba
00000200: 6132 80bd 0a57 383d 5678 053d 95df 533d
00000210: 24f9 11bc 90e8 c63d a046 dc3c 7682 93bd
00000220: d57a d73d b789 90bd f5cb db3d f177 9c3d
00000230: f406 33bd a221 e4bd d850 f5bd 8dfc e83d
00000240: ef6e b13c b777 d93d 7a29 45bc a68c a7bd
00000250: effe 873d dad2 cdbc 7c25 473d f796 90bd
00000260: 3cab f63c 6081 c23d 80e1 773d 18d1 cf3b
00000270: 1f31 2d3d 1cba 863d a69e d33d 9801 70bc
00000280: 0a73 bbbd d017 a3bd 3794 ecbd 39d1 92bb
00000290: 4e4f 82bd b5c3 ff3c 1295 cc3d 2230 23bd
000002a0: 4721 4ebc 3358 c2bd effb a03d ce39 a93d
000002b0: f7a0 a33d bcf2 023e c299 6b3d b9de b1bd
000002c0: c8f8 c43c 470e e53d e501 ebbd b7cb 25bd
000002d0: 6244 073c 9bc9 1dbd 6845 49bd 2058 123d
000002e0: 0bed c13d 867d dfbd 5584 d2bc 133a e03d
000002f0: 9d25 ecbd 1d91 f1bd ef40 213d 2c42 e0bd
00000300: 6eb6 49bd 31a2 abbd 16c2 89bd e267 d53c
00000310: 72d5 aabd 2e8d 9bbd ffe6 03be 552d 15bd
00000320: 4d97 63bd 9c3e 073d 4ee5 00bc 72f0 c53d
00000330: 7e74 a1bd fd3c e23d 3cac 1e3d 8e05 543d
00000340: 8f14 91bd 7323 b2bd 0c40 1f3e 2a07 a7bd
00000350: 8cad 4dbd 0061 973d b4f3 083e 69b9 d2bc
00000360: 7130 533d a8c5 883d 13fd ea3c 560e a1bd
00000370: aa3e b1bc b098 b63d 9fac adbc 0ba8 ab3d
00000380: 2f6a ff3d 1f06 56bd 8a3a d6bc 7c49 d8bd
00000390: 1979 87ba 8c45 073e 1899 8fbd 6bf2 443c
000003a0: 7cd9 dc3d c846 5a3d 97bc b53c 5bf4 8a3c
000003b0: e2d2 dabd 9ef7 3f3d 0df4 1d3d 000e 663d
000003c0: 0655 573d 5935 643d 37be 26bd daf3 8d3c
000003d0: 8d03 c33b de49 87bd c494 8dbc a7f5 b5bd
000003e0: 7d96 9bbd f89c a63d ee42 f83d c52c 6dbb
000003f0: 60c9 06bc cc2e d73b daea 853b 0cf4 d73d
