data/models/ethereum_lstm_1h.pth (torch, 215893 bytes, 10 tensors)

lstm.weight_ih_l0 f4 [256, 10]
0	0x3e15410b	0.14575593
1	0x3ee7ec32	0.4529739
2	0x3e196adb	0.14982168
3	0x3e960050	0.29297113
4	0x3d38feb4	0.04516478
5	0x3b36e08a	0.0027904832
6	0xbdae8da2	-0.08523108
7	0xbd7fac01	-0.062419895
8	0x3dce9ad1	0.10088123
9	0xbe1affcf	-0.15136646
10	0x3d4ed32d	0.05049436
11	0xbde475c7	-0.11155277
12	0xbe0b3ec5	-0.13598163
13	0xbc63e269	-0.013908961
14	0xbe6a431a	-0.2287716
15	0xbd4354e0	-0.047688365
16	0x3cb9ea07	0.0226946
17	0xbdb9b0c1	-0.09066916
18	0x3db544d0	0.088510156
19	0x3e842957	0.2581279
20	0x3e63d3bd	0.2224874
21	0x3d98ad92	0.07454981
22	0x3dc114e0	0.0942781
23	0x3e7d678d	0.24746533
24	0x3d9da4ea	0.076974705
25	0xbcbeb1e3	-0.023278182
26	0x3da4912b	0.08035501
27	0x3ce0c28b	0.027436515
28	0x3dd36e31	0.10323752
29	0x3f22b7b7	0.63561577
30	0x3d3756fb	0.044760685
31	0x3e7d492a	0.24734941
32	0x3e65fcc9	0.22459711
33	0x3e1045c8	0.1408912
34	0xbebebe63	-0.3725463
35	0xbc0b8f0f	-0.008517995
36	0x3c062681	0.008187891
37	0xbc261698	-0.010137223
38	0x3ddac90b	0.10682877
39	0x3d7dadfc	0.061933503
40	0xbdffa9a7	-0.124835305
41	0xbd178f1c	-0.037001714
42	0xbe1bd09e	-0.152163
43	0xbd3d200e	-0.046173148
44	0xbe041b7d	-0.12901111
45	0xbb29b03c	-0.0025892397
46	0x3e8a5255	0.2701594
47	0x3e3aa8ee	0.18228504
48	0xbe9599b6	-0.29218835
49	0xbeca6f44	-0.39538014
50	0xbe31a53a	-0.17348185
51	0xbee2ae0d	-0.44273415
52	0xbe9ae02b	-0.30249152
53	0xbeb27526	-0.34855002
54	0xbe3713da	-0.17878667
55	0xbe040838	-0.1289376
56	0xbc81637d	-0.01579451
57	0x3d91b916	0.071153805
58	0xbe4a124d	-0.19733544
59	0xbdad08d9	-0.08448953
60	0xbe3aa792	-0.18227986
61	0xbe2a49cf	-0.16629718
62	0xbe3b903e	-0.18316743
63	0xbe682800	-0.22671509
64	0x3e8d63b3	0.27615127
65	0x3dd9bdda	0.106319144
66	0xbe3306a6	-0.17483005
67	0xbe8ae655	-0.27128854
68	0xbe361234	-0.17780381
69	0xbb95087a	-0.0045481296
70	0xbdb2afcf	-0.08724939
71	0x3d244ad0	0.04011041
72	0x3ddcbb0b	0.10777863
73	0x3e3cf02f	0.18450998
74	0xbe4ee0ca	-0.20202938
75	0xbed0c9cd	-0.40778962
76	0x3dd4342d	0.10361514
77	0xbd91d73d	-0.071211316
78	0xbdf2614b	-0.118349634
79	0x3e28c5c2	0.16481689
80	0xbc820485	-0.015871296
81	0x3e26429d	0.16236348
82	0x3c623262	0.0138059575
83	0x3e5241be	0.20532891
84	0xbe2f5d19	-0.17125358
85	0xbc7aa534	-0.015298177
86	0xbdc4bc49	-0.09606225
87	0xbd213d04	-0.03936483
88	0xbd11da86	-0.03560879
89	0xbea16938	-0.31525588
90	0x3d3d17e7	0.046165373
91	0xbd7b5efb	-0.061369877
92	0x3e3279a1	0.1742921
93	0x3ced8825	0.028995583
94	0xbf031d85	-0.5121692
95	0xbf2cd1cc	-0.67507625
96	0x3df54ff1	0.11978138
97	0x3dc673df	0.096900694
98	0x3dfb18b5	0.12260572
99	0xbd429fdc	-0.047515735
100	0xbdc56c4d	-0.09639797
101	0xbe37934c	-0.17927283
102	0xbdcd32ff	-0.10019492
103	0xbccd9545	-0.025095591
104	0xbc545b87	-0.012961275
105	0xbdcb512c	-0.09927592
106	0x3f2825e0	0.6568279
107	0x3f242109	0.6411291
108	0xbe5e1e8e	-0.21691343
109	0x3d08e9cd	0.033426095
110	0xbe0080d1	-0.1254914
111	0xbe90587f	-0.28192517
112	0xbdc3b100	-0.095552444
113	0xbe9f3f7c	-0.31103122
114	0x3ec2f994	0.38081038
115	0x3eae3040	0.34021187
116	0xbd2eb6ec	-0.042654917
117	0xbe055130	-0.13019252
118	0xbe8ca57f	-0.27470013
119	0x3d2c4c2a	0.042064823
120	0xbe495177	-0.19659983
121	0xbe5b1804	-0.2139588
122	0xbe1c840d	-0.15284748
123	0xbe968821	-0.29400733
124	0xbd9543e0	-0.07288337
125	0xbe68b9ec	-0.22727174
126	0x3ebcc987	0.36872503
127	0x3ef6e2d1	0.48219922
128	0xbeafb501	-0.34317783
129	0xbc87da53	-0.016583597
130	0xbe4dbc5d	-0.20091386
131	0xbe37400a	-0.17895523
132	0xbc5f6f1f	-0.013637333
133	0xbd48fe37	-0.049070563
134	0x3ddbc692	0.10731234
135	0xbe9def95	-0.3084685
136	0xbcccb990	-0.024990827
137	0x3dd56bc4	0.10420945
138	0xbde4e18e	-0.11175834
139	0xbec75977	-0.38935444
140	0x3d09089c	0.033455476
141	0xbd4ab610	-0.049490035
142	0x3db2cac5	0.087300815
143	0xbd85a4fa	-0.065256074
144	0xbce11333	-0.027474975
145	0x3e620abd	0.22074409
146	0xbeff82f6	-0.49904603
147	0xbf0fbfaa	-0.5615183
148	0x3e2322a8	0.15931189
149	0xbe0994dc	-0.13435692
150	0xbf0a73c5	-0.540829
151	0xbee4015f	-0.44532296
152	0xbf2776ee	-0.6541585
153	0xbf0067b8	-0.5015826
154	0xbf0a6f7f	-0.5407638
155	0xbef45faa	-0.47729236
156	0xbda769b6	-0.0817446
157	0xbbb81db1	-0.005618774
158	0xbee007f3	-0.43756065
159	0xbe10239a	-0.14076081
160	0xbe94f80f	-0.29095504
161	0xbf0387e4	-0.5137923
162	0xbe88ec04	-0.26742566
163	0xbece1329	-0.40248993
164	0x3df89160	0.12137103
165	0xbd91cf4c	-0.07119617
166	0xbe83ce85	-0.257435
167	0xbe3b47b4	-0.18289071
168	0xbeadbc93	-0.33932933
169	0xbc5937d8	-0.013257943
170	0x3ec95100	0.3931961
171	0x3f06c5f0	0.5264578
172	0x3ed561be	0.41676134
173	0x3f01d740	0.5071907
174	0xbf03d485	-0.51496154
175	0xbe92916b	-0.2862657
176	0xbd9a38a4	-0.075303346
177	0x3d3d9ce1	0.04629219
178	0x3ea041ac	0.31300104
179	0xbe4e40df	-0.20141934
180	0x3df1c991	0.11806024
181	0x3e1d3ce9	0.15355267
182	0xbd40d2f9	-0.0470762
183	0x3d0de535	0.034642417
184	0x3e17029e	0.14747092
185	0x3e2ab340	0.16669941
186	0x3e1d2449	0.15345873
187	0x3ddbd821	0.10734583
188	0x3dab8c1e	0.083763346
189	0x3f42fdf7	0.7616877
190	0x3cfb4000	0.030670166
191	0x3e92fef8	0.2871015
192	0x3dbc1897	0.09184378
193	0x3e86e676	0.26347703
194	0x3a8927ed	0.0010464169
195	0xbdf0b037	-0.1175236
196	0x3e2a4ffc	0.16632074
197	0xbcfa3439	-0.03054248
198	0xbc3aa155	-0.011391004
199	0xbf127f38	-0.5722537
200	0xbdc21a0b	-0.094776236
201	0xbddb49ff	-0.10707473
202	0x3d228145	0.039674062
203	0xbcc44398	-0.023958012
204	0xb651b120	-3.1246527e-06
205	0xbe5eadc8	-0.2174598
206	0xbda022f3	-0.07819166
207	0xbd433576	-0.047658406
208	0xbd43b0bd	-0.047775973
209	0xbe6abc0e	-0.229233
210	0xbe612877	-0.21988092
211	0xbe8c58cc	-0.27411497
212	0xbe94b59a	-0.290448
213	0xbe216f4c	-0.15765113
214	0x3e2ea872	0.17056444
215	0x3e09c64d	0.13454552
216	0xbd0c1a6b	-0.03420488
217	0x3c621834	0.013799716
218	0xbe33839b	-0.17530672
219	0x3dfe6c1b	0.12422963
220	0xbec029e1	-0.3753195
221	0xbf137df2	-0.5761405
222	0xbed277aa	-0.4110692
223	0xbf03a4b5	-0.514232
224	0xbe46dcc3	-0.19420151
225	0xbe7fe61f	-0.24990128
226	0xbdbf1e19	-0.093319125
227	0x3d848c04	0.06472018
228	0xbd4f24b5	-0.050572116
229	0xbde81bda	-0.11333437
230	0xbe7d3fb5	-0.24731334
231	0xbeedd21b	-0.4644936
232	0xbe6eeca6	-0.23332462
233	0xbe13b654	-0.14425021
234	0x3e2f325e	0.17109057
235	0x3d909172	0.070589915
236	0x3db45e5e	0.088070616
237	0xbcb4f181	-0.022087814
238	0xbdbe6b59	-0.09297819
239	0x3e3ae08d	0.18249722
240	0xbef5de72	-0.48021275
241	0xbe949fb6	-0.290281
242	0xbed3db92	-0.41378456
243	0xbe87208f	-0.26392028
244	0xbe444f06	-0.1917077
245	0x3de4449a	0.11145897
246	0xbe22a5e5	-0.15883596
247	0xbdc891b9	-0.097934194
248	0xbe974ddb	-0.29551587
249	0x3e237221	0.15961505
250	0xbe9419eb	-0.28926024
251	0xbf262cd9	-0.6491218
252	0xbebafc4f	-0.3652062
253	0xbe6ae206	-0.22937784
254	0xbe386e8d	-0.18010922
255	0xbd4c6275	-0.049898583

lstm.weight_hh_l0 f4 [256, 64]
0	0xbcdaa0cc	-0.026688002
1	0x3e3f8e7c	0.18706697
2	0xbdd65182	-0.10464765
3	0xbe615cfb	-0.22008125
4	0xbd833336	-0.06406252
5	0xbde59d12	-0.112115994
6	0xbe2030fe	-0.15643689
7	0xbe34407a	-0.17602721
8	0x3e743432	0.23848036
9	0xbe23dd93	-0.16002493
10	0x3e0515e0	0.12996626
11	0x3e1678ea	0.14694563
12	0xbb7b9cfd	-0.0038393133
13	0x3e33e9f9	0.17569722
14	0x3d1e294b	0.0386136
15	0x3d46ab9a	0.048503496
16	0xbe2c0846	-0.16800031
17	0x3e1c8a12	0.15287045
18	0xbc95e00e	-0.018295314
19	0x3e7bac60	0.24577475
20	0x3b1be170	0.0023785494
21	0x3dbfd5bf	0.09366941
22	0x3dc0b5ee	0.094097
23	0xbe92f6f8	-0.28704047
24	0x3da97b9a	0.08275528
25	0xbd2b8aae	-0.041880302
26	0xbc8dc8d2	-0.017307673
27	0x3e35b6b4	0.17745477
28	0x3c7da420	0.015481025
29	0xbde88a87	-0.11354547
30	0xbe0197da	-0.12655583
31	0x3de7de87	0.113217406
32	0x3e237fd0	0.15966725
33	0x3e4227a7	0.18960439
34	0x3c7eb33d	0.015545663
35	0xbcdc2007	-0.02687074
36	0xbde9b54e	-0.11411534
37	0x3cbacca0	0.02280265
38	0xbd024987	-0.031808402
39	0xbddb8c66	-0.10720138
40	0xbea16cd9	-0.31528357
41	0x3e3e429a	0.18580094
42	0xbe379dfe	-0.17931363
43	0xba86ea12	-0.0010293147
44	0x3decfa28	0.11571151
45	0xbdb34960	-0.087542295
46	0x3da470b3	0.08029308
47	0x3c978b77	0.01849912
48	0xbea47378	-0.32119346
49	0x3e943b3b	0.2895144
50	0xbdcafee9	-0.099119015
51	0x3e267b6e	0.16258022
52	0xbd8d08a2	-0.06886412
53	0x3d8f84e9	0.070077725
54	0xbd81da5a	-0.063404754
55	0x3de501d7	0.111819915
56	0xbe6e4a5c	-0.23270553
57	0xbd4d8a40	-0.050180674
58	0x3ebe6219	0.37184218
59	0xbb2dc312	-0.0026513976
60	0x3d718a37	0.058969703
61	0xbd8fbcad	-0.07018409
62	0x3e8f5940	0.2799778
63	0xbd84672c	-0.06464991
64	0x3ed37017	0.41296455
65	0xbe0c713a	-0.13715068
66	0x3cf4398e	0.0298126
67	0xbd8254d9	-0.0636384
68	0x3e9621bf	0.2932262
69	0x3df4c945	0.119524516
70	0x3dbea5ce	0.093089685
71	0x3e89a470	0.26883268
72	0x3d02015e	0.031739585
73	0x3f1fd036	0.6242708
74	0x3d73c0af	0.05950993
75	0xbefcef74	-0.49401438
76	0x3d4e3e18	0.050352186
77	0x3c75601f	0.01497653
78	0xbe5b14d7	-0.21394669
79	0xbdd5934e	-0.10428487
80	0xbe2e452c	-0.17018574
81	0xbd40972f	-0.04701918
82	0xbe3451d4	-0.1760934
83	0xbe8f2fe8	-0.27966237
84	0xbe94c99c	-0.29060066
85	0xbe11298c	-0.14176005
86	0xbdfa1c4d	-0.12212429
87	0xbd8acdea	-0.06777556
88	0xbde6f04d	-0.112763025
89	0xbc91d047	-0.01779951
90	0x3e2a112e	0.16608116
91	0x3d8aeb5b	0.06783172
92	0xbd0bd956	-0.034142815
93	0xbd42ae14	-0.047529295
94	0x3eb7ce99	0.3589981
95	0x3e55b84f	0.2087109
96	0xbe5fc6c5	-0.21853168
97	0x3db0045f	0.08594584
98	0xbe8cb1d4	-0.27479422
99	0xbea4b993	-0.32172832
100	0x3ead4c92	0.3384748
101	0xbd84ad3b	-0.064783536
102	0xbe0666a1	-0.13125087
103	0xbe42574e	-0.18978617
104	0x3e295674	0.16536885
105	0xbe90debe	-0.2829494
106	0xbdea1662	-0.114300504
107	0xbd73b05e	-0.05949437
108	0xbe884205	-0.2661287
109	0x3dae6813	0.08515944
110	0xbe9260cf	-0.28589484
111	0x3e824685	0.25444427
112	0xbcf0765c	-0.029353313
113	0xbeea231a	-0.45729905
114	0xbeaa6cae	-0.3328604
115	0xbedd217e	-0.43189615
116	0xbd49856c	-0.049199507
117	0x3e170faa	0.14752069
118	0x3e8dd2e6	0.27699965
119	0xbc03dc5b	-0.008048142
120	0x3e7f1d6e	0.2491357
121	0xbd788f40	-0.06068349
122	0xbf3ddcad	-0.7416485
123	0xbe5983db	-0.21241705
124	0xbeab61f2	-0.33473164
125	0x3e3806b2	0.17971304
126	0x3e5d21cd	0.21594925
127	0xbe682d85	-0.22673614
128	0x3d80d121	0.06289888
129	0xbe5b7a7d	-0.21433444
130	0x3e64ae8c	0.2233221
131	0xbd5fb5b3	-0.05461664
132	0x3e56ce1d	0.20977063
133	0xbe166d5a	-0.14690152
134	0xbe6d2de0	-0.23162031
135	0x3e13a53a	0.14418498
136	0x3d883a9d	0.066518046
137	0x3ecf9c7f	0.40549085
138	0xbec8bea0	-0.39207935
139	0xbe04b18f	-0.12958358
140	0xbdaaca5a	-0.08339377
141	0xbdbe87b3	-0.09303226
142	0xbd6b73e0	-0.057483554
143	0xbe9402c8	-0.28908372
144	0x3eb49fd9	0.35278204
145	0x3d17fc8c	0.03710608
146	0xbe0c5e1c	-0.13707775
147	0xbe0afabd	-0.13572212
148	0xbcd81443	-0.026376849
149	0xbe420afe	-0.18949506
150	0xbd38b903	-0.045098316
151	0xbcaea8e7	-0.021320773
152	0x3e304d56	0.17217001
153	0xbdafda1a	-0.085865214
154	0x3d7538a1	0.05986846
155	0xbd657e21	-0.05602849
156	0xbea04a1a	-0.31306535
157	0x3da08d19	0.07839412
158	0xbc8d4806	-0.017246258
159	0x3dcde638	0.10053676
160	0xbcd749af	-0.026280252
161	0x3d0f3f16	0.034972273
162	0x3c3dca5c	0.011583891
163	0xbd58447e	-0.052799694
164	0xbdfa25ce	-0.12214242
165	0x3e7136c1	0.23556043
166	0xbd8010f2	-0.06253232
167	0x3d1c1e93	0.038115095
168	0x3c81f2de	0.015862878
169	0xbe83533e	-0.25649446
170	0xbe071205	-0.13190468
171	0x3c9533d7	0.018213196
172	0xbd63d3cd	-0.05562191
173	0x3d32ef51	0.04368526
174	0xbe59802d	-0.21240301
175	0xbdac6b65	-0.084189214
176	0x3e0f4e22	0.13994649
177	0xbe0be426	-0.1366125
178	0x3db83e9e	0.08996318
179	0x3d9e290a	0.07722671
180	0x3e28ad2d	0.16472311
181	0xbd492c9d	-0.049114812
182	0xbd86b08e	-0.06576644
183	0x3e87808c	0.2646526
184	0x3e40a0c6	0.1881133
185	0x3cfb6255	0.030686537
186	0xbe4a3b2f	-0.19749139
187	0xbe7967a8	-0.24355948
188	0x3ea9d5f0	0.33171034
189	0xbdf7e51f	-0.12104248
190	0x3e72febd	0.23729987
191	0xbd1c31c5	-0.0381334
192	0x3edf74a3	0.43643674
193	0x3d197bf5	0.03747173
194	0xbe4cc10b	-0.19995515
195	0xbe180d12	-0.14848736
196	0x3e9d1ddc	0.30686843
197	0xbe4eb46c	-0.20186013
198	0xbeaec16c	-0.34131944
199	0x3ed2a849	0.41144016
200	0xbdfe5207	-0.12417989
201	0x3d0b34b7	0.03398582
202	0x3e131074	0.14361745
203	0x3d7cea23	0.061746728
204	0xbdb0ba1b	-0.08629247
205	0xbccdb368	-0.025109962
206	0xbdd05e4b	-0.10174235
207	0xbe985c3b	-0.29757866
208	0x3e247d68	0.16063464
209	0x3dd46922	0.10371615
210	0xbd2f953a	-0.042866923
211	0xbdad6e38	-0.08468288
212	0xbd5b1ad5	-0.053492386
213	0xbe00145f	-0.12507771
214	0xbc3bca0c	-0.011461746
215	0xbe01c081	-0.1267109
216	0x3da86ba9	0.082236595
217	0x3d800d99	0.062525935
218	0xbe0dbb23	-0.13840918
219	0xbd4643af	-0.04840439
220	0xbec8a339	-0.3918703
221	0xbe06ed6e	-0.1317651
222	0x3dcb32be	0.09921788
223	0x3e73a35d	0.23792787
224	0xbe92b2a0	-0.28651905
225	0xbd480c91	-0.04884011
226	0xbe042fd1	-0.12908866
227	0xbef3383f	-0.4750385
228	0xbe2823a3	-0.16419844
229	0x3dfae6f5	0.12251083
230	0x3e8dfa3b	0.27729973
231	0x3c8c8aa5	0.017155955
232	0x3d71cd11	0.059033457
233	0xbe79daaf	-0.24399827
234	0x3e321cc8	0.17393792
235	0x3dab00ef	0.083497874
236	0xbd9e7021	-0.07736231
237	0x3dee9805	0.11650089
238	0xbd9f4cc2	-0.07778312
239	0x3e82dbca	0.2555831
240	0x3d9f4ede	0.077787146
241	0xbc875f42	-0.016524915
242	0xbf10570d	-0.5638283
243	0xbe17198a	-0.14755836
244	0xbecce1a8	-0.40015912
245	0x3e854d92	0.26035744
246	0xbbb03d75	-0.00537842
247	0xbd952ee7	-0.072843365
248	0x3c05cfc1	0.008167208
249	0x3e9e5e9d	0.3093156
250	0xbcee9a99	-0.029126452
251	0xbec2498c	-0.37946737
252	0x3e3406c5	0.17580707
253	0x3ef72818	0.48272777
254	0x3e78ee40	0.24309635
255	0xbe012450	-0.12611508

lstm.bias_ih_l0 f4 [256]
0	0x3d3fc16f	0.046815332
1	0x3dd55a20	0.104175806
2	0xbb8b7b8c	-0.0042566713
3	0x3f05f1f0	0.5232229
4	0x3e170047	0.147462
5	0x3cac7f9f	0.021056948
6	0xbdf20ad8	-0.118184745
7	0x3ca787ff	0.02045059
8	0x3e09e203	0.13465123
9	0x3d5ea551	0.054356877
10	0xbe4dbe9d	-0.20092244
11	0xbe0edd94	-0.13951713
12	0xbe03913f	-0.12848376
13	0xbe258156	-0.16162619
14	0xbe603afa	-0.21897498
15	0x3e8a60af	0.2702689
16	0xbdf11012	-0.11770643
17	0x3e1bb087	0.15204059
18	0xbe48c6ee	-0.19607136
19	0xbd1ed3a8	-0.03877607
20	0x3e4f3041	0.20233251
21	0xbe26b8a2	-0.1628137
22	0x3e3d0506	0.18458948
23	0xbe228ab2	-0.1587322
24	0x3e0f506b	0.13995521
25	0x3e250d9a	0.1611847
26	0xbe1d0a4c	-0.15335959
27	0x3ed19afa	0.4093855
28	0xbd809a1e	-0.062793955
29	0xbdd46e75	-0.103726305
30	0xbd225604	-0.039632812
31	0xbc868656	-0.016421478
32	0xbc4f7e3a	-0.012664372
33	0xbe2776c6	-0.16353902
34	0xbe1ab177	-0.1510676
35	0xbdd76171	-0.10516632
36	0xbe156c16	-0.14592013
37	0xbd9eefd2	-0.07760586
38	0xbd8a81b2	-0.06763019
39	0x3f1c7121	0.6111012
40	0xbd10809f	-0.035278913
41	0xbca27e55	-0.01983563
42	0x3ea788bb	0.32721505
43	0x3e9d1165	0.30677333
44	0xbe5c787e	-0.21530339
45	0xbdc9022f	-0.098148696
46	0x3eb26139	0.348398
47	0x3eaade51	0.3337274
48	0xbdf48684	-0.11939719
49	0x3e8c1058	0.2735622
50	0x3e06fedf	0.13183163
51	0x3dc7c2bb	0.09753939
52	0xbd362b8a	-0.044475116
53	0xbe2d8e8d	-0.1694891
54	0xbe008737	-0.1255158
55	0x3c2029aa	0.0097755585
56	0x3dcd17d3	0.1001431
57	0xbed64d02	-0.41855627
58	0x3e93626c	0.28786027
59	0xbe5abfea	-0.21362272
60	0x3e84c48b	0.259312
61	0x3dce4e67	0.10073548
62	0xbe8d0732	-0.27544552
63	0xbe825b44	-0.25460255
64	0xbe7bef40	-0.24602985
65	0xbe8a46fa	-0.27007276
66	0xbe879a3d	-0.26484862
67	0xbe9c1df1	-0.30491593
68	0x3e0ebae6	0.13938484
69	0x3c43faf7	0.01196169
70	0x3c9369fd	0.017994875
71	0xbe9d6d44	-0.30747426
72	0xbe12e679	-0.14345731
73	0xbe07be86	-0.13256273
74	0xbe340f4b	-0.17583959
75	0xbeaa45fd	-0.33256522
76	0xbe621727	-0.22079144
77	0xbd2e0cdd	-0.042492736
78	0x3cca4a9d	0.024693782
79	0xbe832c83	-0.25619897
80	0xbdc8c027	-0.09802275
81	0xbd805960	-0.06267047
82	0xbd2ffc8d	-0.04296546
83	0x3d000164	0.031251326
84	0xbe01c11b	-0.1267132
85	0x3d75b4de	0.05998694
86	0x3dfc583e	0.12321518
87	0xbe3fd3cb	-0.18733136
88	0x3e53b234	0.20673448
89	0xbe22e1fd	-0.1590652
90	0xbe07b38d	-0.13252087
91	0xbdb5bb56	-0.08873622
92	0xbea00c16	-0.3125922
93	0xbe09f7e9	-0.13473476
94	0x3b73f735	0.0037226204
95	0xbe637c06	-0.2221528
96	0x3cc93f6d	0.024566377
97	0xbdf23474	-0.11826411
98	0xbe69aeb6	-0.22820553
99	0x3e127364	0.1430183
100	0x3e94e2bf	0.29079244
101	0xbe0a9581	-0.13533594
102	0xbc174ee2	-0.009235116
103	0xbf283e21	-0.657198
104	0xbe0746aa	-0.1321055
105	0x3de138ab	0.10997137
106	0xbe833442	-0.25625807
107	0xbe4a4f0d	-0.19756718
108	0x3db40628	0.08790237
109	0xbe37f6c7	-0.17965232
110	0xbd4c9290	-0.04994446
111	0xbf06b9af	-0.5262708
112	0x3d4781fd	0.04870795
113	0xbe0c99f6	-0.13730606
114	0x3e9bdb01	0.30440524
115	0xbdd48360	-0.1037662
116	0xbe9712e6	-0.29506606
117	0x3db8cf74	0.090239435
118	0xbda2010d	-0.07910357
119	0xbe8cd19c	-0.2750367
120	0xbcbaf830	-0.022823423
121	0xbdad7b32	-0.08470763
122	0xbe929188	-0.28626657
123	0xbe22f875	-0.15915091
124	0x3d9f21a8	0.07770091
125	0x3e7d895a	0.24759427
126	0x3e9408c4	0.28912938
127	0xbe018cca	-0.12651363
128	0x3d6d10b1	0.057877246
129	0x3e0005dd	0.12502237
130	0xbdd153a0	-0.10221028
131	0x3b6687bc	0.0035176119
132	0x3e2343ef	0.15943883
133	0x3da284ec	0.07935509
134	0x3cc3fd19	0.023924397
135	0xbbc2e246	-0.005947384
136	0x3d5fee55	0.05467065
137	0x3d8bacbf	0.06820058
138	0x3d4af78e	0.049552493
139	0x3da780e0	0.08178878
140	0xbc5d8c92	-0.013522284
141	0xbd809820	-0.062790155
142	0x3b9ac925	0.0047236853
143	0x3e290f7e	0.16509816
144	0xbe32fd13	-0.17479353
145	0x3d6c3e0f	0.05767637
146	0xbd1d2b2b	-0.038371246
147	0x3de2a4fc	0.110666245
148	0xbe263936	-0.16232762
149	0x3dac379d	0.08409045
150	0x3ce3dca3	0.027815169
151	0xbe4ba155	-0.19885762
152	0x3da712a1	0.0815785
153	0x3d005654	0.03133233
154	0x3d66aa8d	0.056314994
155	0xbd863e27	-0.06554823
156	0xbd052a1c	-0.03251086
157	0xbdc75c2d	-0.09734378
158	0xbe0ae112	-0.1356242
159	0x3d0c0609	0.034185443
160	0xbdc1c667	-0.0946167
161	0x3da91e40	0.08257723
162	0x3c67629b	0.0141226305
163	0xbdf3c3f5	-0.1190261
164	0x3e166d98	0.14690244
165	0xbdf23f52	-0.11828484
166	0xbe277a0a	-0.16355148
167	0x3d7d5ae5	0.061854262
168	0xbda8c820	-0.08241296
169	0x3db96d35	0.09054033
170	0xbdfc52fc	-0.123205155
171	0xbde30675	-0.11085216
172	0xbc2a9fa1	-0.010414035
173	0xbd8ec772	-0.06971635
174	0xbc320088	-0.0108643845
175	0x3e2e144f	0.16999935
176	0xbe31d640	-0.17366886
177	0xbe1f8309	-0.1557733
178	0xbe463fd9	-0.19360293
179	0xbe1321ff	-0.14368437
180	0xbe3c5bc0	-0.18394375
181	0x3daccfd0	0.084380746
182	0xbd5705a2	-0.052495606
183	0x3cbe6648	0.02324213
184	0x3e23685f	0.15957783
185	0xbd2abeec	-0.041685984
186	0x3c824667	0.015902711
187	0xbce429af	-0.027851908
188	0xbe1f3021	-0.15545703
189	0x3e24cefb	0.16094582
190	0x3d55318a	0.052049197
191	0x3d95e61a	0.07319279
192	0x3b7747f0	0.0037732087
193	0x3eb4113c	0.351694
194	0x3dbdf9fe	0.09276198
195	0x3f075c59	0.52875286
196	0x3c8ce7f4	0.017200448
197	0xbdcb7d92	-0.0993606
198	0x3c0bd112	0.008533733
199	0x3da61dbf	0.08111142
200	0x3ea1cd8d	0.31602135
201	0x3ddfdffa	0.10931392
202	0x3dc80f47	0.09768539
203	0xbdb862bf	-0.09003209
204	0xbe5719cd	-0.21005936
205	0xbe0bb8b9	-0.13644685
206	0xbe193c5a	-0.14964429
207	0x3ea600da	0.32422525
208	0xbd9cc876	-0.076554224
209	0x3e543a97	0.20725475
210	0x3e5ca796	0.21548304
211	0x3e839a72	0.2570377
212	0x3ea2a64f	0.31767508
213	0xbe3d4d4a	-0.18486515
214	0x3e8c9ac8	0.2746184
215	0xbe218801	-0.15774538
216	0x3d5ea196	0.05435332
217	0x3e392279	0.18079557
218	0x3b2d5822	0.0026450236
219	0x3ea079e7	0.31343004
220	0x3e6a9cc8	0.2291137
221	0xbc829169	-0.015938478
222	0xbe3bf6f3	-0.18355922
223	0xbdc8e13a	-0.098085836
224	0xbca95ea3	-0.02067501
225	0xbda609d3	-0.081073426
226	0x3dc1dad8	0.09465569
227	0xbe40707a	-0.18792906
228	0x3c376f2a	0.011195937
229	0x3d8f551d	0.06998656
230	0x3cf45d26	0.029829573
231	0x3f1b43f4	0.60650563
232	0x3e067289	0.13129629
233	0x3c938836	0.018009286
234	0x3ed31efa	0.4123457
235	0x3e7ba837	0.24575888
236	0xbd186b0b	-0.03721146
237	0x3cfb5d6e	0.0306842
238	0x3ec325e9	0.3811486
239	0x3ed34091	0.41260198
240	0x3e2a0ce9	0.16606487
241	0x3e7c55e1	0.24642135
242	0x3d96b759	0.073591895
243	0x3de0bb2e	0.10973202
244	0xbdf03517	-0.11728876
245	0x3d440c61	0.047863368
246	0xbe1712fa	-0.14753333
247	0x3d9e1132	0.077181235
248	0x3e55778e	0.20846388
249	0xbe8635b5	-0.2621285
250	0x3f14ef4b	0.5817763
251	0xbc8f1246	-0.017464768
252	0x3e66e620	0.22548723
253	0xbd418896	-0.0472494
254	0x3e86e30a	0.26345092
255	0xbec03b67	-0.3754532

lstm.bias_hh_l0 f4 [256]
0	0xbdff9cf5	-0.12481109
1	0x3eb31328	0.34975553
2	0xbbd2bd0b	-0.006431227
3	0x3f1819e6	0.5941452
4	0x3dbb7ab6	0.09154265
5	0x3ddba663	0.10725095
6	0xbcc30eee	-0.02381083
7	0xbd3eb21a	-0.04655657
8	0x3e7cfa86	0.24704942
9	0xbd806de5	-0.06270961
10	0xbe8db515	-0.27677217
11	0xbd2d5f2f	-0.042327102
12	0xbdca31c4	-0.09872773
13	0xbe97a59b	-0.29618534
14	0xbe877572	-0.2645679
15	0x3ebe2d8d	0.37144127
16	0x3bf9d11c	0.0076238047
17	0x3e8dbc14	0.27682555
18	0xbe30a6c2	-0.17251113
19	0x3dc1baac	0.09459433
20	0x3e2381b7	0.15967451
21	0xbe21fd12	-0.15819195
22	0x3de35057	0.11099308
23	0xbe77dbfa	-0.24205008
24	0x3e362c23	0.17790274
25	0x3e7ab131	0.24481656
26	0xbd52c57e	-0.051457874
27	0x3ec05762	0.37566668
28	0xbd3ca6a4	-0.04605736
29	0xbdcb16db	-0.09916469
30	0xbe45f2e4	-0.19330937
31	0xbd649d14	-0.055813864
32	0x3d4a6688	0.049414188
33	0xbe55256a	-0.20815054
34	0x3d5597ce	0.052146725
35	0x3d83730a	0.06418426
36	0xbe115010	-0.14190698
37	0x3ccba990	0.024861127
38	0x3e053e30	0.13012004
39	0x3efec23b	0.4975756
40	0xbd564b9a	-0.052318193
41	0x3ddcab39	0.10774846
42	0x3ebcfc3d	0.36911193
43	0x3e9afa1b	0.3026894
44	0xbdf756a1	-0.1207707
45	0xbda7d3db	-0.08194705
46	0x3e4e60ec	0.2015416
47	0x3edbfc39	0.42965868
48	0xbdef1988	-0.116747916
49	0x3e120f1a	0.14263573
50	0x3ca4d67b	0.020121804
51	0x3e1689ac	0.14700955
52	0x3c51f3f5	0.012814512
53	0xbc3f3d4b	-0.011672328
54	0xbdfb1783	-0.12260344
55	0x3e4716c2	0.19442275
56	0x3e8b78a8	0.2724049
57	0xbed0ded4	-0.40795004
58	0x3eaf6f34	0.3426453
59	0xbe11597b	-0.1419429
60	0x3e3585e7	0.17726861
61	0xbd991fd9	-0.074767776
62	0xbe52e989	-0.20596899
63	0xbe8d26b2	-0.27568585
64	0xbe95d52b	-0.29264197
65	0xbe6a53b9	-0.228835
66	0xbe5873f9	-0.2113799
67	0xbe3cac3c	-0.18425077
68	0xbc754a00	-0.014971256
69	0xbbc932d8	-0.0061400943
70	0xbca794ef	-0.02045676
71	0xbe7b5ac1	-0.24546339
72	0xbccdb8ca	-0.025112528
73	0xbea6f7d9	-0.32610968
74	0xbcd0d4bc	-0.025492065
75	0xbdf1ed63	-0.11812856
76	0xbe71af71	-0.23602082
77	0xbdd3af73	-0.10336199
78	0xbe4f4d4f	-0.20244335
79	0xbe491642	-0.19637397
80	0xbd061529	-0.032735024
81	0xbe3947c4	-0.18093783
82	0x3c4daf03	0.012553933
83	0xbdb14cb6	-0.086572096
84	0xbd0522b0	-0.032503784
85	0xbcdee8ea	-0.027210671
86	0x3dd7617b	0.1051664
87	0xbd639ebe	-0.05557131
88	0x3dc67a19	0.09691257
89	0xbe6e532d	-0.23273917
90	0xbd88eb0e	-0.06685458
91	0xbe22f3cd	-0.15913315
92	0xbe4a214b	-0.19739263
93	0xbc4638fa	-0.012098545
94	0xbbc7c2f9	-0.0060962406
95	0xbe8f0033	-0.2792984
96	0xba50c04c	-0.0007963225
97	0xbe3b6dfc	-0.18303674
98	0xbe01ada1	-0.1266389
99	0x3d5f17db	0.05446611
100	0x3da99519	0.08280391
101	0xbdf1a3f1	-0.117988475
102	0xbdbcc424	-0.09217098
103	0xbf241bf9	-0.6410518
104	0xbe0eef91	-0.13958575
105	0xbb900107	-0.0043946537
106	0xbe7833be	-0.24238488
107	0xbeba03a2	-0.36330897
108	0xbd3bdcee	-0.04586499
109	0xbe40af7d	-0.18816943
110	0xba380663	-0.00070199947
111	0xbf0c6b96	-0.54851663
112	0x3e0c6f61	0.13714363
113	0xbea0c623	-0.31401166
114	0x3dc29fcd	0.09503136
115	0xbe028069	-0.12744297
116	0xbe6136e9	-0.21993603
117	0xbd98130e	-0.074255094
118	0xbe5ba7b1	-0.21450688
119	0xbdb28eb1	-0.087186225
120	0x3d70f911	0.05883128
121	0xbd1f4d40	-0.03889203
122	0xbebef2a2	-0.3729449
123	0xbe00909d	-0.12555166
124	0x3d7a7885	0.061150093
125	0x3e0f7c63	0.14012294
126	0x3e9a37d4	0.30120718
127	0xbe1fed38	-0.15617836
128	0x3d58e643	0.05295397
129	0x3bdf278f	0.0068101357
130	0x3cde9201	0.02716923
131	0x3cafb375	0.021447876
132	0x3db1b45b	0.08676978
133	0x3cadfcc7	0.021238698
134	0xbdb908a3	-0.090348504
135	0xbd38b63d	-0.04509567
136	0x3c6b441e	0.014359502
137	0x3c597608	0.01327277
138	0xbd793e9d	-0.06085073
139	0x3d43cce2	0.047802813
140	0xbcd764a4	-0.026293106
141	0xbdfeb815	-0.124374546
142	0x3d8219c0	0.06352568
143	0x3e34346c	0.17598122
144	0xbd4c6519	-0.0499011
145	0x3c72fa03	0.014830115
146	0xbd385b25	-0.045008797
147	0xbd53c37d	-0.051700104
148	0xbd4bb5b0	-0.049733818
149	0x3ca5ec61	0.020254316
150	0x3e3e7532	0.18599394
151	0xbd4b6b0d	-0.04966264
152	0x3e398300	0.18116379
153	0x3e40b01a	0.18817177
154	0x3d4dec53	0.050274204
155	0xbdd23b87	-0.1026526
156	0x3db08913	0.08619895
157	0xbdc1ffbb	-0.09472605
158	0x3d62db92	0.05538518
159	0xbddd9739	-0.10819859
160	0xbe4b0d2e	-0.19829246
161	0x3e22f818	0.15914953
162	0x3dfdbe52	0.12389816
163	0x3d092159	0.03347907
164	0x3df1bf66	0.118040845
165	0xbc3e8bcf	-0.011630013
166	0x3d572fe0	0.05253589
167	0x3dc65e35	0.09685937
168	0x3dd03c18	0.10167712
169	0x3e038e68	0.12847292
170	0xbc2cf65b	-0.010556783
171	0xbddc4fb9	-0.107573934
172	0xbb678550	-0.0035327263
173	0x3d02cd8f	0.031934317
174	0x3dc86fa7	0.09786921
175	0x3daac855	0.083389916
176	0x3d343298	0.043993562
177	0xbe3acd23	-0.18242316
178	0xbe30d0a9	-0.17267098
179	0xbe50c8c3	-0.20389085
180	0xbe053fc8	-0.13012612
181	0x3b464957	0.0030256116
182	0xbba50ea9	-0.005037148
183	0xbe2a9672	-0.16658953
184	0x3e45ce65	0.19317015
185	0x3d32262e	0.043493442
186	0xbe065dc2	-0.13121703
187	0xbd045e18	-0.032316297
188	0xbdc19c6a	-0.09453662
189	0x3e27a10d	0.1637003
190	0xbdf0faaa	-0.117665604
191	0xbda60b9a	-0.081076816
192	0xbe16d436	-0.1472939
193	0x3e8bb94e	0.27289814
194	0xbd9e30b0	-0.0772413
195	0x3f1f9157	0.62331146
196	0x3e4cd984	0.2000485
197	0xbc913f55	-0.017730394
198	0xbc19168c	-0.0093437545
199	0xbdeec1cb	-0.11658057
200	0x3e49dcfb	0.19713204
201	0x3e1ab94f	0.15109752
202	0x3d98fb25	0.07469777
203	0xbda446f1	-0.080213435
204	0xbe0e8970	-0.13919616
205	0xbe345397	-0.17610012
206	0xbeac9b8e	-0.3371243
207	0x3ee8bb76	0.4545552
208	0xbd7f6be9	-0.06235877
209	0x3e88abf8	0.26693702
210	0x3ce59a87	0.028027786
211	0x3e7a349f	0.24434136
212	0x3e872722	0.26397043
213	0xbdbb14f2	-0.091348544
214	0x3e471a34	0.1944359
215	0xbe872cde	-0.26401418
216	0x3e6bd414	0.2303012
217	0x3e942495	0.2893416
218	0xbdb58142	-0.088625446
219	0x3ebefbf9	0.37301615
220	0x3e37b586	0.1794034
221	0xbdbc539b	-0.09195634
222	0xbdb0fec3	-0.08642342
223	0xbd9e93c0	-0.07743025
224	0xbd1a80dd	-0.03772055
225	0xbdeb971a	-0.1150343
226	0xbd5bbfbe	-0.053649656
227	0xbe92d91d	-0.2868127
228	0xbd6af184	-0.057359233
229	0x3d9fb765	0.077986516
230	0xbe0a91c4	-0.13532168
231	0x3ef60060	0.4804716
232	0x3e2ce95d	0.16885896
233	0x3ddd0d2e	0.107935295
234	0x3ee204c2	0.44144255
235	0x3cf6f8dc	0.030147962
236	0xbe074927	-0.13211499
237	0xbd9b3c18	-0.07579821
238	0x3ee88545	0.45414177
239	0x3ebf50b1	0.3736625
240	0x3d31f0c8	0.043442518
241	0x3e8a4fa5	0.2701389
242	0xbcdadeb1	-0.026717516
243	0x3e44384d	0.19162102
244	0x3dabe205	0.08392719
245	0xbddaee13	-0.1068994
246	0xbd9820df	-0.07428145
247	0x3da4f08a	0.08053692
248	0x3e6de652	0.23232391
249	0xbed1ebf7	-0.4100034
250	0x3f1863cd	0.59527284
251	0xbdfff486	-0.12497811
252	0x3e57dc92	0.21080235
253	0xbe6a16e5	-0.22860296
254	0x3e1d3b4e	0.15354654
255	0xbec714db	-0.388831

lstm.weight_ih_l1 f4 [256, 64]
0	0xbb081ea7	-0.0020770223
1	0x3ee7f443	0.45303544
2	0x3de37f82	0.111083046
3	0xbe7e367a	-0.24825469
4	0x3cac93aa	0.021066505
5	0xbe8ad85b	-0.2711819
6	0xbe2993fa	-0.16560355
7	0x3d139593	0.036031317
8	0xbe92a771	-0.28643373
9	0xbcb0af75	-0.02156804
10	0xbe7bcf1c	-0.24590725
11	0x3ee4b37d	0.4466819
12	0xbd47c2de	-0.048769824
13	0x3e04e1f4	0.1297682
14	0x3c0db45c	0.008648958
15	0x3ddac8aa	0.10682805
16	0x3ddb8426	0.10718565
17	0x3e737adf	0.2377734
18	0x3e9a10d5	0.30090967
19	0x3c508776	0.012727609
20	0x3ef6ea1d	0.4822549
21	0xbe034d1c	-0.12822384
22	0xbe660473	-0.22462635
23	0x3e8ea3bc	0.27859294
24	0xbdd2d3b8	-0.102942884
25	0xbe75cc88	-0.24003804
26	0xbe75da2e	-0.2400901
27	0x3d150134	0.0363781
28	0xbea8f263	-0.32997426
29	0x3eb8999d	0.36054698
30	0xbd2ad709	-0.04170898
31	0x3d18dd06	0.03732016
32	0x3dca6382	0.09882261
33	0x3d230103	0.039795887
34	0xbea1fbb3	-0.31637344
35	0x3df5c0a4	0.11999634
36	0x3e2fabdc	0.17155403
37	0x3d88651c	0.0665991
38	0xbd84c34a	-0.06482561
39	0xbd5cc3b6	-0.053897582
40	0xbe949bed	-0.29025212
41	0x3d8eb115	0.069673695
42	0xbc942198	-0.018082425
43	0xbccf3cad	-0.025297487
44	0xbd9bfab7	-0.076161794
45	0xbc020ab9	-0.007937127
46	0xbd50d07b	-0.050980072
47	0xbdeafdec	-0.11474213
48	0xbcd4a50d	-0.025957609
49	0xbe81a043	-0.25317582
50	0x3caafeb6	0.020873409
51	0xbea4c2c2	-0.32179838
52	0xbea6e79e	-0.32598585
53	0x3e7413e3	0.23835711
54	0x3e88f33d	0.26748076
55	0x3dfaeb60	0.122519255
56	0xbdf17de3	-0.11791589
57	0xbe4164dd	-0.18886133
58	0x3e20f5da	0.15718785
59	0xbe5abbed	-0.2136075
60	0xbe32c943	-0.17459588
61	0x3e05ce5f	0.13067006
62	0xbe00f426	-0.12593135
63	0xbee0f1ac	-0.4393438
64	0x3de423d4	0.11139646
65	0x3d0d2d58	0.03446707
66	0x3ebba55b	0.36649594
67	0xbdb8cd5a	-0.09023543
68	0xbc0b5b12	-0.0085056
69	0xbdc7f3d5	-0.09763304
70	0xbe495171	-0.19659974
71	0xbd82cd47	-0.0638681
72	0x3d1d05fb	0.03833578
73	0x3ec6c4fd	0.38822165
74	0xbdb827b4	-0.08991948
75	0xbd6edd74	-0.058316663
76	0x3d096fe2	0.033553965
77	0xbe56979e	-0.20956275
78	0xbbd25fc2	-0.0064201066
79	0xbef32ab6	-0.47493523
80	0x3e4c9f97	0.19982754
81	0x3e50f782	0.20406917
82	0xbf167797	-0.5877623
83	0x3e3883f7	0.1801909
84	0xbe591f76	-0.21203408
85	0xbdb4c08c	-0.08825788
86	0x3d1c7323	0.03819574
87	0xbdbb280d	-0.091384985
88	0x3e184b9c	0.14872593
89	0xbe1201ab	-0.14258449
90	0x3e478b02	0.19486621
91	0x3e594d9f	0.21221016
92	0xbee0b269	-0.43886116
93	0xbd9936af	-0.07481133
94	0x3dbf7d7c	0.09350106
95	0x3df49290	0.11942017
96	0xbe644919	-0.2229351
97	0xbd442079	-0.04788253
98	0x3e7225d9	0.2364725
99	0xbdbda144	-0.092592746
100	0xbe72fb76	-0.23728737
101	0x3df86022	0.12127711
102	0x3d0c06ba	0.034186102
103	0xbec0c69e	-0.37651533
104	0x3e4d7492	0.20064
105	0x3e7870ad	0.24261732
106	0xbcf5dfae	-0.030013885
107	0x3e1f2903	0.15542988
108	0xbda2b8be	-0.07945393
109	0x3dd66bd2	0.10469784
110	0xbe9ee1de	-0.31031698
111	0x3b883232	0.0041563744
112	0x3e43fe4d	0.19139977
113	0xbd0f129f	-0.034929868
114	0x3da7585d	0.08171151
115	0x3d124d22	0.03571809
116	0x3bc39206	0.005968335
117	0x3e02d0b9	0.12774934
118	0x3d486b20	0.048930287
119	0x3e74607f	0.23864935
120	0xbe186ec2	-0.14886001
121	0x3d103cd7	0.03521427
122	0xbe1849dd	-0.14871927
123	0x3c5a0bf2	0.013308512
124	0x3dec0913	0.11525168
125	0x3dc715a2	0.09720923
126	0x3e1f2c87	0.1554433
127	0x3e15dadc	0.1463427
128	0xbd9aa422	-0.07550837
129	0xbecb11d3	-0.39662036
130	0x3eb2bbfe	0.34909052
131	0x3cfbc22d	0.030732239
132	0xbde9cc8c	-0.11415967
133	0x3e6d906b	0.23199622
134	0x3eb4abed	0.3528742
135	0x3dbd9fa4	0.09258965
136	0xbcd6402d	-0.026153648
137	0xbe827683	-0.25481042
138	0xbe025a30	-0.12729716
139	0xbec143e3	-0.37747106
140	0x3cf5f83c	0.030025594
141	0xbe2ecc3a	-0.17070094
142	0xbe22f9a8	-0.15915549
143	0x3e42b35f	0.19013737
144	0xbdc3b282	-0.09555532
145	0xbe7dbcec	-0.24779099
146	0xbdbd775d	-0.09251282
147	0xbe0622bd	-0.13099189
148	0xbde679ce	-0.11253701
149	0xbe6fcf9c	-0.2341904
150	0x3d01b34c	0.03166513
151	0x3d981254	0.07425371
152	0xbd877373	-0.06613817
153	0x3ee8027c	0.45314395
154	0x3e891029	0.26770142
155	0xbe6811b6	-0.22663006
156	0x3edf23c8	0.43581986
157	0xbc42a8cc	-0.011881065
158	0xbd5a1c6b	-0.053249758
159	0x3d56f2af	0.052477535
160	0xbd892008	-0.066955626
161	0x3beafe55	0.007171432
162	0xbeda76a3	-0.42668638
163	0xbe1e4ec5	-0.15459736
164	0x3e08655c	0.13319916
165	0xbdfff120	-0.12497163
166	0xbe1baaf8	-0.15201938
167	0x3d9d74e0	0.07688308
168	0x3e859f17	0.26097938
169	0xbe3f22e4	-0.18665653
170	0x3e3ee109	0.18640532
171	0xbba9dfc4	-0.0051841456
172	0xbc6ac820	-0.01432994
173	0xbd9a0a7e	-0.075215325
174	0x3d7c8518	0.061650366
175	0x3de43ff2	0.11145009
176	0x3e58e168	0.21179736
177	0x3ea28667	0.31743166
178	0x3dd9c569	0.10633356
179	0xbe05e3b8	-0.13075149
180	0x3e7d3fc3	0.24731354
181	0xbe6a2b49	-0.22868074
182	0xbe2b63d6	-0.16737303
183	0xbda71c71	-0.08159722
184	0x3eed15b4	0.4630562
185	0xbed8c394	-0.42336714
186	0x3ddf8128	0.109133065
187	0xbe132c9b	-0.14372484
188	0xbe82be9f	-0.25536057
189	0x3db52232	0.08844413
190	0x3ca779a9	0.020443754
191	0x3dca337d	0.09873102
192	0xbc0373a8	-0.00802318
193	0xbf8ead83	-1.1146702
194	0x3e72de09	0.23717512
195	0x3cfb1262	0.030648414
196	0x3ea94255	0.3305842
197	0x3e5c0ecf	0.21490024
198	0x3d8fe374	0.07025805
199	0x3ecd291a	0.4007042
200	0x3e522847	0.20523177
201	0x3f135bdf	0.5756206
202	0x3c8b7476	0.017023306
203	0xbebf9626	-0.37419242
204	0x3d1f6b7a	0.038920857
205	0xbe80debd	-0.25169936
206	0xbf04e7b5	-0.51916057
207	0x3ec5ac25	0.38607898
208	0xbe995dd2	-0.29954392
209	0xbf4b670b	-0.79454106
210	0xbe8ff017	-0.28112862
211	0x3e2986c4	0.16555315
212	0x3dc2733f	0.09494638
213	0x3e1eb29f	0.15497826
214	0x3d9eb1ef	0.07748782
215	0x3e1129cd	0.14176102
216	0xbdfe5b39	-0.12419743
217	0x3eab46b2	0.33452374
218	0x3f2b1c89	0.66840416
219	0xbf0a8a64	-0.5411742
220	0x3e4c26eb	0.19936721
221	0x3cb257d7	0.0217704
222	0x3e4b2bb4	0.1984089
223	0x3e3963c9	0.18104471
224	0xbdcceb40	-0.10005808
225	0x3df23e59	0.11828298
226	0xbe43a23d	-0.19104858
227	0x3e5577dc	0.20846504
228	0xbecda809	-0.40167263
229	0xbd927124	-0.07150486
230	0xbe9ed2b5	-0.31020132
231	0x3ebc5696	0.3678481
232	0x3ec2b371	0.38027528
233	0xbe472b09	-0.1945001
234	0xbd8503ad	-0.06494842
235	0xbd95f203	-0.07321551
236	0x3d707d4e	0.05871325
237	0xbe5c567a	-0.21517363
238	0xbe8a7091	-0.27039006
239	0x3ea0f761	0.31438735
240	0x3e52d302	0.20588306
241	0xbefceb5f	-0.49398324
242	0x3d6ae408	0.057346374
243	0xbe440bd3	-0.19145136
244	0x3e73a32a	0.23792711
245	0xbe81edfc	-0.2537688
246	0xbdf1e565	-0.11811332
247	0xbe295727	-0.16537152
248	0x3ef43ffb	0.47705063
249	0xbebd608d	-0.36987725
250	0xbf53a1f5	-0.82669
251	0x3c5ab2ad	0.013348264
252	0xbd78be30	-0.060728252
253	0xbb45b5d7	-0.00301682
254	0xbd7ccedf	-0.061720725
255	0x3e05ec5b	0.13078444

lstm.weight_hh_l1 f4 [256, 64]
0	0x3e5f3b65	0.21800001
1	0xbeb0b874	-0.34515727
2	0xbe51c913	-0.2048686
3	0x3da0e71c	0.078565806
4	0x3e640220	0.22266436
5	0xbe2bc3c4	-0.16773897
6	0xbdd732f7	-0.10507768
7	0xbe3541a3	-0.1770082
8	0xbe7b00eb	-0.24512069
9	0xbd9277c1	-0.071517475
10	0xbeb596b3	-0.35466537
11	0xbe4495fc	-0.1919784
12	0xba5e2034	-0.00084734266
13	0x3e2b7345	0.1674319
14	0x3d8adf02	0.067808166
15	0x3e1e61de	0.15467021
16	0x3e0ec51d	0.1394238
17	0x3e7d970e	0.24764654
18	0xbd5f74aa	-0.05455462
19	0x3ec98e49	0.39366367
20	0x3e5c0c1a	0.21488991
21	0xbcc0addb	-0.0235204
22	0x3d0fca9e	0.03510534
23	0x3d173765	0.036918063
24	0x3df17e00	0.11791611
25	0xbc2c4622	-0.010514768
26	0xbe0da9c6	-0.13834295
27	0xbe4f9692	-0.20272282
28	0x3dcfe922	0.101518884
29	0x3e3fa247	0.18714248
30	0x3ce735f1	0.028223963
31	0x3e977cfc	0.29587543
32	0x3e74a9d3	0.23892908
33	0xbca99d2d	-0.02070483
34	0xbd954a46	-0.07289557
35	0xbe97004e	-0.2949242
36	0x3e2212b0	0.15827441
37	0x3df854ce	0.1212555
38	0xbca31342	-0.019906644
39	0xbd189b3d	-0.03725742
40	0xbe571f09	-0.21007933
41	0xbe18a20f	-0.1490557
42	0xbeb600c4	-0.3554746
43	0x3ebd49dc	0.36970413
44	0xbe9de720	-0.30840397
45	0xbe3d67a7	-0.18496571
46	0x3d2a6e49	0.041609082
47	0xbe396e25	-0.18108423
48	0x3edfe927	0.4373257
49	0xbde69ca4	-0.112603456
50	0x3e699f1a	0.22814599
51	0xbdc71afd	-0.097219445
52	0x3e83f391	0.25771764
53	0xbd8a6187	-0.06756883
54	0xbe458bfc	-0.19291681
55	0x3bef2725	0.0072983676
56	0xbd7b31f6	-0.061326943
57	0x3d82494f	0.06361639
58	0x3bcaf39f	0.0061935927
59	0xbd8e560d	-0.06950007
60	0x3eb41f56	0.35180157
61	0xbd37ccec	-0.044873163
62	0xbdf1fe77	-0.118161134
63	0xbd63b8bd	-0.055596102
64	0xbd5437f2	-0.051811166
65	0xbdeee098	-0.116639316
66	0x3db5ae23	0.088711046
67	0xbe693c1d	-0.22776838
68	0x3e9c0924	0.30475724
69	0xbcf39b94	-0.029737271
70	0x3e0fd96e	0.14047787
71	0xbd9c9756	-0.076460525
72	0xbe23e95e	-0.16006991
73	0x3c4cca90	0.012499467
74	0xbde8ddc6	-0.11370425
75	0x3daf903d	0.08572433
76	0x3cd6b3c7	0.026208771
77	0x3e173362	0.14765695
78	0x3cd80084	0.026367433
79	0x3e2e06b1	0.1699474
80	0x3e2a12cf	0.16608737
81	0x3d8febcb	0.07027396
82	0xbe2a42c6	-0.16627035
83	0x3ea27aad	0.3173422
84	0x3da3a5e5	0.07990626
85	0xbefd9e48	-0.49534822
86	0xbc7d9384	-0.015477065
87	0xbd8315c8	-0.06400639
88	0x3dadd13e	0.084871754
89	0xbdda799e	-0.10667728
90	0x3d2c00a5	0.041992802
91	0x3d18f1bc	0.03733991
92	0xbe50315d	-0.2033133
93	0x3da8c2c9	0.08240277
94	0x3e8ddacf	0.27706
95	0x3db12d81	0.08651257
96	0x3e90915a	0.28235894
97	0x3d81f8b9	0.06346268
98	0xbea358e4	-0.31903756
99	0x3e1b97ff	0.151947
100	0x3da67909	0.081285544
101	0xbe1ec0e5	-0.15503271
102	0x3e1fbf20	0.15600252
103	0x3d21d773	0.03951211
104	0xbe34fa8d	-0.17673703
105	0xbdea76f8	-0.11448473
106	0xbe947410	-0.289948
107	0x3d1a637e	0.03769254
108	0xbdc17074	-0.09445277
109	0xbe1770e4	-0.14789158
110	0x3d9d6035	0.07684366
111	0x3e0ff1e8	0.14057124
112	0xbe244cd8	-0.16044939
113	0x3e49f1aa	0.19721094
114	0xbe365d89	-0.17809118
115	0xbdf628da	-0.120195106
116	0xbded2d13	-0.11580863
117	0x3ecfe53a	0.40604573
118	0xbe66c9f6	-0.2253798
119	0xbe701e1c	-0.23448986
120	0x3e2ae98f	0.16690658
121	0xbe278f85	-0.16363342
122	0xba93f7c0	-0.0011289045
123	0xbcf24d0b	-0.029577753
124	0xbd5cc39f	-0.053897496
125	0xbcf26038	-0.029586896
126	0x3da567bd	0.08076427
127	0x3de4c4ec	0.11170372
128	0x3de5b7e0	0.11216712
129	0xbe2b63e2	-0.16737321
130	0xbe4dba11	-0.2009051
131	0x3e4f6d01	0.20256425
132	0x3e740e98	0.23833692
133	0x3cb4d653	0.022074854
134	0xbdc9b467	-0.09848862
135	0x3d459425	0.048236985
136	0x3eb83140	0.35975075
137	0xbe1d8850	-0.1538403
138	0xbd6b16fd	-0.05739497
139	0x3e40189a	0.18759385
140	0x3ef3937c	0.4757346
141	0xbe56ccdc	-0.20976585
142	0xbedf5fcf	-0.43627784
143	0x3eac1887	0.33612463
144	0xbd40d887	-0.047081497
145	0x3c482fa0	0.012218386
146	0x3d51bf42	0.05120779
147	0xbd93bf2c	-0.072141975
148	0xbe45d9f3	-0.19321422
149	0xbea99348	-0.3312018
150	0x3dd2f1a1	0.10299993
151	0xbdede18a	-0.11615284
152	0xbe644a00	-0.22293854
153	0x3ddf0e59	0.108914085
154	0x3c8443cc	0.01614561
155	0x3ef18eb8	0.47179198
156	0xbdd27df3	-0.10277929
157	0xbde6fcee	-0.11278711
158	0x3e2521ab	0.16126125
159	0x3e8be69c	0.27324378
160	0x3ef6f113	0.482308
161	0x3e5acab5	0.21366389
162	0x3d80c276	0.062870905
163	0xbdeda026	-0.116028115
164	0xbeb537f5	-0.35394254
165	0xbe1e6a45	-0.15470226
166	0xbdf37459	-0.11887426
167	0x3e7f3603	0.24922948
168	0x3e8e53e0	0.27798367
169	0xbae35bb4	-0.0017346055
170	0xbe07388d	-0.13205166
171	0xbe01a495	-0.1266044
172	0x3dbb37f5	0.09141532
173	0x3ebb7201	0.36610416
174	0x3dd62060	0.10455394
175	0xbe3591cd	-0.177314
176	0x3ed9b72a	0.42522556
177	0x3cc79db5	0.024367193
178	0xbe4cdd6a	-0.20006338
179	0xbd87b276	-0.066258356
180	0xbe86c700	-0.263237
181	0xbee520c6	-0.44751567
182	0x3e24f4b3	0.1610897
183	0xbd93ff37	-0.07226413
184	0xbe523b54	-0.20530444
185	0x3c3096b7	0.010778121
186	0xbe09265d	-0.1339354
187	0xbec61624	-0.38688767
188	0x3e014a67	0.12626038
189	0xbeb86d2c	-0.36020792
190	0x3e173a8d	0.14768429
191	0xbe2916c7	-0.16512595
192	0x3e129ae7	0.14316903
193	0xbdcbc650	-0.099499345
194	0xbda22cfa	-0.07918735
195	0x3ef9ade9	0.48765495
196	0x3ea85abe	0.3288173
197	0xbda98d5a	-0.08278914
198	0x3d3e01ea	0.046388544
199	0x3d878152	0.06616463
200	0x3e832fd6	0.25622433
201	0xbdb72252	-0.08942093
202	0x3e0dd882	0.13852122
203	0x3d69e803	0.05710603
204	0x3e995425	0.2994701
205	0x3e8f3cfc	0.27976215
206	0xbe60204b	-0.21887319
207	0x3e9514b5	0.2911736
208	0xbdb2dd4a	-0.08733614
209	0x3e3c2afe	0.18375775
210	0xbe3073f6	-0.17231736
211	0xbd39330c	-0.045214698
212	0x3e92aeee	0.28649086
213	0xbbb486d0	-0.005509235
214	0x3ea49713	0.3214651
215	0x3e054d20	0.13017702
216	0x3d6a3bff	0.057186123
217	0x3e18069e	0.14846274
218	0x3e122063	0.14270167
219	0x3e94e0dd	0.29077807
220	0x3d2d5f91	0.042327467
221	0xbe0cca8f	-0.13749145
222	0x3ead98f2	0.3390575
223	0x3ebf98eb	0.37421355
224	0x3e3eec1d	0.18644758
225	0xbf0c826e	-0.5488652
226	0xbe11e2a5	-0.14246614
227	0xbe89306d	-0.26794758
228	0xbe1699c7	-0.14707099
229	0xbe6768f1	-0.22598626
230	0x3d052deb	0.032514494
231	0xbdb20aa0	-0.08693433
232	0x3e8fce72	0.28087193
233	0xbdc10b40	-0.09425974
234	0xbe451486	-0.1924611
235	0xbde59a50	-0.112110734
236	0xbd79fb57	-0.061030712
237	0xbe8ad4d4	-0.271155
238	0x3d99f0c1	0.07516623
239	0xbed5035e	-0.4160413
240	0x3e1e3225	0.15448816
241	0xbd76ea5a	-0.06028209
242	0x3db80a19	0.08986301
243	0xbe76db97	-0.24107204
244	0x3ea927c1	0.33038142
245	0xbef87c3b	-0.4853228
246	0x3e29ec23	0.16593985
247	0xbe7307b9	-0.23733415
248	0xbe3d24bf	-0.18471049
249	0xbe29de2a	-0.16588655
250	0x3c316bd0	0.010828927
251	0xbe91b9c4	-0.2846204
252	0x3e2a8009	0.16650404
253	0xbeec94cd	-0.46207276
254	0x3d58a228	0.05288902
255	0x3d99c525	0.075083055

lstm.bias_ih_l1 f4 [256]
0	0x3e417713	0.1889308
1	0x3dc96edf	0.098356
2	0xbe5a107e	-0.21295354
3	0xbdca5921	-0.09880281
4	0x3ecbdaca	0.3981536
5	0xbc581be6	-0.013190245
6	0x3d2e9269	0.042620096
7	0x3e1397c6	0.14413366
8	0x3deaa9c2	0.1145816
9	0xbd0ff8a4	-0.03514923
10	0xbd5f0d6e	-0.054456167
11	0xbe11608a	-0.14196983
12	0xbe11967e	-0.14217564
13	0x3ec5449e	0.38528913
14	0xbdfebcd8	-0.12438363
15	0x3e4a3eb4	0.19750482
16	0x3da36162	0.07977559
17	0x3e98b2cb	0.29823908
18	0xbd5d061e	-0.053960912
19	0x3e26a3fd	0.16273494
20	0x3dcf8eb3	0.101346396
21	0x3ef2710d	0.47351876
22	0x3daf2d4b	0.08553561
23	0x3d887738	0.06663364
24	0x3e14e49a	0.1454033
25	0xbe08bc08	-0.13352978
26	0x3e15fe2d	0.14647742
27	0xbddc7d92	-0.10766138
28	0xbdb7e6fd	-0.089796044
29	0xbd0cb2ec	-0.03435032
30	0x3da4130c	0.080114454
31	0x3d2e91dd	0.042619575
32	0x3e2cc38d	0.16871472
33	0x3f06f5de	0.52718914
34	0xbd7fee70	-0.06248325
35	0xbcb8d76c	-0.022563659
36	0xbe7687f2	-0.24075297
37	0x3df25e8d	0.118344404
38	0xbd41bf2c	-0.047301456
39	0xbdd2925b	-0.10281821
40	0x3ea1230b	0.31472048
41	0x3ea45225	0.3209392
42	0x3e7b3bd2	0.24534538
43	0x3d79aa92	0.060953684
44	0xbe6e5e95	-0.23278268
45	0xbd919de7	-0.071101956
46	0x3e0bdf7a	0.13659468
47	0xbdf7ebb7	-0.12105506
48	0x3e7fad4c	0.24968451
49	0x3dddac06	0.108238265
50	0x3eef1d08	0.46701837
51	0x3eae1bd6	0.34005612
52	0x3e876dda	0.26450998
53	0x3eb29440	0.3487873
54	0xbd80efd2	-0.06295742
55	0x3e7df265	0.24799497
56	0xbdc4c2ba	-0.09607454
57	0x3dd12f38	0.102140844
58	0xbc4c9041	-0.012485565
59	0x3ebf9fc7	0.37426588
60	0x3d3c6e77	0.046003785
61	0x3d33d8ac	0.043907806
62	0x3decb5ae	0.1155809
63	0x3e54dbaf	0.20786928
64	0xbd2c27b4	-0.04203005
65	0xbe359f2a	-0.17736498
66	0x39e61d08	0.00043890649
67	0xbe849fe6	-0.25903243
68	0xbcd4e338	-0.025987253
69	0x3e585093	0.21124487
70	0xbd9919f6	-0.07475655
71	0x3dd24300	0.102666855
72	0x3e08bc91	0.13353182
73	0x3de7a3a1	0.113105066
74	0xbd5d5608	-0.054037124
75	0xbe041e8b	-0.12902276
76	0xbcec1276	-0.028817397
77	0xbeee3513	-0.46524867
78	0x3c0a61c9	0.008446165
79	0xbdf69283	-0.12039664
80	0xbe3c3300	-0.1837883
81	0x3c8505bc	0.016238086
82	0x3d926da4	0.071498185
83	0xbe1ac942	-0.15115836
84	0xbd85506f	-0.06509482
85	0xbeaf5b03	-0.34249124
86	0xbe90588c	-0.28192556
87	0xbdf2d8b5	-0.1185774
88	0xbd9d7f53	-0.07690301
89	0x3decb2dc	0.11557552
90	0xbe152c9b	-0.14567797
91	0x3d64ee3d	0.055891264
92	0x3df21a1c	0.11821386
93	0xbe2bbe4b	-0.1677181
94	0xbcc74559	-0.02432506
95	0xbe9bd6fd	-0.3043746
96	0xbda4c46e	-0.080452785
97	0xbe406581	-0.1878872
98	0x3ae9b83e	0.0017831398
99	0xbe09827c	-0.13428682
100	0xbe2d8d2c	-0.16948384
101	0xbe010d1c	-0.12602657
102	0x3d01f16a	0.03172437
103	0x3d02b09a	0.0319067
104	0x3c38f1d3	0.011288124
105	0xbe7bd5f1	-0.24593331
106	0xbd0328f9	-0.032021496
107	0xbd41c66e	-0.047308378
108	0xbcef8f1b	-0.029243043
109	0x3d9c2918	0.076250255
110	0xbdfdba11	-0.12389005
111	0x3dcbcb3f	0.099508755
112	0xbe37e60b	-0.17958848
113	0xbe142921	-0.14468814
114	0xbe8c59aa	-0.27412158
115	0xbf1dbaaa	-0.6161295
116	0xbe8501a8	-0.25977826
117	0xbeb0549c	-0.34439552
118	0xbe6b045f	-0.22950886
119	0xbc423118	-0.011852525
120	0xbbc4a1db	-0.00600074
121	0xbcdf5beb	-0.02726551
122	0xbdff411b	-0.1246359
123	0xbe9af7dc	-0.30267227
124	0x3c0fb7b0	0.008771822
125	0x3e308f0f	0.17242073
126	0xbc92b185	-0.017906914
127	0xbe21cbca	-0.15800396
128	0x3dc3c475	0.095589556
129	0x3d57f705	0.05272581
130	0x3e24a1bf	0.16077326
131	0x3e037a2a	0.1283957
132	0x3e48bc0c	0.19602984
133	0x3d1cc2c2	0.038271673
134	0x3d2b1321	0.04176629
135	0x3cb5f7ef	0.02221295
136	0xbcc70ec9	-0.024299042
137	0xbd74d821	-0.05977643
138	0x3e09c45c	0.13453811
139	0xbbe0c644	-0.0068595726
140	0xbe1d083b	-0.15335171
141	0x3d0a9735	0.03383561
142	0xbd7b8981	-0.06141043
143	0xbcacff08	-0.021117702
144	0xbdd85ab1	-0.10564173
145	0x3e05bcee	0.13060352
146	0xbd918979	-0.07106299
147	0xbc7104f5	-0.0147106545
148	0x3e00eac0	0.1258955
149	0xbe14e421	-0.1454015
150	0x3d89017b	0.066897355
151	0x3d8d92da	0.06912775
152	0x3e3fcafc	0.18729776
153	0xbd27fbad	-0.0410115
154	0x3c9e1b3c	0.019300096
155	0xbb61881e	-0.0034413408
156	0xbc947292	-0.018121038
157	0x3a64cf29	0.0008728379
158	0xbbb51f2f	-0.005527399
159	0x3d133285	0.03593685
160	0xbe0fc057	-0.14038216
161	0x3e0bb600	0.13643646
162	0xbd7f4cd2	-0.06232912
163	0x3cc7a2b1	0.02436957
164	0x3d695dde	0.056974284
165	0x3ca2648a	0.019823331
166	0x3becdd3b	0.007228521
167	0x3c9ec7f9	0.019382464
168	0x3cda59be	0.02665412
169	0x3dbe3d4d	0.09289036
170	0x3dac8d19	0.0842535
171	0x3d7479c3	0.059686434
172	0xbdcaedc3	-0.09908631
173	0x3da0ef0c	0.078580946
174	0xbda553d7	-0.08072632
175	0x3d4ad5e7	0.0495204
176	0x3e036176	0.12830147
177	0xbe22803c	-0.1586923
178	0xbdf8a3ec	-0.121406406
179	0xbd581f94	-0.05276449
180	0xbd8afac5	-0.06786112
181	0xbbf1d544	-0.0073801596
182	0x3d86afe1	0.06576515
183	0x3d508d59	0.05091605
184	0x3d1d0eca	0.038344182
185	0x3d8bee2e	0.068325385
186	0x3d6dda87	0.058069732
187	0x3e4ad5f9	0.19808187
188	0xbda8f892	-0.08250536
189	0x3d58db56	0.05294355
190	0x3d44cbfb	0.048046093
191	0xbd96c85d	-0.07362435
192	0xbc89fcb5	-0.016844133
193	0x3d514fc2	0.051101454
194	0xbd4679fc	-0.048456177
195	0xbd978000	-0.07397461
196	0x3cc44b01	0.023961546
197	0xbd4a224c	-0.049349114
198	0x3d84d42b	0.0648578
199	0xbe084f80	-0.13311577
200	0xbd1e1162	-0.038590796
201	0xbdbd52fc	-0.09244344
202	0xbe8f6951	-0.28010038
203	0xbe6e03f5	-0.23243697
204	0x3e5ea123	0.21741156
205	0x3eb8065b	0.3594235
206	0xbda6f51a	-0.08152218
207	0x3dbb61e4	0.091495305
208	0x3e7d35f8	0.24727619
209	0x3cc27f6c	0.0237424
210	0x3b2685a4	0.0025409246
211	0xbd83c2b2	-0.064336196
212	0x3e1a1283	0.15046124
213	0x3e86e778	0.26348472
214	0xbdf7a484	-0.12091926
215	0x3e1c6577	0.15273081
216	0xbd989676	-0.07450573
217	0xbd862c82	-0.06551458
218	0x3bc515f8	0.006014582
219	0xbe771500	-0.24129105
220	0x3dd7bd89	0.10534198
221	0xbd9c2c5f	-0.076256506
222	0x3e0943ed	0.13404818
223	0x3d87736e	0.06613813
224	0x3e8fb8dd	0.28070727
225	0x3ed8a886	0.42316073
226	0xbd123edf	-0.03570449
227	0x3d71befc	0.059020028
228	0xbe4c6483	-0.19960217
229	0x3e281718	0.1641506
230	0xbd2495e0	-0.040181994
231	0xbdd27e59	-0.10278005
232	0x3e057c96	0.13035807
233	0x3e77db50	0.24204755
234	0x3d7fee34	0.062483028
235	0x3c4f41ca	0.012649963
236	0xbe8e0fba	-0.27746373
237	0xbd5e2725	-0.05423655
238	0x3e568d86	0.20952424
239	0xbe125d97	-0.14293514
240	0x3e091fdc	0.1339106
241	0x3dcb2c2b	0.09920534
242	0x3ed6fba3	0.4198886
243	0x3eb21b7b	0.3478659
244	0x3eb4b7ea	0.35296565
245	0x3d957727	0.07298117
246	0x3e5ecd43	0.21757989
247	0x3e01798e	0.12644026
248	0xbe2f7c2e	-0.17137215
249	0xbe17abed	-0.14811678
250	0x3dec1208	0.11526877
251	0x3ea3648e	0.31912655
252	0x3e306e33	0.17229538
253	0x3dcdf119	0.10055751
254	0xbdfb6bdf	-0.12276434
255	0xbd493589	-0.04912332
