data/models/linkANDeth_gru.pth (torch, 155701 bytes, 9 tensors)

gru.weight_ih_l0 f4 [192, 1]
000000 07 91 b9 3b d9 0c 0b 3c 06 6c 20 bc fa bb 62 bc
       0.0056630406 0.00848695 -0.00979138 -0.013838762
000010 37 34 f2 3a 0d a7 9b bd b3 b1 08 3e 4a 42 94 3d
       0.0018478696 -0.07600222 0.13349037 0.07239206
000020 88 6b 10 3e 7f ce 2c 3e 0f 70 ae 3d 2b 01 f7 3d
       0.1410352 0.16875647 0.08517467 0.1206077
000030 00 f3 db bd bb 02 61 bd 36 e2 16 bd 87 f7 be bd
       -0.10739708 -0.054934245 -0.036836825 -0.09324556
000040 93 9a 04 3e 50 55 0e 3e 4e cf 5c 3d 3a 9f d0 3d
       0.1294959 0.13899732 0.05390864 0.1018662
000050 65 6b b4 3d 6f fa ab 3d 34 34 05 3c 82 1d 9e bd
       0.088095464 0.08397376 0.008130122 -0.07720472
000060 f0 2f b2 bd d1 d7 06 3e 18 05 50 be 36 e2 14 3d
       -0.087005496 0.13168265 -0.20314443 0.036348544
000070 fb ff d1 3d 8d 55 e1 3d a5 8e d8 bd b0 9b d4 3c
       0.102539025 0.11002646 -0.10574082 0.025953144
000080 cd f1 ae bd fc f9 91 bd 96 92 4f bd 8f 15 16 3e
       -0.085422136 -0.07127759 -0.050676905 0.14656661
000090 c2 c8 b7 bd e3 d2 1e 3e b8 86 2b 3c df e8 e8 bc
       -0.089738384 0.15510134 0.010469131 -0.028431354
0000a0 8a c0 38 3c 31 3a 86 bd d9 c2 87 3d 85 5c 8a bd
       0.011276374 -0.06554068 0.06628961 -0.06755928
0000b0 13 e8 c7 3c fd 57 a4 3c 60 a4 71 bc 3e 8d 72 bd
       0.024402654 0.020061487 -0.014748663 -0.05921673
0000c0 0a 9d 9d 3d 96 21 a6 bd 4e 3a ac 3d 3e 5b 01 3e
       0.076959684 -0.08111875 0.08409558 0.12632462
0000d0 69 78 8a 3b 30 35 15 bd 72 7c 21 bd 87 4f ff 3c
       0.00422578 -0.036427677 -0.03942532 0.031165851
0000e0 f6 68 f3 3d 83 4e 15 3b d1 a4 b8 3d c8 6c a0 bd
       0.11885254 0.0022782392 0.09015811 -0.078332484
0000f0 17 7c 84 bb 23 18 22 3c f6 97 16 bd 28 4c 0a bd
       -0.004043113 0.00989345 -0.036766015 -0.033764035
000100 bc 78 a6 3c 26 f0 f6 bc 94 14 15 3d 23 d8 2b bd
       0.020321243 -0.030143809 0.036396578 -0.04195417
000110 c4 2a 89 bd 39 69 c4 3c 00 c2 12 be 38 20 f5 bd
       -0.0669761 0.023975955 -0.14331818 -0.11969036
000120 f5 4c fd 3c 4e 22 0e bd 92 5d f4 bd 6c b6 7b 3c
       0.030920485 -0.034700684 -0.119319096 0.015363317
000130 b4 1e 2d 3b c4 ed 25 be 8c b3 42 be ef 67 a9 bd
       0.0026416006 -0.16203982 -0.19013804 -0.08271777
000140 bb b0 8a bd d2 56 8e 3c 11 4d 37 be e4 cc 0b be
       -0.0677199 0.017375384 -0.17900492 -0.13652378
000150 34 9d d1 bd 41 76 b2 3b 25 25 cb bd b1 53 bd bc
       -0.10235062 0.005446226 -0.09919194 -0.023111196
000160 06 9f 68 bc 44 34 33 be d0 3f 27 be c3 dc b3 bd
       -0.01419807 -0.17500407 -0.16332936 -0.08782341
000170 08 8b 37 bd f1 ee a9 bc 40 95 8b 3d 3a cd eb bc
       -0.044810325 -0.020743819 0.068155766 -0.028784383
000180 3c 0e 6d bd f3 3b 89 bd c6 a2 4d bc 23 52 a2 bd
       -0.057874903 -0.067008875 -0.012551015 -0.079258226
000190 eb 73 22 be 70 1d ce bd ac 65 31 be be 45 3e be
       -0.15864532 -0.100642085 -0.17323941 -0.18581292
0001a0 59 ce 51 bd 87 d2 14 bd 9f f5 e0 bd 55 8c 6f bd
       -0.05122218 -0.036333587 -0.109843485 -0.05848344
0001b0 8a 15 bc bd 33 cc 32 be 13 53 25 3d e1 2b 99 bd
       -0.09183796 -0.17460708 0.04036243 -0.07479072
0001c0 c0 e1 8c 3d bb a1 d1 bd 76 a3 73 bd b6 06 c0 bd
       0.06878996 -0.10235926 -0.05948206 -0.0937628
0001d0 46 fc eb bd 73 e7 8e 3a dd 33 d0 3b fd 29 05 bd
       -0.11522727 0.0010902717 0.006353839 -0.032510746
0001e0 2c 9b 96 bd e3 85 fe bc 46 47 8f bd 05 de 1e be
       -0.073538154 -0.031069702 -0.06996016 -0.15514381
0001f0 ef d8 d5 3d b2 69 6d bd 0d 22 ea 3c 98 19 d4 ba
       0.104417674 -0.057962127 0.02858069 -0.0016181944
000200 a0 0b 00 be df 4b 77 3b f1 53 42 bd 08 33 0e 3e
       -0.12504435 0.0037734432 -0.047443334 0.13886654
000210 d3 c6 fe bc 6f 85 0b 3e 0f 68 f8 3d 65 da 9a 3d
       -0.031100666 0.1362512 0.121292226 0.07561187
000220 4d e6 e0 bc 5d 82 5c 3d 36 d5 c2 bd 71 26 5d 3d
       -0.027453566 0.05383526 -0.09513323 0.05399174
000230 d8 42 07 3e 87 4f 0f be df e3 ca 3d c7 51 d5 bd
       0.13209093 -0.13995181 0.09906744 -0.104159884
000240 11 86 c5 3d 0f fc 59 bd 8e d6 12 bd 57 20 d7 bd
       0.09644712 -0.053218897 -0.035849147 -0.10504215
000250 1e 88 a6 3d bb 12 72 3c 2e f6 8c bd 27 56 b8 3d
       0.08131431 0.0147749735 -0.068828925 0.09000807
000260 ce 82 f5 3d 42 ed 04 be 17 a3 05 be ae f8 4b 3c
       0.1198784 -0.12981132 -0.13050495 0.012449427
000270 94 92 fa bd 68 b0 46 3c 03 11 4c 3c 24 8e 05 be
       -0.12234989 0.012127019 0.012455228 -0.13042504
000280 84 85 75 bd 68 04 15 be 5a c3 b6 3c 0b 4f 82 3d
       -0.059941784 -0.14552462 0.022309948 0.063627325
000290 25 75 66 3d d8 61 a0 3d 01 90 96 bd e8 6e cc bb
       0.05626406 0.07831162 -0.07351685 -0.006238807
0002a0 a3 36 8d 3d 62 f2 3e 3d 0b c1 a3 bd 68 af e4 bc
       0.06895187 0.046617873 -0.079958044 -0.027915671
0002b0 41 e3 cd 3c 6d c5 f6 bc 9e a0 05 3e b1 17 07 bd
       0.025132777 -0.030123437 0.13049552 -0.03298158
0002c0 b6 89 a4 3d 59 3a 85 bd 77 a0 30 3d 0d f8 e8 bd
       0.08034079 -0.065052696 0.04312178 -0.11375437
0002d0 49 1c d8 3d f3 bb 2a 3d 81 e7 03 3d 5f e4 f2 ba
       0.1055227 0.04168315 0.0322032 -0.0018531195
0002e0 63 63 e0 3d 86 5f a2 bd 91 71 a4 bd cd 4e fd bd
       0.109564565 -0.07928376 -0.080294736 -0.12368546
0002f0 40 34 cb 3c d5 82 86 bd c6 5f c4 3d 90 b7 28 3d
       0.024805188 -0.06567923 0.0958858 0.041190684

gru.weight_hh_l0 f4 [192, 64]
000000 9f 5b d5 3d 6c a3 ae 3c 75 ab 7f bc 8a 2b 79 3d
       0.10417866 0.02131816 -0.015604843 0.060832538
000010 64 53 bd bd b8 4b e4 3c 97 b2 8b bd e8 73 18 3c
       -0.09244421 0.027868137 -0.06821173 0.009304978
000020 e7 12 0a be 9f 27 b6 3d 6a 24 6a 3d 82 80 c8 bd
       -0.13483773 0.08894276 0.057163633 -0.09790136
000030 b4 2e 8a 3d e7 be f6 bd d9 a3 a0 bd fc 1a 9c bd
       0.06747189 -0.120481305 -0.078437515 -0.07622334
000040 ff bf b4 3d 33 02 b1 3c c1 5b 2f bc b7 23 ff bd
       0.08825683 0.021607494 -0.010703028 -0.12457984
000050 98 29 44 bc 34 4a 8c 3d 4f ae 8c 3b 26 e5 32 3c
       -0.011972807 0.068500906 0.00429324 0.010918891
000060 c6 b4 39 3c df 1f e1 3d f3 e6 da bd 2e ed 0e ba
       0.011334604 0.10992407 -0.10688581 -0.00054522126
000070 36 65 d9 bd 8c ad a7 bc 43 70 6a bd de 7f 0a be
       -0.106150076 -0.020468496 -0.057235967 -0.1352534
000080 37 0b cb bd d5 18 f9 bc e6 eb 4a bc a4 3b e9 bb
       -0.099142484 -0.030407349 -0.012385344 -0.0071177054
000090 61 67 be 3c 1e e9 04 3e a3 9a 89 bd 0c aa e4 bb
       0.023242654 0.12979552 -0.06718948 -0.006978279
0000a0 9d b9 a1 bd a9 9e 8c bd 5c 2f 26 bd 25 64 a8 bd
       -0.07896731 -0.068661995 -0.04057251 -0.08222226
0000b0 5d 74 f6 3d ea 2f e3 3d 73 06 b9 bd ef bf 75 3c
       0.12033913 0.11093123 -0.09034433 0.014999374
0000c0 7e 26 83 bc 90 5d 81 3c 85 d5 e8 3d ed a4 ec bb
       -0.016009565 0.015791684 0.113688506 -0.007221809
0000d0 ea d7 b8 bd 42 95 41 bd 10 47 d6 3d 38 90 2a bd
       -0.09025557 -0.047261484 0.10462773 -0.041641444
0000e0 f2 cb 0d 3e 7c a0 9c bd cc bd 1d 3d 79 1a 04 bc
       0.1384733 -0.076477975 0.038511083 -0.008062952
0000f0 23 fe 4c 3d 04 8f cb bd ce 74 08 3e d2 3c 37 bd
       0.05004705 -0.099393874 0.13325807 -0.044735737
000100 72 2a 44 bd 5a d1 b5 3d 0e 3a b0 3c a8 c6 e8 bd
       -0.04789204 0.08877821 0.021512058 -0.11366016
000110 3c 07 71 3d da 8d ea bd 52 d0 8e bd 99 e1 eb 3d
       0.05884479 -0.11452837 -0.06973328 0.11517639
000120 77 5e 7a 3d 15 3c c5 bd f5 c3 a2 bd 37 8d be bd
       0.061125245 -0.096306 -0.07947532 -0.09304278
000130 58 40 9c bd f0 01 16 3d aa 94 0c bd fc 87 3f 3c
       -0.0762946 0.03662294 -0.034321465 0.011690136
000140 68 fe d6 bd 0f cb d5 3c 7e 08 8a 3d 85 e0 2a bc
       -0.10497743 0.026097802 0.06739901 -0.010429506
000150 db 7d ab 3d 97 e3 64 3d 6c 75 b8 bd 39 2f 56 3c
       0.083736144 0.05588111 -0.090067714 0.013072782
000160 66 79 40 bd da 55 fb bd 91 19 f0 bd 6e ed 29 bd
       -0.046990775 -0.12272234 -0.117236264 -0.041486196
000170 38 25 78 3d c8 17 df bc e5 89 8e bd 99 0b 0b 3d
       0.06058237 -0.02723302 -0.06959895 0.033946607
000180 35 0e 00 bd 5b 0b 42 bd d1 c1 e0 3d 11 08 6d bd
       -0.03126355 -0.04737411 0.109744675 -0.05786902
000190 ef 1c 71 bd 99 bd a6 3b e6 42 a3 3d 1a 8e d9 bd
       -0.058865484 0.00508852 0.07971744 -0.10622807
0001a0 da 87 01 bd ed b1 34 ba d2 e2 e2 bd ef aa a0 3d
       -0.0316237 -0.0006892968 -0.11078419 0.07845103
0001b0 01 e7 37 bd fc c5 11 3c be 9f f2 bd e6 55 d8 bd
       -0.044898037 0.008897301 -0.11846875 -0.10563259
0001c0 59 1a ff bd f8 03 01 3b 25 11 cc bc db ee 8b bd
       -0.12456197 0.0019686203 -0.024910519 -0.068326674
0001d0 12 1f a7 bd 17 8e 74 3d c0 44 3e 3d 40 76 63 bd
       -0.08160223 0.05970582 0.046452284 -0.055532694
0001e0 a0 44 b2 bc ce 32 ea bc 47 28 4b 3d f2 63 64 ba
       -0.021761239 -0.028588679 0.04959896 -0.0008712403
0001f0 02 c3 48 3b 37 2a 08 3d 8e ba 95 3d cc 8b b3 3d
       0.0030633812 0.033243384 0.07310973 0.087668985
000200 f2 8d 89 3d a3 ab d2 bd 76 9f d7 bd 0e 70 a1 bd
       0.06716527 -0.10286643 -0.10528462 -0.07882701
000210 fd 98 ec bd 35 94 d7 3d 15 95 05 3e 99 67 3b 3d
       -0.11552618 0.10526315 0.13045152 0.045753095
000220 70 e6 99 bd c7 1b 3d 3d 8b 3b 05 3d 8b 55 80 3d
       -0.075146556 0.04616907 0.032527488 0.06266316
000230 fb 3e c4 3c e5 69 b8 bd 51 23 07 3e d2 cb 24 3d
       0.023955813 -0.09004573 0.13197066 0.04023344
000240 d0 38 ae bc 54 01 15 3d 7c 24 a0 3d b8 5d b1 3c
       -0.021267325 0.03637822 0.07819459 0.021651134
000250 3e ab 8c bd b9 a3 ca 3c 45 be b1 bd f2 6c b2 3d
       -0.06868599 0.024736272 -0.08678869 0.08712186
000260 35 2e 0e bd b7 ac 0d be f9 91 18 3d 2c be dd 3c
       -0.034712035 -0.13835417 0.037248585 0.02706822
000270 7b 75 7e bd c6 9b c1 bd b2 3b 36 3b 57 b3 03 be
       -0.062123757 -0.094535396 0.0027806577 -0.12861381
000280 c7 5a ed bd 82 e2 55 bd ff 72 7b 3d 04 71 f1 3d
       -0.1158958 -0.052217968 0.061388966 0.11789134
000290 fd 82 ba bd d6 26 68 3d 88 e6 26 bd d7 5c 6c 3d
       -0.09107015 0.05667766 -0.040747195 0.057705726
0002a0 1b 58 de bd 55 47 34 bd 98 47 af 3d 7c 25 46 bc
       -0.108566485 -0.04401334 0.08558577 -0.012093898
0002b0 ef 46 31 bd f5 2e bd 3c 28 41 b5 3d 9b a6 88 3d
       -0.04328054 0.02309368 0.08850318 0.066724025
0002c0 b3 ea ea bc 46 03 2f bd ba ca 95 bd 60 68 93 bc
       -0.028676366 -0.04272773 -0.07314058 -0.017994106
0002d0 86 31 15 bc 82 f9 59 bd e6 29 82 3d c7 90 ac 3d
       -0.009106046 -0.053216465 0.06355648 0.084260516
0002e0 4f 85 92 bc bb 2f d7 bd d4 53 45 3c fd 1b 0e 3d
       -0.017885832 -0.10507151 0.012043912 0.03469466
0002f0 85 1d a7 3d da 03 f6 ba 5c b3 02 3d cd 48 bc 3d
       0.08159927 -0.0018769458 0.03190933 0.09193573
000300 25 0d cb bc ff cf 20 3d c8 74 ab 3c 24 5c d4 3d
       -0.024786541 0.03926086 0.02092971 0.10369137
000310 f2 ae a3 bd 7c 29 09 be 11 d2 f2 bc 12 69 da 3d
       -0.079923525 -0.13394731 -0.029641183 0.10664572
000320 30 e8 94 bd 84 98 89 bc e7 68 b7 3d 8c 94 bc 3c
       -0.07270849 -0.016796358 0.089555554 0.023020051
000330 28 24 d8 bc e4 9e 14 bb 04 83 55 3d 41 a6 e6 bc
       -0.026384428 -0.0022677714 0.0521269 -0.028155448
000340 37 da 17 3d fe 3c 82 bc db 3a 7d 3d ee 45 5a bd
       0.03707334 -0.015898224 0.061823707 -0.053289346
000350 a3 d5 86 3a fd 54 d8 bd c1 c8 4d 3d 46 d3 c8 3d
       0.0010287057 -0.10563085 0.050240282 0.09805922
000360 8d 34 b5 3b af 94 ad 3d 0f 6e 21 bc d8 ed 87 3d
       0.005529946 0.08475625 -0.0098529 0.06637162
000370 c0 5b 03 3d e4 07 a1 3d d5 a0 a7 bd d8 7b c2 3d
       0.03206992 0.07862833 -0.08184973 0.094962776
000380 cd d2 e1 bd a3 7a 90 3d b7 ef f1 3c f8 65 b1 bc
       -0.11026535 0.07054641 0.02953325 -0.021655068
000390 45 37 0f 3e 29 96 8c 3d d7 1a e9 3c e1 cc 10 be
       0.13985927 0.06864578 0.028455181 -0.14140655
0003a0 f2 17 92 bd 34 9d bb bd 6a 54 3d bc 2a a9 14 bd
       -0.071334735 -0.091608435 -0.01155577 -0.03629414
0003b0 ef dd 96 bd 75 32 5f bd 3a 39 9e bd e3 75 f3 bd
       -0.07366549 -0.05449148 -0.07725759 -0.118877195
0003c0 1c 51 01 bd d3 6b 47 bd 4b b7 e3 3c 1a af ad 3d
       -0.031571493 -0.048686814 0.027797362 0.084806636
0003d0 c1 25 71 bd f3 04 9b bd 6e 25 d5 bc 78 e7 57 bc
       -0.058873896 -0.07569303 -0.026018824 -0.013177745
0003e0 cc 16 b8 3c 9f cc 20 bd 21 28 34 3c 41 88 08 3d
       0.022471808 -0.039257642 0.010995896 0.033333067
0003f0 0a a5 7f bd 72 c3 4e bd 5e 2b 8d bd 65 9e bc bd
       -0.062413253 -0.05047936 -0.06893037 -0.09209899

gru.bias_ih_l0 f4 [192]
000000 a7 21 a0 3d 5b c3 65 bd 79 40 be bc 85 7b af ba
       0.07818919 -0.05609451 -0.023224102 -0.0013388252
000010 cc 76 32 3d 56 81 b4 bd e0 57 e4 3d ad 46 ec bd
       0.043570325 -0.08813731 0.11149573 -0.11536918
000020 8d 24 e3 3d 5c a9 8c bd 59 dc 99 bd 17 b0 af bb
       0.11090956 -0.0686824 -0.07512731 -0.0053615677
000030 cf f6 b3 bd 64 6d 9b 3a e1 33 14 bd c1 a6 84 bd
       -0.087873094 0.0011858162 -0.036182288 -0.06477118
000040 f7 fc 81 3d d3 25 1f 3d f3 44 02 3e 2e 62 ac 3c
       0.06347077 0.03885443 0.12721615 0.02104291
000050 3d 90 04 3d 80 fa 48 bd fb ed 3f 3d f4 05 ac 3d
       0.03236412 -0.04906702 0.046857815 0.08399573
000060 98 9f 85 3d 77 bd 4b bc ab cc 47 bc 1c 9a be bd
       0.06524581 -0.012435309 -0.012194793 -0.09306738
000070 56 fa fa 3d 35 c3 28 bd 4a 21 10 bd 3c b3 58 bd
       0.12254779 -0.04120179 -0.035187997 -0.052905306
000080 97 f6 61 3d e3 65 91 bd cc 83 7e 3b 11 9a 97 3c
       0.055166807 -0.070995115 0.0038835881 0.018506082
000090 5f a1 ac 3d a8 50 93 3d 17 c4 2a bd 50 27 7c 3b
       0.084292166 0.07193118 -0.041690912 0.003847558
0000a0 af 62 88 3d 65 71 1c bd 0b bc 5d bd 98 2a 94 3d
       0.066594474 -0.03819408 -0.05413441 0.072346866
0000b0 a7 12 70 3b d3 e3 01 3e 39 89 ca 3c b5 99 a2 3d
       0.0036632211 0.12684564 0.024723636 0.079394735
0000c0 f4 28 14 3e eb f9 af bd 7e f3 ac bd a5 d6 d6 3d
       0.14468747 -0.0859259 -0.0844488 0.10490159
0000d0 02 8e 5e 3d 7d 13 50 3d 4a 74 ab bd 61 d0 a3 bd
       0.054334648 0.050799835 -0.0837179 -0.079987295
0000e0 ab af ae bc 1f 4d a6 bd 63 ca 2d 3b 85 51 fd bd
       -0.021324 -0.081201784 0.0026518337 -0.12369064
0000f0 03 ac de b9 a6 68 ae 3d a8 1c 82 3d 1e d5 d8 3d
       -0.00042471298 0.08516054 0.06353122 0.10587524
000100 ca 13 1e be 58 0c bb bd 38 39 87 bd ed a2 17 be
       -0.15437236 -0.09133214 -0.066027105 -0.14808245
000110 7e 47 39 be 9f ab e1 bd 68 02 6f be 3e c5 49 bd
       -0.18093678 -0.11019062 -0.23340762 -0.04926037
000120 f0 e3 41 be 3b c3 a2 be 40 43 0a be 5b 8a 34 be
       -0.18934608 -0.31789574 -0.13502216 -0.17630903
000130 db 1b d4 bd 9a 76 94 be 28 1a 1d be 0a 12 49 bc
       -0.103568755 -0.28996736 -0.15342009 -0.012272367
000140 45 b8 3c be f4 18 ab bd 0b 6b 86 be f4 33 32 be
       -0.18429668 -0.08354369 -0.26253542 -0.17402631
000150 77 d9 f9 bd de ec 19 3d 55 82 83 be f8 46 b6 bb
       -0.12199681 0.03757941 -0.25685373 -0.0055626594
000160 15 39 2e be ab 81 93 be 39 a7 c1 be 6b bc a8 bd
       -0.17013963 -0.28809866 -0.37822893 -0.08239063
000170 c1 ef 00 be 9b 42 c4 bd d1 b2 b0 bd 0e 40 86 be
       -0.12591459 -0.095830165 -0.086278565 -0.26220745
000180 78 ac 6b be b4 59 06 be 79 7e 07 3e a4 00 10 be
       -0.2301501 -0.13120157 0.13231839 -0.14062744
000190 92 e4 96 be c2 76 06 be f7 da e1 bd 1f d3 27 3e
       -0.2947126 -0.1313124 -0.11028092 0.1638913
0001a0 f0 86 5e be 4c d6 2c bd ba 80 ae bd d9 88 7e be
       -0.21731162 -0.042196557 -0.085206464 -0.2485689
0001b0 dd 64 c8 3c c5 ba be bd 1b df 02 be 5b c9 d4 bd
       0.024462158 -0.09312967 -0.1278042 -0.10389968
0001c0 80 df 80 bd 0a 41 83 be f4 b1 83 bd 45 7d e6 bd
       -0.06292629 -0.25635558 -0.06430426 -0.11254362
0001d0 72 3c 76 be b9 38 f9 bd 60 10 3c be 61 14 2d 3d
       -0.24046496 -0.12169022 -0.18365622 0.042255763
0001e0 45 c6 94 be 9f 3c b0 be dc b9 ea bd 42 cc 34 be
       -0.29057518 -0.3442125 -0.11461231 -0.17656043
0001f0 a1 06 50 bd 64 ec f8 3d 98 17 bd bd 71 c8 67 be
       -0.05078757 0.12154463 -0.09233016 -0.22635056
000200 56 70 01 3d a1 a9 1f bd 32 9c c9 3d 2e 7a cf 3d
       0.031601273 -0.03898013 0.09844245 0.10130726
000210 1f 41 9c bd c0 bd f9 3d 6c b2 ad 3d d6 a2 ab 3d
       -0.07629608 0.12194395 0.08481297 0.08380668
000220 65 ff f7 3c 17 e0 0c 3d c3 d1 5f bd 31 06 a2 bd
       0.030273149 0.034393396 -0.054643404 -0.07911337
000230 2a 45 26 3d 93 a8 80 3d 9c c2 cd 3b 74 40 22 3d
       0.040593304 0.06282153 0.0062793028 0.03961225
000240 de 68 be 3d 68 bb e3 3d f0 12 be 3d 01 26 3b bd
       0.092973456 0.11119729 0.09280956 -0.04569054
000250 2a 95 ad 3d 67 5f e3 3c 7a d4 b5 bd ce 45 79 3c
       0.084757164 0.027755452 -0.08878417 0.015214397
000260 ea 8b ff bd 3c b8 11 bd 5f 1d ef 3d 47 5c cc bd
       -0.12477858 -0.03557609 0.11675524 -0.09978538
000270 7d 24 ad 3d be 43 81 3d d2 3b 97 bd 53 38 82 bd
       0.08454225 0.06311749 -0.07384457 -0.06358399
000280 83 c1 02 be 4e 31 1d bd 41 2b 76 3d 79 91 fa bd
       -0.12769131 -0.0383771 0.060099844 -0.12234778
000290 3e aa 0f be 1d 86 51 3d 75 74 48 3d e8 65 20 b9
       -0.14029786 0.05115329 0.048939187 -0.00015296752
0002a0 13 57 e9 bd 2a e4 58 3d fa 60 4b 3d 9a dd 44 3d
       -0.11393561 0.05295197 0.04965303 0.0480629
0002b0 fe 31 33 3c 44 34 6c bc 6e f1 21 3d d0 ee 81 3d
       0.010937212 -0.014416758 0.039536886 0.06344378
0002c0 3c 73 d0 bb 34 a1 84 bd 6d db 9c bc 47 4d 60 3c
       -0.0063613933 -0.064760596 -0.0191476 0.013690299
0002d0 2c e9 b0 3c 94 01 11 bd 3c 4e 17 bc 77 ac 09 3e
       0.02159556 -0.035401896 -0.009234961 0.13444696
0002e0 67 22 f8 bd 8a 20 c7 3d 7c 20 9c 3d 86 1b dc 3d
       -0.12115937 0.09723003 0.076233834 0.10747437
0002f0 27 97 59 3d 74 76 ef 3d dd 02 60 bd 63 1d 52 bd
       0.053122666 0.11692515 -0.05469023 -0.051297557

gru.bias_hh_l0 f4 [192]
000000 90 75 56 bd d9 46 90 3d 44 08 92 bd 38 f3 50 3c
       -0.05235821 0.07044763 -0.07130483 0.0127533
000010 4a 12 9d 3c de d5 c2 3d 17 e5 7a bd e3 a5 b7 3d
       0.01917376 0.09513448 -0.061253633 0.08967187
000020 77 08 07 3e d3 5d bb bc 1b 47 9a bc 1d 0e 97 bd
       0.13186823 -0.022871887 -0.018832734 -0.07375739
000030 23 b9 d0 3d a7 ed 32 bd 59 1d c3 bc 8a 43 83 bd
       0.10191562 -0.043683674 -0.023817705 -0.064093664
000040 f0 0b 01 be a6 63 ba bc 35 34 34 bd 56 a2 c2 bd
       -0.1260221 -0.022752594 -0.0439951 -0.095036194
000050 5d aa 98 bc 66 f3 a2 bd cb c4 46 3d bd 4a 20 3d
       -0.018635923 -0.07956581 0.04852752 0.039133776
000060 68 9c 2b bd 47 69 b2 3d 85 a3 0a bd e2 ca 7c 3d
       -0.041897207 0.08711486 -0.03384735 0.06171692
000070 3d 1b c3 bd 3a 0c 01 3c e8 27 69 bd 0c 05 80 3b
       -0.0952668 0.00787645 -0.056922823 0.0039068516
000080 2c 93 d2 3c 3c 4b 7b bd f2 1d bc bd 3a f4 b2 bd
       0.025704943 -0.061351046 -0.09185399 -0.08737989
000090 1f 48 24 3d 67 76 a0 bd 1b f8 f0 3c 96 4f 9e 3d
       0.040107843 -0.078350835 0.02941518 0.077300236
0000a0 91 b0 ac bd e3 84 cc bd 4e 97 90 3d 7a 8b 2a 3c
       -0.08432115 -0.09986284 0.07060109 0.01040923
0000b0 8b 62 42 bd aa e0 08 3e 07 e3 58 3b cd 59 9c bd
       -0.04745726 0.13366953 0.0033094303 -0.07634316
0000c0 3d e5 c4 3d 4d a6 a4 3d b9 5a b5 3d 83 d1 84 bc
       0.09614036 0.08039532 0.088551946 -0.016213184
0000d0 90 7c 5c bd 11 a5 bc 3d 90 55 08 3e 56 8a 67 3d
       -0.05382973 0.092111714 0.1331389 0.05652841
0000e0 7c 72 e1 bd f8 ca d0 3b 97 90 8c bc 0e 39 a0 3c
       -0.11008164 0.006371852 -0.01715879 0.019558456
0000f0 9b cc 24 3d 59 89 a8 3c aa 07 84 bc 27 02 af 3d
       0.04023419 0.020573305 -0.016116936 0.085453324
000100 98 0b ab bd 41 70 b6 bd ca 7b 52 be f0 75 4e be
       -0.08351821 -0.089081295 -0.20555034 -0.20162177
000110 9e 3a 92 bd 04 f0 6f be 3e 87 88 bd cb ec 1b be
       -0.071400866 -0.23431402 -0.066664204 -0.15227048
000120 ae 39 7b be 0c 13 4f be da ed 51 be 70 bd 78 be
       -0.24533722 -0.2022211 -0.2050089 -0.24291015
000130 94 ad 58 be 9f 31 82 be 40 da 89 bd 4d 74 2d be
       -0.21159965 -0.25428483 -0.06731081 -0.16938896
000140 8c 68 e5 bd 95 47 95 be ca 60 e2 bd af 8a 33 be
       -0.11201581 -0.29156175 -0.11053617 -0.17533372
000150 aa ba 0d be 92 a5 ba bd 3d b3 0d be 51 c7 d7 bd
       -0.13840738 -0.09113611 -0.13837905 -0.105360635
000160 4b ef 82 bd bc 19 95 be d5 6a a0 be 03 77 b0 bd
       -0.06393298 -0.29121196 -0.31331506 -0.0861645
000170 8e fc c6 bd f6 e2 aa bd ac 7b d0 bc 11 c3 54 be
       -0.0971614 -0.083440706 -0.025449596 -0.20777537
000180 16 5f a5 bd e6 b1 f3 bd f3 07 90 3b a0 16 b4 be
       -0.08074777 -0.11899166 0.004395479 -0.35173512
000190 27 d4 08 be 0b 74 a3 bd 78 c2 90 be 47 05 05 3e
       -0.1336218 -0.07981118 -0.28273368 0.12990294
0001a0 cb 53 85 be 93 72 56 be 20 6a c0 bd 83 bd 46 be
       -0.2604049 -0.20942144 -0.09395242 -0.1940823
0001b0 97 dc 60 3c 9d c1 90 bd 3a 74 99 be 4f 58 82 bd
       0.013724468 -0.07068179 -0.29971486 -0.063645
0001c0 10 f7 90 bd cd 59 14 be 41 1c 7a be 44 3d 14 be
       -0.070783734 -0.14487381 -0.2442484 -0.14476496
0001d0 b5 50 8e be 84 54 5c be b0 bf 52 be 72 73 84 3d
       -0.2779595 -0.21516615 -0.20580935 0.06467332
0001e0 8a 55 03 be bf 3e 85 be 3d 64 0a be 5d 25 82 be
       -0.128256 -0.26024434 -0.135148 -0.2541913
0001f0 b3 69 86 3d de 3d 53 bd b2 30 07 be 06 5b 3a be
       0.06563129 -0.051572673 -0.1320217 -0.18198785
000200 3c ec ed bd bd 3d a1 3a d2 76 83 bd 23 b8 8e 3d
       -0.11617324 0.0012301725 -0.064191476 0.06968715
000210 a3 0e 54 bd 76 91 af 3d 53 6a b4 3d 77 c8 bc bd
       -0.05177177 0.08572666 0.08809342 -0.09217923
000220 b9 a8 c4 bd 44 fc fd 3d f9 19 48 bd 12 26 b6 bd
       -0.09602494 0.124016315 -0.048852894 -0.0889398
000230 9d f6 bb bd ed 47 81 3d 4e 9f 0d 3c 91 22 8f bd
       -0.09177897 0.06312547 0.008643938 -0.06989015
000240 28 1d 48 3d ce db 76 bd e2 b3 f5 3c f2 23 e6 bd
       0.04885593 -0.060268216 0.029993001 -0.11237325
000250 1a 28 e8 bc 82 a9 e4 bd b8 1c 9c 3d 17 28 5e bd
       -0.028339434 -0.111651435 0.07622665 -0.05423745
000260 3c 14 a3 bd 00 0e fb bd 32 13 e0 3d 17 76 34 bd
       -0.07962844 -0.1225853 0.10941161 -0.04405793
000270 48 59 d0 3d 3f a8 b9 bd ec d9 b4 bd ec 01 df 3d
       0.10173279 -0.090652935 -0.08830628 0.108890384
000280 4e 87 c3 3c fe 48 8c bd 9d 88 9d bc a4 ff dd 3d
       0.02386823 -0.0684986 -0.019230181 0.10839775
000290 17 20 0b be 9a d5 72 3d 8c e4 03 3c d5 20 f3 3d
       -0.1358646 0.059285738 0.008050095 0.118714966
0002a0 74 f4 d0 bd 20 9d e0 3d 87 fb dd 3d de 37 f6 3d
       -0.10202876 0.10967469 0.10838991 0.120223746
0002b0 d9 63 55 bd b1 6f a6 bd 45 9b 52 3d 97 fa 67 3d
       -0.052097175 -0.08126772 0.051417608 0.056635465
0002c0 c6 69 c6 bd 46 47 f8 bd 25 b4 e8 3d e1 63 f6 bc
       -0.096881434 -0.12122969 0.11362485 -0.030076923
0002d0 6d 32 21 3d 4b c0 04 bc 1a 5d 17 3d 0a 9d e2 bc
       0.03935473 -0.008102487 0.036954023 -0.027662773
0002e0 ec 6c 18 3d fa 3b 73 bb 89 7a a9 3d 0b 76 84 bc
       0.03721325 -0.0037114606 0.08275325 -0.016169569
0002f0 ca 0f a8 3c c8 06 f7 3d d2 73 97 3d e0 1d 96 bd
       0.020515341 0.1206184 0.07395138 -0.07329917

gru.weight_ih_l1 f4 [192, 64]
000000 c1 f4 58 bd a7 8c bb bd 23 84 1d 3e e6 c0 b6 bd
       -0.05296779 -0.09157687 0.15382437 -0.08923511
000010 2c fa 63 bd 7c 37 c4 3d f2 fc 5d 3d 5d cc cf bc
       -0.055658504 0.09580895 0.054196306 -0.025366003
000020 8e ea c8 3d 6c 1f ee 3c d7 9b ed 3d 04 47 c2 3c
       0.09810363 0.029067717 0.1160199 0.023715504
000030 e8 ff bc bd 9f 48 08 3e 4a fb ff bd cf 02 5b bd
       -0.09228498 0.13308953 -0.124991015 -0.053469475
000040 c7 f5 72 3d 98 2d 2a 3e 58 15 af b9 b7 32 e3 3d
       0.059316423 0.16618955 -0.00033394503 0.110936575
000050 c5 af 08 bd 91 91 22 bd 2b f4 05 3e 85 93 22 bd
       -0.033370752 -0.039689604 0.13081424 -0.039691467
000060 1b 2b 2a be 37 21 80 bd 52 ba b4 3d 4a b1 45 3d
       -0.16618006 -0.06256335 0.088246 0.04826478
000070 c1 04 99 3d 71 84 4f bd 80 cc 05 3c 7c f9 2d 3d
       0.0747161 -0.050663415 0.008166432 0.042474255
000080 05 5f a9 3d 8e f1 d0 bd 37 cd 12 3d 43 19 f1 bd
       0.08270077 -0.10202323 0.03584024 -0.117723964
000090 12 e3 23 3d d2 f0 01 be 48 dc 79 bd 28 b1 e6 3d
       0.040011473 -0.12689522 -0.061001092 0.112642586
0000a0 31 03 62 bc 4d e5 f6 bd 72 81 e6 3c 9a 8e ba 3d
       -0.013794706 -0.120554544 0.028137896 0.0910923
0000b0 76 d9 fb 3d 2c ac 61 bd 39 35 d6 bd 49 2f bb 3d
       0.12297337 -0.055095837 -0.1045937 0.09139878
0000c0 d7 af 01 be 66 7b e6 bd ec 6b 70 bb 43 0c f2 3d
       -0.12664734 -0.11254005 -0.003668542 0.11818745
0000d0 aa 06 ca bd e4 15 3d bd 1a 72 14 be 48 1f e8 3d
       -0.09864552 -0.046163455 -0.14496651 0.113340914
0000e0 e3 c8 1e be 05 f8 d3 3c da 39 fb bc 77 fe b9 bb
       -0.1550632 0.0258751 -0.030667234 -0.0056760865
0000f0 ff 41 54 bd 1a fd 8d bd cd 0e d8 bc af 0a a2 bd
       -0.05182075 -0.06933041 -0.026374245 -0.07912194
000100 12 97 bc 3d 15 2f b5 3d 7a f4 74 bc 50 60 93 3d
       0.09208502 0.08846871 -0.014950866 0.071961045
000110 08 c5 c8 3d a0 0f 79 3c 4c ac 02 be 72 f7 8b 3d
       0.09803206 0.015201479 -0.12761039 0.06834306
000120 6b fa 86 bc 15 01 2d 3b 37 8f 81 bc 85 c0 8b 3d
       -0.01647683 0.002639835 -0.01581536 0.068238296
000130 aa a1 a6 bd 29 e1 97 3c 0a 43 44 bd 71 e5 f2 3d
       -0.08136304 0.018539982 -0.047915496 0.11860169
000140 c0 9d 8c 3c 16 7e 70 bd 15 ee 9e 3c 97 f1 d0 3d
       0.017165065 -0.058713995 0.019400636 0.102023296
000150 35 71 11 3c b7 1f b6 bd 0a 4a be 3d a8 c9 c9 bd
       0.008877088 -0.08892768 0.092914656 -0.09852916
000160 ab 04 d3 bd 02 a7 ad 3c 57 2f 81 3d 27 5e ad bd
       -0.10303625 0.0211978 0.063078575 -0.08465224
000170 f2 c3 88 3d 31 4f a9 3d 5c d6 c3 3d 36 29 1c 3e
       0.066779986 0.08267058 0.0956237 0.15250096
000180 05 cf c6 3d f6 1c a9 3b 4f c2 d0 3d 33 bf ed bd
       0.097074546 0.005160923 0.101933114 -0.11608734
000190 59 be a3 3d be d4 68 3a c1 f0 c5 3d 3d 86 e2 3d
       0.0799529 0.0008881799 0.09665061 0.1106076
0001a0 da 93 be bd 63 42 b3 3d 68 dd 1f bc 23 4f 7c bd
       -0.09305544 0.08752897 -0.009757377 -0.06159891
0001b0 a1 9c 16 3d d1 3f 97 3c 4c 9e 55 3d 48 ad c4 bb
       0.036770467 0.018463047 0.052152917 -0.006002102
0001c0 45 b0 ab 3d 02 08 7a bd 41 f5 06 be b2 a5 a8 bd
       0.0838323 -0.061042793 -0.13179494 -0.08234729
0001d0 35 eb 62 bd 77 b4 b8 3d 9a 2a 03 3d e7 93 a0 bc
       -0.055400092 0.09018796 0.03202305 -0.019601775
0001e0 9a 3d a4 3d 94 61 01 3e af 1b 04 3d 05 db f0 3d
       0.08019562 0.1263488 0.032252964 0.11760525
0001f0 6d e3 c4 bd a8 ea c6 bd fb 13 7d bd 55 75 c3 bb
       -0.096136905 -0.09712726 -0.061786633 -0.005964915
000200 96 a4 9b 3c 77 a0 6d bd 60 c9 41 bd f5 95 7a 3c
       0.01899938 -0.05801436 -0.047311187 0.015294542
000210 88 8a cd bd f3 44 87 bd a3 5a 58 3d 80 4a f7 3c
       -0.10036188 -0.06604948 0.052820813 0.030186892
000220 ac 88 8e 3d 2a 54 8e bb ac b8 27 3d 5c 84 9b 3d
       0.06959662 -0.004343529 0.0409476 0.07593605
000230 7b 5c b2 bd 10 40 68 bd b0 26 ec ba 9c 53 45 bd
       -0.087090455 -0.05670172 -0.0018016901 -0.04817544
000240 f8 27 5b 3d ca 4b 23 be 1a e1 7a 3d 04 26 8b 3d
       0.053504914 -0.1594688 0.06124983 0.0679436
000250 2e 55 41 bb bb 0f d0 3d c6 d3 df bd bc 45 88 3d
       -0.0029500234 0.1015925 -0.109290645 0.06653926
000260 cc be d0 3c 58 b8 ed bc bb 19 28 be 7e af e7 bc
       0.025481604 -0.029018566 -0.16416065 -0.028281923
000270 f5 05 26 be 98 15 9a 3c 1a a9 aa bc ec 8c b7 bb
       -0.1621321 0.018809125 -0.020832587 -0.005601516
000280 60 4c 11 bd e3 d5 22 3d 14 80 45 bd d5 13 1e 3e
       -0.035473228 0.03975476 -0.048217848 0.15437253
000290 60 41 57 3c c3 aa b3 3d cf f1 9c bc b0 4a 16 bd
       0.013138145 0.087728046 -0.019158272 -0.03669232
0002a0 66 67 09 3d ed 3f fb 3d 21 9f af bd 83 eb 99 bd
       0.033545874 0.12268052 -0.08575273 -0.075156234
0002b0 c4 1b 90 bd 59 0c b2 bc e6 e5 11 3e 49 3e 68 bc
       -0.07036546 -0.021734403 0.14247856 -0.014175006
0002c0 a5 6a 14 3e 99 44 0a 3d a5 1a dc bd 07 58 94 ba
       0.14493807 0.033756826 -0.107472695 -0.0011317738
0002d0 16 cc 13 3d 17 be 46 3d b7 9d 13 bc 9d 84 92 3c
       0.036083303 0.048521128 -0.00900977 0.0178855
0002e0 d0 b5 a1 3d 67 bd 1e be f7 3b ba bd da ff 2b be
       0.07896006 -0.15501939 -0.09093469 -0.16796818
0002f0 2d 43 bd bd 02 df ff bd f1 c5 d2 bc fa 9f 9c 3c
       -0.092413284 -0.12493707 -0.025729151 0.019119252
000300 0b 7c c3 3d 6f 5e e6 3d 7b a3 c6 3d b3 03 6b bd
       0.09545144 0.112484805 0.0969915 -0.057376575
000310 02 48 a3 3c 14 51 cd bd 24 aa e2 bc 00 89 9f bd
       0.019931797 -0.1002523 -0.02766902 -0.077898026
000320 a2 89 45 bd 70 59 22 3d 5e f1 ea 3d 0a 03 39 3d
       -0.04822696 0.039636075 0.114718184 0.045168914
000330 c9 cf f2 bd 1b d1 63 bd 25 83 13 3d 14 ae 70 bd
       -0.11856038 -0.05561934 0.03601374 -0.058759764
000340 af d5 9e 3d 2e 1e 91 bd 5d aa cf bc 15 03 b7 bd
       0.07755601 -0.070858344 -0.02534979 -0.08936135
000350 86 f8 5c bd 18 4c 9a 3d 35 32 68 3d 64 57 bb 3b
       -0.053947948 0.07534045 0.056688506 0.005717205
000360 62 1c fc 3c 12 d6 00 3e 65 d1 08 3d 07 74 5c bd
       0.030775253 0.12581661 0.03340282 -0.05382159
000370 ba c0 14 3d 93 35 3c bd 54 e2 a5 3d 8b 16 37 3d
       0.03631661 -0.04594953 0.08099809 0.044699233
000380 3f c4 39 bd 88 f6 c9 3d bb f2 ae bc f3 a9 a3 bc
       -0.04535317 0.09861475 -0.021355977 -0.019978499
000390 00 cc 81 bd 54 34 09 bc 4e a1 99 bd 85 fe 06 be
       -0.06337738 -0.008374292 -0.075014696 -0.13183029
0003a0 c6 1b 64 bb f9 88 e0 bd b6 70 8c 3d ca 13 df 3c
       -0.0034806593 -0.109636255 0.068574354 0.027231116
0003b0 aa 30 0d 3e 1f 06 1c bc 7d 4a cc bd ba 3e a9 bd
       0.13788095 -0.009522944 -0.09975145 -0.08263917
0003c0 89 40 8a 3d 7e c1 05 3e 5b 9a 93 3d 45 a1 d3 bc
       0.0675059 0.13062093 0.07207175 -0.025833735
0003d0 b8 24 6d 3d 9d 3d 39 bd 2c 14 14 be d6 7d 85 3d
       0.057896346 -0.045224775 -0.1446082 0.06518142
0003e0 b1 8e 9e bd e9 44 84 bd 2f 7f 90 bc 2f 1f 44 3d
       -0.0774206 -0.06458456 -0.01763877 0.0478813
0003f0 c3 dd 2f bd 07 24 71 3d 15 12 e3 bd a9 c5 17 3c
       -0.042936098 0.05887225 -0.11087433 0.009263434

gru.weight_hh_l1 f4 [192, 64]
000000 56 5d ff 3d fd aa 1f 3e 48 0d 09 bc f8 76 85 3d
       0.12468974 0.1559257 -0.008364983 0.06516832
000010 be 31 f7 3d cb 1b 15 3e 7b 1f 2c 3d 27 74 83 3d
       0.120700344 0.14561383 0.04202221 0.06418639
000020 ff 01 0a 3e c8 90 87 bd 57 48 c8 bd 36 cb 8c bd
       0.13477324 -0.06619412 -0.09779423 -0.06874697
000030 23 ec ab bd 32 5c 5a 3d 0c 13 a1 3d 0b 9c 7a bd
       -0.08394649 0.05331058 0.07864961 -0.06118397
000040 63 ee fd bd 91 9d 67 bc 63 5a db bd 44 5e 36 3e
       -0.12398984 -0.014136688 -0.10710599 0.17809397
000050 97 75 15 be cb de 49 3d 39 64 1c 3d 10 10 e0 3d
       -0.14595638 0.049284738 0.038181517 0.10940564
000060 b6 d0 06 3e 0a 1d b1 3c 8c cc b6 3d fd a0 d2 3d
       0.13165554 0.021620292 0.08925733 0.10284612
000070 d6 2d df bc 8c c9 7c bd 14 fa 0e be fd 30 c3 bd
       -0.027243536 -0.061715648 -0.13962585 -0.09530828
000080 78 a8 69 3d 3d 0e c4 bb 18 66 4b bd f9 93 88 3d
       0.05704543 -0.0059831426 -0.04965791 0.066688485
000090 62 ea b4 3c 9a 0c c4 bd 14 88 b0 3d d1 51 9d 3d
       0.022084419 -0.09572716 0.08619705 0.07681621
0000a0 30 a2 0f 3e 84 10 e4 bd 61 cb 32 3d d1 8c 82 bc
       0.14026713 -0.111359626 0.04365099 -0.015936287
0000b0 dd 73 eb bc 24 80 03 3d be 2e 48 3d 2c 85 37 bc
       -0.028741771 0.032104626 0.0488727 -0.011201184
0000c0 23 cc 22 bd 0d ec 6d bc 11 3c 86 bd 47 d9 08 be
       -0.03974546 -0.014521611 -0.065544255 -0.13364135
0000d0 1f 7c 20 3e 9b 77 c3 bc 3b 40 2a be 30 ad 7b bc
       0.15672348 -0.023860743 -0.16626064 -0.015361115
0000e0 ee db be 3d 46 3a 77 bb 5f ba 12 3e 2f 48 07 be
       0.09319292 -0.0037723943 0.14328907 -0.1321113
0000f0 f6 5f 04 3e da cc f4 3d da 81 d6 bc 46 8a 0d 3e
       0.12927231 0.11953135 -0.026184965 0.13822278
000100 f1 97 71 3d 8a 32 a1 bd a8 05 a2 bd dd 90 5a bd
       0.058982793 -0.07870968 -0.07911235 -0.05336081
000110 b6 5c da bd 5d 05 b8 bb bd da ad bd 06 33 f1 bc
       -0.106622145 -0.0056158737 -0.08488987 -0.029443275
000120 55 fa 5e bd 85 19 ec 3d 4c 0c bc ba 46 4d a9 3c
       -0.054437954 0.11528305 -0.0014346926 0.02066673
000130 24 aa 3a 3d 04 f4 c8 bd e2 96 76 bd e6 fb f6 3b
       0.045572415 -0.09812167 -0.060202487 0.007537353
000140 92 b6 8f 3d e8 b5 f5 3d c4 94 84 3b 33 f3 bc bc
       0.070172444 0.119975865 0.0040460546 -0.023065185
000150 28 40 d3 bc 70 70 09 3d 08 49 bb 3d 51 41 9f bd
       -0.025787428 0.033554494 0.09144789 -0.0777613
000160 94 bb 19 bd 70 3e d7 bc 59 1b 91 3d b9 87 f9 bd
       -0.037532404 -0.02627489 0.07085294 -0.1218409
000170 2b 75 a2 bd f8 62 56 bd 2c 95 c3 bd b0 fc 14 3e
       -0.07932504 -0.052340478 -0.09549937 0.14549518
000180 2f e3 bb 3d b7 c7 39 bd c6 81 0e bc 85 90 67 3c
       0.09174191 -0.04535648 -0.008697933 0.014133577
000190 c6 b2 ec bd a2 95 27 bd 09 7f eb 3c 34 61 75 bd
       -0.11557536 -0.040914185 0.028747099 -0.059907153
0001a0 91 8c 26 bd 77 aa ab 3d 6e 58 be bd 0f 3e db bd
       -0.0406614 0.08382123 -0.092942104 -0.10705196
0001b0 a0 fd 1d 3d 21 a9 0a 3e 5b 91 b1 3b 58 83 12 bd
       0.038571954 0.1354108 0.005418939 -0.03576979
0001c0 70 2b 97 3b b3 22 bc 3d 0d 6d 98 bd 92 37 45 bd
       0.0046133325 0.09186306 -0.07442675 -0.0481487
0001d0 d9 89 0e be f8 14 49 bc b7 37 d8 bd d4 41 d4 3d
       -0.13919772 -0.012273066 -0.10557502 0.10364118
0001e0 95 d6 f9 bc d4 80 94 3d ba 41 a7 bd 6f e8 c7 3d
       -0.030497828 0.072511345 -0.08166833 0.0976113
0001f0 f0 25 95 bd e0 89 e0 3d 7c a3 e1 bd 7f 6f 0c 3d
       -0.07282627 0.109637976 -0.1101751 0.03428602
000200 1d 42 fa bd cc 55 89 3c 97 4f 20 bd 7c ed e2 bd
       -0.12219641 0.016764544 -0.039138403 -0.11080453
000210 0d af d6 3d 9e 61 22 bc e4 58 04 3e e4 5b 25 bd
       0.10482607 -0.009910969 0.12924534 -0.040370837
000220 ae 41 44 3c cf 5f ad 3d 36 d9 08 3d d4 fd 81 3d
       0.01197855 0.0846554 0.033410273 0.06347242
000230 d1 cc 63 3c 24 2b dc bd 0d f3 ea 3d 6b 86 74 bd
       0.0139038125 -0.10750416 0.114721395 -0.059698503
000240 b1 5e 04 3d bc 96 4b 3d 81 b2 ef bb 22 75 8d bd
       0.032316867 0.0497043 -0.0073149805 -0.06907107
000250 e1 8b aa 3c 5a 5e f2 3d 1b e3 ea bd 9e 1c 82 3c
       0.020818653 0.118344024 -0.11469098 0.015882786
000260 44 47 77 3c 9a 13 71 3d 91 b9 8e 3d c1 57 c1 bd
       0.015092675 0.058856584 0.06968988 -0.09440566
000270 7e 16 7c 3c 46 43 d8 bc 1a 6f 94 3d a1 b9 40 bd
       0.015386222 -0.026399266 0.072477534 -0.04705203
000280 4c 47 c7 bc 0b 1a e4 3d f2 b6 8f 3c af 67 d5 3b
       -0.02432599 0.1113778 0.01754329 0.006512604
000290 04 0b c6 3b 60 5d 3b bd b4 40 d8 3d 9b 2a 15 3d
       0.0060437936 -0.045743346 0.10559216 0.036417585
0002a0 a4 c7 a9 bd d4 b5 b0 3d fe b8 9c 3d 37 22 86 bd
       -0.082900316 0.08628431 0.07652472 -0.06549495
0002b0 5c c7 cc 3d 7a 22 a5 3d d0 3d a6 3d 56 6d e3 bd
       0.09998962 0.080632165 0.081172585 -0.111048386
0002c0 b8 c8 5d bd 9e d9 84 bd 62 53 65 bd 75 7c 02 3c
       -0.0541465 -0.0648682 -0.055987723 0.007964243
0002d0 ac 98 09 3c e8 88 4d 3d 5d 26 c9 bc 16 89 24 3d
       0.008398216 0.050179392 -0.024554426 0.040169798
0002e0 66 0c 88 bd 26 d1 c4 bd 60 7f ea bd d1 0f 6a bd
       -0.0664299 -0.096102044 -0.11450076 -0.05714399
0002f0 93 c3 5f bc c6 68 ec 3b 7e 3a 30 3d 0c da 00 3e
       -0.013657468 0.0072146384 0.043024532 0.12583178
000300 2c 05 0d bc e2 06 7c bc 40 c1 a5 3d 29 4d 96 bd
       -0.00860719 -0.0153825 0.080935 -0.07338936
000310 96 59 c0 bd 0b 8b f6 3c 03 c6 87 3d f4 36 f1 3d
       -0.09392087 0.030095598 0.066295646 0.117780596
000320 5e 38 34 3d 90 a4 97 bd f9 45 90 bd bf 65 a9 3a
       0.04399907 -0.07404435 -0.07044596 0.0012924
000330 8b 4b 38 bd 96 8d 48 3d 9c 78 bc 3c 19 d6 0c 3d
       -0.04499392 0.048963152 0.02300673 0.034383867
000340 86 89 8a 3d b9 1d b0 bd 6d b3 03 be 26 b5 0c 3d
       0.06764512 -0.08599419 -0.12861414 0.034352444
000350 04 a3 07 be e3 eb f7 3d 1f fe cb 3d 94 ad bb 3d
       -0.1324578 0.12105539 0.09960579 0.09163967
000360 b2 7b bd 3d 62 b4 e4 3d 6d 30 83 3d f4 06 ed 3d
       0.09252109 0.11167218 0.06405721 0.11573592
000370 61 aa 43 bd a9 0d 0e be 98 a6 8b 3d 6c 24 22 3d
       -0.047769908 -0.13872398 0.068188846 0.039585516
000380 61 4c 01 bd 9d a2 b4 3d d3 59 b1 bd f9 3f 8a 3c
       -0.03156698 0.088200785 -0.08659711 0.016876208
000390 91 71 0f 3e c4 1f ba bd f6 84 a2 3d 07 0d f3 bd
       0.14008166 -0.0908809 0.079355165 -0.11867719
0003a0 9e 14 b2 3d 52 d1 96 bd 08 f9 d2 3d 84 a5 e2 3d
       0.08695339 -0.073641434 0.10301405 0.11066726
0003b0 22 5d b8 3d c3 eb c5 bd 71 20 10 3e 79 39 0c 3d
       0.09002139 -0.096641086 0.14074875 0.034234498
0003c0 30 a6 0f 3e f2 05 c1 3d ca 78 3b bd 96 2b 68 3d
       0.14028239 0.09424962 -0.04576949 0.05668219
0003d0 f5 d0 ee bd f4 8f 00 be 3b 17 c9 bd 12 51 e4 3d
       -0.11660949 -0.12554914 -0.09818884 0.111482754
0003e0 bf b3 f1 bc e3 f9 84 3d 3e b2 c2 3d ce 55 04 3e
       -0.029504655 0.064929746 0.09506653 0.12923357
0003f0 95 83 64 bd d3 dc 42 3d 86 10 3b 3d a2 2d 1a bd
       -0.05578955 0.047573876 0.045670055 -0.037641175

gru.bias_ih_l1 f4 [192]
000000 47 2d 25 3d 66 df 90 bd 08 bf 9b 3c ee b2 18 3d
       0.040326383 -0.0707386 0.01901199 0.037280016
000010 5f c0 b0 bd ca fc 1a bd 6f 7f 8b 3d f3 97 84 bd
       -0.08630442 -0.037838735 0.068114154 -0.064742945
000020 d2 d9 a3 3d 27 be c0 bd 57 01 27 bc c4 83 90 bc
       0.0800053 -0.09411269 -0.010193191 -0.017640956
000030 f9 20 86 3d 99 a3 9a bb d8 66 87 bd ae 88 39 3d
       0.06549258 -0.0047192094 -0.06611413 0.045296364
000040 2e 98 db 3c 2f 2f ee bd 02 9c 6d bc d0 c0 cc 3d
       0.026805963 -0.11630093 -0.014502527 0.099977136
000050 c4 4f 9d bc d4 e3 be 3d 9a 7b 09 3d 0f 53 d5 bc
       -0.019203074 0.093207985 0.03356514 -0.026040582
000060 68 99 42 3d 01 7e 91 bd c7 fd 81 3b b3 c2 08 bd
       0.04750958 -0.071041115 0.00396702 -0.033388805
000070 89 d1 e6 3d c3 69 b5 bc 98 36 68 3b a7 88 84 3c
       0.112704344 -0.022145158 0.003543293 0.016178442
000080 67 db dd bd 6f c9 62 bd 4e ca f6 bd 52 46 ed 3d
       -0.10832863 -0.055367883 -0.12050305 0.11585678
000090 a6 8f ad bd 95 73 be 3d 24 32 01 3e df bc b3 3d
       -0.084746644 0.09299389 0.12616783 0.08776259
0000a0 00 12 b6 3c cc 0c c7 3d 28 ca 5e 3c 46 7f 76 bd
       0.02222538 0.09719238 0.0135980025 -0.06017997
0000b0 ac dc 74 3d ad f0 10 3d 51 f2 d0 3c ed fa db 3d
       0.05978076 0.035385776 0.02550617 0.1074122
0000c0 9b 39 db 3d c9 80 2a 3d 6a cb 29 3e 59 9e fd 3c
       0.10704347 0.041626725 0.16581503 0.030959295
0000d0 76 84 85 3d b7 76 ad 3d 13 af 59 3c da 5c e4 3d
       0.065194055 0.08469909 0.01328637 0.111505225
0000e0 77 00 ae bc 2f 4c 8c bc 76 a0 2e 3c 3d 93 07 3d
       -0.021240456 -0.01712617 0.010658374 0.0330994
0000f0 cf 90 d2 bd b9 95 4d bc 40 a2 d3 3c 26 90 79 bc
       -0.10281526 -0.012547904 0.025834203 -0.015232122
000100 16 e0 a8 3d e7 72 75 bd c7 7d da bd 7d 04 43 be
       0.08245866 -0.059924033 -0.106685214 -0.19044681
000110 f9 4f cc bc 77 4e e7 bd 2c 4d fd bc 62 a8 4b be
       -0.024940478 -0.11294263 -0.030920587 -0.19888452
000120 6c a5 c4 bd c7 55 6c be 29 d6 19 be 43 42 ec bd
       -0.09601864 -0.23079596 -0.15023102 -0.11536076
000130 0d 19 26 be 44 6d 1b be 83 a2 46 bd 49 d6 4d be
       -0.16220494 -0.151784 -0.048494827 -0.20101275
000140 73 12 cd bd 3f d5 12 bc 0e aa 19 bd 54 5c 9f bd
       -0.100132845 -0.008961975 -0.037515692 -0.07781282
000150 fa 27 67 bd ca bf 6a bd 73 2b a0 3d 3d 27 7f be
       -0.05643461 -0.05731181 0.07820787 -0.24917312
000160 16 d7 6e be 01 53 fe bd 1e d6 02 be cb 53 8f be
       -0.23324236 -0.124181755 -0.12776992 -0.27993616
000170 75 9b 1f be 86 73 15 be 35 71 24 be c2 e0 53 be
       -0.15586646 -0.1459485 -0.1605881 -0.20691207
000180 c1 c0 3a 3c f6 70 4c be 53 b1 85 bd 34 93 70 be
       0.011398495 -0.19964966 -0.065279625 -0.23493654
000190 70 3b 70 be ca 93 b6 bd 1b 4a 5f be bf cf 99 bd
       -0.23460174 -0.08914907 -0.21805613 -0.075103275
0001a0 0b 38 04 be 70 90 92 be 56 f7 86 be b4 be 8c be
       -0.12912004 -0.28625822 -0.26360577 -0.27489245
0001b0 ca f9 81 be 13 1a 89 be b6 b3 fe bd a8 a8 1c be
       -0.25385886 -0.26777706 -0.12436621 -0.15298712
0001c0 76 fa af 3d 63 2c e2 bd 73 74 e1 3c 2a e6 02 bd
       0.085926935 -0.11043622 0.027521348 -0.031957783
0001d0 58 54 62 bc 56 5a 8a be 43 49 a1 bd f9 5b 34 be
       -0.013814054 -0.27022046 -0.07875302 -0.1761321
0001e0 5e b1 c4 bd 8d 5a a9 3d fb 53 b1 bc 8c b6 07 be
       -0.096041426 0.08269224 -0.02164649 -0.1325323
0001f0 b1 23 46 be 48 39 8e be 94 3e 8b be fc 43 b4 bd
       -0.19349553 -0.27778077 -0.2719618 -0.088020295
000200 ff 13 e8 3d 64 46 ca 3d 5b 32 b3 bd aa b6 92 bd
       0.11331939 0.09876707 -0.08749839 -0.07163747
000210 f4 d3 0f 3c a8 35 cf 3d 49 24 95 bc 2d 81 58 bd
       0.008778561 0.10117656 -0.018205779 -0.052857567
000220 14 20 81 3d 39 2a 7b 3b cb c0 d2 bd 83 58 e4 3c
       0.063049465 0.0038324727 -0.102906786 0.027874237
000230 77 29 e8 3d 84 9c 02 bd b1 d3 1d bc 12 57 f9 3d
       0.11336034 -0.031887546 -0.009632991 0.121748105
000240 f2 ad dc 3d ad 15 bf 3d 50 b5 64 bb 41 90 e2 3d
       0.10775365 0.09330306 -0.003489811 0.110626705
000250 ec f8 df 3d c7 0d ab bd 85 31 09 bd 72 5c 0b bc
       0.1093615 -0.08352237 -0.03349449 -0.008505927
000260 2a a6 03 be aa 88 9f 3c 8f ef b4 3d 2c 9c 96 3d
       -0.12856355 0.019474346 0.08834755 0.07354006
000270 18 3f 82 bc 1f 2b 70 3d 8b ad d2 bc ce 1c 9a bd
       -0.015899226 0.058634873 -0.025717517 -0.07525025
000280 35 99 ec bd 70 62 75 3d d7 19 d5 3c 76 63 b4 3d
       -0.115526594 0.05990833 0.026013298 0.08808033
000290 c8 6d a7 bd 9e 86 a3 3d 3f e0 a9 3c 1e 16 de bb
       -0.08175236 0.079846606 0.020736812 -0.006777539
0002a0 c7 3b 8e bc bf 2b fa 3d 88 ed 34 3c 60 1f 2d bd
       -0.017362488 0.12215375 0.01104296 -0.04226625
0002b0 24 16 d9 bd a6 ae dc bd 7a bc d3 bd b7 2c 1c 3d
       -0.10599926 -0.10775499 -0.103386834 0.03812858
0002c0 38 91 e2 bd da 2c cd bd 19 8d b2 bc f9 4f ec 3c
       -0.110628545 -0.100183204 -0.021795796 0.028846728
0002d0 e1 b3 9c bc 6f 94 a1 bc d6 51 db bd 3b 72 0e bb
       -0.019128742 -0.019724099 -0.10708968 -0.0021735567
0002e0 57 61 be bd d0 7c c1 bd db bb ca bd 99 6b cb bd
       -0.0929591 -0.09447634 -0.09899112 -0.09932632
0002f0 5c 93 71 3c cb f9 ee 3d 5e df a1 bd 7d bb 4b bd
       0.014744606 0.11668738 -0.07903932 -0.04973935

gru.bias_hh_l1 f4 [192]
000000 e9 ef 91 3b 0a 58 f7 3d 4b 19 a4 3c ef b0 a0 3c
       0.0044536483 0.12077339 0.020031592 0.019615619
000010 fa 6c dd bd bb 38 61 3c ed 8b ad bc 4d c6 31 3d
       -0.10811801 0.013746436 -0.021184886 0.043402005
000020 6a 36 e6 bd 13 d2 f0 3d 6e c6 91 bd 42 07 6c bd
       -0.112408474 0.117588185 -0.071179256 -0.05762411
000030 66 ff 0e 3d ed 38 3d 3d 4b f4 9e 3d a7 e9 ad bd
       0.034911536 0.046196867 0.07761439 -0.08491831
000040 44 b4 d2 bd e1 fc a7 3c 4c f2 84 bd 3b 4b 85 3c
       -0.10288289 0.020506324 -0.06491527 0.016271224
000050 79 48 ad bd 50 09 e2 3c b9 4e fe 3d 84 6c ea 3d
       -0.08461089 0.027592331 0.12417359 0.11446479
000060 a4 f0 d1 bc 54 b2 01 bd cb e3 8b 3d b1 48 73 3d
       -0.025627442 -0.031664208 0.068305574 0.059395496
000070 c2 cf 45 bd b8 d7 5f 3d b8 4f 16 be 2c ad 86 bc
       -0.048293836 0.054649085 -0.14678848 -0.016439997
000080 c8 b2 c5 3d d8 45 f8 3b 62 72 ec 3d ea b7 b4 bc
       0.096532404 0.0075766854 0.11545254 -0.022060353
000090 bf 7f 0f bc bc 80 bf bd 0d 43 81 3c fd 0a a6 bd
       -0.008758484 -0.09350726 0.015779043 -0.081075646
0000a0 39 bc 78 bd a2 d3 b7 bd 7c 6e 1a 3d d1 5f 77 3c
       -0.060726378 -0.08975913 0.037703022 0.015098528
0000b0 d4 e4 c8 3d c7 4c 97 bc 4e 2a 2c 3d b2 b1 92 bd
       0.098092705 -0.018469227 0.042032532 -0.07162799
0000c0 ed 6d 58 3d 76 f3 c0 ba 29 77 1a 3e 07 a3 db bd
       0.05283921 -0.0014720995 0.15084518 -0.107244544
0000d0 8a 1e c8 bd b3 41 19 3e 60 33 b3 3d fa 75 a5 bc
       -0.0977145 0.14966469 0.087500334 -0.020197857
0000e0 3d 2a f3 bd 58 e5 c2 bd de 90 8f 3d 17 16 87 bd
       -0.11873291 -0.095164 0.07010053 -0.0659601
0000f0 97 3d 5e bd 3f 7f 58 3d 8d bc d0 bd 7b 89 e2 3d
       -0.054257955 0.052855726 -0.10192213 0.110613786
000100 ea a6 dd 3c 31 38 b8 bd 59 3b 74 bd 20 3d 6a bd
       0.02705713 -0.08995093 -0.05962691 -0.0571872
000110 f5 7c 1f be 9d 16 05 be 38 15 23 bd 23 1f 39 be
       -0.15575011 -0.12996908 -0.039815158 -0.18078284
000120 ff 9e 3e be 40 83 49 bd d6 65 ee bd 04 96 8b be
       -0.1861534 -0.049197435 -0.116405174 -0.2726289
000130 68 53 14 bd c1 09 2f be 3b c2 2c bd 94 18 9c bc
       -0.036212355 -0.17093565 -0.04217742 -0.019054689
000140 05 5c 45 be 1d a7 63 be d0 ab fb 3d a7 f1 21 bc
       -0.19273384 -0.22231717 0.1228863 -0.009884275
000150 35 28 31 be 0a 4c 2d bd 0a ea 0a 3e 24 72 2a bd
       -0.17300494 -0.042308845 0.13565841 -0.04161276
000160 00 8d 02 bd 04 1a 8e be 6a ef 3b be f4 6c 86 be
       -0.03187275 -0.27754223 -0.18353048 -0.26255
000170 78 3b 0e bd 96 77 74 be 2a c4 09 be 4f e0 19 be
       -0.034724683 -0.23873743 -0.13453737 -0.15026973
000180 6b e2 60 be 0c 31 29 be e7 c3 df bc ae 91 d4 bd
       -0.21961372 -0.16522616 -0.027315093 -0.10379349
000190 5d 8f d4 bd 48 27 bd 3c f8 2a 59 bd d3 3d 38 be
       -0.10378907 0.02309002 -0.053019494 -0.17992334
0001a0 b3 5f 6f be b6 e8 08 be 6c 47 60 be 23 3b 76 be
       -0.2337635 -0.13370022 -0.21902245 -0.24045996
0001b0 5c 9f e0 bc 0e 0b 7e bd 0f 0b 07 be 4f 76 d0 bd
       -0.027419738 -0.06202226 -0.13187812 -0.101788156
0001c0 22 01 10 3e 6b 47 99 bd 71 b9 22 3d 1f d3 13 be
       0.14062932 -0.07484325 0.039727632 -0.14436005
0001d0 12 be 47 be 90 f5 7f bd b9 9f 2f be 7a 64 42 3c
       -0.195061 -0.062490046 -0.17150773 0.011864776
0001e0 1b 8b 13 be 27 26 9e 3d 90 42 39 be ae ac 50 bd
       -0.14408533 0.07722121 -0.18091798 -0.05094593
0001f0 73 df 9c be 17 bb e6 bd 0d b4 79 be f2 a9 fe bd
       -0.30639228 -0.11266153 -0.2438509 -0.12434758
000200 e2 45 de 3d 64 2b 95 3d 33 7b cb 3c ce 60 f2 3c
       0.10853173 0.07283667 0.02483902 0.029587176
000210 9a 9d 1a bd 97 8b 8e bd eb 2d f3 bc 9b 50 82 3d
       -0.037747957 -0.069602184 -0.029684981 0.063630305
000220 85 34 28 bd 81 b3 33 3c c8 06 b7 3d ae 55 2c 3c
       -0.04106571 0.01096809 0.0893684 0.0105184745
000230 f5 aa 12 bd b9 53 a7 3d 0d 0c 68 bd 42 d1 14 3d
       -0.03580757 0.08170266 -0.056652118 0.036332376
000240 44 36 bf 3d ff 03 6c bd a3 1a 03 3e f1 09 99 3d
       0.09336522 -0.057621 0.1280313 0.07472599
000250 18 a4 39 bc af f7 eb bc 4f b5 ed bd 65 9a 90 bd
       -0.011330627 -0.028804628 -0.116068475 -0.070606984
000260 3b da e8 3c b6 0a 94 3d 49 df 22 3c 2f c1 05 bd
       0.028424373 0.072286054 0.009940931 -0.032654937
000270 58 c2 5f bd 3c 1b 3a 3d 32 cd 1d 3d 0b 27 71 bd
       -0.0546287 0.04543613 0.038525768 -0.058875125
000280 5f c1 a8 bd 87 a3 e2 bd 6a c6 db 3d 65 2d 52 bd
       -0.082400076 -0.110663466 0.10731204 -0.051312823
000290 3e b5 3c 3c 25 f5 2a 3d c3 fb 3a bd 7f 72 fe 3c
       0.011517821 0.041737694 -0.045650255 0.031060455
0002a0 2b 9c c8 bd 7e 34 9d bc 8a fd 96 bd 2f 01 bd 3d
       -0.09795412 -0.01919007 -0.073725775 0.092287414
0002b0 93 71 68 3d 45 7c e0 bd 4e 0e a2 bc 7c 92 e0 3d
       0.056748938 -0.109612025 -0.019782212 0.1096544
0002c0 69 a1 ec bd 35 5c c4 bd f9 c4 d9 bd 8f 4f 5c 3d
       -0.11554224 -0.095878996 -0.10633273 0.05378681
0002d0 bc 0d 2f 3d 5c ad df 3d 34 74 0a bd 81 fb f8 3c
       0.042737707 0.109217376 -0.033802226 0.030393364
0002e0 c5 15 12 bc 3d 22 d5 bc 3f a4 fd 3d 8a ee be bd
       -0.008916323 -0.026017303 0.12384843 -0.093228415
0002f0 a6 f2 9a 3d 5c f3 46 bc 79 14 6d bd ac d0 d6 bd
       0.07565813 -0.012142982 -0.057880852 -0.1048902

fc.weight f4 [1, 64]
000000 78 a3 0a bc 56 73 79 bd b0 fb 15 be 54 28 84 3b
       -0.008461826 -0.06090101 -0.14646792 0.004033128
000010 da a8 f6 bc c8 11 a7 bd 47 d8 fa bd ce 90 0b be
       -0.030109812 -0.081576884 -0.12248283 -0.13629457
000020 39 72 c0 bd c8 5c 05 be bf c0 ae 3d 28 32 08 3e
       -0.09396786 -0.13023674 0.08532857 0.13300383
000030 69 99 e4 bd e6 a1 12 be 94 52 be 3d bd 66 81 3d
       -0.11162073 -0.14319572 0.09293094 0.06318424
000040 16 03 81 3d 4e 65 84 3d 03 a1 85 3c 01 7f 7a bd
       0.06299417 0.06464635 0.016312128 -0.061156277
000050 d6 da 0b 3e ac 2d 8a bd 96 09 5f 3c e4 b8 7e bd
       0.13657698 -0.067469925 0.013613125 -0.062188044
000060 c7 d5 a8 bd e1 50 98 bd d9 0f de 3d b8 d5 d1 bd
       -0.082439 -0.074373014 0.108428665 -0.10245842
000070 4c 91 1f be f8 0f d1 bd dc 30 89 3d b1 32 e9 bd
       -0.1558277 -0.10208124 0.06698772 -0.11386622
000080 b8 bb 2f 3c 25 e6 14 3e c4 3f 05 3e 81 24 bf bd
       0.010725908 0.14540918 0.13012606 -0.093331344
000090 88 ee e3 bd 87 8f bf 3a 2d a5 0f 3e 6f 30 8a 3d
       -0.111294806 0.0014614918 0.14027853 0.06747519
0000a0 5c 75 96 bd 9c a7 b0 3d df 3a 23 be ab 71 3e bd
       -0.07346603 0.08625719 -0.15940426 -0.04649512
0000b0 c5 c0 a8 bd 20 65 b2 bd 32 2b 7e bd cd ba c6 bd
       -0.08239893 -0.08710694 -0.062052913 -0.09703598
0000c0 f4 c0 37 bc fe 4e 66 bd 08 c5 00 3d 46 43 b6 3d
       -0.011215437 -0.056227677 0.031437904 0.0889955
0000d0 75 33 3f bd 0d a2 ca 3d 68 9d 9c 3d cb bf b7 3c
       -0.046679933 0.0989419 0.0764721 0.022430321
0000e0 3c 71 91 bd 3c ce cf bc 56 0c 49 bd 52 be 56 3d
       -0.07101676 -0.025366895 -0.04908403 0.052427597
0000f0 bc c3 0d be bf 6a ee bd 03 07 41 3d c2 13 2d bd
       -0.13844198 -0.11641454 0.047125828 -0.04225517
