data/models/linkANDbtc_gru.pth (torch, 155701 bytes, 9 tensors)

gru.weight_ih_l0 f4 [192, 1]
0	0xbb8e85fa	-0.0043494673
1	0x3ca0125b	0.019540003
2	0x3e028ff0	0.1275022
3	0x3d013c77	0.031551804
4	0x3d9aa0a3	0.0755017
5	0x3d349e60	0.04409635
6	0x3b308a3d	0.0026937865
7	0x3c0ee993	0.008722681
8	0x3d296a8d	0.04136138
9	0x3c01606e	0.007896526
10	0x3e4d641d	0.20057721
11	0xbd171189	-0.036881957
12	0xbc2a2b94	-0.010386366
13	0x3da81412	0.08206953
14	0x3c94017d	0.018067116
15	0x3d077163	0.03306712
16	0xbb3f7fc1	-0.0029220434
17	0xbd9db97c	-0.07701394
18	0xbd7d03dc	-0.06177126
19	0xbcdcdf2b	-0.026961884
20	0xbd18c033	-0.03729267
21	0xbde70342	-0.11279918
22	0xbc387dcb	-0.01126046
23	0x3d6a967a	0.057272412
24	0x3d99982d	0.07499728
25	0xbd662386	-0.05618622
26	0x3cd68b6b	0.026189527
27	0xbc1b0fcf	-0.009464218
28	0xbd1b8b2d	-0.037974525
29	0xbe018237	-0.1264733
30	0x3cbd2472	0.023088668
31	0xbda161b1	-0.07879961
32	0xbddf5f91	-0.109069
33	0x3d1bd321	0.038043145
34	0xbcec4692	-0.028842244
35	0xbd146848	-0.036232263
36	0xbdad443b	-0.084602796
37	0xbd38c4c6	-0.045109533
38	0x3d445aed	0.047938276
39	0x3cf524b2	0.029924724
40	0x3c8adf86	0.016952287
41	0xbdcda365	-0.10040931
42	0xbc3e45ac	-0.011613291
43	0x3cec32fa	0.028832901
44	0xbdb96096	-0.090516254
45	0x3e19bb79	0.15012921
46	0xbb62c996	-0.0034605018
47	0xbb9c3ca2	-0.00476797
48	0xbd6b17b7	-0.057395663
49	0x3b565a6b	0.0032707702
50	0xbd184c25	-0.037181992
51	0xbe16b636	-0.14717945
52	0x3e29465b	0.16530745
53	0x3dbbf077	0.091767244
54	0x3df11f4f	0.1177355
55	0xbd780bbd	-0.06055807
56	0x3d7e4678	0.062078923
57	0xbe01e203	-0.12683873
58	0xbde671c6	-0.11252169
59	0x3d6a7eeb	0.057249945
60	0xbe201220	-0.15631914
61	0x3c0989b7	0.00839465
62	0xbd1bbb7d	-0.0380206
63	0xbd80cb5a	-0.06288786
64	0xbdac57aa	-0.08415158
65	0xbe70135d	-0.23444887
66	0xbe1c7f0e	-0.15282843
67	0xbe47b7ac	-0.19503659
68	0xbde00951	-0.10939277
69	0xbde6391f	-0.11241364
70	0xbdc33a38	-0.09532589
71	0xbe6e0d66	-0.23247299
72	0xbe343a3b	-0.17600338
73	0xbe1a9508	-0.15095913
74	0xbe79bf7d	-0.24389453
75	0xbe557137	-0.2084397
76	0xbd20f7d7	-0.03929886
77	0x3e009ba8	0.12559378
78	0xbd8a5308	-0.06754118
79	0xbe57799d	-0.21042486
80	0xbdefb042	-0.117035404
81	0xbe4410ca	-0.1914703
82	0xbe389f7b	-0.18029587
83	0xbe249df0	-0.16075873
84	0xbe54300c	-0.20721453
85	0x3d1e56d5	0.03865703
86	0xbda5f451	-0.0810324
87	0xbe7b5547	-0.2454425
88	0xbd5f540d	-0.054523516
89	0xbe54ef61	-0.20794441
90	0x3b5fe268	0.0034162048
91	0xbe7a2648	-0.24428666
92	0xbe4fdbd4	-0.20298702
93	0xbe423cae	-0.1896846
94	0xbe0a512f	-0.13507532
95	0xbe4a1bf9	-0.19737233
96	0xbe6d050a	-0.23146453
97	0xbd6bdfe4	-0.057586566
98	0xbde829ee	-0.113361225
99	0xbe2374f6	-0.15962586
100	0xbdcef79f	-0.10105824
101	0xbd8f744d	-0.070046045
102	0xbdb61e21	-0.088924654
103	0xbe12b144	-0.14325434
104	0xbe393318	-0.18085897
105	0xbd920afc	-0.07131001
106	0xbd7b0ffc	-0.06129454
107	0xbdcd8a4e	-0.10036145
108	0xbe5f88cd	-0.21829529
109	0xbe773d9e	-0.24144599
110	0xbe044916	-0.12918505
111	0xbe4056a9	-0.18783058
112	0xbde0a43c	-0.10968825
113	0xbd358caa	-0.0443236
114	0xbddf093f	-0.108904354
115	0xbcc3ef7a	-0.023917902
116	0xbdae32e4	-0.085058
117	0xbe3172b8	-0.17328918
118	0xbe872f30	-0.2640319
119	0xbdbf33c7	-0.093360476
120	0xbe14408f	-0.14477752
121	0xbe27c7c4	-0.16384798
122	0xbe82de12	-0.2556005
123	0xbe4576b3	-0.19283561
124	0xbdb169ac	-0.086627334
125	0xbe359051	-0.17730834
126	0x3d45eb51	0.04832012
127	0xbd030e74	-0.031996205
128	0x3c187e1e	0.009307412
129	0xbe17f19b	-0.14838259
130	0x3d1a06db	0.037604194
131	0xbd8a35d6	-0.0674855
132	0x3df817f4	0.12113944
133	0xbda8285b	-0.08210822
134	0xbdb4c949	-0.088274546
135	0xbd5f19fb	-0.054468136
136	0x3e444759	0.19167842
137	0xbd2b4a3a	-0.041818835
138	0x3d7e473c	0.062079653
139	0x3df784f1	0.120859034
140	0xbd66d84e	-0.056358628
141	0xbd496012	-0.049163885
142	0xba3dc702	-0.00072394323
143	0x3dec7e14	0.11547485
144	0x3dd91062	0.10598828
145	0xbded90d2	-0.11599888
146	0x3d007661	0.031362895
147	0xbdfe4471	-0.12415398
148	0xbe1c54b7	-0.15266691
149	0xbceab5a7	-0.028651072
150	0x3dcec8c6	0.10096888
151	0xbd8e011c	-0.06933805
152	0x3e0c63d8	0.13709962
153	0xbe0f60b6	-0.14001736
154	0xbdceea72	-0.10103311
155	0xbdf2393f	-0.11827325
156	0xbe470c82	-0.19438365
157	0xbdf2a674	-0.11848155
158	0x3dd3b8ad	0.103379585
159	0xbdb9e21f	-0.09076332
160	0x3d88242b	0.066475235
161	0x3df88a28	0.12135726
162	0xbd80ae3c	-0.062832326
163	0x3da38779	0.07984824
164	0x3df045a5	0.11732034
165	0xbe008d0b	-0.12553804
166	0xbdb2b0c5	-0.08725122
167	0x3d91ee6c	0.071255535
168	0x3d32ff1d	0.043700326
169	0x3dc00bab	0.093772255
170	0x3dede0f5	0.11615173
171	0xbda0ca18	-0.07851046
172	0x3d4ef178	0.05052325
173	0x3e046c46	0.12931928
174	0xbe31442d	-0.17311163
175	0xbd8c2fba	-0.068450406
176	0x3db7674c	0.08955249
177	0x3e210551	0.15724684
178	0x3da074e9	0.07834799
179	0xbb8da2e3	-0.004322396
180	0x3e02f415	0.12788422
181	0xbe02f318	-0.12788045
182	0x3d6faa3e	0.058511965
183	0xbdade87f	-0.08491611
184	0xbe0886f2	-0.13332728
185	0x3d9c520f	0.07632839
186	0xbe0f11a5	-0.13971575
187	0xbd829b29	-0.06377251
188	0xbd4a3079	-0.049362633
189	0x3e0270bb	0.12738316
190	0xbcb5b490	-0.022180825
191	0xbd249b3d	-0.04018711

gru.weight_hh_l0 f4 [192, 64]
0	0x3dc831a5	0.09775094
1	0xbca73005	-0.02040864
2	0xbd8fc706	-0.070203826
3	0x3b892e12	0.0041864
4	0x3d6d6a51	0.05796272
5	0xbdd2bc0a	-0.10289772
6	0x3d4ae402	0.04953385
7	0x3d6880fe	0.05676364
8	0xbdb95879	-0.09050078
9	0xbdab8fc7	-0.08377033
10	0xbda8a38f	-0.08234321
11	0x3cc22551	0.023699434
12	0xbcc4f950	-0.024044663
13	0xbde62a5c	-0.11238548
14	0xbde19c37	-0.11016124
15	0xbc6f7b01	-0.014616729
16	0xbcd90d58	-0.02649562
17	0xbe0cb62d	-0.1374137
18	0x3cbc6cb3	0.02300105
19	0xbd4c0609	-0.049810443
20	0x3be30089	0.006927554
21	0xbd9fe984	-0.078082114
22	0x3d14bc8c	0.036312625
23	0xbda7af8a	-0.08187778
24	0xbd16d580	-0.036824703
25	0x3cc5d081	0.024147274
26	0x3d96c6bc	0.07362124
27	0xbdd37bcc	-0.10326347
28	0x3d79785b	0.060905796
29	0x3d330d45	0.043713827
30	0x3bd09763	0.006365703
31	0xbb1a9e35	-0.0023592834
32	0x3dd5771c	0.10423109
33	0xbdbf1f31	-0.09332121
34	0x3d93e289	0.072209425
35	0x3d547a7a	0.051874615
36	0x3dde21e5	0.108463086
37	0xbcd3739b	-0.02581196
38	0xbd357d5e	-0.044309013
39	0x3dbe6d68	0.09298211
40	0x3d66f2be	0.05638384
41	0x3e123761	0.14278938
42	0xbdd7b970	-0.10533416
43	0x3db5dd1e	0.088800654
44	0xbd9192e8	-0.07108098
45	0x3d5559ca	0.052087583
46	0xbc0910fe	-0.008365868
47	0xbcebcb50	-0.02878347
48	0xbd70183d	-0.058616865
49	0xbdaab0ec	-0.083345264
50	0xbe05639f	-0.13026284
51	0xbda7640f	-0.081733815
52	0xbc6f3bee	-0.014601691
53	0xbcf5e8a3	-0.030018156
54	0x3d8e84eb	0.06958946
55	0xbd31e83c	-0.043434367
56	0xbd1965c9	-0.037450586
57	0x3da1380b	0.078720175
58	0xbd5ccd26	-0.053906582
59	0x3ceb7bc3	0.028745538
60	0x3d50b9b6	0.050958358
61	0x3d86e5a0	0.06586766
62	0x3d95db3a	0.07317205
63	0x3c4570d3	0.012050825
64	0xbdbb1da2	-0.091365114
65	0x3d83a628	0.06428176
66	0xbbd8d9a0	-0.00661774
67	0x3cdce2bd	0.026963586
68	0x3e07f7cc	0.13278121
69	0xbd69c433	-0.057071876
70	0x3d8a27db	0.06745883
71	0xbce93b76	-0.028470736
72	0xbdae4b69	-0.08510477
73	0xbd74cd6a	-0.05976621
74	0xbcc9a1f2	-0.024613354
75	0x3dd1037a	0.10205741
76	0x3cc31b01	0.023816587
77	0xbe0d694b	-0.13809697
78	0xbe0da28f	-0.13831542
79	0xb9dc918a	-0.00042070105
80	0x3ca4f57c	0.020136587
81	0xbdbfeda6	-0.093715
82	0xbd623216	-0.055223547
83	0xbd00187f	-0.03127336
84	0x3bebcf81	0.0071963673
85	0xbdf876e1	-0.12132049
86	0xbddaa79d	-0.10676501
87	0xbcbaf459	-0.022821592
88	0x3db6059f	0.08887791
89	0xbc301cb4	-0.010749031
90	0x3d8f1760	0.0698688
91	0xbdcc3d90	-0.099726796
92	0x3dd93840	0.10606432
93	0x3c055ad0	0.008139327
94	0x3dabc2db	0.08386775
95	0x3d311aa7	0.04323831
96	0xbdaa47a5	-0.08314446
97	0x3d4a2a8c	0.049356982
98	0x3d93de68	0.07220155
99	0xbd29685e	-0.041359298
100	0xbdb4c878	-0.08827299
101	0x3cec73d4	0.028863825
102	0x3da45d4d	0.08025608
103	0x3bb3e0a5	0.005489426
104	0x3d69323f	0.056932684
105	0xbdfbf613	-0.12302794
106	0xbc678edd	-0.014133182
107	0x3da8975e	0.08231996
108	0x3d88c80c	0.06678781
109	0xbdf935cb	-0.12168463
110	0x3cffb498	0.031214043
111	0xbbc6735e	-0.0060562333
112	0x3d28ca8c	0.04120879
113	0xbc8ffd28	-0.017576769
114	0x3d9a2f85	0.07528595
115	0x3ce7e645	0.028308043
116	0xbdc10d1a	-0.09426327
117	0xbcd6c148	-0.02621521
118	0xbe03fa3e	-0.12888429
119	0xbdf1de94	-0.118100315
120	0xbdfd8c9c	-0.12380335
121	0x3e1696e8	0.14706004
122	0xbd90c947	-0.070696406
123	0xbd444f9d	-0.047927488
124	0xbd1920bf	-0.037384745
125	0x3db2c066	0.08728103
126	0x3d7dd2ff	0.0619688
127	0xbd137a12	-0.036005087
128	0xbdb15ff3	-0.08660879
129	0xbd208134	-0.039185718
130	0x3d9eb2b2	0.07748927
131	0xbca6be64	-0.020354457
132	0xbd5ab45c	-0.05339466
133	0x3d0f86ba	0.035040595
134	0x3d1cd87b	0.03829239
135	0x3da5d375	0.08096973
136	0xbd9392b6	-0.07205717
137	0x3deccc8c	0.11562452
138	0x3db59520	0.08866334
139	0x3c9c7c94	0.019102372
140	0x3d28331a	0.04106436
141	0xbd8a613a	-0.06756826
142	0x3deb9590	0.11503136
143	0x3dcd56f5	0.10026351
144	0x3e095bb6	0.13413891
145	0xbcc609d9	-0.024174618
146	0x3dee4baa	0.116355255
147	0xbc7fde82	-0.015617015
148	0x3db4db9b	0.08830949
149	0xbdbdde29	-0.09270889
150	0x3d7389c8	0.05945757
151	0xbdbc80b6	-0.09204237
152	0x3d7cd726	0.06172862
153	0xbe00e755	-0.12588246
154	0xbe3273ad	-0.1742694
155	0x3dc0ca43	0.09413578
156	0xbd20f5b5	-0.039296824
157	0x3c302e74	0.010753263
158	0xbd69aa4d	-0.057047177
159	0x3d5430bb	0.051804285
160	0x3e032375	0.12806495
161	0x3db311c4	0.08743623
162	0xbd51c1c5	-0.051210184
163	0xbd39b878	-0.04534194
164	0xbd922a5d	-0.071369864
165	0x3dacc4c0	0.084359646
166	0x3de5d969	0.11223108
167	0xbd4a55fe	-0.049398415
168	0x3d99e454	0.07514253
169	0xbdac3f5b	-0.084105216
170	0xbd40ef9e	-0.047103517
171	0x3d9d0328	0.07666618
172	0x3d353bce	0.044246487
173	0x3d104039	0.035217497
174	0xbc517ba3	-0.012785825
175	0xbdd66759	-0.10468931
176	0xbbd7d4b0	-0.0065866336
177	0x3d2c5516	0.04207333
178	0x3dd92bc2	0.10604049
179	0x3cccae44	0.02498544
180	0xbd45695c	-0.04819618
181	0x3d085af2	0.033289857
182	0xbdfb2707	-0.12263303
183	0x3dea2fab	0.11434873
184	0xbd9880fa	-0.07446475
185	0x3d1a34a0	0.037647843
186	0xbe004b22	-0.12528661
187	0x3d4281b2	0.04748697
188	0x3dc44c6a	0.09584887
189	0x3d6cbf06	0.05779936
190	0xbda6305e	-0.08114694
191	0x3df35c72	0.11882867
192	0xbb0f773f	-0.0021891145
193	0x3b07c14a	0.0020714574
194	0xbd6b3178	-0.057420224
195	0x3cb907a4	0.022586651
196	0x3d939326	0.07205801
197	0x3cd18ac3	0.025578862
198	0x3c8efdab	0.017454943
199	0xbd0f66e3	-0.03501023
200	0x3c6b61e5	0.014366602
201	0xbd753c58	-0.059872
202	0xbd2089ea	-0.039194025
203	0x3d593eab	0.05303828
204	0xbe09076e	-0.1338174
205	0x3c1b36df	0.0094735315
206	0x3d78b3d9	0.06071839
207	0xbc883e42	-0.01663125
208	0xbdd88c2a	-0.10573609
209	0x3d9da2b4	0.07697049
210	0xbd1c9da1	-0.038236264
211	0x3de1da43	0.11027958
212	0xbdfea247	-0.12433296
213	0x3b374701	0.0027965906
214	0x3d5de265	0.054170985
215	0xbb8f722c	-0.004377624
216	0xbd96f8bc	-0.07371661
217	0xbd90fdbc	-0.07079646
218	0xbb07a558	-0.0020697918
219	0x3d94f5fe	0.07273482
220	0xbc3ab951	-0.011396722
221	0xbd8a572e	-0.067549095
222	0x3bf9761f	0.007612958
223	0xbc34cc92	-0.0110351015
224	0xbdc55a3a	-0.0963635
225	0x3d8ee5d2	0.069774285
226	0x3d01be89	0.03167585
227	0xbda42298	-0.08014411
228	0xbb151a44	-0.0022751251
229	0x3dacd0aa	0.08438237
230	0xbb9b37f4	-0.0047368947
231	0xbd9f4588	-0.07776934
232	0xbd2d5ebc	-0.042326674
233	0xbd94e24b	-0.072697245
234	0xbde138c5	-0.10997156
235	0xbd05c667	-0.032659914
236	0xbd0cc580	-0.03436804
237	0xbc9d9344	-0.01923526
238	0x3ccc8dd6	0.024969976
239	0xbd7d03cc	-0.0617712
240	0xbd5705ce	-0.05249577
241	0xbbad670b	-0.0052918247
242	0xbd66f19f	-0.05638277
243	0xbd4b3c11	-0.04961783
244	0xbd8ae618	-0.06782168
245	0xbc9d530f	-0.019204644
246	0xbdd9a54e	-0.106272325
247	0xbc867773	-0.01641438
248	0x3cbc0ca8	0.022955254
249	0xbd1e60b1	-0.03866643
250	0x3d1f602f	0.038910087
251	0xbd27caac	-0.040964767
252	0x3d867025	0.065643586
253	0x3ac45858	0.0014979942
254	0x3d75590f	0.059899386
255	0xbcca206a	-0.02467366

gru.bias_ih_l0 f4 [192]
0	0x3dcdd0f1	0.10049618
1	0xbd3ca97c	-0.04606007
2	0x3d3f1d89	0.046659026
3	0x3c832a06	0.01601125
4	0xbe06b04c	-0.1315319
5	0x3d90f644	0.070782214
6	0x3dab85a3	0.083750986
7	0x3b18ae80	0.002329737
8	0x3c82b7dc	0.015956812
9	0x3c7a5369	0.015278676
10	0xbc984bec	-0.01859089
11	0x3db41a01	0.08794022
12	0xbd1919d5	-0.03737815
13	0x3d60f0a2	0.054916985
14	0x3de8cd9b	0.11367341
15	0xbd53c5b0	-0.0517022
16	0x3d9e6f30	0.07736051
17	0x3c4f0083	0.012634399
18	0x3e01b2b4	0.12665826
19	0x3bf99148	0.007616196
20	0xbd86358a	-0.065531805
21	0x3c1794f8	0.0092518255
22	0x3d0a56db	0.033774238
23	0x3d1e8cb3	0.0387084
24	0x3d415e98	0.047209352
25	0x3d7feb88	0.06248048
26	0x3d02922c	0.03187768
27	0xbce09225	-0.027413437
28	0xbddf3ddc	-0.109004706
29	0xbc5f39bd	-0.013624606
30	0x3dee0529	0.11622078
31	0x3d22b87b	0.039726716
32	0xbda4607c	-0.080262154
33	0xbcf25ad8	-0.029584333
34	0x3da86ea4	0.08224228
35	0xbdb73dae	-0.08947311
36	0x3d7fd496	0.062458597
37	0x3cd05dbf	0.025435327
38	0xbd75e84c	-0.06003599
39	0xbc907ed7	-0.017638607
40	0x3dcaed54	0.09908548
41	0x3dede0db	0.116151534
42	0xbda23917	-0.07921045
43	0x3d8ba13d	0.06817863
44	0xbd21f7a6	-0.039542817
45	0xbe0459ce	-0.12924883
46	0x3d50fdd3	0.051023316
47	0x3dddaa45	0.10823492
48	0x3cd94fed	0.02652737
49	0x3d851b19	0.06499309
50	0xbdd15daf	-0.10222947
51	0x3d81e31c	0.06342146
52	0x3d881227	0.06644087
53	0xbe1873c8	-0.14887917
54	0x3d83d6d8	0.064374626
55	0x3c7866c6	0.015161222
56	0xbcbd8f57	-0.023139639
57	0xbda573c5	-0.08078722
58	0xbe0e45f9	-0.1389388
59	0xbe07ea06	-0.13272867
60	0x3c0dbb0b	0.008650552
61	0xbde08870	-0.109635234
62	0xbe1ab2b6	-0.15107235
63	0x3cf2ddf7	0.029646857
64	0x3dc9dd73	0.09856691
65	0xbe9d6726	-0.3074276
66	0xbe33d4ae	-0.175616
67	0x3c891283	0.01673246
68	0xbe2bee2b	-0.16790073
69	0xbe20c08d	-0.15698452
70	0xbebfeef7	-0.37487003
71	0xbedb4da2	-0.42832667
72	0xbf15cd22	-0.5851613
73	0xbd866e2d	-0.06563983
74	0xbec55a08	-0.3854525
75	0xbe122781	-0.14272882
76	0xbec049a5	-0.37556186
77	0x3dc1f8a0	0.094712496
78	0x3df5969d	0.11991618
79	0xbe1a0fd6	-0.15045103
80	0xbec84213	-0.3911291
81	0xbe63448f	-0.22194122
82	0xbe50c767	-0.20388566
83	0xbe968008	-0.29394555
84	0xbde0c059	-0.109741874
85	0xbe358b01	-0.17728807
86	0xbe981811	-0.2970586
87	0xbecd0be3	-0.4004813
88	0xbe79748a	-0.24360862
89	0xbe73d176	-0.23810372
90	0xbea4dbcc	-0.32198942
91	0xbe82e079	-0.25561884
92	0xbf0d0a6f	-0.55094045
93	0xbe842298	-0.25807643
94	0xbedc2655	-0.42997995
95	0xbef33b26	-0.47506064
96	0xbe928de4	-0.2862388
97	0xbe5e20ea	-0.21692243
98	0xbe1c26c0	-0.15249157
99	0xbeada10f	-0.3391194
100	0xbe7e0632	-0.24807051
101	0xbe660bf9	-0.22465505
102	0xbebce638	-0.36894393
103	0xbeb25bff	-0.34835812
104	0xbe8965e5	-0.26835552
105	0xbe9f5476	-0.31119126
106	0xbe5b9f38	-0.21447456
107	0xbe79ca47	-0.24393569
108	0xbe82f117	-0.25574562
109	0xbe3ca267	-0.18421327
110	0xbea41888	-0.32049966
111	0xbe495fd3	-0.1966546
112	0xbe938622	-0.28813273
113	0xbe26448f	-0.1623709
114	0xbe01ebe7	-0.12687646
115	0x3e6a4f3d	0.2288179
116	0xbebccc54	-0.3687464
117	0xbec251e1	-0.37953094
118	0xbe50aa9c	-0.20377582
119	0xbea3d1a8	-0.31995893
120	0xbeb2f6b8	-0.34953856
121	0xbe8ba49f	-0.27274033
122	0xbeb01bee	-0.3439631
123	0xbe5973ba	-0.21235552
124	0xbe54218b	-0.2071592
125	0xbe95136d	-0.29116383
126	0x3e715c09	0.23570265
127	0xbe0b1858	-0.13583505
128	0xbdb05f47	-0.08611923
129	0x3d458f65	0.048232455
130	0xbd70445e	-0.05865895
131	0xbddfbcf8	-0.10924715
132	0xbdd3c95e	-0.10341142
133	0xbd3db165	-0.046311755
134	0xbb96f219	-0.004606497
135	0x3ad5815a	0.001628916
136	0x3caeae51	0.021323355
137	0x3db8a2e7	0.09015446
138	0x3d8fba65	0.07017974
139	0x3d70d156	0.05879339
140	0xbc63b9ea	-0.013899306
141	0x3d98723c	0.074436635
142	0x3d8dbaed	0.06920419
143	0x3de0b97c	0.10972878
144	0xbcf02345	-0.029313693
145	0xbdd3cb56	-0.103415176
146	0x3d2dc114	0.04242046
147	0xbcc9e122	-0.024643485
148	0xbdd1f16b	-0.10251125
149	0x3c602979	0.013681763
150	0xbd9f747b	-0.07785889
151	0x3db1cbfb	0.08681484
152	0x3d7f1768	0.06227818
153	0xbd057bb1	-0.032588664
154	0x3d9bb27e	0.07602404
155	0xbdd73d56	-0.10509746
156	0x3dd1d95b	0.102465354
157	0xbd02f090	-0.0319677
158	0xbb9366e3	-0.004498349
159	0x3bf03273	0.0073302328
160	0x3d853a60	0.06505275
161	0x3dc445c7	0.095836215
162	0xbdbb08d1	-0.09132541
163	0xbd550d25	-0.05201449
164	0xba8007a3	-0.0009767901
165	0x3d1641ba	0.036683775
166	0xbc8ac5f9	-0.016940104
167	0xbda20128	-0.07910377
168	0xbdbe902d	-0.09304843
169	0x3c88ac33	0.016683673
170	0x3d306fda	0.04307542
171	0xbd94a474	-0.072579294
172	0x3d07a19e	0.033113115
173	0xbc2ea567	-0.010659552
174	0x3c286b5e	0.010279505
175	0xbd7ff77e	-0.062491886
176	0xbde554af	-0.11197793
177	0x3d64916e	0.055802755
178	0xbd2bdadc	-0.041956767
179	0xbceec1e2	-0.029145185
180	0x3d92ccaf	0.071679465
181	0xbd402e54	-0.046919182
182	0xbb018146	-0.001976089
183	0x3bde1c50	0.0067782775
184	0x3db7eb9a	0.08980484
185	0xbddf24e3	-0.108957075
186	0x3d8c9ca0	0.06865811
187	0x3ce977a8	0.02849944
188	0x3db71206	0.089389846
189	0xbd89cbc9	-0.06728322
190	0x3d9183a0	0.071051836
191	0xbd1d5650	-0.038412392

gru.bias_hh_l0 f4 [192]
0	0xbcd35c16	-0.025800746
1	0xbd5072e5	-0.050890822
2	0xbda412d4	-0.08011404
3	0xbd31b350	-0.043383896
4	0x3c912b59	0.017720865
5	0xbd335f10	-0.04379183
6	0x3d95790e	0.0729848
7	0xbdfd7d24	-0.12377384
8	0x3d0974fc	0.03355883
9	0xbde382d2	-0.11108936
10	0xbcf3c080	-0.029754877
11	0x3d93ef45	0.072233714
12	0x3d680858	0.056648582
13	0x3d6b4e51	0.057447735
14	0xbda7cfb3	-0.08193912
15	0x3cde6154	0.027146019
16	0x3cc35b59	0.023847269
17	0x3d9bfba9	0.0761636
18	0x3d9ad7df	0.075607054
19	0x3d6c1ee0	0.057646632
20	0xbdebbe5a	-0.11510916
21	0x3cc7a791	0.024371894
22	0xbddc368e	-0.10752593
23	0x3bf99842	0.0076170275
24	0xbdb68ec9	-0.08913953
25	0x3d6de953	0.058083843
26	0x3ce3ebf0	0.027822465
27	0x3dafbb68	0.08580667
28	0xbdcfbb8f	-0.10143196
29	0xbdd2476e	-0.102675304
30	0xbd7be398	-0.061496347
31	0x3b06e2af	0.0020581891
32	0x3bfd1f2b	0.007724663
33	0x3aceaa6d	0.0015767344
34	0xbde35799	-0.11100692
35	0x3c854b12	0.016271148
36	0xbd941b7d	-0.072318055
37	0xbca485d1	-0.02008334
38	0x3ce6d6d5	0.028178612
39	0x3cf5981d	0.02997976
40	0xbd7dda34	-0.061975673
41	0x3dad8fc0	0.08474684
42	0x3cf699d6	0.030102652
43	0xbdbe1c1c	-0.09282705
44	0xbdf33e78	-0.11877149
45	0xbd89acec	-0.06722435
46	0xbda1fb8b	-0.07909306
47	0x3dbe16a6	0.092816636
48	0xbd2bdf88	-0.041961223
49	0x3dcc8e35	0.09988061
50	0x3de4e842	0.11177112
51	0x3d793665	0.06084289
52	0xbc74644c	-0.014916491
53	0xbe04c896	-0.12967142
54	0xbcb567c4	-0.022144206
55	0xbd9ebfa2	-0.07751395
56	0x3ca08018	0.01959233
57	0xbdcaeb73	-0.099081896
58	0xbe088c53	-0.1333478
59	0xbcb23f70	-0.021758765
60	0x3d7a68cf	0.06113511
61	0x3d506657	0.05087885
62	0xbd726bcb	-0.05918483
63	0xbdc13961	-0.09434772
64	0x3dcefbe9	0.10106642
65	0xbe9e5fa5	-0.30932346
66	0x3ce114bc	0.027475707
67	0xbd005d76	-0.03133913
68	0xbe2d01c0	-0.16895199
69	0xbddfb354	-0.10922876
70	0xbf016546	-0.50545156
71	0xbec2be21	-0.38035682
72	0xbf01c6d7	-0.5069403
73	0xbe1c17a7	-0.15243398
74	0xbef520cc	-0.47876585
75	0xbe4161fb	-0.18885033
76	0xbe6b8350	-0.2299931
77	0x3e815d7c	0.25266635
78	0x3e43a68d	0.19106503
79	0xbead5114	-0.3385092
80	0xbe79e863	-0.24405055
81	0xbe01ee70	-0.12688613
82	0xbe13e08a	-0.14441124
83	0xbe9e2622	-0.30888468
84	0xbe167ceb	-0.1469609
85	0xbe91d6e1	-0.28484252
86	0xbe4f1c22	-0.20225576
87	0xbedb6136	-0.42847604
88	0xbe9cdd00	-0.3063736
89	0xbe555602	-0.2083359
90	0xbe8c1249	-0.273577
91	0xbed0636f	-0.40700862
92	0xbf14113a	-0.57838786
93	0xbe68ada5	-0.2272249
94	0xbec9ecd1	-0.3943849
95	0xbee521e6	-0.44752425
96	0xbeafec54	-0.34359992
97	0xbe2fcf2d	-0.17168875
98	0xbe28c100	-0.16479874
99	0xbe86dc3c	-0.263399
100	0xbe5b629e	-0.21424338
101	0xbe39ab91	-0.18131854
102	0xbe8f1e09	-0.27952603
103	0xbe975bf7	-0.2956235
104	0xbe4027ae	-0.18765137
105	0xbe811905	-0.252144
106	0xbe857a4d	-0.2606987
107	0xbe52fffa	-0.2060546
108	0xbea38f9c	-0.31945503
109	0xbe6f76ab	-0.23385112
110	0xbebe0e2b	-0.37120184
111	0x3ca6621e	0.020310458
112	0xbe8dae58	-0.27672076
113	0xbd9dd37f	-0.07706355
114	0xbe8d6769	-0.27617958
115	0x3e004275	0.12525351
116	0xbebd20b5	-0.36939016
117	0xbe6e72e9	-0.23286022
118	0xbeac3204	-0.3363191
119	0xbe9a8393	-0.30178508
120	0xbecfe961	-0.4060774
121	0xbeaffd68	-0.3437302
122	0xbeacaa0b	-0.33723482
123	0xbe83f4bd	-0.25772658
124	0xbe268a05	-0.16263588
125	0xbe0131ec	-0.126167
126	0x3e7d994d	0.24765511
127	0xbe5126a7	-0.20424901
128	0x3d708ffa	0.058731057
129	0xbdc51e78	-0.09624952
130	0x3da5b38e	0.08090888
131	0x3c965e0b	0.01835539
132	0xbd81ff9f	-0.06347584
133	0x3d05dccb	0.032681268
134	0x3c247ff1	0.010040269
135	0xbd1a7e0a	-0.037717856
136	0x3d149f8f	0.03628498
137	0xbd983c65	-0.07433394
138	0x3d7b0166	0.06128063
139	0xbd49bf02	-0.049254425
140	0xbd8f578a	-0.069991186
141	0x3dea51ae	0.114413604
142	0xbd413f48	-0.04717949
143	0xbd83b905	-0.06431774
144	0xbd59c28f	-0.05316406
145	0x3dd68c1c	0.104759425
146	0xbcf9f240	-0.030511022
147	0x3c929f29	0.01789816
148	0x3dc508e2	0.09620835
149	0x3dc6110a	0.09671219
150	0xbc214e9a	-0.0098454
151	0xbbc97c2e	-0.0061488366
152	0x3e01fcec	0.12694138
153	0xbd97c89b	-0.07411309
154	0x3da1a4fa	0.07892795
155	0xbd263a81	-0.040583137
156	0xbd8cb11f	-0.06869721
157	0x3d528965	0.05140056
158	0xbba8b993	-0.0051490753
159	0x3da99791	0.08280862
160	0xbdab1bd2	-0.08354916
161	0xbc2edde2	-0.010673018
162	0xbd851d58	-0.064997375
163	0x3df40394	0.11914745
164	0xbd0c3582	-0.034230717
165	0x3dc7e29f	0.097600214
166	0xbdbd86a9	-0.092542
167	0x3dabbcc9	0.08385617
168	0x3dd3a498	0.10334128
169	0xbb8cceaa	-0.004297097
170	0x3d4433b8	0.047900885
171	0xbd0ce287	-0.03439572
172	0xbdce6932	-0.10078658
173	0x3d4f78e6	0.050652407
174	0x3d854025	0.06506375
175	0xbd7d3543	-0.061818372
176	0xbc3f039d	-0.011658576
177	0x3de119be	0.10991238
178	0xbde81d3a	-0.113336995
179	0x3dcab4e6	0.09897785
180	0x3dfc678d	0.12324438
181	0xbc46d0c2	-0.012134733
182	0x3d2ccb85	0.04218628
183	0xbda900dd	-0.08252118
184	0xbb60e2d6	-0.0034314892
185	0x3cc45c4f	0.023969797
186	0x3d22c581	0.039739136
187	0xbd42a004	-0.047515884
188	0x3d87e6da	0.06635828
189	0x3d9e9093	0.07742419
190	0x3d9ff4a5	0.07810334
191	0x3d30d86f	0.043175157

gru.weight_ih_l1 f4 [192, 64]
0	0x3da3d41a	0.079994395
1	0x3deda9f1	0.116046794
2	0xbd9233a5	-0.07138757
3	0xbc89d096	-0.016823094
4	0xbda770ec	-0.08175835
5	0x3df3bf89	0.11901767
6	0x3d165696	0.03670367
7	0xbd323773	-0.04350991
8	0x3b68d024	0.0035524452
9	0x3c868af3	0.016423678
10	0x3cce9976	0.02521966
11	0x3d2fad16	0.042889677
12	0x3db98730	0.09058988
13	0xbdd77317	-0.105199985
14	0xbd6d4836	-0.057930194
15	0xbc94f5fd	-0.018183703
16	0xbdf36374	-0.118842036
17	0x3dc6dc06	0.09709935
18	0x3d85dbe7	0.06536084
19	0xbc019b10	-0.007910505
20	0x3dbeb769	0.093123265
21	0xbc4ec9f6	-0.012621393
22	0xbe0cb120	-0.13739443
23	0x3dca4feb	0.098785244
24	0x3d23eff1	0.040023748
25	0x3d83b056	0.06430118
26	0x3c8999f6	0.016797047
27	0x3e35e3c2	0.17762664
28	0x3e6b8ad6	0.2300218
29	0x3e13a2f3	0.14417629
30	0xbca6e0d4	-0.020370878
31	0x3d8b9859	0.068161674
32	0x3c7f400a	0.015579233
33	0x3ceb5628	0.028727606
34	0x3d9ec0b7	0.07751601
35	0xbdf10216	-0.11767976
36	0xbdeb5fec	-0.11492905
37	0x3de0cb1c	0.1097624
38	0x3e34dda2	0.17662671
39	0xbd2ac373	-0.0416903
40	0x3d2a4149	0.041566167
41	0xbe0ed0af	-0.13946794
42	0xbe44b3bc	-0.19209188
43	0x3e08e064	0.13366848
44	0x3c2f9072	0.010715591
45	0xbe06f44a	-0.13179126
46	0x3db65d54	0.0890452
47	0x3e0e3aff	0.13889693
48	0xbd5363d2	-0.051608868
49	0x3c9d0b88	0.019170538
50	0xbd5adfdf	-0.053436156
51	0x3daf2fd0	0.085540414
52	0x3d847f9c	0.06469652
53	0x3e35d7dc	0.17758125
54	0xbdda42f4	-0.106573015
55	0xbc59fed0	-0.013305381
56	0x3de113d0	0.10990107
57	0xbe058fd4	-0.13043147
58	0xbc19122d	-0.009342712
59	0x3e13f5a7	0.14449178
60	0x3b985683	0.004648985
61	0xbd8e69c9	-0.06953771
62	0xbd861da0	-0.06548619
63	0x3d5c03ac	0.05371444
64	0xbd8d7ece	-0.06908952
65	0x3da63f7e	0.08117579
66	0x3ddfedc5	0.10934023
67	0x3d8ba636	0.068188116
68	0xbafb87f8	-0.0019190302
69	0x3cc66a17	0.02422051
70	0xbdce5db6	-0.10076468
71	0xbdb3ba32	-0.08775748
72	0xbd6dcd84	-0.058057323
73	0xbdd6b195	-0.1048309
74	0x3d0bc084	0.034119144
75	0x3e0bfdd3	0.13671045
76	0xbdaf0b6e	-0.08547102
77	0x3d9ea9a5	0.07747201
78	0x3d349b89	0.044093642
79	0x3d4b7e18	0.0496808
80	0xbda5616d	-0.08075223
81	0x3d8d2ab5	0.06892911
82	0x3d6d7d4d	0.057980824
83	0xbdf3986e	-0.11894308
84	0x3d333f49	0.043761525
85	0x3cb44ea0	0.022010148
86	0x3d2c7d07	0.042111423
87	0x3cc6add3	0.024252808
88	0xbdbfb23f	-0.093601696
89	0xbca16a6f	-0.019704072
90	0xbde67077	-0.1125192
91	0x3b913d90	0.0044323877
92	0xbd691829	-0.056907807
93	0x3d70f318	0.058825582
94	0x3c020bda	0.007937396
95	0x3d483fe7	0.048889067
96	0xbd846189	-0.06463916
97	0x3dbe7e67	0.09301453
98	0xbc0f546f	-0.008748158
99	0xbd7f6f76	-0.062362157
100	0x3de425ae	0.11139999
101	0x3cdb418a	0.02676465
102	0x3d30d310	0.043170035
103	0x3d2c4b43	0.042063963
104	0xbd937630	-0.07200277
105	0x3e1ef089	0.15521444
106	0x3d9871c0	0.07443571
107	0xbdb13c03	-0.086540245
108	0x3daf164e	0.08549176
109	0x3e04ff79	0.1298808
110	0xbc0c7285	-0.008572225
111	0x3d8ee205	0.069767036
112	0x3d495320	0.04915154
113	0xbdce37a8	-0.10069209
114	0x3c28c081	0.010299803
115	0x3e04ac1b	0.12956278
116	0xbd1f8a2a	-0.038950123
117	0xbe0626bc	-0.13100713
118	0x3d9f53fe	0.07779692
119	0x3d60a805	0.054847736
120	0xbddeed28	-0.10885078
121	0x3cc7ad7f	0.024374722
122	0xbe1eadf9	-0.15496053
123	0xbe163e33	-0.14672165
124	0xbcb4f9e4	-0.022091813
125	0x3df6c2b2	0.12048854
126	0x3cbdfe2f	0.023192493
127	0x3d257c53	0.040401768
128	0x3d8e19e3	0.06938531
129	0x3e265391	0.16242816
130	0x3d203def	0.039121564
131	0x3da759f2	0.081714526
132	0x3d9c5724	0.07633808
133	0x3e06a59a	0.1314911
134	0x3dbb4fc7	0.09146076
135	0x3e08f601	0.13375093
136	0xbd7c487b	-0.06159256
137	0xbdfbebd0	-0.12300837
138	0xbdf41657	-0.119183235
139	0xbd933d9b	-0.07189485
140	0x3d3885f0	0.045049608
141	0xbd1863ff	-0.03720474
142	0x3dd8d84c	0.1058813
143	0xbc2afd13	-0.010436314
144	0x3d61e484	0.05514957
145	0x3d082a19	0.033243272
146	0x3c8fba46	0.017544877
147	0x3dfd998e	0.12382804
148	0x3ddcf8d4	0.10789648
149	0x3de29bdb	0.11064883
150	0xbb4c506e	-0.003117587
151	0x3dc8b105	0.09799389
152	0x3dd1bb12	0.10240759
153	0x3d33fd06	0.043942474
154	0x3dd22ef3	0.10262861
155	0x3d6c435e	0.057681434
156	0xbd3b7db3	-0.045774173
157	0xbd240e9a	-0.040052988
158	0x3d2420d5	0.040070374
159	0xbcb128bf	-0.021625875
160	0x3c419812	0.011816042
161	0xbdd95812	-0.10612501
162	0x3dad6ccb	0.08468016
163	0xbd527bc1	-0.051387552
164	0x3d023a60	0.031793952
165	0x3d81dddb	0.06341144
166	0x3cf57006	0.029960644
167	0x3cec661d	0.028857285
168	0x3dda7bb4	0.10668126
169	0xbd607fab	-0.054809254
170	0xbe035823	-0.1282659
171	0xbd3182f2	-0.04333777
172	0xbc6ca748	-0.01444418
173	0xbdd9ec2c	-0.10640749
174	0x3d26cc0d	0.04072194
175	0xbd9af4c9	-0.0756622
176	0x3d9c99cf	0.07646524
177	0xbdd853a7	-0.105628304
178	0x3c263bb6	0.010146072
179	0xbd17cc49	-0.037060056
180	0x3db5f263	0.08884122
181	0x3ccf88b4	0.02533374
182	0xbdfbc391	-0.12293161
183	0xbcf553d6	-0.029947203
184	0xbd9830de	-0.07431196
185	0x3de22692	0.11042513
186	0x3de08fe0	0.10964942
187	0x3ccae16d	0.024765695
188	0x3dfcb208	0.12338644
189	0x3b8444d4	0.0040365253
190	0x3d929423	0.07157161
191	0x3d93c3f1	0.07215107
192	0xbd330706	-0.04370787
193	0x3d3e92ba	0.046526648
194	0x3db3aaa1	0.08772779
195	0xbdc1c1d5	-0.09460799
196	0xbcaf52a5	-0.021401713
197	0x3da836e3	0.08213594
198	0x3d1d1de0	0.03835857
199	0xbd2fe8aa	-0.042946495
200	0xbbb9e430	-0.005672954
201	0xbcc25359	-0.023721384
202	0xbcde2b53	-0.027120268
203	0xbda2d31e	-0.07950424
204	0x3dfb904d	0.122833826
205	0x3de850ba	0.11343522
206	0x3d904a8d	0.070454694
207	0xbcf8dd0d	-0.030378843
208	0x3ca25ed3	0.019820606
209	0x3de088cf	0.10963594
210	0x3daf6ee8	0.085660756
211	0xbd7e654c	-0.062108323
212	0x3b9205c5	0.004456254
213	0xbcbd626f	-0.023118226
214	0xbc748aa2	-0.014925631
215	0xbd9423cb	-0.072333895
216	0x3df57326	0.119848534
217	0xbd600287	-0.05468991
218	0x3d6b4b2a	0.05744473
219	0x3c84dfdc	0.016220026
220	0xbca6ae9e	-0.020346936
221	0x3e033e95	0.12816842
222	0x3d2b053a	0.04175303
223	0x3b916f83	0.004438342
224	0xbdd365e4	-0.103221685
225	0xbcab1e5f	-0.020888506
226	0x3d556b5b	0.052104335
227	0x3d8f26e2	0.06989838
228	0x3cbd74cc	0.023126982
229	0x3db841e3	0.08996942
230	0xbcf93e9c	-0.030425362
231	0x3cd3abd1	0.025838764
232	0x3dea4bb2	0.11440219
233	0x3ddb929d	0.10721324
234	0xbd4ba0cd	-0.0497139
235	0xbdf2b289	-0.11850459
236	0x3c5acdaa	0.013354698
237	0xbd281bed	-0.041042257
238	0x3e0e7dc1	0.13915159
239	0x3b4dd8f0	0.0031409822
240	0x3c835212	0.016030345
241	0x3df561b3	0.11981525
242	0x3dee886b	0.116471134
243	0xbd90e15c	-0.07074234
244	0x3d2469f9	0.040140126
245	0xbe0207d2	-0.12698296
246	0x3dd8cd6d	0.10586057
247	0xbd8bfdd9	-0.06835527
248	0x3aa1b292	0.0012336543
249	0xbd55bb3c	-0.052180514
250	0xbd89c1a7	-0.067263894
251	0xbdcbd21f	-0.09952187
252	0xbd32ec32	-0.043682285
253	0xbdcec617	-0.100963764
254	0xbab8e422	-0.0014106075
255	0xbcd2a200	-0.025712013

gru.weight_hh_l1 f4 [192, 64]
0	0xbba31a78	-0.0049775206
1	0xbc7a06ea	-0.0152604375
2	0x3e2f443e	0.17115876
3	0x3d030aa2	0.031992562
4	0xba5d20e3	-0.00084353815
5	0xbd4c6573	-0.049901437
6	0x3db5ef1b	0.088834964
7	0xbcae349a	-0.021265317
8	0xbcec78e2	-0.028866235
9	0xbcc45033	-0.023964023
10	0x3c8c90e1	0.017158927
11	0x3ddf43d6	0.109016106
12	0xbd6ad172	-0.05732865
13	0xbcd36bf3	-0.02580831
14	0x3c81e4be	0.015856143
15	0xbd026605	-0.031835575
16	0xbc7b2f13	-0.015331048
17	0x3d0b1805	0.033958454
18	0x3d930ce7	0.07180195
19	0xbc80ed31	-0.015738102
20	0x3d96050a	0.0732518
21	0xbd4e2ef6	-0.050337754
22	0xbd3a7948	-0.04552582
23	0x3c0a2227	0.008430994
24	0x3d5a8c90	0.053356707
25	0x3def64b4	0.116891295
26	0xbc7e6608	-0.015527256
27	0x3d911679	0.070843644
28	0x3d2a1026	0.041519307
29	0xbc553547	-0.013013191
30	0x3d0f9102	0.0350504
31	0x3d438e07	0.04774287
32	0xbdba14cb	-0.09085997
33	0x3e157f39	0.14599313
34	0x3d3a4555	0.045476276
35	0xbdc55134	-0.09634629
36	0xbdcf4ea7	-0.101224236
37	0x3dd41b13	0.103567265
38	0xbd61f765	-0.055167574
39	0xbd47bb63	-0.04876269
40	0x3b4f4446	0.0031626387
41	0x3db8f1fd	0.090305306
42	0xbdb21c7b	-0.086968385
43	0xbc551fee	-0.013008101
44	0xbd9385de	-0.072032675
45	0xbd81849e	-0.06324123
46	0xbc2f3025	-0.010692631
47	0xbdb8475e	-0.08997987
48	0x3cd97f65	0.026550004
49	0x3d98460f	0.074352376
50	0xbe03d050	-0.12872434
51	0xbcb88bd4	-0.022527613
52	0xbdb9868d	-0.09058867
53	0xbe3e8793	-0.18606405
54	0xbd7c4e48	-0.061598092
55	0xbd108a2e	-0.03528803
56	0xbb9d1d5d	-0.00479476
57	0x3e12bec4	0.14330584
58	0xbafad7a9	-0.0019137758
59	0x3d8d798f	0.06907951
60	0x3d7135c4	0.058889166
61	0xbdf6f6a0	-0.12058759
62	0xbd1c228f	-0.038118895
63	0xbd19da29	-0.03756157
64	0xbd3cff79	-0.046142075
65	0xbe1470b4	-0.14496118
66	0xbdb2682c	-0.087112755
67	0xbe05eca3	-0.13078551
68	0x3b5358f6	0.003224907
69	0xbdbf148f	-0.09330093
70	0xbc864632	-0.016390894
71	0x3b96dc3c	0.0046038907
72	0xbd469e7c	-0.048490986
73	0xbd74ca00	-0.059762955
74	0xbde7fca0	-0.11327481
75	0x3de31d86	0.110896155
76	0xbda3e866	-0.08003311
77	0xbdfc65e2	-0.1232412
78	0x3dee1248	0.116245806
79	0xbd77cc43	-0.060497534
80	0xbe030282	-0.12793925
81	0x3e01b9b1	0.12668492
82	0xbc8f3fb9	-0.01748644
83	0x3dba2fa4	0.09091118
84	0xbd6ee14c	-0.05832033
85	0xbca6023a	-0.020264734
86	0xbd8dc8d2	-0.06923069
87	0xbd7335cb	-0.059377473
88	0xbc81a039	-0.01582347
89	0x3d91c0a3	0.07116821
90	0x3a224334	0.00061898236
91	0x3dac5336	0.08414309
92	0x3deda14d	0.11603031
93	0x3dbe296f	0.092852466
94	0xbdc0f687	-0.09422021
95	0xbddd6789	-0.108107634
96	0x3d9b7748	0.075911105
97	0xbd1057dd	-0.035240043
98	0xbe030807	-0.12796031
99	0xbdd25061	-0.10269237
100	0x3dbbad52	0.091639176
101	0xbc0a7786	-0.008451348
102	0xbd57cc3b	-0.052685004
103	0x3de966d5	0.11396567
104	0xbcf52be1	-0.02992815
105	0x3d3acf51	0.04560787
106	0x3ded44d4	0.115853935
107	0x3dc483d0	0.09595454
108	0xbcb6d7d4	-0.022319712
109	0x3b895b75	0.0041918107
110	0xbdc55528	-0.09635383
111	0xbe0118c3	-0.12607102
112	0x3c91f9ae	0.017819252
113	0xbb7f5c6b	-0.0038964998
114	0xbc9461d9	-0.018113064
115	0x3e127e46	0.14305982
116	0xbc4564a0	-0.012047917
117	0x3e071a16	0.13193545
118	0x3ccc40b9	0.024933206
119	0x3ddb817e	0.10718058
120	0x3d9b104a	0.07571466
121	0x3bb55ed4	0.005534986
122	0x3d749c2a	0.059719242
123	0xbdb8996a	-0.090136364
124	0x3d6f6e43	0.058454763
125	0xbd234310	-0.039858878
126	0x3db1fc2a	0.086906746
127	0xbc4e838b	-0.0126046045
128	0x3d920b39	0.07131047
129	0x3d0775fe	0.03307151
130	0x3cce8512	0.025209937
131	0x3c506e6d	0.01272164
132	0xbd6b6648	-0.05747059
133	0x3dc392ae	0.09549461
134	0x3d0f311d	0.034958947
135	0xbddc650a	-0.10761459
136	0xbdcc3eb9	-0.09972901
137	0x3dbaccc4	0.09121087
138	0xbd34bf4e	-0.044127755
139	0xbca6bcfe	-0.02035379
140	0x3e066515	0.13124497
141	0xbdf40b93	-0.1191627
142	0xbe093825	-0.13400324
143	0xbde44df7	-0.11147683
144	0xbd18d8cd	-0.037316132
145	0x3de4bf52	0.11169304
146	0xbe040897	-0.12893902
147	0x3dcc101e	0.099640116
148	0xbc6146d3	-0.013749796
149	0xbc0c2e2d	-0.008555931
150	0x3dcccf40	0.10000467
151	0xbe61c712	-0.22048596
152	0xbd6c2e53	-0.057661366
153	0xbd9c44ed	-0.07630334
154	0x3d631a04	0.055444732
155	0x3de09a13	0.10966887
156	0x3d8986a7	0.06715136
157	0x3dd68b3d	0.10475776
158	0xbdab8eb4	-0.08376828
159	0xbd886c85	-0.066613235
160	0x3df5600f	0.11981212
161	0x3dd3e3f2	0.103462115
162	0x3c895b4e	0.01676717
163	0xbbef4e9a	-0.007303071
164	0x3da94f77	0.0826711
165	0xbdde3d4a	-0.10851534
166	0x3da75119	0.08169765
167	0xbdddcd18	-0.10830134
168	0xbda1e958	-0.07905835
169	0xbd7eec64	-0.06223716
170	0x3de83af0	0.113393664
171	0x3c0890ca	0.008335302
172	0x3d937ea4	0.07201889
173	0xbc18442b	-0.009293596
174	0xbde997e6	-0.114059255
175	0xbca9dc83	-0.020735031
176	0xbd3d3480	-0.046192646
177	0x3d07013e	0.03296017
178	0xbd8f8f13	-0.07009711
179	0x3dc8d7fc	0.09806821
180	0x3daed4e6	0.08536701
181	0x3daf6497	0.08564108
182	0x3d2dbc01	0.042415623
183	0x3d39c323	0.045352113
184	0x3bcd5b33	0.0062669753
185	0x3db7c0d3	0.08972325
186	0xbd6ed8c2	-0.058312185
187	0xbd2b44fd	-0.04181384
188	0x3caab4b1	0.020838114
189	0x3dceef13	0.101041935
190	0xbdaa992b	-0.08329996
191	0xbcce84df	-0.025209842
192	0xbd94921a	-0.07254429
193	0x3d745db5	0.05965968
194	0xbdf4c86c	-0.1195229
195	0x3d519c9e	0.051174752
196	0x3d655d25	0.055997033
197	0xbba67866	-0.0050802706
198	0xbdc9bb1c	-0.098501414
199	0x3d400ae6	0.046885394
200	0xbdaef800	-0.08543396
201	0xbd86f2a6	-0.0658925
202	0xbdcca52b	-0.09992441
203	0xbcf90cb4	-0.030401565
204	0xbd56b3cd	-0.052417565
205	0x3d921fa4	0.07134941
206	0x3d3aa91f	0.045571443
207	0xbd9dff8d	-0.07714758
208	0x3bace264	0.0052760113
209	0x3ce39e70	0.02778551
210	0xbd9bfb26	-0.07616262
211	0xbddef4b4	-0.10886517
212	0xbcd7e3ad	-0.026353681
213	0x3cc0188e	0.023449209
214	0x3ccce919	0.025013493
215	0xbdff12a4	-0.12454727
216	0x3c5f2275	0.013619055
217	0x3e0cf7e7	0.13766442
218	0x3cd72d0b	0.026266595
219	0x3ddb4eb1	0.107083686
220	0x3debae6a	0.11507876
221	0x3dfbe86c	0.1230019
222	0x3c995dac	0.018721424
223	0x3ddef281	0.10886098
224	0x3dfedada	0.124440864
225	0x3c96d6bf	0.018412946
226	0xbdd9f0aa	-0.10641606
227	0xbd865658	-0.065594375
228	0xbd01071e	-0.031500928
229	0xbde658ef	-0.112474315
230	0x3d3c4fcb	0.045974534
231	0xbda4b564	-0.0804241
232	0x3dfb9582	0.12284376
233	0xbdd0236d	-0.10163007
234	0x3d17a308	0.037020713
235	0xbd9889c4	-0.07448152
236	0xbdb398f7	-0.0876941
237	0x3da00f8e	0.07815467
238	0xbde56e05	-0.11202625
239	0x3dcb314c	0.09921512
240	0xbd2e7259	-0.04258952
241	0x3c945232	0.0181056
242	0x3db48157	0.08813732
243	0x3d2c012c	0.041993305
244	0xbde0b22d	-0.10971484
245	0x3d4e09fc	0.05030249
246	0xbdd85634	-0.10563317
247	0x3d653a92	0.05596406
248	0xbd3548df	-0.04425895
249	0xbd050865	-0.03247871
250	0x3ca5a7c0	0.020221591
251	0xbdd24a11	-0.10268033
252	0xbd4c7b53	-0.0499223
253	0xbdbd989e	-0.09257625
254	0x3dae7bc8	0.08519703
255	0x3ca13098	0.019676492

gru.bias_ih_l1 f4 [192]
0	0xbdd5c6e5	-0.10438327
1	0x3dea3144	0.11435178
2	0xbd1d6716	-0.03842839
3	0x3dd93786	0.106062934
4	0x3d32ed54	0.043683365
5	0x3d74f5a9	0.059804592
6	0x3dc5a0d7	0.096498184
7	0xbd9c14f7	-0.07621186
8	0xbd9e1776	-0.077193186
9	0xbda3e028	-0.08001739
10	0x3deb1cd5	0.11480109
11	0x3db3e369	0.087836094
12	0x3dd6f961	0.10496784
13	0x3d11f2ba	0.035631873
14	0x3cd6f70b	0.026240846
15	0x3d221ea5	0.039580006
16	0xbdef7288	-0.11691767
17	0xbd966a63	-0.073445104
18	0xbdf21ff4	-0.11822501
19	0x3bb5d2b9	0.0055488017
20	0x3db5df1e	0.08880447
21	0xbe0785f4	-0.13234693
22	0x3d14d829	0.03633896
23	0xbd9fa03b	-0.077942334
24	0xbcf1cd18	-0.029516742
25	0xbc9b18a7	-0.018932654
26	0x3d712caf	0.058880504
27	0xbdb7aa9b	-0.08968087
28	0xbcab2d5a	-0.020895649
29	0xbdc7b543	-0.0975137
30	0x3c51fff5	0.012817373
31	0x3d3ebdc4	0.046567693
32	0xbe022b72	-0.12711886
33	0xbd37e408	-0.044895202
34	0xbd7b11de	-0.061296336
35	0x3d214c01	0.039379124
36	0xbda530cf	-0.0806595
37	0xbde32adf	-0.110921614
38	0xbdc9d20d	-0.09854517
39	0xbd1d54d7	-0.038410988
40	0xbe15c70d	-0.14626713
41	0xbd99bde0	-0.07506919
42	0x3d1b2739	0.037879203
43	0x3d00ff35	0.031493384
44	0xbdbc9d32	-0.0920967
45	0x3c3e960a	0.011632452
46	0xbdceaba4	-0.100913316
47	0x3db1c515	0.086801685
48	0x3de3f95c	0.11131546
49	0xbde1e429	-0.11029846
50	0xbe1380a1	-0.14404537
51	0xbdac4377	-0.084113054
52	0xbe0a3fb3	-0.13500862
53	0x3d4d141d	0.05006801
54	0xbda1dae3	-0.079030775
55	0xbd74e170	-0.059785306
56	0x3cfeee02	0.03111935
57	0xbd3a8a79	-0.045542214
58	0xbdec6cf4	-0.11544219
59	0xbd29077e	-0.04126691
60	0x3d412b2a	0.047160305
61	0x3de795ef	0.113078944
62	0x3dcf8085	0.10131935
63	0xbde28efa	-0.11062427
64	0xbe9440c7	-0.2895567
65	0xbe0ab5e2	-0.13545945
66	0xbe0656f2	-0.13119105
67	0xbe2e6e73	-0.1703432
68	0xbde59b7b	-0.11211296
69	0xbe119dd0	-0.14220357
70	0xbe8e540f	-0.27798507
71	0xbe85e7d0	-0.2615342
72	0xbe5f0833	-0.21780472
73	0xbe1de65f	-0.15419911
74	0xbea163cf	-0.3152146
75	0xbe647310	-0.22309518
76	0xbdea77ed	-0.11448655
77	0xbe4f8da3	-0.20268874
78	0xbe75b738	-0.23995674
79	0xbdf74c9f	-0.12075161
80	0xbe8f2a8b	-0.27962145
81	0xbed02c23	-0.40658674
82	0xbe26653b	-0.16249554
83	0xbe9ba0af	-0.3039603
84	0xbdf2f5f2	-0.118633166
85	0xbded6a2c	-0.11592516
86	0xbe9df325	-0.30849567
87	0xbe83c963	-0.25739583
88	0xbdf98b70	-0.12184799
89	0xbea53b96	-0.32272023
90	0xbe87c8d4	-0.26520407
91	0xbe412a2d	-0.18863745
92	0xbeb5365b	-0.35393032
93	0xbe8fae5b	-0.2806271
94	0xbe485255	-0.19562657
95	0x3d8f73df	0.070045225
96	0xbe33de53	-0.17565279
97	0xbe5274c4	-0.20552355
98	0xbd7a0835	-0.061042983
99	0xbd6cc762	-0.057807334
100	0xbdf68659	-0.120373435
101	0xbe9a798f	-0.30170867
102	0xbc95d1a3	-0.01828844
103	0xbe1dcee4	-0.15410954
104	0xbe32de48	-0.17467606
105	0xbe51dc55	-0.20494206
106	0xbe6b1bee	-0.22959873
107	0xbe4dc35c	-0.20094055
108	0xbdc52eae	-0.09628044
109	0xbea695b1	-0.3253608
110	0xbe97f50c	-0.29679143
111	0xbe541c54	-0.20713931
112	0xbea2fe84	-0.31834805
113	0xbe73de35	-0.23815234
114	0xbdfe368b	-0.12412747
115	0xbec46065	-0.38354793
116	0xbe4b1f7e	-0.19836232
117	0xbe4a3468	-0.19746554
118	0xbe153c20	-0.14573717
119	0xbdf6f540	-0.120584965
120	0xbe4cdeab	-0.20006816
121	0xbe76b695	-0.24093087
122	0xbe77437d	-0.24146838
123	0xbd83852a	-0.064218834
124	0xbe3159a6	-0.17319354
125	0xbecf6899	-0.4050949
126	0xbe8c2e7f	-0.27379224
127	0xbdd09271	-0.101841815
128	0x3dafce16	0.0858423
129	0xbdf3d324	-0.11905506
130	0x3c23ee11	0.01000549
131	0x3dd95dcd	0.10613594
132	0xbd6116b1	-0.05495328
133	0xbd1fb4be	-0.03899073
134	0x3de10d04	0.10988811
135	0x3d599cd4	0.05312808
136	0xbda940e6	-0.082643315
137	0x3d175b56	0.03695234
138	0x3d6b9e0f	0.057523783
139	0xbd95cd18	-0.07314509
140	0xbdb1122b	-0.086460434
141	0x3d98f9d6	0.074695274
142	0xbd020b12	-0.03174884
143	0xbd4166dc	-0.047217235
144	0xbd52be4e	-0.05145102
145	0xbc60b962	-0.013716074
146	0x3befe0fc	0.0073205214
147	0xbda20832	-0.079117194
148	0x3a8ebb83	0.0010889623
149	0xbdf8492b	-0.12123331
150	0x3d3999d2	0.04531271
151	0x3b92d0f7	0.004480477
152	0x3b50d907	0.003186764
153	0x3dcec950	0.10096991
154	0x3dc54192	0.09631647
155	0xbc262b03	-0.010142091
156	0xbc9d52da	-0.019204546
157	0xbd28659c	-0.041112527
158	0xbdd1a508	-0.10236555
159	0x3d16a3e1	0.03677738
160	0x3ba266fc	0.0049561244
161	0x3d2988c2	0.041390188
162	0xbc1cc034	-0.009567309
163	0xbdcdde6a	-0.10052188
164	0xbdd17450	-0.10227263
165	0xbd768d65	-0.060193438
166	0x3dff2496	0.1245815
167	0xbdb8d9e3	-0.090259336
168	0x3d9840b0	0.07434213
169	0xbd0d1816	-0.0344468
170	0x3db72450	0.08942473
171	0xbdff1032	-0.12454261
172	0xbd99a974	-0.07503024
173	0x3e06594f	0.13120006
174	0xbd053dcb	-0.032529633
175	0xbd30161d	-0.04298984
176	0xbdecc605	-0.11561207
177	0x3d65ef71	0.056136552
178	0x3d9f0815	0.077652134
179	0x3c9e4055	0.019317785
180	0x3d796674	0.060888723
181	0xbd516481	-0.05112124
182	0x3de6b4e5	0.11264972
183	0x3d80977a	0.06278892
184	0xbd4f5e95	-0.05062731
185	0xbbb5dd44	-0.0055500586
186	0xbde61857	-0.11235111
187	0xbd9a0a0a	-0.07521446
188	0x3dd913b8	0.10599464
189	0xbd89131f	-0.066931
190	0x3c915ef4	0.017745472
191	0xbd3c0860	-0.045906425

gru.bias_hh_l1 f4 [192]
0	0xbd74d9e5	-0.059778113
1	0x3dd47e2b	0.10375627
2	0x3d83958e	0.0642501
3	0xbdcb82b1	-0.09937037
4	0x3ddba1a6	0.10724191
5	0xbd145ebf	-0.03622317
6	0xbc6345de	-0.013871638
7	0xbda63b29	-0.08116753
8	0xbc90f2e4	-0.017693944
9	0x3bac8223	0.005264537
10	0x3cac4932	0.021030996
11	0xbd9ebe60	-0.07751155
12	0xbd5e2520	-0.054234624
13	0xbd0f3338	-0.034960955
14	0x3d7d0d7d	0.06178044
15	0x3bae394d	0.0053168894
16	0xbce7f3e4	-0.028314538
17	0xbd2832ae	-0.041063957
18	0xbdb9bdb5	-0.09069387
19	0x3cdd3f08	0.027007595
20	0x3db1be44	0.086788684
21	0xbe0826b1	-0.1329601
22	0x3cba800d	0.022766137
23	0x3d93806c	0.07202229
24	0x3b8acf26	0.00423612
25	0xbd863a9e	-0.06554149
26	0xbd2bb9d9	-0.041925285
27	0xbd11640a	-0.035495795
28	0xbd0fa1c2	-0.035066374
29	0x3d3774bc	0.04478906
30	0xbdc90e02	-0.09817125
31	0x3dd00fb1	0.10159243
32	0xbbb79a71	-0.0056031276
33	0x3d80ddea	0.06292327
34	0xbdb6544c	-0.08902797
35	0xbddf5982	-0.10905744
36	0x3d1b2180	0.037873745
37	0xbbd6ece3	-0.006559001
38	0xbdd130ac	-0.102143615
39	0x3d9d16c6	0.07670359
40	0xbc283eb8	-0.01026886
41	0x3b607b5c	0.0034253215
42	0x3d1ea150	0.03872806
43	0xbc015afe	-0.007895229
44	0x3da9d703	0.08292963
45	0xbd1ce2dc	-0.038302287
46	0xbc8c4b4d	-0.01712575
47	0xbe187d51	-0.14891554
48	0xbda4f6e0	-0.080549
49	0xbcb31330	-0.021859735
50	0xbe0fe698	-0.14052808
51	0xbdad6239	-0.08466
52	0x3dc45cc5	0.09588007
53	0x3d3bc292	0.045839854
54	0x3b17c0df	0.0023155732
55	0xbd480e3c	-0.0488417
56	0x3cc0da24	0.023541518
57	0x3d450703	0.04810239
58	0xbd503cea	-0.050839342
59	0x3d863144	0.065523654
60	0xbdcbd834	-0.09953347
61	0x3d1cae1e	0.03825199
62	0xb9b20762	-0.00033956306
63	0xbda2a33a	-0.07941289
64	0xbeb70be2	-0.35751253
65	0xbe6b5b20	-0.2298398
66	0xbe92bff7	-0.28662083
67	0xbe29d02b	-0.16583316
68	0xbd214fd3	-0.039382767
69	0xbe68fe4f	-0.22753261
70	0xbde8e487	-0.11371713
71	0xbd73bc1c	-0.059505567
72	0xbe824acb	-0.25447688
73	0xbe3c54dc	-0.18391746
74	0xbe85fd65	-0.26169887
75	0xbdd9b39c	-0.10629961
76	0xbe841348	-0.2579596
77	0xbe302d95	-0.17204888
78	0xbe4ac56e	-0.19801876
79	0xbe239427	-0.15974484
80	0xbe116b24	-0.14201027
81	0xbe9b6f7f	-0.30358502
82	0xbe8b1244	-0.27162373
83	0xbea01471	-0.31265596
84	0xbe86652d	-0.26249066
85	0xbe5f0843	-0.21780495
86	0xbe12b6f2	-0.143276
87	0xbe9ea584	-0.30985653
88	0xbd971a52	-0.07378067
89	0xbde35d11	-0.111017354
90	0xbe9deefb	-0.3084639
91	0xbe8fee2c	-0.28111398
92	0xbe86f45a	-0.263583
93	0xbe5cdb1d	-0.2156796
94	0xbc13ee4a	-0.0090289805
95	0xbba3a082	-0.0049934993
96	0xbe2aec30	-0.16691661
97	0xbe58e9c4	-0.21182925
98	0xbe0b3e3c	-0.1359796
99	0xbe127d0c	-0.14305514
100	0xbe40eb1c	-0.18839687
101	0xbe1299e6	-0.1431652
102	0x3ce53775	0.027980546
103	0xbe7166b7	-0.23574339
104	0xbd6d3ac6	-0.05791738
105	0xbe8f1333	-0.27944335
106	0xbed77100	-0.420784
107	0xbe84dccf	-0.25949714
108	0xbe5db59a	-0.21651307
109	0xbe1fabd2	-0.15592888
110	0xbe7df776	-0.2480143
111	0xbe2f5b3c	-0.17124647
112	0xbe629abf	-0.22129343
113	0xbe0a8aa2	-0.13529447
114	0xbe01eaf0	-0.12687278
115	0xbe82a9f6	-0.25520295
116	0xbeaa3d62	-0.33249956
117	0xbe5885c6	-0.2114478
118	0xbe8907b3	-0.26763687
119	0xbe3b4612	-0.18288448
120	0xbe7891bf	-0.24274348
121	0xbe8c5e65	-0.27415767
122	0xbe528834	-0.2055977
123	0xbe83f3ef	-0.25772044
124	0xbe578985	-0.21048553
125	0xbec8c316	-0.3921134
126	0xbeb31942	-0.34980208
127	0xbe9f1752	-0.3107248
128	0x3dc82889	0.097733565
129	0xbd561866	-0.052269362
130	0xbdb08299	-0.086186595
131	0x3d6c96fc	0.057761177
132	0xbdfd7512	-0.12375845
133	0x3a51290c	0.0007978834
134	0xbdc66d54	-0.096888214
135	0x3d9d7642	0.076885715
136	0x3dfbb218	0.12289828
137	0xbd0c4b2f	-0.03425139
138	0x3d3669f4	0.04453464
139	0x3d48d15e	0.049027793
140	0x3b2d5482	0.0026448076
141	0xbd7e5852	-0.062095948
142	0x3c1db6fa	0.009626145
143	0xbc9f274f	-0.019427923
144	0x3b301b17	0.0026871616
145	0xbd4b210f	-0.049592074
146	0x3dc80a6a	0.09767611
147	0xbd8ce32e	-0.068792686
148	0xbdd3f0a7	-0.10348635
149	0x3d2ab132	0.041672893
150	0x3ca84a98	0.020543382
151	0x3dfc9392	0.12332834
152	0xbd67e02a	-0.056610264
153	0x3da6a49f	0.08136868
154	0xbe058c82	-0.1304188
155	0x3d8084b5	0.06275312
156	0xbd09151c	-0.033467397
157	0xbcb9a0c2	-0.022659663
158	0xbdbb7859	-0.09153814
159	0x3d0b1435	0.033954818
160	0x3d476d7a	0.04868839
161	0x3d8db54c	0.06919345
162	0xbdca6567	-0.09882622
163	0xbd5db97b	-0.054131966
164	0xbd8b2d5b	-0.0679576
165	0xbd75b5f2	-0.05998797
166	0x3d406473	0.046970796
167	0x3df3d696	0.119061634
168	0x3da2f79f	0.07957386
169	0xbd0f009b	-0.034912687
170	0x3df5217c	0.11969277
171	0xbd4689d8	-0.0484713
172	0xbdb0ae07	-0.08626943
173	0x3d883c34	0.06652108
174	0xbce9bcc6	-0.028532397
175	0xbd95b842	-0.07310535
176	0x3dc116f9	0.0942821
177	0x3d376651	0.04477531
178	0x3d266d13	0.040631365
179	0xbdbeb669	-0.09312136
180	0xbcd46f28	-0.02593191
181	0xbd2dbcea	-0.04241649
182	0x3c3650ea	0.01112769
183	0x3dfd1466	0.12357406
184	0x3db0abb2	0.08626498
185	0xbbe641b9	-0.0070268777
186	0x3e00a12e	0.12561485
187	0xbd94141e	-0.072303995
188	0xbd4e2832	-0.050331302
189	0x3bd5974d	0.0065182806
190	0x3d6b821d	0.057497133
191	0x3db63909	0.08897597

fc.weight f4 [1, 64]
0	0xbe0da8f8	-0.13833988
1	0x3de4df65	0.111754216
2	0x3e062fc4	0.13104159
3	0xbe0ec96b	-0.13944022
4	0xbc83b76b	-0.016078671
5	0xbdad1177	-0.08450597
6	0xbe24105a	-0.16021863
7	0x3d19bcdc	0.037533626
8	0xbd15519a	-0.036454774
9	0x3defb39e	0.11704181
10	0x3d8ab22e	0.06772266
11	0x3dad9bec	0.08477005
12	0x3d1f4cbb	0.038891535
13	0xbe214de7	-0.15752374
14	0xbe00ba76	-0.12571129
15	0xbe0c0b4f	-0.13676189
16	0x3ddc5d8b	0.107600294
17	0xbda630ab	-0.081147514
18	0x3d011edf	0.03152358
19	0x3dba4d91	0.09096826
20	0xbdaae387	-0.08344179
21	0x3d8ab0e6	0.06772022
22	0xbddc0a61	-0.10744167
23	0xbe310741	-0.17287923
24	0xbd39bafb	-0.045344334
25	0x3da176c5	0.078839816
26	0x3dcbdcc4	0.09954217
27	0x3d818c62	0.06325604
28	0x3da9a061	0.08282543
29	0x3e059df7	0.1304854
30	0xbd8c75d3	-0.06858411
31	0x3cdc714e	0.026909497
32	0x3d909a6b	0.07060703
33	0x3da6ca0a	0.08144005
34	0xbda1f488	-0.07907969
35	0xbd5a831a	-0.053347684
36	0xbe21de85	-0.1580754
37	0x3e3947be	0.18093774
38	0xba8a4ee1	-0.0010552072
39	0x3e0850b8	0.13312042
40	0xbd5a5ea9	-0.05331293
41	0xbe19e8d9	-0.1503023
42	0xbe167057	-0.14691292
43	0xbdd84971	-0.10560883
44	0xbd988b00	-0.07448387
45	0x3d1a2505	0.03763296
46	0xbdbd19e3	-0.09233453
47	0xbd63ffc1	-0.055663828
48	0x3da6c1b1	0.081424125
49	0xbdede253	-0.116154335
50	0xbdd86736	-0.10566561
51	0xbccbc83e	-0.024875756
52	0xbdbb55ae	-0.091472015
53	0xbd5ed2bc	-0.05440019
54	0x3dcf9248	0.10135323
55	0xbdb6f0c9	-0.08932645
56	0xbd438096	-0.04773005
57	0x3d549838	0.05190298
58	0xbdf73797	-0.1207115
59	0x3e0967a1	0.13418438
60	0x3e02b117	0.12762867
61	0xbd5d5cb8	-0.0540435
62	0xbdf89ea8	-0.12139636
63	0x3da55bc8	0.080741465
