data/models/linkANDeth_lstm.pth (torch, 206149 bytes, 9 tensors)

lstm.weight_ih_l0 f4 [256, 1]
00000000: d6dd 013e 5fa4 bfbc 34ca c3bc 678e 42bd
00000010: 39d9 8dbd 40ba 18bd 3ebe b4bd 24ad 033d
00000020: f0ba b13d 3b64 b4bd 7448 193b 8f6f 96bd
00000030: 7618 ea3b 602d 8cbd c95e 493d 32ea eb3d
00000040: a0b7 e43c 810d b13c 0597 943c fa67 a5bd
00000050: ced1 6a3d 356d c13d a048 a5bd e57b f93c
00000060: abf1 103e 3bfe b3bd 035f a03d a2e9 be3d
00000070: 84e3 bdbd 7d5c ffbd 34cb 7e3d 67c8 8fbd
00000080: 0954 073e d138 1e3c 1e10 0b3e 57d5 ecbc
00000090: 9ef4 e53d fa9e ab3d ae82 b33d 889e 2ebd
000000a0: ad96 57bd d9e9 8d3d 6e97 25bd 5881 9cbd
000000b0: 37ef f5bd 5186 97bd 8b85 f6bc 2002 543d
000000c0: 728e 9cbd 7139 fdbc b513 523d 24ae e93c
000000d0: 876d 123e 3908 24bd c0ad 11bd 1c13 7a3d
000000e0: 1793 b23d 44d8 183d 2473 aa3d a576 bfbc
000000f0: 1a2f f4bc 3189 f93c 8a69 92bc 431f 1dbd
00000100: 72e0 d53c 7ff0 b4bd be50 ee3c 45c8 2a3e
00000110: fa0b 073e d328 0d3e e0a6 50bd 0e53 1abe
00000120: 6f5c 243e eadc b4bd a61d 12be b28c c1bd
00000130: 784e 6e3d 714b 063d b0f2 0e3d 0fed 3e3c
00000140: 5f4a 07be e271 253e aa78 1abb 9a8e 813d
00000150: 0f51 e83d 2e73 10be cd5e 79bd 5f02 f7bc
00000160: 0bf8 2e3d 66ee 2dbd cdba c8bc 06e1 c1bd
00000170: 74b3 683c 61b0 91bd 3b7e e53c 96c7 a5bb
00000180: 4bf5 1a3d 6bde 563c 07f5 263c efbd eaba
00000190: 2e29 63bd b013 633d ebfd a4bd 8ce2 1d3e
000001a0: 6cad 7e3d 604b 00bd 11e3 37bc 34cd 02be
000001b0: 6862 bd3d 186e a33d 1999 863d 64c3 55bd
000001c0: 5a1b a93d 51fc c83d 23c3 433d 2f9f 993d
000001d0: 1091 73bd ebf4 24be 3f9d 8c3c 8b08 0a3d
000001e0: c4ae 5bbc c8e9 46bd f376 8abc c73c df3d
000001f0: 9141 073e 902c febd 1a62 9ebd a856 1c3e
00000200: 4313 0f3d bf89 503d 3d79 a33c 507a cd3d
00000210: cab0 2dbd 162b ac3d 8ad5 1ebe 2c61 883d
00000220: 57c0 09be 937d 0bbd caeb 1ebe c4aa b73d
00000230: 1fee b43d 7406 0c3e b746 f0bd bdb6 ae3d
00000240: 54fc 103e ab0d b83c 39e6 bbbd e487 113d
00000250: 9f68 213e 04be 04be d941 823d 9ac4 fabd
00000260: b25a febd 33f3 e23c 5fe8 983d 035f 083c
00000270: 4a09 373b eb9d c63d 81b1 5abd 0c12 4fbd
00000280: 5f23 c33d 3288 d2bd e66f 20be 42d7 09be
00000290: 9bfe e3bd c165 c73d 5766 e13d 25ab 43bd
000002a0: 3842 0f3d b789 91bd 02f2 213e ab5c f2bd
000002b0: 2c55 bdbd 4e5c 07be b5c4 bd3d 3a3f ed3c
000002c0: 4bc7 0abe 4ece 08be 27c8 14be 2e60 113e
000002d0: 7b4f c03d 3132 143e da9c 0c3e 1af0 263e
000002e0: f515 193e 72cd fa3d 7016 a13d 8c86 023e
000002f0: 21c6 cb3d 2cd3 a3bd 3dee 27be b48a a0bd
00000300: 1053 193e f791 cebd d7fc 163d b302 243e
00000310: c6a6 843c d29e 0e3c daa4 91bd 50fd af3d
00000320: 3eae 0a3d 3420 bcbd ea1e 8ebd ec22 223d
00000330: c0bd b9bd 748d 003e 60b3 303e 1c5e 4bbd
00000340: 52aa 9dbc 19da 103e 2886 71bc cd60 2abc
00000350: 58b1 8e3d 99c1 06be b4d7 18be 0566 0d3e
00000360: 9c36 063e 63c0 7ebd 2e7a 983c b5a2 3e3c
00000370: ffa8 413d 14f4 d03c 0907 203e 53a9 a2bd
00000380: ef49 0f3e 6bf1 71bd ff70 2a3e 24bb 65bd
00000390: cf35 29bc 480d 0abd 7ca9 c43d 2b49 8bbd
000003a0: 071a de3d e1d9 1d3e 8eb6 413c bd9d 22be
000003b0: f48c c3bd ec57 cf3d aea0 25bd 7492 213d
000003c0: f32a d23c 7bfa ae3d be63 3d3d 55ab 12be
000003d0: 31a8 3c3e a60c 83bd f36a 33bd ec00 373d
000003e0: c500 153d 9fd4 e03d 9071 30bd f631 8f3d
000003f0: 92b8 c23c d756 373d e3d7 d9bd f3a5 273e
0.1268228 -0.023393808 -0.023900129 -0.047499087 -0.069261976 -0.037286997 -0.08825348 0.03214754
0.086782336 -0.0880818 0.0023389133 -0.07345497 0.0071440293 -0.06844592 0.04916266 0.115192786
0.02791959 0.021612884 0.018138418 -0.080764726 0.05732899 0.09444658 -0.08070493 0.030454585
0.14154689 -0.08788725 0.07830622 0.09321906 -0.09271911 -0.124688126 0.06220551 -0.070206456
0.1321565 0.009657101 0.13580367 -0.028910322 0.11228298 0.08379932 0.087651595 -0.042631656
-0.05263393 0.069293685 -0.040427618 -0.07641858 -0.12008517 -0.07398666 -0.030092975 0.05175984
-0.07644357 -0.03091118 0.051288325 0.02852542 0.14299594 -0.040046904 -0.03556609 0.06105338
0.087194614 0.037315622 0.083227426 -0.023372004 -0.029807616 0.030460926 -0.01787259 -0.03835989
0.026108 -0.088349335 0.029091235 0.1667796 0.13188162 0.13785104 -0.050940394 -0.15070745
0.16050886 -0.088311985 -0.14269122 -0.094506636 0.058180302 0.03278679 0.034899414 0.011653199
-0.13211964 0.16156724 -0.0023570457 0.06326027 0.11343586 -0.14106438 -0.060881425 -0.030152498
0.04271702 -0.042463683 -0.024503136 -0.09466748 0.014202941 -0.0711372 0.028014293 -0.005059193
0.037831586 0.013114552 0.010190255 -0.0017909388 -0.055459194 0.055438697 -0.080562435 0.15418452
0.062177107 -0.031321883 -0.01122357 -0.12773591 0.09247285 0.07979983 0.0657217 -0.052188292
0.0825717 0.098137505 0.04779352 0.07501065 -0.059464514 -0.16109054 0.017164825 0.033699553
-0.013408367 -0.048562795 -0.016902423 0.10900264 0.13208605 -0.12410843 -0.07733555 0.15267432
0.03493048 0.050912615 0.019955272 0.10033095 -0.042404927 0.084066555 -0.15511146 0.06659159
-0.13452278 -0.034055304 -0.15519634 0.08968118 0.088344805 0.13674337 -0.11732238 0.08530948
0.14158756 0.022467455 -0.09174771 0.035529986 0.15762566 -0.1296311 0.06360216 -0.1224453
-0.124196425 0.027703857 0.07466196 0.008323434 0.002792912 0.09698089 -0.053391937 -0.05055432
0.09528231 -0.102798834 -0.15667686 -0.1346102 -0.111325465 0.09736205 0.11005848 -0.047770638
0.03497526 -0.07106345 0.15814975 -0.11834081 -0.09244761 -0.13218805 0.092660345 0.028960813
-0.13552587 -0.13359949 -0.14529477 0.14196846 0.0939016 0.14472272 0.13731709 0.16302529
0.14949782 0.12246217 0.07865608 0.12746638 0.099498995 -0.07999262 -0.16399474 -0.078389555
0.14973092 -0.10086434 0.03686222 0.16016655 0.016192805 0.008704858 -0.07111521 0.085932374
0.033857577 -0.0918583 -0.0693949 0.039584085 -0.09069395 0.1255396 0.17255926 -0.049650297
-0.019246254 0.14145698 -0.014741458 -0.010399056 0.069674194 -0.13159789 -0.14926034 0.13808449
0.1310677 -0.062195193 0.018612947 0.011635472 0.047280308 0.02550701 0.15627684 -0.07942452
0.13993047 -0.059068125 0.16644667 -0.056086674 -0.01032777 -0.033704072 0.09602639 -0.06801065
0.10844808 0.15415145 0.01182331 -0.15880485 -0.09548369 0.10124192 -0.04043644 0.03944631
0.025655245 0.08543869 0.0462377 -0.1432317 0.18423535 -0.06398897 -0.043803167 0.044678614
0.036377687 0.10978054 -0.04307705 0.06991951 0.02376965 0.04476055 -0.1063688 0.16371898

lstm.weight_hh_l0 f4 [256, 64]
00000000: 763c c6ba 4c65 03bd 79af 6f3d e51f 17bc
00000010: b29f 8c3d 4756 873d ed0f 96bc 3c65 16bd
00000020: 5211 06be 1712 aebd 0fa9 b83d ea2d c53d
00000030: f46b 4d3c e01c ba3d 0e59 863d d6a5 f73c
00000040: b392 59bd 4c02 c43d 0f7b 3cbe 8757 b33c
00000050: 4f81 08bd 75bb 5ebd 905e 423d 738c 96ba
00000060: e9d6 1d3d df9e 00be 77a8 053d 30e7 d8bc
00000070: a3c7 93bd 79ff dc3b 5d37 dbbd afa3 17be
00000080: de9a 1f3e 4e42 d1bd 51e0 b5bd a17b f8bd
00000090: 86d0 683c 3710 433e 1131 9b3d e1d0 f2bd
000000a0: 82f9 a03d c4e1 92bd 5ab7 18bd a1aa db3c
000000b0: 847e 13be b969 c03c ab27 1bbd 5c87 8c3c
000000c0: 3a94 06be 32ae 1fbd c315 bebd 9793 93bd
000000d0: fa5d 133e fafc 3b3d 927f 46bd d2eb 6cbb
000000e0: 5c83 933d 704a 003e fe28 253d 7584 d33d
000000f0: f034 8e3d 4aa0 eabd 65f3 28be 34d2 d6bd
00000100: 627d 05be b634 96bd f4a5 dabd 3c7c c3bd
00000110: 8e0e f13d cf9c b23d e9b7 c8bc 8e18 a83c
00000120: cfd5 abbd 3d46 c23d 677f d23d efc5 cebd
00000130: 4182 423d 305b c63d 7e08 57bd 7ea4 f53c
00000140: cf55 3cbd 982e f9bd ce63 b63d 5860 303d
00000150: 8bbb a8bd 3f78 ed3d 9da5 8a3b 0b38 853d
00000160: 4133 c53d 5826 b2ba 9cd7 b8bd 20e9 e13d
00000170: 5e6e 823d b795 863d 76ec 963d b8e5 a83d
00000180: 9b9b c4bd 5f93 123d 3168 c43d dff0 c23d
00000190: f56a f43d 8172 453d e612 acbd ea83 033a
000001a0: 3eac 9cbb 3b81 863a 482d d13d 1955 87bd
000001b0: f3e7 973c b6af 1ebd a574 f2bd 0d0d 713d
000001c0: f9d3 1abd e4f5 83bd 40b0 adbb 342e 7c3c
000001d0: 31e1 8abb 9643 593d a03d 363d 2180 84bd
000001e0: 734a b6bd 4523 d8bc 1741 d63d bdc2 f13d
000001f0: dece 1b3d 1daa 963d b8dd f43c 20e0 acbd
00000200: 9865 4abd c5f1 08bd e958 f43c bb56 dcbd
00000210: a3cc 6fbd 9413 9c3d c8b8 d1bc ba19 bb3d
00000220: b529 d6ba fdc7 063e f3ef a03d 2717 6f3c
00000230: aee0 5ebd f635 863c 0e44 c1bd 608c 19bd
00000240: 935a 29bd 84c9 013d 88cf e7bd aaaf 03be
00000250: e533 0bbe 9c4d c2bd c524 26bd f247 f43d
00000260: 6da4 973d 8708 efbc 46e0 b9bd c894 9b3d
00000270: 6cba eb3d 88f8 d5bd 8041 2e3d 7af0 353d
00000280: 1618 8d3d 0dc4 963b 840c 10bd 2c22 53bd
00000290: 2993 ce3c decc 6a3d 67ad 9ebc fca1 0f3c
000002a0: d529 e4bc 9ad8 7a3d 1b04 1ebc 9ecf f13d
000002b0: c5ef 10bc 1779 b13d fc9b 54bc 829e 98bd
000002c0: edaa b53d 6798 d03d c825 c1bd 497d b83d
000002d0: 49bd cebc 2e80 893d 3444 983d 165d 6d3d
000002e0: 7695 303c 1aa4 a5bd 10a4 7d3d 0145 ccbc
000002f0: af2d 3a3d 3539 963d ff8a 81bd 637e ed3c
00000300: 6f9b 4abc 723d 1bbd 99c8 a63d dabb 98bd
00000310: 3354 c3bd 901b 103e ab17 8d3d fd2e a3bb
00000320: 5174 babd 0557 c53d 8b07 413d bc42 a03c
00000330: 7588 cd3d 751c 48bd 6999 263d 1c64 3ebd
00000340: 32bc 043d 76b7 233d 7c1c c33b 96f3 94bd
00000350: a5b9 723d e65d 88bd dce5 e2bd ceb3 15be
00000360: c0f4 cbbd a099 bb3c 6b10 0cbe ce3c 913d
00000370: 3882 4fbd 9b91 22bc b5fd febd 546b 6a3d
00000380: da6a 1e3e a2b5 a73d 7d18 e3bd dc8f 8b3c
00000390: c56b c8bd c72b c73c 52f7 013e 8721 45bd
000003a0: b0e4 80bc 15e6 bf3d a270 aabd 8a99 c3bc
000003b0: a4dd 0c3d 8de4 01be 1a9b bb3d 772b 05bd
000003c0: c04d ec3c 0b0b 03bd b8a1 733c 027d e73d
000003d0: e325 2fbd 6c1e a33d 8c17 b43c 1647 f43d
000003e0: d231 83bd b0f1 fbbc b03f 05bc 7731 45bc
000003f0: 3774 143d b164 e63c 3bba 13be 7114 8c3d
-0.001512422 -0.032079026 0.058516953 -0.009223913 0.06866397 0.06608253 -0.01831814 -0.03671764
-0.13092545 -0.08499544 0.0901662 0.09627898 0.012537945 0.09087539 0.065599546 0.030230444
-0.05311842 0.095707506 -0.18406318 0.021892322 -0.033326443 -0.05437799 0.047453463 -0.0011485949
0.038535032 -0.12560605 0.032631364 -0.026477426 -0.07215812 0.006744322 -0.10703919 -0.14808534
0.15586421 -0.10217725 -0.088806756 -0.12132955 0.014209872 0.19049154 0.07577718 -0.11856247
0.0786009 -0.071719676 -0.037284233 0.02681476 -0.1440373 0.023487912 -0.037879627 0.017154388
-0.13142481 -0.038984485 -0.092814945 -0.07205885 0.14391318 0.045895554 -0.048461504 -0.0036151302
0.07202789 0.12528396 0.040322296 0.103279985 0.06943691 -0.11456354 -0.16499098 -0.10489312
-0.13036111 -0.073342726 -0.10676184 -0.0954518 0.11770354 0.08721315 -0.024501758 0.020519521
-0.0839039 0.09486053 0.10278206 -0.100963466 0.0474875 0.096853614 -0.052498333 0.029985663
-0.04598027 -0.1216709 0.08905755 0.04306063 -0.08238896 0.11595201 0.0042311684 0.0650483
0.096289165 -0.001359175 -0.09025499 0.11030793 0.06368707 0.065715246 0.0736932 0.082469404
-0.09599992 0.035785075 0.095901854 0.09518599 0.11934463 0.048204903 -0.08402042 0.000501691
-0.004781275 0.0010261902 0.10213715 -0.06608028 0.01854322 -0.03874179 -0.118386544 0.058850337
-0.03779981 -0.06443384 -0.0053005517 0.015391875 -0.0042382707 0.05304297 0.044492364 -0.06469751
-0.08900919 -0.026384005 0.10461634 0.118047215 0.03803908 0.07356665 0.02989088 -0.08441186
-0.049413294 -0.033433694 0.029827552 -0.1075873 -0.058544766 0.07620922 -0.025600806 0.09135766
-0.0016339334 0.13162227 0.07858267 0.014592922 -0.05441349 0.016383152 -0.094368085 -0.037487388
-0.041346144 0.03168632 -0.1131888 -0.1285998 -0.13594015 -0.09487459 -0.04056241 0.11927785
0.074044086 -0.02917887 -0.0907598 0.07596737 0.115101665 -0.10447794 0.042542934 0.04441879
0.0688936 0.004601008 -0.035168186 -0.05154626 0.025216656 0.057324283 -0.019369794 0.008766647
-0.027851978 0.061241724 -0.0096445335 0.11807178 -0.008846228 0.08665674 -0.012976643 -0.07452108
0.08870492 0.101853184 -0.09431034 0.09008271 -0.025236743 0.067139015 0.07434884 0.0579501
0.010777822 -0.080879405 0.06192404 -0.024935247 0.045453724 0.0733513 -0.063253395 0.02899093
-0.01236616 -0.037900396 0.0814373 -0.07457705 -0.09537544 0.14073014 0.0688928 -0.0049799667
-0.09104217 0.09635738 0.047126334 0.019563071 0.10035793 -0.048855264 0.040673647 -0.04648219
0.03240604 0.039969884 0.0059543233 -0.07273023 0.059259076 -0.06658535 -0.110789984 -0.14619371
-0.09958792 0.022900403 -0.13678138 0.07091676 -0.050661296 -0.00992241 -0.124507345 0.057231262
0.15470448 0.081889406 -0.11088655 0.017036371 -0.097861804 0.024312867 0.12692001 -0.048127677
-0.015734047 0.093700565 -0.08322264 -0.023876924 0.03439106 -0.12684841 0.09160443 -0.032512154
0.028845668 -0.031992953 0.0148701 0.1130314 -0.04276074 0.07964787 0.021983884 0.11927621
-0.06405987 -0.030754894 -0.00813286 -0.012035719 0.036243644 0.028124185 -0.1442651 0.068398364

lstm.bias_ih_l0 f4 [256]
00000000: b7c8 433d 8094 6d3d c228 99bd 3433 203d
00000010: 28a3 9abd e25a 113c 1f02 61bd 1e81 5dbd
00000020: 8e00 adbd 62ff 3d3c d52d 7ebd a221 f33d
00000030: 5e59 5abd fc93 debd ccc2 903d 2eb4 75bc
00000040: d865 a53c fb96 0bbc 07aa 9fbc 23c4 8c3d
00000050: c902 043c a460 84bd 2f96 a73d 0ba5 aabd
00000060: 9746 cdbd 7a0d 913d d09a c2bd 9454 a53c
00000070: e965 ba3d 30cf f53d df1c 34bd ef84 753c
00000080: 1ef1 083e eb5a dd3a e4a9 bd3d 300c 113e
00000090: ed95 e03d fdb8 8e3b 2b28 163d 3eb9 073d
000000a0: 868b 66bd 946a 273d a0b5 023d 57d4 9c3d
000000b0: 4629 183e bbc3 573c 6f6f 053e 2433 1a3d
000000c0: 87f9 3ebc 4512 e3bb b660 92bd 296a 98bd
000000d0: 6572 86bd 7586 e03d 7534 a23d 5ca0 ad3d
000000e0: 5501 aa3d 9133 143e 0b8c f33c bf5c a23d
000000f0: f491 5cbd a212 47bd 3e27 85bd 2db9 f03d
00000100: 9ebc 303d 7ab2 8dbc 7fbb 09bd 1061 7dbc
00000110: 43c8 3cbd c239 90bd 7d47 adbd 786e e9bc
00000120: 225a 693d 5502 6cbc adc9 503d 488a e43d
00000130: 31a9 89bd f25d 52bc ee06 c7bd b201 793d
00000140: f12c 36bb 2ca4 983d c4ba e4bd c213 db3d
00000150: ee2b 9cbd 5c95 0e3e 5dc6 e1bd 9498 ce3d
00000160: 1d0e 23bc 40b4 92bd bd37 a13d 02c4 2a3d
00000170: 4bc2 8cbd f7a2 463b 5e6f 42bd 0b7c cebd
00000180: 7ee1 8a3d a3b6 683a 7c26 9dbc f3d4 8f3d
00000190: d632 40bd 25c4 683d 07ea 963d 7170 833d
000001a0: f5b5 e2bd e390 77bd 1500 ddbc 0d4f 773d
000001b0: 7c77 b43d 8c23 49bd ff01 593d 1f06 893d
000001c0: 75d0 c53c 87fb 81bd 3238 5e3d 373c a3bc
000001d0: 61a6 e4bd 0e5b 8dbd 22c3 a2bd 6ce8 bc3d
000001e0: 4c3a 823d 6e08 4e3d 16e5 8bbd 70a9 a63d
000001f0: 3179 993c 0203 adbd 5e6f b4bd 41b9 bebd
00000200: 32c1 623d aba6 13ba 7f7b 9bbd fd7d da3d
00000210: 151e bebd 12f7 c1bc f883 bd3c a784 193d
00000220: b91f 5db8 e76b 783c d199 a93d cc3a 7dbd
00000230: c5a9 e3bd 7d3f ce3d 5da0 b3bd a587 5d3d
00000240: ceb5 533d 75d1 e13d 80b6 913c 656f 493d
00000250: 65b9 623c 9766 643d 1639 0abd 4fdf ce3d
00000260: 1e12 febc 58ab 0bbd 563d debd 2868 d4bd
00000270: 0f9e b6bd ae4f f1bd c120 9bbd 7e0d b83d
00000280: 2538 583d 0a30 bdbd 4f3a a6bd a9a7 763d
00000290: aa2f 433d 1a1d 213d 23f9 b8bd 647a 963c
000002a0: 5a95 da3d 0fec 4fbd 0053 35bc ca28 af3d
000002b0: 7c07 5a3d b2bb cfbd 5130 d43d d8a9 bbbb
000002c0: f957 9cbd 1307 06bd 1bec 083d 7fff 35bd
000002d0: 508d 6bbb a543 9cbc 0a92 943d 718c 69bd
000002e0: 342f bdbd 9e3c a33d 2113 5f3b e35c db3d
000002f0: 0dde a63d 61ca 9abd dd3d 01bd dcc4 9fbd
00000300: a761 ff3c ae1a 43bd e00f 68bc 2111 0c3e
00000310: 4734 f53d b76b a83d aaf3 4bbd dd29 823d
00000320: 8ea2 b33d 5ad3 b5bd ffef 833b 177e 4e3d
00000330: 39b4 0e3e 9dec 113d 6cc8 f5bc 279b 173d
00000340: bd79 223e 472e ab3d be4a 5abd 053b 8f3d
00000350: 72dd 2fbd 01fc c7bc fb0e 943d f666 e33d
00000360: 192c 1fbc ea54 0c3d 6e14 e2bd f8eb d1bc
00000370: 6ac0 c0bd 9f69 8cbd 8de7 cebd 2b71 833d
00000380: def0 acbd 724d 57bd 6fa2 b53d f5bb 053e
00000390: 3041 d63d b58f 103d 441b 1b3e d998 a0bd
000003a0: 4aa8 3fbd afb2 a33b 99a1 dfbc 3c8b 8cbd
000003b0: 2f16 b73d 68ea ce3d af09 8e3d ba5a f6bb
000003c0: 5d8a ae3d dc33 49bd bfaa ab3d 254c a7bb
000003d0: 58af 0f3e 041c 4ebd fac5 0abd 2bd0 a6bd
000003e0: 04d3 533d a601 acbd a549 1abd ae3b 3a3d
000003f0: 878a 30bd cef0 933d f420 153e 7b01 e93d
0.04779884 0.05800295 -0.07478477 0.03911133 -0.07550651 0.008871766 -0.054933663 -0.054078214
-0.084473714 0.011596533 -0.062055428 0.11871649 -0.053307883 -0.108680695 0.070684046 -0.0149965715
0.020190164 -0.008519883 -0.019490255 0.068733476 0.008057305 -0.06463745 0.08182942 -0.08332261
-0.100232296 0.070826486 -0.095021844 0.020181932 0.09101469 0.120024085 -0.043972846 0.014985307
0.13373229 0.0016888058 0.0926092 0.14164805 0.10966096 0.0043555484 0.0366594 0.033135645
-0.056285404 0.040873125 0.031911492 0.07657688 0.14859495 0.013169224 0.1303079 0.037646428
-0.011656172 -0.006929668 -0.071473524 -0.074421234 -0.06564788 0.10963146 0.07920162 0.08477852
0.08301035 0.14472796 0.029729864 0.07927846 -0.05385013 -0.048601754 -0.065016255 0.117540695
0.04314863 -0.017297018 -0.033626076 -0.015465036 -0.046089422 -0.070422664 -0.08460901 -0.028495058
0.056970723 -0.014404853 0.050973583 0.111591876 -0.06721724 -0.012839781 -0.097181186 0.060792632
-0.0027797783 0.07453188 -0.11168435 0.10697128 -0.076255664 0.13924164 -0.11024163 0.10087696
-0.009952095 -0.07163286 0.07871959 0.041690834 -0.06872996 0.0030309537 -0.04746949 -0.10082253
0.067812905 0.00088773126 -0.01918339 0.07023039 -0.04692348 0.056827683 0.07368856 0.06417931
-0.11069862 -0.06044091 -0.026977578 0.060378123 0.08811852 -0.049106166 0.05298042 0.06690621
0.024147252 -0.06346803 0.05425281 -0.019926174 -0.11164547 -0.06902133 -0.07947375 0.092240185
0.063587755 0.050301008 -0.06830804 0.081377864 0.018734546 -0.08447839 -0.08810304 -0.09312678
0.055360027 -0.00056324404 -0.075919144 0.106685616 -0.092830814 -0.023677383 0.023134217 0.037480023
-5.272005e-05 0.015162445 0.08281291 -0.06182365 -0.11116365 0.10070703 -0.08770821 0.05408444
0.051687054 0.11026279 0.017787218 0.0491785 0.013838147 0.0557619 -0.033745848 0.101011865
-0.031014498 -0.034098953 -0.10851543 -0.10371429 -0.08916866 -0.11782776 -0.07574607 0.089869484
0.05278792 -0.09237678 -0.0811659 0.060218487 0.047652878 0.039334394 -0.09031894 0.018368907
0.10673018 -0.050762232 -0.011067152 0.08552702 0.053229794 -0.10143222 0.10360778 -0.005727034
-0.07633967 -0.03272159 0.033428293 -0.044433113 -0.0035942383 -0.019075224 0.07254417 -0.0570187
-0.09237519 0.07970546 0.0034038501 0.10711076 0.081478216 -0.07558132 -0.031553138 -0.0780122
0.031174494 -0.047632866 -0.014163941 0.13678409 0.11972862 0.0822367 -0.049792923 0.06355641
0.08771239 -0.08878203 0.0040264125 0.050413217 0.13935937 0.035626043 -0.030002795 0.0370132
0.15866752 0.08358436 -0.053293936 0.06993679 -0.042935796 -0.024412157 0.0722942 0.111036226
-0.009715104 0.034260668 -0.11039053 -0.025625214 -0.094117 -0.06856083 -0.101027586 0.064180695
-0.08444379 -0.052564092 0.088688724 0.13059981 0.10461652 0.0352933 0.1514712 -0.078416534
-0.046791352 0.004995666 -0.027298735 -0.06862494 0.08939778 0.10103303 0.06935441 -0.0075181397
0.085224845 -0.049121723 0.083821766 -0.0051055127 0.14031732 -0.050319687 -0.03388021 -0.08145174
0.051714912 -0.08398752 -0.03766789 0.04546707 -0.04310086 0.07223664 0.14563352 0.113772355

lstm.bias_hh_l0 f4 [256]
00000000: 605c 93bb d03f 06bb a69a 11bd bcd4 1b3e
00000010: 4edb d5bd 26fc a73d 9d7b b03d cd8c 93bd
00000020: 8277 033e 40fa f63c 56b3 eb3d ca97 95bd
00000030: 7169 8fbd 7dd9 d7bd bc73 4cbd 7833 ef3d
00000040: 9382 96ba 8af8 b3bd f5b0 7a3c 79ad 403d
00000050: 44a6 003d 4a09 6d3c 19b4 c8bd 6695 79bd
00000060: 6d4a eb3d 8d12 4cbd 9afa 7f3d ff50 8bbd
00000070: 4b1a cfbd d709 423d b4a1 f5bc e445 123e
00000080: e290 8dbd c0a5 d3bc 5ab1 f03d 5685 8bbd
00000090: 805a 4c3d c0aa c5bd 4f5a 233e aafa 74bd
000000a0: e039 a0bd 3e0a eebd 0ec2 133e cb7c 99bd
000000b0: 3b29 53bc 8185 c73d 20ef 8cbd 2a21 d5bb
000000c0: 6207 8dbd 7fa2 95bd 57fb 033e e1ef ff3d
000000d0: 10fd ad3d ad93 7bbd 6b5a 4ebd f8c6 88bd
000000e0: 3d0f d23d 6be6 183e f8f4 91bd e113 99bd
000000f0: 049e 49bd 5463 743d 370a 003e 070f 9bbc
00000100: a110 993d f555 b63d ae9f 97bd f901 0f3e
00000110: 57a3 8b3d 0ce8 363c 0944 94bd 0114 9bbd
00000120: 13e1 023e e8b6 c83d 50cc b6bd 32ef d3bd
00000130: 86be a43d 9cb1 ff3d dddc 5c3d 20a2 ee3d
00000140: 61cd 29bd af85 1e3d 5afc d93d eb49 67bc
00000150: cc7f bdbd fffc bfbc 013f eebc ab82 493d
00000160: bedc 80bd 458a fbbd 331a a13d 28d4 b03d
00000170: 098c ccbd 134f 843d 1c49 aabd 4f13 7cbb
00000180: 233a 983c ce08 f73d 840d 133d a90d 253d
00000190: 38d1 bf3c 4703 c9bd 385e 32bd efbb f13d
000001a0: 3a9b 8e3d de0b e03d 08eb 253d 2fba e83d
000001b0: 7d8f 073e 76ad abbd 03a6 10bd 9e63 bd3d
000001c0: 838f a63c 9cad dcbd d8ea c43d aa6b 513b
000001d0: 8522 c43d a472 70bd 499a c0ba 5a50 25bd
000001e0: 153d e8bd 4d8a 55ba e4ae d73d 0f4d 88bc
000001f0: 65b4 d53d 9616 a1bd 46f2 6c3d 7426 d0bc
00000200: 8ee5 2fbd 2b2b 43bd 0669 08bc 332c ba3c
00000210: 9f24 cebd 066b 7dbc cdb1 cd3d a1cb f0bd
00000220: cefc eebd 4175 b53a 5b3d c73d fc84 dcbd
00000230: 8a4b 06bd 51bd 883d ad0d 86bd b348 d73d
00000240: 472e a8bd a54a f33d 5d9d a6bd c22d 96bd
00000250: 8370 343c e1f2 2dbc 1e5e 44bd 9307 24bd
00000260: 029b c9bd cbda 843d faf9 e4bd 9aa4 e0ba
00000270: 451a c33d d565 d7bd bbb3 563c 5a40 b23c
00000280: 17db a3bd a0a0 b4bd 15ef b6bd daf7 87bd
00000290: 8280 2fbc 004c 78bd 3329 dc3d de02 bfbd
000002a0: b228 86bd fe10 b3bd 4f5f ea3c f62d 0b3e
000002b0: b421 873b e0db 39bd fda1 b0bd c45b d8bd
000002c0: 7133 4bbd 7dd2 d43c 3f32 06be 0cea d1bd
000002d0: bdb7 4b3d 64f9 c9bd 4984 43bd 194d 4cbd
000002e0: 80a6 cebd 9688 f2bd 6f48 f73b f7b8 8fbd
000002f0: 2c9e 94bc 6d52 f03d bfc0 dc3d e397 f83c
00000300: 4eff bbbd e6d9 0fba ffde c9bd ee3a 183e
00000310: 0c76 ea3d 2c07 b2bd 5bf0 a6bd 3957 963d
00000320: 4827 b13d ed34 b23d 8e70 053d 14fd 583c
00000330: 442b 593d d14e dd3b 5cd3 4fbd 5e75 b93d
00000340: 4e1d 0cbc bf02 dabd fcce 4ebd 4cfc 7e3d
00000350: 80b3 b53d 839d d53d 7ba8 ec3d ca67 8d3d
00000360: d175 ae3d 57c3 d5bc 347a 003e cfc9 1f3d
00000370: 5d97 7cbb ffd3 9dbd 7d28 f1bd cec0 a2bd
00000380: a3e9 c43c 465c bb3d 9f06 b7bd 76e7 ec3d
00000390: dcd9 a5bd 08ef e1ba 6ceb 86bd 2556 a0bd
000003a0: dbd9 a5bd 69a9 4dbd da76 0dbd 706e 9ebd
000003b0: feef 023e 7a41 25bd b2a8 953c 6590 81bc
000003c0: 651e 87bd c48e 713d 78cc 4dbd 1090 f7bb
000003d0: 6eaa a13d 5cc6 c93c 8c46 6bbd 3b00 f13d
000003e0: d419 2fbc f510 b83b 94df dabc d376 a8bd
000003f0: 24ee fabc 45d3 59bd 4a9f 273d 36e9 723d
-0.004497096 -0.0020484813 -0.035547875 0.1521787 -0.1044222 0.082023904 0.08617327 -0.0720459
0.12838557 0.030148625 0.11508815 -0.07304342 -0.07002533 -0.105395295 -0.04991506 0.11679739
-0.0011483006 -0.087876394 0.015300979 0.047040436 0.031408563 0.014467547 -0.09799976 -0.060933493
0.11488805 -0.04982238 0.06249485 -0.06802558 -0.10112437 0.047372665 -0.029984333 0.14284474
-0.069124 -0.025835872 0.11752577 -0.06812541 0.049890995 -0.096517086 0.15952419 -0.059809364
-0.07823539 -0.11623047 0.14429495 -0.074945055 -0.012888248 0.09742261 -0.06881547 -0.0065041976
-0.06886174 -0.07306384 0.12888847 0.12496925 0.084955335 -0.06142013 -0.050379198 -0.06678575
0.10256813 0.14931647 -0.07126802 -0.07474495 -0.04922296 0.05966504 0.12503897 -0.018928064
0.07473875 0.08903114 -0.07403503 0.13965596 0.06818264 0.011163723 -0.07239539 -0.07572175
0.12781172 0.098005116 -0.08925688 -0.10348357 0.08044152 0.12485048 0.05392157 0.11652017
-0.04145563 0.03870171 0.10643835 -0.0141167445 -0.09252891 -0.023436068 -0.029082777 0.04919688
-0.06292103 -0.12282232 0.07866325 0.086342156 -0.09987647 0.06460395 -0.08314726 -0.0038463657
0.01858241 0.12062226 0.03590156 0.04029623 0.023415193 -0.09815078 -0.043546885 0.118034236
0.06963201 0.109397635 0.040507346 0.11363637 0.1323833 -0.083826944 -0.03531457 0.09247516
0.020332104 -0.10775301 0.096151054 0.0031955042 0.095768966 -0.05870308 -0.0014694418 -0.040359832
-0.113397755 -0.00081459136 0.105314046 -0.016638307 0.10434798 -0.07865636 0.057848237 -0.02540896
-0.04294353 -0.04764859 -0.008325821 0.022726154 -0.10065579 -0.015467411 0.100436784 -0.11757589
-0.116693124 0.0013844148 0.097284995 -0.10767552 -0.032786883 0.06676734 -0.06545577 0.10511913
-0.08211952 0.11879472 -0.081354834 -0.07332946 0.011013153 -0.010616989 -0.04794132 -0.040046286
-0.098440185 0.06487044 -0.11180492 -0.0017138899 0.09526495 -0.1051747 0.0131043745 0.0217592
-0.080007724 -0.08819699 -0.0893232 -0.06639071 -0.010711791 -0.060619354 0.107500456 -0.09326719
-0.06550731 -0.087434754 0.0286099 0.13591751 0.004123891 -0.045375705 -0.08624647 -0.10564378
-0.049609605 0.025979275 -0.13105105 -0.10249719 0.049735773 -0.098620206 -0.04773358 -0.049878214
-0.10090351 -0.11842458 0.0075464766 -0.07017701 -0.018141828 0.117344715 0.10778951 0.030345863
-0.09179555 -0.00054874865 -0.09856986 0.1486623 0.11448297 -0.08692774 -0.08151313 0.07340855
0.086500704 0.08701501 0.032578044 0.013243932 0.053019777 0.0067537804 -0.050738677 0.09055589
-0.008551909 -0.10645055 -0.050490364 0.062252328 0.088721275 0.104304336 0.115555726 0.06904562
0.085185654 -0.026094122 0.12546617 0.03901082 -0.0038542368 -0.07706451 -0.11775301 -0.07946931
0.024037188 0.09148459 -0.0893681 0.11567585 -0.08098194 -0.0017237375 -0.06587872 -0.07828931
-0.08098193 -0.05021039 -0.034537174 -0.07735908 0.12786862 -0.040345646 0.018268917 -0.015815923
-0.06597594 0.058974043 -0.050243825 -0.0075550154 0.07893835 0.024630718 -0.057440326 0.11767622
-0.01068731 0.005617256 -0.026717938 -0.08225789 -0.030631132 -0.053179998 0.040923394 0.05930444

lstm.weight_ih_l1 f4 [256, 64]
00000000: 3434 fc3d b098 cd3d 81ee 04bc 19f7 6a3d
00000010: 81a0 af3d 2016 3fbb b056 78bd 2a0a 73bd
00000020: 35f3 e7bc c98a c6bd 651f fbbd 4c9c 083e
00000030: 8afe 66bd c4d1 db3c 407d 35bd b3e9 a5bd
00000040: 11c5 733c 039d f2bc 45c8 3bbe 4989 193e
00000050: a709 ed3c 9976 f0bd 4cd4 033e 4838 fdbd
00000060: 3023 22be 3587 90bc 5744 7e3d 9c7c 32bd
00000070: 1547 e83d 179c acbc 25b3 d1bd 170f 063d
00000080: 75f1 d53d 2579 e5bd 7bc6 30be a4b3 03be
00000090: 9ef8 0fbe 0568 f2bb d236 c53d 5790 23be
000000a0: ed91 ebbd 594e 17be e4c2 183d aae7 8cbd
000000b0: bc33 93bd ff01 1abe 5cc5 a4bd eb4f b03d
000000c0: f141 18be c054 94bd 8bac fb3c 14a4 e63c
000000d0: 6706 543e ac65 483d 60b9 5e3d 20fc ffbc
000000e0: 70da a83d 4733 243d 5b89 1b3e 61fb bf3c
000000f0: a3b3 04bd 02e7 18be b4bd fa3c edad 0bbe
00000100: 9c6c 82bd 0735 da3d 450b cdbd 281a 86bc
00000110: 19a2 86bd f445 2ebd 5d4a 19bd 8a14 7dbd
00000120: 0466 36bd 70e8 ffbc 0130 f4bb 5458 e8bc
00000130: 8fed 1a3e 0ef2 e03d dc5a 10be 8634 713d
00000140: b905 963d d644 003e 9854 c2bc 6a9a 96bc
00000150: 7e99 103d 1dee c4bd f56e 0c3d d542 443d
00000160: 94ec e8bd 716c 56bd 6d05 b8bc 532f 77bc
00000170: 3a8e 193c f397 b4bc 4ba8 d93c 6d43 1ebd
00000180: beec da3d 9710 7fbd 266f a2bd f92f 14be
00000190: 4593 253d 5aa3 da3d f873 453e ee87 e6bd
000001a0: b412 9f3c 1d4a e2bc 869c 69bd 69c0 e4bd
000001b0: 4ae7 0c3d f9e0 d0bd 43ec 9dbd 13e1 133d
000001c0: dabf 863c 0cc9 943d c06f 0ebe 72ae 143e
000001d0: a7b6 d73d 6d00 fd3d 15fa 443d c8ab 263d
000001e0: bbfd be3d 9ae2 9bbd f205 a33b e920 6b3c
000001f0: d939 fc3c 3e7a 03be 40cf 23bd 7f76 e2bd
00000200: 7591 ee3d beff b7bd 70e5 2b3a b1b3 73bd
00000210: 3abb 5fbd ca2c c3bd 765f 3fbc 1eea 683a
00000220: 80b3 a4bd 0be5 ad3d 32a8 3e3c e79b a2bd
00000230: f48a e7bd de2f be3d 7118 9dbd 0420 403d
00000240: ac5a 3c3d 3189 cebc 1b4b 753d 6cf7 373d
00000250: 2868 d8bb a0cc b23d 580b 8a3d a969 de3d
00000260: 9536 273d 25b3 2ebd c9a0 efbc 296e 0cbd
00000270: 62ab 7e3d 9678 04bb 1446 ed3d 7ba3 1a3e
00000280: 65bd 84bc f5bc 90bd d080 b3bd eddc 863d
00000290: 101c 0c3d 08ea 863c d6b8 513d 4bd1 d2bd
000002a0: fe88 07be 6b82 b2bd ed39 813d e243 0e3e
000002b0: 969f b03d 04c6 b73a a52f dfbd b9d0 04be
000002c0: 7bf5 b13d 9950 ae3d 8d9c 523d 314f 933d
000002d0: ca24 e0bd 1b18 ed3a 7487 ae3d 59ac 2f3d
000002e0: c937 04be 32f0 353d 38dc 043d 0833 f8bd
000002f0: d7cd 8cbd 7590 2ebc c8fe 823d 34ce 28bc
00000300: 8243 2a3e b972 aebc 5e93 babd c7a9 c6bd
00000310: 394f 0cbe 4faf e03d 4088 f83d 1d4d 13bd
00000320: 9134 a8bd a37f cb3d 0c44 8dbd d1e5 3d3d
00000330: f4c8 0dbe 8daa d43d 3851 c8bd b379 0dbd
00000340: 93fe 65bc 500d 87bd 130d ed3c 061b 08be
00000350: 1c10 57bd ca56 8cbc b8ba a7bd e874 533d
00000360: cde5 b53d 0015 d0bd 65d2 bfbd 7857 50bc
00000370: b6d8 87bd c67f 74bd 9c2a b83d 0837 e23d
00000380: 0f35 41bd d09a ca3d 2d69 f6bc fd3a bdbd
00000390: 06c4 c9bd 8a1b 57bd 531e 3f3d 1095 30bd
000003a0: 0c75 04bd c37b dcbd 4032 37bb 6b86 80bd
000003b0: 5315 093e 0257 01be a76b aebd 3bb7 443d
000003c0: 312e bc3d 6885 ae3d a2b2 113d 7227 17be
000003d0: e4b7 e03d 2766 993c 0c3e bcbd 35fa b13b
000003e0: 44df 823d 1cee e93b 0243 d7bd e646 053c
000003f0: e8de 0e3d 51ef 3fbd e54f 01bd 2f5a f93c
0.123146445 0.100388885 -0.008113504 0.057364557 0.085755356 -0.0029157475 -0.060629547 -0.059335865
-0.028314212 -0.0969444 -0.122618474 0.13340873 -0.05639509 0.026833422 -0.0443089 -0.08101215
0.014878527 -0.029615885 -0.18338116 0.14993776 0.028935267 -0.11741371 0.12873954 -0.123642504
-0.15833735 -0.017642597 0.062076893 -0.043575868 0.11341683 -0.021070523 -0.10239247 0.032729235
0.10446445 -0.11204747 -0.17263214 -0.12861496 -0.14059684 -0.007397654 0.09629597 -0.1597303
-0.115024425 -0.14775981 0.037295237 -0.06880124 -0.07187602 -0.15039824 -0.08045456 0.08608993
-0.14868905 -0.07242727 0.030721923 0.02815441 0.20705567 0.048925087 0.054376006 -0.031248152
0.08244789 0.040087964 0.15189116 0.023435296 -0.032397877 -0.14931872 0.030608036 -0.13640566
-0.06368372 0.106546454 -0.10011915 -0.016369894 -0.065738864 -0.04254718 -0.037424434 -0.061787166
-0.044530883 -0.031238765 -0.0074520116 -0.02836243 0.15129684 0.10983668 -0.1409716 0.05888798
0.0732531 0.12526259 -0.023721978 -0.018384177 0.03530263 -0.09615729 0.034285504 0.0479153
-0.11373249 -0.05234951 -0.022463525 -0.015086967 0.009372288 -0.022045111 0.026569506 -0.03863852
0.10689686 -0.06227168 -0.07931356 -0.14471425 0.04042365 0.10675688 0.1928252 -0.11256395
0.019418098 -0.02762323 -0.057034038 -0.11169512 0.034400262 -0.1019916 -0.07711079 0.03610332
0.016448904 0.07264909 -0.13909817 0.1451967 0.10532885 0.12353597 0.04809006 0.040691167
0.09325739 -0.0761158 0.004975074 0.014351108 0.030789303 -0.128396 -0.03999257 -0.110577576
0.116488375 -0.08984326 0.0006557321 -0.05949754 -0.054621913 -0.09530027 -0.0116804745 0.0008884984
-0.080420494 0.08490952 0.011636781 -0.07939892 -0.113058 0.09286474 -0.076706775 0.046905532
0.04598491 -0.025211902 0.05988608 0.044913694 -0.0066042133 0.08730435 0.06740445 0.10859997
0.040823538 -0.042651314 -0.029251473 -0.034284744 0.062175162 -0.0020213476 0.11585632 0.15101425
-0.016203592 -0.07067291 -0.087648034 0.06585107 0.03420645 0.016469017 0.051201664 -0.10293826
-0.13235852 -0.087162815 0.063098766 0.13893083 0.086241886 0.0014020805 -0.10897759 -0.12970246
0.086894 0.085114665 0.05141883 0.07192839 -0.10944517 0.0018088849 0.085219294 0.042888973
-0.12911905 0.04441852 0.03243658 -0.121191084 -0.06875198 -0.010654558 0.06396252 -0.010303069
0.16627315 -0.021294938 -0.09110139 -0.09700351 -0.13702096 0.109709375 0.121353626 -0.035962213
-0.08213151 0.09936454 -0.068977445 0.046361748 -0.13846189 0.103840925 -0.09781116 -0.03453989
-0.014037746 -0.06594336 0.028936898 -0.13291559 -0.052505597 -0.017131228 -0.08189911 0.051625162
0.08881722 -0.101602554 -0.093663014 -0.012716167 -0.06633131 -0.059692167 0.08992502 0.11045653
-0.04716974 0.098928094 -0.030079449 -0.09239767 -0.09851842 -0.052516498 0.04665978 -0.043110907
-0.032338187 -0.10765793 -0.0027953535 -0.06275638 0.13387041 -0.12630847 -0.08516627 0.048026305
0.09188498 0.08521539 0.03557075 -0.14761141 0.10972574 0.018725468 -0.09191522 0.0054314383
0.06390241 0.0071389806 -0.105108276 0.008134579 0.03488055 -0.04685909 -0.031570334 0.03043851

lstm.weight_hh_l1 f4 [256, 64]
00000000: da86 d53d 5840 24bd a5c1 53bd 68e0 5bbd
00000010: 28bb 8bbd df1c a33d 4249 29be c561 b83c
00000020: c1ae b33d 80db debd 64be 02be 7e56 ffbd
00000030: 6d78 5fbd c022 38bc ab71 a93d 3b17 02bd
00000040: ea51 043e c967 85bd db23 223d 8b38 afbd
00000050: f9f1 043e 1919 92bd 5149 1dbd 1489 e73d
00000060: 724a 40bd 38fd 673d 0cea 993c 9ed6 403d
00000070: 0138 9a38 ad95 41bd 6039 b33d e4ba e33d
00000080: 7ac3 8abc d247 27bc 5c70 0ebe 2506 c5bd
00000090: a6b8 a4bd 060d 873d 30cc 4dbc 983f 443d
000000a0: 5850 113d e8a0 113d b4f1 09be 3251 e3bd
000000b0: d5d2 fdbd 2522 173d 1bc3 f6bd c888 56bc
000000c0: 723e 87bd 0b9a c13d fcf9 df3c 4771 acbd
000000d0: 20cb a73c 2254 9a3b f399 c93d 5860 373a
000000e0: 7088 7abc 1966 f13d 738b 82bd 6e89 323d
000000f0: da4a 5e3c 9eaf bc3c 334c e33d 2f5d 113e
00000100: d60b 9e3c b5ac 89bd 13cc 24bb 9e5f e7bd
00000110: 1394 e63d d6cf 3bbd f95f c5bd e172 81bd
00000120: 2097 01bc f829 a4bd 697d e6bd d204 d73d
00000130: f63a 123d 4e3d 09be 1644 8e3d 76c7 a5bb
00000140: 7029 d1bd e558 8d3d a819 bcbd 856b 423d
00000150: 7875 02be 18fa 5f3c 835b d2bd fef5 5dbd
00000160: 80f9 d3bd f661 93bd 7520 803c 662c 1f3d
00000170: 9885 c63d 4295 debd 6e9f f4bd 566b c83c
00000180: 2f4e 753d 6998 b3bc 1331 363d 7e9b 053d
00000190: 90de 10be 13d2 c23d 0c84 0cbe 9a82 a03d
000001a0: c87c ee3c 5d84 f63c f310 b63d fc04 a13d
000001b0: ddba 143c 40ce dcbd 2e61 26bc df65 1abd
000001c0: aae3 133c 8b99 86bd 2dc2 563d 24ca b03d
000001d0: 0c92 bf3c d555 b33d 833a 473d 9a52 a5bd
000001e0: 73e5 04bd 3319 9a3c 1ed0 2dbc 7610 d9bd
000001f0: fbb3 7abd caf2 de3c bf57 2cbc b264 8e3d
00000200: c03a 193e fa02 3fbd ea8a b03d 559c 233d
00000210: 84f2 00bd 1f2b a0bc 4f2d 28bd 0ac0 9f3c
00000220: 944d e3bd 2ba3 a9bd 2a4a 0fbe 54c9 463d
00000230: 8b90 263d d8c9 65bd 7742 97bd 4ae8 4bbd
00000240: 825d adbd f1c8 493c 0ae1 14bd 2ece a5bd
00000250: e16a 04be e809 c0bd b94e 9cbc dce1 84bd
00000260: 09da 7b3d 0a76 f2bc 7aa1 b63b e238 bf3c
00000270: 9471 01be be4b e6bd 2c0c c5bc 16b0 c43b
00000280: ae75 ad3d f4ff a23d 7e95 4b3d f878 c6bd
00000290: 9a0d ec3d 9e7d cfbd 916e 2cbd 51ae 92bd
000002a0: a373 df3d a431 35bd a855 5c3b 3d56 ee3d
000002b0: 0c9b 8fbd 22a8 c1bd e150 c33d ffb7 3e3d
000002c0: 6cf7 9cbd 2cbc 26bd b6c1 88bb 0119 ba3c
000002d0: 6834 d1bd 4ed8 25bd aaa7 8bbd a6b8 a6bd
000002e0: d13f 2f3d 9b68 aebc 3a98 223d 79cf 183d
000002f0: 98ed b6ba 36dc 25bd 2bcd 94bd fdce 33bc
00000300: 18ce 963d b25f cc3d 090a 72bb cdc6 cf3c
00000310: 5768 b6bd a62d 0ebd 45fb d73d 0e24 cabd
00000320: d8b5 01be 2a97 bcbd 59b3 493d 70fb 7a3d
00000330: af37 d93d 33d8 c2bd 7c6c e3bc 98bf a3bc
00000340: 3889 5e3d 0a88 e6bd eb4f 843d e100 a23c
00000350: 95d5 a1bd 4301 93bd 237a 213d e294 be3d
00000360: eee3 953c 38e5 c53d a713 013e 4ac5 c53d
00000370: c7f6 61bc d7cb 19be 1d69 8fbc a9e4 b73c
00000380: 2b63 ccbb 7207 0a3d 6004 a7bd bd8b 823d
00000390: 8091 9e3d ba44 813d a077 2cbe a35a 95bd
000003a0: c613 023e 0ae3 c0bd 57b2 c6bd 5483 1cbd
000003b0: a043 753d 79d0 ae3d 1c9b 1d3c 25a9 813d
000003c0: 5d19 91bd 8c3d 84bd 2df6 7e3d cd06 d73c
000003d0: 279b 123e 22f1 d9bb 3caf 853d 6391 143d
000003e0: 23da a3bd 9440 c7bd b199 25be 8f93 96bd
000003f0: b61d 393d 58f3 af3d 225b df3d d22e f23c
0.104261115 -0.040100425 -0.051698346 -0.053680807 -0.068228066 0.07964491 -0.16531852 0.022507558
0.08773566 -0.1088171 -0.12767941 -0.12467669 -0.054558206 -0.011238754 0.082736336 -0.031760436
0.12921873 -0.06513936 0.039584976 -0.085557066 0.1298293 -0.07133693 -0.038399998 0.113054425
-0.046945997 0.056637973 0.01878836 0.047079675 7.353724e-05 -0.047261883 0.08751178 0.11119631
-0.016938914 -0.010209994 -0.13910049 -0.096203126 -0.080430314 0.06594281 -0.012560889 0.04791221
0.035477012 0.035553843 -0.13471109 -0.11099471 -0.12393729 0.036897797 -0.12048932 -0.013094135
-0.066037074 0.094532095 0.027340882 -0.084200434 0.0204826 0.0047097364 0.098438166 0.00069952523
-0.015291318 0.11787052 -0.06374254 0.043588094 0.013567651 0.02303296 0.11098518 0.14195703
0.019292753 -0.067223944 -0.0025146052 -0.112975344 0.11258712 -0.045852505 -0.09637446 -0.063207395
-0.007909566 -0.080158174 -0.11254389 0.10498966 0.03570076 -0.13402292 0.0694658 -0.005059178
-0.10212982 0.06901721 -0.09184581 0.04746582 -0.12740123 0.013670467 -0.10271361 -0.054189675
-0.10350323 -0.07196419 0.015640477 0.0388607 0.0969345 -0.108683124 -0.11944471 0.024465244
0.059889015 -0.02192326 0.044480395 0.032618992 -0.14147401 0.09512725 -0.13722247 0.0783741
0.029112235 0.030092413 0.088899516 0.07862279 0.009077755 -0.107815266 -0.010155005 -0.037694808
0.009026447 -0.06572255 0.052431274 0.08632305 0.02338507 0.087566055 0.048639785 -0.080723956
-0.032445382 0.018810844 -0.010608701 -0.10598843 -0.0612068 0.02721538 -0.010518967 0.069528
0.14963818 -0.046633698 0.08620246 0.03994401 -0.03148128 -0.019551812 -0.041058835 0.019500751
-0.11098781 -0.08283075 -0.13993135 0.048531845 0.04066519 -0.056100696 -0.07385724 -0.049782075
-0.08465101 0.012315975 -0.036347426 -0.08095966 -0.12931396 -0.093768895 -0.019080507 -0.06488392
0.06148723 -0.029597301 0.0055734487 0.023342554 -0.12640983 -0.112449154 -0.024053656 0.0060024364
0.08469711 0.079589754 0.049703114 -0.09691042 0.11526032 -0.101313815 -0.04209763 -0.071621545
0.10910728 -0.044236794 0.003362039 0.116375424 -0.07011995 -0.09455897 0.09536911 0.04656219
-0.076643795 -0.0407068 -0.004173483 0.022717 -0.10215074 -0.040489487 -0.06819089 -0.08140688
0.04278547 -0.021290114 0.039695956 0.037307236 -0.0013956307 -0.040493213 -0.07265695 -0.010974643
0.07363528 0.0997919 -0.003693225 0.02536335 -0.0890662 -0.034711502 0.10545973 -0.09870158
-0.12667024 -0.0920852 0.049243305 0.061274946 0.10606324 -0.09513893 -0.02776169 -0.01998882
0.05433008 -0.11256416 0.06460556 0.01977581 -0.07902066 -0.07177975 0.03942312 0.09305741
0.018297162 0.09662861 0.12605153 0.096567705 -0.013791746 -0.15019165 -0.017506177 0.0224479
-0.0062374077 0.033698507 -0.08155131 0.06374309 0.07742596 0.06311937 -0.16842508 -0.07292678
0.12702855 -0.09418304 -0.097019844 -0.03821118 0.059878945 0.08535857 0.0096195005 0.0633109
-0.07084916 -0.06457052 0.06224649 0.02624836 0.14316998 -0.0066510597 0.06527564 0.036271464
-0.08000591 -0.09729114 -0.1617191 -0.07352363 0.04519435 0.08591336 0.10906054 0.029563341

lstm.bias_ih_l1 f4 [256]
00000000: 85a1 f03d 079c a13d 178b cf3c c58e 1f3e
00000010: bd65 083e 29e5 5d3d 86e4 a0bd 0705 1f3e
00000020: 6140 253d 9fcc 893d 1764 a03c c12b 95bb
00000030: efb9 3e3d b4cc a03d aab4 63bd 46e8 e3bd
00000040: 794a 803d e4b9 053e 649c 173e edee ab3d
00000050: 710a 6b3d 9390 573d bfc8 17ba 2af2 d63d
00000060: fe53 e0bc 3cf9 343d 8b5f 173e 2115 143d
00000070: 2d9b 30bd 9c04 ac3d 8930 273e 2dcd b73d
00000080: e0ab 0f3e 945f 47bd 68da 2a3e 1013 b73c
00000090: fe3f 0d3e 9653 11bb 4393 433d 17ab b03d
000000a0: d9e8 1e3d 3747 193d 5d10 d33d b1ec 543c
000000b0: 6018 0ebd 9c36 0ebd 7331 7abd de8d dbbc
000000c0: e6b1 953d 8589 a83d 0f42 4e3d 263e ae3d
000000d0: c73f 66bc f27b 90bd 2103 323d eb70 8c3d
000000e0: 83e6 673c 8d21 ba3d 1bd1 85bd b797 9b3d
000000f0: 718a b33d e54e 9a3d 7c8e 1ebd 5539 e83d
00000100: ed68 f0bc 0ed9 213d 80b6 233d 4ebf a0bd
00000110: f4cf c9bd bf9d 8ebd 968f 013e f6bf a93d
00000120: 092b e83d 59e8 7c3d eb75 fc3d c4b7 e8bd
00000130: 331c ce3c eb14 0cbd d313 96bd b086 dc3d
00000140: 6d8d 813a 54a0 fd3b 2a69 bf3d b7d8 0c3c
00000150: 829b 48bd e0c4 51bd e384 cb3d 7e72 9abd
00000160: 2f4f 173d 502d 30bd 4082 de3c a55b 463d
00000170: db28 1a3d f1ee 723c ce6b 00bd 5b88 aa3c
00000180: 0e3b 1f3e b9eb 86bc ed60 5f3c c1e5 bd3d
00000190: e566 a0bd 2ed7 323d 7761 aabd 605c adbc
000001a0: 3fcb 90bd dd97 133d 3b4a a23c 39d7 b5bb
000001b0: 73b7 7ebd eb6c e93d e3fc da3d d04d 3ebd
000001c0: d51e 61bd c0fd e3bd 82c3 cc3d bfb0 1e3e
000001d0: fad0 2fbd 7d6c e53d 9cc4 913d 6354 6f3d
000001e0: 3318 c1bd 5e11 043e f06d 34bd 6326 4ebd
000001f0: b1a8 d03d 21b0 e0bc cb53 c93d 2116 b4bd
00000200: b4b4 903d ebaf a13d 63d6 243d aea5 af39
00000210: 6bda e8bb 14c8 673d cd9b bbbd 794a 76bd
00000220: 13a0 05bc 4135 c0bc f5fc b13d 053b c0bd
00000230: 4c47 d83c a20f 903d bb33 863c 7728 e03d
00000240: 8af5 353d f4cd 0e3d 56c2 a73d 4137 213d
00000250: 4f5b f5bc 478b 5eba 025b 5a3d b4c3 b33c
00000260: fa05 513d 5717 c43d 622f b43d 594e b43d
00000270: b7bd 413c 693c 35bd 398d babd 7c76 d8bd
00000280: d5ca 2f3c 13bf cf3d 60a2 e4bb 1185 e93d
00000290: 447b 1bbd 2bca d5bd a4b2 bcbb c1fe e8bd
000002a0: 5deb ebbd edb4 a8bd 8c35 51bb 09df 403d
000002b0: 60db 01be 735c e93a f464 f9bd fdd0 bd3d
000002c0: 999c 92bd 1ec9 b8bd 3bab c9bd c1d0 ffbc
000002d0: 58b8 eeba 5516 b0bd c6c1 9abd 96f5 80bc
000002e0: c637 92bc 0956 93bd 30ce 403d 5a84 aebd
000002f0: 7b28 033e 4fb2 96bd df5b edbd 7bfe 6abd
00000300: 4e5c a13d 9117 f73d 638d 043e 22e7 163e
00000310: 6955 1b3d 8d1e c2bd 78ef 0c3c fe6f 7b3d
00000320: b09d 523d 218d de3d 49be 69ba 452c 153e
00000330: ffa6 ee3d a92b afbd 5e11 013e 1659 773c
00000340: 731c 4cbc 1d7e ae3d 2f5e bcbd 2b51 cabc
00000350: 6775 b9bd 6ab9 123e 6489 f63c 9378 b1bd
00000360: f515 fb3d 89fa 48bd ee89 0c3e bea1 65bb
00000370: 880b 22bd fb1d ec3d 7554 283d 0bf8 7bbd
00000380: e630 12bd aa25 f63a b521 b03d 4c7d 093e
00000390: 8b8c ab3b db55 e73c 0e83 bcbd 03fb ccbd
000003a0: dcd4 c03c f0c3 383c 14f8 203e f1d9 0a3e
000003b0: 8393 d53c 01da 813d 9acd b73d 371c 97bd
000003c0: 5553 403c 7752 cf3c f4aa c3bd 76f4 063e
000003d0: 37d8 b73d b7c6 063e 6da2 ff3d 4915 9c3b
000003e0: 2644 d13d 4942 1e3e e4d7 5cbd 6a92 923c
000003f0: 1063 0d3e 2c90 403d 9577 8cbd 4579 223d
0.117495574 0.07891088 0.025334878 0.15581806 0.1332006 0.054173622 -0.078560874 0.15529262
0.0403446 0.067284815 0.019578977 -0.004552335 0.04656404 0.07851544 -0.055592217 -0.11128287
0.062642045 0.13059193 0.14805752 0.08395181 0.057383005 0.05262811 -0.00057901064 0.10495408
-0.0273838 0.044183 0.1478254 0.036152963 -0.043116737 0.08399317 0.16327108 0.08974681
0.14030409 -0.048675135 0.16684878 0.022347957 0.13793942 -0.0022175065 0.04774786 0.08626383
0.03879628 0.03742143 0.103058554 0.012995885 -0.034691215 -0.03472005 -0.061082315 -0.026801046
0.07309322 0.08229355 0.050355967 0.085079476 -0.014053292 -0.07054891 0.043460015 0.06857475
0.014154079 0.090884306 -0.06534024 0.07597297 0.0876664 0.07534579 -0.038710102 0.1133906
-0.029346908 0.03951364 0.039968967 -0.078489885 -0.09854117 -0.069636814 0.1265243 0.08288567
0.11336333 0.06174502 0.123271786 -0.113631755 0.02515993 -0.034199636 -0.07328 0.10767877
0.0009884067 0.00774006 0.0934623 0.008596591 -0.04897643 -0.051213145 0.099374555 -0.07541369
0.03694075 -0.043011963 0.027161717 0.048427243 0.03763662 0.014827476 -0.03135281 0.020816972
0.15549871 -0.016469823 0.013633949 0.09272338 -0.078321256 0.043662243 -0.08319371 -0.021162212
-0.07070016 0.0360335 0.019810786 -0.005549338 -0.06218667 0.113977276 0.106927656 -0.046460927
-0.054961044 -0.11132383 0.09998228 0.15497111 -0.042923905 0.11202333 0.071175784 0.058430087
-0.09428444 0.1289725 -0.044050157 -0.050329577 0.10188425 -0.027427735 0.09830435 -0.08793283
0.070657164 0.07894882 0.040243518 0.00033502042 -0.0071061156 0.056587294 -0.09160576 -0.060129616
-0.00815584 -0.023462893 0.08690826 -0.09386257 0.026401184 0.07034232 0.016382089 0.10945218
0.044423617 0.03486438 0.081913635 0.039359335 -0.029950766 -0.0008489382 0.053309448 0.021943904
0.05103109 0.09574764 0.087981 0.08804006 0.011825017 -0.044247065 -0.09108967 -0.10569474
0.010729511 0.101438664 -0.0069773644 0.114023335 -0.037959352 -0.10438951 -0.0057586003 -0.113767155
-0.11519501 -0.08237634 -0.0031922786 0.047087703 -0.12681341 0.0017804041 -0.121774584 0.09268377
-0.07158775 -0.09022735 -0.09847113 -0.031227471 -0.0018212898 -0.085980095 -0.075564906 -0.015742105
-0.01784886 -0.07194144 0.047071636 -0.08521338 0.12808411 -0.073582284 -0.11589789 -0.057371598
0.07878934 0.12065042 0.1294456 0.14736608 0.03792325 -0.09478483 0.008602016 0.0613861
0.051419914 0.10866762 -0.00089165993 0.14567669 0.11652946 -0.085532494 0.12604281 0.015096923
-0.012457955 0.08520148 -0.091976516 -0.024696907 -0.09055596 0.14328542 0.03009481 -0.08665576
0.12260047 -0.049067054 0.13724491 -0.0035039033 -0.03956178 0.11529156 0.04109617 -0.06151585
-0.035691164 0.0018779535 0.08600179 0.13426703 0.00523526 0.028239181 -0.09204684 -0.10008814
0.023539 0.011277184 0.15719634 0.135597 0.026071316 0.06340409 0.08974762 -0.073784284
0.011738618 0.025307877 -0.09554091 0.13179192 0.089767866 0.13161741 0.12482152 0.0047632796
0.102180764 0.15454973 -0.053916827 0.017892081 0.1380732 0.047012493 -0.06858746 0.039666433
