data/models/linkANDeth_lstm_1h.pth (torch, 215989 bytes, 10 tensors)

lstm.weight_ih_l0 f4 [256, 10]
0	0xbdad680f	-0.08467113
1	0x3c56824c	0.013092589
2	0x3d95ecae	0.07320534
3	0x3d952820	0.07283044
4	0x3d3244e0	0.043522716
5	0xbce4fe4a	-0.027953286
6	0xbe081794	-0.13290244
7	0x3cd890b6	0.026436191
8	0x3dd78cde	0.10524915
9	0xbb747c66	-0.0037305593
10	0x3db5230c	0.08844575
11	0xbdfb327e	-0.1226549
12	0x3c9565e2	0.018237058
13	0xbd52ca86	-0.051462673
14	0xbd2b9ae6	-0.04189577
15	0x3e2b9919	0.16757621
16	0x3d70b17b	0.05876301
17	0xbd382df9	-0.044965718
18	0xbd4d5a50	-0.050134957
19	0x3d9d3390	0.076758504
20	0x3da28f33	0.07937469
21	0x3d9439ba	0.07237573
22	0xbdeddcfc	-0.11614415
23	0xbe02e69a	-0.1278328
24	0xbd41f8ac	-0.047356293
25	0x3d7e1f1d	0.06204139
26	0xbd321a07	-0.043481853
27	0x3e054cb1	0.13017537
28	0xbe024ee2	-0.12725404
29	0xbde51eab	-0.1118749
30	0xbd1d0fa8	-0.03834501
31	0x3e12ece3	0.14348178
32	0x3dd11dff	0.102107994
33	0x3c689743	0.01419622
34	0xbdb24c44	-0.08705953
35	0xbccff4bb	-0.025385251
36	0x3d86b6d6	0.06577842
37	0xbdf690c3	-0.1203933
38	0x3de9abda	0.11409731
39	0xbcd2edda	-0.025748182
40	0xbde567af	-0.11201417
41	0xbd367169	-0.04454175
42	0xbdac3787	-0.084090285
43	0x3d8f1826	0.06987028
44	0xbd4dccec	-0.050244257
45	0xbda3928e	-0.079869375
46	0x3d9ae10a	0.07562454
47	0xbd8bd1ee	-0.0682715
48	0x3b99bbb2	0.0046915645
49	0xbc685e43	-0.01418263
50	0xbdd93199	-0.10605163
51	0xbd55a54c	-0.052159593
52	0x3c50b7d3	0.01273914
53	0xbd60283b	-0.054725867
54	0x3d01a5ce	0.031652264
55	0x3dfcf38a	0.12351139
56	0xbbccfa3e	-0.006255417
57	0xbd104510	-0.035222113
58	0x3acb3505	0.0015503472
59	0xbd97390c	-0.07383928
60	0x3d9b4285	0.07581047
61	0x3d172303	0.036898624
62	0x3dec39ba	0.11534448
63	0xbd9e1622	-0.07719065
64	0xbc690e88	-0.014224656
65	0x3d118428	0.035526425
66	0xbdc48bcd	-0.095969774
67	0x3c8b09b5	0.016972402
68	0x3ce93861	0.028469266
69	0xbccc6bb3	-0.024953699
70	0xbdec24a0	-0.11530423
71	0x3d8a8b84	0.06764892
72	0xbb264964	-0.0025373334
73	0x3d7dcdc0	0.061963797
74	0x3bd2fa7e	0.0064385524
75	0x3ce04736	0.027377706
76	0xbb63ef5a	-0.0034780116
77	0x3df163a3	0.11786582
78	0x3d9d737b	0.07688042
79	0xbd9e3459	-0.07724828
80	0xbca6eb74	-0.020375945
81	0xbc800518	-0.015627429
82	0xbd4158ce	-0.04720383
83	0x3db2f32c	0.087377876
84	0x3e1fe7d8	0.15615785
85	0xbc8d101e	-0.0172196
86	0xbd85c525	-0.06531743
87	0x3d73792b	0.059441727
88	0x3b63768e	0.0034708115
89	0x3d4c01ef	0.04980653
90	0x3d68e330	0.056857288
91	0x3dc491d3	0.09598126
92	0xbc04482a	-0.008073846
93	0x3d612276	0.054964505
94	0x3e027b98	0.1274246
95	0xbc8b0fc3	-0.01697529
96	0x3dd15671	0.102215655
97	0x3d766cf8	0.060162514
98	0xbd91de06	-0.07122426
99	0x3d77ed9e	0.060529344
100	0x3d9e2c5e	0.07723306
101	0x3dc7703f	0.09738206
102	0x3ded9f37	0.116026334
103	0xbd4bb02b	-0.049728554
104	0x3c12bbe9	0.008955934
105	0xba76baea	-0.00094120076
106	0x3dc4239e	0.09577106
107	0x3e0741e4	0.13208729
108	0x3e0ec126	0.13940868
109	0xbe0224fd	-0.12709422
110	0xbd80503b	-0.06265303
111	0xbe283893	-0.16427831
112	0xbaebac2f	-0.0017980392
113	0xbddbf494	-0.10740009
114	0xbd8722bc	-0.06598422
115	0x3ddeaf55	0.10873286
116	0x3d907c61	0.070549734
117	0x3d9f73a5	0.07785729
118	0x3ceff6ba	0.029292453
119	0xbe0d2e01	-0.1378708
120	0x3dd8c8d6	0.105851814
121	0x3d736cb8	0.059429854
122	0xbe001139	-0.1250657
123	0xbd1c6835	-0.038185317
124	0x3d974d31	0.0738777
125	0x3d525354	0.051349
126	0xbd561571	-0.052266542
127	0xbdcd871d	-0.100355364
128	0xbca27d29	-0.019835072
129	0xbdd09913	-0.101854466
130	0xbdc1e0c5	-0.094666995
131	0xbe13ecf3	-0.14445858
132	0xbb4f5b1a	-0.0031639994
133	0xbe109d24	-0.14122444
134	0x3d81f0d6	0.06344764
135	0xbdafa719	-0.08576793
136	0xbbe0cd30	-0.0068603978
137	0x3a067000	0.00051283836
138	0xbe055ee8	-0.13024485
139	0xbd21bbe8	-0.039485842
140	0x3d93be13	0.07213988
141	0xbd9c5172	-0.07632722
142	0x3c45285d	0.012033549
143	0x3d7675fc	0.060171112
144	0x3df10f7d	0.11770532
145	0xbb11dce4	-0.0022256905
146	0x3c5ed155	0.013599713
147	0x3dd50ecf	0.10403215
148	0xbcbb8a9e	-0.022893246
149	0x3c321f33	0.010871696
150	0xbddcf622	-0.107891336
151	0x3da564e5	0.08075885
152	0xbdd40800	-0.103530884
153	0xbcac95f8	-0.021067604
154	0xbd81eb29	-0.06343681
155	0xbbfd7371	-0.007734709
156	0x3e2cd347	0.16877471
157	0xbd801d85	-0.062556304
158	0xbe1344ee	-0.14381763
159	0xbb83126f	-0.004
160	0xbd9c173b	-0.07621618
161	0x3e0f773c	0.14010328
162	0xbd948ea6	-0.072537705
163	0x3d8f0706	0.069837615
164	0xbcdd4843	-0.027011996
165	0x3c83a5a5	0.016070196
166	0x3c91fbb0	0.01782021
167	0xbdde8844	-0.10865834
168	0x3cdbbb46	0.026822697
169	0x3ce4c9e6	0.027928304
170	0x3b537d7a	0.0032270835
171	0xbcddd635	-0.027079681
172	0x3e164123	0.14673285
173	0xbd70e269	-0.05880967
174	0xbd3eaf57	-0.046553936
175	0x3c041888	0.008062489
176	0xbd0f05f7	-0.034917798
177	0x3e22e0ab	0.15906017
178	0x3dd30119	0.10302944
179	0xbbed6d0d	-0.007245666
180	0xbdc413d7	-0.09574097
181	0xbdf19bb7	-0.117972784
182	0xbdd8f8a6	-0.10594301
183	0x3d8e0b4a	0.06935747
184	0xbdce4ef8	-0.10073656
185	0x3df9fffb	0.122070275
186	0x3ca27b2a	0.01983412
187	0xbde6f1c7	-0.11276584
188	0x3d8f71ac	0.07004103
189	0x3dc5536a	0.096350506
190	0xbbe03774	-0.006842548
191	0x3da73546	0.08164458
192	0xbd8d654d	-0.06904087
193	0x3d625a96	0.05526217
194	0xbd17a3c2	-0.037021406
195	0xbd8eee39	-0.06979031
196	0x3d56a0d9	0.05239949
197	0x3cf8d730	0.030376047
198	0x3e150eb0	0.14556384
199	0x3d9b76e6	0.075910375
200	0x3e09c6bc	0.13454717
201	0x3c2732a7	0.010204948
202	0x3d85195d	0.06498978
203	0xbdac3871	-0.08409203
204	0xbce2f5c0	-0.027705073
205	0xbcaa1158	-0.020760223
206	0x3e178750	0.14797711
207	0x3dc97b9e	0.09838031
208	0xbda04dcd	-0.07827339
209	0x3c631253	0.013859349
210	0xbde644c8	-0.11243588
211	0x3d1e2b4a	0.038615502
212	0xbda8f9cd	-0.08250771
213	0xbde090a7	-0.1096509
214	0x3e25a84e	0.16177484
215	0x3dbb19d6	0.09135787
216	0xbd9377f2	-0.07200612
217	0x3ca685bc	0.020327441
218	0xbe16025f	-0.14649342
219	0xbc2ab834	-0.010419894
220	0xbd197f74	-0.037475064
221	0xbd9bc591	-0.07606042
222	0x3cc3ce0a	0.023901958
223	0xbd95d4a5	-0.07315949
224	0xbe1f3007	-0.15545665
225	0x3ce92f30	0.028464884
226	0xbd18c5eb	-0.037298124
227	0x3c467e6f	0.012115105
228	0x3d28d58f	0.04121929
229	0xbd3e94ac	-0.046528503
230	0xbd86808e	-0.065674886
231	0xbd1699ec	-0.036767885
232	0xbad9b3c1	-0.0016609357
233	0x3b7c5263	0.0038501255
234	0x3da4e813	0.08052077
235	0x3ce30065	0.027710149
236	0xbc5626a2	-0.013070734
237	0x3e0ba4d8	0.13637102
238	0xbdbda0da	-0.092591956
239	0xb899a6d0	-7.32668e-05
240	0x3e2536ad	0.16134138
241	0x3d862da8	0.06551677
242	0xbc756a15	-0.014978905
243	0x3d12af81	0.035811905
244	0xbdc31812	-0.095260754
245	0xbe23d781	-0.16000177
246	0x3cb2633c	0.021775834
247	0x3d2d38dd	0.042290557
248	0x3dffc8a0	0.12489438
249	0xbccd1545	-0.025034556
250	0x3cebcf4c	0.02878537
251	0x3dca62c3	0.098821186
252	0xbd388174	-0.04504533
253	0x3d247f8b	0.040160697
254	0x3da33f70	0.07971084
255	0x3d52ba8c	0.051447436

lstm.weight_hh_l0 f4 [256, 64]
0	0x3e0856ca	0.13314357
1	0xbd49c72b	-0.049262207
2	0x3b9326e3	0.0044907196
3	0xbd01c99e	-0.031686418
4	0xbd980926	-0.0742362
5	0xbe15131e	-0.14558074
6	0x3d96666c	0.07343754
7	0xbd5b4fff	-0.053543087
8	0xbd81dbf3	-0.0634078
9	0xbdfa2fec	-0.122161716
10	0xbe077265	-0.13227232
11	0xbd922231	-0.07135428
12	0x3dcdd44c	0.10050258
13	0xbe3fcdc8	-0.18730843
14	0x3d9d88b6	0.07692091
15	0xbd04ce0e	-0.03242307
16	0xbe07e0f0	-0.132694
17	0x3dd7080c	0.10499582
18	0xb9c66610	-0.00037841545
19	0x3da7f6e8	0.082013905
20	0x3d5ff887	0.054680374
21	0x3d57fe2b	0.052732628
22	0xbcce319f	-0.025170146
23	0x3d9adfca	0.075622156
24	0x3de52659	0.11188955
25	0xbe1b4a02	-0.1516495
26	0x3db5964b	0.08866557
27	0xbccd999e	-0.025097664
28	0xbdae4a5c	-0.08510277
29	0xbe08f8c7	-0.13376151
30	0xbdb2f484	-0.08738044
31	0x3d4a2503	0.049351703
32	0x3d192226	0.037386082
33	0xbd29c37b	-0.04144619
34	0x3d4d7440	0.050159693
35	0xbdc9b085	-0.098481216
36	0xbce2994d	-0.02766099
37	0x3d7e535a	0.06209121
38	0x3e243fcd	0.16039963
39	0x3e2471fa	0.16059104
40	0x3d99761e	0.07493232
41	0xbd6e78a5	-0.058220524
42	0xbdddc8ed	-0.10829339
43	0x3e131ab9	0.14365663
44	0x3be019b6	0.0068390025
45	0x3cde23d1	0.027116688
46	0xbc7642fd	-0.01503062
47	0x3deecfb0	0.11660707
48	0xbe09b81a	-0.13449135
49	0x3e112f61	0.1417823
50	0x3dde8838	0.108658254
51	0x3c8aa231	0.016923042
52	0xbc43ec9c	-0.011958268
53	0x3cda89a9	0.02667697
54	0x3d974846	0.07386832
55	0xbdec7f91	-0.11547769
56	0x3e0d20d4	0.13782054
57	0x3dbe6913	0.09297385
58	0x3d604c8c	0.0547605
59	0x3c2145b4	0.009843279
60	0xbc76713f	-0.015041648
61	0x3e28d29f	0.16486596
62	0xbd680347	-0.05664375
63	0xbe089ef2	-0.13341883
64	0x3cdf1b3d	0.027234668
65	0x3c9db730	0.01925239
66	0x3d1f4b2d	0.038890053
67	0x3c2b9697	0.010472915
68	0xbd32ee3d	-0.043684233
69	0x3d1263ab	0.035739582
70	0xbdb3cf7b	-0.08779808
71	0xbd205692	-0.03914506
72	0x3d862724	0.06550434
73	0xbdbaafe7	-0.09115582
74	0xbdd88cbb	-0.10573717
75	0xbe05ed8b	-0.13078897
76	0xbdaf8fa2	-0.08572318
77	0x3debc2c4	0.11511758
78	0x3d58d97a	0.052941777
79	0x3d32a8a8	0.043617874
80	0x3db79825	0.08964566
81	0xbd1f94be	-0.03896021
82	0xbe04cd17	-0.1296886
83	0xbdb8c4f7	-0.09021943
84	0xbd05cfbd	-0.032668818
85	0xbc1ff80c	-0.009763729
86	0x3e15e791	0.14639117
87	0xbd9975ad	-0.07493148
88	0xbdbce04b	-0.09222468
89	0xbdbb379c	-0.09141466
90	0x3d21858b	0.039433997
91	0xbda6e3df	-0.08148932
92	0x3d1e08c4	0.03858258
93	0x3cc02a4c	0.023457669
94	0x3d59b7ee	0.053153925
95	0xbd647227	-0.055772927
96	0xbd3bd160	-0.045853972
97	0x3d53d839	0.051719878
98	0xbd377553	-0.044789623
99	0x3d21813a	0.03942988
100	0xbe18257b	-0.14858048
101	0xbc53766a	-0.01290665
102	0xbe05dbdb	-0.1307215
103	0x3c9b3a17	0.018948598
104	0xbd082d72	-0.033246465
105	0x3dcc21e3	0.09967401
106	0xbdb56e0e	-0.08858882
107	0xbd961a51	-0.07329238
108	0x3d46a1ad	0.04849403
109	0xbdd7f775	-0.105452456
110	0x3d2ef3c9	0.04271296
111	0xbd952fd1	-0.07284511
112	0x3dc7b1c2	0.097507015
113	0xbca69d7a	-0.020338763
114	0xbc655d3d	-0.0139992805
115	0xbd9cb6d0	-0.07652056
116	0xbda9a071	-0.08282555
117	0xbd26de14	-0.040739134
118	0xbcf7e335	-0.030259708
119	0x3d653f73	0.055968713
120	0x3dfaab0d	0.122396566
121	0xbe03aea9	-0.12859596
122	0x3cb7af14	0.022422351
123	0x3dd367e9	0.10322554
124	0x3e088d4d	0.13335152
125	0xbdad1b73	-0.08452501
126	0x3da6f2f5	0.08151809
127	0x3e2647f1	0.16238381
128	0xbdebf966	-0.11522178
129	0xbc0aa561	-0.008462281
130	0xbdcfc42e	-0.1014484
131	0x3d21e0d5	0.039521057
132	0x3d4fd81c	0.050743207
133	0x3df1c8fb	0.11805912
134	0xbc521eab	-0.012824695
135	0x3d1bbd40	0.03802228
136	0xbd4ab2bb	-0.049486857
137	0x3d33023f	0.043703314
138	0x3cbc4e41	0.022986533
139	0xbdd68494	-0.10474506
140	0x3d9c9c61	0.076470144
141	0xbdce2a3e	-0.10066651
142	0xbe24ce02	-0.1609421
143	0xbdde3550	-0.10850012
144	0xbda17a78	-0.07884687
145	0x3bc93b11	0.0061410745
146	0x3c577d42	0.013152422
147	0xbe010c24	-0.12602288
148	0x3d33d94c	0.043908402
149	0xbdd6d7c4	-0.10490373
150	0xbdd5e90f	-0.10444843
151	0xbdd28488	-0.102791846
152	0xbdf18d1e	-0.11794494
153	0x3c5a2349	0.013314077
154	0x3db060fd	0.08612249
155	0x3b5f95db	0.003411642
156	0x3d7c3865	0.06157722
157	0xbdb29944	-0.08720639
158	0x3b9f79c4	0.0048668105
159	0xbd81c76a	-0.06336863
160	0x3dddb259	0.10825033
161	0xbda1bd63	-0.07897451
162	0x3d54e6fd	0.0519781
163	0xbe04c466	-0.12965545
164	0xbe090ad1	-0.13383032
165	0x3d659161	0.056046847
166	0xbd30af16	-0.043135725
167	0xbd7c2759	-0.061560962
168	0xbb83e1f5	-0.004024739
169	0x3da6e80f	0.081497304
170	0xbdc9f9ed	-0.09862123
171	0xbe1299c0	-0.14316463
172	0xbd87ee8a	-0.066372946
173	0xbc4b1b20	-0.012396604
174	0x3d34a2c8	0.044100553
175	0xbd9de4a4	-0.07709625
176	0x3daac505	0.0833836
177	0x3dc8a8ce	0.09797822
178	0x3d54ccba	0.051953055
179	0xbc4b2cf8	-0.012400858
180	0x3c9559b7	0.018231256
181	0xbcc7742b	-0.024347385
182	0x3d38a7e0	0.045081973
183	0xbcc44ffe	-0.023963924
184	0xbdfdd2a9	-0.12393696
185	0xbd7c91a0	-0.061662316
186	0xbd878a8c	-0.066182226
187	0x3dc92c49	0.098229
188	0xbd38a72c	-0.045081303
189	0x3dbaf67b	0.09129044
190	0xbdb2880b	-0.087173544
191	0x3e073bd1	0.13206412
192	0x3bbe1b5e	0.0058016023
193	0xbd1a06c9	-0.037604127
194	0x3db0d6cc	0.08634719
195	0xbde07def	-0.1096152
196	0xbd8531ee	-0.06503664
197	0x3dd78a98	0.105244815
198	0x3cbcc7d1	0.023044499
199	0xbd985b2d	-0.074392654
200	0xbda7864a	-0.081799105
201	0x3cdb4756	0.026767414
202	0xbda59401	-0.0808487
203	0xbd375c28	-0.04476562
204	0x3e194cd7	0.14970718
205	0x3c8fde7e	0.017562147
206	0xbc8ac795	-0.016940871
207	0x3ccf569b	0.025309851
208	0x3dcf1875	0.10112087
209	0x3d191a5a	0.037378646
210	0xbcb5e78c	-0.022205137
211	0xbdae7402	-0.085182205
212	0xbc85aef9	-0.016318785
213	0xbc4d7b2b	-0.012541573
214	0xbc158c9c	-0.009127762
215	0xbaba4887	-0.0014212289
216	0xbdcbf65a	-0.09959097
217	0xbd998e69	-0.07497866
218	0x3dc792a6	0.09744768
219	0x3d9d5f99	0.076842494
220	0x3d9c75f0	0.07639682
221	0x3d230a73	0.039804887
222	0xbcd9ae9c	-0.026572518
223	0x3b96e82c	0.0046053138
224	0x3d76556b	0.060140055
225	0x3e0d1796	0.13778529
226	0xbd4ca523	-0.049962174
227	0xbe399a95	-0.18125375
228	0xbd408a7e	-0.047007076
229	0xbce2f428	-0.027704313
230	0x3c01708c	0.007900368
231	0xbdc6de1d	-0.097103335
232	0xbd603474	-0.054737523
233	0xbe0c2f7b	-0.13689987
234	0x3dcbb45d	0.09946511
235	0xbd8179da	-0.063220695
236	0x3d241e61	0.040068034
237	0xbbe7a1fd	-0.007068871
238	0x3cd7c8bb	0.026340833
239	0x3c790a7b	0.015200253
240	0xbc3423f8	-0.010994904
241	0x3e0ad2a9	0.13556923
242	0x3db8fcb3	0.090325736
243	0xbdd7a99c	-0.10530397
244	0x3cea8a7e	0.028630491
245	0xbe0d6dfa	-0.13811484
246	0x3e0f90b0	0.14020038
247	0xbcc46e34	-0.02397833
248	0xbdcc5de4	-0.09978846
249	0x3d41b6ca	0.04729346
250	0x3d89f676	0.06736462
251	0xbda61f33	-0.081114195
252	0x3c4071ff	0.011745929
253	0xbd84f10b	-0.06491288
254	0x3d8cc874	0.06874171
255	0xbdbc4448	-0.09192711

lstm.bias_ih_l0 f4 [256]
0	0x3dcf0697	0.10108679
1	0x3e070def	0.13188909
2	0x3c8a25a9	0.01686366
3	0xbdcd4fac	-0.10024962
4	0x3cd9458c	0.02652242
5	0x3cbbbc1f	0.022916852
6	0xbca330a3	-0.019920653
7	0x3bad5924	0.0052901674
8	0xbbebdade	-0.007197722
9	0xbd5c98f6	-0.053856812
10	0xbd5b88c1	-0.053597216
11	0x3c3577b7	0.0110759055
12	0x3dbb93e5	0.09159068
13	0xbd402517	-0.04691037
14	0xbd22fe86	-0.039793514
15	0x3d2ce4f8	0.04221055
16	0xbcf765f5	-0.030199984
17	0xbdc6482a	-0.09681733
18	0x3def943f	0.116981976
19	0x3dee7d45	0.11644987
20	0xbdced82f	-0.100998275
21	0x3e00742e	0.12544319
22	0xbdccd653	-0.100018166
23	0x3df976cd	0.121808626
24	0x3ccff625	0.025385926
25	0x3dfe9c14	0.12432113
26	0xbcef4960	-0.029209793
27	0x3dc9a57c	0.09846017
28	0x3d0ec951	0.03485996
29	0x3e064fd6	0.13116392
30	0xbdcd8284	-0.100346595
31	0xbdcdec50	-0.10054839
32	0x3d3ea14b	0.04654054
33	0x3d6985a1	0.057012204
34	0x3c91b348	0.017785683
35	0xbe019ddc	-0.12657875
36	0x3da971c3	0.082736515
37	0x3dc1945f	0.09452128
38	0x3d80c90c	0.06288347
39	0xbd153a56	-0.036432587
40	0x3d0c6558	0.034276336
41	0x3c9f8d09	0.01947643
42	0x3dbf2be9	0.09334547
43	0x3da617dc	0.081100196
44	0xbc620857	-0.013795934
45	0xbd72fe34	-0.05932446
46	0xbc822342	-0.015885953
47	0x3dedc278	0.116093576
48	0x3e070664	0.13186032
49	0x3cdde130	0.027084917
50	0x3c329002	0.010898592
51	0x3dd76327	0.10516959
52	0x3dd88bf4	0.10573569
53	0x3de03eab	0.10949453
54	0x3d06ee2f	0.032941993
55	0x3de42012	0.111389294
56	0xbc216392	-0.0098504
57	0xbd5365a1	-0.051610593
58	0xbc740837	-0.014894537
59	0x3c345d2d	0.011008543
60	0xbda3f5f1	-0.08005894
61	0xbcecd044	-0.028907903
62	0x3afb2b2d	0.0019162648
63	0xbd6b278c	-0.05741076
64	0xbd8558f1	-0.06511105
65	0x3d690c51	0.05689651
66	0xbacbf3bb	-0.0015560308
67	0xbd19857a	-0.03748081
68	0xbdbc659e	-0.091990694
69	0xbd4d62dd	-0.05014311
70	0xbdf6750d	-0.120340444
71	0x3d40d3e8	0.04707709
72	0x3dcc77bb	0.09983774
73	0xbc9a0165	-0.018799493
74	0x3ca3b454	0.019983448
75	0xbd7e4c7d	-0.062084664
76	0x3dd71a78	0.105030954
77	0xbd15420e	-0.036439948
78	0x3e0a63cd	0.13514633
79	0xbceaf7fe	-0.028682705
80	0xbd0938ef	-0.03350156
81	0xbdcdc35a	-0.10047026
82	0xbd959e2a	-0.07305558
83	0xbd05c4c2	-0.032658346
84	0xbd2a4b87	-0.041575935
85	0xbdc603ce	-0.096686944
86	0x3bb6b353	0.0055755763
87	0xbd92ccf2	-0.071679965
88	0x3dff808e	0.12475692
89	0x3e362f4a	0.17791477
90	0x3d9e841e	0.07740043
91	0xbd2aa51e	-0.041661374
92	0xbd0ff589	-0.03514627
93	0xbd8dd511	-0.06925405
94	0x3c13a107	0.00901056
95	0xbdbf008c	-0.09326276
96	0x3df37ff1	0.11889637
97	0xbd790818	-0.060798734
98	0x3e140611	0.14455439
99	0xbdde72cf	-0.10861742
100	0x3e1f7362	0.15571359
101	0xbd1135d1	-0.035451714
102	0x3d866694	0.06562534
103	0xbbe5e8bb	-0.007016269
104	0xbcf09f75	-0.02937291
105	0x3ddc1ba5	0.1074746
106	0x3dfdfa47	0.12401252
107	0xbcfce692	-0.030871663
108	0xbd06cec7	-0.032912042
109	0xbd8e5948	-0.06950623
110	0xbc0725b9	-0.00824874
111	0xbcc9eebb	-0.024649968
112	0x3cf8ef00	0.030387402
113	0x3db2086b	0.08693012
114	0xbdf6cead	-0.12051139
115	0xbda642c6	-0.08118205
116	0xbdaeff39	-0.085447736
117	0x3dd6d5d7	0.104900055
118	0x3c79fbe2	0.015257807
119	0x3dee73f0	0.11643207
120	0xbd1386d8	-0.03601727
121	0x3dc166fe	0.09443472
122	0x3d078212	0.03308303
123	0x3e15cf99	0.14629973
124	0xbc49c861	-0.01231584
125	0x3ced94b6	0.029001575
126	0x3d2d2a6a	0.042276777
127	0xbd4a5140	-0.049393892
128	0x3d32accf	0.043621834
129	0xbbf7bb2b	-0.007560154
130	0xbdbfe8e8	-0.09370595
131	0x3c9af685	0.018916378
132	0x3de204e8	0.11036092
133	0xbabdaf43	-0.0014471788
134	0x3b05e936	0.0020433194
135	0xbd9e1213	-0.07718291
136	0xbd33f5ad	-0.043935467
137	0xbce1452a	-0.0274988
138	0xbd91d727	-0.07121115
139	0x3d8bf06e	0.06832968
140	0x3dffaf2c	0.12484583
141	0x3d2308b4	0.03980322
142	0xbdc2b202	-0.095066085
143	0xbdd3a7c8	-0.10334736
144	0xbdb7bb5c	-0.08971283
145	0x3d18fee0	0.037352443
146	0xbdf07e07	-0.11742788
147	0x3d8ad92d	0.06779704
148	0xbd8b8409	-0.06812293
149	0xbcd74833	-0.026279544
150	0x3d1e7fe5	0.03869619
151	0x3dddff53	0.10839715
152	0x3da6495e	0.081194624
153	0x3d07923a	0.033098437
154	0xbd8eef2a	-0.06979211
155	0xbdd29092	-0.10281481
156	0x3cf3cc60	0.02976054
157	0x3dcc6d19	0.09981746
158	0x3de0b05e	0.10971139
159	0xbce1d9bd	-0.027569646
160	0xbda580e8	-0.080812275
161	0x3de048c5	0.1095138
162	0xbbf75bf8	-0.0075488053
163	0xbb762fe7	-0.0037565173
164	0xbe0d416d	-0.13794489
165	0xbd89bcbe	-0.06725453
166	0xbdee13bb	-0.11624857
167	0x3d9838b0	0.07432687
168	0x3b6de667	0.003630066
169	0x3c28ea1f	0.010309725
170	0xbd4ccc33	-0.049999427
171	0x3d879969	0.066210575
172	0xbbf40d78	-0.0074478947
173	0x3d80f13b	0.06296011
174	0xbcf7a26d	-0.030228818
175	0xbd5aa0dc	-0.053376064
176	0xbce9505d	-0.028480703
177	0x3c370aa6	0.011171972
178	0x3d5d7cee	0.05407422
179	0xbcba5604	-0.022746094
180	0x3de612bc	0.11234042
181	0xbd5bc8a5	-0.053658146
182	0xbca126c0	-0.019671798
183	0xbd4b7220	-0.049669385
184	0x3caaba78	0.020840868
185	0x3da1e553	0.07905068
186	0xbdbde1ed	-0.092716075
187	0x3c69421e	0.014236955
188	0x3d104b3c	0.035228
189	0x3d863e4a	0.065548494
190	0xbb9ce2c1	-0.0047877734
191	0xbd822e3f	-0.06356477
192	0x3c27a051	0.0102310935
193	0x3c7889cc	0.015169572
194	0xbd2451f7	-0.04011723
195	0x3d7471d6	0.059678875
196	0x3c0cf6ca	0.008603761
197	0x3d81a6f2	0.063306704
198	0xbcd65501	-0.02616358
199	0x3d280690	0.041021883
200	0x3d7eaca4	0.06217636
201	0xbdeb79ef	-0.11497866
202	0x3da874f8	0.08225435
203	0x3d450563	0.04810084
204	0xbdd7c3db	-0.10535403
205	0x3d91d1e4	0.071201116
206	0xbcfadaaa	-0.030621845
207	0x3d543f65	0.05181827
208	0x3cd3dd1a	0.025862265
209	0x3d704b21	0.0586654
210	0x3d2f9b01	0.042872433
211	0xbcf2ab71	-0.029622765
212	0x3d7a9c72	0.061184354
213	0x3ceb8de2	0.028754178
214	0xbd31d84a	-0.04341916
215	0x3dc8f248	0.098118365
216	0xbd81d465	-0.06339339
217	0x3d467eec	0.048460886
218	0xbc8b9a93	-0.01704148
219	0x3d255075	0.040359933
220	0x3cc9bcad	0.0246261
221	0x3b60e9ef	0.0034319123
222	0x3e0e506d	0.13897868
223	0xbd955071	-0.072907336
224	0x3d837b30	0.064199805
225	0xbdb33012	-0.08749403
226	0x3aab2c28	0.0013059424
227	0xbdbd1550	-0.09232581
228	0x3dbc66f1	0.09199322
229	0x3da40ba9	0.080100365
230	0x3db89a99	0.09013862
231	0x3de561f9	0.112003274
232	0x3dac08a3	0.08400085
233	0x3dc8b6d1	0.098004945
234	0x3948c2b2	0.00019146016
235	0xbcc72303	-0.024308687
236	0xbbe018f2	-0.006838911
237	0xbd4c2f37	-0.049849715
238	0xbd316ae4	-0.04331483
239	0xbd448e53	-0.047987293
240	0xbda3e72a	-0.080030754
241	0xbd95bc63	-0.073113225
242	0x3d7afbbf	0.06127524
243	0x3df31e6f	0.11871039
244	0x3da886b2	0.08228816
245	0x3e049444	0.12947184
246	0xbd29d253	-0.041460346
247	0xbd8a2835	-0.0674595
248	0xbc0aa7fb	-0.008462901
249	0xbdb62572	-0.08893861
250	0x3dc915c2	0.09818603
251	0xbdceb54e	-0.10093175
252	0xbda57e18	-0.08080691
253	0xbd8a9596	-0.067668125
254	0x3d48155a	0.048848487
255	0xbdc18989	-0.09450061

lstm.bias_hh_l0 f4 [256]
0	0xbda98127	-0.08276587
1	0xbdbf1cdf	-0.093316786
2	0xbd500d44	-0.0507939
3	0xbd3b7179	-0.045762513
4	0xbd839129	-0.064241715
5	0xbc0c16a4	-0.00855032
6	0xbb8fe569	-0.0043913615
7	0x3dd8f33a	0.10593267
8	0xbd88968f	-0.06669342
9	0xbd975d1a	-0.073908046
10	0x3e006c14	0.12541229
11	0xbd824c20	-0.06362176
12	0xbddb4217	-0.10705965
13	0x3d961676	0.07328503
14	0xbceaac15	-0.028646508
15	0x3e08d8ca	0.13363948
16	0xbdba5130	-0.090975165
17	0x3a338a62	0.0006848929
18	0xbd08c6ce	-0.03339272
19	0x3da81333	0.08206787
20	0x3d5d3837	0.05400869
21	0x3de6ee25	0.11275891
22	0x3dde4e6f	0.10854804
23	0xbdc16739	-0.09443516
24	0x3bb5b1e5	0.0055448883
25	0x3e156867	0.14590608
26	0x3df1ab9c	0.1180031
27	0xbda1cfa4	-0.079009324
28	0xbdecde6b	-0.1156586
29	0xbd1c6a91	-0.038187567
30	0xbd721144	-0.059098497
31	0xbd881cd9	-0.06646127
32	0xbda59589	-0.08085162
33	0x3df81e04	0.121151
34	0xbd83d1a9	-0.06436474
35	0xbd6c1aeb	-0.05764286
36	0x3dd5287f	0.10408115
37	0xbdc485a7	-0.09595805
38	0x3d8c65df	0.06855368
39	0x3dde5cd3	0.108575486
40	0xbd8cfcf6	-0.06884186
41	0x3e0294b5	0.1275204
42	0xbdb37e69	-0.08764345
43	0xbcc8e38a	-0.024522562
44	0xbca6a4c5	-0.02034224
45	0xbc7bf843	-0.015379014
46	0x3d39ef4f	0.045394238
47	0xbd71a41f	-0.05899441
48	0xbd25b5e9	-0.040456686
49	0x3d72525b	0.05916057
50	0x3d4e52e3	0.050372016
51	0x3de18d15	0.110132374
52	0x3a53a8d4	0.00080741686
53	0xbcede80e	-0.029041316
54	0xbd4a8141	-0.049439672
55	0xbcbf361c	-0.023341231
56	0xbdaee920	-0.08540559
57	0x3d957a08	0.07298666
58	0x3ded65b3	0.11591663
59	0x3dca5786	0.09879975
60	0xbde23301	-0.110448845
61	0xbc5ef219	-0.013607525
62	0x3e01fd86	0.12694368
63	0xbceaa42f	-0.028642742
64	0x3d163ce0	0.03667915
65	0x3dc9eaf9	0.098592706
66	0x3c86b7c2	0.016445044
67	0x3d650e62	0.05592192
68	0xbdd880fe	-0.10571478
69	0xbc2ac193	-0.010422128
70	0xbe06d916	-0.13168749
71	0xbc16c7fb	-0.0092029525
72	0xbd3a861b	-0.04553805
73	0xbdcfb604	-0.101421386
74	0x3d0d3189	0.03447107
75	0x3d238d4f	0.039929684
76	0xbcbd5718	-0.023112819
77	0xbd80a6c0	-0.06281805
78	0x3dc22b47	0.09480911
79	0x3d996593	0.07490077
80	0xbd4b55ab	-0.049642246
81	0x3db29d44	0.08721402
82	0xbd3a68bd	-0.045510042
83	0xbb8580a9	-0.0040741754
84	0xbddb70d8	-0.107148826
85	0x3d3daaf6	0.04630562
86	0x3c297778	0.010343425
87	0x3d51e788	0.051246196
88	0xbdcdd0a5	-0.100495614
89	0x3d484b40	0.04889989
90	0xbd040b3b	-0.032237273
91	0x3e0be4f9	0.13661565
92	0x3dd02450	0.10163176
93	0xbd396b57	-0.045268383
94	0xbc12cb3b	-0.008959587
95	0xbdf910a6	-0.121613786
96	0x3dafe09b	0.08587762
97	0x3da616ba	0.081098035
98	0x3cecd77d	0.028911347
99	0xbdf2bb94	-0.11852184
100	0x3cc40e2a	0.023932535
101	0xbd597d88	-0.05309823
102	0x3e1a53b3	0.15070991
103	0xbbf3d7d1	-0.007441499
104	0xbdab9a5d	-0.08379052
105	0x3e0280f8	0.1274451
106	0x3de2c6b6	0.11073057
107	0x3e00b8f6	0.12570557
108	0x3d339b3e	0.043849222
109	0x3e0908fb	0.13382332
110	0xbd57c5d8	-0.052678913
111	0x3df4588b	0.11930951
112	0x3d225674	0.03963323
113	0x3d8cdd5b	0.06878158
114	0x3c9a9f13	0.01887468
115	0x3ca9798d	0.020687843
116	0x3e21a2a7	0.15784703
117	0xbddc178b	-0.10746678
118	0xbc8570bc	-0.016289108
119	0xbd9ffd7a	-0.07812019
120	0xbc1ba324	-0.009499345
121	0x3dfc309a	0.123139575
122	0xbd2b88dd	-0.04187857
123	0x3d716a64	0.058939353
124	0x3d183d8f	0.03716808
125	0x3df1794d	0.117907144
126	0x3d02245e	0.031772964
127	0x3af20181	0.0018463583
128	0x3db9688f	0.09053146
129	0xbe03ec89	-0.128832
130	0xbd6cab89	-0.057780776
131	0xbdcf2364	-0.10114172
132	0xbb8d1ed2	-0.0043066526
133	0xbd328bd4	-0.04359038
134	0x3da673ef	0.08127581
135	0xbd983353	-0.07431664
136	0x3c2180f0	0.009857401
137	0xbbf3a015	-0.0074348547
138	0xbdc9d8f9	-0.098558374
139	0xbdd0ea89	-0.10200984
140	0x3bc9d5a1	0.0061594998
141	0xba6f1929	-0.00091208756
142	0x3d4f9ff8	0.050689667
143	0x3dcb4882	0.09925939
144	0xbdeda704	-0.11604121
145	0x3cb1c2ba	0.021699298
146	0xbdd3421f	-0.10315346
147	0x3db8ae56	0.09017627
148	0x3d43bca1	0.047787312
149	0x3c730961	0.014833779
150	0xbd32ef3a	-0.043685175
151	0x3dfc89f6	0.123310015
152	0xbcd505a4	-0.026003666
153	0xbcc74d6f	-0.024328915
154	0xbc7f7f14	-0.015594263
155	0xbdd298bc	-0.10283038
156	0xbb712d67	-0.0036800744
157	0x3de996d4	0.11405721
158	0xbbd047b0	-0.006356202
159	0xbdf2917d	-0.11844156
160	0xbdf1f4e6	-0.11814289
161	0x3dcfebf7	0.101524286
162	0xbc432f9e	-0.011913208
163	0x3d9f9ab9	0.07793183
164	0x3d14ff39	0.03637621
165	0x3dc58be4	0.09645823
166	0xbbc0435c	-0.005867405
167	0xbdc2e48d	-0.09516249
168	0x3d943d66	0.07238273
169	0xbd8c5763	-0.06852605
170	0x3db30ffc	0.08743283
171	0x3aba4d7a	0.0014213764
172	0x3d5f9748	0.054587632
173	0xbbe5c978	-0.0070125423
174	0x3becf508	0.0072313584
175	0x3caf224c	0.021378659
176	0x3dea0f50	0.11428702
177	0xbab1a139	-0.0013552076
178	0xbda4e9f3	-0.08052435
179	0x3d5b91b0	0.053605735
180	0xbdabcbc2	-0.08388473
181	0xbd179c43	-0.037014257
182	0x3cea3270	0.028588504
183	0x3db99221	0.09061075
184	0x3d8fb5a5	0.07017068
185	0xbd7e7d97	-0.06213149
186	0x3d929995	0.071582
187	0x3cd3243a	0.02577411
188	0x3dc3821a	0.09546299
189	0xbd9e264c	-0.07722148
190	0xbd8e1dd7	-0.06939285
191	0xbda54fbd	-0.080718495
192	0x3c45b181	0.012066246
193	0x3cbdff2d	0.023192966
194	0xbd1df8af	-0.03856724
195	0xbd9a6152	-0.075380936
196	0x3e0f684e	0.14004633
197	0xbcfdcb79	-0.030980812
198	0x3dbe08e2	0.09279038
199	0xbda43d82	-0.08019544
200	0x3e14667a	0.14492217
201	0x3dc17a47	0.09447151
202	0x3dff61d0	0.12469828
203	0x3def4d20	0.11684632
204	0xbcdbb463	-0.026819414
205	0x3d9e7806	0.077377364
206	0xbd793c50	-0.060848534
207	0xbb17fdb0	-0.002319198
208	0x3dc53f30	0.09631193
209	0x3d999854	0.074997574
210	0xbcd3dcb3	-0.025862074
211	0x3dfc0f5b	0.12307616
212	0x3dd34540	0.10315943
213	0x3dcce8dd	0.10005353
214	0xbca9b250	-0.020714909
215	0xbd6e7091	-0.05821282
216	0x3dcfd162	0.101473585
217	0x3dc6608b	0.09686383
218	0xbd6e227f	-0.058138367
219	0x3dea576b	0.11442455
220	0x3de2760d	0.11057673
221	0x3d466d4b	0.048444074
222	0x3dce173e	0.10063027
223	0x3d53bc80	0.05169344
224	0x3dccdd0a	0.10003097
225	0x3d7e5455	0.062092144
226	0x3d3e909c	0.04652463
227	0xbce43d1c	-0.02786117
228	0xbd9e69ab	-0.07734998
229	0x3d979c13	0.07402816
230	0xbd952293	-0.07281985
231	0x3d339d13	0.04385097
232	0xbd8afaa1	-0.06786085
233	0xbd199e08	-0.037504226
234	0x3df1e968	0.11812097
235	0x3db6e9e8	0.08931333
236	0x3ddd8b50	0.108175874
237	0x3d907c42	0.0705495
238	0xbdaee0ba	-0.08538957
239	0xbdabcfd1	-0.08389247
240	0x3d7335ef	0.059377607
241	0x3e166e71	0.14690568
242	0x3d6a0143	0.05713011
243	0x3db6761b	0.089092456
244	0xbd358f30	-0.044326007
245	0xbd9b7ef1	-0.075925715
246	0x3ca4335c	0.020044021
247	0xbd5b2013	-0.053497385
248	0x3df1eeda	0.118131354
249	0xbdb0bef8	-0.086301744
250	0x3d08217e	0.033235066
251	0x3d86e0c9	0.06585843
252	0x3d38426b	0.044985216
253	0x3da80a59	0.08205099
254	0x3d0f7846	0.03502681
255	0xbdd9ecad	-0.106408454

lstm.weight_ih_l1 f4 [256, 64]
0	0xbd9732f9	-0.07382769
1	0x3dd3df3d	0.10345314
2	0x3d2d378c	0.0422893
3	0xbd810c66	-0.06301193
4	0xbc0ed378	-0.00871741
5	0x3da6e024	0.0814822
6	0xbdeb7b54	-0.11498132
7	0x3dcdfdff	0.100582115
8	0x3cf12065	0.029434392
9	0x3c8c39fb	0.017117491
10	0x3cfbeb2e	0.03075179
11	0xbd38a42c	-0.04507844
12	0x3ddf32a2	0.10898329
13	0xbd1f6797	-0.03891715
14	0xbc710f1a	-0.014713073
15	0xbd372738	-0.044715136
16	0xbdf8fe43	-0.121578716
17	0xbda80d70	-0.08205688
18	0x3d48361a	0.04887972
19	0x3cfdbc34	0.030973531
20	0xbd8a5b57	-0.06755703
21	0xbb4e098c	-0.0031438796
22	0x3be63bcb	0.007026171
23	0xbde64c10	-0.112449765
24	0x3da390b6	0.07986586
25	0xbcba2a92	-0.022725377
26	0x3bcc36c3	0.006232114
27	0x3b152afa	0.0022761212
28	0x3c993f5e	0.018706974
29	0x3e08e085	0.13366897
30	0x3b4ac70a	0.003094139
31	0xbe06c104	-0.13159567
32	0xbd48bcf4	-0.049008325
33	0xbc37bd97	-0.011214635
34	0xbded7a02	-0.11595537
35	0xbd0dd413	-0.034626078
36	0xbcd782cc	-0.026307486
37	0x3dd9d983	0.1063719
38	0x3df719d9	0.12065477
39	0x3ce482e1	0.02789444
40	0xbdb2041a	-0.086921886
41	0x3d94ef63	0.07272222
42	0x3da72272	0.08160867
43	0xbd8ff6c3	-0.07029488
44	0x3d6e86f8	0.058234185
45	0xbdc41535	-0.095743574
46	0xbda7454f	-0.081675164
47	0xbd953ec0	-0.07287359
48	0xbc35da9c	-0.011099484
49	0xbdb363ae	-0.08759247
50	0xbe074341	-0.13209249
51	0xbd94f126	-0.07272558
52	0xbde75a26	-0.11296491
53	0x3d95ca3a	0.07313962
54	0xbd97cb00	-0.07411766
55	0xbc86d808	-0.016460434
56	0xbd6b2c44	-0.057415262
57	0x3ceb1d09	0.028700368
58	0x3da1256d	0.078684665
59	0xbd7f0518	-0.062260717
60	0x3aac70b6	0.0013156149
61	0x3c833bcb	0.016019722
62	0xbd6f9cc1	-0.0584991
63	0x3dcddea9	0.10052235
64	0xbda90c07	-0.08254247
65	0xbde9b2e2	-0.11411072
66	0x3d20eb31	0.039286796
67	0x3d66c766	0.056342505
68	0x3d7eeb2f	0.062236007
69	0xbdbf5424	-0.093422204
70	0x3e12a68f	0.1432135
71	0x3ca4d4bd	0.020120973
72	0x3d7056db	0.05867658
73	0xbc6e6755	-0.014551003
74	0x3dac9aaa	0.08427937
75	0x3d2dcccd	0.04243164
76	0x3d867dea	0.06566985
77	0x3d4f9840	0.050682306
78	0x3cac3fa5	0.021026442
79	0x3db8c99c	0.09022829
80	0xbd2bb2c6	-0.04191854
81	0xbd2e45ee	-0.04254716
82	0x3df4ebb8	0.11959022
83	0xbc6d9a46	-0.014502114
84	0x3dcd2b13	0.100179814
85	0xbd82ee3b	-0.06393095
86	0xbd5302a6	-0.051516198
87	0xbd204d1b	-0.039136034
88	0xbdbae21f	-0.091251604
89	0xbdf7a255	-0.12091509
90	0x3d52c65e	0.05145871
91	0x3da30d84	0.07961562
92	0xbd70f521	-0.058827523
93	0xbd81f603	-0.06345751
94	0xbc37b5ce	-0.011212779
95	0x3c311c50	0.010809973
96	0x3d2165f1	0.03940386
97	0x3dc04172	0.09387483
98	0x3d7cf7e7	0.061759856
99	0xbdbc3ca4	-0.09191254
100	0xbdb0ffa6	-0.08642511
101	0x3dba2a11	0.09090055
102	0xbc03316e	-0.00800739
103	0x3c89893a	0.016789068
104	0x3db2b1b6	0.08725302
105	0x3d26d3a1	0.04072917
106	0x3db3977b	0.08769127
107	0x3dd793b0	0.10526216
108	0xbda3998d	-0.07988272
109	0xbd7f6eca	-0.062361516
110	0xbd89e094	-0.06732288
111	0x3d82a0ab	0.06378301
112	0xbd34685c	-0.044044837
113	0x3dc7835e	0.09741853
114	0xbdd2e573	-0.1029767
115	0x3d506a3f	0.050882574
116	0x3d6da175	0.058015306
117	0xbd7e5eac	-0.062102005
118	0xbccb4d90	-0.024817258
119	0xbd011b20	-0.03152001
120	0x3d4bacdc	0.0497254
121	0xbd2973e9	-0.041370306
122	0x3d8933c7	0.06699329
123	0x3e21c6b6	0.15798458
124	0x3d36c9f8	0.044626206
125	0x3dcb362e	0.09922443
126	0x3da921bc	0.082583874
127	0xbdc50bd1	-0.096213944
128	0xbda6b69c	-0.08140299
129	0xbcd2674f	-0.025684027
130	0xbc5582aa	-0.013031641
131	0x3cd40b06	0.025884163
132	0x3d7891dd	0.06068598
133	0x3d28a4ec	0.041172907
134	0x3d266f29	0.040633354
135	0x3ddd12f7	0.10794633
136	0xbc6c3cf9	-0.014418834
137	0x3d019d4a	0.031644143
138	0xbc84c566	-0.016207408
139	0xbc0b3814	-0.008497257
140	0x3d8c1e87	0.0684176
141	0xbe025a5a	-0.12729779
142	0x3c91465c	0.017733745
143	0x3cd4c689	0.025973575
144	0x3d8e2458	0.06940526
145	0x3deeae32	0.11654319
146	0xbdc51d2f	-0.09624707
147	0x3d0eba8a	0.034845866
148	0xbd6ef729	-0.05834118
149	0xbdb1960e	-0.08671199
150	0xbc588036	-0.013214162
151	0xbdc72b17	-0.097250156
152	0xbde9c401	-0.11414338
153	0x3e04b302	0.12958911
154	0xbb8f7fa7	-0.004379231
155	0xbd6dd3e4	-0.058063403
156	0x3ddc2ad9	0.1075036
157	0x3dd4b2f1	0.10385693
158	0xbddde871	-0.1083535
159	0xbd126d88	-0.03574899
160	0x3dfc9fd5	0.12335173
161	0xbe060de9	-0.13091244
162	0x3df59857	0.11991947
163	0xbd4f294e	-0.0505765
164	0x3e07eb31	0.13273312
165	0xbd1b3e99	-0.037901495
166	0xbd1f6f01	-0.03892422
167	0x3cdcdc65	0.026960561
168	0xbcadf118	-0.021233127
169	0x3d52cce9	0.05146495
170	0x3c84128e	0.016122129
171	0xbc8c25ff	-0.017107962
172	0x3d09ae86	0.033613704
173	0x3e050807	0.12991343
174	0x3dbdc37f	0.092658035
175	0x3e0f3672	0.13985613
176	0x3d35ab47	0.044352796
177	0x3c42cd40	0.011889756
178	0xbbc15a2d	-0.0059006424
179	0x3dd50dea	0.104030445
180	0x3d990784	0.074721366
181	0xbde7cb0f	-0.11318027
182	0xbd9a1bf8	-0.07524866
183	0xbd8fdb28	-0.070242226
184	0x3d851727	0.064985566
185	0x3d870736	0.06593172
186	0xbddac03a	-0.106811956
187	0xbdb6dd31	-0.08928908
188	0x3b1560f9	0.0022793396
189	0x3d90cd14	0.070703655
190	0x3da46a77	0.08028119
191	0xbd545a31	-0.051843826
192	0x3de304ae	0.11084877
193	0xbe106d74	-0.14104253
194	0x3d71d40c	0.059040114
195	0xbda3e11b	-0.0800192
196	0x3d24391d	0.04009353
197	0x3dbcf0f9	0.092256494
198	0x3d6a1c62	0.057155974
199	0xbcdc0209	-0.02685644
200	0xbb868339	-0.0041049984
201	0xbd7e35f7	-0.062063184
202	0x3d4a8dc9	0.049451623
203	0xbdca3df8	-0.09875101
204	0xbd340938	-0.043954104
205	0x3e14071f	0.14455841
206	0x3d349913	0.044091295
207	0xbe00f848	-0.12594712
208	0x3d4473be	0.047961943
209	0x3de80a44	0.11330083
210	0x3dce6020	0.10076928
211	0xbd73dfd8	-0.059539646
212	0x3d9fb675	0.07798473
213	0xbd600b59	-0.054698322
214	0x3dbbde8d	0.091733076
215	0x3cc05c73	0.023481583
216	0x3d3bb776	0.04582926
217	0xbe294ed6	-0.1653398
218	0x3db8acf2	0.09017362
219	0x3d812903	0.063066505
220	0xbd8302f8	-0.063970506
221	0x3e0c1348	0.1367923
222	0xbbbb9e0f	-0.005725629
223	0x3ced949a	0.029001523
224	0xbdb0f2c5	-0.086400546
225	0x3d0c1554	0.034200028
226	0xbe2b0c40	-0.16703892
227	0x3d4a0de4	0.049329653
228	0xbe1a7005	-0.15081795
229	0x3d7e15a9	0.062032375
230	0xbd0f8444	-0.035038248
231	0xbd8f2922	-0.06990267
232	0x3d1005c8	0.035161763
233	0x3dd0493a	0.10170217
234	0x3d7b3258	0.06132731
235	0xbd379b67	-0.044825938
236	0x3e066cd7	0.13127457
237	0x3d9f2d5c	0.077723235
238	0xbe1b1f86	-0.15148744
239	0x3d832e40	0.06405306
240	0xbd8b5ca6	-0.06804781
241	0x3c4e6a09	0.012598523
242	0x3d5eec2b	0.054424446
243	0xbaa0bead	-0.0012263857
244	0xbdc25e82	-0.09490682
245	0xbe029483	-0.12751965
246	0x3db116b0	0.086469054
247	0x3c887f40	0.01666224
248	0x3df105e3	0.11768701
249	0xbd80ea1e	-0.06294654
250	0xbe06034f	-0.130872
251	0xbd9d2a73	-0.07674112
252	0x3d4e53f6	0.05037304
253	0xbd0d8476	-0.034550153
254	0xbd16aa3d	-0.036783446
255	0xbde4f7c1	-0.11180068

lstm.weight_hh_l1 f4 [256, 64]
0	0x3c5c0f70	0.013431415
1	0xbc69ae1b	-0.014262701
2	0xbbae9ce3	-0.005328761
3	0x3d35615d	0.044282306
4	0xbc57873b	-0.0131548
5	0x3dc7ec38	0.09761852
6	0xbd332c50	-0.04374343
7	0x3d87961b	0.06620427
8	0xbddac90a	-0.106828764
9	0xbd72ad09	-0.05924705
10	0xbd94dfa8	-0.072692215
11	0x3d95b30b	0.0730954
12	0xbdff92ed	-0.12479196
13	0xbb82118d	-0.0039693774
14	0xbd6fd8a8	-0.05855623
15	0xbdc9ffde	-0.09863256
16	0x3e09d041	0.13458349
17	0xbdd737bf	-0.105086796
18	0x3dd91000	0.10598755
19	0xbdb2f560	-0.08738208
20	0xbd8b3f85	-0.06799225
21	0xbce95414	-0.028482474
22	0xbda89088	-0.08230692
23	0xbbab773b	-0.0052327192
24	0xbde32613	-0.110912465
25	0x3e114e4f	0.14190029
26	0x3dce033a	0.10059209
27	0xbaa510fe	-0.0012593565
28	0x3d2b8f56	0.041884743
29	0xbdd021e0	-0.10162711
30	0xbda35d35	-0.07976762
31	0xbc41ef4e	-0.01183684
32	0xbd95e9f1	-0.073200114
33	0xbd850834	-0.06495705
34	0xbd7af335	-0.061267097
35	0xbd26b429	-0.040699158
36	0x3dad123a	0.08450742
37	0x3d5f97f7	0.054588284
38	0x3e06c67a	0.1316165
39	0xbdd81c36	-0.10552256
40	0xbda25f10	-0.07928288
41	0x3c989110	0.018623859
42	0xbbb46f68	-0.0055064447
43	0xbc8f0cf6	-0.017462235
44	0x3d570627	0.0524961
45	0xbded0387	-0.115729384
46	0x3e145b84	0.14488035
47	0xbde19ccb	-0.11016234
48	0x3d3e8bb5	0.046519954
49	0x3ceb570f	0.028728036
50	0xbdc0b518	-0.09409541
51	0xbc99cce1	-0.018774452
52	0xbc658e40	-0.014010966
53	0xb8b3eedc	-8.579876e-05
54	0xbbed7b74	-0.007247383
55	0xbd95f1df	-0.07321524
56	0xbdad3414	-0.08457199
57	0xbd9372ab	-0.071996056
58	0xbd3778db	-0.04479299
59	0x3dcd56d0	0.10026324
60	0x3cdd79a8	0.02703555
61	0xbd3e242c	-0.046421215
62	0xbdc08d27	-0.09401923
63	0x3cdfb210	0.027306587
64	0xbd4e86e6	-0.050421618
65	0xbbd35e83	-0.0064504757
66	0xbda1fad7	-0.07909172
67	0xbdf72544	-0.12067655
68	0x3e08531a	0.1331295
69	0xbd2670e8	-0.04063502
70	0xbcfcd4d4	-0.030863203
71	0x3d29eb48	0.041484147
72	0xbcc3ad3b	-0.023886314
73	0x3b0d0b5a	0.0021521659
74	0x3d83bcf6	0.06432526
75	0x3d008a8e	0.031382136
76	0xbd4703e5	-0.0485877
77	0x3d2f5ab6	0.042811118
78	0xbd80f862	-0.06297375
79	0x3d4ad5c9	0.049520288
80	0xbc867d61	-0.016417207
81	0x3d1bccff	0.038037296
82	0x3d1e6874	0.038673833
83	0x3d8bcce2	0.06826188
84	0x3cd9dc51	0.026594313
85	0x3b5c26f0	0.0033592544
86	0xbdf04f60	-0.117338896
87	0x3d09b951	0.033623997
88	0xbd031225	-0.031999726
89	0x3d531494	0.051533297
90	0x3d3fdd63	0.04684199
91	0x3cb95794	0.022624768
92	0xbe106198	-0.14099729
93	0xbd33389d	-0.043755163
94	0xbc4e00b7	-0.012573413
95	0xbde20055	-0.110352196
96	0xbdfdb49a	-0.12387963
97	0x3d7a8e55	0.061170895
98	0x3dad8f0b	0.08474549
99	0xbd64e287	-0.055880096
100	0x3de33543	0.11094143
101	0xbd8f6609	-0.070018835
102	0x3d453617	0.048147287
103	0x3e0f8754	0.14016467
104	0x3dac340c	0.08408365
105	0xbdd2aa30	-0.10286367
106	0x3c0dfc19	0.008666062
107	0xbdfa0ed0	-0.122098565
108	0x3c936dc5	0.017996678
109	0xbddcd0e3	-0.107820295
110	0x3dbaef79	0.09127707
111	0xbda486db	-0.08033534
112	0x3d894b3a	0.067038015
113	0x3dff6ff2	0.12472524
114	0x3dc3ea89	0.095662184
115	0xbcb37e5b	-0.021910837
116	0xbdb321f5	-0.08746711
117	0xbdcae722	-0.09907366
118	0x3d5a7a7a	0.05333946
119	0x3dbb0386	0.091315314
120	0xbd830723	-0.063978456
121	0xbc1dcbcf	-0.009631111
122	0x3d8a299d	0.06746218
123	0x3dbec7b6	0.093154356
124	0xbd9c5734	-0.0763382
125	0xbe0c8bad	-0.13725157
126	0xbcd10a17	-0.025517507
127	0x3dca3790	0.09873879
128	0xbcbea0e1	-0.023270072
129	0xbc502625	-0.012704407
130	0xbe2e6fc3	-0.17034821
131	0x3d9288aa	0.07154973
132	0x3cbe75e7	0.02324958
133	0x3df1d433	0.11808052
134	0xbde65e37	-0.11248439
135	0xbdbddfc3	-0.09271195
136	0x3e00cf36	0.12579045
137	0x3d015e73	0.031584214
138	0x3db69dd1	0.0891682
139	0x3ded2b32	0.115805045
140	0x3de04c35	0.10952035
141	0xbddfde82	-0.10931112
142	0xbdca49bc	-0.09877345
143	0x3a8e5689	0.001085953
144	0xbd57ad7f	-0.052655693
145	0xbddb299f	-0.10701298
146	0x3c893193	0.016747272
147	0x3cf61262	0.030038062
148	0xbd445566	-0.047933005
149	0x3d988630	0.07447469
150	0x3cf2cf25	0.02963979
151	0x3ad26f36	0.0016054872
152	0x3cf17e56	0.029479187
153	0x3db00fad	0.0859674
154	0x3bf0fd93	0.007354447
155	0x3e0a3e6c	0.13500375
156	0xbc9917f7	-0.018688185
157	0xbc734b57	-0.014849505
158	0x3d7c6b0e	0.061625533
159	0xbdb2f63f	-0.08738374
160	0x3d82602b	0.06365999
161	0x3d68e62e	0.05686014
162	0x3c8f2748	0.017474785
163	0xbddb4f9c	-0.10708544
164	0xbd5b6950	-0.05356723
165	0xbd06fbfb	-0.03295515
166	0x3cc0591c	0.02347999
167	0x3cba3cba	0.022734035
168	0xbd45d542	-0.04829908
169	0xbd1bb66a	-0.03801576
170	0x3d568fa4	0.05238308
171	0xbbaa92e8	-0.005205501
172	0xbd52e249	-0.051485334
173	0x3d70c5ef	0.058782514
174	0xbd57e83a	-0.052711703
175	0x3d564342	0.052310236
176	0x3c1bc4e8	0.009507395
177	0xbc1473a9	-0.009060779
178	0xbcc5150a	-0.024057884
179	0x3aa5b419	0.0012642174
180	0x3daed97b	0.08537575
181	0x3c1e275d	0.00965294
182	0xbd159d36	-0.03652688
183	0xbd29f198	-0.041490167
184	0x3da25585	0.07926468
185	0xbdc2012c	-0.0947288
186	0xbdbbca49	-0.09169442
187	0xbceef5b0	-0.029169887
188	0x3d114766	0.03546848
189	0xbb9318c7	-0.0044890377
190	0x3db3df9a	0.08782883
191	0x3c08efa1	0.008357913
192	0x3d968505	0.0734959
193	0xbc2865c0	-0.010278165
194	0xbcab8a35	-0.020939926
195	0xbd637c5e	-0.055538528
196	0x3de5e9eb	0.11226257
197	0x3dce90d2	0.10086216
198	0x3c5b0822	0.013368638
199	0xbdc3e276	-0.09564678
200	0xbdb23c93	-0.0870296
201	0x3d3cc08d	0.04608207
202	0xbd6455a9	-0.055745754
203	0x3d92334b	0.071386896
204	0xbcdd8ef2	-0.0270457
205	0xbd00bdf3	-0.03143115
206	0x3d22a78a	0.03971056
207	0x3c178a4e	0.009249283
208	0x3bc186ec	0.0059059765
209	0x3e06052d	0.13087912
210	0xbd7502d5	-0.059817154
211	0x3e0bf12e	0.13666221
212	0x3d794587	0.060857322
213	0xbd8e66f7	-0.06953233
214	0xbdeffc56	-0.11718051
215	0xbd347bfa	-0.044063546
216	0xbd25a55d	-0.040440906
217	0x3c7d727f	0.0154691925
218	0xbd05f80b	-0.032707255
219	0xbde04801	-0.10951234
220	0xbce2e794	-0.027698316
221	0x3d0328d3	0.032021355
222	0x3cf3dd72	0.02976868
223	0xbe0aaffc	-0.13543695
224	0xbdd06811	-0.10176099
225	0xbddbac53	-0.107262276
226	0x3c98296a	0.018574435
227	0x3d02f46a	0.031971373
228	0xbe0c6019	-0.13708533
229	0x3d2865a9	0.041112576
230	0x3df4fe59	0.119625755
231	0xbdcf4e8b	-0.10122403
232	0x3df896d7	0.121381454
233	0xbd67ff98	-0.056640238
234	0x3d930f36	0.07180636
235	0xbd850215	-0.06494538
236	0x3cded515	0.027201215
237	0xbe0c4ef9	-0.13702
238	0xbdc0a3d7	-0.0940625
239	0x3da6f742	0.081526294
240	0xbd66c0ae	-0.056336097
241	0xbdac16ea	-0.08402808
242	0x3d4b36f2	0.049612947
243	0x3db84524	0.089975625
244	0x3dc1f814	0.09471145
245	0x3c67c669	0.014146426
246	0xbdaa4dbb	-0.08315607
247	0x3d56f4e3	0.052479636
248	0xbdeb9cf3	-0.11504545
249	0x3c95e73d	0.01829874
250	0x3d7c2f66	0.06156864
251	0x3d603a2c	0.054742977
252	0x3d60321a	0.05473528
253	0x3d354066	0.04425087
254	0x3d1c2077	0.0381169
255	0xbd36b4e1	-0.044606093

lstm.bias_ih_l1 f4 [256]
0	0xbdeaefe4	-0.11471537
1	0x3d24f1f9	0.040269826
2	0xbdc7bbe6	-0.09752636
3	0xbcbdc67a	-0.02316593
4	0x3da5430b	0.08069428
5	0x3c0b872e	0.008516116
6	0xbd4ffc27	-0.05077758
7	0x3d806b7f	0.06270503
8	0xbd30ddef	-0.043180402
9	0x3d0b5248	0.034014016
10	0x3ce748dd	0.028232986
11	0x3d299afe	0.041407578
12	0xbda945f0	-0.08265293
13	0xbd08c68f	-0.033392485
14	0xbdd8a4b0	-0.10578287
15	0xbd40f0fa	-0.047104813
16	0x3d9037c2	0.07041885
17	0xbd159885	-0.036522407
18	0x3c81b7d7	0.015834732
19	0x3dd2c7bb	0.10292002
20	0x3c821bc7	0.015882386
21	0xbd373658	-0.04472956
22	0x3ca5a4c3	0.020220166
23	0x3e0e0e5f	0.1387267
24	0xbca5e203	-0.020249372
25	0x3d9a0063	0.07519605
26	0x3cedae38	0.029013738
27	0x3e0b22d9	0.13587512
28	0xbd859dfe	-0.06524275
29	0xbcad19a5	-0.021130392
30	0xb9886a2e	-0.0002601905
31	0x3d4866db	0.048926216
32	0xbdd376ad	-0.1032537
33	0x3bf047a6	0.00733276
34	0x3dce075e	0.10059999
35	0x3db790d4	0.08963171
36	0xbd191c20	-0.037380338
37	0x3a991d2e	0.001168167
38	0x3cf742fe	0.030183312
39	0xbd170006	-0.036865257
40	0x3d81004f	0.06298887
41	0xbdadf7b3	-0.084945105
42	0xbd2be1ca	-0.041963376
43	0xbd64ed0b	-0.055890124
44	0x3d9a8a8f	0.07545959
45	0xbd780c47	-0.060558584
46	0x3ddba8b9	0.10725541
47	0x3cd1a23b	0.025590053
48	0x3dcad68c	0.09904203
49	0x3db89ead	0.0901464
50	0x3ce1c170	0.027558059
51	0x3d807491	0.06272233
52	0x3d9167c6	0.07099871
53	0xbd63f55c	-0.055653915
54	0xbd474214	-0.048647
55	0x3d0b7c29	0.034053955
56	0x3d2dc33e	0.042422526
57	0xbd05c840	-0.032661676
58	0xbd9c3c2b	-0.07628664
59	0xbe05cc30	-0.13066173
60	0x3e02cc17	0.12773167
61	0xbd581daa	-0.052762665
62	0xbd9c4fc2	-0.076324
63	0xbd9f3221	-0.07773233
64	0x3d96ebe7	0.073692136
65	0x3e14f416	0.14546236
66	0x3dcdb7b3	0.100448035
67	0x3c8a9833	0.016918277
68	0xbdc281d7	-0.09497421
69	0xbdfdb69e	-0.12388347
70	0x3d09a813	0.033607554
71	0x3cf7d6e2	0.030253831
72	0x3ddbb4c5	0.107278384
73	0xbd10b398	-0.035327524
74	0xbdf5aa1a	-0.11995335
75	0x3db5afe7	0.08871441
76	0x3dc3b119	0.09555263
77	0x3dc113a6	0.09427576
78	0xbcd06c5a	-0.025442291
79	0xbd833ed3	-0.06408467
80	0xbdbfdb19	-0.093679614
81	0xbba9802a	-0.005172749
82	0xb81c0c94	-3.7205013e-05
83	0xbb55ac97	-0.0032604092
84	0x3c19fffd	0.009399411
85	0x3e02eb80	0.12785149
86	0x3d10b3b7	0.03532764
87	0xbda07cbf	-0.078362934
88	0xbd30956d	-0.043111254
89	0x3cbf2af4	0.023335911
90	0xbdae534d	-0.08511982
91	0x3d025677	0.03182074
92	0xbd36ec15	-0.04465874
93	0xbd03a1ee	-0.03213685
94	0xbd002c4f	-0.031292256
95	0x3c693510	0.0142338425
96	0x3e078df2	0.13237742
97	0x3d530bb4	0.051524833
98	0xbd813ac8	-0.0631004
99	0x3d145524	0.03621401
100	0xbdf4bf8a	-0.11950596
101	0xbd59e6d0	-0.053198636
102	0x3d58c7d3	0.052924942
103	0x3dff23b9	0.124579854
104	0x3d387a22	0.04503835
105	0x3dc75f2b	0.09734949
106	0x3cfc7b7e	0.030820604
107	0x3dea6315	0.1144468
108	0x3dd8b492	0.10581316
109	0x3c146c90	0.009059086
110	0x3d84ab55	0.064779915
111	0xbd9dc04d	-0.07702694
112	0x3c391bae	0.011298103
113	0xbcc9a8f2	-0.024616692
114	0x3c246825	0.010034596
115	0xbd6bb4f7	-0.05754563
116	0xbe071599	-0.13191833
117	0xbd677c6b	-0.05651514
118	0x3d2af94d	0.041741658
119	0xbd726e5f	-0.05918729
120	0xbafcab17	-0.0019277063
121	0xbd7c2dc4	-0.061567083
122	0x3dffaae3	0.12483766
123	0xbdacd761	-0.08439518
124	0x3d86f57b	0.065897904
125	0xbb1eab7e	-0.0024211104
126	0xbccfa120	-0.025345385
127	0xbb3433b3	-0.0027496635
128	0xbd39d011	-0.045364443
129	0x3d8c60c7	0.06854396
130	0xbd144aad	-0.03620403
131	0x3cdb659f	0.026781855
132	0x3cb94004	0.022613533
133	0x3debbba3	0.11510398
134	0x3e132a41	0.14371587
135	0x3de69aef	0.1126002
136	0x38d2082e	0.00010015104
137	0xbde416fe	-0.11137198
138	0x3d9bdd9f	0.0761063
139	0xbd9c509e	-0.07632564
140	0x3db9359c	0.09043428
141	0x3dfec06c	0.12439045
142	0xbd8f091b	-0.069841586
143	0x3d87bf97	0.0662834
144	0x3d45d15c	0.048295364
145	0x3dc27eaf	0.09496819
146	0x3d0b35ad	0.033986736
147	0x3d0bc23b	0.03412078
148	0x3dab4405	0.08362583
149	0x3e18fb42	0.14939597
150	0x3c8ac625	0.016940186
151	0xbe10168d	-0.14071102
152	0xbdf6d2af	-0.120519035
153	0x3d924238	0.071415365
154	0x3cd730d0	0.026268393
155	0x3c8c97a8	0.01716216
156	0xbdb60057	-0.088867836
157	0xbe108b7f	-0.14115714
158	0x3d85bdc6	0.06530337
159	0xbdf9105d	-0.12161324
160	0xbd1cb1a2	-0.03825534
161	0xbd90b89f	-0.07066464
162	0xbd5a1e0a	-0.053251304
163	0xbc93e4b3	-0.018053388
164	0x3daaa994	0.08333126
165	0xbd66c819	-0.05634317
166	0x3dda3641	0.10654879
167	0x3db03d0b	0.08605393
168	0x3d9679c3	0.07347443
169	0x3d4a4091	0.04937798
170	0xbe17b4c2	-0.14815047
171	0xbe1a6723	-0.15078406
172	0x3c7cdf7f	0.015434145
173	0xbc4811fb	-0.012211318
174	0xbdd8e688	-0.10590845
175	0x3d822c1c	0.063560694
176	0xbd2b59a5	-0.04183354
177	0xbd578299	-0.052614782
178	0xbd13a1e9	-0.03604308
179	0x3db6f940	0.089342594
180	0xbc47373b	-0.012159164
181	0xbc676096	-0.014122149
182	0xbe14b3ab	-0.14521663
183	0xbd56f4a4	-0.0524794
184	0xbd627818	-0.05529031
185	0xbdc1de38	-0.09466213
186	0xbd36a21a	-0.044588186
187	0xbd251c7a	-0.04031036
188	0xbd48ba19	-0.0490056
189	0x3d8e8ac0	0.06960058
190	0x3dc1d7ea	0.094650105
191	0xbe17e03b	-0.14831631
192	0x3bf8ddfe	0.007594823
193	0x3c15eaa3	0.00915018
194	0x3d4c4b5c	0.049876556
195	0xbd43cfeb	-0.047805708
196	0xbd7a61ac	-0.061128303
197	0xbd959a35	-0.07304803
198	0x3e0a8579	0.13527478
199	0x3d6b4c9e	0.057446115
200	0xbcef4269	-0.029206472
201	0xbe0b23ad	-0.13587828
202	0x3d94111b	0.07229825
203	0xbd9b4c33	-0.07582893
204	0xbdaf4a86	-0.08559136
205	0x3dd37a96	0.10326116
206	0x3d994dfd	0.07485578
207	0xbdcd5e61	-0.10027767
208	0x3cbff48f	0.023432044
209	0x3d9a4723	0.075330995
210	0xbd01cb19	-0.03168783
211	0xba6abfcc	-0.00089549716
212	0xbcd762de	-0.02629226
213	0x3d3463e4	0.044040576
214	0xbdbcd2b8	-0.09219879
215	0xbd959668	-0.07304078
216	0xbdae1986	-0.08500962
217	0x3dabc164	0.08386496
218	0x3de8545a	0.11344214
219	0x3a2d4a4f	0.0006610499
220	0xbd076952	-0.033059426
221	0xbc114717	-0.008867047
222	0x3d31ffbd	0.04345678
223	0x3d1b5fde	0.037933223
224	0x3815fbd4	3.57589e-05
225	0xbac17232	-0.0014758764
226	0x3d8e9f90	0.06964028
227	0x3da770aa	0.08175786
228	0xbda27eae	-0.079343185
229	0xbdabe5df	-0.08393454
230	0xbda05ac6	-0.07829814
231	0xbd6a4208	-0.05719188
232	0x3dc7a662	0.09748532
233	0xbd9b5b87	-0.07585817
234	0x3d66814a	0.056275643
235	0xbdbdd05e	-0.092682585
236	0xbdb7deff	-0.0897808
237	0xbdd20e17	-0.10256594
238	0xbd24f25d	-0.040270198
239	0x3df424e8	0.11921102
240	0x3c563af7	0.013075582
241	0xbe08cb34	-0.13358766
242	0x3d5e0ce8	0.054211527
243	0x3d91e395	0.07123486
244	0x3db1cee1	0.08682037
245	0xbd6e396b	-0.058160227
246	0xbcd360cf	-0.025802998
247	0xbdac001e	-0.0839846
248	0x3c46b498	0.012128018
249	0xbdc21f70	-0.094786525
250	0xbd8b5976	-0.06804173
251	0xbd443416	-0.047901236
252	0x3dcf21ff	0.10113906
253	0x3d8ee297	0.06976812
254	0x3d937cb9	0.07201523
255	0xbdb7df59	-0.08978147
