data/models/linkANDbtc_lstm_d.pth (torch, 215909 bytes, 10 tensors)

lstm.weight_ih_l0 f4 [256, 10]
000000 79 ad 3b bd 3f ec 3d bd a2 ff 93 3d 4b cd 00 3d
       -0.045819733 -0.04636788 0.072264925 0.031445783
000010 b4 89 c8 3d a6 e8 9c 3d 59 5d 6b 3d 8f f0 a0 bd
       0.0979189 0.07661562 0.05746207 -0.07858383
000020 1c cf 37 3d 84 35 c3 3c 1e 10 0d be d1 c0 e3 bc
       0.04487525 0.02382923 -0.1377568 -0.027801903
000030 ba 0f 16 be be 9f c9 bd a5 c3 3e bd 40 42 36 bb
       -0.14654437 -0.098449215 -0.0465733 -0.0027810484
000040 cd 32 62 bd a0 df 33 3c 0a 63 ef bd 42 27 a8 3d
       -0.05522423 0.010978609 -0.11688812 0.08210613
000050 f8 9d 58 3d 65 a8 13 be f9 dc 3d 3d d4 77 d0 bb
       0.052885026 -0.14419706 0.046353314 -0.006361941
000060 82 16 f3 bb 5a 1b 42 bd cd 2a 83 3d 19 eb 87 3d
       -0.0074184546 -0.047389366 0.06404648 0.06636638
000070 5c cf c6 bd d0 38 c7 3d 16 82 7c bd 17 37 fa bc
       -0.097075194 0.09727633 -0.061647497 -0.030543847
000080 9e 38 49 3d 9e 39 5c bd bb 0b 83 bd 38 ec 40 bd
       0.04912626 -0.053765886 -0.06398722 -0.047100276
000090 87 ec a4 3c 12 ed f3 3c 80 63 58 3d 15 ce bb bd
       0.020132316 0.02977613 0.052829266 -0.091701664
0000a0 89 55 eb bd 3c 96 6e 3d eb c7 35 3d 74 00 9f 3d
       -0.11490924 0.058248743 0.04438011 0.07763758
0000b0 4a e6 fc bd 84 da 5d 3d 83 c1 7d bc f2 43 5e 3d
       -0.12348612 0.05416347 -0.015488031 0.054264016
0000c0 b9 1a ff bd 21 91 08 bd 95 98 b5 bd 65 07 bb bc
       -0.12456269 -0.03334153 -0.08866993 -0.022830674
0000d0 58 ec 3f 3d 1c 2c 08 bc 1f 9c 94 3d 88 f5 1e 3d
       0.046856254 -0.008311298 0.0725634 0.038808376
0000e0 dc 60 e1 bc fc fd 85 bc a5 7d ac bd c5 f5 ca 3d
       -0.027512006 -0.01635646 -0.08422402 0.09910158
0000f0 bf 44 03 3d da 36 cc bd 5b 9c d5 3c d2 68 bd bd
       0.032047983 -0.099713996 0.026075533 -0.092485085
000100 24 cb 0d bd 27 20 16 3c c9 32 17 3d 32 1e a2 3d
       -0.034617558 0.009162939 0.036913667 0.079159155
000110 96 3c b9 bd 74 5a af bb 57 08 8d 3d ee 34 68 3d
       -0.09044759 -0.005351359 0.06886356 0.056691103
000120 81 38 95 bd de f4 25 3d d4 70 14 bd 09 16 36 3d
       -0.07286168 0.040516727 -0.036240414 0.044454608
000130 16 be 73 bc 12 49 ac bd bb 67 cb bd 35 ce 9a 3d
       -0.014876863 -0.084123746 -0.099318944 0.07558862
000140 98 fc 92 bd 27 63 c9 bc a3 e4 38 3d 6d 3f 92 bc
       -0.07177085 -0.024583412 0.04513992 -0.01785251
000150 8e 85 f2 bc c6 3d 1a be ed d8 60 3d e7 b6 40 bd
       -0.0296047 -0.15062627 0.054894377 -0.04704943
000160 2e 52 a1 3d c0 86 85 bd 83 61 82 3d b9 f8 02 bd
       0.07877003 -0.06519842 0.06366255 -0.03197548
000170 60 e9 e8 3d 91 da f5 3d ec b8 b3 3d a1 ad e9 3d
       0.11372638 0.12004579 0.087755054 0.1141007
000180 bb 52 4f 3d 38 d2 b0 bc 14 f3 2a 3d 64 72 a6 bd
       0.050616007 -0.021584615 0.041735724 -0.08127287
000190 bd 29 e4 3d d2 db 2b 3d db de a7 3d 43 db 07 3e
       0.111407734 0.041957684 0.08196803 0.13267235
0001a0 8b 5d 88 3b 22 90 6e bd f7 7a eb bd c7 4d e4 3d
       0.004161542 -0.058242925 -0.11498063 0.11147647
0001b0 76 5c 1b 3c 53 4d d0 bd d4 70 77 bd 08 06 18 3c
       0.009482494 -0.101709984 -0.060410336 0.009278782
0001c0 82 b5 f8 bc 7e df 7b 3d a8 d6 e9 3d 41 7d e1 3d
       -0.030359987 0.061492436 0.114178956 0.110102184
0001d0 3d d5 8d bd 47 7f bc 3d ae e5 dd 3d 8e 37 ff bd
       -0.069254376 0.09203964 0.108348235 -0.12461768
0001e0 c2 e9 ed 3d 37 63 e5 bd ae 19 b4 3d 8a 68 69 bd
       0.116168514 -0.11200564 0.087939605 -0.05698446
0001f0 45 9d 87 bd 01 3b 33 bd 7f cf c9 3d 62 8d 81 bc
       -0.06621794 -0.043757442 0.0985403 -0.015814487
000200 8a 0c 6f 3d 71 44 dc 3b 05 98 be 3d 0f 2d 85 3d
       0.058361568 0.006722026 0.09306339 0.06502735
000210 b0 2c cd 3d f3 bf dc 3d af ac 88 bd ed b6 23 be
       0.10018289 0.10778799 -0.06673562 -0.1598775
000220 d2 2f 2e 3e 69 3b d1 3d 8b ef 84 3d 53 df 23 3d
       0.1701043 0.1021641 0.06491002 0.0400079
000230 32 3f 5a 3d a9 04 27 bd 23 ad 3f 3d 8c 29 3f bd
       0.053282924 -0.04077593 0.046795975 -0.04667048
000240 a0 af 44 3c 5f c0 8d bd 83 f2 e3 bc af 53 be bd
       0.012004763 -0.069214575 -0.0278256 -0.09293305
000250 6c 4a c4 3d 9d ef fd 3d 0e 13 02 3d ec 15 a4 bd
       0.09584507 0.12399218 0.031756453 -0.08011994
000260 7c 08 f4 3d 27 e0 16 3e b1 67 40 bc 9b d2 3c bd
       0.11915681 0.14733945 -0.011743472 -0.046099287
000270 3b 20 33 bc a0 c0 40 bd 96 bf 64 3d 0f 05 6f bd
       -0.010932977 -0.0470587 0.055846773 -0.058354434
000280 be 84 04 3e f9 a8 cb bd 29 48 dc bd 53 dd 1c bd
       0.12941262 -0.09944338 -0.10755951 -0.03829701
000290 7f ac b2 bd 78 22 0f be 32 d0 12 be 30 72 69 bd
       -0.08724307 -0.13977993 -0.14337233 -0.056993663
0002a0 a2 42 19 3d 36 f6 9c bd 8a 08 9a bd 7c 17 04 bd
       0.03741706 -0.076641485 -0.0752116 -0.03224896
0002b0 2f 25 ea bc 0a bb eb bc ae 8b 3f 3d 96 cd 48 3c
       -0.028582184 -0.02877571 0.04676407 0.012256047
0002c0 24 eb 20 be fc 42 2c bd c8 b9 ee bd 6d 05 ae bd
       -0.15714699 -0.04205607 -0.11656529 -0.08497129
0002d0 7e a6 0a 3e 8c 99 81 3d 62 10 e3 bc aa 3f f3 3d
       0.13540074 0.06328115 -0.027717773 0.11877377
0002e0 18 fa bc 3d 4c 24 d6 3d 02 7a 10 3e fc b0 ce 3a
       0.09227389 0.10456142 0.14109042 0.0015769298
0002f0 a0 d7 04 3e 3f 50 99 bd a5 f2 4b bd 4c 5f 85 bd
       0.1297288 -0.07486009 -0.04979195 -0.06512317
000300 82 02 ce 3d 37 7e bf 3d 74 04 ff 3d 77 06 60 3d
       0.10059072 0.093502454 0.12452021 0.054693665
000310 3d 80 09 be a3 82 96 bc f0 7e fc 3c 32 ac 9d bc
       -0.13427825 -0.01837284 0.030822247 -0.019247148
000320 e4 79 bf 3c 40 49 ee bd bb 6e 2b be 76 c9 40 3c
       0.023373552 -0.11635065 -0.16741459 0.011766782
000330 ef 3c 15 3d 75 1b 93 3d e8 e1 42 be 4c 48 05 be
       0.036435064 0.071829714 -0.19031489 -0.1301586
000340 bc 55 d4 3c 5a d2 82 bd 90 79 2c bd 02 60 55 bc
       0.025919788 -0.063877776 -0.04210812 -0.013023378
000350 e1 b0 f5 3d 8e 1c 94 bd c7 c8 ea 3d fc ef 9d bc
       0.119966276 -0.07232009 0.114640765 -0.019279473
000360 7c f6 bf 3c 7d fe c2 bc 3d 84 b3 3d 5c 98 9c 3d
       0.023432963 -0.02380299 0.08765457 0.07646248
000370 aa a3 b2 bd f9 69 ab bd ac c4 74 bd c7 85 e9 bc
       -0.08722623 -0.08369822 -0.059757873 -0.028506173
000380 2d a2 14 3e 1f 9d ce 3b 4b fc b8 bd 27 a2 2f bc
       0.1451499 0.0063053514 -0.09032496 -0.0107198125
000390 f5 3d 35 bd 4c eb 36 bd b3 c2 19 3c 8f ed e9 3b
       -0.04424854 -0.04465799 0.009384799 0.007138915
0003a0 cf 32 22 3d c7 44 84 3d 1a 60 99 3d 81 0d af 3d
       0.039599236 0.06458431 0.07489033 0.085474975
0003b0 40 57 01 be 07 cc 03 3d c1 8b c8 3c 04 67 ce 3d
       -0.1263094 0.032176998 0.024480702 0.100782424
0003c0 c9 d9 38 3d 1e 4d 00 3e 28 5c 08 3e 3a 70 a5 3d
       0.04512957 0.12529418 0.13316405 0.08078046
0003d0 2b c3 23 3b 38 b7 9e 3d 2f 35 22 3e ae 4d fa bb
       0.0024988155 0.0774979 0.158406 -0.0076386547
0003e0 5d 72 95 3d 7d 87 d7 3d 3d da 1b be 9c 2a 7f bd
       0.07297204 0.10523889 -0.1521997 -0.062296495
0003f0 31 b8 6e bd 8b 4e a9 bd c7 eb ed 3d 37 21 e7 3d
       -0.058281127 -0.08266934 0.116172366 0.11285632

lstm.weight_hh_l0 f4 [256, 64]
000000 ac 29 19 bd f4 ec c7 bd 5b 5a 4a 3d 49 e9 88 3d
       -0.037393257 -0.09761992 0.049402576 0.066851206
000010 da b9 ce bc 43 38 d8 bd 60 13 a1 bb 1e a8 6f bb
       -0.025235105 -0.10557606 -0.0049156398 -0.0036568712
000020 93 c4 86 3d b2 06 94 bb b1 92 cb 3d ba cf 63 3d
       0.06580462 -0.0045173997 0.099400885 0.055618025
000030 53 3f c2 3b f6 b4 e8 3c d6 3d b8 bd db 64 98 3d
       0.005927959 0.028406601 -0.08996169 0.07441112
000040 17 74 b1 bd c3 24 55 3d bc 55 a1 3d 8b 68 be 3c
       -0.086647205 0.05203701 0.07877681 0.02324321
000050 1f 7f 21 3e 42 a6 a7 bd c1 64 b5 3d 52 b7 7c 3d
       0.15771149 -0.08186008 0.08857108 0.061698265
000060 ff 09 8c bc 4b 60 d3 3d 9a 51 d1 bc 33 98 ce bd
       -0.01709461 0.10321101 -0.025551606 -0.100876234
000070 b1 49 9c 3d 4a f4 8c bc 7f 54 89 bd 88 51 98 3c
       0.07631243 -0.01720633 -0.067055695 0.018593565
000080 5d 79 ab 3d 80 ac 9d 3d 5c f9 5d bc de c4 c3 bd
       0.083727576 0.076989174 -0.013548221 -0.09559034
000090 ea 38 fd 3b f4 da 09 bb 69 98 48 bd 0d c6 d8 bc
       0.007727732 -0.0021035047 -0.048973475 -0.026461625
0000a0 2a 43 85 3d ae 1e d8 3d 14 c0 7f bc d0 c9 01 bd
       0.06506951 0.10552727 -0.01560976 -0.031686604
0000b0 0e 2f d2 3d 50 cb 1b be 33 5f 04 3e 45 72 e2 3d
       0.10262881 -0.15214276 0.1292694 0.110569514
0000c0 93 f8 9d 3c ae 97 53 bd 6f b2 2e 3d 79 e6 b8 3c
       0.019283568 -0.051658325 0.042650636 0.022570835
0000d0 f5 30 10 3d 16 0d 06 3e 7d 39 1b 3d 2c 22 81 3c
       0.03520294 0.1309093 0.037896622 0.015763365
0000e0 03 c7 d8 bd dc 7b b3 bd e1 c2 07 be d2 d3 23 bd
       -0.105848335 -0.08763859 -0.13257934 -0.03999693
0000f0 6e 66 15 bd 7b a4 ad bd 96 29 db bd 56 b1 28 bd
       -0.036474638 -0.08478638 -0.10701291 -0.041184746
000100 44 c2 a4 3d 4f 67 90 3d b0 e7 b8 bc 65 03 49 3d
       0.08044866 0.070509546 -0.022571415 0.049075503
000110 32 85 04 bd 19 19 ef ba 36 99 a9 bb d2 d3 eb 3d
       -0.032353587 -0.0018241733 -0.005175735 0.11515011
000120 36 ca 9a 3b 27 62 01 3e db f9 11 3d d3 f4 d6 bd
       0.0047238125 0.12635098 0.03563867 -0.10495915
000130 92 46 df 3d 34 8c 02 3e 83 25 be 3c 66 dd 03 3e
       0.10902132 0.12748796 0.023211246 0.12877426
000140 0b 36 a8 3c 1c b6 75 bd ef 92 43 3d 6d da da 3d
       0.020533582 -0.059988126 0.04774755 0.10686193
000150 0b 43 27 bd 5f 81 e4 bd 91 46 1e bd 89 72 90 bd
       -0.04083542 -0.11157488 -0.038641516 -0.07053096
000160 16 9a 9e 3d da 9a 2a bd 16 0b e6 3d 19 3b 3d 3d
       0.07744233 -0.041651584 0.11232583 0.046198938
000170 30 d3 15 be 26 bd 5a bd dc e4 c9 3d 09 1a 7c bc
       -0.14631343 -0.053403042 0.098581046 -0.015387067
000180 0b c7 1c 3d 4d 10 b0 bd 5d c8 8f 3b 55 d1 c0 3d
       0.03827576 -0.08596859 0.004387899 0.09414927
000190 45 fa 77 3d 7e 90 c1 bd 57 43 53 3d 62 77 8d 3d
       0.06054141 -0.09451388 0.051577892 0.06907536
0001a0 b6 06 3f 3d 27 fd 91 bd 0b 2f 65 3b 12 66 7c 3d
       0.04663726 -0.07128363 0.0034970667 0.06162078
0001b0 7a e8 05 be b4 b9 36 3c 48 0f dd bc 83 b3 5f bd
       -0.13076964 0.0111526735 -0.026984826 -0.054614555
0001c0 3b ff 89 bc 1a f7 d7 bc 47 bc d9 3d f2 0a 89 3c
       -0.016845336 -0.026362944 0.10631614 0.016728852
0001d0 38 27 ee 3d 2e a6 08 bd 6e 9d fb ba 98 26 bd bd
       0.11628574 -0.033361606 -0.0019196698 -0.09235877
0001e0 83 ae 03 3e 37 af f0 3c 02 89 f5 ba cc 00 2c bd
       0.1285954 0.029380424 -0.0018732848 -0.041992947
0001f0 99 21 ba bd 8e eb b6 3d 48 04 42 bd 86 7e 53 bd
       -0.090884395 0.08931647 -0.047367364 -0.051634334
000200 2d 55 05 3e 89 f7 a1 bc 11 fb 4b bd 20 2a b6 bd
       0.13020773 -0.019771354 -0.049799982 -0.088947535
000210 60 86 d7 bd 83 03 0c 3e d9 b5 b9 3c c9 fd c8 bc
       -0.10523677 0.13673215 0.02266972 -0.024535077
000220 dd 68 00 bd 30 fd b7 bc 2d 17 0b be 76 f8 b5 3d
       -0.031350005 -0.022459596 -0.1358306 0.08885281
000230 fd 43 cd bd ab 2f 1d 3e fe 29 60 3d 3e 53 6d 3b
       -0.10022733 0.15350215 0.054727547 0.0036212946
000240 54 fd fd 3d 24 35 50 3c 9b 15 74 3d 08 e8 81 3c
       0.12401834 0.012707982 0.059590917 0.015857711
000250 2d 26 fc bd fc 11 54 3d e1 85 56 bd 71 16 f3 bd
       -0.12311969 0.051774964 -0.05237377 -0.11869515
000260 e2 f3 41 3d f8 d2 af bd 63 0a fb 3c d2 41 1e ba
       0.047351725 -0.08585161 0.030644601 -0.00060370297
000270 68 48 d8 3c 24 ee 9f bd 3b e9 b3 bd 95 bc 87 bd
       0.026401713 -0.078090936 -0.087847196 -0.06627766
000280 d3 a6 95 3d 89 18 91 bd 0d 27 4e bb 0b 7d 41 bd
       0.0730721 -0.07084758 -0.0031456382 -0.04723839
000290 5d fe 11 be cb 9d ef bc 8d e2 ef 3d 40 63 34 bd
       -0.14257188 -0.029250046 0.11713133 -0.044039965
0002a0 55 f1 af bd f6 2c 1e bd 71 69 3c 3c e1 80 a1 3c
       -0.08590952 -0.038617097 0.011499749 0.019714775
0002b0 37 fd 68 bd 31 b1 ee bd 29 fd a8 3d fa a0 f2 3c
       -0.05688211 -0.1165489 0.082514115 0.029617775
0002c0 95 b1 f4 bd 6e 59 80 3c 50 65 86 bd 99 7f f9 bd
       -0.119479336 0.015667643 -0.065622926 -0.121825404
0002d0 63 d0 61 3b 06 d3 a4 bc 06 69 85 bd 59 a5 ba 3d
       0.0034456484 -0.020120155 -0.06514172 0.09113569
0002e0 2d c8 9c bc 8a ca 6a 3d 9c b2 03 3e 49 da 2c 3d
       -0.01913842 0.057322063 0.12861103 0.04220036
0002f0 d6 a4 e9 bd 28 df 39 bd 32 74 40 3d c6 ed bd bd
       -0.11408393 -0.045378834 0.046985812 -0.09273867
000300 1d 71 7f 3d fa e7 46 bd b7 c5 b7 3d 4e 4d b7 3c
       0.062363733 -0.048561074 0.08973258 0.022375729
000310 f3 a3 ae 3d 26 97 b3 3d 1e 7b 6a bd f4 a0 38 bd
       0.085273646 0.08769064 -0.05724632 -0.04507537
000320 11 5c 9d bd 39 d1 66 bc fe 6a 2c bc 48 6c 5f bc
       -0.07683576 -0.0140879685 -0.010523556 -0.013636656
000330 fa 5b dc 3d ac a1 1e 3d ba b2 4b bd 60 38 d7 bd
       0.10759731 0.0387284 -0.049730994 -0.105087996
000340 85 0c 91 bd f6 15 90 bd be 7f 25 bd db bb 62 bd
       -0.07082466 -0.07035439 -0.040405028 -0.055354934
000350 c5 62 75 bd 36 9a 8e bd 1b 2d 39 3d 13 79 d0 3d
       -0.059908647 -0.06963007 0.04520903 0.10179343
000360 fa 1c 0f 3d f1 f6 07 be 1e e4 3d 3d 26 0a 52 3d
       0.034939744 -0.13277794 0.046360128 0.05127921
000370 c0 f6 19 3d 3d ac 9a 3d e4 e7 ed 3d ac c5 00 3e
       0.037588835 0.07552383 0.11616495 0.12575406
000380 06 9b ba bd 65 21 88 3d ee 04 ab bd 82 fc 60 bc
       -0.091115996 0.066469945 -0.0835055 -0.013732078
000390 b0 fe 8e 3c 57 c4 08 3e 70 98 11 be 4a 3b b4 bd
       0.017455429 0.13356148 -0.14218307 -0.08800371
0003a0 9a 99 ed bc 1c 2d 17 be 2b 1f fb bc 2a df 12 be
       -0.029003907 -0.14763302 -0.03065451 -0.14342943
0003b0 e6 fb a2 3d f7 7f 79 bc 9a 9d 64 3c 93 9b d6 3d
       0.07958202 -0.015228263 0.013953591 0.10478892
0003c0 6f ee 7f 3d 8a 4c 8c 3d 31 86 14 3e bf f3 84 bd
       0.062483247 0.06850536 0.14504315 -0.064918034
0003d0 8e ea e2 3d 15 89 ae 3c 5b b2 11 3d 1f 91 67 3d
       0.11079894 0.0213056 0.035570484 0.056534883
0003e0 2a ee 35 bc 26 a9 d0 3d 9f 8f 32 3c c9 f2 1e bd
       -0.011104146 0.101885125 0.0108985 -0.038805757
0003f0 f4 fb 8d 3c d4 08 93 bc 8e c9 12 be b6 9b b1 3d
       0.017332055 -0.017948546 -0.143347 0.08672278

lstm.bias_ih_l0 f4 [256]
000000 a2 66 ea bd ed d8 e7 3d 6c 11 8d bd 61 f2 c9 bc
       -0.11445357 0.11320672 -0.068880886 -0.024651708
000010 3e a3 de 3d f1 4e d8 3d 22 3c d0 3d 05 f8 20 3d
       0.1087098 0.10561932 0.101677194 0.03929903
000020 9e f9 a3 bc 59 cb ac bd e5 08 fe 3d 64 72 e7 bd
       -0.020016488 -0.08437223 0.1240404 -0.11301115
000030 ed 83 22 3e 19 04 fe 3d b6 8d 13 3d 3c 47 97 bd
       0.15870638 0.12403125 0.036023818 -0.07386634
000040 d7 97 f1 3d 10 75 a8 3d 92 75 46 bd 4d 2b eb bb
       0.11796539 0.08225453 -0.048451968 -0.0071767927
000050 68 b8 34 3d 66 c2 25 3d b0 fe 05 bd 3a c4 0c bd
       0.044121176 0.040468596 -0.032713592 -0.034366824
000060 07 f4 01 bd 9b 59 43 bd a6 37 bd bb 55 04 40 3d
       -0.031726863 -0.047692876 -0.005774456 0.04687913
000070 51 b1 29 3c 76 51 0a 3e 91 d7 d5 bc ca bb 99 bc
       0.010357217 0.13507637 -0.026103767 -0.018766303
000080 a8 18 a1 bd 07 c1 36 bd 61 7e ba bd 47 5a 0a be
       -0.07866031 -0.04461768 -0.09106136 -0.13511
000090 f8 ba 06 3e ee 6b 0a bc 1f 19 fa 3d 96 3c cc 3d
       0.1315726 -0.008448584 0.12211823 0.09972493
0000a0 ea 2f ad bc 57 31 b7 b9 62 85 d2 3d 00 32 dc 3d
       -0.021141011 -0.0003494124 0.10279347 0.10751724
0000b0 4e 24 63 bd b0 95 a1 3b c5 9d 66 bc c7 8a 06 3e
       -0.055454545 0.004931174 -0.014075701 0.13138877
0000c0 8c a5 d2 3d 46 f1 e7 3d fe 6d 6f bd 0d e9 b8 bc
       0.10285482 0.11325316 -0.058454506 -0.022572065
0000d0 e5 46 b3 bd 59 fe bf bc ea 21 13 3d 04 71 ec bc
       -0.087537564 -0.023436712 0.035921015 -0.028862484
0000e0 ba 78 b1 3d 6e bd 70 3a 0b fc 8a 3c d8 e2 0b 3e
       0.08665605 0.00091835007 0.016965887 0.13660753
0000f0 12 a4 e5 bd 28 5a 10 3e 51 74 c6 bc 80 78 7e bd
       -0.112129346 0.14096892 -0.024225386 -0.062126637
000100 4f 1e e8 3d ec 8b ca bc 4b ae 92 3d 5d fe 8f 3d
       0.11333906 -0.024724923 0.0716215 0.07030938
000110 4a 72 2a 3d bc 67 07 3e 1c b6 bd 3d 08 66 f2 3d
       0.0416129 0.13223165 0.0926325 0.11835867
000120 3f 93 87 3d bc c8 13 bd 83 5e ea bc ac d6 b3 bd
       0.06619882 -0.036080107 -0.02860952 -0.0878118
000130 dc 97 d4 3c 7a 35 30 bd 7b 78 a0 bd f6 91 73 bd
       0.025951318 -0.04301975 -0.0783548 -0.05946537
000140 10 cd 92 3d 1c 87 37 3d f5 ca 72 3d 11 7a a7 3d
       0.07168019 0.044806585 0.059275586 0.08177579
000150 16 46 d0 3d eb 83 95 3c 92 cf 85 bd 79 c6 8d 3d
       0.10169618 0.01825138 -0.065337315 0.06922621
000160 08 9c ab 3d 5e 0e 72 bc d3 52 ad 3d f6 01 f8 3d
       0.0837937 -0.014773933 0.08463063 0.12109749
000170 3f 00 04 3e 19 fb a9 bc 46 f1 9a 3d 69 81 6b bd
       0.12890719 -0.020749616 0.075655505 -0.057496462
000180 bf 12 e6 3d 95 f4 58 3d 34 c5 d5 3d f4 7e 0b bc
       0.11234044 0.052967627 0.10438004 -0.008514155
000190 65 8c f3 3d 9f c3 1e bd ff 64 08 bd 0b 1c c4 3c
       0.118920125 -0.038760778 -0.033299442 0.023939153
0001a0 e6 ee 89 bd 10 e2 78 3d f9 40 da 3d 28 35 d7 bc
       -0.067350194 0.060762465 0.10656924 -0.026270464
0001b0 16 4c e2 3d 05 6f e8 3d af 80 6e bd 7c e7 1d 3c
       0.110496685 0.113493 -0.05822819 0.00963771
0001c0 52 09 40 3b 5b 33 92 bc f2 23 98 bc 32 e7 58 3d
       0.002930243 -0.017846754 -0.018571828 0.05295486
0001d0 d2 7c 83 3d 3f 07 8e 3d c0 1f ac bd b5 5b 82 bd
       0.06420292 0.06934976 -0.08404493 -0.06365148
0001e0 c7 ef cd 3d 07 d3 0d 3e 2b e8 0f bd 3a 79 39 bd
       0.100554995 0.13850032 -0.035133522 -0.045281626
0001f0 79 99 35 3d cf 7b 92 bd f3 7c 25 bc cc dc 5c 3d
       0.044335816 -0.07152521 -0.010100591 0.053921506
000200 0d 4e 52 bc aa 1c f1 bd 6f 4e 0c 3e 1d 00 bf 3d
       -0.012835992 -0.11773045 0.13701795 0.093261935
000210 e6 a1 ac 3d a8 24 1b 3d 34 3d 36 3d ab 5a 61 3c
       0.08429317 0.037876755 0.04449196 0.013754527
000220 c9 3d fd 3d 27 ad cb 3d f2 76 23 3d 29 12 b9 3d
       0.123653 0.099451356 0.039908357 0.09036667
000230 5d 17 91 bb c6 1c 04 3e 58 ec 60 bd aa a0 f7 bd
       -0.004427834 0.12901601 -0.054912895 -0.12091191
000240 8e d9 93 bd 7d 8b 72 3b e3 86 2c bd 5b d2 12 bd
       -0.0721923 0.003700941 -0.042120825 -0.03584514
000250 65 66 85 3c 9d 3f 33 3d 21 87 ab 3d b9 0a 98 bd
       0.016284177 0.04376184 0.08375383 -0.0742392
000260 40 fa a4 bc e2 2f 0f bd fc a5 fe 3d 18 d8 48 3d
       -0.02013886 -0.034957774 0.12434003 0.049034208
000270 b5 90 01 3e d8 ac f0 3d 20 a4 a4 bd 90 28 92 3d
       0.12652858 0.11751717 -0.08039117 0.07136643
000280 14 9a 37 bc 19 cf b4 bd 11 c4 f0 bd 48 ec 5b 3c
       -0.011206169 -0.08828563 -0.11756147 0.013423033
000290 46 01 18 bb e2 7d fc 3d 30 ad 3a bd a8 84 59 bd
       -0.0023194118 0.12328698 -0.04557532 -0.053105026
0002a0 fd ca 1a bd b3 2a 33 3c 81 44 1f 3d 6c f7 63 bc
       -0.03779124 0.010935473 0.03888369 -0.01391397
0002b0 51 00 d7 bd c3 eb 6b bd a3 52 81 bd fb 9f 0a be
       -0.10498107 -0.057597887 -0.0631459 -0.1353759
0002c0 3a de f4 b9 68 41 eb bd fd e7 09 3e 76 31 8c bd
       -0.00046704878 -0.114870846 0.13467403 -0.068453714
0002d0 70 e5 3e 3d 25 3a 04 3d 72 28 dc bd 6e 72 a7 bd
       0.046605527 0.032282013 -0.10749902 -0.081761226
0002e0 91 d2 0d 3d 6c f8 95 3d 3b c1 13 3d ae c1 aa bc
       0.03462464 0.07322773 0.03607295 -0.020844307
0002f0 14 b9 d3 3d 36 41 c6 3c fb c6 98 bc 5b 89 c8 bd
       0.10338035 0.024201017 -0.018649569 -0.097918235
000300 b2 eb 29 3d 12 5f 45 bd b7 ac 90 bc d6 59 b1 bd
       0.041484542 -0.04818637 -0.017660482 -0.08659713
000310 eb 60 ec 3c c2 51 2c bd 09 b9 c1 3d ff 78 dd bc
       0.028854808 -0.042070158 0.09459121 -0.027035234
000320 79 8e 0f bd 32 61 21 bc 5f dc f6 3d 91 22 15 3d
       -0.035047982 -0.009849833 0.12053751 0.03640992
000330 11 c8 5d 3d b8 e1 b8 bd 7c f7 07 3e 84 28 a2 bd
       0.054145876 -0.090274274 0.13278002 -0.07917884
000340 36 cb 7e 3d 07 2c de 3d 84 e6 e7 bc bc d2 5b bd
       0.062205516 0.10848241 -0.02830816 -0.05366777
000350 1b e8 f6 bc c0 05 a4 bd 11 2a 32 bd 2b a0 c6 bd
       -0.030139973 -0.08008909 -0.04349715 -0.09698518
000360 f6 fd fa bc 56 37 68 3d bc 0e cd 3c e8 8f 47 3d
       -0.030638676 0.056693397 0.02503144 0.048721224
000370 72 8b 0c 3d fc 4c b1 bd 6f e9 f3 3d 1a 7c d6 bd
       0.034312673 -0.08657262 0.11909758 -0.10472889
000380 95 c5 d9 3d 76 22 9d bc 09 74 f6 3c 62 f9 e7 bc
       0.10633389 -0.019181471 0.030084627 -0.028317157
000390 6a ab 8e 3c ea a6 0f 3e dc 3f 06 3e b6 cd c7 3c
       0.017415721 0.14028516 0.13110298 0.024390083
0003a0 80 4d ba 3c e2 cb a3 3d 81 75 0d 3e 3d d6 ee bd
       0.022742033 0.07997872 0.13814355 -0.116619565
0003b0 ec c6 89 bd d4 2f 00 3e 41 80 09 3e 90 47 2a bc
       -0.067273945 0.12518245 0.13427831 -0.010393038
0003c0 63 f0 dd 3d a2 d1 c6 bd 1c 30 22 3d 0f 72 d5 bc
       0.10836866 -0.09707953 0.039596662 -0.026055364
0003d0 70 10 be bc 33 c2 4a 3d c2 d8 72 3c 02 9e 06 bd
       -0.023201197 0.04950161 0.014822187 -0.03286553
0003e0 71 53 77 3d f5 65 28 3d ee 28 98 bd 6e ed 94 b9
       0.06038231 0.04111286 -0.07429682 -0.0002840566
0003f0 23 c4 4d bd fe d7 17 3e 9b c5 e7 bb bf 35 46 3d
       -0.05023588 0.14828488 -0.007073117 0.0483911

lstm.bias_hh_l0 f4 [256]
000000 25 4b c3 3c 8c 37 e4 3b 57 36 0a 3e 5e c0 cc 3c
       0.023839543 0.0069646295 0.13497292 0.024994072
000010 eb 51 4d bd e3 09 b2 bd e0 c7 df bd 14 c9 5a bb
       -0.05012695 -0.08693292 -0.10926795 -0.0033384012
000020 5a d5 39 3c e8 8d d5 3c 4e ec 02 3e 07 e7 00 be
       0.011342371 0.026068643 0.12785456 -0.1258813
000030 73 4c fa 3d b7 21 0a 3e be a1 9d bc 3a 4e 86 bd
       0.12221613 0.13489424 -0.019242164 -0.06557889
000040 0f 79 49 3d 2c af bb bd 60 43 0d 3d 2f 9c 02 3e
       0.049187716 -0.09164271 0.034488082 0.12754892
000050 27 8e ba 3d b0 be da 3c e6 b7 11 3e 38 43 96 3d
       0.09109145 0.026702255 0.14230308 0.0733704
000060 21 0a 73 bd 6f 85 9d bd 75 73 8b 3d d3 a9 24 3d
       -0.05933583 -0.07691466 0.06809131 0.04020102
000070 17 b0 0b 3c b1 e1 ba 3d 64 01 14 3d d2 8c c2 3d
       0.00852587 0.091250785 0.03613414 0.094995156
000080 4c cd bf 3d af c8 12 3e 95 49 aa bd bf db bc 3d
       0.09365329 0.14334367 -0.08314816 0.09221601
000090 29 6c 1e 3c 94 b6 9e 3d 04 d7 98 3b ee d9 4d 39
       0.009669342 0.07749668 0.0046643037 0.00019631509
0000a0 a9 48 f1 3d 75 8c 9d 3d f6 a3 c3 3d af fb 8d bc
       0.11781437 0.07692806 0.095527574 -0.017331926
0000b0 19 41 b0 3c 69 d9 3c bd 04 60 a1 3d 57 82 b0 3d
       0.021515416 -0.046105776 0.07879642 0.0861861
0000c0 ea 23 bb bd 80 ed a7 bd cd e7 dd bd 62 c7 a2 3c
       -0.091377094 -0.081995964 -0.10835228 0.019870464
0000d0 d8 57 20 bd 18 82 e5 bd ce fe 82 3c 9e ca 6c bd
       -0.039146274 -0.11206454 0.015990641 -0.05781042
0000e0 36 04 d1 3d 7e 68 b9 3d 39 6a e4 bd c7 d3 39 3c
       0.10205881 0.090531334 -0.11153073 0.011341996
0000f0 1b db 61 bd cc 3c 4a 3d 79 2b 82 bd 94 fa f8 bc
       -0.055140596 0.049374387 -0.06355948 -0.030392922
000100 73 c8 ab 3d de 06 ed bc 85 61 aa bc 75 0e 8e 3d
       0.08387842 -0.028933939 -0.020798454 0.06936351
000110 23 3f c8 bd 41 57 60 bd a7 68 fe 3b 3e 65 c4 3d
       -0.097776674 -0.05477071 0.0077639404 0.09589623
000120 32 f9 06 3d 76 13 ea bd 15 5e 9f bd be 4b 01 bd
       0.032952495 -0.11429493 -0.077816166 -0.031566374
000130 73 0e d2 bd 86 28 51 bd 75 05 c6 3d 8f 49 cd bd
       -0.10256662 -0.051064037 0.096690096 -0.10023796
000140 20 2f e0 bd 26 3e 5a 3d e8 ee de 3d 84 fa 5b bd
       -0.109464884 0.053281926 0.108854115 -0.053705707
000150 84 bb 50 3d c2 b4 67 bd b4 b2 d6 3d 7f 36 de 3d
       0.05096008 -0.05656887 0.10483304 0.10850238
000160 11 e9 66 3d ad 79 4a bc 8c 4e d1 bd c2 20 1e bd
       0.056374613 -0.012358111 -0.1022006 -0.03860546
000170 02 b9 14 3e e7 fd cc 3c 71 53 02 3e 8e 63 ea 3d
       0.145237 0.025023414 0.12727143 0.1144477
000180 7a 83 ea 3c 32 31 ea 3c c5 55 5d 3c 4a a5 4e bd
       0.028627146 0.028587911 0.013509219 -0.0504506
000190 fb c1 08 3e bd e4 f1 3d ee 9d c1 3d 43 93 13 3d
       0.13355248 0.118112065 0.09453951 0.03602911
0001a0 1e d7 7b 3d 1f 78 67 bd 63 59 be 3a 7a 87 50 bd
       0.06148445 -0.05651104 0.0014522489 -0.05091045
0001b0 68 ce ea 3d 48 97 18 3d 36 ea 74 3d 99 00 03 3e
       0.1146515 0.037253648 0.059793673 0.12793197
0001c0 45 51 b9 3d d2 c8 56 3d cb d3 84 bd e2 93 84 3c
       0.09048704 0.05243761 -0.06485709 0.016183797
0001d0 f3 44 79 3d f5 79 9d 3d 61 df d0 bb 1e f5 b9 3d
       0.06085677 0.07689277 -0.006374285 0.090799555
0001e0 57 83 0e bc 7b a6 a9 3b a2 fe 7a bd f2 84 03 3d
       -0.008698306 0.0051773167 -0.061277993 0.03210921
0001f0 cc cc ce bd 53 7d 92 bd 27 37 01 3e 4c 0c 43 3d
       -0.10097656 -0.0715281 0.12618695 0.04761915
000200 e5 35 1c 3c cb f8 55 bd c9 4d ed 3d 0d 71 be bd
       0.009534334 -0.05223922 0.11587102 -0.092989065
000210 18 56 b1 3d 70 ed 28 3d 94 32 9f 3d d2 89 47 bd
       0.08658999 0.041242063 0.07773319 -0.04871542
000220 0c 30 d0 ba 04 0e 73 3d 47 8f 89 3d a7 47 d1 bd
       -0.001588346 0.05933954 0.06716781 -0.10218745
000230 e3 88 f1 bd 93 88 80 bd ce 3f 0e 3e f4 6e c0 bc
       -0.11793687 -0.062760495 0.13891527 -0.023490407
000240 ed 39 a1 bd 2c b9 56 bd 8a e7 f9 3d cc c8 73 3d
       -0.078723766 -0.052422687 0.12202366 0.059517667
000250 3c e8 ec 3c 64 c4 a0 bc 2d dd 6f bd 04 c8 cb bc
       0.028919332 -0.019624896 -0.05856054 -0.024875648
000260 d7 d1 86 bd ec 06 91 bc b7 0e 3a bc f0 92 4e bd
       -0.065829925 -0.017703496 -0.011356047 -0.0504331
000270 b1 5e a1 bd f3 86 01 3d 87 99 b9 3d 73 7c 00 be
       -0.07879389 0.03162284 0.09062486 -0.12547474
000280 23 12 8c 3d a7 31 ba bc c9 9d f9 bd ad e2 8b bb
       0.06839397 -0.022728754 -0.12188298 -0.004268965
000290 0c 94 14 be 74 c0 57 3d 66 f0 a8 bd c7 af 10 3e
       -0.145096 0.052673772 -0.08248977 0.14129554
0002a0 cb ca 94 3d a6 8e 4b 3d b8 84 cb 3d e2 45 8f 3d
       0.07265242 0.049696587 0.099374235 0.06995751
0002b0 df a8 61 bd 7e f7 f1 bd 10 44 19 bd a7 16 65 bd
       -0.05509269 -0.118147835 -0.037418425 -0.055929806
0002c0 08 54 d9 3d 24 9a 54 3c 9e 02 e5 3d 26 69 fe 3d
       0.10611731 0.012976203 0.1118214 0.12422399
0002d0 cf 2d 0c bd 27 c4 91 bd 54 62 af 3d 92 0d 68 bd
       -0.034223374 -0.07117491 0.085636765 -0.056653567
0002e0 99 93 97 3d 3e 8d 57 bd c1 c4 1c 3d 84 2e 86 3b
       0.07401199 -0.052624933 0.038273577 0.0040949006
0002f0 4c 7c 4c bc b3 4d 28 3d 96 35 9f bd a2 aa 5d bc
       -0.012480807 0.041089725 -0.077738926 -0.013529452
000300 80 a9 7a 3d 0b 46 aa 3d 2e f9 10 3e 92 ba d3 3d
       0.061196804 0.08314141 0.14157555 0.1033832
000310 ae f7 4b 3d 80 4c 6d bd ea 93 17 3d 62 29 8b 3d
       0.049796753 -0.057934284 0.037006296 0.067950025
000320 bf c2 41 3d af 62 b8 3d 87 92 24 3e 95 42 c6 3d
       0.047304865 0.090031974 0.16071521 0.09680668
000330 a2 82 21 bd 06 9e b8 3d 07 ce 5d 3d c4 c3 ee 3c
       -0.03943122 0.090145156 0.05415156 0.029146083
000340 1a 38 6b bd 63 e4 be 3d 8f 82 cc bd 35 14 80 bb
       -0.05742655 0.09320905 -0.099858396 -0.003908659
000350 7a 46 40 bd 94 23 47 bd 83 4a 92 3b ba 3b ee bd
       -0.04694221 -0.048617914 0.004464449 -0.11632486
000360 ce ab 74 3b 24 3a bc 3a 53 f3 9b bd f0 42 92 bd
       0.003733385 0.0014360589 -0.0761477 -0.071416736
000370 ba 0f 44 bc d6 a2 87 3d d8 c6 ac 3d 5a 09 b5 3d
       -0.01196664 0.06622855 0.08436364 0.08839674
000380 a2 06 8a 3d 0b ff 3d bb 7a f3 b9 3d f9 59 39 3d
       0.06739546 -0.0028991129 0.090796426 0.04525182
000390 c9 ff 53 bb 87 ff 35 3d fb 20 eb 3d 88 ca ac bd
       -0.0032348505 0.044433143 0.114809 -0.08437067
0003a0 00 82 f1 3c 38 62 c1 3d db 88 83 bd 72 58 f9 3d
       0.029480934 0.09442562 -0.064225875 0.12175073
0003b0 1a 48 3a 3d f4 44 7b bd 1a ee 17 3b 25 b1 6a bd
       0.045478918 -0.061345056 0.002318269 -0.057297844
0003c0 03 ba e7 3d 2b 2a 0f 3e 95 37 b5 3c a1 97 d1 3d
       0.11314776 0.1398093 0.02212123 0.10233999
0003d0 2e cd 7b 3d ca bb af 3d 72 17 a5 3d 7b a1 da 3d
       0.06147497 0.0858074 0.080611125 0.10675331
0003e0 7e 3b f5 3d 9f f5 f8 3d 21 25 e8 3c 7b 3f b6 3d
       0.11974238 0.121562235 0.028338017 0.08898827
0003f0 2d 23 24 3d fd 21 aa 3d 93 3f 05 3e f2 20 9f bd
       0.04007261 0.08307264 0.13012533 -0.07769956

lstm.weight_ih_l1 f4 [256, 64]
000000 c6 18 c8 3c 3d de 14 3d c7 c0 93 ba 1f 16 cb 3d
       0.024425875 0.036344755 -0.0011272662 0.09916329
000010 49 bf 08 bd c1 bd ee 3a c6 83 9d 3b b6 6f 88 3c
       -0.03338555 0.001821451 0.0048069684 0.01665483
000020 de ab 9d bd 92 d3 cc bd 60 c1 3b 3d 82 8e 89 bc
       -0.07698797 -0.10001291 0.045838714 -0.016791586
000030 2d 1f 67 3d 69 70 81 bd e5 a6 b2 bc b3 f0 16 3e
       0.056426216 -0.06320269 -0.021808097 0.14740257
000040 36 1d c3 bd 7b 0d 29 be 49 72 42 bd 5a 39 f1 3c
       -0.09527056 -0.16509049 -0.047472272 0.029446293
000050 29 3f 84 3d a5 10 94 bc 04 07 0d bd 3a f9 bc bd
       0.06457359 -0.018074343 -0.03443052 -0.09227224
000060 85 45 b1 bd 66 60 19 be cb 6b 04 bd 6f b2 92 3d
       -0.08655838 -0.1497818 -0.032329362 0.0716294
000070 71 23 2f bd b0 1a e7 bd e4 37 27 3c 6f a2 e5 3d
       -0.04275841 -0.11284387 0.010206196 0.112126224
000080 2e 7e 63 bd 98 dc c3 3d 7c fc 7d bd 91 6e ef bd
       -0.055540256 0.09563559 -0.062008366 -0.11691011
000090 ae 0a 0b bd b7 00 6c bd e9 4d f7 3d e6 77 20 3d
       -0.03394573 -0.05761787 0.12075407 0.039176844
0000a0 28 51 b3 3d cb 04 65 bd 5d e3 bc 3c 8e 9a 84 3d
       0.08755714 -0.055912774 0.023057634 0.064747915
0000b0 b5 1d 8b bd b4 b5 e8 3d 2b 35 81 3d f4 a4 9c 3c
       -0.067927755 0.11362782 0.06308969 0.019121625
0000c0 d1 28 34 bd cc 24 28 bd 0f fe 48 3d 10 87 1a be
       -0.043984238 -0.041050717 0.049070414 -0.15090585
0000d0 31 eb 9c bd 43 ff 79 bc ec ad f6 3d 90 0b a3 bd
       -0.07662047 -0.015258613 0.12044892 -0.0796119
0000e0 ce ba d6 3c 04 9d b7 3c 57 1e a8 3c b0 63 65 3d
       0.026212122 0.022413738 0.02052228 0.056003273
0000f0 b8 b2 1e be 6f da f2 bd 37 8f 88 bd 38 3a 75 3d
       -0.15497863 -0.11858069 -0.06667941 0.059869975
000100 7b 34 3f bc 8a 18 d1 3d b3 00 e0 3c 6e 7f 8c bd
       -0.011670227 0.102097586 0.027344083 -0.06860243
000110 91 c9 a1 bd e6 00 d3 3d 95 8c e4 3c 7a 40 4a bb
       -0.07899774 0.10302906 0.027899066 -0.0030861185
000120 de e0 45 bd c0 a4 40 3c eb 68 18 bc e5 96 07 be
       -0.048310153 0.011758029 -0.009302358 -0.13241155
000130 4f 9e 73 3d 89 3c c9 bd 3c 82 11 bd 9e 57 a3 3a
       0.059477147 -0.09825999 -0.03552459 0.0012462025
000140 a5 80 2d 3a 7c d0 90 bd 40 4b ea bd 8f 37 8b bd
       0.0006618596 -0.07071015 -0.11440134 -0.06797706
000150 6a 27 67 bd 86 cc b7 bc 6d 6e ba bd fe fa 04 bd
       -0.056434073 -0.022436392 -0.09103093 -0.032465927
000160 07 15 10 be bf 38 fd 3c 4f 0d 39 3d ab 69 8b bd
       -0.14070521 0.030910848 0.045178708 -0.06807264
000170 40 37 7e 3c a5 c0 71 3d 3a cd b9 3c 83 ca 01 3e
       0.015516102 0.05902161 0.022680867 0.12674908
000180 94 d2 6a 3d 74 e0 29 bd 75 0c f5 3c ef a2 87 bc
       0.05732973 -0.04147382 0.029913167 -0.016557185
000190 0a a5 64 3d 82 a0 d4 bd 8b 76 06 bd a8 6e 60 bc
       0.055821456 -0.10382177 -0.032827895 -0.0136982575
0001a0 9f 85 69 bd 5c 9a 81 bd 6d 02 37 3d ae d8 b8 bd
       -0.057012197 -0.0632827 0.044680048 -0.09025703
0001b0 21 5a d3 bd 9e 71 b1 3d f1 60 8a bd de 6d 00 3e
       -0.10319925 0.08664249 -0.06756771 0.12541911
0001c0 90 fd 99 3a 98 69 9b bd 56 0f 58 bd f0 e8 af 3d
       0.0011748541 -0.075885 -0.052749 0.08589351
0001d0 dd f3 15 bd 7f 25 07 be 0f e4 e7 bd 0e 20 ac bd
       -0.03660952 -0.13197897 -0.113227956 -0.084045514
0001e0 2a 12 a1 bc 10 f4 cc 3d 46 c1 08 bd 4e 97 ac 3d
       -0.019661982 0.10007489 -0.033387445 0.084272966
0001f0 d3 4c 84 bd c4 80 d9 3d db 2c b0 bd 02 04 f3 bd
       -0.064599656 0.10620263 -0.086023055 -0.11865999
000200 d0 c4 0d 3d 49 ae 2c 3d 9a c1 16 3e 3c 48 4b bd
       0.034611523 0.0421584 0.1472229 -0.049629435
000210 57 f4 e8 3d c2 33 89 bd 26 f8 0c bd 66 cc d9 3d
       0.11374729 -0.06699325 -0.03441634 0.10634689
000220 5c d6 85 bd 67 55 89 bd 39 db 66 3d ba 83 bc 3d
       -0.065350264 -0.06705742 0.05636141 0.09204812
000230 4e a9 98 3c 8f 11 09 3e d4 bb b3 3d 42 4d ef 3d
       0.018635418 0.13385604 0.0877606 0.11684658
000240 af a4 f0 bd 5a a8 a8 bd eb 74 99 3d 58 d8 90 bc
       -0.11750161 -0.082352355 0.074930035 -0.017681286
000250 21 48 5c bd 05 18 b8 bd 3f 17 b9 bd 0f 14 cf bd
       -0.053779725 -0.08988956 -0.09037637 -0.10111248
000260 ec 2b cc bd 64 3b 3d 3d da 55 ac 3d ce 9e a0 bd
       -0.09969315 0.046199217 0.084148124 -0.078427896
000270 52 7d d6 bd 92 51 16 bd 18 fb 39 3d 5a 1d 67 3d
       -0.10473122 -0.036698885 0.045405477 0.056424476
000280 a3 00 b9 3d 01 28 f1 bd fe d5 f3 3d e7 b6 67 bc
       0.090333246 -0.11775208 0.1190605 -0.014142728
000290 8d 44 07 3d 71 4c a5 3d cd 59 f2 bd d3 c1 c1 3c
       0.03302436 0.08071221 -0.118335344 0.023651993
0002a0 af ca ca 3d 0d 4b 53 bd 05 f9 9b 3d b3 02 e4 bc
       0.0990194 -0.051585246 0.07615856 -0.027833318
0002b0 b7 14 2e 3c a7 52 98 3d 2f 4b 02 bd 21 1a ac bd
       0.010625056 0.0743764 -0.031809982 -0.08403421
0002c0 95 00 b4 bd f5 6f 0d be 2e 46 9f bd c5 f2 b8 3d
       -0.087891735 -0.1381224 -0.077770576 0.090306796
0002d0 02 c6 d3 bd e7 2c e6 bd 0a 1f a4 bd 63 82 0c be
       -0.10340501 -0.11239033 -0.08013733 -0.13721614
0002e0 f8 8c 1d 3c 4a 25 84 3c 32 d6 65 3d 97 12 f9 3d
       0.009616129 0.016131062 0.056112476 0.12161749
0002f0 47 97 b6 3d 3f bb 60 3c ce 6d ac bc 7f a2 b5 3d
       0.089155726 0.013716518 -0.021048453 0.08868884
000300 d7 d8 c7 bd 48 d2 cb 3d 34 70 1b bd 73 d1 04 3d
       -0.09758156 0.09952217 -0.037948802 0.03242631
000310 3d 46 a1 3c f8 0f 2d bd 47 f4 28 3d d2 66 07 3e
       0.019686813 -0.042251557 0.041248586 0.13222817
000320 d6 c9 d9 3d 33 70 ce 3c ef ce 77 3d 1f 55 fa bd
       0.106342 0.025199985 0.06050008 -0.12223267
000330 13 64 f1 3d eb 25 cf bc 58 f4 89 bd 24 db af bd
       0.11786666 -0.025286635 -0.06736058 -0.0858672
000340 29 94 a5 bd c2 c2 ba 3d bd cf 82 bd 18 82 e9 bd
       -0.080849 0.09119178 -0.06387279 -0.114017665
000350 c3 5b 02 3e 61 73 51 3d 1d e3 ce 3b c6 77 5c 3d
       0.12730317 0.051135425 0.006313695 0.053825162
000360 bf a3 c6 bd 86 94 f4 3d fa d8 1a bc e8 35 08 bc
       -0.09699201 0.11942391 -0.009451145 -0.0083136335
000370 f9 7e 0a 3e 79 6a 6c 3d 58 ad cc 3d cf e7 83 bd
       0.13524999 0.057718728 0.09994 -0.06440698
000380 41 a6 ac 3c 53 dd 01 be 8f dd b6 3d 4b 12 90 3d
       0.02107537 -0.12682085 0.08928978 0.07034739
000390 42 6b 83 3d eb 84 b0 bd 4b 40 30 bd 44 65 5b bd
       0.06416942 -0.08619102 -0.043030065 -0.05356337
0003a0 69 ac b7 3d 39 29 f2 bd 0d bd 89 bc 44 cb 9e bd
       0.089684315 -0.11824269 -0.01681378 -0.077536136
0003b0 8c 4a ab 3d 11 9b f0 bd 4f fc 07 3e 73 af fb bd
       0.08363828 -0.117483266 0.13279842 -0.12289324
0003c0 93 3c a3 bd 11 4a 0a 3e 91 d5 8a bd 32 1f 66 bd
       -0.07970538 0.13504817 -0.06779016 -0.056182094
0003d0 32 c4 7e bd 30 6d 52 bb 38 d1 77 bd 46 2c c2 bd
       -0.062198825 -0.0032108538 -0.06050226 -0.09481101
0003e0 fa ec 08 3d 4b 0a de bb 6d 6b e9 bc c7 16 8a bd
       0.033429123 -0.0067761294 -0.028493607 -0.06742626
0003f0 44 1e 85 3d d4 65 b6 bd d3 c0 41 3d 71 ba 90 3d
       0.06499913 -0.08906141 0.047303032 0.07066811

lstm.weight_hh_l1 f4 [256, 64]
000000 ff 1c d7 bd a2 84 b0 3c d4 d1 09 3c ca 3c a2 bd
       -0.105035774 0.02154762 0.008411843 -0.07921751
000010 21 27 c1 bd 1c b6 38 bd 74 64 b1 bd 40 ac 94 bd
       -0.09431291 -0.045095548 -0.08661738 -0.072594166
000020 e5 78 ae bd c8 7b ba bd d4 ea 19 bd 8f a4 a9 bd
       -0.085191526 -0.09105641 -0.037577465 -0.0828334
000030 ad 72 5a bd 1b 38 3a bc 06 13 a1 bd 2e 7b db 3d
       -0.05333202 -0.011365916 -0.078649566 0.10716854
000040 d2 83 60 3d 9a 61 80 3c c4 75 02 be cc 94 84 3d
       0.054813214 0.01567154 -0.12740237 0.06473693
000050 b2 b8 98 bd a9 d1 a1 bc 76 2f 7d 3d 53 4d ab 3c
       -0.07457103 -0.019753294 0.06181284 0.020910894
000060 0c 53 0c bd 7f 86 d4 bd 40 76 bf 3c 7c 56 2e bc
       -0.034258887 -0.103772156 0.023371816 -0.010640737
000070 03 09 b7 bc 6b f6 4f bd 67 a9 8b 3d fc ae 0a be
       -0.022343164 -0.050772112 0.0681942 -0.13543314
000080 e9 98 ea 3d 56 22 a5 bd 31 63 8d bc 73 e3 95 3d
       0.114549465 -0.0806319 -0.017259212 0.07318773
000090 31 b3 aa bd 89 4c dc 3c 8b a2 a2 bc c3 c2 7d bd
       -0.08334959 0.026891964 -0.019852897 -0.061953317
0000a0 a6 da 0b bd 5f c1 7d bd c9 01 a9 3d e6 2b 8b bd
       -0.034144066 -0.06195199 0.082522936 -0.06795482
0000b0 4c 43 a0 bd 64 9c e1 3d 9a 5e 41 bd 58 4d f9 3d
       -0.07825336 0.11016157 -0.04720936 0.12172955
0000c0 36 b5 b6 bd e9 1d ed bd 34 4a b2 3c d1 7a 1c 3d
       -0.08921282 -0.115779705 0.021763898 0.038203064
0000d0 a8 ab 2e bb 1c 75 03 3e 72 a9 03 be f0 93 b3 3d
       -0.0026652608 0.12837642 -0.12857607 0.08768451
0000e0 d3 5f ef 3c 90 1a cc 3d ff 11 ea bc 73 90 d3 bd
       0.029220497 0.09966004 -0.028573034 -0.10330286
0000f0 e8 c7 e1 3b 2c d8 d2 bb b8 b0 2a 3d 7c 16 cf bd
       0.0068902858 -0.006434461 0.04167244 -0.101117104
000100 a5 d4 cc bd e5 73 87 3d bb f5 97 3b 67 32 45 3d
       -0.10001496 0.06613902 0.0046374477 0.04814377
000110 52 14 bb 3d d7 20 1f 3e aa e8 60 bd 18 ce d0 3d
       0.09134735 0.15539871 -0.054909386 0.10195559
000120 2a 56 1a bd f7 32 eb 3c 22 85 b8 3c 8c 67 12 3d
       -0.03767983 0.028710825 0.02252442 0.03574328
000130 21 ad 53 bd ac 2d c5 bd e8 48 33 3d fc 7e 3c bd
       -0.05167878 -0.09627852 0.0437707 -0.04601954
000140 c2 99 fb 3b ab 56 9a 3d fa c5 0f 3d 43 9a 9f 3d
       0.0076782415 0.07536062 0.035100915 0.07793095
000150 af 26 83 bc 54 6a e1 bb c7 bb 97 3c fa 21 93 bd
       -0.016009657 -0.0068791304 0.018522156 -0.07184215
000160 0a 1a 77 bd b1 1f 2f 3d 97 9f c9 bd ed ee ca bd
       -0.060327567 0.042754833 -0.098448925 -0.09908853
000170 8d 9d a6 3d a4 9f ac 3d b2 9a da bd 0d da 32 bd
       0.08135519 0.084288865 -0.10674037 -0.04366498
000180 83 d4 b2 bd 4d 1b 97 bd b9 ce 22 3d 9d 6e 2e bd
       -0.0873194 -0.07378254 0.039747927 -0.042585958
000190 0a 01 57 3d fd ca 4f bd 9a fd 2b 3d 83 af 9f bd
       0.052491225 -0.050730694 0.0419899 -0.07797148
0001a0 ab 3d 6e bc 72 1e d1 bd 3d 89 bb bd df 08 b3 3d
       -0.01454107 -0.10210885 -0.091570355 0.087419264
0001b0 c2 e8 b8 bc 9c 7a d4 bc 11 81 87 bd a0 c1 ce bd
       -0.022571925 -0.025937371 -0.06616414 -0.10095525
0001c0 68 3d 20 3a e0 f5 ed 3d d1 9b 64 bd 36 d7 d6 bd
       0.0006112666 0.116191626 -0.05581266 -0.10490267
0001d0 02 12 72 bd 48 03 eb bd e8 3d 6a b9 29 4f c0 3c
       -0.059099205 -0.11475235 -0.00022339041 0.023475247
0001e0 53 5e f2 3d 45 f3 e7 3d d1 93 08 3c d0 17 31 3b
       0.11834397 0.11325697 0.008336023 0.002702225
0001f0 08 d1 a1 bd be 27 b0 bd 6b 35 fe 3b 7e 62 79 3d
       -0.07901198 -0.0860133 0.0077578328 0.060884945
000200 e8 25 96 bd 5b 01 ff bd 3a 66 d1 3d 7f 39 fc bd
       -0.07331449 -0.124514304 0.10224576 -0.12315654
000210 4b fb 5c bd 56 f4 9d bd 4a 7e d5 3c 58 d0 4f bd
       -0.05395059 -0.07712619 0.026061196 -0.0507358
000220 fc 97 d2 3c b9 e8 a3 3d b8 71 b0 3c a7 c8 88 bd
       0.025707237 0.08003373 0.0215386 -0.066788964
000230 6e 35 8a 3d 90 cd bd 3d b7 a9 54 3d 8b 9b 15 3c
       0.06748472 0.092677236 0.051919665 0.009131323
000240 14 84 3e 3d 9d c8 02 3e e2 61 44 3d 9b 02 23 3c
       0.04651268 0.1277184 0.04794491 0.009949352
000250 a2 7f b4 bd 61 9e a9 bd 0a 73 46 3d fe ab 70 bd
       -0.088134065 -0.082821615 0.048449554 -0.058757775
000260 78 ac d7 3d 07 63 0c bd ac 99 db 3d 5d 70 c5 3d
       0.10530943 -0.034274127 0.1072267 0.09640572
000270 b4 a3 7d 3d 62 d2 09 3e 9e d2 f1 bc fb 27 9d 3c
       0.061923698 0.13459161 -0.029519375 0.019184103
000280 9c ed 27 bd a2 4c f6 3d c7 ef a2 bd 79 05 c2 3d
       -0.040998086 0.12026335 -0.0795589 0.094737
000290 4b 48 4e bd 10 2c 08 be b6 8c d4 ba 99 89 05 be
       -0.050361913 -0.13298059 -0.0016216252 -0.1304077
0002a0 90 b4 02 3e 35 1e b4 bd a9 f1 80 3d 7a 96 d6 bd
       0.12764192 -0.08794824 0.06296093 -0.1047792
0002b0 bd 89 0a 3d 49 0c 79 bd 47 93 bc 3c 56 45 0c bd
       0.033822764 -0.06080273 0.023019446 -0.03424581
0002c0 05 db aa bd 94 e6 a0 bd 96 99 bc 3d d3 66 88 3d
       -0.08342556 -0.07856479 0.09208982 0.06660237
0002d0 ad 28 06 bd a6 8c fd bd 53 b1 d8 bd ee 45 c1 3d
       -0.032753635 -0.12380342 -0.10580697 0.09437166
0002e0 b5 29 fb ba 8f 2b 71 bd 62 63 eb bd 6d 65 f3 bc
       -0.001916221 -0.05887943 -0.11493565 -0.02971145
0002f0 23 f3 5c 3b 73 10 34 bd 00 85 e9 bd 5b 0b b9 3d
       0.0033714257 -0.043961 -0.11402321 0.09035369
000300 b3 8e 00 3e 86 92 7f 3d f1 a3 54 bc 3b c7 47 3d
       0.12554435 0.062395595 -0.01297854 0.048773985
000310 a7 40 c5 3d d5 26 e0 3c 5f f8 6c bc 80 23 90 bd
       0.09631472 0.027362267 -0.014463513 -0.07038021
000320 8b 54 bd 3d 83 39 19 3c 93 4b 3c bd df 30 dc 3d
       0.09244641 0.009352091 -0.04597051 0.10751509
000330 78 e0 9e 3d bb 7d 3c 3d f6 df d7 bb 8b 4c da 3c
       0.07757658 0.046018343 -0.0065879775 0.026647827
000340 3c f1 da 3d d3 f9 94 bd cb ce a3 bd 91 1a df 3d
       0.10690543 -0.07274213 -0.07998427 0.10893739
000350 54 38 b1 3d 9b c0 b5 3d 75 2e 92 3d a1 cc b7 3d
       0.08653322 0.08874627 0.07137767 0.08974577
000360 f9 ca c5 bd 87 62 96 bc a2 b2 30 3b c7 f2 89 3d
       -0.096578546 -0.018357528 0.0026961942 0.06735759
000370 ba a6 83 bd e2 64 b0 bd 37 6a a1 3d b7 d4 1e bb
       -0.06428285 -0.08612992 0.07881587 -0.0024235675
000380 5e e8 19 bd 28 d7 d6 3d 8e 28 cf bd f3 e1 7c bc
       -0.03757512 0.104902565 -0.10115157 -0.01543473
000390 e7 69 a0 bd 10 22 07 3c 96 b6 92 3c 6b b6 05 be
       -0.07832699 0.008247867 0.01790933 -0.13057868
0003a0 b7 69 d3 bd 55 d7 ba 3c e9 bb b5 3d 6f 82 ef bd
       -0.10322898 0.022807756 0.08873732 -0.116948
0003b0 94 25 8b 3d 57 a9 3d bd d1 dd 86 bd de 50 e7 bc
       0.06794277 -0.046304073 -0.06585277 -0.028236803
0003c0 94 e7 c0 bd ef 9b c8 3d f9 03 67 3d 2c 8b f6 bd
       -0.0941917 0.09795367 0.056400273 -0.12038264
0003d0 de 51 fb bd 45 ee 6f bd 91 6b ff bd 36 c7 a5 3c
       -0.12271474 -0.05857684 -0.124716885 0.020236593
0003e0 00 b3 b0 3d 65 ad 96 bd 5d e9 fb 3d 8e 56 98 bc
       0.086278915 -0.07357291 0.1230037 -0.01859596
0003f0 2a 53 d8 bd 19 96 44 bc 10 1b 18 bd d4 56 92 3d
       -0.10562737 -0.011998677 -0.037135184 0.071454674

lstm.bias_ih_l1 f4 [256]
000000 77 37 f9 3d e1 33 be bd 85 46 85 3d e8 ce 38 bd
       0.12168782 -0.09287239 0.06507591 -0.045119196
000010 c1 ad 91 bd 31 4a 04 bd 75 1e 8d 3a ff 4c 50 3c
       -0.07113219 -0.032297317 0.0010766523 0.01271367
000020 75 a0 6b bd e8 4f d3 3d 9f 5e 15 bd d8 4a 83 bd
       -0.05752607 0.10317975 -0.03646719 -0.0641076
000030 be 26 77 3d 69 85 c8 3d bb c9 cc 3d 1f 7e b8 3d
       0.06033968 0.09791071 0.099994145 0.09008431
000040 ce ef 9e bc 3f 86 cf 3d 45 e8 e1 3d 80 2a 09 3e
       -0.019401457 0.10133027 0.1103063 0.13395119
000050 fb b0 72 3d ce c6 c8 bc c0 db 92 bd 51 08 e8 3d
       0.059250813 -0.02450886 -0.0717082 0.11329711
000060 da 2d 0b 3d b4 ef cb 3d c9 4b a8 3d 25 f4 49 3d
       0.033979274 0.09957829 0.0821758 0.0493051
000070 21 22 4e 3d c7 4c d4 3d ba 92 cb bd ce 38 b0 3d
       0.050325517 0.103662066 -0.09940095 0.08604585
000080 f2 f5 e0 3d 26 4f 07 3e 59 00 09 3d bc 65 63 bd
       0.1098441 0.13213786 0.033447597 -0.055516943
000090 1d ef a4 3c a4 ab 8f bd 64 20 80 bc 8c ee f6 bd
       0.02013355 -0.0701516 -0.015640445 -0.12057218
0000a0 56 75 f5 bc d6 1c bf 3c ce 8a 8e bd 5d d3 df bd
       -0.029963177 0.02332918 -0.06960069 -0.10928986
0000b0 a8 6e b4 3d c2 f5 36 bc 45 a7 c2 bd d6 41 a9 bc
       0.088101685 -0.011166992 -0.095045604 -0.020661276
0000c0 7d a5 aa bb 45 93 02 bc 9e c1 bb bd 4a 32 6b 3d
       -0.005207716 -0.007969682 -0.09167789 0.057421006
0000d0 d2 54 e6 3d 0d b5 30 3c 8e 32 a8 bd 85 8f 6a bd
       0.11246647 0.010785353 -0.082127675 -0.057265777
0000e0 e3 44 da 3d 35 9f db 3d 9c 4b d9 3d 2a 72 43 3d
       0.1065767 0.10723726 0.106101245 0.047716297
0000f0 6e 49 3c 3d 71 8f ad bb b7 43 ba 3d 17 f9 04 3e
       0.045968466 -0.0052966406 0.09094947 0.12985645
000100 9d e7 4e bd 00 8d 18 3d b9 de e9 3d 2b 57 ce 3d
       -0.050513852 0.037243843 0.11419434 0.1007522
000110 c5 00 f9 3d a3 1e d5 bd 81 ff 3d 3d 1b 5a ca bd
       0.1215835 -0.10406234 0.046386246 -0.098804675
000120 cd 6c f8 bd 0e aa dc 3d 5f c9 62 bd 7f 88 21 bd
       -0.12130127 0.10774623 -0.055367824 -0.039436813
000130 59 40 ab bd 30 f1 92 3b 5b 17 b0 bd 1b e1 c6 bd
       -0.08361883 0.004484318 -0.08598205 -0.09710904
000140 69 34 aa 3c 9c 00 e7 3d 49 e2 26 bd 2c e0 ad 3d
       0.020776944 0.11279413 -0.040743146 0.08490023
000150 bb dc 9d 3d 86 60 c4 bc d0 c7 1e 3d c1 fc c2 bd
       0.077081166 -0.023971807 0.038764775 -0.09520865
000160 99 ca 43 3d ba b8 7e 3c 9e e8 cf 3d 7a 85 e7 bd
       0.047800634 0.015546972 0.1015179 -0.113047555
000170 58 dd ee 3d e0 6a 24 bb cc ca 00 bc 84 88 85 3d
       0.11663312 -0.0025088117 -0.007860851 0.06520179
000180 e0 c1 4b bd 63 18 6a 3d 3c 38 c5 3d c8 3c d1 3d
       -0.04974544 0.057152163 0.096298665 0.10216671
000190 aa 63 90 bd 0a 4e 00 3d 08 a8 4f bc 94 28 31 3d
       -0.070502594 0.031324424 -0.012674339 0.04325159
0001a0 aa 2f 11 3e 19 78 c1 bd 2b 29 e4 3c 0c e5 3a bc
       0.14178339 -0.09446735 0.027851662 -0.011407148
0001b0 df 5d 5c 3d 74 bd ba bc f5 3e dc 39 cc d6 0c 3e
       0.05380046 -0.022795416 0.00042008577 0.13753814
0001c0 6a 86 c5 bd fc 48 3c 3d bb 80 b5 bd f0 38 b3 3d
       -0.09644778 0.04596804 -0.08862444 0.08751094
0001d0 4c dd 99 3d 51 c0 f1 bd 78 b9 cc bd 30 f0 79 bd
       0.07512912 -0.118042596 -0.09996313 -0.061020076
0001e0 ca 77 0e 3e 2f 12 e2 3d 23 71 ee 3c 72 62 ee 3d
       0.13912883 0.110386245 0.029106682 0.11639871
0001f0 ca d6 c9 3d 1c 49 82 bb 00 58 ff 3c d0 6d 0d bd
       0.09855421 -0.0039760005 0.031169891 -0.034528553
000200 7d 3a ad 3d f9 9a 70 3d fb 47 83 3d 11 26 2e bd
       0.084584214 0.058741543 0.064102136 -0.04251677
000210 01 db 3e bd b9 e1 c7 bd a6 2c 71 bb ae 26 7a 3b
       -0.046595577 -0.0975985 -0.0036800294 0.0038170028
000220 f6 e2 9a bd 59 e8 a7 bd cd 47 08 bd 6c 5a d8 bd
       -0.075628206 -0.08198614 -0.0332716 -0.105641216
000230 fb fb 0e bd ae c4 31 bd 08 7e fc 3d fd 4a 2c bd
       -0.034908276 -0.04340046 0.12328726 -0.042063702
000240 c6 59 d1 bd 80 45 e6 bd c1 84 f0 3b e9 1b ae 3d
       -0.10222201 -0.11243725 0.0073400442 0.08501417
000250 27 a7 8a bd b8 25 fe 3c 42 3b d6 bd ba ff f6 3c
       -0.06770163 0.031023845 -0.10460521 0.030151237
000260 02 38 a1 3d 31 a7 ab bd 1e 65 57 3d f4 f8 66 bc
       0.07872011 -0.083814986 0.052586667 -0.014097441
000270 2c 3a e6 bd 84 f1 d0 3d 81 f8 4f 3d 6b 76 c1 3c
       -0.11241564 0.102023154 0.0507741 0.023616036
000280 40 a1 ea bc b2 d5 ba bd 1e fd 8b 3d 15 8b 03 3d
       -0.028641343 -0.091227904 0.06835388 0.03211506
000290 bf f0 7c ba 9b a4 c6 bd 65 7f 32 bc 46 52 b4 bd
       -0.0009648911 -0.09699365 -0.010894631 -0.08804755
0002a0 78 45 fb 3d 65 ac a9 3d b4 ad 45 3d 84 24 5c bd
       0.122691095 0.08284835 0.04826136 -0.05374576
0002b0 7d 11 ff bd 05 36 07 be 64 9d b7 bd 32 f2 cf 3d
       -0.124545075 -0.132042 -0.08965567 0.10153617
0002c0 61 06 8f 3d 3f e4 71 bd 82 a0 15 3a 90 e0 7a bc
       0.069836386 -0.059055563 0.00057078165 -0.015312329
0002d0 4e 81 bb bd db e4 22 bd 87 a2 07 bd 66 0e aa 3d
       -0.09155522 -0.039769035 -0.033113983 0.083035275
0002e0 65 29 40 bd bb 68 ff bd f8 4d c6 bd a9 ff 37 3d
       -0.046914477 -0.124711476 -0.0968284 0.04492155
0002f0 21 75 03 3e a8 59 b0 bd 62 89 aa 3d cb dc 10 3d
       0.1283765 -0.086108506 0.08326985 0.035366815
000300 1e cc 9f bd e1 b9 f1 bd 4d eb d7 3d b4 47 6d 3d
       -0.07802604 -0.11803032 0.10542927 0.05792971
000310 a7 84 d6 3d 0f 45 d9 3d c0 82 2d 3d 60 47 73 3c
       0.1047452 0.10608875 0.04236102 0.01484856
000320 ae 12 61 3d 4a c2 c9 bb 20 73 52 3d 60 28 00 bd
       0.054949455 -0.0061571943 0.051379323 -0.031288505
000330 fe db e8 3c 25 c5 c5 bd 38 97 04 3e 26 bc d4 bd
       0.028425213 -0.09656743 0.1294831 -0.10387449
000340 83 a8 57 bb aa da df bb 98 ce 87 3d fc 75 74 3d
       -0.0032906837 -0.0068314867 0.066312015 0.05968283
000350 fa 6f b6 bd 03 1a fc 3c 62 25 48 3b d6 ca 20 bd
       -0.089080766 0.030774122 0.003053986 -0.03925594
000360 66 65 a3 bc 7a 94 a0 3d c3 f9 40 3c ff e5 0c 3e
       -0.019945811 0.0784082 0.011778298 0.13759612
000370 cd 8e e9 3d 22 d9 8a 3d 1c 68 2f 3d 24 75 c0 bd
       0.1140419 0.06779696 0.042823896 -0.09397343
000380 5e 10 bd bd 8c 57 99 bd 39 88 bc bd 6d 0e ac 3d
       -0.092316374 -0.07487401 -0.0920567 0.08401189
000390 31 d6 1d 3e c0 dc 1a 3d bc c2 6c 3d 94 28 e8 3d
       0.15413739 0.03780818 0.0578029 0.11335865
0003a0 72 f4 fa bc df d9 62 bb a0 57 b3 bd 8b 65 8e 3d
       -0.030634139 -0.0034614725 -0.087569475 0.069529615
0003b0 ce 7a 02 3e 17 01 8b bc eb d2 77 3d 61 8a e8 3d
       0.12742159 -0.016968293 0.06050388 0.11354519
0003c0 fa ce aa 3d 5d 81 33 3d de 49 98 3d f6 bc c7 bd
       0.08340259 0.043824542 0.07435964 -0.09752838
0003d0 c8 c6 45 bd 3c 56 b3 bd 50 09 7e bc c8 75 40 bd
       -0.048285276 -0.08756682 -0.01550515 -0.046987325
0003e0 74 9e 37 3d 61 be fd 3c 57 31 5f 3c 22 c2 bd 3c
       0.044828847 0.030974569 0.013622603 0.023163859
0003f0 0e 85 5b bd 88 d1 29 3d f1 ae d1 3a f7 b1 7b bd
       -0.053593688 0.04145959 0.0015997571 -0.061449017
