data/models/ripple_lstm_1h.pth (torch, 215861 bytes, 10 tensors)

lstm.weight_ih_l0 f4 [256, 10]
00000000: 6479 1d3d 9180 c93d ba58 bf3d f837 0bbc
00000010: c33a 64be facd 7cbe 9187 1fbf fcf9 12bf
00000020: f4e4 893d ffb7 3bbe 2be6 21bd f9b5 203d
00000030: fe2c 91bd 7633 74bd 9f57 1a3e e431 c83d
00000040: 3699 ad3e 84b6 ea3e 6f45 b43d 63c6 c4be
00000050: 62a7 03bd 5f67 1abe 55ad 843b 7deb 3bbe
00000060: bccf 833b d1e7 00be 941c dcbd 5865 373c
00000070: 6bf0 f33d 446c 12bd a873 8ebe 952b 8fbe
00000080: 35f2 81be 5dc7 66be 77c7 8abe 465e a6be
00000090: a75f 4a3c eb65 b5bd ff5b 42be ddd4 31bd
000000a0: 53b3 a43e 8a2b 1c3e db73 913e 0377 633e
000000b0: 28a0 cd3d 1e64 7e3e f32f 453e 03ab 6c3e
000000c0: 599a 9e3e 0eb5 0fbd 9631 a8be dd50 7bbe
000000d0: 5915 c7be 172d 24be 2b3f a23d d9bd d3be
000000e0: 456a 0f3e cba5 1c3e 2c10 a7bd 56f4 013d
000000f0: 3585 8d3e 71cb e73e f9b7 0c3f 56e2 043f
00000100: 392c 2dbe ca6e 06be 3d98 e73d ff3c 2a3d
00000110: 2da0 f53e d4b6 7cbe cc36 a03c 9891 f2bc
00000120: 08b9 1dbe b8f5 05bd 8e2f c73c c93b 8e3e
00000130: 6eb3 c33c 198f eabc 1f32 adbd 69e9 a43c
00000140: 752a 6bbe 006a 36be 2455 fabd 8291 b9bd
00000150: 2491 c1bd d586 2c3e acf0 663e 7560 2e3e
00000160: 5d4d dcbd a38a 49bd 51e3 a53d 4617 abbd
00000170: 3ea8 e73d d11d 373d 0170 2bbe 3e47 f0bd
00000180: 0dde 84bd ea77 a5bd 3177 98bd 00db a73e
00000190: a3b6 ff3d 8c67 a03e fc82 c13d 71cc 8a3d
000001a0: 1356 1cbd 9d04 373e 2cff 84bd b1b8 a9bc
000001b0: f229 b63d c518 32be df7d 563e df17 a93e
000001c0: 0a20 843e ec67 ad3e e6aa 51bd f99b 513e
000001d0: 5177 cbbd 11aa 4cbe eb95 533e 2fbc ec3d
000001e0: 0f7c 02be 84f1 0fbe b246 4dbd 5434 28be
000001f0: 46b0 8fbe 6326 2d3d 37e8 a83e e782 a93e
00000200: 779c 91bd c65d 74be 7b43 3dbe 21be 86be
00000210: d213 6bbd b9ff 23be cdf9 41be c263 373e
00000220: e6dd 883b 1c7a 0abe c43e 62be bd4c 2cbe
00000230: b5a1 893e 1b2c 2e3e a9a6 a43d fcea a83e
00000240: 729a 66bc 5b73 b8bd 0e92 a23e 92ef 903e
00000250: 94e2 a23d 2201 613d 7741 bfbd 2e5f 61be
00000260: fb83 14be dd90 3eba 587b 34be ea30 88bd
00000270: a7cf 713d aa29 af3b d18f a2bd 80a9 f33c
00000280: f61a b53b 5c94 083d a27b b7bd 5037 9d3c
00000290: aa66 f33c bb90 38bd dd4c 99be 27d8 9ebe
000002a0: 59a6 7e3d 8317 98be f59f 6e3d 4616 95bd
000002b0: b817 1d3a 2613 953d f8ed 60bf fda5 50bf
000002c0: 4e69 593e c815 cf3d 2ca3 f6bd a98a 363e
000002d0: f220 a53d 6eef 063e 25ce 2a3e 8cf8 353e
000002e0: 757e 233e 44c8 823d e1e5 00bd 27fd cebd
000002f0: 5bc8 f53d 336e 973d 8e4c 713e 5ad1 a83e
00000300: 633a 113e d38f b93e a798 90bd 40e7 c13d
00000310: 587a 083c 863e 0cbe 7441 653e 4ba3 4d3b
00000320: 3485 323e 2db0 173e 2379 7b3e 34ac e03c
00000330: 766d 88bd 857f 5f3e 327f f23d 4d34 ce3b
00000340: c560 623e 6e73 6c3e 8b19 b9bd 750a efbd
00000350: 7646 14bd 1417 70bc 942f b13d 98c0 04bd
00000360: c61c 0f3e 9815 a7bb 8e13 53be 4e9d 973e
00000370: 579f aabe 2dfb e1be bc9f 84be 61a3 70be
00000380: 4f64 7d3d 6e95 7fbe ea52 233e 686e 553e
00000390: e26b a6be 926e 1abc 4dc6 2abe 2fd9 7abd
000003a0: 366b 78bd 7189 333d edf1 11be 88d3 34be
000003b0: c322 0cbf ac3d 0fbf f1aa 8ebd 6022 47be
000003c0: e4f9 ecbd 4f2a 473d 8915 de3d 96f3 73bd
000003d0: 21fe 0bbe 86fd 293e 7a86 5abe 0f06 31be
000003e0: ae7f f13d 0ea6 92be d903 353d 6465 9c3d
000003f0: 65f6 673e 20ab ea3d 6ec1 373e 9063 b73d
0.038445845 0.09838975 0.09343095 -0.008497231 -0.22288041 -0.24687949 -0.6231623 -0.57412696
0.067331225 -0.18331908 -0.039526146 0.039236043 -0.0708866 -0.05961939 0.15072487 0.09775141
0.33905953 0.45842373 0.08802306 -0.38432607 -0.03214205 -0.15078495 0.004048983 -0.1835155
0.0040225666 -0.12588431 -0.10747638 0.011193596 0.119110905 -0.03574778 -0.27822614 -0.27962938
-0.25380102 -0.22536989 -0.27105305 -0.324938 0.012351907 -0.0885733 -0.18980406 -0.043415893
0.32168064 0.15250984 0.28408703 0.22213368 0.10040313 0.24842879 0.19256572 0.23112111
0.30977133 -0.035084777 -0.3285033 -0.24542566 -0.38883474 -0.16032825 0.079222046 -0.4135578
0.14005382 0.1529762 -0.081573814 0.031727158 0.2764069 0.452724 0.5496822 0.5190786
-0.16911401 -0.131282 0.11308334 0.041562077 0.47973767 -0.24679118 0.01955738 -0.02961044
-0.15402615 -0.03270504 0.024314668 0.27779987 0.02388927 -0.028632687 -0.084568255 0.02013083
-0.22965415 -0.17813873 -0.122232705 -0.090609565 -0.094515115 0.1684831 0.22552747 0.17028983
-0.107569434 -0.04920448 0.08099998 -0.083540484 0.113113865 0.04470617 -0.16741945 -0.11732338
-0.06487665 -0.080795124 -0.07444609 0.3278427 0.12486007 0.31329 0.094488114 0.06777275
-0.038168024 0.17872854 -0.06493983 -0.02071795 0.08894719 -0.17392261 0.20946454 0.33026025
0.25805694 0.3386835 -0.051188372 0.20469655 -0.09934867 -0.1998675 0.20662658 0.11559331
-0.12742637 -0.14056975 -0.05011625 -0.16426212 -0.28064173 0.042272937 0.32989666 0.33107683
-0.071099214 -0.23863897 -0.18482773 -0.26316932 -0.05739195 -0.16015519 -0.18942948 0.17909148
0.004176843 -0.13523144 -0.22094256 -0.16826148 0.26881185 0.17009012 0.080396004 0.3299178
-0.014074909 -0.09006377 0.31752056 0.28307778 0.079533726 0.05493272 -0.09338658 -0.22008964
-0.14503472 -0.0007269511 -0.17625177 -0.066499546 0.059035923 0.005345543 -0.07937587 0.02974391
0.0055268956 0.03334461 -0.08959128 0.019191414 0.02971204 -0.0450599 -0.29941455 -0.31024286
0.06217036 -0.29705438 0.058258016 -0.07279639 0.0005992609 0.07279043 -0.8786311 -0.8150328
0.21231577 0.10111576 -0.12042841 0.17826332 0.080629244 0.13177273 0.166802 0.17770594
0.15966208 0.06385854 -0.03146923 -0.10106879 0.120011054 0.07394066 0.2356436 0.32972223
0.14182429 0.36242542 -0.07060366 0.094679356 0.00832995 -0.13695726 0.2238825 0.0031377848
0.17433625 0.148133 0.24557929 0.027425863 -0.06661503 0.21825989 0.11840667 0.006292856
0.22107227 0.23090908 -0.09038075 -0.116719164 -0.03620001 -0.01465394 0.08651653 -0.032410234
0.1397582 -0.0050990097 -0.20612928 0.296122 -0.33324692 -0.44136944 -0.25903118 -0.23499824
0.06186324 -0.24959347 0.15949598 0.20842898 -0.32504183 -0.009425776 -0.16677208 -0.06124228
-0.06064912 0.043832246 -0.14252444 -0.17658818 -0.5474054 -0.5595348 -0.06966198 -0.19446707
-0.115711 0.048624333 0.10843951 -0.059558474 -0.13671161 0.16600618 -0.21340361 -0.17287467
0.11791931 -0.28642315 0.044193123 0.07636526 0.22652586 0.11458421 0.17944881 0.08954537

lstm.weight_hh_l0 f4 [256, 64]
00000000: e89e 07bf 4c0e 22be 4a20 413e 7e92 0d3d
00000010: 24d0 743e 29c9 4f3c a496 ae3c e8ad 363e
00000020: 577c 7dbe 301e e83d 6b76 243d 593b 1ebe
00000030: 831f 58be 2636 493d 5444 12be 5fca aabe
00000040: d450 22be eb05 51be a8f1 be3e df6b 62bd
00000050: 9aae 0dbe 2e39 84be 95bb a03d 1467 44be
00000060: 6b25 28be 657a 93be 1062 2d3e 6426 9a3d
00000070: 8c07 983e 24a3 703e f83e 0bbe da17 3fbe
00000080: f3ad da3d cdf6 84be 8711 0ebe eeb8 913d
00000090: eaa4 923d 884f dbbd 4e45 86be 5839 efbd
000000a0: c35f 25be a260 acbd 0eee 0ebf 07c5 2a3f
000000b0: eb4f ee3e 4c9c d4bc bb07 7c3c 9066 473d
000000c0: bf8a d0be 8c03 973e 2786 e6bd 380a 64be
000000d0: a9ee 17be f7fa a03e 29ac 64be 47af 22be
000000e0: ab57 5cbe 3460 bdbc 3aae f93e eb36 943e
000000f0: c284 21bf 6906 97be 3a66 083e 4996 813d
00000100: 11c4 873e d497 f93e 455e 1dbe 7d06 e43d
00000110: f995 273e 720a b5bc bde7 73bc 9f04 063f
00000120: 84bf e53b 107f 363e 65ec bcbc f48f db3d
00000130: 5cde a33e 72e9 093e 14c6 c9b9 a03f ba3c
00000140: 7b01 3ebe ea79 833c b7f9 22be c11a e5bc
00000150: ee9f c6bd 12b4 4d3e 258d a33d a94a 113e
00000160: 930c 00be 6ac9 e0bd 35f4 8dbe 0575 98bc
00000170: 4f31 8c3a b40a b4be f5b6 a9bb 153b 07be
00000180: 5c74 a03e 5cdb a23c 9e3b 7d3d d071 b83d
00000190: 2a31 123d af5c 573d a3c5 51bc 1e6c 893e
000001a0: 5306 92bd 6e50 00be b698 b83e 4b3c d8be
000001b0: e7cb 2bbf 5294 c43d 7d83 53bc bbad 3a3e
000001c0: f884 8cbd 1dc4 0dbe 87b0 cc3d d962 6dbc
000001d0: 0e97 3a3e 5329 423d f2fa 9abd 44b1 a5bd
000001e0: a022 ea3d 8eeb c2bd 667e f2be 1c2c dabc
000001f0: 958d 673f e286 973d adaf 903e ac23 cbbd
00000200: bcb0 cabd 39b7 99bc cdc2 853d 08ad d6bd
00000210: e261 c9bd 0dae a43d 4099 7e3d f68c 783e
00000220: f200 84be 48a7 013e 19c2 1a3e 0e72 3ebe
00000230: cd9e 8cbd 0d28 003d 0ec2 fa3a cf68 9fbd
00000240: 4d8d b43d 1fc8 cbbe 53ba ad3d 2ad8 59bd
00000250: fd93 3c3e 64db 2f3d eedb 873d 8f24 5d3e
00000260: 2666 b53c 83b1 95be 40aa 5d3e b498 06be
00000270: 09d1 bdbd bbd5 acbd 3fa1 77be d9f2 4f3e
00000280: 2702 61be 0c17 d53e 14d4 ddbc fe08 823d
00000290: aac2 063d 316d d93e 9ad4 59be 9c5f 1b3e
000002a0: a28c 51be 727c 6c3d 2380 db3c 082d 8d3d
000002b0: 1642 463e 961c 463e 780a 2ebe 1fe6 8b3c
000002c0: e2af 353d 9cb2 abbd 6abd 683d 4085 fa3d
000002d0: da28 b9bd 6d84 82be 1ad9 6ebb 5ecc 013d
000002e0: 4be0 e53d 13fb de3c 6f58 ff3c 73ce 763e
000002f0: 7138 e6bd e73e dcbd b752 69bd 7a71 f1bd
00000300: aa33 08be 4a6c 023e 8818 f4bd 9837 febd
00000310: fe5e 9139 b07f 2cbe 43bd 873e 9bfd 243e
00000320: 0a39 dabd d779 c4bd 87a8 083c c106 21be
00000330: 31fb 463e 19c9 543e 7cfa 3cbe 9d37 ea3d
00000340: 6eac b13b c29e a13c e391 d0bd 0c5e d2bc
00000350: 10bc 1abd 13f6 573e 9f39 f03d fcde bc3d
00000360: e203 f2bd f9dc 923d 3027 953e 409e 753c
00000370: de56 493d cb40 153d ff8a 45be c05c 36be
00000380: a515 143d 663e 593d 1a3d 2f3e 7176 813e
00000390: 34d1 533e 9bfa be3c ba37 afbd 8cb4 413e
000003a0: 65bc 6cbd a7ce 32be 810a 223e ad97 9dbb
000003b0: b803 f4bd 5fd4 7f3c 9173 c63d a5a2 353d
000003c0: 26fb 6ebd 7052 7a3d c9e1 07be 3749 28be
000003d0: b58b 343c dd9b ba3d 2f80 30be 2ebc b43d
000003e0: fd54 31be 9110 223d c3a1 ed3c 5198 223e
000003f0: 3688 1ebd 2dbd fcbc 5b05 893e 020f a73d
-0.52976847 -0.15825766 0.18859974 0.034563534 0.23907524 0.012682238 0.021312065 0.17839777
-0.24754463 0.11333883 0.040151995 -0.15452327 -0.21105771 0.049123906 -0.14283878 -0.33357522
-0.15851146 -0.20412414 0.37293744 -0.055278655 -0.13836136 -0.25824875 0.078482784 -0.19179946
-0.16420524 -0.28804317 0.16931939 0.07526854 0.29693258 0.23499733 -0.1359824 -0.18661442
0.106777094 -0.25969544 -0.13873874 0.07115351 0.07160361 -0.10708529 -0.2622475 -0.11680859
-0.16149811 -0.08416869 -0.5583199 0.6670689 0.46545348 -0.025953434 0.015382702 0.048681796
-0.40730855 0.29494894 -0.11256056 -0.22269523 -0.14837135 0.3144147 -0.22331299 -0.15887176
-0.21517818 -0.023117162 0.48765737 0.2894815 -0.630932 -0.29497078 0.13320246 0.06327493
0.26516774 0.48748648 -0.15367992 0.1113405 0.16365804 -0.022099707 -0.014886794 0.523508
0.007011356 0.17821908 -0.02306194 0.10720816 0.32005584 0.13467959 -0.00038485287 0.022735417
-0.18555252 0.016049344 -0.15915571 -0.027966859 -0.09698473 0.20088223 0.079859056 0.14188637
-0.12504797 -0.10975917 -0.27725378 -0.018610487 0.0010695847 -0.35164416 -0.005179281 -0.13206132
0.31338775 0.01987999 0.061824434 0.09006083 0.035691418 0.052578624 -0.012803468 0.268403
-0.071301125 -0.12530681 0.3605401 -0.422335 -0.67108005 0.09598602 -0.012909767 0.18230335
-0.06861299 -0.13844343 0.099946074 -0.014488899 0.18221685 0.04740269 -0.07567395 -0.08090451
0.114323854 -0.09517585 -0.4736206 -0.026632361 0.9045041 0.07398774 0.2825903 -0.09918913
-0.09896991 -0.018764125 0.06531296 -0.10482222 -0.09833123 0.0804101 0.06215787 0.24272522
-0.2578197 0.12661469 0.15113105 -0.18598196 -0.06866226 0.031288195 0.0019131319 -0.077836625
0.088160135 -0.39801118 0.08482804 -0.053184666 0.18415828 0.042933837 0.06633745 0.21595977
0.022143435 -0.29236993 0.21646976 -0.13144189 -0.09268386 -0.08439203 -0.24182604 0.20307483
-0.21973477 0.41619146 -0.027078666 0.063493714 0.03290049 0.4246612 -0.21272507 0.15173191
-0.20463803 0.057735868 0.026794499 0.06893355 0.19361147 0.19346842 -0.16996181 0.017077504
0.044357188 -0.083836764 0.056821264 0.12232447 -0.09040995 -0.25491658 -0.003644532 0.03168904
0.11224421 0.02721933 0.031170098 0.24102192 -0.11241234 -0.10754185 -0.05696365 -0.11789222
-0.13300958 0.12736621 -0.119187415 -0.124129474 0.0002772733 -0.16845584 0.26511583 0.16112368
-0.106554106 -0.095935516 0.008340961 -0.15725233 0.1943176 0.20779838 -0.18454927 0.11436389
0.0054221665 0.019729022 -0.10184076 -0.02567961 -0.037777007 0.21089964 0.1172974 0.092222184
-0.11817147 0.071710534 0.2913146 0.014991343 0.04915511 0.036438745 -0.19291304 -0.17808819
0.036153454 0.053038023 0.17113152 0.25285676 0.20685273 0.023312857 -0.08555551 0.1891653
-0.057796855 -0.17461644 0.1582432 -0.004809341 -0.11914772 0.015614598 0.09690011 0.044344563
-0.058344983 0.061113775 -0.13269724 -0.16434179 0.011019637 0.0911176 -0.17236398 0.08824955
-0.17317577 0.03956658 0.029007798 0.15878417 -0.03870412 -0.030851925 0.26761898 0.081571594

lstm.bias_ih_l0 f4 [256]
00000000: 54e5 c0bd e391 06bd fbc7 c03d bd0b b5bd
00000010: 9f73 0ebd 680c 80bd ffd6 6fbd 1e55 24be
00000020: 0d82 18be 388e 8ebe 65a3 a0bd 655a 1dbe
00000030: 307c 003d 054f 0cbe d033 d6bd 8a07 efbd
00000040: 0db5 47be 07e4 0d3e 6d91 233e b1c2 67bd
00000050: b7bb be3c 7ca2 89bd 5969 223e 0e7c 22be
00000060: 9b7b fcbd 4cb1 cabd 9d91 26be f1eb 633d
00000070: 2bc6 0ebe af36 30be 076b 923c 0675 2f3e
00000080: eb6f 00be 6bc5 4fbd a47b 38bd 21cd d4bd
00000090: 0961 c03c aac5 da3e d951 94be 5b4b f4bb
000000a0: 5419 35be 87ba 47be 2335 5cbd 6408 d33d
000000b0: 9036 6d3d 0d87 f83d 5628 ad3d 95cd 8bbe
000000c0: a299 a3bd c844 e3bb 681a 71be 2a21 903c
000000d0: b999 04be ccb7 5ebe feff 9c3c e443 b9bc
000000e0: 976e 7a3d cfd0 593c b519 82be 4728 07be
000000f0: 889e d0bd dec6 ebbd 13d8 a03e 5d36 a9bc
00000100: c09a ec3d f4c4 aa3d 204d 05be 1273 c33d
00000110: f850 b73d 8a4c aaba 82be 533b 87ec 16be
00000120: b44c 38bd a837 e4bd d1bd 82bd 6c99 08be
00000130: 6b83 1fbd 2cd6 2fbd 50b5 4dbc c2b5 b6bd
00000140: 470d 58be 48df 3fbe 3f1a 893c adda 26be
00000150: 7c19 883d fd8d 32bd 8b1c 6cbd 7658 8d3c
00000160: fc99 8a3d 0952 31bd d522 05bd 93ce a93d
00000170: 4e67 92bd a06e 193d fdea d23d 1d86 51be
00000180: f9d5 17bd 7dc3 103e a940 d03d befc 52bd
00000190: bed0 1e3d 3298 84be ab4d 313d 8b76 af3b
000001a0: d864 893c a231 64be 8479 fabd 1e9f 29be
000001b0: c0e3 b73d 4998 80bd 0155 f63d f320 13be
000001c0: 52d1 f23d 3f73 e0bd 09f3 953d c3cc a5bd
000001d0: 26c7 7fbe 1302 64bc 9601 9c3d d5d6 a7bc
000001e0: d0b9 1bbe 74a2 d93d 4c05 ddbc 3b59 943d
000001f0: b261 6ebe 0cf8 1a3d 248b f9bd d1bc 4cbe
00000200: db15 373e 9c7b d73b 2f85 fdbc dbde c53d
00000210: 0c2d 01be 68e7 36be aada 243d 7e79 30bc
00000220: f677 75bd e390 debd 1013 d43d e5ba ecbd
00000230: fde8 81bd 88ac f4ba ebf9 043d 9192 0cbd
00000240: 026a 093d 3d00 8e3d 0d04 27bc 34f6 1c3d
00000250: f117 65bd 7e96 22bd b99b 83bd d086 08be
00000260: 5883 3cbd bd49 0f3d a46a 003d 9cf7 723b
00000270: 00e7 d73c 94e7 a73d 7df8 15be 02d4 453b
00000280: 100a 7e3d f7d0 06be b9bd 1fbd 32ae 4d3c
00000290: 9b72 a1bd 71a6 cdbd 0b43 69bd 2a0d 3e3d
000002a0: e7e4 bcbc ba86 b3bd 883e b9bd 97ae ca3c
000002b0: 98b5 793d 7d79 00bd 35eb 303e e494 73bd
000002c0: 9fa8 c43d 9ce9 44bc 044c 933d df46 013e
000002d0: f0e5 ce3d f464 b3bd da82 223e 2c7e a5bc
000002e0: e1f2 943c d836 cf3d 3108 b83d 48cd 913d
000002f0: 88bc c33d d9e6 2b3e d041 b9bb 3940 30bd
00000300: 7498 cb3d 4d84 6a3e 1449 11be b005 99bd
00000310: a25c 87bb 64d8 083e b74d a5bd 7bf7 93bd
00000320: 763d 1dbe d0c8 6cbe f5d2 26be a8a6 86bd
00000330: d62f 2a3d 9ad3 13be ca1d c9bc 5826 43be
00000340: 64a3 503d 1939 083e 5444 ae3d 195c 71bd
00000350: 3e3d 04bc 04a3 51bd fbe5 693e 0b39 933c
00000360: e602 bfbd 14ea 4c3c f2f0 87bd 24e1 29be
00000370: 9785 d0bd 8219 01be 72de 2a3e f131 873d
00000380: fc10 35be 4868 a63c fcc8 cbbb 5079 e7bd
00000390: f513 1cbe 8f06 943e 5bb4 19bd 8f20 dbbd
000003a0: 848e a4bd f742 83be 147a c13c b338 233e
000003b0: 07ee be3d 69cf 293a 4aa8 2d3d b72a 59be
000003c0: f409 123d 4b84 15bd 204a 333d eda2 21be
000003d0: a808 02be 7dff 10be 481c 61bd ec2f fdbd
000003e0: 7b6f f2bd e4bb 8d3d b231 643c 3b89 ec3b
000003f0: ca11 d03d b166 0dbe 8d93 b93d 31c0 b03c
-0.09418741 -0.032853972 0.09413143 -0.088401295 -0.034778234 -0.06252366 -0.058554646 -0.16048095
-0.1489336 -0.2784288 -0.07843665 -0.15366514 0.031368434 -0.13702019 -0.10459101 -0.1167136
-0.19502659 0.13856517 0.15973444 -0.056582157 0.023282869 -0.067204446 0.158605 -0.15867636
-0.12328263 -0.09897098 -0.16266485 0.055644933 -0.13942783 -0.1720836 0.0178733 0.17134485
-0.12542693 -0.05072538 -0.045039788 -0.10390688 0.02348377 0.4272893 -0.28968695 -0.007455272
-0.17685443 -0.19504748 -0.053761613 0.10304335 0.057913363 0.12135134 0.08454959 -0.27305284
-0.079882875 -0.0069356896 -0.2354523 0.017593939 -0.12949266 -0.217498 0.019165035 -0.02261538
0.061140623 0.013294413 -0.25410238 -0.13198958 -0.101864874 -0.1151254 0.31414852 -0.020655805
0.11552954 0.08338347 -0.13017702 0.09543432 0.089509904 -0.0012992781 0.0032309596 -0.14738666
-0.044995025 -0.11143428 -0.06383861 -0.13339776 -0.03894369 -0.04292886 -0.012555435 -0.08921386
-0.21098815 -0.18737519 0.016736148 -0.16294356 0.06645486 -0.04359244 -0.05764441 0.017254096
0.067676514 -0.043291125 -0.03250392 0.08291354 -0.0714861 0.037459016 0.10298727 -0.20461316
-0.037069295 0.14137073 0.10168583 -0.051510565 0.03877329 -0.25897366 0.04328696 0.0053547076
0.016771719 -0.22284558 -0.122302085 -0.16564605 0.08978987 -0.06279046 0.12027932 -0.14368038
0.11856331 -0.109594814 0.07321746 -0.08095696 -0.24978313 -0.01391651 0.0761749 -0.020488182
-0.152076 0.106266886 -0.026980065 0.07243582 -0.23279455 0.037834212 -0.12184742 -0.19993903
0.17879431 0.0065760147 -0.030947296 0.09661647 -0.1261484 -0.17861712 0.040247597 -0.0107711535
-0.059928857 -0.10867479 0.103551984 -0.11559085 -0.06343267 -0.0018667141 0.032464903 -0.034319464
0.033548363 0.06933639 -0.010193837 0.038320735 -0.055931035 -0.0396943 -0.06426186 -0.13332677
-0.046023697 0.03498243 0.0313517 0.0037073856 0.026355267 0.08198467 -0.14645572 0.003018618
0.062021315 -0.13165651 -0.038999293 0.012553738 -0.078831874 -0.10041512 -0.056948703 0.046399273
-0.023058368 -0.087659314 -0.0904513 0.024741454 0.060964197 -0.03136586 0.17277224 -0.059468165
0.096024744 -0.012018587 0.07192233 0.12624691 0.10102451 -0.0875949 0.15870228 -0.020201765
0.01818222 0.101178825 0.089859374 0.071192324 0.09557444 0.1678728 -0.0056535974 -0.043029997
0.099411875 0.22902031 -0.14188033 -0.07471788 -0.0041309157 0.13363796 -0.080714636 -0.072249375
-0.15355477 -0.23123479 -0.16291411 -0.06574756 0.041549526 -0.14436188 -0.024550337 -0.19057596
0.05093707 0.13303031 0.08509126 -0.05892572 -0.008071242 -0.051180854 0.22841637 0.017971536
-0.09326725 0.01250698 -0.066377535 -0.1658979 -0.1018173 -0.12607387 0.16686419 0.066013224
-0.1768226 0.020313397 -0.0062190276 -0.113024354 -0.15241988 0.28911254 -0.037525516 -0.106995694
-0.08034995 -0.25637028 0.023617782 0.15939598 0.09322744 0.0006477745 0.04239682 -0.212077
0.035654023 -0.036503118 0.043771863 -0.15784808 -0.12698615 -0.14159961 -0.05495861 -0.12362656
-0.118376695 0.06920603 0.013927864 0.0072185076 0.10159643 -0.13808705 0.09061346 0.021576019

lstm.bias_hh_l0 f4 [256]
00000000: 0839 d83c 0e4f 8fbd 4164 aebc b585 463d
00000010: 3ec8 84bd 24f5 c63d 1546 a13d be92 e1bd
00000020: 8461 8fbe 3942 68be b8b0 83bd 412c 16be
00000030: f098 e5bd 8911 49bd 0bfe 12bd f6ce 29bd
00000040: 699f 3e3c 24ee 8b3d 6f60 15bc 6cd2 86bd
00000050: ba49 9cbd ccd8 4bbd 09cf 633e be74 2dbe
00000060: f934 babd ea1e 3ebe 2d71 a1bd 64d7 003d
00000070: d57b 39be dd1f 15be 9591 c93d 1ab6 223e
00000080: 46f0 17be a68d 16bd 17f2 c4bc 0d7d 34bd
00000090: 52b6 10be 62da a73e 2ffc 4bbe 7d50 72be
000000a0: ad2b 07be 1f6c e9bd 240e 3cbe dcab c43d
000000b0: 5dc3 12bc 10dc 64bd 2258 753e 66b2 4dbe
000000c0: 69fe 06be dc73 53bd d301 3dbe 959f 8dbc
000000d0: f8bc dcbd 4cb7 ccbd 9da6 5b3d 5114 2bbe
000000e0: 0974 2ebd 102e f13d 095f 83bd d0a3 95bd
000000f0: 208e 8f3d 58c5 723d 6147 4a3e cb91 903d
00000100: 3e0b e43d 79c2 c1bc eaa9 e33d 244a d63d
00000110: aa91 053e 21af 193e 9998 bb3d f119 18bd
00000120: c3a7 01be 8ad8 05bd bab9 b9bd 026a 1e3d
00000130: d906 143e 9696 6abe d93b 1fbe 6687 38be
00000140: b23f 1d3c 2e12 1ebe dea9 b2bd ec77 55bd
00000150: 3bf3 a6bd 45f7 8b3c 444d b53c 8580 f9bd
00000160: d711 06be 6f31 b2bd 7d76 963d 8967 823d
00000170: 2cda 07be 14ba df3a a5e5 893e e5b4 75be
00000180: 53ec a7bd dcaf 9f3d aa9b 653c 2755 adbd
00000190: b0bc 36be 269b 94be a7b9 0a3d 040a dc3d
000001a0: d11d ffbd 8410 67be 3db4 87be ca92 a3be
000001b0: e12f be3d dfd8 06be 605f 723e 4618 05bd
000001c0: 7a7b 1b3e 1169 1cbe 604e 5f3d e97e bfbd
000001d0: 4b6a 26be 119a 1bbd 8511 e33c af98 30be
000001e0: 5652 3bbe b492 b6bc 6746 ba3d eb2f 273d
000001f0: a413 69be 51c8 babd b9c7 42be e39c 57be
00000200: d018 b7bc 74ed 83bd 2694 69bd e33e e63d
00000210: ad60 02bd 48e8 1b3c 1755 d73d 8b77 2c3b
00000220: 28bc 4ebd 175f 11bd e0bc f4bc f74c aa3d
00000230: 3ca7 773d ef56 b03d b44e dc3d 154f 423d
00000240: 805a 21bd a4fc 793e 525d 193d 9cce 893c
00000250: 0024 953d 821c 073e 984f 173d 12a9 74bd
00000260: 99e9 883d 2edc 0e3e 7837 693e 8012 ab3d
00000270: 3692 c4bc 59f7 fa3d f2b9 5dbd f61a b5bd
00000280: cb5c ba3d 35be 49bc 4ecd db3c fa83 adbd
00000290: 69f2 a8bd 6a85 f6bd f731 783a b827 c73c
000002a0: ac6c 36be cb3f 3b3c c40e 2abd 524b 67bd
000002b0: 57ae 3b3d 12e8 93bc d411 8c3d 2f2c 27bd
000002c0: 2e6d 3bbc 7d84 08bd c499 283d 2d08 453d
000002d0: 26cd 273d fec3 7cbd 4f15 563d 78eb de3c
000002e0: 3ac5 073b 0eb9 a8bc 7eb7 ecbb f280 e8bc
000002f0: 7bea 46bc 97b3 5a3b 9447 44be 5f02 1cbd
00000300: 8196 3c3e 0ce4 7e3d 78a1 8fbc 5862 993c
00000310: 43d9 4bbc 3f7f 733c f34d b8bd db1f 20be
00000320: d667 74be 68c6 66be 8706 88be 136a 6cbe
00000330: 265e 563c 8adf 90bc 5834 61be 880f 46be
00000340: 48a6 7cbd 829f 643e 1dd1 00bd b51b 7dbe
00000350: 8530 4abc ace7 d33c 346d 8e3d 1921 ccbd
00000360: b06d b4bd 605a 0ebe 99b5 3ebe 0ea0 8abb
00000370: 1d7e 52be 5ee7 9dbe a6c4 5c3d 2028 4e3e
00000380: 281e 31bd e947 a33b fd60 a63d d238 afbd
00000390: 1d05 41bc 5ffc 803e 4238 80be cbdc bbba
000003a0: eca6 8cbd e0d7 c4bd 2ac6 4e3e f3b1 b03d
000003b0: 93bf 083e 06f3 933d cad5 8c3d 5ba0 7ebe
000003c0: fc46 883d 6df7 df3d e00a f43a 102f 14be
000003d0: 92f9 2cbe eab2 a3be 1ddc 34be 4d4b b43c
000003e0: 3d03 a2bd 3fb7 e5bd baf2 2c3d a024 03be
000003f0: 2b5b 023e f37f 37be 715e bb3d ec7f 9f3d
0.026394382 -0.069975 -0.02128804 0.048467357 -0.06483506 0.097147256 0.07874695 -0.11014317
-0.28004086 -0.22681512 -0.06430191 -0.14665319 -0.11210811 -0.04908899 -0.035886806 -0.04145714
0.011634686 0.06832531 -0.00911723 -0.065831035 -0.0763125 -0.0497673 0.22246946 -0.16939065
-0.09092135 -0.1856648 -0.07882915 0.031455413 -0.18113644 -0.14562936 0.09842221 0.15889779
-0.14837751 -0.03675618 -0.024041219 -0.04406457 -0.1413205 0.327838 -0.19920419 -0.23663516
-0.13200255 -0.113975756 -0.18364769 0.09603092 -0.008957711 -0.05587393 0.23959401 -0.20087585
-0.13182987 -0.051624164 -0.18457727 -0.017288009 -0.107782304 -0.099958986 0.05362569 -0.16706969
-0.04259113 0.11776364 -0.06414611 -0.073066354 0.0700953 0.059270233 0.19753791 0.07059058
0.11134957 -0.023652302 0.11116393 0.1046336 0.13043848 0.15008213 0.09159965 -0.037134115
-0.12661652 -0.03267721 -0.09068628 0.038675316 0.14455737 -0.22909006 -0.15550174 -0.180204
0.009597706 -0.15436623 -0.08723806 -0.05211632 -0.08151861 0.01708568 0.02213157 -0.12182716
-0.13092743 -0.08700835 0.073468186 0.06367404 -0.1326682 0.0017069005 0.26933017 -0.23994787
-0.08199372 0.077972144 0.014014164 -0.08463507 -0.17845416 -0.2902462 0.033868458 0.10744098
-0.12456859 -0.22564894 -0.26504698 -0.3194793 0.09286476 -0.13168667 0.23669195 -0.032493852
0.15183821 -0.15274455 0.054518104 -0.09350378 -0.16251485 -0.037988726 0.027718315 -0.17245744
-0.18293127 -0.02228675 0.090954594 0.040817183 -0.22761399 -0.091202386 -0.190215 -0.21055941
-0.022350699 -0.06441775 -0.05702605 0.112424634 -0.03183048 0.009515829 0.105142765 0.002631637
-0.05047241 -0.035491075 -0.029875219 0.08315461 0.06046222 0.08610331 0.10757199 0.0474387
-0.03939295 0.24412781 0.037442513 0.016822152 0.07282257 0.13194469 0.03694114 -0.05973155
0.0668518 0.1395118 0.22775066 0.08353138 -0.0239955 0.12254209 -0.05413241 -0.08843033
0.0909973 -0.012313415 0.026831295 -0.08472438 -0.08249361 -0.120371655 0.00094678946 0.024310932
-0.17814893 0.011428784 -0.041517988 -0.056468315 0.04582056 -0.018054996 0.06839338 -0.04081362
-0.011439605 -0.033329476 0.041162267 0.0481035 0.04096713 -0.06171035 0.052266415 0.02721189
0.0020716921 -0.020596053 -0.0072240224 -0.028381798 -0.012140865 0.0033371204 -0.1916793 -0.0380882
0.18416788 0.0622292 -0.017533049 0.018723652 -0.012441936 0.014861881 -0.08999243 -0.15637152
-0.23867735 -0.22536623 -0.2656748 -0.23087339 0.01308397 -0.017684717 -0.21992624 -0.19341862
-0.061682016 0.22326472 -0.031449426 -0.247176 -0.0123406695 0.025867306 0.069544226 -0.099672504
-0.08809984 -0.13901663 -0.18623962 -0.004230506 -0.20555921 -0.30840582 0.053898476 0.20132494
-0.04324165 0.0049829376 0.08123968 -0.085557595 -0.011781004 0.25192544 -0.2504292 -0.0014332769
-0.06867775 -0.096114874 0.20192781 0.08627691 0.1335433 0.072240874 0.068767145 -0.24865858
0.06654164 0.109358646 0.0018618964 -0.14471078 -0.16892079 -0.31972438 -0.17662092 0.022008562
-0.07910774 -0.11216592 0.04222367 -0.1280694 0.1273009 -0.17919903 0.09148873 0.07788071

lstm.weight_ih_l1 f4 [256, 64]
00000000: bc52 16be ab3e 5c3e d50f 9b3e 521d 19be
00000010: 6172 503d 9e7a 9a3e b4a0 0b3e fe14 cfbd
00000020: 31ad dd3b ac29 93bd acf7 13bd 1ff7 d33b
00000030: 423c 5a3e 9aac a7be 6f95 c13d 9456 fbbd
00000040: 7fc0 d53d 372e 17be 66b8 79bc 1b2d f3bc
00000050: 833a 033d 5825 95bd afe9 82bd a43b e03d
00000060: 33ca 283d 6080 883c f212 acbe 94a2 83be
00000070: dd29 7cbd a7aa 3cbd afa6 51be 83ce 62bd
00000080: 57b0 e53c a29d 043e c667 883e 5c97 c5bd
00000090: 434a b2bd b6f4 3a3d f607 403e 9dc8 353e
000000a0: 0c94 333e ba2d a13e 52d1 ecbc 5caa 9bbc
000000b0: 4aa9 093e d724 e6bd d84d aebe ed67 013d
000000c0: 0263 1dbe bb75 103c abab b2bd f95d 99bd
000000d0: e373 013e 51b3 713d f0d4 ac3c 74b8 843e
000000e0: 5f8a c63d a438 9bbe c83b c7bc c76b e2bd
000000f0: 1c9f 193e 9aec b93c b267 813e 3edf 6cbe
00000100: 5aa5 80be a9b5 fc3e 68b8 db3e fdf2 4f3d
00000110: 163a 99bd bb42 023e ece6 223e 7bfa 013e
00000120: 185e 1ebc b64b 07be 3968 f63d f7a9 8abd
00000130: a34d d43d 5de6 00be b7a2 a6bd a417 88be
00000140: c7ff 0cbe 786e c5bd 11d6 5c3e be05 a5bd
00000150: bf46 3b3b 0f17 e0be 2cbd c2bc 5fca 82be
00000160: 8086 91bd b948 20be 9a43 a0be 5e4f 63bd
00000170: 8ab3 81be b9de 1b3e 2da1 8abb 9de0 1cbe
00000180: 9093 2dbd fee2 2f3d f0f8 153e 4b46 193e
00000190: ef67 66bd 2505 5bbe d599 c0bd dafb 853d
000001a0: 87c8 24be e0a7 aa3e 879e 38be e98b 603c
000001b0: 9f23 1b3e 0601 fc3d 0857 71bd e18a 05bc
000001c0: d65d 03bd 7015 4e3c 9ae0 d63e d2ca fd3d
000001d0: d1a3 b33d dbcf b0bb c9b2 073d 1177 6ebd
000001e0: f1f9 ddbd 0ee8 2bbe e12d 473e ac71 df3d
000001f0: e8cf 153e 676c c63c b8fe 92be 59bd 76be
00000200: 1b0e 86be 51a0 2c3e b0c8 1d3d 70bb 85be
00000210: 7d25 36be 69d0 613d 9052 9fbd 55eb 093d
00000220: 203c c5bc 7195 e23d 40e7 8f3d 390d 7d3e
00000230: 46eb 123e 6e3a a9bd 4c08 9f3d 80e2 69be
00000240: ca25 023f a83f 563e f67b f53c 1bbf 6cbd
00000250: c3fd 1e3e 546c 5c3d 1de5 87be 01e3 b73e
00000260: a17a b43e 01a6 263b 4611 a7be be10 54bd
00000270: 469a 49be b142 f1be b103 79bd 9791 68bd
00000280: 154c 8bbd 885d a2be 411d 463d b448 a4be
00000290: 5a53 14be 1037 c63c ee65 9f3d f383 54bd
000002a0: ae4c f73d c15b b33e fccc 093c e0f7 263e
000002b0: f49d 8c3d 643e 7ebe 2d10 63be 4ba0 d53d
000002c0: cc3e 85be 3fd1 863d a1e9 40be 7a3a 5abd
000002d0: 85b2 803e bd88 aa3d 2177 873d a584 aa3d
000002e0: a4ea eabd 9749 433d 723c 34be d191 aebe
000002f0: a0ba 6b3e bfd4 f83d 62e6 99bd b829 cf3c
00000300: 640d 79be c355 153e 4970 aa3e 4d03 bf3c
00000310: df7b 5cbd b717 a73d a429 01be f6e9 f9bd
00000320: 25de 843e 95f4 1f3e 5641 a93d c1f0 6cbd
00000330: 6511 c43d 5746 d93d de76 96bc 4486 12be
00000340: 3242 fa3d 3ab9 4d3d ddd2 0f3e 61b4 ec3d
00000350: 6b81 4dbd f0f5 98be dd1b 8bbe 7b64 f9bd
00000360: 89cb 9c3e dbd4 5e3d fd63 94bd 0b62 ea3c
00000370: 2c83 6cbe 4fff 87bd c2bf 4f3d 8178 adbd
00000380: 8b16 dabb a274 2b3e d470 383c 88b5 6c3d
00000390: 1c01 16be 3cae 4dbe f1ee 5abd 44f7 76bd
000003a0: 1837 07be d62d 693e f6c8 64be 6a19 7e3e
000003b0: 2dca 2f3e c4bd 19bd fde1 cebd fe81 e13d
000003c0: 9448 a4bd a896 ffbd ef54 aa3e df92 bd3d
000003d0: 073b 243e 2359 b5bd a509 9d3d d117 a2bd
000003e0: 68e7 47bd d20f 6ebd 2cd2 96bd 1ea5 63be
000003f0: bf92 173e 4bd9 47bc 3bfe 023c 5847 55be
-0.14679998 0.21508281 0.30285516 -0.14952591 0.05089033 0.30171674 0.13635522 -0.10111426
0.006765031 -0.07185683 -0.03612487 0.006468668 0.21312049 -0.32748872 0.0945233 -0.12272373
0.10437106 -0.14763723 -0.015241718 -0.029684594 0.032038223 -0.072825134 -0.06392228 0.109488755
0.041208457 0.016662776 -0.33608204 -0.25709975 -0.06156336 -0.046061184 -0.20473741 -0.055372726
0.028038187 0.12950757 0.26641673 -0.0964801 -0.087055705 0.04564353 0.18753037 0.17752309
0.17536944 0.314802 -0.028908405 -0.019002132 0.13443485 -0.112374954 -0.34043765 0.031593252
-0.153698 0.008817132 -0.08724149 -0.07488627 0.12641864 0.0590089 0.02109763 0.25921977
0.09694361 -0.3031665 -0.024320498 -0.11055713 0.15002102 0.022695828 0.25274426 -0.23132035
-0.25126153 0.49357346 0.42914128 0.05076884 -0.07481782 0.12720768 0.15908402 0.12693207
-0.009665988 -0.13212475 0.12031598 -0.067706995 0.103663705 -0.12587877 -0.08136504 -0.26580536
-0.13769446 -0.09640211 0.21566035 -0.08057736 0.0028576104 -0.43767592 -0.023771845 -0.25545022
-0.07105732 -0.15652741 -0.31301576 -0.055495612 -0.2533229 0.1522168 -0.0042306394 -0.15320058
-0.042377055 0.042941086 0.14645743 0.14968221 -0.056251463 -0.21388681 -0.09404341 0.065421775
-0.1609212 0.33331203 -0.18029223 0.013705232 0.15150307 0.12304883 -0.05892089 -0.008150787
-0.03207191 0.012578353 0.41968232 0.123922005 0.0877148 -0.005395872 0.033129487 -0.05821902
-0.10838688 -0.1678774 0.19451095 0.10910353 0.14630091 0.024221612 -0.2870996 -0.24095668
-0.26182637 0.16858031 0.03852147 -0.26119566 -0.17787738 0.055130396 -0.077794194 0.033671696
-0.024076521 0.1106366 0.07026529 0.24712075 0.14347562 -0.08263098 0.077652544 -0.22840309
0.5083891 0.2092272 0.029966336 -0.05779944 0.1552649 0.053814247 -0.26541987 0.35915378
0.35249808 0.0025428536 -0.32630366 -0.05177378 -0.19687757 -0.47121194 -0.060794536 -0.05677947
-0.06801621 -0.31711984 0.048367742 -0.32086718 -0.14484921 0.024196178 0.077831134 -0.05188365
0.12075172 0.3503094 0.0084106885 0.16305494 0.06866065 -0.24828488 -0.2217414 0.10430964
-0.26024473 0.06582879 -0.18839122 -0.053278424 0.251362 0.08326862 0.06614519 0.08326081
-0.114705354 0.047677603 -0.17601183 -0.34095624 0.2302041 0.12149953 -0.07514645 0.025288448
-0.24321514 0.14583497 0.33288792 0.023317004 -0.05382907 0.0815882 -0.12613541 -0.12202828
0.25950733 0.15620644 0.08264415 -0.05784679 0.0957363 0.106091194 -0.018367227 -0.14309031
0.12219657 0.050225474 0.14045282 0.11557842 -0.05017225 -0.29875135 -0.27169695 -0.12177368
0.30624035 0.054402214 -0.07245634 0.028611204 -0.23096913 -0.06640493 0.050719984 -0.0847025
-0.0066555194 0.1674371 0.011257369 0.05779031 -0.1464886 -0.20085996 -0.05345053 -0.060294405
-0.1320461 0.22771391 -0.22342286 0.24814382 0.17166968 -0.03753449 -0.101016976 0.11011122
-0.08021656 -0.12479907 0.33267924 0.09256529 0.16038142 -0.08854892 0.07667855 -0.07914699
-0.04880467 -0.058120556 -0.07364306 -0.22230956 0.14802073 -0.012197803 0.007995184 -0.20827997

lstm.weight_hh_l1 f4 [256, 64]
00000000: bda0 82bc ef30 313e 46b7 a73d c1d6 d3bc
00000010: c8a3 cbbd 93a6 bcbd fe2f 96bd 8d28 813d
00000020: a857 18be 2fdc 083d fe89 103b a8ce 85bd
00000030: 0c3a f5bd c445 a4bc 072a 8dbd a375 46bd
00000040: 8b3c 213e 65d5 b7bd 137d ce3e a091 de3d
00000050: ff01 6a3d da2a 2ebd e0d4 21be 350d dabc
00000060: c544 1c3d e708 8e3e 450e 63be a94f 96bd
00000070: bd17 8c3c 8766 84bb 55ea 71bd 2cdc debc
00000080: 7a30 553d 8bbc b4bd 766e 18be 16e3 8ebd
00000090: 1617 663d 8f14 cd3d 9e0f 2c3d 7f74 5abd
000000a0: 7532 01be a9a2 d1bd 6961 bbbd ec7a 953c
000000b0: 304b c2bb 7315 89bc 49d8 5b3d d703 a33d
000000c0: 31c4 bcbd 6b64 0dbe 9ba6 883d 804c 803d
000000d0: 4a3f 09bd f4bd 04bd 5615 57be f2f5 e73c
000000e0: 6bf8 09bd 28b0 6b3d bebd 8fbd b9dd 383d
000000f0: 88ae 113d 50b6 fabc 803c 1b3e 5095 0abe
00000100: bc20 263d 58c0 9e3e 0ec7 08be f29a 2c3d
00000110: d977 0fbe fe89 76bd 2bb2 133d 2152 2fbd
00000120: c6cb c93d b170 eebd b28a ae3d 3808 b1be
00000130: a2c3 543b 472d 873e 67b8 f83c d412 093d
00000140: c294 033e 7265 8dbc fedc 083f 5d50 dfbd
00000150: 4844 2a3e 38bf 2fbe 6b45 0abb 5883 c6be
00000160: 1f84 f5bd f35e 093f db99 53be 5a68 2fbd
00000170: 7a37 d93d 63dd 1a3d 9742 173e 257e 223e
00000180: 2bae eebe 1dcc bf3d f31c 25be 88c1 193e
00000190: 98bb bc3c e0c8 c93b d938 1dbe 2686 82bc
000001a0: ec24 93be c3f3 5cbd 5ef9 f8bb eb7c 4b3e
000001b0: 2a95 b03d 998f 06be b2ad a6be 25e1 713c
000001c0: 6ef9 f5bc 0797 913d d301 463e c960 173e
000001d0: f452 b63d 5ef1 a93e a5f2 673c d699 783e
000001e0: c9d9 843c 03e5 a0bc d882 fb3d 4180 fa3c
000001f0: 6438 9d3e 02cd 063e 874f 0abd 881e b53d
00000200: 5dcc 6f3d 841b 47be bd90 2dbe d855 23be
00000210: 30b5 ffbd ef77 8cbc ddcd 89be f415 e83c
00000220: e098 3cbe c88b 86be af97 eebc ee67 e33e
00000230: 6fb8 153e d6cd 70bc 1a12 5cbe cf7c c43d
00000240: 99dc 14be 8f78 05be 7f1b 84bd c768 71bc
00000250: 5578 e4bd 126b 3abe bc8f 0e3e 5eab 77bc
00000260: 804f 3c3e 0e56 a13d 5af8 8b3e 648d babb
00000270: 2e5f 483e c525 57be fa4c 12be 2d47 ac3d
00000280: 3cdc 143e e596 343e 5775 86bc 6dbe 57bd
00000290: 6bc9 093e 8fcd 7abe f2fb 88be 7eaa eb3c
000002a0: cbb0 653e fd43 443e 0bef 76bd 7292 a9be
000002b0: 7c2f 1f3d 732a bfbd bdda 2a3e de50 e63c
000002c0: 9ff6 e23d 566c 3a3d 7181 c5bd a278 6e3d
000002d0: 4cda efbd 7885 05bd 8fa0 69bd c5d2 bdbc
000002e0: 10ee 0c3e 53c7 da3d 89be 4bbe 2220 5bbe
000002f0: 10ff 64be a34a 6cbe d6cb 803e a1a6 923d
00000300: 6deb 843d cea7 abbd b90c 09be 94cb 823e
00000310: cdc6 933d 4b96 babd 5986 fa3d da0e c03c
00000320: ce7d 07bd 6ed8 0cbe ec32 483b 44cb 103e
00000330: 1130 e0bd 30a3 5e3d 5efc d9bd 57c1 f8bd
00000340: fee3 b93d 9419 3b3d 5403 ad3e 4ec4 893d
00000350: ae2c d3bd 0cb3 103b ccee 0ebd 291f 83bc
00000360: 683f 87bd c55b c43d e6b3 12bd 868d d5bd
00000370: d477 a9bd 77ab d63c 4b45 15be ac40 91bd
00000380: 2597 7a3c 34f0 c1bd b89b 23bc fe74 723d
00000390: 15a1 3fbd a473 203e 6d38 853d 8654 083e
000003a0: e641 b03b 5602 cfbc b535 373d bf1e 5fbe
000003b0: b196 da3d ce35 87bd a009 843d eb69 ffbd
000003c0: ee4e 70bd f73c 0cbe 9498 b13d 747d e8bb
000003d0: 3b46 8dbd 7b86 213e b91e 6f3e 1d4f adbd
000003e0: 09ed 01bd 87ba 98bc ab64 113e c71f dc3b
000003f0: 4590 333e ad63 293e cd12 863d d72e b73d
-0.015945787 0.17303823 0.081892535 -0.025859239 -0.09943348 -0.09211459 -0.073333725 0.063065626
-0.14877188 0.03341311 0.0022054906 -0.06533557 -0.11973962 -0.020052798 -0.06892782 -0.04845203
0.15745752 -0.08976249 0.403298 0.108676195 0.05713081 -0.042521335 -0.15803862 -0.026617626
0.03815152 0.27741167 -0.22173412 -0.07339413 0.017101163 -0.0040405425 -0.059061367 -0.027204596
0.052048184 -0.08825024 -0.14885888 -0.06976907 0.05617436 0.10013687 0.04200708 -0.053333756
-0.12616904 -0.10236103 -0.09149439 0.01824709 -0.005929373 -0.01673386 0.053673062 0.07959717
-0.09217108 -0.13807838 0.066724025 0.06264591 -0.033507623 -0.032407716 -0.21004233 0.028315518
-0.033684175 0.057541043 -0.07018612 0.045133326 0.035566837 -0.030604511 0.15159798 -0.1353352
0.04055856 0.31006122 -0.13357183 0.042139955 -0.14010562 -0.060190193 0.036058586 -0.042802934
0.0985332 -0.11642588 0.08522548 -0.34576583 0.003246524 0.2640173 0.030361367 0.03346522
0.12849715 -0.017260287 0.5346221 -0.10904 0.1662761 -0.17162788 -0.0021098505 -0.38772082
-0.11988091 0.53660506 -0.2066416 -0.042824127 0.106062844 0.037808787 0.14771496 0.15868433
-0.46617255 0.093651034 -0.16124325 0.15015233 0.02303867 0.0061579794 -0.15353717 -0.015933108
-0.28739107 -0.053943407 -0.0075980863 0.19871871 0.08622201 -0.13140716 -0.32554394 0.014763151
-0.030026164 0.07108884 0.19336633 0.14783014 0.08902541 0.3319196 0.014156972 0.24277434
0.01621713 -0.019640451 0.12280816 0.030578734 0.30707085 0.13164142 -0.03376725 0.08843714
0.058544505 -0.1944409 -0.16949745 -0.15950716 -0.12485731 -0.017147033 -0.26914874 0.02833078
-0.18417692 -0.2627852 -0.029125063 0.4441523 0.14621137 -0.014697513 -0.2149128 0.09594118
-0.14537276 -0.1303427 -0.06450557 -0.0147344535 -0.11155764 -0.18204907 0.13922018 -0.015116541
0.18389702 0.07877742 0.27337915 -0.0056931246 0.19567558 -0.21010502 -0.14287177 0.08412013
0.14537138 0.17635687 -0.016413374 -0.05267184 0.13455741 -0.24492477 -0.2675472 0.02876782
0.22430722 0.1916656 -0.060286563 -0.3311954 0.038863644 -0.093342684 0.16685005 0.028114732
0.110821955 0.045513473 -0.096438296 0.058220513 -0.11711559 -0.03259799 -0.057037886 -0.023171792
0.13762689 0.10682549 -0.19896902 -0.21398976 -0.22362924 -0.23075347 0.25155514 0.07160688
0.064902164 -0.083816156 -0.1338376 0.25545943 0.072156526 -0.09110697 0.12232656 0.023444582
-0.03307896 -0.13754436 0.003054793 0.1414004 -0.10946668 0.054354846 -0.10643838 -0.12146252
0.09076689 0.04567869 0.33791602 0.06726895 -0.10311256 0.0022079377 -0.034895703 -0.01600607
-0.06603891 0.09587816 -0.035816096 -0.10427384 -0.082748085 0.026204808 -0.14577214 -0.07092413
0.015294825 -0.09469643 -0.009985857 0.059193604 -0.04678448 0.15669113 0.06504903 0.13313493
0.0053789495 -0.025269669 0.044728953 -0.21789072 0.10673273 -0.06602059 0.06447148 -0.12471374
-0.058669023 -0.13695131 0.0867168 -0.0070950333 -0.06898161 0.15773956 0.23351564 -0.08462355
-0.031720195 -0.01864363 0.14198558 0.0067176553 0.17535503 0.1654193 0.06546555 0.08944481

lstm.bias_ih_l1 f4 [256]
00000000: a2fc 01be 098d 143e 3a6e 633d 6914 ef3d
00000010: d62b 3fba 610b 34be 7aac 883d d45e 1fbe
00000020: df11 abbd 3c23 e63c 82a8 adbc 9060 8dbd
00000030: ccec 85bd 45b7 03bd c9b6 d4bd be19 29be
00000040: c112 ca3c f214 4ebd 086b 0c3f 4322 a1bc
00000050: b1d2 e13d 5f36 f4bd 880b d0bd ea45 833d
00000060: 3c30 97bd 518c b73e 3841 ad3e afc7 05bd
00000070: 9b1e 5abe c558 54be 7104 c13d 9984 233d
00000080: a08b 423c bd58 92bd f6f7 0b3d 4f0c 2f3d
00000090: 5896 6ebd e4b3 31bd 9fa9 26be 118c 063d
000000a0: 6d7e 533e 6cec 21bc 4da6 a8bd 4835 62be
000000b0: d928 34be c43c 103d 02ef 89bd 60be c03c
000000c0: 689a a5bc 5fd4 d1bd 1074 64bd ef88 ad3d
000000d0: 3c50 113e 271a 8a3d 9e8f 3dbe aed0 e7bc
000000e0: 9e1c 8dbd 10ea a1bd 1c7c ffbd 0d6e 17be
000000f0: b5a1 62bd 3450 37bd 56d2 053a 6dcd f03d
00000100: 741b 9f3d bd12 58be 827d 78bd c906 32be
00000110: 72a5 aabd ade7 7fbc d7ab c8bd 3b94 d03d
00000120: f281 f7bd 4fcb 63be 3008 453c a87a 4abe
00000130: 6824 1c3d 1229 12be 72f8 ecbd 327a 57bd
00000140: 8628 59bd b66c bdbd 8be1 3abf 27ec 3f3e
00000150: 6695 7fbd daa7 a43d f5b5 1ebe 9105 4a3c
00000160: 938b 24be 59ae 26bf 36da 5fbe 9cea 093c
00000170: 7425 8abb 2e4c 46be cd22 27bd f1ba b3bd
00000180: 4ebb a7bd e5bd 983b 7116 19be eaf6 5d3b
00000190: d271 eebd 9e7d 34be 94c0 82be 7cc7 e83b
000001a0: e23e 31be aed6 f2bd 07b8 7bbd 55fe 6abd
000001b0: d272 b8bc b6fd 733b 4a0b 38bc 1d72 d4bd
000001c0: 3bab db3c 40b0 44bd 208d 543d 87d1 c9bb
000001d0: 6f02 163e 3ff6 a3bd 7a34 1abe 60c6 53be
000001e0: 09da a73d 0dcb cabd e630 56bd 2354 893c
000001f0: 02c1 07be a9e4 c7bd 3dc5 9abd e9d1 a53d
00000200: b823 683d e74a 98bd 2cea 603d 7c61 9ebd
00000210: 52ec 24be 8427 05be 1aa0 b63c d984 1bbd
00000220: 8885 773c 02e8 81bd 06d9 24be f142 443d
00000230: 3e59 3f3d 5dbf 1c3d ebc0 703c 637d b23d
00000240: 3cf6 5ebd cb21 f63c d5a0 2c3d 4fa5 a73c
00000250: 4e8c 483e 1c50 77bb e6de 5f3d 9441 34be
00000260: 861c 36bd 4b9b 2e3c 7c87 853d c06c 14be
00000270: 781b 513d 2df7 13bc 0dfb 06bd d337 a93d
00000280: b269 b03c bcf8 c83d bf09 ce3d 6391 16be
00000290: d70a 173d dd52 d8bc ea1a ebbd 7852 14ba
000002a0: 6acf 063d f2ad 90bb 9b0c e73d 0b71 da3d
000002b0: 9827 ed3d aa79 70bd 2ecc a6bd 05b9 8f3b
000002c0: b68d ab3d 66a9 3b3d e497 713b 28dd b03d
000002d0: e9b9 4f3e 9787 813d 06b4 c5bd 4aae 65bd
000002e0: 2e8c 153d 7d32 613d 6bc4 573d c50b 47bd
000002f0: be22 a4bd b2bf b7bd f65e d1bd 8426 433e
00000300: f817 04bc 059d 3a3e 30c0 063c bc66 833d
00000310: c99b 9a3d 521a 43bd a57f 24be 5e78 ca3d
00000320: ed9e 4b3d 6361 1abe eede 1dbe 1cbe a23d
00000330: 849d 33bd 8f97 07be 7c36 93bd 64df b13c
00000340: 286d 39be 8914 653d aa32 fd3e ad01 6c3d
00000350: 3803 b03c 1b03 b1bd dd87 3cbe bfa4 e93c
00000360: 4569 21be da0c 063f 0cac e43e b2e7 f5bd
00000370: 6a1f 20be 788c 183c 7b2e 14bd a2c3 893c
00000380: f318 a53b 498a 4dbe 827b 273e 1c96 d8bc
00000390: b06a d9bd 1dee 893c 4774 89be 08d1 0dbd
000003a0: b530 5e3e 219e 99bc 402e f0bd f351 03be
000003b0: 98d7 6cbd 014c c33c 75f9 143d 3c84 80be
000003c0: 75b5 35bc 6177 153c 196a 94be 1b15 91bd
000003d0: 6d2f 3ebd a268 cb3b 2a87 12be 39df 01be
000003e0: 07b4 15bc 3998 1ebb 8875 f3bd 8b68 a93c
000003f0: 5174 733d 0164 cc3c 3e78 b5bd e711 42be
-0.12694028 0.14506926 0.055525042 0.11673815 -0.0007292604 -0.17582466 0.06673522 -0.15563518
-0.08353018 0.028092973 -0.021198515 -0.069031835 -0.06539306 -0.0321572 -0.10386426 -0.16513726
0.024667146 -0.050312944 0.54850817 -0.019669658 0.11026514 -0.11924433 -0.101584494 0.064098194
-0.07382247 0.3584924 0.3383882 -0.032661136 -0.21300738 -0.20736988 0.09424675 0.039921377
0.0118741095 -0.07145832 0.03417202 0.042736348 -0.058248848 -0.043384448 -0.16275643 0.03284842
0.20653696 -0.0098830275 -0.08234844 -0.22090638 -0.17593707 0.0352142 -0.0673504 0.023528278
-0.020215228 -0.10245585 -0.05577475 0.08473384 0.14190763 0.067432694 -0.18511817 -0.028297748
-0.06890224 -0.07905972 -0.12474844 -0.14788075 -0.055329997 -0.044754222 0.000510489 0.11757932
0.07768908 -0.21100898 -0.06066657 -0.17385401 -0.083323374 -0.015619201 -0.09798401 0.10184523
-0.12085332 -0.22245525 0.012025878 -0.19773352 0.038120657 -0.1427348 -0.11570825 -0.05260677
-0.05301716 -0.092492506 -0.730004 0.18742429 -0.062398337 0.08039828 -0.15499099 0.012330429
-0.16068868 -0.65109783 -0.21860585 0.008417752 -0.0042158905 -0.19364998 -0.040804673 -0.087758906
-0.081900224 0.004661309 -0.14949967 0.0033869096 -0.11642803 -0.17626044 -0.2553755 0.0071038585
-0.17309144 -0.11857353 -0.0614548 -0.057371456 -0.022515688 0.003723008 -0.01123316 -0.10373328
0.026815047 -0.048019648 0.0518924 -0.006159011 0.14649366 -0.08005952 -0.1505908 -0.20681143
0.08195884 -0.0990201 -0.052292727 0.016763752 -0.1325722 -0.0976041 -0.075571515 0.08096678
0.05667469 -0.074361615 0.054910824 -0.077334374 -0.16105774 -0.13003355 0.02229314 -0.03796849
0.01510752 -0.0634308 -0.16098413 0.047915403 0.046715967 0.038268436 0.014694433 0.08715322
-0.054434046 0.03004541 0.04214557 0.020464567 0.19584772 -0.0037736958 0.054655932 -0.17603141
-0.044460796 0.010657142 0.06519982 -0.1449461 0.051051587 -0.009031099 -0.032954264 0.08262601
0.021534774 0.09813067 0.10060453 -0.14703898 0.036875572 -0.0264067 -0.11479743 -0.0005658041
0.03291265 -0.004415267 0.11281701 0.106660925 0.115798175 -0.058709778 -0.08144413 0.0043860697
0.083766386 0.045815848 0.0036864216 0.08635932 0.20285763 0.0632469 -0.09653477 -0.056074418
0.03651064 0.05497979 0.052677553 -0.04859521 -0.08014439 -0.0897211 -0.102231905 0.19057661
-0.008062355 0.1822396 0.008224532 0.064160794 0.07549245 -0.047632523 -0.16064318 0.098862395
0.04971211 -0.15076213 -0.15417072 0.07946417 -0.04385139 -0.13241409 -0.071881264 0.021712966
-0.18108046 0.055927787 0.49452716 0.057618786 0.02148591 -0.086431704 -0.18411203 0.02852094
-0.15762813 0.5236336 0.4466251 -0.12007083 -0.15636984 0.009310834 -0.03617714 0.016816918
0.0050383746 -0.20072283 0.16355708 -0.026438765 -0.10616052 0.016837174 -0.26846525 -0.034623176
0.21698268 -0.01875216 -0.117275715 -0.1282423 -0.057822794 0.023839952 0.036370713 -0.25100887
-0.011090626 0.0091227 -0.28987196 -0.07084104 -0.046431947 0.0062075416 -0.14309373 -0.12682809
-0.00913716 -0.0024199618 -0.11887652 0.020679733 0.0594371 0.02495003 -0.08860825 -0.18952142

lstm.bias_hh_l1 f4 [256]
00000000: 41b8 acbd 5fa8 0c3e bf83 b63c ad6a d6bc
00000010: 4d42 8539 08dd 44be 0bcd e3bd fcfc 4a3d
00000020: f199 2ebe 0722 483d 3767 f2bd 9e52 083e
00000030: e372 e4bd 9c73 4b3d 4e6e 173d b06c 11bd
00000040: 5c44 59bc b434 d23d 086b 093f 1663 2ebd
00000050: b7ca aebd 17fd 613d 76eb c6bd fcd3 053d
00000060: 79bf 64be 8b0a d43e 7c16 8e3e f257 e43c
00000070: b522 17bd b3a8 4bbe 49ef bc3d c9c3 003a
00000080: 1631 953d d1ad 3abe 7bc5 643a f051 c2bc
00000090: 328d bb3d f0da d9bd c1ec 2dbe 9f0d cabd
000000a0: be45 8a3e 6568 0fbe ddd4 23be 08e7 47be
000000b0: 3551 2ebe eb2b cf3c 33e8 f8bd 0f99 cdbd
000000c0: 6059 3fbe a42b fbbd d34d 04be 7354 983d
000000d0: 8239 973d 9ace 0f3e d0e0 22be a4e6 febd
000000e0: 7295 3bbd 1616 433d 1be7 1cbe 8927 90bd
000000f0: 4187 e93d 26c6 0a3d c33f 2bbe 63b1 983c
00000100: b8dc 0d3e 2d77 8ebe eb2a f4bd 7116 0bbe
00000110: 77d2 513d 8875 193c 7ccf 123d 5197 833e
00000120: 4203 893d d70a 33be 7d0c 15bd 2af5 43be
00000130: fd34 953c 4ac2 c03b ff73 41be 7cdd c5bd
00000140: 9a24 49be a09a fbbc 4ba3 2abf 4554 363e
00000150: 0e78 9abd 3958 8e3c f377 1cbe 04f7 353e
00000160: abbe 0bbe 79bb 36bf c6ca 9abe 07ba a3bb
00000170: 2b43 2ebc 0786 55bd cc5d f9bd a555 a0bd
00000180: 7b25 06be b4e1 d0bd ccb0 70bd 075b cabc
00000190: e37a 2cbe d114 0dbe ed05 07be a93f 113e
000001a0: d4f9 52be 2ed2 ccbd 9752 12be 5162 5cbe
000001b0: f5a8 8f3b bebe d4bd bfe1 29be ab68 f1bd
000001c0: bfb0 e1bd 65e3 abbd 709e 3b3d 3392 1bbe
000001d0: 9bf8 ef3d 510b 65bc 0e3e 35be 35fb 83bd
000001e0: bc8e 89bd f189 95be 5c58 1a3d 0685 433c
000001f0: 8d0a 1ebe 65c5 a4bc db43 87bd c7c4 173e
00000200: 9159 cbbd a73f 82bd ac78 3a3d 9c12 04bd
00000210: 8c69 79bc bd87 293d 8c0f 993d 14d5 833c
00000220: eac9 debb ca02 cebd e9e7 74bd 6b29 c3bd
00000230: fe99 463d 7ea6 8abd caa3 8cbd 0a71 37bd
00000240: 35b9 ffbd 16ca 0b3e 37b6 10be 6941 f0bd
00000250: 301c fb3d de76 f03b bf65 4d3d 729f 09be
00000260: ca06 5abd fe54 92bb 3b70 a93c cd53 39bc
00000270: 6c80 bfbd b6d1 4e3d 3591 533d 07f2 4ebc
00000280: 1455 c6bd 22c0 acbd 5287 cfbb cb0b b8bd
00000290: 0f8a 3bbd 704d 73bd 7f13 7dbd 649c c4bd
000002a0: 402a d03c ccf3 053e 554e 9c3d dc6f fdbd
000002b0: 67a7 433d 2f2d 64bd 721a 393c eb29 033e
000002c0: 92b8 1d3e 9a73 233d 5ae7 a93d f2dd a63d
000002d0: d096 943d 7c57 b83c ee36 afbd 4e10 843d
000002e0: 7072 0b3e 7aa8 133e c4df dfbd 8952 8d3a
000002f0: b734 7b3d fbf7 e7bc c69c 883c 5a54 1c3e
00000300: 05d6 00be 165d 6e3e b495 c2bd 7dcc bb3d
00000310: 1290 08be 7ae5 3abe ff3b 9c3d ae1d 9c3d
00000320: d98e 153e a829 67bd 5f37 ebbd 340a 84bd
00000330: 767d 29bd 3b9e 00be be43 9cba 7bd9 dabd
00000340: 2339 fbbd 9ccf 913d b885 fe3e cc35 46bc
00000350: ff7b ff3a a6a5 ffbd 6584 30be 590f ce3d
00000360: c25c fdbd 4034 063f 5473 c93e 9768 5e3d
00000370: 9854 3bbe 7cc1 06be 62ef 1bbc d852 66bd
00000380: 10e0 393d c94f 3dbe 6ad0 163e 4a83 bcbd
00000390: 7af4 25be c2b3 13be 64e1 70be a1dc ec3c
000003a0: cf36 343e dd07 0fbe 80fb 433d 56a0 24be
000003b0: 88c3 2dbe 72c8 bb3c 6cb1 fabc 875a efbc
000003c0: 7ad9 07be 8f71 1ebe 5af8 27be d7d3 2dbe
000003d0: 8b69 4dbc c943 1a3d e013 eabd 6339 15be
000003e0: 2b17 56bd fff3 0dbc de8b b7bd 0350 f2bc
000003f0: 317b 4dbd e983 b33c b5ce 8a3d 8f28 d0bb
-0.08433581 0.13736103 0.022279618 -0.026173914 0.00025417135 -0.19224942 -0.11123093 0.04955767
-0.17050911 0.048860576 -0.11836093 0.13312766 -0.111547254 0.0496708 0.03697043 -0.035504043
-0.013260927 0.102639586 0.5367894 -0.042574964 -0.085347585 0.055173006 -0.09712879 0.032672867
-0.22338666 0.41414294 0.2775153 0.027873967 -0.036898334 -0.19888572 0.092253275 0.0004911987
0.07284753 -0.18230368 0.00087269366 -0.023720711 0.0915779 -0.10637462 -0.16984846 -0.09865879
0.27006334 -0.14004667 -0.1599917 -0.19521725 -0.17023166 0.025289496 -0.121536635 -0.10038959
-0.18686438 -0.12264183 -0.12920313 0.074379824 0.073840156 0.14043656 -0.15906072 -0.12446335
-0.04579682 0.047628485 -0.15322535 -0.07038791 0.11402751 0.033880375 -0.16723542 0.018639272
0.13853729 -0.278253 -0.119222485 -0.1358278 0.051226106 0.009366401 0.035842404 0.25701383
0.066900745 -0.17484604 -0.036388863 -0.19136491 0.018213743 0.005882536 -0.18891905 -0.096613854
-0.19642869 -0.03071338 -0.66655415 0.17805584 -0.0754243 0.017376052 -0.15280132 0.1777001
-0.13646953 -0.7137981 -0.3023283 -0.0049965414 -0.010636131 -0.05212977 -0.121760935 -0.078288354
-0.13100235 -0.101992995 -0.058762357 -0.024701608 -0.16843753 -0.13777472 -0.13185854 0.1418444
-0.20603114 -0.10001026 -0.14289318 -0.2152188 0.004384155 -0.10387944 -0.16590022 -0.11787542
-0.1102004 -0.083929814 0.045805395 -0.1519249 0.117173396 -0.013979749 -0.17699453 -0.06444398
-0.067166775 -0.29206803 0.037681922 0.011933571 -0.15433712 -0.020113656 -0.06604739 0.14821158
-0.09929193 -0.06359797 0.045525238 -0.03224431 -0.015222918 0.041389216 0.074736685 0.016092815
-0.0067989724 -0.10059126 -0.05979148 -0.09529384 0.048486702 -0.06770037 -0.06867178 -0.044785537
-0.12486497 0.13651308 -0.1413201 -0.11731226 0.12261236 0.007338389 0.05014586 -0.1343973
-0.05322913 -0.0044656983 0.020683398 -0.011311484 -0.093506664 0.050492965 0.051652152 -0.012630946
-0.09684196 -0.08435084 -0.00633327 -0.08986624 -0.04578596 -0.059400022 -0.06178617 -0.09600142
0.025410771 0.13081282 0.07632128 -0.12374851 0.04776707 -0.055707153 0.011297809 0.12808959
0.15402439 0.039905168 0.0829608 0.081478015 0.07255328 0.022502653 -0.08555399 0.06448422
0.13617873 0.14419737 -0.10931352 0.0010782044 0.06132957 -0.028316488 0.016676318 0.15266553
-0.12581642 0.23277697 -0.0950121 0.091698624 -0.13336208 -0.18251601 0.07628631 0.076228485
0.14605273 -0.05643621 -0.114851706 -0.064472586 -0.041379414 -0.1256036 -0.0011922044 -0.10686012
-0.12266757 0.071196765 0.49711394 -0.012097787 0.001949191 -0.12482767 -0.17238005 0.10061521
-0.12371208 0.5242348 0.393458 0.054298963 -0.18293989 -0.13159746 -0.0095175225 -0.05623135
0.0453797 -0.18487467 0.14727941 -0.09204729 -0.16206542 -0.14424041 -0.2352348 0.028913798
0.17599033 -0.13967843 0.04784727 -0.16076788 -0.1696912 0.022922728 -0.03060218 -0.029217971
-0.13266554 -0.15473007 -0.16403332 -0.16975342 -0.01253737 0.0376623 -0.11429572 -0.14572673
-0.05226819 -0.00866413 -0.089622244 -0.029579168 -0.050166313 0.021913486 0.067777075 -0.006352491
