data/models/ripple_lstm.pth (torch, 206085 bytes, 9 tensors)

lstm.weight_ih_l0 f4 [256, 1]
0	0x3e16a493	0.14711218
1	0xbe2d542c	-0.1692664
2	0xbc829153	-0.015938437
3	0xbb5f5e1e	-0.0034083198
4	0xbdf3eacf	-0.119100206
5	0x3dab7145	0.08371214
6	0x3d9416f2	0.07230939
7	0x3da14bec	0.07875809
8	0xbdd2d011	-0.10293592
9	0xbdd4ed55	-0.1039683
10	0xbcf1e624	-0.029528685
11	0x3dc5052f	0.09620129
12	0x3c0c7a04	0.008574013
13	0x3d1293d0	0.035785496
14	0xbc911dfd	-0.017714495
15	0x3e20e5f1	0.15712716
16	0xbe5fecdc	-0.21867698
17	0x3d9c70ed	0.076387264
18	0x3bd08928	0.0063640065
19	0x3d9369ce	0.07197915
20	0x3e15f5ab	0.14644496
21	0x3e2ba3ee	0.16761753
22	0xbd348a62	-0.044077285
23	0x3e28d140	0.16486073
24	0x3de15eb9	0.11004395
25	0xbd70cf72	-0.058791585
26	0xbc92b2aa	-0.01790746
27	0x3d224824	0.03961958
28	0x3dd18f45	0.102324046
29	0xbe1357ee	-0.14389011
30	0x3db3185f	0.08744883
31	0x3c9eaa0a	0.01936819
32	0x3d9cb0f2	0.07650937
33	0x3cdd4a24	0.027012892
34	0xbd10db01	-0.03536511
35	0x3cb89de1	0.02253622
36	0x3e0baf47	0.13641082
37	0x3dbeb400	0.09311676
38	0xbe543712	-0.20724133
39	0x3e1e5e3b	0.15465634
40	0xbcfd68d6	-0.030933779
41	0xbd2d5fbf	-0.04232764
42	0x3da05ffc	0.078308076
43	0x3d2baf0e	0.041914992
44	0x3b96236c	0.0045818593
45	0x3da1acc7	0.07894283
46	0x3d56b33c	0.052417025
47	0x3d411473	0.047138643
48	0x3e395555	0.18098958
49	0x3dd4af97	0.103850536
50	0xbc2b1cd5	-0.010443886
51	0x3b163af6	0.0022923327
52	0xbe03a1a1	-0.12854625
53	0xbe7e53d7	-0.2483667
54	0xbddbff2c	-0.107420295
55	0xbe2cf539	-0.1689042
56	0xbe28ab1e	-0.16471526
57	0xbe1ad73d	-0.1512117
58	0xbe453ca1	-0.1926141
59	0xbe08cf37	-0.13360296
60	0xbe08d08e	-0.13360807
61	0xbd461702	-0.048361786
62	0x3d0a3333	0.033740234
63	0xbcaaf81f	-0.020870266
64	0x3e35725d	0.17719407
65	0xbe4130fa	-0.1886634
66	0x3d53ec0a	0.051738776
67	0xbd257e79	-0.040403817
68	0xbd71771b	-0.05895148
69	0x3e51ad31	0.20476224
70	0xbcd7398e	-0.026272561
71	0xbd752b45	-0.05985572
72	0x3e270ebc	0.16314214
73	0xbd2194b5	-0.03944846
74	0x3d0f43b0	0.03497666
75	0x3e3d4c52	0.18486145
76	0x3d3fa6f1	0.046790067
77	0x3d919e8b	0.07110318
78	0xbda1295a	-0.07869215
79	0x3d9e86ef	0.0774058
80	0xbe2526d1	-0.16128089
81	0x3d42517b	0.047440987
82	0x3dc1aa55	0.094563164
83	0x3db415a5	0.08793191
84	0xbbd38b8f	-0.0064558457
85	0xbc31d31c	-0.010853555
86	0xbe071f20	-0.13195467
87	0x3da32fc1	0.07968093
88	0xbdd7d2e6	-0.105382726
89	0xbc418e96	-0.01181378
90	0x3e4b52d5	0.19855817
91	0x3dbfb08a	0.09359844
92	0xbb03d0a9	-0.0020113385
93	0xbe90d490	-0.28287172
94	0xbe136a06	-0.14395913
95	0xbe0e3113	-0.13885908
96	0x3daa0e9d	0.083035685
97	0x3e47e6b2	0.19521597
98	0x3d92a27d	0.071598984
99	0x3c5edc7b	0.013602371
100	0x3e2e595e	0.17026278
101	0x3e0f7460	0.14009237
102	0xbca16e51	-0.019705923
103	0x3e1d25e5	0.15346487
104	0x3ddfe456	0.109322235
105	0x3cefcc0c	0.029272102
106	0x3cef4714	0.029208697
107	0xbae5d8e7	-0.0017535955
108	0x3dd41a6c	0.10356602
109	0xbdfd095f	-0.12355303
110	0x3cde3bba	0.02712809
111	0x3e1afa34	0.15134507
112	0xbcc0e867	-0.023548318
113	0x3dc65f72	0.096861735
114	0x3e07afb1	0.13250615
115	0xbd380094	-0.044922426
116	0x3d5105b2	0.051030822
117	0xbe10b679	-0.14132108
118	0xbe088614	-0.13332397
119	0xbe6392a5	-0.22223909
120	0xbbda4535	-0.006661082
121	0xbe166b4a	-0.14689365
122	0x3d54b883	0.051933777
123	0x3de9ed81	0.114222534
124	0x3ccf7815	0.025325814
125	0x3e01d981	0.12680627
126	0x3c86b62e	0.016444292
127	0x3b48e60c	0.0030654697
128	0xbde81762	-0.11332585
129	0x3d864467	0.065560155
130	0x3e049607	0.12947856
131	0xbe986521	-0.29764655
132	0xbe44353c	-0.19160932
133	0xbe09e106	-0.13464746
134	0x3e3c89fe	0.18412015
135	0xbd924fac	-0.071441025
136	0x3e2e3b9e	0.1701493
137	0xbe41c255	-0.18921788
138	0x3db41bed	0.08794389
139	0xbe225975	-0.15854438
140	0x3e46596f	0.19370054
141	0xbdf58bbe	-0.11989544
142	0x3e6e0fa4	0.23248154
143	0x3e1ffeff	0.15624617
144	0xbd8449f6	-0.064594194
145	0xbd8c5f52	-0.068541184
146	0xbe68523a	-0.22687617
147	0x3def7128	0.11691505
148	0xbe53377a	-0.20626631
149	0x3e32413c	0.17407697
150	0x3e50a1d5	0.20374234
151	0xbe59d59e	-0.21272895
152	0x3e064d41	0.13115408
153	0x3b9cf209	0.004789595
154	0x3e460176	0.19336495
155	0x3e4b8ff7	0.19879137
156	0x3e96bb94	0.29439986
157	0x3e3ba596	0.18324885
158	0xbe580e15	-0.21099122
159	0xbe80c5aa	-0.25150806
160	0xbe3673be	-0.1781759
161	0x3e6057c7	0.21908484
162	0x3d1df197	0.038560476
163	0x3e5171d0	0.20453572
164	0x3e219e5b	0.15783064
165	0x3df7b51d	0.120950915
166	0xbd72264a	-0.059118547
167	0x3e2c30b8	0.1681546
168	0x3df77a74	0.12083903
169	0x3e60ec31	0.219651
170	0xbdac929e	-0.084264025
171	0xbe3be5bc	-0.18349355
172	0x3e09fab9	0.1347455
173	0x3e501501	0.20320512
174	0x3e5fb35c	0.21845764
175	0x3deb8184	0.114993125
176	0x3e702778	0.23452556
177	0x3de0e951	0.109820016
178	0xbe2599b6	-0.16171917
179	0x3e3040ca	0.17212215
180	0xbe390bd0	-0.18070912
181	0xbe5d2508	-0.21596158
182	0x3d5a37e5	0.05327596
183	0x3e647887	0.22311603
184	0x3d8cfcb2	0.06884135
185	0x3e37b099	0.1793846
186	0xbe0b7dd1	-0.13622214
187	0xbe164d70	-0.14677978
188	0x3d8a437e	0.06751154
189	0x3dd8c786	0.10584931
190	0xbe4d9a37	-0.2007836
191	0x3ddb8c6a	0.10720141
192	0x3e3e871d	0.18606229
193	0xbd19933c	-0.03749393
194	0x3d6fc647	0.0585387
195	0x3d0f917b	0.03505085
196	0x3ca918fc	0.020641796
197	0x3e60b7b2	0.21945074
198	0x3d8d6018	0.06903094
199	0x3e14ef15	0.14544328
200	0x3c23819f	0.009979635
201	0xbe0da5b2	-0.13832739
202	0xbdeda621	-0.11603952
203	0x3e131f8c	0.14367503
204	0x3dbfd89e	0.09367488
205	0x3d3f151f	0.046651002
206	0x3e0cf117	0.13763843
207	0x3e3f2018	0.18664587
208	0xbb567960	-0.0032726154
209	0x3c886de5	0.016653964
210	0x3e260349	0.1621219
211	0x3e20a688	0.15688527
212	0x3dfeada3	0.12435462
213	0x3dd565f5	0.104198374
214	0xbd6ef3e9	-0.05833808
215	0x3e484e83	0.195612
216	0x3db538de	0.08848737
217	0xbc9ca792	-0.019122873
218	0x3d987c59	0.074455924
219	0xbcf7c830	-0.030246824
220	0x3e658821	0.2241521
221	0xbea6a7d3	-0.32549915
222	0xbdc9d3c6	-0.09854846
223	0xbdce2caa	-0.10067113
224	0x3db298c2	0.087205425
225	0x3e0d4a82	0.13797954
226	0x3db932fe	0.09042929
227	0x3d5d1636	0.05397626
228	0x3ca4758e	0.020075586
229	0x3da71d89	0.0815993
230	0xbe66aebc	-0.22527593
231	0x3e41e09b	0.18933336
232	0xbde4440c	-0.111457914
233	0xbcb4f441	-0.022089126
234	0x3e1e76f8	0.1547507
235	0x3d06cce2	0.032910235
236	0x3e19be70	0.15014052
237	0xbc573f8c	-0.013137709
238	0x3e4b34c0	0.19844341
239	0x3d9bf8c5	0.076158084
240	0x3e2ec88b	0.17068689
241	0x3e2d1d37	0.16905676
242	0xbcb85ba5	-0.022504637
243	0xbd066cf6	-0.032818757
244	0xbc5a818c	-0.01333655
245	0xbe8118ab	-0.25214133
246	0xbe44af5f	-0.19207524
247	0xbe6e2a40	-0.23258305
248	0xbe0dbf78	-0.13842571
249	0xbdc17e64	-0.09447935
250	0xbe3270e5	-0.17425878
251	0xbdf298b9	-0.11845536
252	0xbdbc25d2	-0.09186901
253	0xbb8a4724	-0.0042199064
254	0x3e2572b3	0.16157036
255	0x3d07e4fb	0.033177357

lstm.weight_hh_l0 f4 [256, 64]
0	0xbdd73e5f	-0.10509943
1	0x3d3c8b19	0.04603109
2	0xbd4204ba	-0.04736779
3	0x3ce20f1a	0.027595092
4	0xbbc1cf03	-0.0059145703
5	0xbd29e284	-0.041475788
6	0xbd4a6c3b	-0.049419623
7	0xbcfdb615	-0.030970613
8	0xbdabed2a	-0.08394845
9	0x3e08b354	0.13349658
10	0xbd6a7a59	-0.057245586
11	0xbd1d4c44	-0.03840281
12	0x3d9bb9bc	0.076037854
13	0x3d20db3c	0.03927158
14	0xbdbf3d23	-0.09337833
15	0x3dc60f19	0.096708484
16	0xbd0cfcf1	-0.03442091
17	0x3d52f0fb	0.051499348
18	0x3d519774	0.051169828
19	0xbdefddc4	-0.1171222
20	0xbdb6741e	-0.08908866
21	0xbc20fe3e	-0.009826241
22	0xbda1536e	-0.07877241
23	0xbde58b59	-0.11208219
24	0x3d8e2e99	0.069424815
25	0x3dae0985	0.084979095
26	0xbc9b83a4	-0.01898367
27	0x3c3faea5	0.011699353
28	0xbdf8e472	-0.121529475
29	0xbdf8955e	-0.121378645
30	0x3d61c593	0.055120062
31	0x3d0292d9	0.031878326
32	0xbcd2609b	-0.02568083
33	0xbdd791f4	-0.10525885
34	0xbdefed5f	-0.11715197
35	0xbd1d009e	-0.038330667
36	0xbd51bee9	-0.051207457
37	0xbc9d374a	-0.019191403
38	0x3e1066a2	0.14101651
39	0xbdb55884	-0.08854774
40	0xbdd41107	-0.1035481
41	0x3cfd8c3e	0.030950662
42	0x3dbd698f	0.09248649
43	0x3cf248fd	0.02957582
44	0x3df17be3	0.11791208
45	0xbd7a3e9a	-0.061094858
46	0x3de44a5b	0.11146995
47	0xbde80c0e	-0.11330424
48	0x3de0ad45	0.109705485
49	0xbda1de00	-0.07903671
50	0x3da5c336	0.08093874
51	0xbdd9d1b6	-0.10635702
52	0x3e24d2e8	0.1609608
53	0x3e2bf5aa	0.16792932
54	0xbc53c111	-0.012924449
55	0x3d13fc40	0.036129236
56	0xbcf10d9f	-0.02942544
57	0x3dbb9577	0.091593675
58	0x3c8a2586	0.016863596
59	0xbd24b0ba	-0.040207602
60	0xbc6fa688	-0.0146271065
61	0xbe045c29	-0.12925781
62	0x3d84705e	0.06466745
63	0xbd19673e	-0.037451975
64	0x3e22cefa	0.15899268
65	0xbbb9376f	-0.00565236
66	0xbe07a7e8	-0.13247645
67	0x3d22afff	0.039718624
68	0x3d9a66fe	0.075391755
69	0x3d89b358	0.0672366
70	0xbde8f42c	-0.11374697
71	0x3d935a99	0.071950145
72	0xbd467a21	-0.048456315
73	0x3dcd14dd	0.10013745
74	0xbd3779ea	-0.044794
75	0x3de44aab	0.11147054
76	0xbacb24a9	-0.0015498596
77	0x3d59e435	0.05319615
78	0xbddd7fca	-0.108153895
79	0xbcf520b4	-0.02992282
80	0xbe053d28	-0.1301161
81	0xbd841a7d	-0.06450365
82	0x3cb6a520	0.022295535
83	0xbe26a484	-0.16273695
84	0x3d81839b	0.0632393
85	0xbd316804	-0.043312088
86	0xbd3ead96	-0.046552263
87	0x3e2171cb	0.15766065
88	0xbc9bd7bb	-0.019023767
89	0x3e2465c1	0.16054441
90	0xbd04e17b	-0.032441597
91	0xbe189840	-0.14901829
92	0xbe441484	-0.19148451
93	0xbde0995b	-0.1096675
94	0x3c11e66b	0.008905034
95	0x3de842ce	0.11340867
96	0xbcb21b13	-0.021741426
97	0xbd7ad5ca	-0.06123904
98	0xbd422710	-0.047400534
99	0xbe55dc94	-0.20884925
100	0xbe397039	-0.18109216
101	0xbe41135b	-0.1885504
102	0x3dc24cff	0.09487342
103	0x3aeb91a6	0.0017972484
104	0x3a816de3	0.0009874668
105	0xbdd26e25	-0.10274915
106	0x3e134ec4	0.14385515
107	0x3d28be21	0.041196946
108	0xbd020f46	-0.031752847
109	0xbe093a44	-0.13401133
110	0xbe3cd796	-0.18441615
111	0xbd53c035	-0.051696975
112	0xbe1915a1	-0.14949657
113	0x3b538604	0.0032275924
114	0x3defd1d4	0.117099434
115	0x3d1f8046	0.03894069
116	0xbd0068b8	-0.031349868
117	0x3e13a358	0.1441778
118	0xbd9295c5	-0.071574725
119	0x3d368bda	0.044566967
120	0xbe105a92	-0.1409705
121	0x3cbcf46a	0.023065764
122	0xbc991fd2	-0.01869193
123	0x3e21fe4b	0.15819661
124	0xbd10306b	-0.035202425
125	0xbd408050	-0.04699737
126	0x3e553a85	0.20823105
127	0xbdc22936	-0.094805166
128	0xbc8605b4	-0.016360141
129	0xbd33adaf	-0.04386681
130	0xbd9bd602	-0.07609178
131	0xbd613df2	-0.054990716
132	0x3e068ba4	0.13139206
133	0xbdcb2f1e	-0.09921096
134	0xbca3fca1	-0.020017924
135	0x3df5e2eb	0.12006172
136	0xbd173ea0	-0.03692496
137	0x3c1b96a6	0.009496367
138	0x3d57140f	0.052509364
139	0xbd3502f0	-0.044192255
140	0x3d8493b4	0.06473485
141	0x3ca1df88	0.019759908
142	0xbd37b9c5	-0.044854898
143	0x3d7eb53d	0.06218456
144	0x3b8f71e4	0.0043775905
145	0xbdd58eb4	-0.10427609
146	0xbda2b305	-0.079443015
147	0x3dc12e63	0.09432676
148	0xbc3fa66c	-0.011697393
149	0xbdb87dd9	-0.090083785
150	0x3d25717e	0.040391438
151	0x3d15e306	0.03659346
152	0xbd0f098a	-0.034921207
153	0xbdc97638	-0.098370016
154	0xbd4a5087	-0.049393203
155	0x3cae608c	0.021286272
156	0x3ddba6be	0.10725163
157	0xbeb4d221	-0.35316566
158	0x3b9595a3	0.004564957
159	0x3d5a172c	0.053244755
160	0xbd83222e	-0.06403004
161	0x3de499cc	0.11162147
162	0x3d611ccb	0.0549591
163	0xbc3aaa8d	-0.011393202
164	0xbda58cad	-0.080834724
165	0x3cfb81ab	0.030701479
166	0x3ddf009f	0.1088879
167	0xbdc4049d	-0.095711924
168	0xbbb2b438	-0.0054536127
169	0x3d0c1265	0.03419723
170	0x3d5c6058	0.053802818
171	0xbc94b70e	-0.018153694
172	0xbd6b7e8c	-0.05749373
173	0xbcd7ece9	-0.026358085
174	0x3cfafd5b	0.030638387
175	0xbd0d8dfe	-0.034559242
176	0x3cc16403	0.02360726
177	0x3d1d8fec	0.038467333
178	0x3dbb0344	0.09131482
179	0x3d8ca35f	0.06867098
180	0xbc5049af	-0.01271288
181	0x3e2f1019	0.17095985
182	0xbdc85efc	-0.09783742
183	0x3d2bbffa	0.04193113
184	0xbaee24d1	-0.0018168931
185	0x3da16762	0.07881047
186	0xbd996f3b	-0.07491919
187	0xbc997e0f	-0.018736867
188	0xbc3851b1	-0.0112499455
189	0x3cf59507	0.029978288
190	0xbe14f688	-0.14547169
191	0xbd881b21	-0.066457994
192	0x3c18eef2	0.009334313
193	0x3dc31bd4	0.09526792
194	0x3e5ad692	0.21370915
195	0xbd907aff	-0.0705471
196	0x3d9b1356	0.075720474
197	0xbe91eac2	-0.28499418
198	0x3e1bdf3b	0.15221874
199	0x3dce85b2	0.10084094
200	0xbdb59628	-0.08866531
201	0x3b2efe9a	0.0026702047
202	0x3d5913cb	0.05299739
203	0x3b77b71b	0.0037798348
204	0x3e200b46	0.156293
205	0xbd54079d	-0.051765073
206	0x3e2f1349	0.170972
207	0x3e6a4303	0.22877125
208	0xbe1b97e2	-0.15194657
209	0xbe6866f6	-0.22695526
210	0xbe452f85	-0.19256409
211	0x3e28491e	0.16434142
212	0xbddc0bbe	-0.10744427
213	0x3c8fd63b	0.017558208
214	0xbe3d34ba	-0.18477145
215	0xbe714dc6	-0.23564824
216	0x3e3b5182	0.18292812
217	0x3d417858	0.04723391
218	0x3e7373a8	0.23774588
219	0x3e0dedc7	0.13860236
220	0x3da444ac	0.080209106
221	0xbdf0b47e	-0.11753176
222	0x3d081ca9	0.033230457
223	0xbd90ca06	-0.07069783
224	0xbd13adf8	-0.03605458
225	0x3e798939	0.24368753
226	0x3e91f753	0.28509006
227	0x3dee6c47	0.11641746
228	0x3d15964d	0.03652029
229	0x3de0d53b	0.109781705
230	0x3e17c30b	0.14820497
231	0x3e4eb0c9	0.20184626
232	0xbc53c42a	-0.012925187
233	0x3d0419f7	0.032251325
234	0xbe8c4283	-0.27394494
235	0xbd7c214d	-0.061555196
236	0x3dc90462	0.09815289
237	0x3ca3bcc2	0.019987468
238	0x3e4f1ebe	0.20226571
239	0x3d8c2d98	0.06844634
240	0xbd663697	-0.056204405
241	0x3e1cf73c	0.15328687
242	0xbcf22ce0	-0.029562414
243	0x3e2e7d2a	0.17039934
244	0x3dd60dc4	0.10451844
245	0x3e5e49fa	0.21707907
246	0xbcde07a8	-0.02710326
247	0x3c87a448	0.016557828
248	0xbdd9da30	-0.10637319
249	0xbce813c5	-0.02832974
250	0x3d68257e	0.05667638
251	0x3e2b7d6b	0.16747062
252	0x3e05ca72	0.13065508
253	0x3ded6a9d	0.115926005
254	0x3cd132a7	0.025536848
255	0x3e35ebc3	0.17765717

lstm.bias_ih_l0 f4 [256]
0	0xbd27ee1d	-0.040998567
1	0x3c6ae554	0.014336903
2	0xbcbcdd6e	-0.023054805
3	0x3e2f74f0	0.17134452
4	0xbd52649c	-0.05136548
5	0xbdc2dbc5	-0.09514574
6	0xbd8451b4	-0.06460896
7	0x3b699c36	0.0035646087
8	0xba85d3c9	-0.0010210212
9	0x3ccd57a2	0.0250662
10	0xbdd4a996	-0.103839085
11	0xbd4142fe	-0.04718303
12	0x3d502db3	0.050824832
13	0x3c606deb	0.0136980815
14	0x3d28ba32	0.041193195
15	0x3e058083	0.13037305
16	0x3c319e4e	0.010840965
17	0xbe20e0e7	-0.15710793
18	0x3d074939	0.033028815
19	0x3d81253b	0.06305929
20	0x3d0b5d94	0.03402479
21	0x3df99002	0.121856704
22	0x3dd7582d	0.10514865
23	0x3db686bf	0.089124195
24	0xbe1d763f	-0.15377139
25	0xbe3ca47a	-0.18422118
26	0x3db4e60f	0.08832943
27	0x3e31907f	0.17340277
28	0x3ec93e99	0.3930557
29	0xbd31f308	-0.043444663
30	0xbd60eb8a	-0.054912128
31	0x3dc58eda	0.096463874
32	0x3da38c25	0.07985715
33	0x3de182a7	0.11011248
34	0xbdfafb36	-0.12254946
35	0x3df2d0be	0.11856221
36	0xbe15718c	-0.14594096
37	0xbd548376	-0.051883183
38	0x3db83e5b	0.08996268
39	0x3dd4eb10	0.10396397
40	0xbda033d5	-0.07822386
41	0x3ddaca02	0.10683061
42	0x3d97f77a	0.07420249
43	0x3c30a446	0.010781353
44	0x3ceede68	0.029158786
45	0x3d20176e	0.039084844
46	0x3dfb444b	0.12268885
47	0xbd2e5be4	-0.042568102
48	0xbb07e8c3	-0.0020738102
49	0x3c1b5a2e	0.00948195
50	0x3e098d1e	0.13432738
51	0x3e0ca1c6	0.13733587
52	0x3de4056b	0.11133846
53	0x3be41bbb	0.0069613135
54	0xbd4cddd9	-0.050016258
55	0x3dead846	0.11467032
56	0xbddcf5de	-0.10789083
57	0x3d16733b	0.036730986
58	0xbbdf0ee0	-0.006807193
59	0xbd9a8f05	-0.0754681
60	0x3d0156a5	0.03157677
61	0xbdaec665	-0.085339345
62	0xbd86a679	-0.06574721
63	0x3c45f54e	0.012082411
64	0x3d49f9fa	0.04931066
65	0xbd4dd336	-0.050250255
66	0x3d8b683e	0.06806992
67	0x3dd44d66	0.10366325
68	0x3cb587eb	0.022159537
69	0x3be05d45	0.006847056
70	0x3c92e33f	0.017930625
71	0xbe33cdc8	-0.17558968
72	0xbd8e907d	-0.06961153
73	0xbe3634d7	-0.17793594
74	0xbd914bf2	-0.070945635
75	0xbd5e0523	-0.054204118
76	0xbd85d015	-0.06533829
77	0xbd92a444	-0.071602374
78	0x3d6c4855	0.05768617
79	0xbd0b2da9	-0.03397909
80	0xbac37308	-0.0014911601
81	0x3d8518e1	0.06498886
82	0x3dea13c8	0.11429554
83	0x3da554f5	0.08072845
84	0xbdcd26cb	-0.10017165
85	0x3dd9c64e	0.10633527
86	0x3d16cdc3	0.036817323
87	0x3cc006fa	0.023440827
88	0xbc817fa3	-0.015807932
89	0xbe44f2c5	-0.19233234
90	0xbdd53342	-0.10410167
91	0xbd2f0443	-0.042728674
92	0xbdac7483	-0.0842066
93	0x39060d1d	0.00012784121
94	0xbd8cf9c9	-0.0688358
95	0xbde45195	-0.11148373
96	0xbdeb2008	-0.11480719
97	0xbd8a001e	-0.067383036
98	0xbc97423c	-0.0184642
99	0xbda05506	-0.07828717
100	0x3bc36a5c	0.0059636068
101	0x3d365cd9	0.04452214
102	0x3c8fe3d8	0.017564699
103	0xbc467fad	-0.012115401
104	0xbcffd9e5	-0.03123183
105	0xbe127f9c	-0.14306492
106	0xbdcf6598	-0.10126799
107	0xbdac4c19	-0.08412952
108	0x3d4fcbe1	0.050731543
109	0xbdfeb238	-0.12436336
110	0x3cf64a08	0.030064598
111	0xbc2f7f05	-0.010711436
112	0x3d131c64	0.035915747
113	0x3da774b5	0.08176557
114	0xbdf74337	-0.12073367
115	0xbd003ab2	-0.031305976
116	0xbdbada78	-0.09123701
117	0xbd92432f	-0.071417205
118	0xbde94598	-0.11390227
119	0xbd955c54	-0.07293001
120	0x3cdc2f51	0.026878031
121	0xbd675501	-0.05647755
122	0x3d091b41	0.033473257
123	0xbcf59881	-0.029979946
124	0xbd27ab3c	-0.040934786
125	0x3d683a29	0.05669609
126	0xbd0f8021	-0.035034303
127	0xbdc7d750	-0.097578645
128	0xbc32e478	-0.010918729
129	0xbd47e5fd	-0.04880332
130	0xbd87d419	-0.06632251
131	0x3da0bac1	0.078481205
132	0x3d8717a2	0.065963045
133	0xbdc7d463	-0.097573064
134	0xbdf36475	-0.11884395
135	0x3d855297	0.065098934
136	0xbcec53e1	-0.02884859
137	0x3cc5e1e2	0.02415556
138	0x3d1fbd23	0.038998734
139	0x3ddb85b8	0.10718864
140	0x3d09c34e	0.033633523
141	0xbd4f4501	-0.050602917
142	0x3d2a89d6	0.041635357
143	0x3d6249c7	0.05524614
144	0xbc217c8e	-0.009856356
145	0xbcd27d08	-0.025694385
146	0x3d351a8e	0.044214778
147	0xbbe566c1	-0.0070007746
148	0x3d15c289	0.036562476
149	0xbcd3b790	-0.025844365
150	0xbdaa0ff5	-0.08303825
151	0x3c80f7ae	0.015743103
152	0xbca0e965	-0.019642541
153	0xbceb4751	-0.02872053
154	0xbd20539f	-0.039142247
155	0xbdd00743	-0.10157635
156	0x3c63d888	0.013906606
157	0xbd9c018c	-0.076174825
158	0xbd96b99a	-0.073596194
159	0x3dc2f9d6	0.09520309
160	0x3c776442	0.015099587
161	0xbcadf7ee	-0.021236386
162	0xbda12afd	-0.078695275
163	0xbdd5aacd	-0.10432968
164	0x3c7fb593	0.0156072555
165	0xbd6cd3a8	-0.05781904
166	0xbdec92b8	-0.11551422
167	0x3db8cd21	0.090235
168	0x3d5206db	0.05127607
169	0x3daa558e	0.083170995
170	0xbd671e4e	-0.056425385
171	0x3d2e442b	0.04254548
172	0xbd0bd2c7	-0.03413656
173	0x3cbfbd22	0.023405615
174	0x3ca40c48	0.020025387
175	0xbd63efb4	-0.05564852
176	0x3d111103	0.035416614
177	0x3cecc6e5	0.028903434
178	0x3ce70e25	0.028204987
179	0xbb4bb21f	-0.003108151
180	0x3dc4f251	0.09616531
181	0x3d5cf969	0.053948794
182	0x3dba0275	0.090825
183	0xbd4284bf	-0.047489878
184	0xbd9c67d9	-0.07636995
185	0xbd332461	-0.043735866
186	0x3d6b218d	0.057405043
187	0x3d43df1b	0.04782019
188	0xbdaae4ea	-0.08344443
189	0xbce0a9fc	-0.027424805
190	0x3d4d8032	0.050171085
191	0x3dbbd95d	0.09172318
192	0x3cc26ced	0.02373358
193	0x3d7ad2a9	0.061236057
194	0x3cb4b116	0.022057097
195	0x3e80fbf6	0.2519223
196	0x3e0af29b	0.13569109
197	0xbda81c1a	-0.08208485
198	0x3dee5c8a	0.11638744
199	0x3c752446	0.014962262
200	0x3b70d8ea	0.0036750385
201	0x3dbc0d89	0.09182269
202	0xbcdb6f55	-0.026786486
203	0xbd04bf1a	-0.03240881
204	0xbcd4085e	-0.025882896
205	0xbd0fdf4d	-0.035125066
206	0x3e26f46c	0.16304177
207	0xbdacd90f	-0.08439838
208	0xbd11509d	-0.03547727
209	0xbbada041	-0.005298645
210	0x3e10e52d	0.14149924
211	0xbdb4410e	-0.08801471
212	0x3d1e5c7c	0.03866242
213	0xbc33aa17	-0.010965846
214	0xbc2ed10d	-0.010669959
215	0x3e1b6c6f	0.15178083
216	0xbd3653cb	-0.044513505
217	0xbe0b6f97	-0.13616787
218	0x3dcb060b	0.09913262
219	0x3e24fd28	0.16112196
220	0x3f0281fe	0.509796
221	0xbe117da9	-0.14208092
222	0x3db6fe66	0.089352414
223	0x3e89951d	0.26871577
224	0x3b764bc9	0.0037581793
225	0xbd19b680	-0.03752756
226	0x3b8f5a1c	0.0043747555
227	0x3dda3898	0.10655326
228	0xbda17ed1	-0.078855164
229	0x3d224845	0.039619703
230	0x3ccb26c6	0.024798762
231	0x3d6d707e	0.05796861
232	0x3d03f1dc	0.032213077
233	0x3e13ef66	0.14446792
234	0xbd6447ee	-0.05573266
235	0x3df404eb	0.119150005
236	0xbd397204	-0.04527475
237	0x3e24379d	0.1603684
238	0x3d0adfd2	0.033904858
239	0x3c4d69c5	0.012537424
240	0x3e1b12e2	0.15143922
241	0xbe2b896a	-0.16751638
242	0x3e001d75	0.12511237
243	0x3dd4d374	0.10391894
244	0x3e1d444b	0.15358083
245	0xbd0b6811	-0.034034792
246	0x3d86e754	0.06587091
247	0x3ddfb735	0.10923616
248	0xbdad4fb5	-0.084624685
249	0xbcd5d942	-0.026104573
250	0x3de6259e	0.11237644
251	0x3d83e2a3	0.06439712
252	0xbd005870	-0.03133434
253	0x3cff04a2	0.031130139
254	0x3e1ef1ea	0.1552197
255	0x3d0f0c74	0.034923986

lstm.bias_hh_l0 f4 [256]
0	0xbe0b8f6f	-0.13628934
1	0x3d5ec965	0.054391284
2	0x3dbe9f52	0.09307732
3	0x3e8b2209	0.27174404
4	0x3ddf51de	0.10904287
5	0xbda75bf9	-0.08171839
6	0xb976ae95	-0.00023525425
7	0xbe19ced1	-0.150203
8	0x3d1e5c61	0.03866232
9	0x3dd03575	0.10166446
10	0xbd93d81c	-0.07218954
11	0xbd089551	-0.033345524
12	0x3d40c519	0.047062967
13	0x3d54c973	0.05194993
14	0x3df0f04a	0.117645815
15	0xbd80bb94	-0.06285778
16	0xbe07bfbe	-0.13256738
17	0xbda8368b	-0.08213528
18	0x3e0afd27	0.13573132
19	0xbd2b9327	-0.041888382
20	0x3d919fd9	0.07110567
21	0xbd603b8f	-0.0547443
22	0xbd899c31	-0.06719244
23	0x3e0472b7	0.12934385
24	0x3ca119e1	0.01966566
25	0xbe04feec	-0.1298787
26	0x3d046ea0	0.032332063
27	0x3ca73c7c	0.020414583
28	0x3ef28d99	0.47373655
29	0xbd5299ac	-0.051416084
30	0x3d83db7f	0.0643835
31	0x3d8da534	0.069162756
32	0xbc5c5f02	-0.013450386
33	0xbd10900d	-0.035293628
34	0xbe3f03df	-0.1865382
35	0x3dcc19ba	0.099658445
36	0x3db42164	0.08795431
37	0xba75b6bf	-0.00093732396
38	0xbd340542	-0.043950327
39	0xba553d5c	-0.00081344484
40	0x3d8b3049	0.06796319
41	0x3d03bc64	0.032162085
42	0xbd8a4dba	-0.067531064
43	0x3dd1b2d8	0.1023919
44	0x3d4fbd43	0.050717603
45	0xbd2915c6	-0.04128053
46	0x3da4fc50	0.08055937
47	0xbdd0d49a	-0.101968005
48	0x3db41cd0	0.08794558
49	0xbd6686fc	-0.056281075
50	0xbd84bc1d	-0.06481192
51	0x3c39926b	0.011326413
52	0x3db923c5	0.090400256
53	0xbb847321	-0.0040420447
54	0x3dbc5dee	0.09197603
55	0x3e072120	0.1319623
56	0xbc95a061	-0.018264951
57	0x3d189797	0.037253942
58	0xbc7590f8	-0.0149881765
59	0xbc84c780	-0.01620841
60	0x3d774f8b	0.060378592
61	0xbd2ff75c	-0.04296051
62	0x3de8b6d3	0.11362996
63	0xbd598673	-0.053106736
64	0x3d0f9448	0.03505352
65	0xbb8700d5	-0.004119972
66	0xbdd82ae4	-0.10555056
67	0x3cc77ef2	0.024352524
68	0x39574b34	0.00020532013
69	0xbdd63831	-0.104599364
70	0x3cb17459	0.021661924
71	0x3d3cd3dd	0.046100486
72	0xbe3fcd55	-0.18730672
73	0xbe3a1e8b	-0.18175714
74	0xbd285a4a	-0.04110173
75	0x3de8565f	0.11344599
76	0x3c934cf2	0.017981026
77	0x3d23a1f2	0.039949365
78	0x3cd8cae1	0.026463928
79	0xbd2e526b	-0.04255907
80	0xbe1b7518	-0.15181386
81	0xbc2dcde0	-0.010608166
82	0xbc991d2b	-0.018690666
83	0xbe061593	-0.13094167
84	0xbd4ac27a	-0.049501874
85	0x3ba52f69	0.005041052
86	0xbd6322b1	-0.055453006
87	0x3cae1fbe	0.02125537
88	0xbda5e566	-0.08100395
89	0xbe7884d0	-0.24269414
90	0x3d0d87ee	0.03455346
91	0xbc0b6da1	-0.008510024
92	0xbdadeac7	-0.08492046
93	0xbdcd53a4	-0.10025719
94	0xbe0c0697	-0.13674389
95	0xbe40abaa	-0.18815485
96	0xbdaab5a2	-0.08335425
97	0x3d4e74b7	0.050404277
98	0xbd63fdf4	-0.05566211
99	0xbe1cf078	-0.15326107
100	0xbe1950a9	-0.14972176
101	0xbdc2cc0e	-0.095115766
102	0xbd86d605	-0.0658379
103	0xbc88ce6a	-0.016699988
104	0xbdcfb65f	-0.101422064
105	0xbd370dcc	-0.044690892
106	0xbd7036ab	-0.058645885
107	0x3c4bc585	0.012437229
108	0x3d998eae	0.07497917
109	0xbdf9de0c	-0.12200555
110	0x3c49ea6a	0.012323955
111	0x3d3977d8	0.045280308
112	0xbd20b1bc	-0.039232
113	0xbdce1af1	-0.100637324
114	0x3d326179	0.04354999
115	0x3c513286	0.012768393
116	0xbc7e3327	-0.015515125
117	0x3d8aef13	0.06783881
118	0xbdfb9edf	-0.12286162
119	0x3d34e6d4	0.044165447
120	0xbdb75346	-0.0895143
121	0xbd8685f4	-0.06568518
122	0x3c7fc84d	0.01561172
123	0xbd2db0c5	-0.04240491
124	0xbc94bf28	-0.018157557
125	0x3d288c31	0.041149322
126	0xbdfdfef4	-0.12402144
127	0xbdf71fb0	-0.12066591
128	0x3d63f0b0	0.05564946
129	0x3c895292	0.016763005
130	0x3d147008	0.036239654
131	0x3d874175	0.06604282
132	0xbd375d81	-0.044766907
133	0x3b1d3e2a	0.0023993351
134	0x3dc723fd	0.09723661
135	0xbd03aa8c	-0.032145068
136	0xbd8fbf8e	-0.07018958
137	0x3c168a3c	0.009188231
138	0x3cfb11ef	0.0306482
139	0x3c03c473	0.008042443
140	0xbbcfcd2d	-0.0063415975
141	0x3d14e5f1	0.0363521
142	0xbd3b8b22	-0.045786984
143	0xbd920865	-0.071305074
144	0xbc0e00a4	-0.008667145
145	0x3ab8971a	0.0014083118
146	0x3d4b36be	0.049612753
147	0xbd8f20bc	-0.069886655
148	0x3dee2e36	0.11629908
149	0xbcc51162	-0.02405614
150	0xbda6e50d	-0.08149157
151	0xbd08128c	-0.033220813
152	0x3c9fe23b	0.019517055
153	0x3cda0ce7	0.02661748
154	0x3d96d540	0.07364893
155	0x3d5f467d	0.054510582
156	0x3c47bfd6	0.012191733
157	0xbd1bb7ba	-0.038017012
158	0x3ddfc768	0.109267056
159	0xbdb03518	-0.08603877
160	0x3c41fa96	0.0118395295
161	0xbd0e044b	-0.034672063
162	0x3d83d75f	0.06437563
163	0x3db7d2eb	0.08975776
164	0x3d57f6da	0.05272565
165	0x3cf489c5	0.02985085
166	0x3d8b82e2	0.06812073
167	0x3ca9cd9b	0.020727923
168	0xbda8302f	-0.08212315
169	0xbde1f4ec	-0.11033043
170	0x3d23fcb0	0.040035903
171	0x3d69839b	0.057010274
172	0xbcf32d31	-0.029684635
173	0xbddef76f	-0.10887038
174	0x3d3111c7	0.043229844
175	0xbb1dc7fd	-0.00240755
176	0xbdf00059	-0.11718816
177	0x3c50e86f	0.012750729
178	0x3d05dfa5	0.032683987
179	0x3bc9c909	0.0061579985
180	0xbd4f526e	-0.05061572
181	0x3d238217	0.039918985
182	0xbcb93aa5	-0.022610972
183	0x3d850de0	0.06496787
184	0x3d4eff7e	0.050536625
185	0x3dbfa5f3	0.09357824
186	0x3c679cfc	0.014136549
187	0x3d8b5c87	0.068047576
188	0x3da04e12	0.07827391
189	0x3bd950b1	0.0066319336
190	0x3d85351a	0.06504269
191	0xbde70caf	-0.11281716
192	0x3dd43806	0.10362248
193	0x3d896e8e	0.0671054
194	0x3dd3c552	0.1034037
195	0x3e7514ea	0.2393376
196	0x3ddb1b65	0.106985845
197	0xbdec5aa8	-0.11540729
198	0xbdb67326	-0.089086816
199	0x3d61ab19	0.055094812
200	0x3c541fd6	0.012947043
201	0xbdf051c5	-0.11734346
202	0xbe0252e8	-0.12726939
203	0x3d94f1b9	0.072726674
204	0x3c847916	0.01617102
205	0xbdfb5b0b	-0.122732244
206	0xbd39803d	-0.045288313
207	0x3dd08107	0.1018086
208	0xbe20058f	-0.1562712
209	0xbe1aaf20	-0.15105867
210	0xbcca00ff	-0.024658678
211	0xbdcbe3d2	-0.09955563
212	0xbd0e4850	-0.03473693
213	0x3b3eee1b	0.002913362
214	0xbd3ce135	-0.04611321
215	0x3e92196b	0.28535017
216	0xbd8ba3c1	-0.06818343
217	0xbe255ad9	-0.16147937
218	0x3d76aacc	0.06022148
219	0x3dce7aad	0.10081992
220	0x3ef7560b	0.48307833
221	0x3cefee55	0.02928845
222	0xbd843d32	-0.064569846
223	0x3dda9030	0.10672033
224	0xbd7f8d8d	-0.062390853
225	0xbd183c16	-0.037166677
226	0xbd7af080	-0.061264515
227	0xbc49d886	-0.01231969
228	0xbd8c2190	-0.06842339
229	0x3cc9ecd0	0.024649054
230	0x3d15a0a7	0.036530163
231	0x3cea84be	0.02862775
232	0x3da33643	0.07969334
233	0x3e192af2	0.14957789
234	0x3d8dd638	0.069256246
235	0x3e5254bb	0.20540135
236	0xbdd30ea8	-0.1030553
237	0x3e2e9e49	0.17052568
238	0xbd959b4b	-0.073050104
239	0x3d2e7d5a	0.042600013
240	0x3dfc27ad	0.12312255
241	0xbdb2b1fe	-0.087253556
242	0xbc960ec8	-0.018317595
243	0xbda4f5ae	-0.08054672
244	0xbcccc391	-0.024995597
245	0x3d390489	0.04517034
246	0xbd82094c	-0.063494295
247	0x3d827511	0.06369985
248	0xbe1c0bed	-0.15238924
249	0xbddaf6e4	-0.10691622
250	0x3d6840bd	0.056702364
251	0x3d0aadcb	0.03385715
252	0x3dba6d59	0.09102888
253	0xbc4b653e	-0.012414275
254	0xbda46781	-0.08027554
255	0x3dd83115	0.10556237

lstm.weight_ih_l1 f4 [256, 64]
0	0x3c91ae9f	0.017783461
1	0xbd526528	-0.051366
2	0xbc9bf278	-0.019036517
3	0x3dcc4e82	0.09975912
4	0x3d1249bb	0.035714846
5	0xbe44a83d	-0.19204803
6	0x3cbea72e	0.023273077
7	0x3cd51772	0.026012156
8	0xbe25bf8d	-0.16186352
9	0x3d91bbf9	0.07115931
10	0x3e320211	0.17383601
11	0xbde6a75b	-0.11262389
12	0x3e43df82	0.1912823
13	0xbe4a7678	-0.19771755
14	0xbd838d33	-0.06423416
15	0x3c4164d5	0.011803825
16	0xbe5b0b3b	-0.21391003
17	0xbe662692	-0.22475651
18	0xbe09fafb	-0.13474648
19	0x3ab0782e	0.0013463551
20	0x3dbbb15c	0.09164688
21	0x3d3d4bf3	0.04621501
22	0xbe0376d8	-0.12838304
23	0xbe59529e	-0.21222922
24	0x3d88bf3e	0.066771016
25	0x3d646b27	0.05576625
26	0x3e306f53	0.17229967
27	0xbe158623	-0.1460195
28	0x3de911f3	0.11380377
29	0xbdca90c9	-0.09890897
30	0xbd3e21f7	-0.04641911
31	0x3d50b80a	0.050956763
32	0xbd2f4a38	-0.04279539
33	0x3e2080c3	0.15674119
34	0x3e71c02f	0.23608468
35	0x3de4470e	0.11146365
36	0x3e2b7dd7	0.16747223
37	0x3e065a13	0.13120298
38	0x3db6e78d	0.089308836
39	0x3d26c9d7	0.040719833
40	0xbe055ed8	-0.13024461
41	0xbd181a71	-0.03713459
42	0xbe2418b5	-0.1602505
43	0x3c7c9169	0.015415528
44	0x3df74a6b	0.12074741
45	0x3bcd3946	0.006262931
46	0x3e15557b	0.1458339
47	0xbcf0e07a	-0.029403914
48	0x3da6a508	0.08136946
49	0x3e40d8fa	0.1883277
50	0xbb475a49	-0.0030418804
51	0x3c256efb	0.010097261
52	0x3e2a0158	0.16602075
53	0x3e19c2a1	0.15015651
54	0xbdc74a61	-0.097309835
55	0xbc1b4c5a	-0.009478653
56	0xbe1fd647	-0.15609084
57	0x3d36b870	0.044609487
58	0x3d3a8c85	0.045544166
59	0x3e6f75ec	0.23384827
60	0x3be684ef	0.00703489
61	0x3dba4016	0.09094255
62	0xbdcc9086	-0.09988503
63	0xbde1694f	-0.11006414
64	0x3ca4fbfe	0.02013969
65	0xbd391ae3	-0.045191657
66	0x3d2702f3	0.040774297
67	0x397919e6	0.00023756138
68	0xbe24a3f5	-0.1607817
69	0xbde7c200	-0.113162994
70	0x3da61e8c	0.08111295
71	0x3d682894	0.056679323
72	0x3cc2311d	0.02370506
73	0xbe230b11	-0.1592219
74	0xbdf126d0	-0.11774981
75	0xbdcbd4cf	-0.099526994
76	0x3e241f49	0.1602756
77	0x3d57219e	0.052522294
78	0xbd1afa69	-0.037836466
79	0xbd57122e	-0.052507572
80	0x3b9dc909	0.004815225
81	0xbdcfb37e	-0.10141657
82	0xbd28e8a7	-0.0412375
83	0x3e0dd0aa	0.1384913
84	0xbc8b0281	-0.016968967
85	0x3e1d6531	0.15370633
86	0x3ded7cb1	0.115960486
87	0x3c889867	0.016674234
88	0xbd10caab	-0.03534953
89	0x3d5beca3	0.05369247
90	0x3e428434	0.18995744
91	0xbcfaee1c	-0.030631118
92	0x3e702b56	0.23454031
93	0xbd4d4e35	-0.050123412
94	0x3d56361a	0.05229769
95	0x3d1b0154	0.037843063
96	0xbcc4ddde	-0.024031576
97	0x3e0dfa2d	0.13864966
98	0x3e2353a1	0.1594987
99	0x3e1351f3	0.1438673
100	0x3e062401	0.13099672
101	0x3e2c3a49	0.16819109
102	0x3dcf9921	0.10136629
103	0x3e350c77	0.17680536
104	0x3c5eb5f0	0.013593182
105	0xbb0433b5	-0.0020172421
106	0x3d84e676	0.064892694
107	0xbdce7f31	-0.100828536
108	0x3dd9b127	0.10629492
109	0xbd351510	-0.04420954
110	0x3da5ec9f	0.081017725
111	0x3a8fabf1	0.0010961277
112	0x3dadf762	0.0849445
113	0x3d296a02	0.041360863
114	0xbbb9ac22	-0.005666272
115	0x3cc89f41	0.02449
116	0xbdaa0623	-0.08301952
117	0xbd2de0d3	-0.042450737
118	0xbd119a12	-0.035547324
119	0x3c9f262e	0.019427385
120	0xbda80982	-0.082049385
121	0x3ded5f4b	0.11590441
122	0x3d67fd82	0.05663825
123	0x3d198103	0.03747655
124	0x3dd9c80a	0.106338575
125	0x3c3f69d2	0.011682944
126	0x3d492275	0.049105126
127	0xbd338ba4	-0.043834344
128	0xbd08a0ab	-0.03335635
129	0x3d86302b	0.06552156
130	0xbd954824	-0.0728915
131	0xbc8fd8d5	-0.017559448
132	0x3e1d6d93	0.1537383
133	0xbe093580	-0.13399315
134	0xbb8d997c	-0.0043212753
135	0x3e755c69	0.23961033
136	0xbd028b54	-0.031871155
137	0x3e3ca4d5	0.18422253
138	0x3dde1a7b	0.108448945
139	0x3d89b440	0.06723833
140	0x3ca498d0	0.020092398
141	0x3ceda975	0.029011467
142	0x3c78d68f	0.0151878735
143	0x3dde33ad	0.108497
144	0xbbce056d	-0.006287268
145	0xbda59908	-0.08085829
146	0xbd97e9c3	-0.074176334
147	0x3ac45501	0.0014978946
148	0x3e24d8e0	0.16098356
149	0x3d14d201	0.036333088
150	0xbdb333ad	-0.08750091
151	0xbc309405	-0.010777478
152	0xbb3389ba	-0.0027395324
153	0x3a1e34ad	0.0006035071
154	0x3d490e88	0.049086124
155	0xbd91ba4a	-0.0711561
156	0x3d5630fc	0.05229281
157	0xbd9de1cf	-0.07709085
158	0x3c068184	0.00820959
159	0x3e381d9f	0.1798005
160	0x3daa72b4	0.08322659
161	0xbbe4ea77	-0.006985958
162	0xbd195038	-0.03743002
163	0xbe0fff52	-0.1406224
164	0x3a906495	0.0011016304
165	0x3dc87e5d	0.09789727
166	0x3de1881e	0.110122904
167	0x3d8db6d7	0.069196396
168	0xbd45b6c4	-0.048270002
169	0xbdd54649	-0.104137965
170	0xbda6d9fe	-0.081470475
171	0x3dd10e58	0.10207814
172	0xbd845724	-0.06461933
173	0xbe58aa8a	-0.21158805
174	0x3db718ac	0.08940253
175	0xbe019440	-0.12654209
176	0xbd843e79	-0.06457228
177	0x3cdba256	0.026810806
178	0xbd9c26de	-0.07624601
179	0x3dc40ec8	0.09573132
180	0x3e43f78e	0.19137403
181	0x3db20546	0.08692412
182	0xbcb5d687	-0.022197021
183	0xbe20210b	-0.15637605
184	0x3d7fecf4	0.062481835
185	0x3c6381de	0.013885943
186	0x3df42d90	0.11922753
187	0x3e01c6a2	0.12673429
188	0xbd187765	-0.03722324
189	0x3ca3f7e3	0.020015663
190	0x3e1ae3a8	0.15125906
191	0x3cdbed90	0.026846677
192	0xbcb1fe50	-0.021727711
193	0xbbdfd07e	-0.006830274
194	0x3d005fca	0.03134135
195	0x3c9525a6	0.018206429
196	0xbd4ab8fc	-0.04949282
197	0xbdc22537	-0.094797544
198	0x3d8f075c	0.069838256
199	0x3e0120f5	0.12610228
200	0x3d67b264	0.05656661
201	0xbe05169b	-0.12996905
202	0xbd9e9258	-0.077427566
203	0xbe24180b	-0.16024797
204	0x3dac398d	0.084094144
205	0x3d27b269	0.04094163
206	0x3e0ac541	0.13551809
207	0xbcb7bbba	-0.022428382
208	0x3dac694f	0.084185235
209	0xbdd03a2b	-0.10167345
210	0x3d51d0cd	0.05122452
211	0x3d51c443	0.05121256
212	0xbdc072d7	-0.09396904
213	0xbcaad0d5	-0.020851532
214	0x3db5bebb	0.088742696
215	0xbc754902	-0.01497102
216	0xbd6e0120	-0.05810654
217	0xbd579e82	-0.0526414
218	0xbbd0e934	-0.006375456
219	0x3e2eead8	0.17081773
220	0x3de7288a	0.11287029
221	0xbe150f90	-0.14556718
222	0xbcba21f9	-0.022721278
223	0xbdbd1fad	-0.09234557
224	0x3cbe8d98	0.023260877
225	0x3d89a23e	0.06720398
226	0x3e3b71bd	0.18305106
227	0xbcc6b9b5	-0.024258474
228	0x3e3ecd9d	0.18633123
229	0x3e06e418	0.13172948
230	0xbd156e41	-0.0364821
231	0x3e0420a6	0.1290308
232	0x3bb6c533	0.005577707
233	0x3d62b9b0	0.055352867
234	0xbdf151fb	-0.11783215
235	0xbe2b7502	-0.16743854
236	0x3dad48f7	0.084611826
237	0x3cd1e4b5	0.025621751
238	0x3e3e294d	0.18570442
239	0x3e31c97e	0.1736202
240	0x3da5bcc2	0.08092643
241	0xbc10ea6e	-0.008844955
242	0xbd100fce	-0.035171323
243	0x3c8e4f0f	0.017371682
244	0xbc490303	-0.012268784
245	0xbdd99309	-0.10623748
246	0x3d1a3970	0.037652433
247	0xbd5aa12c	-0.05337636
248	0xbd73062b	-0.059332054
249	0x3d9948d1	0.07484592
250	0x3da39d8a	0.079890326
251	0xbdfc24f6	-0.12311737
252	0xbcfe030b	-0.03100731
253	0x3d8651d1	0.06558574
254	0xbe38b8d5	-0.18039258
255	0x3daf2391	0.08551706

lstm.weight_hh_l1 f4 [256, 64]
0	0x3decfca0	0.11571622
1	0x3d31dc2d	0.043422867
2	0x3dfa7ac9	0.12230451
3	0x3da54e00	0.08071518
4	0xbe0191f8	-0.12653339
5	0xbdef1132	-0.116732016
6	0x3d4b81bf	0.049684282
7	0x3d927143	0.07150509
8	0xbd9c6671	-0.07636727
9	0xbe380f6a	-0.1797463
10	0x3e27a116	0.16370043
11	0x3d8ab18f	0.06772148
12	0x3c956048	0.018234387
13	0x3df25b71	0.11833847
14	0x3b8b95ed	0.004259816
15	0x3e2e0b11	0.16996409
16	0xbcb49d5f	-0.022047697
17	0x3e327277	0.17426477
18	0xbd6cd025	-0.05781569
19	0xbba08ecb	-0.0048998347
20	0x3de63d06	0.11242108
21	0xbd505a23	-0.05086721
22	0xbdf93e84	-0.12170127
23	0xbd8c46a7	-0.06849413
24	0x3dba1afd	0.09087179
25	0xbe4af29c	-0.1981911
26	0x3d6f6276	0.05844351
27	0x3cc31dd3	0.023817932
28	0xbca8939e	-0.020578202
29	0x3d40aad8	0.04703793
30	0xbdbae5f5	-0.09125892
31	0xbdb8e684	-0.09028342
32	0x3e2a12c9	0.16608728
33	0xbe57baed	-0.210674
34	0x3d474e22	0.048658498
35	0xbdbafe31	-0.091305144
36	0xbdb674c4	-0.0890899
37	0xbd675cc9	-0.05648497
38	0x3d6338b8	0.055474013
39	0xbe4c4309	-0.19947447
40	0xbd58bfa2	-0.05291713
41	0xbe5635d0	-0.20918965
42	0x3d8f8524	0.070078164
43	0xbdd1b71e	-0.10240005
44	0xbdbb7d6e	-0.09154783
45	0xbe027d2c	-0.12743062
46	0xbc70969b	-0.014684345
47	0x3e65023d	0.22364135
48	0x3daa7cb9	0.0832457
49	0xbd8d7385	-0.06906799
50	0x3dc9a433	0.09845772
51	0xbc4cf386	-0.012509232
52	0x3d9d256b	0.076731525
53	0x3d4fa065	0.050690074
54	0x3d653206	0.05595591
55	0xbdb6ad35	-0.08919755
56	0xbe4f6257	-0.20252357
57	0xbd753d0c	-0.059872672
58	0x3c613f98	0.013748072
59	0x3dd20959	0.10255689
60	0xbc5aeb28	-0.01336173
61	0x3c8fdf0e	0.017562415
62	0x3e17e99b	0.14835207
63	0xbd13e97f	-0.03611135
64	0x3d97319f	0.07382511
65	0x3d8b7ada	0.068105415
66	0x3cb4c85c	0.022068195
67	0x3d8d864a	0.06910379
68	0xbdefd7bb	-0.11711069
69	0xbd822d1e	-0.06356262
70	0x3d544d38	0.051831454
71	0x3d7a5313	0.061114382
72	0x3d2b54af	0.041828807
73	0x3dc1ff86	0.09472565
74	0xbd2f97b5	-0.04286929
75	0x3cf6a962	0.030110065
76	0x3da3498d	0.07973013
77	0xbbef435f	-0.0073017324
78	0xbd2930d6	-0.04130634
79	0x3d93197c	0.07182595
80	0xbdaa035c	-0.08301422
81	0x3d666f13	0.056258272
82	0x3d9b21a2	0.07574774
83	0xbcf49b7d	-0.029859299
84	0x3cfc5d7a	0.030806292
85	0xbd5aa123	-0.05337633
86	0xbda2484e	-0.07923947
87	0x3d522874	0.05130811
88	0xbdfa29c6	-0.12214999
89	0xbd9ff636	-0.07810633
90	0x3d869f44	0.06573346
91	0x3dabf512	0.08396353
92	0x3d8bf680	0.068341255
93	0x3dba881d	0.09107993
94	0xbb9d7081	-0.0048046713
95	0xbdea7021	-0.11447168
96	0xbd411b06	-0.047144912
97	0xbd44e019	-0.04806528
98	0x3e1f0aed	0.15531512
99	0xbdcb294e	-0.099199876
100	0x3db7dd44	0.0897775
101	0xbdaa57a6	-0.08317499
102	0x3cb88e7c	0.02252888
103	0xbb90754a	-0.004408513
104	0xbd874fda	-0.06607027
105	0x3b8f4b91	0.004373022
106	0xbbe4975c	-0.0069760513
107	0xbc9955ad	-0.018717611
108	0xbcf23bbe	-0.029569503
109	0x3b6810e4	0.0035410458
110	0xbded2bcb	-0.115806185
111	0x3d6daf5e	0.05802857
112	0x3cfd92cf	0.030953793
113	0xbd24f8f8	-0.040276498
114	0x3d7ccd80	0.061719418
115	0x3dff3f5b	0.12463256
116	0xbdb7cc35	-0.08974496
117	0xbd6d6c0d	-0.057964373
118	0x3da447dd	0.08021519
119	0xbe22ad40	-0.15886402
120	0xbe09976b	-0.13436668
121	0xbb7e8276	-0.0038835085
122	0x3cf993d7	0.030466003
123	0xbde3f3f5	-0.111305155
124	0xbcd14da2	-0.025549714
125	0xbdb69248	-0.0891462
126	0x3dc8df1e	0.09808181
127	0x3d21f558	0.03954062
128	0xbd66969a	-0.05629597
129	0x3c0975a5	0.008389865
130	0xbcf16717	-0.029468102
131	0x3de6b91d	0.11265776
132	0xbcc500b2	-0.024048183
133	0xbd1105c3	-0.035405885
134	0x3e188b27	0.14896832
135	0x3cdca070	0.026931971
136	0x3ca73266	0.020409774
137	0xbe0aa023	-0.1353765
138	0xbdea2384	-0.11432555
139	0x3c866d11	0.016409429
140	0xbd890a1a	-0.0669138
141	0x3d1c0736	0.038092814
142	0x3e0a2eea	0.13494459
143	0xbd5f7a4f	-0.054560002
144	0xbe042ed7	-0.12908493
145	0xbd4ad01d	-0.04951488
146	0xbce92738	-0.028461084
147	0xbe23e2c1	-0.16004469
148	0x3dc48a56	0.09596698
149	0xbcc31d99	-0.023817824
150	0x3c646735	0.013940622
151	0x3d2c01c2	0.041993864
152	0xbd8a94f0	-0.06766689
153	0xbe402500	-0.18764114
154	0x3dad8d2c	0.08474192
155	0xbdf1071e	-0.117689356
156	0xbe1163bd	-0.14198203
157	0x3dcdee12	0.10055174
158	0x3d4d6e54	0.050154045
159	0x3d4d27b4	0.050086692
160	0xbbcbdab1	-0.0062211384
161	0x3d882245	0.066471614
162	0x3e20c9f1	0.15702035
163	0xba28e3ab	-0.00064426166
164	0xbdfb2700	-0.12263298
165	0xbc1564e5	-0.009118293
166	0x3db2e86d	0.08735738
167	0xbdcf4633	-0.10120811
168	0xbcabb751	-0.020961436
169	0xbd30c473	-0.0431561
170	0x3dc8f667	0.098126225
171	0xbd22c43e	-0.039737932
172	0xbdcd1e63	-0.100155614
173	0xbe0e354b	-0.13887517
174	0xbc88fabc	-0.016721122
175	0x3dde9899	0.108689494
176	0xbc7f8a46	-0.015596932
177	0xbdf7ebdb	-0.12105533
178	0xbd795807	-0.060874965
179	0xbd318add	-0.04334532
180	0x3dad4b81	0.08461667
181	0xbe008241	-0.12549688
182	0x3aa45c2a	0.0012539674
183	0x3d5a96e0	0.05336654
184	0xbdc855d0	-0.097819924
185	0x3cec96a2	0.028880421
186	0xbdc94e13	-0.098293446
187	0xbc9cec9e	-0.019155797
188	0x3cf49291	0.029855045
189	0x3da41028	0.08010894
190	0xbd311b14	-0.043238714
191	0xbd8a811e	-0.067629084
192	0x3d3afdf5	0.04565235
193	0xbd5b6b2f	-0.053569015
194	0xbde78dde	-0.11306356
195	0xbdff04f8	-0.124521196
196	0x3cca9866	0.024730872
197	0x3bcaa764	0.0061845053
198	0x3d84075d	0.06446717
199	0x3d99a936	0.075029776
200	0xbd858c7e	-0.065209374
201	0x3d6833b6	0.05668994
202	0xbd05b6f4	-0.03264518
203	0x3d4ffb9c	0.050777063
204	0x3d754e8b	0.059889358
205	0x3d91251c	0.07087156
206	0x3df795d3	0.120891236
207	0xbc9ae949	-0.018910067
208	0x3b5dcef8	0.0033845287
209	0x3d98d28e	0.07462035
210	0x3d444c5b	0.04792438
211	0x3afa2016	0.0019083049
212	0x3dbb09be	0.091327175
213	0xbe2df97d	-0.16989703
214	0x3daf843f	0.08570146
215	0xbdcba51a	-0.099436
216	0x3da189bc	0.07887599
217	0xbc2e2648	-0.010629244
218	0x3ce3938d	0.027780319
219	0xbd4f37e4	-0.05059041
220	0xbd9f24cf	-0.077706926
221	0x3dd8a80e	0.10578929
222	0xbdd1e27e	-0.10248278
223	0x3d31d290	0.0434137
224	0xbe018733	-0.1264923
225	0x3d33f749	0.043937
226	0x3d6ef713	0.058341097
227	0x3c95f4c3	0.018305188
228	0x3d6d7a55	0.057977993
229	0xbcf99b81	-0.030469658
230	0x3dfe2bcf	0.124106996
231	0xbe036e76	-0.12835106
232	0x3ca2cc73	0.01987288
233	0xbd8a4721	-0.06751848
234	0x3d20492e	0.03913229
235	0xbd075239	-0.033037398
236	0xbd868678	-0.06568617
237	0xbcc6a4a8	-0.024248436
238	0xbbd801cd	-0.0065920115
239	0xbdb945a9	-0.0904649
240	0xbdc56d78	-0.0964002
241	0xbdbe120a	-0.092807844
242	0x3dec9ffb	0.11553951
243	0x3cfa13d4	0.030527033
244	0x3d154d09	0.03645042
245	0xbd15de0a	-0.036588706
246	0xbd8fbf25	-0.0701888
247	0xbe2cb1c7	-0.16864692
248	0x3d53a825	0.051674027
249	0xbdcfe5ef	-0.10151278
250	0xbd16c991	-0.036813322
251	0x3da57802	0.0807953
252	0xbe3af74b	-0.18258397
253	0xbd27834b	-0.040896695
254	0xbd3f595e	-0.046716087
255	0x3d829389	0.06375796

lstm.bias_ih_l1 f4 [256]
0	0x3ec285bf	0.37992665
1	0x3e0ec017	0.13940464
2	0x3da51978	0.080614984
3	0x3e208d14	0.15678817
4	0x3d52ef51	0.05149776
5	0x3e5a2be5	0.21305807
6	0x3e5aa985	0.21353729
7	0xbe2b256e	-0.16713497
8	0x3dc50bc7	0.09621387
9	0xbd77393e	-0.060357325
10	0x3e47e563	0.19521098
11	0xbd847e3f	-0.06469392
12	0x3dd68db3	0.10476246
13	0xbd824919	-0.063615985
14	0x3dbc80c0	0.092042446
15	0x3e366ae1	0.17814209
16	0x3dbf6800	0.09346008
17	0x3dbc44be	0.09192799
18	0x3e24b79d	0.16085668
19	0x3e4f075e	0.20217654
20	0x3e1f09dd	0.15531106
21	0x3e4aed2a	0.19817033
22	0x3ed4fa1a	0.41597062
23	0xbde6af29	-0.11263878
24	0x3da21707	0.07914548
25	0xbd9ce666	-0.076611325
26	0x3daeb6fd	0.08530996
27	0x3e0462f9	0.1292838
28	0xbd53a410	-0.051670134
29	0x3e1cc02c	0.15307683
30	0xbe28e5e7	-0.16493951
31	0x3d7bdc5a	0.06148944
32	0x3dca6ae3	0.09883668
33	0x3dbe2d40	0.092859745
34	0x3d007c8d	0.03136878
35	0x3dd0073e	0.10157631
36	0x3e175f96	0.14782557
37	0x3d8015b9	0.06254143
38	0xbd5092da	-0.0509213
39	0xbde5745a	-0.11203833
40	0x3e447e39	0.19188775
41	0x3d9ec700	0.077528
42	0x3e21bf82	0.1579571
43	0x3e419d8a	0.18907753
44	0x3db96456	0.09052341
45	0xbe093718	-0.13399923
46	0xbd48bba0	-0.04900706
47	0x3c0eba94	0.008711476
48	0x3db81b10	0.08989537
49	0xbc932e03	-0.017966276
50	0xbccebcab	-0.025236448
51	0xbd8a3f6c	-0.06750378
52	0xbd9d308a	-0.07675274
53	0xbd4c8d26	-0.049939297
54	0x3d9ca21c	0.076481074
55	0x3b15b82b	0.0022845368
56	0x3f23936a	0.6389681
57	0x3db9eefd	0.090787865
58	0x3b8efbde	0.004363521
59	0x3d8dc18f	0.06921684
60	0x3e763652	0.24044159
61	0x3da09801	0.078414924
62	0x3e6554cd	0.2239563
63	0x3de9dcb7	0.11419051
64	0xbdd3e84b	-0.10347041
65	0x3d04ad4b	0.032391828
66	0xbda2d8ab	-0.079514824
67	0xbd1ae278	-0.037813634
68	0xbd88341f	-0.06650566
69	0xbdaf4981	-0.08558942
70	0x3dc18f36	0.094511434
71	0xbd8f2c0c	-0.06990823
72	0x3d779205	0.06044199
73	0xbd3223c2	-0.043491133
74	0xbce92a6e	-0.028462615
75	0x3da1c10f	0.07898151
76	0x3daa463d	0.08314178
77	0xbd3facf7	-0.04679581
78	0xbdbc4650	-0.091930985
79	0xbc9d1771	-0.019176217
80	0xbd4d4fdd	-0.05012499
81	0x3bdc27cf	0.0067186127
82	0x3dd05f58	0.101744354
83	0xbd994aa1	-0.074849375
84	0xbd32d5dc	-0.043660983
85	0x3e45b414	0.19306976
86	0xbe04287c	-0.12906069
87	0xbd8d762e	-0.069073066
88	0x3d940da8	0.07229167
89	0xbde341fa	-0.110965684
90	0x3d333760	0.04375398
91	0xbd9ef3a6	-0.07761316
92	0xbe066647	-0.13124953
93	0xbd81a3e5	-0.063300885
94	0xbe700543	-0.23439507
95	0x3cb37be1	0.021909656
96	0xbe0c4f68	-0.13702166
97	0xbdfc80a6	-0.12329225
98	0xbcfe0241	-0.031006934
99	0xbe11668b	-0.14199273
100	0x3c7a1829	0.015264549
101	0x3d0d8612	0.034551688
102	0x3de025c2	0.10944702
103	0xbe154fc5	-0.14581211
104	0x3d86dd1f	0.06585144
105	0xbdb38326	-0.08765249
106	0x3d3d9ce4	0.0462922
107	0xbd6db77a	-0.058036305
108	0xbe046a14	-0.1293109
109	0xbd23e8ce	-0.04001694
110	0xbbc8d3da	-0.0061287703
111	0xbd4d00b6	-0.050049506
112	0xbd47d306	-0.048785232
113	0xbdf4bd9d	-0.11950228
114	0x3cd5b488	0.02608706
115	0x3d2b223e	0.041780703
116	0xbe271d85	-0.16319855
117	0x3d1cea1e	0.03830921
118	0xbd40008c	-0.04687552
119	0xbdfb5e30	-0.12273824
120	0xbd4c8a6b	-0.049936693
121	0xbe29727c	-0.16547579
122	0xbcc47548	-0.023981705
123	0x3d05566a	0.032553114
124	0xbe1e9e35	-0.15490039
125	0xbd4b8ecc	-0.04969673
126	0xbd95a92f	-0.0730766
127	0xbdc749e6	-0.09730892
128	0xbdae989e	-0.08525203
129	0xbccecf2d	-0.025245273
130	0xbd63e37a	-0.05563686
131	0x3df2d0b9	0.11856217
132	0xbdddc9a3	-0.10829475
133	0x3cc2b3bc	0.023767345
134	0x3d82dd1d	0.0638983
135	0x3ccbefea	0.024894673
136	0xbd904f49	-0.070463724
137	0xbdd4b53a	-0.10386129
138	0x3ce22209	0.02760412
139	0x3dacb4d2	0.08432926
140	0xbdf103c0	-0.117682934
141	0x3caf2722	0.021380965
142	0x3ccca94e	0.024983075
143	0x3e00cfc8	0.12579262
144	0xbd305e96	-0.043058954
145	0x3b414be4	0.0029494697
146	0xbd558560	-0.05212915
147	0x3d0c3e56	0.034239136
148	0x3d9889db	0.07448169
149	0xbd699874	-0.057030156
150	0xbd93f7b0	-0.07224977
151	0xbaa0e4e7	-0.001227525
152	0x3d8e5703	0.0695019
153	0xbe03f2dd	-0.12885614
154	0xbc074700	-0.008256674
155	0xbe039ebf	-0.12853526
156	0xbdad4873	-0.08461084
157	0x3d5af3a2	0.053455003
158	0xbd3f1bb2	-0.04665727
159	0xbd1893da	-0.037250377
160	0xbd9996d0	-0.07499468
161	0x3d9118fe	0.07084845
162	0x3c621346	0.01379854
163	0x3cd9d867	0.026592446
164	0xbdec6287	-0.1154223
165	0xbd101eb0	-0.035185516
166	0x3ce160b3	0.02751193
167	0xbd765bca	-0.06014613
168	0x3c6473a1	0.013943584
169	0x3d082d8e	0.03324657
170	0xbbfde634	-0.0077483896
171	0x3b32b598	0.0027268883
172	0x3cf613e5	0.030038783
173	0xbde65926	-0.112474725
174	0x3de544d6	0.1119477
175	0x3de35e75	0.111020006
176	0x3d400738	0.046881884
177	0x3de68343	0.11255505
178	0xbbb70e10	-0.005586393
179	0x3d529ad9	0.051417205
180	0xbd251196	-0.040299974
181	0x3d4d38ec	0.050103113
182	0x3d523ce6	0.05132761
183	0x3d8933d2	0.06699337
184	0x3c621462	0.013798805
185	0xbd22d3c4	-0.039752737
186	0x3d8b2951	0.0679499
187	0x3d92a601	0.07160569
188	0xbd09667d	-0.033545006
189	0x3d988d34	0.07448807
190	0x3d525d29	0.051358376
191	0xbdb708cd	-0.089372255
192	0x3e821c14	0.25412047
193	0x3c124e7a	0.008929843
194	0x3d568360	0.052371383
195	0x3dc4c74a	0.09608324
196	0xbc6b8c7e	-0.014376758
197	0x3e986820	0.2976694
198	0x3dde361a	0.10850163
199	0xbdfbcc1e	-0.12294792
200	0xbd989351	-0.074499734
201	0xbd17596d	-0.036950517
202	0x3df19f69	0.11797983
203	0x3d06e729	0.032935295
204	0x3cab6f7b	0.020927181
205	0x3de25e13	0.110530995
206	0x3dfd8982	0.12379743
207	0x3dfb7b96	0.122794315
208	0xbd80b140	-0.06283808
209	0x3db751fd	0.08951185
210	0x3d90f8be	0.07078694
211	0x3d480a34	0.048837855
212	0x3d8f7f6f	0.07006728
213	0x3e30a2d4	0.17249614
214	0x3e2077fa	0.15670767
215	0xbd25f4e3	-0.040516745
216	0x3b95430b	0.0045551113
217	0xbdba6dea	-0.09102996
218	0xbdc4a84b	-0.09602412
219	0x3da91fbe	0.082580075
220	0x3b1a952c	0.0023587449
221	0x3ddd4b9f	0.10805439
222	0xbe6d5758	-0.2317785
223	0x3a08ba3b	0.0005215739
224	0x3dcd4d60	0.10024524
225	0x3d3cfd9b	0.046140295
226	0xbb959824	-0.0045652557
227	0x3c418e86	0.011813765
228	0xbcd5af0e	-0.02608445
229	0x3df748e0	0.12074447
230	0x3ddc6350	0.1076113
231	0x3d2ae2b9	0.041720126
232	0x3e0cab6b	0.13737266
233	0x3e1a5549	0.15071596
234	0x3e1a9af1	0.15098168
235	0x3e23d5b5	0.15999492
236	0x3e23dc47	0.16001998
237	0x3cb7ded7	0.022445126
238	0xbb98f22c	-0.004667541
239	0x3e1e0632	0.15432051
240	0x3dff089a	0.124528125
241	0x3da8a44c	0.08234462
242	0x3d6c7e72	0.057737775
243	0x3da81059	0.08206243
244	0x3d8b3834	0.06797829
245	0x3d06af7e	0.032882206
246	0x3e5fa45a	0.21840039
247	0x3d05402d	0.032531906
248	0x3f1db4bb	0.616039
249	0x3d91bde5	0.07116298
250	0xbe4f841b	-0.20265238
251	0x3d4a4845	0.049385328
252	0x3e49c712	0.19704846
253	0xbd4d81f0	-0.050172746
254	0x3e3f6710	0.18691659
255	0xbc8d3598	-0.01723747
