data/models/ripple_gru.pth (torch, 155637 bytes, 9 tensors)

gru.weight_ih_l0 f4 [192, 1]
00000000: 719c f7bd 42a9 e0bb 3b9d 85bd 6458 2ebb
00000010: c1b6 89bd 4916 d3bd b681 4dbd 02db 3b3e
00000020: 1981 a73d 02fb 3bbb 23be 533d cfb0 78bd
00000030: 0db4 64bb 909d 44bd 1657 7e3d fad3 3ebd
00000040: 0a62 61bc 429e e13b 5e6e b3bd 8a98 07bb
00000050: c3b7 0abe b69d 7ebd daea 21be 8dc7 e13c
00000060: 2244 363e 336a 4eba dc6f 6dbd 522e 4dbd
00000070: 9236 2fbe fbcb bc3d b0ed b3bd 5271 a7bd
00000080: 7966 bdbd 380d e73c 8bf2 62bd 34d1 213d
00000090: 6088 d0bd 6d81 eabd c9c9 40bd d333 d5bd
000000a0: 5719 bcbd beb3 25be a2d8 0dbe 0b23 f8bd
000000b0: ef62 07be 8ca9 80bd e140 15be 9df7 a33c
000000c0: cda5 13be 535a c43c a62c bd3d 839e babd
000000d0: 7e3b 233e cd0e 463d 9f0d 41bd 407c 6d3d
000000e0: b170 81bc da38 b93c 11ec f13a f0c9 22be
000000f0: ecb3 9abc b459 2cbd a7e5 253d 65e7 a83d
00000100: 51f9 fdbd f5ae 8cbd f0eb b73b eb77 923d
00000110: 37b6 dabd 87a1 b2bd c6a8 03be 717d 93bc
00000120: 95a9 6bbd 9f42 1e3d e8d5 96bd 5871 bfbc
00000130: 3e29 3bbe 67b3 ebbc f1f8 143e 2544 4dbd
00000140: 360d fa3d 97da 83bc 3cb0 9dbd d919 a0bd
00000150: 89d3 91bc 7351 6bbd 7b77 87bc 2659 a13d
00000160: 6787 643d 9cdc f2bd 05fc 873d b556 19be
00000170: fd65 aebd be34 6ebd db73 f73d 4a45 46be
00000180: 2637 d9bd 51a9 9ebd f146 b43c 99af f0bb
00000190: 4f0d 9b3d 1545 3dbe 7dff 0e3d 8f93 d73d
000001a0: 51b1 9f3d d627 0cbe 33c3 cbbd 5c32 833d
000001b0: 03d6 683d ad72 5ebe c951 a8be 8e9a 36bd
000001c0: a214 12bd 74cf 20bc 08bb cc3d 30ca b8bd
000001d0: 7878 eebc de10 3dbd dc4a 01bc 3395 183a
000001e0: 6d8c c5bd 51e2 acbd a50f 76bd 2b23 3cbd
000001f0: 5153 ef3d ef07 2ebe eba9 073e 9d2d 2bbc
00000200: 5c2a 2dbe 5558 0bbe 3a33 cbbd 8677 2abe
00000210: 7f57 cf3c db42 173e e71a 2f3e 0639 7d3d
00000220: 7d2d 32be 92e4 d4bd 7f55 15be e8ec 843d
00000230: 40ca c8bc 4efd 28be fff8 20be 5da3 1f3e
00000240: dfcc a23d 63c8 f63d 7aa4 14be 9ce5 d83d
00000250: dc93 59bd 9b3d c0bd 9ebe 183e 3a2d 373c
00000260: 1625 ef3d b910 253e 9c23 f6bd b9ff 1c3e
00000270: cd08 313e cb41 34bd 6877 bfbd 3faa 15be
00000280: 9a40 15be 7c5f 293e 506e 2ebd c13d febd
00000290: b221 0ebe 3fba e63d 265b d6bd fbad ad3d
000002a0: 5aea 233e 171d 2f3e 3f55 b63d 290f c03d
000002b0: 457f debc 8c2a 83bd b450 00be 629e 09be
000002c0: f749 04be c521 16be 4b01 dfbd 20c5 173e
000002d0: af62 09be 5075 cd3c d7a2 113d a73c 07bd
000002e0: e3b9 123e 54c6 fbba d9a0 eb3d 13cc eabd
000002f0: 768c 8cbc 9873 4c3c 951f 53bd dfa2 8b3d
-0.12090386 -0.0068561146 -0.0652413 -0.0026602978 -0.06724311 -0.10306985 -0.05017253 0.18345264
0.0817892 -0.0028683548 0.051695 -0.060715493 -0.0034897358 -0.048001826 0.06209477 -0.046588875
-0.0137562845 0.006885321 -0.08761285 -0.0020690286 -0.13546662 -0.062162124 -0.15812245 0.027560974
0.17799428 -0.0007874101 -0.057968006 -0.050093003 -0.1711066 0.09218594 -0.0878557 -0.08175911
-0.09248061 0.028204545 -0.05540709 0.039506152 -0.101822615 -0.11450467 -0.047067437 -0.10410275
-0.09184521 -0.16181847 -0.1385217 -0.12116059 -0.13221334 -0.062823385 -0.1457553 0.020015532
-0.14418717 0.023968851 0.09237032 -0.09112265 0.15940663 0.04835396 -0.04713213 0.057979822
-0.015800806 0.022610117 0.0018457194 -0.15897346 -0.018884622 -0.042077735 0.040502217 0.0824726
-0.12401069 -0.06869308 0.0056128427 0.07151779 -0.10679286 -0.08722215 -0.1285735 -0.018004151
-0.057534773 0.038637754 -0.07365018 -0.023369476 -0.18277451 -0.02877207 0.14548089 -0.050113816
0.12209551 -0.016095443 -0.0769963 -0.0781743 -0.017801063 -0.057450723 -0.016536465 0.07878332
0.055793192 -0.11858484 0.06639866 -0.14974482 -0.085155465 -0.058155768 0.120826446 -0.19362369
-0.10606222 -0.07747138 0.022006484 -0.0073451516 0.07570898 -0.18483384 0.03491162 0.105261914
0.07797492 -0.13687071 -0.09949341 0.0640609 0.056844722 -0.21723433 -0.32874897 -0.04458099
-0.03566421 -0.009815086 0.09996611 -0.09022939 -0.029110178 -0.046158664 -0.007891383 0.0005820572
-0.09645925 -0.08441604 -0.060073514 -0.045931976 0.11685813 -0.16995214 0.13248412 -0.010447887
-0.1691069 -0.13607915 -0.0992188 -0.16647157 0.025310276 0.14771597 0.17100106 0.06182196
-0.17400165 -0.10395159 -0.14583395 0.06490499 -0.024510503 -0.16502878 -0.15719984 0.15589662
0.07949232 0.120499395 -0.14515868 0.105906695 -0.053119525 -0.0938675 0.14916465 0.011180216
0.116769955 0.1611966 -0.12018511 0.15331925 0.17288513 -0.044008058 -0.09348947 -0.14615725
-0.14575425 0.1654033 -0.04258567 -0.124141224 -0.13880041 0.112659924 -0.10466604 0.0848045
0.16007367 0.1710094 0.08902978 0.093778916 -0.027160296 -0.064045995 -0.12530786 -0.13439324
-0.1291884 -0.1466132 -0.108889185 0.14821291 -0.13416551 0.025080353 0.035555687 -0.033016827
0.14328723 -0.0019208887 0.11505289 -0.11464705 -0.01715682 0.012478732 -0.05154379 0.068181746

gru.weight_hh_l0 f4 [192, 64]
00000000: 99e3 4d3b 0c1e 443d ae54 babd c602 1a3e
00000010: 6507 d83d 6613 b7bc 7238 183e 75ee 113e
00000020: 0489 2abd 9859 053d 7686 ad3d 930c f5bc
00000030: 1f76 1b3e f617 c1bd 6e5f 483e 7cc4 643d
00000040: fb93 8fbd c250 24be b580 f3bb 3895 43bc
00000050: 5e54 623d 7f0b 2abd cd0c 2fbe 05af 8f3d
00000060: 3d7e 39be 117f fa3d e475 c33c acd2 65be
00000070: ba01 31bd c337 63bd 6bdb b43d 7481 933d
00000080: 20e8 a63d 96de 22be 8e93 dbbb 058e 6f3d
00000090: 0ef1 043e 71d8 75bd a922 e73d 5f39 bb3a
000000a0: e634 ed3c 623c 063c 0f34 b8bd 4520 a6bc
000000b0: b409 1b3c 7108 d3bc 86fd 013d 1f8f 2e3e
000000c0: 299a 0c3e 98b7 573d 2f5d 22bd f356 d7bb
000000d0: cb90 20bc 0a68 f6bc 1539 21be 7c6a 9d3c
000000e0: 091f e03d 39eb 9f3d c804 253e 7f33 a8bc
000000f0: eaee c73d ca03 123e 4073 583d 1339 63bd
00000100: 14e2 cabd 1398 33bc 49ad fdbd fdf4 cabd
00000110: 423b 943d 023f ccbd fdf7 86bd a54d 24bd
00000120: 922d 0f3e 4c5f cd39 ed8f 62bd 1142 5cbd
00000130: 8c50 a03a e913 0f3c c6ca eebc 6d32 b63d
00000140: 2c62 3c3d 61a4 b03d fac6 debd 9199 39bd
00000150: b2b2 4f3d 7924 cebc 54b0 72bd 52b4 d03d
00000160: 7413 e2bd c9e6 5c3c 49bd 1abd d49c 03be
00000170: da02 2bbe 63e3 97bd d5e4 f13d 241c 313c
00000180: 9f72 f43d 8fbe b03d 3469 8a3d 6f85 0f3e
00000190: 4827 0a3c 01e3 d5bd 70c0 9d3c 12af 4cbd
000001a0: 58bc 133d a3c7 4abe a7a2 93bd 1a0c 71bd
000001b0: d5cf 9f3d 8274 4b3d 3b56 793b 2503 0abd
000001c0: 28d5 ddbd 12af 45bd 1a18 53bc a442 dfbd
000001d0: 3207 5fbe 31ef 5c3d e3ed 59bd 6192 22bd
000001e0: 59c1 0abd 686c 003c 9d86 413e 98cb 0f3d
000001f0: 1b9e 483d b425 1b3e cedc 773d 4990 1e3d
00000200: 90e3 403d 37b8 923d 00ce da3d 7a54 e13d
00000210: 636b 42bc 9f52 44be e19f bc3d 79ab 163d
00000220: 7269 143e 0a0e 1f3d bb7c 513e 4e34 86ba
00000230: e06c 1c3e b0c0 c43d 170c c93c 6c03 303d
00000240: 56a9 86bb d590 813b b5e2 bb3d 9a0d 3fbe
00000250: 2e2b 903b da0b 393d a7ec 113e d146 5ebc
00000260: f451 30be a8ff d2bc e21d cbbc 4cf7 48bd
00000270: 8e29 36bc 5927 03be 80c2 e33d dbda 213e
00000280: 211a cebc f68a 89bd 675e d13d aaf9 da3c
00000290: 6954 113d 87c9 2fbd ec70 543e 4749 0fbe
000002a0: afef bfbc 4a96 73bd e464 843d 7346 1bbe
000002b0: 7b0a c83d d362 4b3c d629 513c 0336 1a3e
000002c0: 6b50 d13d dba8 ec3d 87bd 0e3e 9e0a 71bd
000002d0: 7eb2 b23d 2802 20bd 9a07 8ebd ad41 643d
000002e0: aa4d f03d 01c7 4abd 4d1a ecbd dbbf 7c3d
000002f0: 0064 d3bd d937 f13c ed17 bd3b 4f0c d33d
00000300: c8eb 1d3d 832a 20bd 1259 273e e244 19bd
00000310: 5973 f1bd 403b 72be 14c1 01bd b4ba ddbd
00000320: c5f8 c7bc a50f 6e3d 72b7 e23d 70da e33b
00000330: 9e59 afbc 312f 043d ea50 683e 11b3 70bd
00000340: 3d25 99bb 1a22 ffbd 88c1 2a3e 6dfd 46be
00000350: f8da ca3d 1710 69bd 162d 53be 3817 8fbd
00000360: 04dc c2bd cb08 fabd 5ce6 02bd 578b 9cbe
00000370: 35d1 87bd c4b8 5d3a 17da 88bc 0936 663e
00000380: 4f01 283e 3aaf 6c3d 18e2 74bd 2643 3a3d
00000390: d49c 203c 63c9 b13c 02d2 f83d d545 f2bd
000003a0: e0dd fcbd 1f3b 06be 0dbe bbbc c3c7 f5bd
000003b0: 87e8 f5bc 8f7b 82bc b7e8 dc3d 01ae 153e
000003c0: c47d 883c 4e1f e03d dbb5 ba3d 86d8 20be
000003d0: f087 033c 5877 b53c f63f 89bd ae46 21bd
000003e0: c66a 74bc 5582 8ebd dbbf 6c3c 1bc2 803d
000003f0: 94c5 11bd 58ab 58bd da86 cc3d 1cc7 8d3d
0.0031416176 0.047880217 -0.090981826 0.1504012 0.105482854 -0.022348117 0.14865282 0.1425112
-0.041634575 0.032556146 0.08472912 -0.029913222 0.15181778 -0.09428398 0.19567654 0.055851445
-0.07010647 -0.16046432 -0.0074311146 -0.011937432 0.05525624 -0.04151487 -0.17094727 0.07015804
-0.18114562 0.12231267 0.023859926 -0.22443646 -0.043214537 -0.0554731 0.08830913 0.072024256
0.08149743 -0.15905222 -0.0067009395 0.05848505 0.1298258 -0.060020868 0.11285908 0.0014284066
0.028955888 0.008193107 -0.089943044 -0.02027906 0.009462763 -0.025760861 0.03173592 0.17046784
0.13730682 0.052665323 -0.039639648 -0.0065716445 -0.009800146 -0.030078907 -0.15744431 0.019215815
0.109434195 0.07808537 0.16115105 -0.020532368 0.09762366 0.14259258 0.052844286 -0.055474352
-0.09906402 -0.01096155 -0.12386567 -0.09910009 0.07237865 -0.09972955 -0.06590269 -0.04011311
0.13982227 0.0003917165 -0.05531304 -0.053773943 0.0012231036 0.008732774 -0.029149424 0.08896337
0.04599206 0.08625103 -0.108777955 -0.045312468 0.050707527 -0.025163876 -0.05925019 0.10190643
-0.11038867 0.013482758 -0.037778173 -0.12852794 -0.16700307 -0.074164174 0.11811224 0.010809932
0.11935925 0.08630096 0.06758347 0.14015745 0.008432217 -0.10443688 0.0192568 -0.049971648
0.03606829 -0.19802718 -0.07208758 -0.05884943 0.07803313 0.049671657 0.0038045782 -0.033694405
-0.10831672 -0.048262663 -0.012884164 -0.109013826 -0.21780089 0.05393905 -0.053205382 -0.03969038
-0.033875797 0.007838346 0.18899007 0.03510627 0.048978906 0.15151101 0.06051331 0.03871182
0.04709202 0.071640424 0.10683823 0.11002441 -0.011866423 -0.19172142 0.09210182 0.036784623
0.14493349 0.038831748 0.20457737 -0.0010238977 0.15275908 0.09607065 0.024541898 0.042972013
-0.004109542 0.003954033 0.091741 -0.18657532 0.0043996787 0.04517732 0.14250432 -0.013566689
-0.17218763 -0.025756672 -0.024794523 -0.049063966 -0.011118306 -0.12807979 0.11121082 0.15806143
-0.025158944 -0.06715958 0.10223084 0.026730377 0.03548089 -0.0429168 0.20746201 -0.13992797
-0.02342972 -0.0594695 0.06464556 -0.15163593 0.09767624 0.012413698 0.012766322 0.15059666
0.10220417 0.11555644 0.13939486 -0.058848016 0.08725451 -0.039064556 -0.06935044 0.055726696
0.11733563 -0.04950619 -0.11528454 0.061706405 -0.10321808 0.029445576 0.0057706744 0.10305082
0.038554937 -0.039103042 0.16342571 -0.037419207 -0.11789579 -0.23655415 -0.031678274 -0.108266264
-0.024410615 0.05812039 0.11070146 0.00695353 -0.021405037 0.032271568 0.22687116 -0.05876452
-0.0046736286 -0.12457676 0.16675389 -0.19432612 0.09905046 -0.05690011 -0.20622668 -0.069868505
-0.09514621 -0.122087084 -0.03195797 -0.30575058 -0.066317 0.0008458013 -0.016705556 0.2248155
0.16406749 0.057784297 -0.059785932 0.045474194 0.009803016 0.021702474 0.12149431 -0.11829726
-0.12347007 -0.1310849 -0.022917772 -0.12000992 -0.030018104 -0.015928058 0.10786574 0.14617158
0.016661532 0.10943471 0.091167174 -0.15707597 0.0080280155 0.022151634 -0.06701653 -0.039374046
-0.014918035 -0.069584526 0.014450039 0.06287023 -0.035588816 -0.05289778 0.099866584 0.06922743

gru.bias_ih_l0 f4 [192]
00000000: a472 cbbd 86b0 e1bd 5064 b7bd 6978 ea3c
00000010: ccee 91bc e089 97ba 4018 62be e23a 10be
00000020: b47d 2dbe 6d43 7fbe 3101 633c 6ddb a6b9
00000030: a728 88bd 0040 88be 220f aebd 96a6 f0bd
00000040: 6a75 26bb 6ce4 92be b94d 81bd 5e1f d8bd
00000050: f66d f0bc a232 0bbe 8524 e63d 0a51 01be
00000060: a8b0 8bbd f568 16be d546 62be 2efb d93c
00000070: 8b9b 2ebe f3fe 13be f951 2dbd 9aa9 c0bb
00000080: 60a2 95be d607 73bd f4f5 e53b f259 9abe
00000090: c679 58be e0e8 37bd c5b3 00be 97ed 55be
000000a0: 4d92 48be a2b5 e3bc 0fa6 0cbe 0a39 01be
000000b0: 3d80 b7bd 61d2 7cbd 9503 13be 1052 0ebd
000000c0: 2815 0dbe c258 33be af95 3cbe f6d6 07be
000000d0: 53dc 01be 2b8e 23be 47b1 703c 00ee d03d
000000e0: d386 053d c567 b6bd ea00 d1bd 7938 20bd
000000f0: 9f93 4fbe e9ce 34be 8952 8b3b dcce d1bd
00000100: 081b c3be 0344 92bc 285e d3be 9d1f 3cbe
00000110: 4341 bdbe e035 5ebe 7b4c 09be 8d79 713b
00000120: dd80 80be 9ee2 57be f0e4 16bf e748 da3d
00000130: dac0 4fbf 64f2 d3be cb89 08be fd34 c8be
00000140: 8c88 b9bc aca8 64be 7ea1 8fbe be35 57be
00000150: c479 8ebe 48d4 d5bd b17a 17be 0032 b33a
00000160: b2a2 b1be 7a8c 95be a0bf 94be 3785 00bf
00000170: fbf0 3bbe 153f 603e 4851 49bd 67ff d9be
00000180: dea5 cfbe 98a3 a7be cab7 a2bd e464 08be
00000190: 1441 85bd 6863 07bf 534f 1ebe 6cf6 2bbe
000001a0: fb5d a6bd e5c9 bfbe 9e7b c5bd 1051 36be
000001b0: 5a42 c83d 7bce c2be 39c7 01bf d994 0cbe
000001c0: 75cb 97be 7895 97be dc3d 31be 3833 d8be
000001d0: 5d81 f8be e8d3 a43c 1c52 88be 48e3 27bd
000001e0: e361 a5be 3960 d63c 25fb cdbd 93d4 b0be
000001f0: e18b 15bd bbcf 02bf 32e8 91bd edf5 54be
00000200: 92c2 ae3d 0b79 833d 9aec 853d d85c b33d
00000210: 8682 453d a1e6 133d 4fd3 8fbd 2e53 b33c
00000220: 1184 61ba ec45 823c 4d78 afb9 a87c 20bd
00000230: 9fb0 3ebd eee2 753d 1a3e ed3b 74ed 9abd
00000240: 8c6e 92bb 7eca ef3c 64a3 6b3d 56f6 673d
00000250: 43d4 0cbd cef2 133d 7653 dbbd 8ca3 653c
00000260: 94ac a4bd fb7b 7cbd 596a 303d 6a3b 88bc
00000270: 2291 b43d a873 68bd 8c8c 173c f591 65bd
00000280: a894 793c ba15 c7ba 182d 3c3d 3c80 80bc
00000290: 5e30 f2ba 7104 96bd 8dbc 87bc eeb7 53bc
000002a0: 6475 afbd 8d20 213d ce98 75bd 32f2 763d
000002b0: 3d8b febc 89a6 c13c 13aa e53c bbb8 913d
000002c0: 1271 a03d fb29 ed3c 5741 623d 82d1 d63b
000002d0: 67f7 79bd a621 26bd 1b94 41bc ddda 5b3d
000002e0: c711 4cbd 2672 fbbc 57c4 89bd 6b7f 523d
000002f0: 0f72 81bc c89c 55bd 3656 48bc 9f7e 0c38
-0.09933975 -0.11019997 -0.0895468 0.02862187 -0.017814063 -0.0011561476 -0.22079563 -0.14084962
-0.16942483 -0.24928065 0.0138552645 -0.00031825472 -0.06648379 -0.26611328 -0.0849898 -0.11750524
-0.0025399574 -0.28689897 -0.063136525 -0.10552858 -0.029349308 -0.13593534 0.11237434 -0.1262857
-0.06820804 -0.14688475 -0.22097333 0.02660903 -0.17051522 -0.14452724 -0.042314503 -0.005879593
-0.29225445 -0.059333645 0.0070178453 -0.30146748 -0.21140203 -0.04489982 -0.12568577 -0.20891415
-0.1958706 -0.02779657 -0.13735221 -0.12619415 -0.089600064 -0.06172407 -0.14356835 -0.03474623
-0.13777602 -0.17514327 -0.18416475 -0.13265595 -0.12681703 -0.15972202 0.014690704 0.10201645
0.03259928 -0.08906511 -0.102052525 -0.039116357 -0.20271157 -0.17657055 0.0042517823 -0.102445334
-0.3810656 -0.017854696 -0.41282773 -0.18371435 -0.36963853 -0.21700239 -0.13408081 0.0036846132
-0.25098315 -0.21082541 -0.5894308 0.10658436 -0.81153643 -0.41395867 -0.13333814 -0.39102927
-0.022648118 -0.22329968 -0.28052896 -0.21016595 -0.27827275 -0.1044088 -0.14792897 0.0013671517
-0.3469444 -0.29208738 -0.29052448 -0.5020327 -0.18353646 0.21899064 -0.04914978 -0.4257767
-0.40556234 -0.32742 -0.07945211 -0.13319737 -0.06506553 -0.52886057 -0.15459947 -0.16793221
-0.08123394 -0.3745872 -0.09642719 -0.1780436 0.097782806 -0.38048157 -0.50694615 -0.13728656
-0.29647413 -0.29606223 -0.17308754 -0.42226577 -0.48536196 0.020120576 -0.26625144 -0.040988237
-0.32301244 0.02616893 -0.10057668 -0.3453718 -0.036510352 -0.5109822 -0.07124366 -0.20796938
0.08533205 0.064195715 0.06539269 0.08757943 0.04822018 0.036108617 -0.07022726 0.02189025
-0.0008602748 0.015902482 -0.00033468232 -0.03918138 -0.046555158 0.06003087 0.007240069 -0.07564822
-0.0044687446 0.02927136 0.05752887 0.05663141 -0.034382116 0.03612023 -0.10709278 0.014016043
-0.08040729 -0.061641674 0.04307017 -0.016629893 0.088167444 -0.056750923 0.009249818 -0.0560474
0.015233196 -0.001518897 0.045941442 -0.015686147 -0.0018477549 -0.07325066 -0.0165694 -0.01292227
-0.08567312 0.039337683 -0.05996018 0.06028957 -0.031072253 0.02363898 0.0280352 0.07115313
0.078340665 0.028950682 0.055238094 0.006555737 -0.061026957 -0.040559433 -0.011815096 0.05367552
-0.04982164 -0.030694079 -0.06726902 0.051391046 -0.015801458 -0.05215147 -0.012227586 3.3496526e-05

gru.bias_hh_l0 f4 [192]
00000000: 7336 c1bd c615 8fbd 116e cfbd a36d d8bd
00000010: 2f5e 99bd 88fe 27be 22aa a1bd 4404 4ebd
00000020: bdf0 9fbe 38d8 1fbe 8940 f9bd b84e 8a3d
00000030: 3bed 6abd 4fe4 7dbe 23fa fbbc 3c0a f8bd
00000040: 22dd 1bbe d7aa c1be c62d 85bd d09b e8bd
00000050: 6333 9b3d 235c 5cbe 2c76 1cbc 3617 fcbb
00000060: 0421 6c3c bfa1 f3bd fcf5 3fbe b843 303c
00000070: f0fc 6bbe 777e 893d 6b93 963c 1c38 2fbe
00000080: 37ad 79be b25f bcbd ba0f 05bd c078 22be
00000090: 81d3 dfbd f86b c83d bbb6 7fbe 2426 40be
000000a0: c164 69be 5709 e6bc d939 193d 7ce6 f1bd
000000b0: 318f 533d 1b48 0bbe a402 c93d 6641 abbd
000000c0: 7118 4bbd d1c8 63be 9fd3 20be 83c7 5abe
000000d0: 0343 6e3d 7782 60bd bd24 15be d7fb d13d
000000e0: 1bff 643d 8b6e 29bd 0e98 98be dbca 8dbc
000000f0: 6a7f 78bd c575 443c b658 6fbd 80af e2bd
00000100: 970d b6be 6b25 52be 524a 9dbe eb59 74be
00000110: aad6 b4be 048c 59be 4c3e 37be b8a3 25be
00000120: 6d30 8abe 63de 57be 1ecd 04bf 6364 69bc
00000130: 4c55 4bbf 1d57 55be 2843 7dbe 2314 aabe
00000140: 2d47 f1bd 8716 60be 667e c0be 9a42 b0be
00000150: dc17 ecbe 5dbe 00be 2f97 7abe c806 1bbd
00000160: 696a 77be 28dd e5be 49ed 7fbe a4a9 08bf
00000170: c235 aabe 28e9 7c3e 495e 89bd 4e3c 0cbf
00000180: 83f3 a4be c083 b3be be8c 6dbe d873 12be
00000190: 42ca 2dbe aec8 c4be a346 00bd 407e 4f3d
000001a0: 961b 85be a5bd d3be 3bce dfbd 76b0 e8bd
000001b0: 38be ba3d 4dc7 c6be e64a 08bf a68f 87be
000001c0: ae78 95be ad2f c0be 641c a4bd f1bb 8ebe
000001d0: 0248 ccbe 7694 37be e79f e3be 7a9a 2ebd
000001e0: a3f6 f0be 1fea 32be f7b0 48bd 9f8d 69be
000001f0: 7702 8cbd 229f 13bf 51d5 46bd 05d6 44be
00000200: 40f0 74bd c964 07bd 6fc1 6cbd fe52 eebd
00000210: cb82 ccbd f5c8 5cbd 0799 aabd 191d 00bd
00000220: f10b 85bc 8167 4bbd c745 8bb9 d5de 163d
00000230: c060 bf3d 323f e83c 1082 c4bd d33d 5f3d
00000240: ffd0 7ebd 6bc0 afbc 05b9 eebc c521 4cbd
00000250: f84a 163d 208f debc 5794 693d 646b c4bb
00000260: 7124 0f3e df9b 873c cbd5 1b3d 3880 5a3c
00000270: b2ed 84bd b77a db3d d865 9abc d59d d43d
00000280: 261f 853c bade 5a3b e78d 06bd f931 26bd
00000290: 8a0a 483d 9f91 b13c d500 8bbd 14b1 8fbd
000002a0: 40da a93d dd1b 58bc 140c 323d 78b5 f0bd
000002b0: b291 7f3d 4170 42bd 9480 82bd e7cf 02be
000002c0: 80cc c4bd 7c1f 3f3d 6c42 e2bd 8bc0 cbbc
000002d0: 1da0 a53d df30 c63c 4c3b 853c 0278 93bd
000002e0: 2554 b4bc 0384 d83d b78e 1bbb 05bd 80bd
000002f0: 6e33 8f3d a9f1 bb3d 6477 883c a4e6 30bd
-0.094342135 -0.06986575 -0.101284154 -0.105677865 -0.07488667 -0.1640569 -0.078937784 -0.050297037
-0.31238356 -0.15609825 -0.12170512 0.06753296 -0.057355147 -0.24794124 -0.030758923 -0.12111327
-0.15221074 -0.37825653 -0.06502871 -0.11357844 0.075781606 -0.21519522 -0.009549659 -0.0076931966
0.014412168 -0.11896085 -0.1874618 0.010758333 -0.23045707 0.067135744 0.018380841 -0.17111248
-0.24382482 -0.0919794 -0.0324857 -0.15866375 -0.10929013 0.097862184 -0.2497205 -0.1876455
-0.22792341 -0.028080625 0.037408683 -0.118115395 0.05165023 -0.13601725 0.09814957 -0.08362083
-0.049583856 -0.22244574 -0.15705727 -0.2136517 0.058169376 -0.05481192 -0.14564796 0.10253113
0.05590735 -0.041365188 -0.2980351 -0.017308643 -0.060668387 0.011990969 -0.05843421 -0.1106863
-0.35557243 -0.20522086 -0.30720764 -0.23862426 -0.35320026 -0.21244818 -0.17894858 -0.16175735
-0.2699007 -0.21080928 -0.51875484 -0.014245125 -0.7942703 -0.20834012 -0.2473265 -0.33218488
-0.11781154 -0.21883593 -0.37596434 -0.34425813 -0.46111953 -0.12572618 -0.24471734 -0.037848264
-0.24161686 -0.4489529 -0.24992861 -0.5338385 -0.3324414 0.24698317 -0.067074366 -0.5477952
-0.32217035 -0.35061455 -0.2319822 -0.14302003 -0.16971686 -0.38434356 -0.031317364 0.05065751
-0.2599761 -0.41355625 -0.10928007 -0.11361782 0.091183126 -0.3882393 -0.53239286 -0.26476783
-0.29193634 -0.37536374 -0.080132276 -0.27877763 -0.39898688 -0.17927727 -0.44457933 -0.04262779
-0.4706317 -0.17472123 -0.04899689 -0.2280793 -0.06836408 -0.5766469 -0.048543278 -0.19222267
-0.059799433 -0.0330551 -0.05780166 -0.11636923 -0.09985884 -0.053902585 -0.08329969 -0.03127775
-0.016241046 -0.049659256 -0.00026564134 0.036833603 0.093446255 0.028350446 -0.0959512 0.05450232
-0.062211033 -0.021454057 -0.029140959 -0.049836893 0.03669259 -0.027167857 0.057026234 -0.0059942473
0.13978745 0.016553817 0.038045686 0.013336234 -0.06490649 0.107167654 -0.018847391 0.103816666
0.016250204 0.0033396916 -0.032850172 -0.040575 0.048838176 0.021675883 -0.06787268 -0.07016197
0.08293581 -0.013190237 0.04346855 -0.117533624 0.062394805 -0.047470335 -0.063721806 -0.12774621
-0.09609318 0.046660885 -0.11047825 -0.024872085 0.0808718 0.024193225 0.016263627 -0.07200624
-0.02201278 0.10572054 -0.0023736188 -0.062860526 0.06992231 0.091769524 0.016658492 -0.043188706

gru.weight_ih_l1 f4 [192, 64]
00000000: 97a0 1cbc a7ba 1bbe 4169 303d ee99 bb3d
00000010: 023b ba3d 7c54 1fbe bd2a 193e 9a47 0a3d
00000020: 10ce 17bd 733d 93bc f848 a63d b08b 90bd
00000030: a28f 39bd ca13 e6bc 3c2f acbc e946 883d
00000040: af0a 0f3e fe6a 973d 1ba9 ba3c f91a 9b3c
00000050: c12b f43d 81c1 ebbd 886f a5be 7817 ae3d
00000060: 7776 033d 43cd b93b 46b8 be3c 0c91 9fbb
00000070: 89c5 92bd 5a80 2c3c 69a8 253d 4ee4 dc3d
00000080: 3fd3 d4bd 8b08 a93c 1833 293d ea5d c53d
00000090: 5c59 9f3d 9070 d9bd 25a5 8ebc 8853 173e
000000a0: b5a4 be3d cfe5 46be fc14 febd 30ac 1abe
000000b0: 9778 40bd 83cb e43c 6920 d93d 02ff be3d
000000c0: 0e6d 363e a7e2 ebbd b6d9 603d cfb1 a23d
000000d0: d7d6 5e3a 170e 873c a9c9 9a3d 80d6 8a3b
000000e0: a9bd abbd bce2 673d 8948 0e3e 07be 0abc
000000f0: f73c 8abc 6c34 90bd 3606 e03c 7ecb 083e
00000100: 53a1 a5bd 4de8 08be eeb3 ccbc 73bc 37bc
00000110: 6cd7 c3bd 468a aabd 89f3 0c3e bd93 993d
00000120: ad4e 033b 2de1 453c 6396 99bd a556 c33d
00000130: f6e4 ab3d 8991 8ebd f457 aa3d 3ff1 083e
00000140: 7fcb 033e d82c 6c3d 294b 7fbd 6251 823d
00000150: 6b69 0b3e fcbe 04be 3a51 01be 4047 f4bd
00000160: 3469 6f3d 65aa bf3d c36f 17be 464b 003b
00000170: b9fd a8bd 9eb9 c2bd d411 3fbd 81d3 963d
00000180: 442a 3abd 46f7 0b3d f855 d43d 266e a63c
00000190: 08f8 8ebd 3709 24bd 3c3b 9ebc c6b7 9a3d
000001a0: e397 4e3c 5ede ecbb 9769 99bd bd74 27ba
000001b0: 98f3 bc3c a4d3 b0bd d5fe 3c3e 64ee e9bd
000001c0: 7734 cdbd 31ed d6bd 05a3 bcbd 9b36 61bd
000001d0: 3451 313d caf1 8f3d f607 8bbc 4780 cebc
000001e0: b3d9 b6bd beb7 6f3d 87f1 173e 43dd e43a
000001f0: 5563 de3d 651d 633c 1aa2 90bc d846 d43c
00000200: 5322 cfbd 74df 7c3d 0417 053e b72f af3d
00000210: 446f ce3d 4e7b 0cbe 9952 fdbc 9fc1 e6bd
00000220: 3e13 f03d a585 adbd 77e0 f03c bd66 bb3d
00000230: 0aca e43d da54 d1bc bf3d df3d 4017 06be
00000240: 7abd 513d c227 31bd 1196 613d aee4 00be
00000250: 0863 523d 78d3 b93d 2862 d1bc e146 c3bd
00000260: 014a 22bd c745 e63b 1cd5 a73d 4dff 3cbe
00000270: b5ad 45bd 5274 05be 23fd 3f3d c9c3 023e
00000280: eb7c cf3c cbc3 e23c f691 543d d2cc 053d
00000290: c4ea dcbd 87a7 90bc e4dc 0f3e 0e36 80bd
000002a0: 6dce 6ebc 82f9 5d3d 1a1b 7e3d fdbe dabd
000002b0: 655b dabb 39e7 3d3d 2b0f 25bd 0536 f93c
000002c0: 2a68 adbd 3c2b b5bd 2527 8c3d dd62 babd
000002d0: 3a0c 093e 8c4d a53d e659 bd3d d578 de3d
000002e0: 1d7b 503d 895f 33bd 620b 58bc ea71 2fbd
000002f0: c1a9 8dbd c709 123d 1241 af3b 9e29 95bd
00000300: bbfd 1f3d f58a c3bd 7c2d 9cbd ab6a b43d
00000310: 2d8d 813d 46bf acbd af3c d339 4b80 5c3d
00000320: 9ffe 0f3e 1c37 3c3d eaea 5b3d 203e 073d
00000330: 69a4 20bd 202a bcbd 4db6 1abc f286 0b3e
00000340: bacc a73d db8f f5bd cd28 ac3d bb25 08bd
00000350: 251d eb3c 0a4b c03d 3d4c a13d 36ff b5bc
00000360: 5d02 e9bd 6e4e c6bc 2452 92bd 5c59 c8bd
00000370: 7367 f9bd 2da6 51bd 75bd 823c 9a04 47bd
00000380: 5598 e73d 73fc 0dbd 268f 9b3d 7b72 4d3d
00000390: f34a 613a 0ead 1d3d eb11 683d d8cb 3f3c
000003a0: 5bfa 4c3d c30d 97bd 20e2 43bd 2709 b23c
000003b0: de4e 46bd 727c a6bc a660 7bbd 1851 b13d
000003c0: 078e 153c 938b c93d a0ab 21bc 5469 043d
000003d0: 9be3 10be 4679 693d 9698 88bc 95a9 083e
000003e0: 89e3 d13d ed77 80bd 0cf7 17bc 2eb3 c7bd
000003f0: 4bf0 b3bd ca6e 29bd b673 34bd 1fd1 f0bd
-0.009559772 -0.15207921 0.043069128 0.09160219 0.09093286 -0.15559572 0.1495771 0.03375969
-0.03706175 -0.017973637 0.081193864 -0.07057893 -0.045302995 -0.028085608 -0.021018617 0.0665415
0.13968919 0.07393454 0.022785714 0.01893376 0.11922408 -0.11511517 -0.32311654 0.0850057
0.0320954 0.005670221 0.023281228 -0.004869586 -0.07166583 0.010528648 0.04044381 0.10785733
-0.103918545 0.020633956 0.041308492 0.09637053 0.07780716 -0.10617173 -0.017412731 0.14777958
0.09308759 -0.19423603 -0.12406346 -0.15104747 -0.046990003 0.027929073 0.10601885 0.09325983
0.17815039 -0.1151784 0.054895125 0.079440705 0.00085006416 0.01648621 0.07557995 0.004236996
-0.08385784 0.056612715 0.13894857 -0.008468158 -0.016874773 -0.07041249 0.027346712 0.13358876
-0.08087411 -0.13369866 -0.02498814 -0.011214363 -0.09562573 -0.08327155 0.13764776 0.07498882
0.0020035908 0.012077612 -0.07499387 0.095380105 0.0839328 -0.069613524 0.08317557 0.13373278
0.12870596 0.057659954 -0.062327538 0.06363179 0.13614433 -0.1296348 -0.12628642 -0.11927652
0.05844994 0.09358672 -0.14788727 0.0019576116 -0.08251519 -0.0950806 -0.04664786 0.0736456
-0.045450464 0.034171365 0.1036796 0.020316195 -0.06980902 -0.04004785 -0.019315355 0.07554583
0.012609455 -0.0072286567 -0.07490843 -0.000638794 0.023065373 -0.08634117 0.18456586 -0.114224225
-0.100197725 -0.104944594 -0.09210781 -0.054983716 0.043290332 0.070285395 -0.01697157 -0.025207652
-0.089282416 0.05852484 0.14838229 0.0017460961 0.1085879 0.013861989 -0.017655421 0.025912687
-0.10113969 0.06173654 0.12997061 0.08554023 0.10079816 -0.13718912 -0.030923175 -0.11267399
0.1172242 -0.08472756 0.029403908 0.09150455 0.111713484 -0.025553156 0.10900449 -0.13094807
0.05120609 -0.043250807 0.055074755 -0.12587234 0.051363975 0.090735376 -0.0255595 -0.095350035
-0.039621357 0.007027361 0.08194944 -0.18456765 -0.048261363 -0.13032654 0.04687227 0.12769999
0.02532812 0.027681252 0.05189701 0.032666035 -0.107869655 -0.017658008 0.14049107 -0.0626031
-0.014575583 0.054193027 0.062037565 -0.106809594 -0.006663727 0.04636309 -0.04029767 0.030421266
-0.08467133 -0.08846137 0.06843404 -0.09100888 0.1338357 0.080714315 0.092456624 0.10862891
0.05089866 -0.04379228 -0.013186308 -0.042833246 -0.069171436 0.035653856 0.005348333 -0.072833285
0.039060336 -0.09547988 -0.07625863 0.08809408 0.06325755 -0.0843492 0.0004029027 0.053833287
0.14061974 0.045950994 0.05369083 0.03301823 -0.039219294 -0.09187722 -0.009442878 0.13625696
0.08193345 -0.11990329 0.0840622 -0.033239108 0.02870042 0.093893126 0.078758694 -0.02221642
-0.11377404 -0.02420732 -0.07144573 -0.09782669 -0.121779345 -0.05118387 0.01595948 -0.048588373
0.11308352 -0.034664582 0.07595663 0.050158005 0.0008594237 0.038495116 0.056657713 0.011706315
0.050043445 -0.07375672 -0.04782307 0.02173288 -0.048415057 -0.020323012 -0.061371468 0.086580455
0.0091281 0.09841075 -0.009867579 0.03232701 -0.14149325 0.05700042 -0.016674321 0.1334594
0.10248477 -0.06272874 -0.009275209 -0.09750973 -0.087860666 -0.041365422 -0.044055663 -0.11758637

gru.weight_hh_l1 f4 [192, 64]
00000000: 9248 5f3d f829 1a3d 0790 023e f9ee 78bd
00000010: a087 19be c8fe 89bd b4c2 893c 181c 63bc
00000020: 158b f53d c1b4 8c3d 0fcc 8bbd 74d1 f83d
00000030: 8be6 52bd 9838 ba3b b3fa 97bd e66a 0a3d
00000040: d181 cc3d 7c3e afbc 97cd 973d d83b c4bd
00000050: dda5 e43b 4ede 0cbd dbe3 8f3c e73e 893d
00000060: 4c36 363c 9352 0bbe 6c85 733d 919d a2bd
00000070: 2514 c73d 9ea0 cabc 3b0c 283d 609d 223e
00000080: 4dd9 373d c7eb 2dbc 852c 00be b2f1 113e
00000090: 0e6b cfbd fd7c c43d 90a3 0d3e 0a59 013d
000000a0: e459 d03d fdb0 ec3d 912f 70bc ae5b d13d
000000b0: 4a56 b03d a4fc a5bb 68bc 3d3d 8df4 f13a
000000c0: f6b0 f93d 6753 cbbd fb84 21be 252b 3b3c
000000d0: 9aeb dd3c 4fe6 12be 5e89 f8bb 88ca 223d
000000e0: 331f 18bd 029b b93d 0a90 933c d3e6 89bc
000000f0: 0a7e 103e 1d7b 673c ae37 f3bd 5bc6 e8bd
00000100: de3a 9b3d 7a1a 8e3c 7efe 5e3d fff2 21be
00000110: 3137 ed3d f97b 8c3d 936b 1a3d 1d60 c73d
00000120: ed35 47bc 88f0 a43d 47d1 463d ee41 383d
00000130: c758 ea3b 9254 50bd a5d3 0a3e 0218 db3c
00000140: a03b e8bc cabc 813d 8ab0 1f3e c565 21be
00000150: 65a5 673b ef30 ebbd 7f9b 3fbe 8ef4 84bd
00000160: 2532 b3bb b485 20be 9a4b 8d3c 86a4 1bbe
00000170: f0fa b13d 70fa c0bc ab65 053e 514c 4d3d
00000180: 2b1e 95bd 5352 5d3e e61b fb3d bec4 193e
00000190: 004c 003e c515 6eba e281 b83d eaf9 45be
000001a0: 7cf0 363e 11c8 283e a908 ddbd bc2d 7f3e
000001b0: f585 663e a72b 85be 57ed 7f3b ec7f 093d
000001c0: 2eb1 b33d dacf b3bc c352 febd b6e4 d4bc
000001d0: 1e03 37bd 299d 7dbd 0a16 53be 549d 113c
000001e0: 5901 293e 67eb bcbb 09e0 3bbe b96d fc3d
000001f0: d584 08bd 1405 113b ceb0 5cba 2c09 1abe
00000200: d1d9 8d3d 3f7d a43c 1e0e a83c 831b 0ebe
00000210: 4161 9dbc 625e 763d 85f2 a23d f656 f73d
00000220: 802d c7bd 1b92 7b3c d980 0cbd 4cce f8bd
00000230: 5576 1c3d 763b 9c3d cdc8 403c d8c6 c03d
00000240: c46b d23d dec4 763d 42ec b93d fe04 253d
00000250: a76d 133d 2c21 b43d 080b a13d b612 74bd
00000260: 3f7e 66bc b2a9 d93c afa5 e53b f45c 023d
00000270: 92b2 f9bc 5301 b73d 916d bf3c 1d68 44bd
00000280: d3ea 2ebd 3736 bd3c af55 61bd 1f13 323d
00000290: ddf2 0e3e 10a3 d9bd 63a0 b93c 6393 a63c
000002a0: c5ee ccbb 3cc6 8c3c 586a 2bbe cec8 203e
000002b0: 56bd e93d 7ebd fbbc 5a5d 203c 5bd9 4cbc
000002c0: d9f6 093d 94fd 703d 6683 88b8 fcd5 f33d
000002d0: 5504 e43c 0d33 36be 07dc bbbb 10a2 eabd
000002e0: 5797 32bb bb88 15be f173 813c 69df 103d
000002f0: d639 943d 277f c23a 0080 c8bc 0758 243d
00000300: d356 103e ceb1 af3c cd26 a53d 9cde 1d3e
00000310: cd53 293e 9e5d 293e 1f20 eebd eefd 64bd
00000320: 55cb d3bd 4ddb 94bd 0d54 30bd 12cc 46bc
00000330: 8254 65bd bb11 b3bd ab66 e53c 598a 5fbd
00000340: cd1e af3d 577a 20bc 6b93 5f3c 705e 11be
00000350: 62e9 6dbd e8d4 babd 98d7 13be 9bbf 693d
00000360: c589 043e 10d0 eabc 7bc9 933b 6753 753d
00000370: 8fa3 f63d 13d4 093c 070a 20be ac0e 58bd
00000380: 45ba 5cbc f41e 67bc cdde 733c 1f64 b23d
00000390: bc12 1ebd 1f2e efbc 1727 bfbc daf1 063e
000003a0: 5aa8 94bd 594a 10bd 8ac8 8f3d 13d5 7d3c
000003b0: 2c07 363b 52a8 e0bc 0882 2bbd bde0 d53d
000003c0: 3a40 0f3e 31e0 be3d aa17 9a3a 6361 b4bc
000003d0: d6cc 483d 7d69 e9bc ce19 fabd cad5 8f3a
000003e0: bc2e 2f3e 84c5 2c3d 56c6 363c 4e63 b63d
000003f0: c01e b13d 98e5 823d 971d 46bd ad2a 523d
0.054512568 0.03763768 0.12750255 -0.060774777 -0.14993143 -0.06738049 0.016816474 -0.013861679
0.119894184 0.068704136 -0.068260305 0.12149325 -0.051489394 0.005683016 -0.07420864 0.033793353
0.09985698 -0.0213921 0.0741226 -0.09581727 0.0069777803 -0.034391694 0.017564705 0.06701451
0.011121344 -0.13605718 0.059453413 -0.0794021 0.09720639 -0.024734791 0.04102729 0.15880346
0.04488497 -0.010615296 -0.12516983 0.14252356 -0.10127841 0.09594152 0.13831925 0.031579055
0.10173395 0.11557195 -0.014659778 0.10222565 0.08610208 -0.0050655175 0.046322256 0.0018459723
0.12191956 -0.09928017 -0.15773384 0.011423861 0.027089883 -0.14345668 -0.007584735 0.03974393
-0.03713913 0.090627685 0.01801302 -0.016833698 0.1411058 0.014128474 -0.118758544 -0.11365958
0.075795874 0.01734661 0.05444192 -0.15815352 0.115827926 0.068595834 0.037700247 0.09735129
-0.012158853 0.0805369 0.048539426 0.04498475 0.0071516964 -0.050861903 0.13557298 0.026744846
-0.028348744 0.06334837 0.15594688 -0.15761478 0.0035346386 -0.11483943 -0.18711661 -0.064919576
-0.005468624 -0.15676004 0.017247964 -0.1519948 0.08690441 -0.023556918 0.13027065 0.05012161
-0.07281145 0.21613435 0.122611806 0.15016457 0.12528992 -0.00090822234 0.09009148 -0.19333616
0.17865175 0.1648257 -0.107926674 0.2491979 0.22512038 -0.26009867 0.0039051378 0.03356926
0.08774029 -0.021949697 -0.12418129 -0.025987964 -0.044680707 -0.061917458 -0.20613876 0.008887608
0.1650442 -0.005765367 -0.18347181 0.123256154 -0.033329803 0.002212827 -0.000841868 -0.15042561
0.06926311 0.020079253 0.020514544 -0.13877682 -0.019211413 0.060148604 0.07956413 0.12077133
-0.09725475 0.0153546585 -0.034302566 -0.12148723 0.038198788 0.07628529 0.011766625 0.094129264
0.10274461 0.06024634 0.09078266 0.040287964 0.035993244 0.087953895 0.07863432 -0.059588157
-0.014068185 0.026570175 0.0070082764 0.03182693 -0.030480657 0.089357994 0.023367675 -0.047950853
-0.042704415 0.02309714 -0.055013355 0.043475267 0.13959832 -0.10626805 0.022659486 0.020333951
-0.0062540495 0.01718437 -0.16739786 0.15701601 0.11413066 -0.030730005 0.009787882 -0.012502993
0.033682678 0.05883558 -6.50946e-05 0.11906049 0.027834097 -0.17792912 -0.0057330164 -0.11456692
-0.002725085 -0.1460294 0.015802355 0.03536931 0.07237594 0.001483892 -0.024475098 0.040123012
0.14095621 0.021447089 0.08064041 0.1541695 0.16535874 0.16539618 -0.1162722 -0.05590623
-0.10341517 -0.07268391 -0.043048907 -0.012133615 -0.055988796 -0.08743616 0.028003057 -0.054575298
0.08550797 -0.009794793 0.013645987 -0.14196181 -0.0580839 -0.0912264 -0.14437711 0.057067495
0.1294318 -0.028663665 0.0045101023 0.05989399 0.12042915 0.008412379 -0.15628825 -0.052748367
-0.0134721445 -0.014106501 0.014884663 0.08710503 -0.038592085 -0.029196797 -0.02333407 0.13178197
-0.07258673 -0.035227153 0.07020672 0.015492695 0.002777527 -0.027424011 -0.041872054 0.10443256
0.13989344 0.09320105 0.001175632 -0.022019094 0.04902347 -0.028492684 -0.12211953 0.0010973748
0.17107671 0.042180553 0.011155685 0.089056596 0.08648443 0.06391448 -0.048368063 0.05131023

gru.bias_ih_l1 f4 [192]
00000000: bcf2 f5bd 51a3 5dbe 4c88 ffbd 1d42 b5ba
00000010: 8ac7 b3bd b596 dc3c 4162 923d 1d68 56be
00000020: b37a de3d 36c0 59b9 fc7a 39be 3da5 8fbc
00000030: cb71 a0bb f514 2c3d 4bec 9f3c 97d9 84bc
00000040: 0d5f 13be aa6f a9be 58b7 9fbd 9afd 203c
00000050: 61b7 bdbd 832e e8bb 1770 5f3c a8b8 ddbd
00000060: aab5 ffbc 9e0b 9cbd c60a 183d 08b1 5a3d
00000070: 0860 9ebd b07c 41bd b531 293e 0d08 a2bd
00000080: a326 cf3c a634 3bbd bfae e83c 332f 37be
00000090: a88e dfbc 47df b1bd eb6f 1abe f468 bfbb
000000a0: 8efe dcbd 9356 05be a6b4 a83b d1cd 28be
000000b0: 5bb6 86be c194 8e3d 66d4 21be 1996 00bd
000000c0: b7f7 74be 77a3 eebc 87b2 063d 4eb5 2ebe
000000d0: bfcd 363c f2e5 c6bd 5de3 07be 5187 b3bc
000000e0: 0953 f73d 7bd9 efbc b83b 223e fa33 a5bd
000000f0: 8016 15be 38fc 19be e138 343d 38de 9abd
00000100: e2de 36be 48b6 a4be 0a45 db3c f014 bebd
00000110: 7267 1fbe b19e 0ebe 07ba 9ebe e980 36be
00000120: ecff 6fbe cf89 f9be caa3 3ebe 6441 d9be
00000130: e018 9ebe 733f bcbe 5ced 45be a162 33be
00000140: 41b9 f7bd 529f 09be a642 c8be f0fe 8abe
00000150: bbd7 bbbe 22a3 f8be ba37 05bf 63be c0be
00000160: 8c08 c4be e0b9 483e 6540 18be 1bc3 d4be
00000170: 7063 243d 68a9 01bf b10c 82be 6efa b1be
00000180: 6bbd 12be 81e4 24bf 539c bdbe 634c cebe
00000190: 383b a2be 2f1a 52be 8db3 d4be 2afd 843d
000001a0: 74ed a03d 0eaa 27bd 9265 85be e0e0 34be
000001b0: f45a acbe 8652 e6be 4013 8bbe 062e 04bf
000001c0: 131c dabe e95d bdbe 9a86 b1be a783 91be
000001d0: 0ea0 bfbe 0e40 5dbe cab5 e1bd c966 e5bd
000001e0: 5d8a 9bbe 6426 a7be e617 28bf a506 8dbe
000001f0: 74ae bbbe 1e9f 473e c79b b5be c4d9 60bd
00000200: a45a 50bc e5ff 353d bfa6 013c 2478 8a3c
00000210: 0003 a13d 5217 edbc 4d6d a43c 624c 353c
00000220: 8a7a e83c fff7 ac3d 81e2 87bc aae9 b33d
00000230: 0787 003b b84f 423d 347c 543d 3c3a 34bb
00000240: e150 a83d 7497 853d 52cf c9bd e9b0 4bbb
00000250: e93c ac3c f5eb d1bd 55a2 7f3a 9016 44bd
00000260: 3741 92bd 1ec9 933d fe2e dabc 1f61 cf3c
00000270: a23d 983d 62de f8bc 6039 973d 2054 0cba
00000280: b515 d63c 9b7a 81bd d928 793d aa16 c5bd
00000290: cb71 26bc bcf5 e5bc e1a8 adbd ea78 7a3d
000002a0: 8a77 783d 9a63 0d3c 2710 fcbc 8b5b 8dbc
000002b0: 0595 4ebd 0929 663d df85 c23d c3a0 0b3c
000002c0: 3440 593d e83d dd3c f6b4 e33d 34e3 0abd
000002d0: f235 413a f184 8b3d 111e 9cbd 9c42 48bd
000002e0: b730 abbd 111e 9fbc 83f6 d73c d4d7 663d
000002f0: 0905 303d 86b9 93bd 6c1d 9e3d 6607 913d
-0.120091885 -0.21644332 -0.124771684 -0.0013828907 -0.087782934 0.026927331 0.07147647 -0.20938154
0.10863247 -0.00020766337 -0.18113321 -0.017534846 -0.0048963777 0.042012174 0.019521853 -0.016217036
-0.14391728 -0.33093005 -0.07798642 0.009826088 -0.092634924 -0.0070856228 0.013637564 -0.10826236
-0.031214554 -0.07619403 0.03711965 0.053391486 -0.0773316 -0.047238052 0.16522868 -0.07911692
0.025286978 -0.045704506 0.028403638 -0.17889099 -0.027289703 -0.08685165 -0.15081756 -0.005841369
-0.1079074 -0.13021307 0.005148488 -0.16484763 -0.26311 0.06961966 -0.1580368 -0.031393144
-0.2392262 -0.02913068 0.0328851 -0.1706135 0.011157452 -0.09711827 -0.13270326 -0.02191511
0.120763846 -0.029278507 0.15843093 -0.08066554 -0.14559364 -0.1503762 0.043999556 -0.07561916
-0.1785846 -0.3217032 0.026766319 -0.09281337 -0.15566805 -0.13927723 -0.31001303 -0.17822613
-0.2343747 -0.48737952 -0.18617168 -0.42432702 -0.30878353 -0.36767158 -0.19328827 -0.17518093
-0.12095881 -0.13439682 -0.3911335 -0.27147627 -0.36688027 -0.4856196 -0.52038157 -0.37645254
-0.3828777 0.19602156 -0.14868315 -0.41555104 0.040133893 -0.5064912 -0.25400308 -0.34761375
-0.1433007 -0.6441117 -0.37033328 -0.40292653 -0.31685805 -0.20517801 -0.41543236 0.064936
0.078577906 -0.04093366 -0.26054054 -0.17663908 -0.33663142 -0.44984835 -0.27163124 -0.51632726
-0.42599544 -0.3698571 -0.34673005 -0.28420755 -0.374268 -0.21606466 -0.11021002 -0.11201245
-0.30379 -0.32646477 -0.65661466 -0.27544132 -0.36656535 0.19494292 -0.3547041 -0.054895177
-0.012716923 0.044433493 0.0079132905 0.01690299 0.078619 -0.028941784 0.02007165 0.011065574
0.028378744 0.08445739 -0.016587498 0.08784802 0.0019611733 0.047439307 0.05187626 -0.002750053
0.082185514 0.06523028 -0.09853996 -0.0031080788 0.021025138 -0.10250083 0.00097516674 -0.04787308
-0.07141345 0.072160944 -0.026633736 0.025314866 0.074336305 -0.030379478 0.0738399 -0.0005353112
0.026133398 -0.06322213 0.06082997 -0.096234635 -0.010158966 -0.028071277 -0.08479477 0.06115047
0.060660876 0.008629704 -0.03076942 -0.017255565 -0.050435085 0.056191478 0.0949819 0.008522215
0.053039744 0.027007058 0.111185 -0.033908084 0.0007370404 0.06812466 -0.07622922 -0.04889165
-0.08358901 -0.019423516 0.026362663 0.056358173 0.042973552 -0.0721312 0.077204555 0.07081489

gru.bias_hh_l1 f4 [192]
00000000: 3ba4 1fbe 8b1b b6bd 3748 8cbd 76a7 efbc
00000010: 2409 9c3b 8d2c e7bd ca8f 8fbd 6711 babe
00000020: 4b24 c3bd 6713 bd3c a344 15bd 8944 00bd
00000030: 2d1f 0cbe 2226 7bbc e845 19be db56 35be
00000040: 6062 a4bd 8d7f 59be f45a debc 3b99 25be
00000050: 3cb0 e73d 17c0 95bd 90fd 32be f88c 60be
00000060: b181 73bd 0f42 07be 6644 b9bd 986d d6bd
00000070: aa73 913d ca27 20bd a6f5 40bd ab64 a1bd
00000080: 7e1a 8cbd 37c6 cdbd 9f1f b33d baa2 79bd
00000090: bc40 8abd 9c16 d13c d23b 9cbd 9d39 e1bc
000000a0: ae01 d3bd e0ce 16be 722e 013e 6d23 82bc
000000b0: 0586 96be 050c c0bb abda adbe a505 b2bd
000000c0: 0aac a4bd f9ae f53c fd7c a0bd 9ce0 2abd
000000d0: da4a b43c 1a31 ebbc cb7b 90bc 8c4c b4bd
000000e0: 87c8 5f3d fccc 2bbd f000 a53d 436d 803d
000000f0: 38f8 803b 95cb acbd cc94 6b3d 9463 3cbd
00000100: 02ca 93be 1824 94be 458a 393b f770 57be
00000110: e9d2 cebb 3ed0 e1bd 2cb5 8abe 4a39 10be
00000120: 7b4b 35be d2f1 d0be 7a13 38be 11c0 e0be
00000130: 11d5 adbe d673 b7be 9fd2 5abe 91bb 74be
00000140: e443 15be 813b 3fbe 0512 e2be dcce bbbe
00000150: 918a 87be 4b62 cbbe 4b89 c4be 59d9 d6be
00000160: 2248 94be d0bf ef3d 21b8 52be 36b9 93be
00000170: f36a 6dbd 8bac 00bf f54e 6abe 47d3 b0be
00000180: 518f 38be 87b2 ebbe 74b9 cfbe 7b89 e0be
00000190: 15b8 86be 0f2a 63be 2971 e0be 3202 d5bd
000001a0: ff6b ca3d 30cb 1dbd 84cc 8dbe dfcd fbbd
000001b0: 523c 81be fea0 abbe 6e27 8cbe 5adc 1fbf
000001c0: 8033 8abe 28c6 d4be da9d a4be 1744 47be
000001d0: 87b9 aabe 3e0c 91be b9b5 3cbe 831b ebbd
000001e0: 8da5 b9be ad2d 80be d0bd 05bf 858e 6fbe
000001f0: 9951 93be b574 293e 0101 cebe 194a 64be
00000200: 12b8 263c 0406 0fbe 61b3 d53c e82b b037
00000210: fb6b 07be 2fb9 5b3c 6e6a 813d 4814 c53c
00000220: 4ee8 a53c 57a6 e3bd e11e e3bd a33b 82bd
00000230: 0249 a83d 09f7 773d b691 da3b ea0b 9e3b
00000240: ea9d ecbc d232 233a 6468 c73d ffe0 8b3d
00000250: 62ac 2b3d c875 913d 452d 4b3d 4247 493c
00000260: 2a7d 0b3e e131 083d ae0b 4f3d bf61 a0bd
00000270: 8a1a 0fbe e188 0a3d 7ece 8e3b f394 c2bd
00000280: 221a 0cbc 01a7 673d 8d54 283d 23d3 c5bc
00000290: d04d de3d cee3 36bd 8aa0 b63c 6e4a c3bd
000002a0: 171e d1bd fd65 0fbd 4afa 5e3c 82d3 cdbd
000002b0: 4094 09bd 1b84 263d 17e9 863d 3afc 9e3a
000002c0: b206 f7bd 22eb 94bd 095d c0bd 07e5 b53d
000002d0: df94 263d c3dd 2b3d c3d2 6c3d e9a6 193d
000002e0: fd3e 123e debf 003d c25b 5a3b 1148 70bb
000002f0: cb14 b5bd 67f2 0a3d 341e b3bc a629 dc3d
-0.15589993 -0.08891972 -0.068497114 -0.029254656 0.004761832 -0.11287794 -0.070098475 -0.36341402
-0.09528407 0.02308054 -0.03644241 -0.03131536 -0.13683768 -0.015328916 -0.14968073 -0.17708914
-0.08026576 -0.21240063 -0.02714298 -0.16171734 0.11312911 -0.07312029 -0.17479539 -0.21928775
-0.059449855 -0.13208793 -0.09046249 -0.10470122 0.07102139 -0.039100446 -0.04710927 -0.07880529
-0.068409905 -0.10047572 0.087462656 -0.060946204 -0.06750628 0.025523476 -0.07628597 -0.027493292
-0.10303055 -0.14727354 0.12615374 -0.015886033 -0.29399124 -0.005860808 -0.33955893 -0.08692483
-0.08040626 0.02999066 -0.078363396 -0.04171811 0.022008348 -0.028709937 -0.017637154 -0.08803663
0.054634597 -0.041943535 0.080568194 0.0627084 0.00393584 -0.08437268 0.05751495 -0.045993403
-0.28865057 -0.28933787 0.0028311175 -0.21039186 -0.0063117635 -0.11026047 -0.27091348 -0.14084354
-0.17704575 -0.40809494 -0.1797618 -0.43896535 -0.3395162 -0.35830563 -0.21369408 -0.23899676
-0.1457668 -0.18675043 -0.44154373 -0.3668126 -0.26472905 -0.3972343 -0.38385996 -0.41962698
-0.28961283 0.11706507 -0.20578052 -0.28852242 -0.057963323 -0.5026328 -0.22881682 -0.34536192
-0.18023421 -0.46034643 -0.40571177 -0.4385489 -0.26312318 -0.22184013 -0.43836334 -0.10400809
0.0988388 -0.038523853 -0.27695096 -0.12295126 -0.25241333 -0.33521265 -0.27373832 -0.62445605
-0.26992416 -0.4155743 -0.3215168 -0.19459568 -0.3334467 -0.28329653 -0.18428697 -0.11479857
-0.36259118 -0.25034848 -0.52242756 -0.2339421 -0.28773192 0.16548426 -0.4023514 -0.22293891
0.010175722 -0.13967139 0.026086511 2.100128e-05 -0.13224785 0.01341085 0.06319128 0.024057522
0.020252373 -0.11115711 -0.11089874 -0.06359031 0.0821705 0.060538325 0.006670202 0.0048231976
-0.028883893 0.00062255294 0.09736708 0.06830024 0.041912444 0.07102543 0.04960372 0.012285056
0.13621965 0.033250693 0.050548248 -0.078311436 -0.13974968 0.033821944 0.004358112 -0.09501066
-0.008551152 0.05655575 0.04109626 -0.02414853 0.10854685 -0.044650845 0.022293348 -0.09535681
-0.10210817 -0.035009373 0.013609478 -0.100501075 -0.033588648 0.04065333 0.06587427 0.0012129613
-0.12061824 -0.072714105 -0.09392745 0.08881574 0.04066932 0.041959535 0.057818186 0.037512694
0.1428184 0.03143298 0.0033318852 -0.0036664049 -0.088418566 0.03392258 -0.021864988 0.10750131

fc.weight f4 [1, 64]
00000000: 9788 9bbd e11b dfbd 3f5a 9dbb 26ee 3a3d
00000010: 95a4 65bd a8b1 f8bc 7539 c23d 0af6 13be
00000020: f29c 1b3e 8c16 efbc 0bbe 17be 4f01 0b3d
00000030: f399 7f3d 9014 00be bc90 5bbd 592f 1d3e
00000040: f987 ddbd d6ca 21be f085 07be 3fa6 d13d
00000050: 817f e9bd c32d f93d 8937 143e 1310 043e
00000060: 65ed 9cbd ad26 0c3d d4d8 b33c 3639 483e
00000070: 731a babc fa65 87bd 6ca5 e43d 8581 02be
00000080: eb29 5f3d a4c1 5cbd d884 cebd e73f 05be
00000090: 6fda dcbd 5890 ec3d ba13 24be 400b 823d
000000a0: 4c1f acbd 394d 33bd 8f47 cf3d 3833 6bbd
000000b0: 03b9 15be 7ec1 0b3e fd9a 14be 2905 bfbd
000000c0: 3dbe 25be 1d66 5ebd 76df c13d 8e58 06be
000000d0: 864c 6f3d 1c55 f93d 04ad eb3d 6a96 ca3c
000000e0: 7412 9dbd 8cc5 c53d 0bbe e53d ce04 01be
000000f0: 1a28 20be 15de ef3c e958 12be 6b59 1e3e
-0.07594412 -0.10893989 -0.004802018 0.045637272 -0.05606516 -0.03035815 0.09483615 -0.14449325
0.15196589 -0.029185556 -0.1481859 0.033936795 0.062402677 -0.12507844 -0.053604826 0.15350093
-0.1081695 -0.15800032 -0.13234687 0.10236787 -0.114012726 0.121669315 0.1447431 0.12896757
-0.07662467 0.03421657 0.021953978 0.19553074 -0.02271769 -0.06611247 0.11164364 -0.1274472
0.054483335 -0.053895608 -0.10083932 -0.13012658 -0.107838504 0.11550969 -0.1602315 0.06349802
-0.08404407 -0.043774817 0.101210706 -0.057421893 -0.14621358 0.1364803 -0.14512248 -0.09327156
-0.16185851 -0.0542966 0.0946645 -0.13119718 0.058422588 0.121744365 0.115076095 0.024729926
-0.07669535 0.0965682 0.112178884 -0.12599489 -0.15640298 0.029280702 -0.14291729 0.15463798
