data/models/ripple_lstm_d.pth (torch, 215845 bytes, 10 tensors)

lstm.weight_ih_l0 f4 [256, 10]
0	0xbddaff4d	-0.10693226
1	0xbda53ea1	-0.08068586
2	0xbe1a8f20	-0.1509366
3	0xbde76389	-0.11298282
4	0xbd19586c	-0.03743784
5	0xbe52fad2	-0.20603493
6	0xbcb97ee8	-0.022643521
7	0x3d3f4f2e	0.04670637
8	0xbe20c579	-0.1570033
9	0x3d88196c	0.06645474
10	0x3d8b5acd	0.06804428
11	0xbdd09b96	-0.10185926
12	0xbd5449bb	-0.051828127
13	0xbe1308cd	-0.14358826
14	0x3e00b239	0.12567987
15	0xbda58901	-0.08082772
16	0x3c9efe12	0.01940826
17	0xbe327565	-0.17427595
18	0xbdc9f5d8	-0.09861344
19	0xbdb9b682	-0.09068014
20	0xbdd0a11e	-0.10186981
21	0xbce2b2a4	-0.027673073
22	0x3ad6c935	0.0016386869
23	0x3d835b7c	0.06413934
24	0x3d1fa52b	0.038975876
25	0xbe3b8ca5	-0.1831537
26	0xbb9c0472	-0.004761272
27	0x3d0f18d7	0.0349358
28	0xbdadf866	-0.08494644
29	0x3dca835a	0.098883346
30	0x3d2ea85f	0.04264104
31	0x3d9aaba6	0.075522706
32	0xbcb6e791	-0.022327216
33	0xbdb89aa1	-0.09013868
34	0x3a6f461d	0.0009127574
35	0xbd4cd489	-0.050007377
36	0xbe2cfcd9	-0.16893329
37	0xbe148a93	-0.14505987
38	0xbd9d2004	-0.07672122
39	0x3dc1181f	0.09428429
40	0x3d99bfcf	0.07507288
41	0x3e17ad46	0.14812192
42	0x3dbf2db8	0.09334892
43	0x3e0cbc0f	0.13743614
44	0x3cee63f9	0.029100405
45	0xbcab5a03	-0.020916944
46	0x3de3f3eb	0.11130508
47	0x3d9b7172	0.07589997
48	0x3d4fd0e0	0.050736308
49	0x3c9b478c	0.018955015
50	0x3d498d57	0.049207058
51	0x3cd84c90	0.026403695
52	0x3c10cacb	0.008837412
53	0x3ddf0f61	0.10891605
54	0xbc15a85a	-0.009134376
55	0xbe1e37c4	-0.1545096
56	0x3dafb7b3	0.0857996
57	0x3d49f105	0.04930212
58	0x3d8e444b	0.069466196
59	0x3cfee731	0.0311161
60	0x3d8e0a9e	0.06935619
61	0x3dfcca3d	0.123432614
62	0x3df209f6	0.11818306
63	0x3dd45888	0.103684485
64	0x3ba54821	0.005043999
65	0xbe1c1d89	-0.15245642
66	0xbd2d8ee5	-0.042372603
67	0x3d1e348d	0.038624335
68	0x3dde5bf4	0.108573824
69	0xbd6d999f	-0.058007833
70	0xbd2dabf5	-0.04240032
71	0x3de79ef4	0.11309615
72	0xbdca1b05	-0.09868435
73	0xbd014e75	-0.031568963
74	0xbd6c95dd	-0.05776011
75	0x3dcfc00b	0.10144051
76	0x3e417ef6	0.18896088
77	0x3dbb0b49	0.09133012
78	0x3cabf40b	0.020990392
79	0xbd9b64d3	-0.0758759
80	0x3dc9dbb3	0.098563574
81	0xbc979efb	-0.018508425
82	0xbd8b1426	-0.067909524
83	0x3ddd7d32	0.10814895
84	0xbd3e5efe	-0.04647731
85	0x3d40a125	0.04702868
86	0x3dd94b16	0.10610025
87	0xbd802859	-0.06257696
88	0x3e00469e	0.12526938
89	0xbdbc2206	-0.09186177
90	0xbcc1741c	-0.023614936
91	0xbe3178ef	-0.17331289
92	0xbd65770e	-0.056021743
93	0xbe225bf2	-0.15855387
94	0xbdb4348f	-0.08799087
95	0xbe253721	-0.16134311
96	0xbd9bf2c9	-0.07614667
97	0xbe2b3675	-0.16719992
98	0xbdc87127	-0.09787207
99	0xb9b7cf55	-0.00035058954
100	0x3da4510d	0.08023272
101	0xbd836f24	-0.06417683
102	0xbbd16a07	-0.0063908133
103	0x3d024a63	0.031809222
104	0x3e1691d0	0.1470406
105	0x3e329675	0.17440207
106	0x3c07f1c6	0.008297389
107	0xbd31e599	-0.043431852
108	0xbe0edf30	-0.13952327
109	0x3e30b8a8	0.17257941
110	0x3e50f72e	0.20406792
111	0x3e0934bf	0.13399027
112	0x3de52eb8	0.111905515
113	0x3e635cab	0.22203319
114	0xbddc3316	-0.10751931
115	0xbcb0dc37	-0.021589382
116	0xbd21df1a	-0.039519407
117	0xbe04a264	-0.12952572
118	0xbd059874	-0.032616094
119	0xbadf7eda	-0.0017051355
120	0xbdd10f11	-0.10207952
121	0x3b1712cb	0.0023051973
122	0xbd847533	-0.064676665
123	0xbc6209d8	-0.013796292
124	0xbd02f0b4	-0.031967834
125	0x3b103772	0.0022005704
126	0xbaffccf0	-0.0019516032
127	0x3db88c51	0.09011138
128	0x3c06ff30	0.008239552
129	0xbd830632	-0.06397666
130	0xbd6afd19	-0.05737028
131	0xbdd54e96	-0.1041538
132	0xbbfa4923	-0.007638113
133	0xbda091aa	-0.07840283
134	0x3e3d72b0	0.18500781
135	0xbde217c9	-0.11039693
136	0x3da5e9a1	0.08101202
137	0xbd8ac17b	-0.06775185
138	0xbd8800d7	-0.06640785
139	0xbcf366b1	-0.029712053
140	0xbe4bf49b	-0.19917528
141	0xbe240032	-0.160157
142	0xbc31074a	-0.0108049605
143	0xbe292e93	-0.16521673
144	0x3e118121	0.14209415
145	0xbdb0cf1b	-0.08633252
146	0xbe212e57	-0.15740333
147	0x3b3eb2a7	0.0029098184
148	0xbdcaaea7	-0.098965935
149	0x3d7e5307	0.0620909
150	0xbda68b05	-0.081319846
151	0xbd6bd49d	-0.05757581
152	0xbe2c2c8e	-0.16813871
153	0x3c6e29ca	0.0145363305
154	0x3ddeb9db	0.10875293
155	0xbda876d3	-0.08225789
156	0x3d4d790e	0.050164275
157	0x3e08b9ad	0.1335208
158	0xbd4224e3	-0.04739846
159	0xbccae1f1	-0.02476594
160	0x3d3f662e	0.046728306
161	0xbd714948	-0.058907777
162	0xbd10aa49	-0.035318647
163	0xbb1d4d00	-0.0024002194
164	0x3cff1cfd	0.031141752
165	0xbd345820	-0.044029355
166	0xbde4c54d	-0.11170445
167	0xbd020b9f	-0.031749364
168	0xbd59d949	-0.053185735
169	0xbc167f4d	-0.009185624
170	0xbd0d1f95	-0.034453947
171	0xbe2b4f99	-0.16729583
172	0xbe346cb7	-0.17619596
173	0x3bb62d54	0.0055596028
174	0xbe1df0f0	-0.15423942
175	0xbe736a74	-0.23771077
176	0xbdcf2610	-0.10114682
177	0xbe00cf2f	-0.12579034
178	0x3cdcb9d8	0.026944086
179	0x3d099629	0.03359047
180	0xbd5057ca	-0.050864972
181	0xbc673586	-0.014111882
182	0xbe3bbc87	-0.18333636
183	0xbe06bb66	-0.13157424
184	0xbda34568	-0.079722226
185	0x3db9c5c0	0.09070921
186	0xbe297a5f	-0.16550587
187	0xbdd3b137	-0.103365354
188	0xbdf0c7d4	-0.11756864
189	0x3d837b76	0.06420033
190	0x3d1450b4	0.036209777
191	0xbd842222	-0.06451823
192	0xbdebfbe0	-0.11522651
193	0xbd82ffa9	-0.063964196
194	0xbcbda7f4	-0.023151375
195	0xbddb82df	-0.10718321
196	0x3e7cb475	0.24678214
197	0x3e8692ac	0.26283777
198	0x3d1eefc8	0.038802892
199	0x3cffcfb1	0.031226965
200	0x3dbb6779	0.09150595
201	0x3dbea671	0.0930909
202	0xba446315	-0.0007491571
203	0x3c3b0acf	0.011416151
204	0xbde657b0	-0.11247194
205	0xba2ca9f6	-0.00065866055
206	0xbe1aa466	-0.15101776
207	0xbe1c5b89	-0.15269293
208	0x3da11d49	0.07866914
209	0xbe242e83	-0.16033368
210	0xbe20693e	-0.15665147
211	0xbdf55e21	-0.11980844
212	0xbd370ecd	-0.04469185
213	0xbe1043c1	-0.14088346
214	0xbd9d0be5	-0.07668284
215	0xbe23494c	-0.1594593
216	0xbd6dfa5c	-0.05810009
217	0xbda769b9	-0.08174462
218	0x3c9c9154	0.019112267
219	0xbcbea379	-0.02327131
220	0x3db415b0	0.08793199
221	0x3d4167cc	0.04721813
222	0xbb5b5982	-0.00334701
223	0x3d2352fd	0.039874066
224	0xbdf3b009	-0.118988104
225	0xbde507f5	-0.11183158
226	0x3ca9ad37	0.020712478
227	0x3cd0ae72	0.025473807
228	0x3cea4374	0.028596617
229	0x3e0edd65	0.13951643
230	0xbd426bfb	-0.04746626
231	0x3d295883	0.041344177
232	0xbc52c58a	-0.01286448
233	0xbd9d8783	-0.076918624
234	0xbde58cfe	-0.11208533
235	0xbdb255de	-0.08707784
236	0xbe766892	-0.24063328
237	0xbe9cd06b	-0.3062776
238	0x3dcbeef2	0.099576846
239	0xbdef5107	-0.116853766
240	0xbd8953bb	-0.067054234
241	0xbdd3479c	-0.10316393
242	0xbb88410a	-0.004158144
243	0xbe2477a8	-0.1606127
244	0x3dc645bd	0.0968127
245	0xbdbbdfa1	-0.09173513
246	0x3e26ffe1	0.16308548
247	0xbd7cd061	-0.061722163
248	0xbc4ae9b9	-0.012384825
249	0xbd8feb58	-0.0702731
250	0x38fc8a00	0.00012042001
251	0xbc743c04	-0.014906887
252	0xbb19b85a	-0.002345583
253	0xbe0615c7	-0.13094245
254	0xbdbbd441	-0.091713436
255	0xbd037fd0	-0.032104313

lstm.weight_hh_l0 f4 [256, 64]
0	0x3d014412	0.031559058
1	0xbbdbc0f2	-0.0067063505
2	0x3dd8c6b5	0.10584775
3	0xbdb37209	-0.08761985
4	0xbdbbfc91	-0.091790326
5	0xbd6a1acb	-0.057154458
6	0x3c849024	0.016182013
7	0x3e0b0e93	0.13579778
8	0x3e2d7e5d	0.16942735
9	0x3dd0be15	0.10192505
10	0x3c82080c	0.015872978
11	0xbd66fa31	-0.056390945
12	0x3c769719	0.015050673
13	0xbcdf8665	-0.027285764
14	0x3dd42334	0.10358277
15	0x3dab5338	0.08365482
16	0xbe352bd2	-0.17692497
17	0x3e2c8dc2	0.16850951
18	0x3e083c32	0.13304213
19	0xbd17f551	-0.037099186
20	0x3dba9c09	0.091117926
21	0xbd1d3e74	-0.038389638
22	0x3e0a2b4c	0.13493079
23	0x3ca64c9a	0.020300198
24	0xbd778fd4	-0.0604399
25	0x3ddb4e6c	0.10708317
26	0xbe024368	-0.12721026
27	0xbe042891	-0.129061
28	0xbcb7460c	-0.022372268
29	0x3dd69918	0.10478419
30	0xbde90e82	-0.1137972
31	0x3d465adf	0.048426505
32	0x3e4b3fbc	0.19848531
33	0x3da673ba	0.08127542
34	0xbd3e00be	-0.046387427
35	0x3da48c6d	0.080345966
36	0xbd914f2b	-0.07095178
37	0xbbfa80e1	-0.007644758
38	0x3cd903e8	0.02649112
39	0xbd628fbb	-0.055312853
40	0x3cf2bad9	0.029630112
41	0x3dbb3ae6	0.09142093
42	0xbc9b877f	-0.018985508
43	0xbd6b8d48	-0.057507783
44	0x3dbd89cd	0.09254799
45	0x3d3f8abe	0.046763174
46	0xbd58f134	-0.052964404
47	0x3c123f8e	0.008926285
48	0xbda5c5a2	-0.08094336
49	0xbd2cd71b	-0.042197328
50	0xbe0ea82f	-0.13931344
51	0xbe376137	-0.17908178
52	0xbdcb3eb2	-0.099240676
53	0xbda4b83c	-0.080429524
54	0xbc6cf9c5	-0.014463847
55	0xbcf1a92f	-0.029499618
56	0xbd84241a	-0.06452198
57	0xbd6d53c4	-0.057941213
58	0x3d141312	0.036151
59	0xbe21223e	-0.15735719
60	0xbdb11cba	-0.08648057
61	0xbd2fb9b3	-0.042901706
62	0x3da58dfb	0.08083721
63	0xbd9339e7	-0.07188778
64	0xbc9ed445	-0.019388327
65	0xbc10db2d	-0.008841318
66	0xbd8626e2	-0.06550385
67	0x3c86c903	0.016453272
68	0xbdf85efb	-0.12127491
69	0x3d115a6c	0.035486624
70	0xbde4b73f	-0.11167764
71	0x3d02ec8d	0.031963874
72	0x3d2e1848	0.042503625
73	0x3da7f2e6	0.08200626
74	0x3d90c2a9	0.070683785
75	0xbda9fc76	-0.08300106
76	0x3d8d93e4	0.069129735
77	0xbd89e2ef	-0.06732737
78	0xbd17d26b	-0.037065905
79	0xbdd82e93	-0.10555758
80	0x3d34cb3a	0.044139124
81	0x3ccea800	0.025226593
82	0xbd7a07bf	-0.061042544
83	0xbd5d5988	-0.05404046
84	0x3e0cf770	0.13766265
85	0xbd46ff9d	-0.048583616
86	0x3dd9ebde	0.10640691
87	0xbcbb1753	-0.02283827
88	0xbb5afa5e	-0.003341339
89	0x3d24b6f2	0.040213533
90	0x3d6e1c62	0.058132537
91	0xbd62cb9e	-0.055369966
92	0x3e18587c	0.14877504
93	0x3d32e080	0.04367113
94	0x3deeee4c	0.11666545
95	0xbde3c89e	-0.11122249
96	0x3d8059c9	0.06267125
97	0x3de570f4	0.11203185
98	0x3e1169e9	0.14200558
99	0x3e0a55a6	0.13509235
100	0x3e1d9804	0.1539002
101	0x3ce3f27b	0.027825585
102	0x3db203f5	0.08692161
103	0xbda667cc	-0.081252664
104	0xbdaadea8	-0.083432496
105	0x3db5986d	0.088669635
106	0xbcb85c4c	-0.022504948
107	0xbe0996f6	-0.13436493
108	0x3dd2afe4	0.10287455
109	0xbd819e19	-0.06328983
110	0x3ccc759a	0.02495842
111	0x3db8e9d5	0.09028975
112	0x3cae3f89	0.02127053
113	0xbdbe3ae1	-0.09288574
114	0xbd568110	-0.052369177
115	0x3dbe70ce	0.092988595
116	0x3df7c1de	0.12097524
117	0x3d63b656	0.05559381
118	0x3e226502	0.15858844
119	0xbc01c34c	-0.007920098
120	0x3d2f8ed7	0.042860832
121	0xbdf16622	-0.117870584
122	0xbdc23d70	-0.094843745
123	0x3d0f2505	0.034947414
124	0xbddeffab	-0.108886085
125	0xbd875b9e	-0.066092715
126	0xbca09d70	-0.019606322
127	0x3dd7e770	0.1054219
128	0xbd404ab7	-0.046946254
129	0xbe0ba841	-0.13638403
130	0x3e07e3cc	0.13270491
131	0xbe0249f6	-0.12723526
132	0x3d8ba954	0.06819406
133	0xbd45627d	-0.04818963
134	0xbde25e6b	-0.11053165
135	0x3cba35d3	0.022730744
136	0x3d7dcc57	0.06196245
137	0xbd24d552	-0.0402425
138	0x3d22158f	0.03957134
139	0xbe1c3137	-0.15253149
140	0x3e68ba4d	0.22727318
141	0xbb10c22c	-0.0022088392
142	0xbdc0ceae	-0.09414421
143	0xbde6bcb6	-0.112664625
144	0xbda9fcfb	-0.08300205
145	0x3d586c2e	0.052837543
146	0x3d50b792	0.050956316
147	0x3d173ad4	0.036921337
148	0x3d184e9e	0.03718435
149	0x3d01fee2	0.031737216
150	0x3e2b2088	0.16711628
151	0xbe3199c5	-0.17343815
152	0xbe2789ba	-0.16361132
153	0x3da8a811	0.08235181
154	0xbdb7f145	-0.089815654
155	0xbd7a8fbb	-0.06117223
156	0x3cac4e14	0.021033324
157	0xbdae8767	-0.0852192
158	0x3e3a2c0f	0.1818087
159	0xbc12f528	-0.008969583
160	0xbd173aa4	-0.03692116
161	0x3e2506b0	0.16115832
162	0x3e2c24b6	0.16810879
163	0x3da297a1	0.07939077
164	0x3d387db9	0.045041773
165	0x3dc36040	0.095398426
166	0x3d52b496	0.05144175
167	0x3d98f638	0.074688375
168	0x3e337fdd	0.17529245
169	0x3e101f78	0.14074504
170	0x3dbff6bb	0.09373232
171	0x3de7eead	0.11324821
172	0x3c8127e2	0.015766088
173	0x3d635473	0.05550046
174	0xbe36df0c	-0.17858523
175	0x3d61f5bb	0.055165987
176	0xbd867975	-0.06566135
177	0xbdd0b545	-0.101908244
178	0xbd8d52cb	-0.06900557
179	0xbcd1efea	-0.025627095
180	0x3d032aa2	0.03202308
181	0x3dc6c5bb	0.09705683
182	0x3d16f4ad	0.036854435
183	0x3df5c5a9	0.12000591
184	0x3c3b7e95	0.011443754
185	0xbd4e5f24	-0.050383702
186	0xbd0b5c67	-0.03402367
187	0xbcf4a6c9	-0.029864686
188	0x3d11923e	0.035539858
189	0x3c1c97d5	0.009557684
190	0x3da23bdd	0.07921574
191	0x3e191404	0.14949042
192	0xbcbc277c	-0.022968046
193	0xbde67698	-0.11253089
194	0x3c52d1e6	0.0128674265
195	0x3dd369ea	0.10322936
196	0xbae906d9	-0.001777853
197	0xbd8ba18c	-0.06817922
198	0x3d24f063	0.040268313
199	0xbd49d8dd	-0.049279083
200	0xbddf36b7	-0.10899108
201	0xbd6ca75e	-0.0577768
202	0x3e4246db	0.18972342
203	0xbd745f08	-0.05966094
204	0x3e221361	0.15827705
205	0xbc379f9e	-0.011207489
206	0x3d62b5e7	0.055349257
207	0xbcef10a1	-0.029182734
208	0xbc52403b	-0.012832697
209	0x3d905593	0.07047572
210	0x3df06aa2	0.117390886
211	0xbdfde3bc	-0.123969525
212	0x3c85782b	0.016292652
213	0x3cb28efe	0.0217967
214	0xbcb8638b	-0.022508403
215	0xbd8b9b34	-0.06816712
216	0xbdc13830	-0.09434545
217	0xbde96aac	-0.11397299
218	0xbd58bd13	-0.05291469
219	0x3ca9d41e	0.020731028
220	0xbd718a5e	-0.058969848
221	0xba3469f2	-0.0006882242
222	0xbdaf0bd3	-0.08547177
223	0x3dd37e12	0.103267804
224	0x3d898dba	0.06716485
225	0x3da269b0	0.079303145
226	0x3b8a574d	0.004221833
227	0xbd6ac166	-0.057313345
228	0xbc5a60e8	-0.013328768
229	0x3d8ac3ed	0.06775651
230	0xbd437da7	-0.047727253
231	0xbe055c05	-0.13023384
232	0xbd126ee1	-0.035750274
233	0x399bb5f6	0.00029699475
234	0xbd25742d	-0.040393997
235	0xbd8c9372	-0.068640605
236	0xbda473a6	-0.08029871
237	0x3dd5180a	0.10404976
238	0xbd816138	-0.06317371
239	0xbd183173	-0.037156533
240	0x3cadcf4b	0.021217009
241	0xbd8974ee	-0.06711756
242	0x3dce401f	0.10070824
243	0x3d6cb908	0.057793647
244	0x3dec61b5	0.11542074
245	0xbd860b8c	-0.06545171
246	0x3d881a4b	0.0664564
247	0x3dce1aa8	0.10063678
248	0x3d63b4d0	0.055592358
249	0xbd95dd43	-0.07317593
250	0xbd73fbd4	-0.059566334
251	0xbd6dda8f	-0.05806976
252	0x3d50e1ea	0.0509967
253	0xbd595e16	-0.053068243
254	0xbc153500	-0.0091068745
255	0x3de0ab95	0.10970227

lstm.bias_ih_l0 f4 [256]
0	0xbc47edab	-0.012202661
1	0x3dbda159	0.0925929
2	0x3e3828c5	0.17984302
3	0x3c6ea963	0.014566752
4	0x3d6d7252	0.057970352
5	0x3db790b7	0.08963149
6	0xbda39eee	-0.07989298
7	0xbd1125e2	-0.03543652
8	0xbd32f3c9	-0.043689523
9	0xbc97d198	-0.01853256
10	0x3e14933a	0.14509287
11	0x3db4be3a	0.08825345
12	0x3c2bac0f	0.010478034
13	0xbcd672f0	-0.026177853
14	0x3daa7b4b	0.083242975
15	0x3dd922d0	0.10602343
16	0x3d6ae2af	0.05734509
17	0x3a85ef44	0.0010218401
18	0xbd8397e9	-0.06425459
19	0x3da5bf25	0.080930986
20	0x3dc35475	0.09537593
21	0xbce9a3b4	-0.028520443
22	0xbc9b23b2	-0.01893792
23	0x3d847382	0.06467344
24	0xbdb82dc4	-0.08993104
25	0x3e240838	0.1601876
26	0xbd9b32db	-0.07578059
27	0x3d1795a3	0.03700794
28	0x3c08f81d	0.008359936
29	0x3da9ddb9	0.08294243
30	0x3e145c06	0.14488229
31	0xbd80a889	-0.062821455
32	0x3d78c4da	0.060734607
33	0x3dd5ca77	0.10439008
34	0xbc5d0b58	-0.013491474
35	0x3caa64c1	0.020799996
36	0x3c2cbf7e	0.010543702
37	0x3e156b5a	0.14591733
38	0xbd242566	-0.04007473
39	0xbd91726e	-0.07101904
40	0xbc0cd84c	-0.008596491
41	0x3e1cd6af	0.1531627
42	0xbd8720ae	-0.0659803
43	0x3da4e9f1	0.08052433
44	0xbc906867	-0.017627908
45	0xbdbbaa2d	-0.09163318
46	0x3dcdc959	0.1004817
47	0x3dd1a690	0.102368474
48	0xbd9ad8f6	-0.07560913
49	0x3d85adae	0.065272674
50	0x3d5b9080	0.053604603
51	0xbc153457	-0.009106717
52	0xbcb43091	-0.021995815
53	0xbd209481	-0.039204124
54	0x3e00f691	0.12594058
55	0x3e0ac8bc	0.13553137
56	0x3c348a96	0.01101937
57	0xbddeb782	-0.10874845
58	0xbd1f3c18	-0.03887567
59	0x3db1a9b7	0.08674949
60	0xbdafd0a1	-0.08584715
61	0xbd871148	-0.06595093
62	0xbd795ca6	-0.060879372
63	0x3dfe197d	0.12407205
64	0x3dade337	0.084906034
65	0x3d857d64	0.06518057
66	0x3d793aaa	0.060846962
67	0x3db26862	0.08711316
68	0x3dce9a96	0.10088079
69	0x3d8d1f27	0.068907075
70	0x3ddb277d	0.10700891
71	0x3e113278	0.14179409
72	0xbd29867a	-0.041388012
73	0x3e1496bb	0.14510624
74	0x3d05f175	0.032700974
75	0xbc4c3cc8	-0.012465663
76	0xbc6aa86b	-0.014322381
77	0x3d4768b0	0.048683822
78	0xbdbbb4f1	-0.09165371
79	0xbd98bb78	-0.07457632
80	0x3d74fabb	0.059809428
81	0x3e288c85	0.16459854
82	0x3dfb4424	0.12268856
83	0x3e0d0aa0	0.13773584
84	0xbc06ffbd	-0.008239684
85	0x3d820fd1	0.06350673
86	0xbde67350	-0.11252463
87	0x3afca8f5	0.0019276427
88	0x3d10fddc	0.03539835
89	0x3d3cdaf1	0.046107236
90	0x3d9796d5	0.07401816
91	0x3ca13c4e	0.019682076
92	0xbdcb7b3c	-0.099356145
93	0x3ce8f8bd	0.02843892
94	0x3e35a215	0.1773761
95	0xbe02e3b6	-0.12782177
96	0xbdb05d1d	-0.0861151
97	0x3d68197e	0.056664936
98	0x3e0393f4	0.12849408
99	0x3daf76a6	0.08567552
100	0xbe11d356	-0.14240775
101	0x3c9bf4e5	0.019037673
102	0xbd16e689	-0.03684095
103	0xbdadce84	-0.08486655
104	0xbe02808b	-0.12744348
105	0xbbc4309b	-0.0059872395
106	0xbc76eacb	-0.015070627
107	0xbbec06ac	-0.007202944
108	0x3ded93a5	0.116004266
109	0x3db71d54	0.08941141
110	0x3dc0ad01	0.09407998
111	0x3d40919f	0.047013875
112	0x3d8fc860	0.070206404
113	0xbbe70c10	-0.0070509985
114	0x3da7b855	0.081894554
115	0xbda4194d	-0.08012638
116	0xbb8890f7	-0.004167672
117	0xbd931c33	-0.07183113
118	0x3c4b9050	0.0124245435
119	0x3e08fc38	0.13377464
120	0x3de8b09e	0.11361812
121	0x3dc408ca	0.09571989
122	0x3d6f220d	0.058382083
123	0x3de4ff95	0.11181561
124	0xbd4a8c26	-0.049450062
125	0x3dcd8ae4	0.10036257
126	0x3d5363ba	0.05160878
127	0x3de5a549	0.11213166
128	0x3d0062f7	0.03134438
129	0x3d07ab64	0.033122435
130	0xbdd5c209	-0.104374
131	0xbd67935f	-0.05653703
132	0x3def58a4	0.11686829
133	0xbb235eb2	-0.002492827
134	0x3d703854	0.05864747
135	0x3d6fc3e9	0.058536444
136	0xbcaaa17f	-0.02082896
137	0x3d5455bf	0.051839586
138	0xbe104a69	-0.14090885
139	0xbd0c78df	-0.03429496
140	0x3e058702	0.13039783
141	0xbc521043	-0.01282126
142	0x3c8dc447	0.017305506
143	0x3d6aabe3	0.05729283
144	0x3d287729	0.041129265
145	0xbddfa392	-0.109198704
146	0xbdaaef7e	-0.08346461
147	0xbde56307	-0.112005286
148	0xbd3a90da	-0.045548297
149	0x3d831750	0.06400931
150	0x3d1badb7	0.038007464
151	0xbd14dc04	-0.036342636
152	0xbd9e7c1e	-0.07738517
153	0x3bfedf72	0.0077781016
154	0xbd65aba7	-0.056071904
155	0xbc61ea8a	-0.013788829
156	0xbcdcf5ab	-0.026972612
157	0x3c9bb423	0.019006794
158	0x3dec40de	0.1153581
159	0xbcadaae3	-0.02119965
160	0x3d556df9	0.05210683
161	0x3d9bc960	0.076067686
162	0x3d9635ad	0.073344566
163	0x3d854b31	0.06508482
164	0x3d84427c	0.064579934
165	0xbd649a41	-0.05581117
166	0xbb687144	-0.0035467902
167	0xbd2d4a8c	-0.04230742
168	0xba36dfe0	-0.0006976109
169	0xbcb8562c	-0.022502027
170	0xbcb9631c	-0.022630267
171	0xbdb747d6	-0.089492485
172	0x3ddca30a	0.10773285
173	0x3dffc38e	0.12488471
174	0x3dfb273f	0.12263345
175	0xbc7bdad0	-0.015371993
176	0x3cb97d03	0.022642618
177	0x3d8e273f	0.06941079
178	0x3ced307c	0.028953783
179	0x3c678150	0.014129952
180	0x3d00309f	0.03129637
181	0x3d3c8211	0.04602248
182	0x3db7e772	0.089796916
183	0x3d88ad52	0.06673683
184	0xbc503ecb	-0.0127102835
185	0x3ca14833	0.019687748
186	0x3de48a36	0.11159174
187	0x3d23b116	0.039963804
188	0x3df85e49	0.121273585
189	0xbdc314cc	-0.09525451
190	0x3c474949	0.012163469
191	0x3d018bb5	0.031627376
192	0xbdcf8489	-0.10132701
193	0x3ceb3b8e	0.028714921
194	0x3c8f466b	0.017489633
195	0xbd08c6ea	-0.033392824
196	0x3c02c2d6	0.007981023
197	0xbd6fb1e4	-0.05851926
198	0xbdad8d39	-0.08474202
199	0xbd3fdb30	-0.046839893
200	0xbd909ae7	-0.07060795
201	0xbc879bb9	-0.016553747
202	0xbc47cbc8	-0.012194581
203	0x3d43be9a	0.047789194
204	0xbcccbf6f	-0.024993626
205	0xba8be384	-0.0010672663
206	0xbd1d5b83	-0.03841735
207	0x3dcf90b5	0.101350226
208	0x3da0d39e	0.07852863
209	0xbc5a8244	-0.013336722
210	0xbb7a5789	-0.0038199148
211	0x3da2f14f	0.07956182
212	0x3e17dc02	0.1483002
213	0xbd0964ba	-0.033543326
214	0xbc50a792	-0.012735264
215	0x3e32911e	0.1743817
216	0xbcee7cb7	-0.029112203
217	0x3dd1ccf4	0.1024417
218	0xbd86911d	-0.06570647
219	0x3da4f55c	0.08054611
220	0x3d8a40dd	0.06750653
221	0x3bf94164	0.007606672
222	0x3db3a0d3	0.08770909
223	0x3d693cf8	0.05694291
224	0x3de6af01	0.11263848
225	0x3d419a16	0.04726609
226	0xbd317f93	-0.043334555
227	0xbdc18536	-0.09449236
228	0x3df77b2f	0.12084042
229	0xbcf68d26	-0.030096602
230	0x3d80eab9	0.0629477
231	0xbd43ec0f	-0.047832545
232	0xbdbd012a	-0.09228738
233	0x3cfc57f7	0.030803664
234	0x3d7c4442	0.061588533
235	0x3b516aa0	0.0031954423
236	0xbdb2d3ee	-0.08731829
237	0xbd8a07dc	-0.0673978
238	0x3d3530c8	0.044235975
239	0x3e0d7d10	0.13817239
240	0xbd66844e	-0.05627852
241	0x3e122e7b	0.14275543
242	0x3dcd2965	0.10017661
243	0x3da47284	0.080296546
244	0x3dd72280	0.10504627
245	0x3dea7887	0.1144877
246	0xbcb8f866	-0.022579383
247	0x3d060092	0.032715388
248	0xbc4c4c5b	-0.012469376
249	0xbdd40125	-0.10351781
250	0x3c6c670d	0.014428866
251	0x3d86317b	0.065524064
252	0x3da45148	0.08023316
253	0x3c78904f	0.015171125
254	0x3d8695f6	0.065715715
255	0xbd37e827	-0.044899132

lstm.bias_hh_l0 f4 [256]
0	0x3ddd753c	0.10813376
1	0x3de852c5	0.11343912
2	0xbc78102a	-0.015140573
3	0xbd0f3cac	-0.03496997
4	0x3df1a60d	0.1179925
5	0xbde852f5	-0.11343948
6	0xbd60123b	-0.054704886
7	0x3d327c68	0.043575674
8	0x3de24290	0.11047852
9	0xbd8bb128	-0.06820899
10	0x3c309b6d	0.010779244
11	0x3ccbcfb2	0.02487931
12	0x3d413bba	0.0471761
13	0xbd58cedc	-0.05293165
14	0x3d9d10db	0.076692306
15	0x3d9e82d6	0.07739799
16	0x3e1bf084	0.15228468
17	0xbb179a60	-0.0023132786
18	0xbd0ee2e3	-0.034884345
19	0x3d0385a7	0.032109883
20	0x3dbd7d31	0.09252394
21	0x3dd86128	0.10565406
22	0xbd0f4ff8	-0.034988374
23	0xbd18499c	-0.037179574
24	0x3e02fdf4	0.12792188
25	0x3e09821a	0.13428536
26	0xbddb2b1b	-0.10701581
27	0x3b5395e8	0.0032285396
28	0xbc89187a	-0.016735304
29	0x3ca0c757	0.019626303
30	0x3dfcb47d	0.12339113
31	0xbb21ff05	-0.0024718654
32	0xbd5fdc0e	-0.05465322
33	0x3dd8074f	0.10548269
34	0xbced3ee8	-0.02896066
35	0x3d93e061	0.07220531
36	0xbdac0f97	-0.08401411
37	0x3d585a86	0.052820705
38	0xbd9c8143	-0.07641842
39	0xbdcfe374	-0.10150805
40	0x3dedca95	0.11610905
41	0x3e343101	0.17596819
42	0x3d477ccc	0.048703
43	0x3c8b2c8e	0.016989019
44	0x3d8ef450	0.06980193
45	0xbdd851b5	-0.105624594
46	0x3d8f2990	0.06990349
47	0x3d81a240	0.06329775
48	0xbdcb7647	-0.09934669
49	0x3e35b54e	0.17744943
50	0xbdc574ce	-0.09641419
51	0x3d007e08	0.031370193
52	0x3acf0a48	0.0015795911
53	0x3e2a7054	0.16644412
54	0x3e013c18	0.1262058
55	0x3c173ca4	0.009230766
56	0x3cadef32	0.021232221
57	0x3d96ebe2	0.0736921
58	0xbd175ee2	-0.03695572
59	0xbd81f004	-0.063446075
60	0xbdd224d3	-0.1026093
61	0x3e07ed56	0.1327413
62	0xbc9a313c	-0.018822305
63	0x3d9daf75	0.076994814
64	0x3d550b74	0.052012876
65	0x3e01840c	0.12648028
66	0x3d0f9108	0.035050422
67	0x3da2f5e4	0.07957056
68	0x3d74feb5	0.05981322
69	0xbc76452f	-0.015031143
70	0x3d8c2891	0.06843675
71	0x3d574155	0.05255254
72	0x3cc8f8d9	0.024532722
73	0xbc39af48	-0.011333294
74	0x3e10cf94	0.14141685
75	0x3e4c7bef	0.19969152
76	0xbd505c90	-0.050869524
77	0xbd9d1f0f	-0.076719396
78	0xbd119a54	-0.03554757
79	0x3de878ae	0.11351143
80	0x3e0c8126	0.13721141
81	0x3d8e1683	0.069378875
82	0xbde70dc9	-0.11281926
83	0x3d91ddf8	0.07122415
84	0x3deba1a7	0.11505442
85	0x3d50c607	0.050970104
86	0xba9a1d7f	-0.0011758058
87	0x3b883d68	0.004157711
88	0x3cbc4f89	0.022987144
89	0x3dd4eb69	0.103964634
90	0x3d754335	0.059878547
91	0x3c6a5f27	0.014304913
92	0xbd2bb5d3	-0.041921448
93	0xbd2ec233	-0.04266567
94	0x3dd3fe43	0.10351231
95	0x3da72e53	0.081631325
96	0xbdbbd221	-0.09170938
97	0xbd8981a4	-0.0671418
98	0x3dc8994c	0.09794864
99	0xbd3fa730	-0.0467903
100	0x3d786fd8	0.060653538
101	0xbdc90497	-0.098153286
102	0x3ccf8b4d	0.025334978
103	0xbd235ef3	-0.039885473
104	0xbcd4d3f2	-0.02597997
105	0x3dc30f03	0.09524348
106	0xbd18d788	-0.03731492
107	0xbb88f0a2	-0.0041790763
108	0x3e0237d6	0.12716612
109	0x3dcfcd76	0.101466104
110	0xbde850bb	-0.11343523
111	0x3e289434	0.16462785
112	0xbda53613	-0.080669545
113	0x3c8f3f11	0.017486127
114	0x3c778500	0.015107393
115	0x3d446e2c	0.04795663
116	0x3daebe43	0.08532383
117	0x3e0cdb93	0.13755636
118	0x3cf8d5f6	0.030375462
119	0xbdac77a1	-0.08421255
120	0x3e0cb3a2	0.137404
121	0xbca92033	-0.020645237
122	0xbbd97d8a	-0.00663728
123	0xbda71899	-0.081589885
124	0x3c2fcca1	0.01072994
125	0x3d3b5033	0.04573078
126	0x3d034148	0.03204468
127	0x3db4d3dd	0.08829472
128	0xbdc72fb9	-0.09725899
129	0x3c4ea431	0.0126123885
130	0xbd6a4ee5	-0.057204146
131	0xbd409af1	-0.047022764
132	0xbdf88695	-0.121350445
133	0x3d19e94d	0.03757601
134	0x3d6f64cc	0.058445737
135	0xbda0c4f3	-0.07850065
136	0x3c845677	0.01615451
137	0xbe092034	-0.13391191
138	0x3d931c8c	0.07183179
139	0x3da32066	0.07965164
140	0x3da1e059	0.07904119
141	0x3db402d4	0.08789602
142	0x3d8e65e4	0.06953028
143	0xbd9a9a3c	-0.07548949
144	0x3d4dc157	0.05023321
145	0x3dd150a4	0.10220459
146	0x3d221bb4	0.0395772
147	0x3cac4970	0.021031111
148	0xbd45460e	-0.048162512
149	0x3c2d119a	0.010563279
150	0xbd5c5d01	-0.053799633
151	0xbd8cf364	-0.068823606
152	0xbd90b41e	-0.070656046
153	0xbd8bd19e	-0.06827091
154	0xbb847379	-0.0040420857
155	0x3d298476	0.04138609
156	0xbd8039ab	-0.06260999
157	0xbba1d03f	-0.004938155
158	0x3dcc6646	0.099804446
159	0xbcc03635	-0.023463348
160	0xbda7ced4	-0.08193746
161	0xbc4d883d	-0.012544689
162	0x3d984f73	0.07437029
163	0xbcd743a8	-0.026277378
164	0xbce89335	-0.028390506
165	0x3e0227a7	0.12710439
166	0xbcda5cd7	-0.026655598
167	0x3d88f606	0.0668755
168	0x3dc007ec	0.09376511
169	0xbcc7dae8	-0.024396375
170	0x3d75b4fd	0.059987057
171	0xbd62fd9b	-0.05541764
172	0xbd074b3a	-0.033030726
173	0x3d983390	0.0743171
174	0xbda68b93	-0.081320904
175	0x3d0a178a	0.033713855
176	0xbd9a2c1a	-0.07527943
177	0xbdec340b	-0.11533364
178	0xbc1aca4c	-0.009447645
179	0x3d6a5bf9	0.05721662
180	0xbb297368	-0.002585614
181	0xbd6c27ee	-0.057655267
182	0xbd69c77f	-0.05707502
183	0xbe0da75a	-0.13833371
184	0xbc9765bd	-0.01848113
185	0xbd845847	-0.0646215
186	0xbd0fd657	-0.03511652
187	0xbda63dad	-0.081172325
188	0xbdab43fc	-0.08362576
189	0x3cbc75b4	0.023005344
190	0xbd10e5c2	-0.035375364
191	0xbd849e2f	-0.064754836
192	0xbd33884a	-0.043831147
193	0x3ca19470	0.0197241
194	0xbd7d2b69	-0.061808977
195	0xbd6ef05e	-0.0583347
196	0x3dd18c41	0.102318294
197	0x3dcbbbb7	0.09947913
198	0x3d301a5b	0.042993885
199	0x3c5ccf80	0.013477206
200	0x3cff5ca7	0.03117211
201	0xbbac0fdb	-0.0052509136
202	0x3e379608	0.17928326
203	0x3e31ff3b	0.17382519
204	0xbde46c6f	-0.111534946
205	0x3d5989e7	0.05311003
206	0x3c8654f3	0.016397929
207	0xbd8202b2	-0.0634817
208	0x3e093408	0.13398755
209	0x3dba4ae6	0.09096317
210	0x3d508074	0.050903752
211	0x3d13b976	0.03606554
212	0x3cd73e10	0.02627471
213	0xbdc6e148	-0.09710938
214	0x3c524d52	0.012835817
215	0x3e1d3f8a	0.1535627
216	0x3e0734ca	0.13203731
217	0x3da57a32	0.080799475
218	0xbda8801f	-0.08227562
219	0x3dc8cd20	0.098047495
220	0xbbe694e3	-0.0070367916
221	0xbc40542f	-0.011738821
222	0x3e19dded	0.15026064
223	0xbd171c0b	-0.03689198
224	0x3dd3c977	0.10341161
225	0x3d22dbea	0.039760508
226	0x3e0fd4af	0.14045976
227	0xbe06c34b	-0.13160436
228	0xbda045a3	-0.07825782
229	0xbd01bc2d	-0.0316736
230	0xbd7795df	-0.060445663
231	0x3be7bf02	0.0070723305
232	0xbd5ea77e	-0.05435895
233	0x3e08c574	0.13356572
234	0x3d4344d1	0.04767305
235	0xbdd54681	-0.10413838
236	0xbdcd0e4a	-0.10012491
237	0x3d9249b6	0.071429655
238	0xbbe8d756	-0.007105748
239	0xbd13164e	-0.035909943
240	0xbbe007af	-0.0068368535
241	0xbd065194	-0.032792643
242	0x3de955da	0.11393328
243	0xbcc2492e	-0.023716535
244	0x3e0430e8	0.12909281
245	0x3e2443ab	0.16041438
246	0x3d3c71e0	0.046007037
247	0xbcb3a3dd	-0.021928722
248	0xbdb71415	-0.08939377
249	0x3d862c75	0.06551448
250	0x3d656903	0.05600835
251	0x3dc6513b	0.09683462
252	0x3e083987	0.13303195
253	0x3ca1b625	0.019740174
254	0xbda411f0	-0.08011234
255	0x3bba001b	0.005676282

lstm.weight_ih_l1 f4 [256, 64]
0	0x3cdf3625	0.027247498
1	0xbc0683d8	-0.008210145
2	0x3daba446	0.08380942
3	0x3d7ec2a6	0.06219735
4	0x3c072020	0.008247405
5	0x3dce7fa2	0.10082938
6	0x3cc0581c	0.023479514
7	0x3d67a6b9	0.056555483
8	0x3ceb0cf2	0.028692696
9	0xbd7d4d81	-0.06184149
10	0x3d563159	0.052293155
11	0x3d893ba4	0.06700829
12	0xbc16f9ef	-0.009214862
13	0xbde353a0	-0.110999346
14	0x3d61a4fb	0.05508898
15	0x3db385a9	0.08765728
16	0xbd42fa36	-0.0476019
17	0xbd8dbc65	-0.06920699
18	0xbdcec72e	-0.10096584
19	0xbdc860c6	-0.09784083
20	0xbd491cb3	-0.049099635
21	0x3d0ecbc1	0.034862284
22	0x3e0f3d9e	0.13988349
23	0x3cfcb946	0.030850064
24	0xbdf92a88	-0.12166315
25	0x3d99e04d	0.07513485
26	0x3c907ef7	0.017638667
27	0xbd9f3ff6	-0.077758715
28	0xbde288f8	-0.11061281
29	0xbda0e78d	-0.07856665
30	0x3dccefe8	0.10006696
31	0xbd33a368	-0.04385701
32	0x3e03ff48	0.12890351
33	0xbd151acc	-0.03640251
34	0xbe05ace4	-0.13054234
35	0xbcac2674	-0.02101443
36	0xbc087318	-0.008328222
37	0x3d685e8b	0.05673079
38	0x3d684dba	0.05671475
39	0xbddcd9e1	-0.107837446
40	0x3dc649e8	0.09682065
41	0xbe06dbf4	-0.13169843
42	0x3c56e327	0.013115681
43	0xbbc8946f	-0.0061212103
44	0xbdea049d	-0.11426661
45	0x3d4a5121	0.049393777
46	0x3e3449c3	0.17606263
47	0xbdca1037	-0.09866374
48	0xbd52cb1f	-0.051463243
49	0x3e061342	0.13093284
50	0xbd127c4f	-0.03576308
51	0x3b8cd3d1	0.0042977114
52	0xbd886f52	-0.06661858
53	0xbda4a1be	-0.080386624
54	0x3db97c3a	0.090568975
55	0xbdf789d8	-0.120868385
56	0x3e13fa48	0.14450943
57	0xbdc6622d	-0.09686694
58	0x3dc037dc	0.09385654
59	0x3dad5c0d	0.08464823
60	0xbcafa9ca	-0.021443266
61	0xbdb7e654	-0.089794785
62	0x3d902578	0.070383966
63	0x3d9dd987	0.07707506
64	0x3d48919c	0.04896699
65	0x3d2563a3	0.040378224
66	0x3e4d8f39	0.20074166
67	0x3d2b2e77	0.04179236
68	0xbbc75b7e	-0.0060839048
69	0x3d194fa0	0.037429452
70	0xbdb82770	-0.08991897
71	0xbdf4da44	-0.11955693
72	0xbdb57f2b	-0.08862146
73	0x3e142aaf	0.14469407
74	0xbd8364ea	-0.06415732
75	0x3c9da8a1	0.019245448
76	0xbdc49f96	-0.09600751
77	0xbc6fb4c5	-0.014630501
78	0x3e29cafd	0.1658134
79	0xbded45b1	-0.11585558
80	0xbd426d78	-0.04746768
81	0x3e3c09e2	0.18363145
82	0x3dc419f8	0.09575266
83	0x3b901ae1	0.0043977355
84	0x3d4a0d9c	0.049329385
85	0xbcc8abcc	-0.024495982
86	0x3ddd8bf7	0.10817712
87	0xbdada5c5	-0.08478884
88	0x3c82610a	0.015915412
89	0xbc747ca1	-0.014922292
90	0xbd164f3b	-0.036696654
91	0xbe1a894d	-0.15091439
92	0x3d1b44ab	0.037907284
93	0x3df1ea8a	0.11812313
94	0x3d0e892e	0.034798793
95	0xbdb27436	-0.08713572
96	0x3da2b3c7	0.07944446
97	0x3d5921a3	0.053010594
98	0xbc9b3c0d	-0.018949533
99	0xbcaec02f	-0.021331875
100	0x3d3ee802	0.04660798
101	0xbe506d4a	-0.2035419
102	0x3dcb736c	0.09934124
103	0xbe30806a	-0.17236486
104	0x3e2b8e55	0.16753514
105	0x3cb3b75e	0.021938022
106	0x3e067404	0.13130194
107	0xbe01c7fe	-0.12673947
108	0x3b937df4	0.0045010988
109	0x3d6786ea	0.05652515
110	0x3d680deb	0.0566539
111	0xbd5a4c0c	-0.05329518
112	0xbd9e6144	-0.07733396
113	0x3e013f3e	0.12621781
114	0xbd3ff297	-0.04686221
115	0x3b85f9f2	0.0040886337
116	0xbcc624b5	-0.024187425
117	0xbb6294f3	-0.0034573644
118	0xbbbddcd1	-0.0057941456
119	0x3c3d0d4c	0.011538815
120	0x3e429254	0.19001132
121	0xbc0e4d30	-0.008685395
122	0x3dd10a7b	0.10207077
123	0x3d82b090	0.06381333
124	0xbc470cda	-0.01214906
125	0xbd3e4c76	-0.046459638
126	0x3d7ef600	0.062246323
127	0x3e159877	0.14608942
128	0xba4a1f49	-0.00077103503
129	0xbcf18e2f	-0.029486744
130	0x3e3f0d87	0.18657504
131	0xbe0d0f41	-0.1377535
132	0x3d9f3325	0.07773427
133	0x3d8649b6	0.06557028
134	0x3d7aba1e	0.06121265
135	0xb9ca1aee	-0.00038548507
136	0xbe267643	-0.16256051
137	0x3c33ac5e	0.0109663885
138	0x3d0b35e3	0.033986937
139	0x3cf3b563	0.029749578
140	0x3d0e06fb	0.034674626
141	0x3d13893f	0.03601956
142	0x3dc9af1c	0.098478526
143	0xbd9d6f16	-0.076872036
144	0xbde06d18	-0.10958308
145	0x3df01200	0.11722183
146	0x3deabe28	0.11462051
147	0x3e19a236	0.15003285
148	0x3d09c782	0.03363753
149	0xbd0597fb	-0.032615643
150	0x3de5bd02	0.11217691
151	0x3df245ca	0.118297175
152	0x3d9c5d3a	0.07634969
153	0x3d1dd19e	0.038529985
154	0xbd40a85d	-0.047035564
155	0xbe1eee70	-0.15520644
156	0x3d409649	0.047018323
157	0xbca7179d	-0.020397002
158	0xbdec7eac	-0.11547598
159	0xbdbb61d3	-0.09149518
160	0xbd2e4236	-0.042543612
161	0x3e227b67	0.15867387
162	0xbc94f48a	-0.018183012
163	0x3da260b6	0.079286024
164	0xbdba7a1f	-0.09105324
165	0xbde16862	-0.110062376
166	0xbbb4f60a	-0.005522494
167	0xbad3c60c	-0.0016157045
168	0x3daba734	0.08381501
169	0x3e015ae7	0.12632333
170	0xbd9097dd	-0.070602156
171	0x3d4307f1	0.047614995
172	0xbd466dfd	-0.048444737
173	0xbd53cfdf	-0.051711913
174	0x3d8e7654	0.06956163
175	0xbdf62205	-0.120182075
176	0xbd404539	-0.046941016
177	0xbd85a46d	-0.06525502
178	0x3d8b9d90	0.06817162
179	0xbd827738	-0.063703954
180	0xbd0efe70	-0.03491062
181	0x3d4760ae	0.048676185
182	0xbe299d37	-0.16563879
183	0x3e0cc70e	0.13747808
184	0xbd70576d	-0.058677126
185	0x3db13db6	0.086543486
186	0x3d2c2562	0.04202784
187	0xbc7408c4	-0.014894668
188	0xbd267839	-0.040641997
189	0xbdc09215	-0.09402863
190	0x3e199aa4	0.15000397
191	0x3df92b5d	0.12166474
192	0x3dff2760	0.12458682
193	0xbdfb97db	-0.122848235
194	0xbd056d9f	-0.032575246
195	0x3cadabb8	0.021200046
196	0xbdb6d3c8	-0.08927113
197	0x3d858c48	0.06520897
198	0xbd46d5e8	-0.04854384
199	0x3d91358f	0.070902936
200	0x3e114033	0.14184646
201	0x3defe106	0.11712842
202	0x3dd89f2e	0.10577236
203	0xbe04ed50	-0.12981153
204	0xbdf2ec27	-0.11861449
205	0xbc71ac3e	-0.014750538
206	0xbda60759	-0.0810687
207	0xbdef1038	-0.11673015
208	0xbd3a1ea7	-0.04543939
209	0x3d8e305e	0.06942819
210	0xbdc03b41	-0.09386302
211	0x3e00f726	0.1259428
212	0xbd99273f	-0.07478189
213	0x3daf2326	0.08551626
214	0xbdd189e5	-0.102313794
215	0x3d1ec398	0.03876075
216	0xbe0cacd2	-0.137378
217	0xbda4386c	-0.08018574
218	0x3d24f4cc	0.04027252
219	0xbbb1ef0c	-0.005430108
220	0xbd73000c	-0.059326217
221	0x3d910d72	0.070826426
222	0xbe1b7f09	-0.15185179
223	0xbd7e3c75	-0.062069375
224	0x3c5e1516	0.013554832
225	0xbd6fa230	-0.058504283
226	0xbcd7c9f9	-0.026341425
227	0x3d664814	0.056221083
228	0x3d944ae0	0.07240844
229	0x3dc539e2	0.09630181
230	0x3d70c7a9	0.05878416
231	0xbd81595c	-0.06315872
232	0x3cb50b07	0.022099985
233	0xbbdd822a	-0.0067599015
234	0x3dfa307b	0.12216278
235	0x3d0da70d	0.03458314
236	0xbd0021aa	-0.031282105
237	0x3d540678	0.05176398
238	0xba4b705b	-0.0007760578
239	0xbddfbad9	-0.1092431
240	0x3d594b6c	0.053050444
241	0xbdb94c5c	-0.090477675
242	0xbd4e5b1a	-0.05037985
243	0x3d954ab1	0.07289637
244	0xbc4a6007	-0.012351996
245	0xbd114801	-0.03546906
246	0x3e353555	0.17696126
247	0xbd00c000	-0.031433105
248	0x3dc2efd5	0.095184006
249	0x3c96b7f5	0.018398264
250	0x3da7f03c	0.08200118
251	0xbc0b2343	-0.008492294
252	0xbdf333ac	-0.1187509
253	0xbdea3331	-0.11435545
254	0x3c886d15	0.016653577
255	0xbd3fefdb	-0.046859603

lstm.weight_hh_l1 f4 [256, 64]
0	0x3dd6488e	0.104630575
1	0x3c7b944e	0.015355183
2	0xbd5c1235	-0.0537283
3	0x3dad3025	0.084564485
4	0xbd87b4bf	-0.066262715
5	0x3b64c259	0.003490588
6	0xbd99525a	-0.074864104
7	0x3c9e1e41	0.019301536
8	0xbd936d17	-0.071985416
9	0xbc0b78a6	-0.008512652
10	0x3c5cb3c4	0.013470594
11	0x3dcb2277	0.09918683
12	0x3d9860d3	0.07440343
13	0x3d892b41	0.06697703
14	0x3de98d8b	0.1140395
15	0x3d4643d1	0.04840452
16	0xbdeddd65	-0.11614493
17	0x3d03d136	0.03218194
18	0x3dbbad89	0.091639586
19	0xbdeb72d5	-0.11496512
20	0x3de61c45	0.11235861
21	0xbdfa8386	-0.12232117
22	0x3d3d00f4	0.046143487
23	0xbd5ceb31	-0.053935234
24	0xbd72c532	-0.05927009
25	0xbd37d235	-0.044878203
26	0xbdd2370c	-0.102644056
27	0x3c79c1a7	0.015243924
28	0x3dfefe07	0.124507956
29	0x3d8520fb	0.06500431
30	0xbe03eb21	-0.12882663
31	0xbd65a7f3	-0.056068372
32	0xbddfa406	-0.10919957
33	0x3d332ed8	0.043745846
34	0xbdad73ed	-0.08469377
35	0xbe051b01	-0.12998582
36	0x3cea8dad	0.02863201
37	0xbd923118	-0.0713827
38	0xbda0a02a	-0.07843049
39	0xbda7d68d	-0.08195219
40	0x3ac8f394	0.0015331381
41	0xbcc17362	-0.02361459
42	0x3dc9e290	0.098576665
43	0xbda66ff9	-0.08126826
44	0x3d008015	0.03137215
45	0xbd88ca0a	-0.06679161
46	0x3c014c0c	0.007891666
47	0xbda8f66d	-0.08250127
48	0x3d69133a	0.0569031
49	0x3d05a5fc	0.032629
50	0x3ce2a7f4	0.027667977
51	0xbd816cb2	-0.0631956
52	0xbcbc3af3	-0.022977328
53	0xbcec61d2	-0.028855238
54	0x3cee6d20	0.02910477
55	0x3d6283f7	0.055301633
56	0xbe00e634	-0.12587816
57	0x3ca0bcdb	0.019621303
58	0x3b37281d	0.0027947493
59	0xbd718f5a	-0.0589746
60	0x3df3612d	0.11883769
61	0xbe0938c0	-0.13400555
62	0x3dc4be4a	0.09606607
63	0xbd3d05bf	-0.046148058
64	0xbd8d91fd	-0.06912611
65	0x3db56ad5	0.08858267
66	0x3df61bc6	0.12017016
67	0xbdb2ee1b	-0.08736821
68	0xbd59e5ff	-0.053197857
69	0xbd6c1fa9	-0.05764738
70	0xbcebcd28	-0.02878435
71	0xbd8d8cd1	-0.06911624
72	0xbe159894	-0.14608985
73	0xbd86bfe7	-0.06579571
74	0x3e017a17	0.1264423
75	0xbdcb446d	-0.099251606
76	0xbe000894	-0.12503272
77	0xbd89aef0	-0.0672282
78	0xbe2a516e	-0.16632625
79	0xbdec9f37	-0.11553805
80	0xbe1b920e	-0.15192434
81	0xbcfd7042	-0.030937318
82	0x3ca11f84	0.019668348
83	0x3d10f8aa	0.035393395
84	0x3d402924	0.046914235
85	0xbdfdbdbf	-0.12389707
86	0xbd1be040	-0.03805566
87	0xbd6b0299	-0.057375524
88	0x3b9ae323	0.004726784
89	0x3e042b3e	0.1290712
90	0x3cab171b	0.020885041
91	0x3da133ea	0.0787123
92	0xbced7f8c	-0.028991483
93	0xbdbb6b70	-0.091513515
94	0x3dcf142d	0.1011127
95	0x3d7856fa	0.060629822
96	0x3d8b81c3	0.068118595
97	0xbe06a7cc	-0.13149947
98	0x3d5b90a2	0.05360473
99	0x3c88d960	0.016705215
100	0xbc1c2518	-0.009530328
101	0x3b562cbd	0.0032680475
102	0xbd6ee232	-0.058321185
103	0x3c21f681	0.009885431
104	0x3c9524bf	0.018205998
105	0xbc64c01c	-0.013961818
106	0x3dfdd231	0.123936065
107	0xbbfe0747	-0.0077523324
108	0x3d646396	0.055759035
109	0xbe010d76	-0.12602791
110	0xbd2cedf9	-0.042219136
111	0x3dab8662	0.08375241
112	0x3ce930e2	0.028465692
113	0xbc57fe6e	-0.013183219
114	0xbd5527a0	-0.052039742
115	0xbe1db82a	-0.15402284
116	0xbcba3b2e	-0.022733297
117	0xbddfaa22	-0.10921122
118	0xbcdf5faa	-0.027267296
119	0x3b3a8760	0.0028462037
120	0xbd260cd9	-0.040539596
121	0x3d964fb8	0.07339424
122	0x3d7a92df	0.061175223
123	0xbcd3c0cf	-0.025848774
124	0x3e155d0e	0.14586279
125	0x3e091075	0.13385184
126	0xbca51c0d	-0.020154977
127	0x3d7e568a	0.06209425
128	0xbdfb09af	-0.122577064
129	0x3c80d9bb	0.015728822
130	0x3df22e72	0.11825265
131	0xbd606684	-0.054785267
132	0x3d4cdbab	0.05001418
133	0x3c7177fd	0.01473808
134	0x3de33e03	0.11095812
135	0x3d8c05b3	0.068370245
136	0xbdfaff9c	-0.12255785
137	0x3c4b6786	0.012414819
138	0xbd596336	-0.05307313
139	0x3d7fd2a2	0.062456734
140	0x3d0c7bbc	0.03429769
141	0x3dcbdc86	0.09954171
142	0x3bdef405	0.0068039917
143	0x3c1cb448	0.009564467
144	0x3da0ef0c	0.078580946
145	0xbd8321e6	-0.0640295
146	0x3d917362	0.07102086
147	0x3dffc42e	0.1248859
148	0x3c908c29	0.017644959
149	0x3d625dca	0.055265225
150	0x3cd3d486	0.025858175
151	0x3de267da	0.11054964
152	0x3dea9d65	0.11455802
153	0x3dc4affa	0.09603877
154	0xbda42968	-0.0801571
155	0x3cd0c810	0.025486022
156	0x3d354a82	0.04426051
157	0x3d2ad463	0.041706454
158	0x3db89a3d	0.090137936
159	0xbe24138d	-0.16023083
160	0x3d0c4cb3	0.034252834
161	0x3c8c5829	0.017131882
162	0xbd944c57	-0.07241123
163	0x3c2306f4	0.009950388
164	0x3da7d5e9	0.08195097
165	0xbd2efa5d	-0.042719234
166	0x3c634260	0.0138708055
167	0xbd8c5310	-0.068517804
168	0x3d7a0ab7	0.061045375
169	0xbc953a3f	-0.01821625
170	0xbcb85a87	-0.022504104
171	0x3c2d3b32	0.010573195
172	0x3d42669e	0.047461145
173	0x3d936a86	0.07198052
174	0xbd838613	-0.06422057
175	0xbd00ed02	-0.03147603
176	0x3dd06077	0.10174649
177	0x3d8aa2ff	0.0676937
178	0x3d16d9e5	0.036828894
179	0xbc16229d	-0.009163526
180	0xbd21a1ae	-0.03946083
181	0xbe3247f8	-0.17410266
182	0xbdb1ca62	-0.086811796
183	0x3daa552b	0.08317026
184	0x3dc0cb6c	0.094138
185	0xbdb3ece6	-0.08785419
186	0xbd797424	-0.060901776
187	0xbe03ea11	-0.12882258
188	0xbdaaa989	-0.083331175
189	0x3d5d0c3c	0.053966746
190	0x3e04fd05	0.12987144
191	0xbdaaed76	-0.08346073
192	0x3dde5077	0.10855191
193	0x3cd102cc	0.025514029
194	0xbdcf8f73	-0.10134783
195	0x3e013b0f	0.12620185
196	0xbd4cef1b	-0.050032716
197	0x3d5db2ec	0.05412571
198	0xbdb1d437	-0.08683055
199	0xbd6dd554	-0.058064774
200	0x3dfc71a8	0.12326366
201	0x3d569dd9	0.05239663
202	0x3cdb7bd0	0.026792437
203	0xbdf39afd	-0.11894796
204	0x3c6a386b	0.014295678
205	0x3da8f4f0	0.08249843
206	0xbc1e4200	-0.00965929
207	0x3bf61c6b	0.007510712
208	0xbb5e5cf7	-0.0033929923
209	0x3dbb01f1	0.0913123
210	0x3de63d44	0.11242154
211	0x3d9c0d7d	0.0761976
212	0xbd80125c	-0.06253502
213	0xbdb12db8	-0.08651298
214	0xbc521495	-0.01282229
215	0xbd94ad02	-0.07259561
216	0xbd991788	-0.07475191
217	0xbd2cff86	-0.042235874
218	0xbd198a7c	-0.037485585
219	0xbd0a3e10	-0.033750594
220	0x3de71b3a	0.1128449
221	0xbcafa235	-0.021439651
222	0x3d06a390	0.03287083
223	0xbd98fe85	-0.07470421
224	0xbda2b384	-0.07944396
225	0x3d43e828	0.047828823
226	0x3dc7701e	0.097381815
227	0x3c0020f3	0.007820356
228	0x3dab621a	0.08368321
229	0xbd14ff98	-0.036376566
230	0x3cdca085	0.02693201
231	0x3d5f758f	0.054555472
232	0x3e024fbd	0.1272573
233	0x3d564226	0.052309178
234	0x3b825438	0.003977325
235	0x3decdc8f	0.11565506
236	0xbc8c9f5c	-0.017165832
237	0x3dfe26a2	0.124097124
238	0x3d9f6eb7	0.07784789
239	0x3db1084e	0.08644162
240	0x3dda39bb	0.106555425
241	0xbcc55529	-0.02408846
242	0x3c0b2fe6	0.008495307
243	0x3d8ca7c9	0.0686794
244	0xbbb15a15	-0.00541235
245	0x3d4cc514	0.049992636
246	0xbc34878b	-0.011018644
247	0xbdc3a6cb	-0.095532976
248	0x3d90c02a	0.070679024
249	0x3d4f8c4a	0.0506709
250	0x3cd61bb3	0.026136255
251	0xbdb64af2	-0.089010134
252	0xbcdc2a35	-0.026875595
253	0x3c66d09a	0.01408782
254	0x3b62b574	0.0034593018
255	0x3d567286	0.05235531

lstm.bias_ih_l1 f4 [256]
0	0x3dc3b4d9	0.09555978
1	0x3daf4bb6	0.085593626
2	0xbd5944b0	-0.05304402
3	0x3db4de94	0.08831516
4	0xbd7df2bc	-0.061999068
5	0x3c7d9871	0.015478239
6	0x3e0988ab	0.13431041
7	0x3d8e6c6b	0.06954273
8	0x3e00dca8	0.12584174
9	0x3cfe8f77	0.031074269
10	0x3dd476fa	0.103742555
11	0x3d000eae	0.031264
12	0xbca3463d	-0.019930953
13	0x3d37ea09	0.044900928
14	0x3dde2c0c	0.10848245
15	0xbc70c395	-0.014695068
16	0xbd83d28b	-0.06436642
17	0x3ddea701	0.10871697
18	0x3cb1733b	0.021661391
19	0x3d86c066	0.06579666
20	0x3e085e20	0.13317156
21	0xbd8e955f	-0.06962084
22	0x3dbee2ea	0.09320624
23	0xbcf74381	-0.030183556
24	0xbd2403c0	-0.04004264
25	0xbda23559	-0.079203315
26	0x3d933930	0.07188642
27	0xbdc5b5ec	-0.096538395
28	0x3dcce8b7	0.10005324
29	0x3d358d4f	0.044324216
30	0x3c185ad2	0.009298997
31	0x3b87a01e	0.0041389605
32	0xbd58afb9	-0.052901957
33	0xbdbf5281	-0.09341908
34	0xbdd1bce6	-0.10241108
35	0x3d8395ed	0.064250804
36	0x3d9d495f	0.0768001
37	0x3dff8769	0.12476999
38	0x3df28f65	0.118437566
39	0xbdbad113	-0.09121909
40	0x3d060d5d	0.032727588
41	0x3bb29596	0.005449961
42	0xbd7219ed	-0.059106756
43	0xbd9081be	-0.07055996
44	0xbd9044ef	-0.07044398
45	0x3c903885	0.017605076
46	0x3b8f74e6	0.004377949
47	0xbd5f6886	-0.05454304
48	0xbcf5803b	-0.029968372
49	0x3e3cd836	0.18441853
50	0x3deb9051	0.115021355
51	0xbce8b43d	-0.028406257
52	0xbd8c22e9	-0.06842596
53	0xbd2cc387	-0.042178657
54	0x3d1f6ce7	0.038922217
55	0x3db63828	0.0889743
56	0xbda9dbc1	-0.08293868
57	0x3dbe5a96	0.09294622
58	0xbc01f254	-0.007931311
59	0xbd2f1459	-0.042744014
60	0x3e210552	0.15724686
61	0x3e038dd1	0.12847067
62	0xbd5a7ece	-0.053343587
63	0x3cbd3dc3	0.02310074
64	0x3d9e5f61	0.07733036
65	0x3da51a1f	0.08061623
66	0x3c4ea9f7	0.012613765
67	0xbd86365f	-0.06553339
68	0x3de38b11	0.11110509
69	0xbde58139	-0.11206288
70	0xbd8a3555	-0.067484535
71	0xbdd1d837	-0.10246318
72	0xbd3f066e	-0.04663699
73	0xbab368b0	-0.0013687816
74	0xbcda709d	-0.026665026
75	0x3da431ef	0.080173366
76	0x3a6d1a86	0.0009044785
77	0xbdeae5b5	-0.114695944
78	0xbdaaec6f	-0.083458774
79	0xbc75dc5b	-0.01500615
80	0xbc8c1a4a	-0.01710238
81	0x3ddf8068	0.109131634
82	0x3e06518b	0.13117044
83	0xbd7802e2	-0.060549624
84	0x3de9ac51	0.1140982
85	0xbcc4ab7e	-0.024007555
86	0xbdd2b21b	-0.10287877
87	0xbda123f1	-0.078681834
88	0x3d5c0ab8	0.05372116
89	0xbd9c482c	-0.07630953
90	0x3d91619a	0.07098694
91	0xbd461dd7	-0.0483683
92	0xbdfa3bc9	-0.12218434
93	0xbddc1463	-0.10746076
94	0x3dd65ae2	0.10466553
95	0x3da759ce	0.08171426
96	0xbd689533	-0.056782912
97	0xbd7a95dd	-0.061178077
98	0xbce5a504	-0.028032787
99	0x3d788e67	0.06068268
100	0xbd86c68a	-0.06580837
101	0xbd2020e0	-0.039093852
102	0xbdb05900	-0.086107254
103	0x3dc2961c	0.09501287
104	0x3d1d672f	0.03842848
105	0xbd56813c	-0.05236934
106	0xbd33b852	-0.043876953
107	0x3d8a2a6c	0.067463726
108	0xbdb35562	-0.0875652
109	0x3c82c017	0.015960736
110	0xbd42cd7c	-0.047559246
111	0xbc6bada2	-0.014384659
112	0x3cb0517e	0.021523234
113	0x3dfdcfe7	0.1239317
114	0x3d9ad8fc	0.07560918
115	0x3d545cfe	0.051846497
116	0xbd37078e	-0.04468494
117	0x3bbcf992	0.005767056
118	0xbd829a27	-0.063770585
119	0xbd134f17	-0.035964098
120	0x3d9f0f1f	0.07766556
121	0x3e026e0c	0.12737292
122	0xbbd83e21	-0.006599203
123	0x3ddb61c6	0.10712008
124	0x3b8b9cca	0.004260634
125	0x3d948f5f	0.07253908
126	0x3de87088	0.11349589
127	0xbd4343f6	-0.047672234
128	0x3deec253	0.11658158
129	0xbd7b4741	-0.06134725
130	0x3dc8a5ca	0.09797247
131	0x3d8f9263	0.07010343
132	0x3c10d1c5	0.008839075
133	0x3cb8d0ca	0.022560496
134	0xbde26a75	-0.11055461
135	0x3d1de99f	0.038552877
136	0xbd011793	-0.031516623
137	0x3d99dac6	0.07512431
138	0xbdcb3c5e	-0.099236235
139	0xbc88a2cf	-0.016679196
140	0x3d859be7	0.06523877
141	0x3d8fc952	0.07020821
142	0x3d7b4073	0.06134076
143	0x3d151583	0.03639747
144	0xbdf0de09	-0.117611
145	0x3ddc84b0	0.10767496
146	0x3d2025f4	0.039098695
147	0x3d8c1a57	0.068409614
148	0xbdbde85c	-0.09272835
149	0xbbb65d16	-0.005565296
150	0xbbe8697f	-0.0070926542
151	0xbc0e42c4	-0.00868291
152	0x3daeed8e	0.08541404
153	0x3de671fc	0.112522095
154	0x3dce5f66	0.100767896
155	0x3d316f0c	0.043318793
156	0x3c8d918b	0.017281314
157	0xbdcea9a9	-0.10090954
158	0x3da3ea06	0.08003621
159	0x3db3c7ba	0.08778329
160	0xbca058eb	-0.01957365
161	0xbc9c4354	-0.019075073
162	0xbb6a29e4	-0.0035730535
163	0xbccec9f4	-0.025242783
164	0xbd2b5efb	-0.041838627
165	0x3def54f8	0.116861284
166	0x3dc16327	0.0944274
167	0x3d97332c	0.07382807
168	0xbd244637	-0.040106025
169	0x3dd0d760	0.101973295
170	0xbd29c4eb	-0.04144756
171	0xbccc6b20	-0.024953425
172	0xba6f765f	-0.0009134765
173	0x3b56a2fe	0.003275096
174	0x3d060904	0.03272344
175	0x3d34f8a0	0.04418242
176	0x3dc3352d	0.09531627
177	0xbbaacd9a	-0.005212498
178	0xbd1ead7b	-0.038739663
179	0x3c2e947d	0.01065552
180	0xbd1dfc69	-0.038570795
181	0xbd480f97	-0.048842993
182	0xbb94be2d	-0.0045392723
183	0xbdbb840e	-0.09156047
184	0xbd995db4	-0.074885756
185	0xbd50d53e	-0.050984614
186	0x3dded861	0.10881115
187	0xbd3a4ad5	-0.04548152
188	0x3da756f4	0.08170882
189	0xbd58e117	-0.052949037
190	0x3daf5a24	0.08562115
191	0xbcb8cc3b	-0.022558322
192	0xbc08f2d5	-0.008358677
193	0x3bd076b8	0.0063618086
194	0xbc77e395	-0.015129943
195	0x3db4b5a4	0.08823708
196	0x3d28eff7	0.041244473
197	0x3c6887bc	0.014192518
198	0x3d39c186	0.045350574
199	0xbbba9991	-0.005694576
200	0x3dbb742f	0.0915302
201	0xbd1ed4d3	-0.038777184
202	0xbcacc309	-0.021089094
203	0xba2c8adc	-0.0006581971
204	0x3d5844cf	0.052799996
205	0xbe0e5ccc	-0.13902587
206	0x3c745d62	0.014914842
207	0xbda3182e	-0.07963596
208	0x3dd17662	0.10227658
209	0x3d232534	0.0398304
210	0x3d52ad93	0.051435065
211	0x3d051240	0.032488108
212	0xbcd0ae13	-0.02547363
213	0xbd0df374	-0.034656003
214	0xbc388fdc	-0.0112647675
215	0x3dbd046f	0.09229361
216	0xbcb9fcfc	-0.02270364
217	0xbc336d26	-0.010951316
218	0xbdca91cc	-0.0989109
219	0x3d9975dc	0.07493183
220	0xbd50e421	-0.05099881
221	0xbcf626d9	-0.03004782
222	0x3cb038c0	0.021511436
223	0x3d4214f1	0.047383253
224	0x3ddd12a4	0.10794571
225	0xbda07696	-0.078351185
226	0xbc11682c	-0.008874934
227	0xbd5d0c3a	-0.05396674
228	0x3d5c08fd	0.05371951
229	0xbd8b6cbd	-0.068078496
230	0x3c649e20	0.013953716
231	0xbe0b87b6	-0.13625988
232	0xbd52de8d	-0.051481772
233	0xbc77dcbd	-0.015128312
234	0xbd63cfff	-0.055618282
235	0x3de4a45b	0.11164161
236	0x3d8140ea	0.063112095
237	0x3df1a265	0.117985524
238	0x3db60d63	0.08889272
239	0x3ca10229	0.01965435
240	0xbd1d97f4	-0.038474992
241	0x3d2c6707	0.042090442
242	0x3c46e232	0.01213889
243	0x3c2662ec	0.010155421
244	0xbbed655d	-0.0072447495
245	0x3dadcaf3	0.08485975
246	0x3dedcbb0	0.11611116
247	0x3d30f638	0.043203562
248	0xbd99cd92	-0.075099126
249	0xbd417583	-0.04723121
250	0x3dc14019	0.09436054
251	0x3da16779	0.07881064
252	0x3d13e746	0.03610923
253	0x3ced89e3	0.028996414
254	0x3cd12e86	0.02553488
255	0xbdaa00a7	-0.08300906
