data/models/uniANDbtc_gru.pth (torch, 155685 bytes, 9 tensors)

gru.weight_ih_l0 f4 [192, 1]
00000000: b0cd 5cbc a351 3dbd 2b5b 97bc 500a 3cbd
00000010: f339 1cbd 2643 aebd 2b23 b0bd 073c b33c
00000020: 6ee5 16bd bef0 c73d 5582 c73d e6a1 3cbd
00000030: bde4 a93d df99 8c3d 30c8 29bc d420 983c
00000040: a98e 29bd 1425 7cbd 91d0 0cbe 3cf3 eebb
00000050: 6ae8 c8bd e214 583c 8e3c ec3d b305 6b3d
00000060: 3bfa f43d b94b 8f3c 3e20 63bd a9c9 15be
00000070: dfd3 b0bd 7f2a 43be 6d7f b53c 71f0 323d
00000080: e68c 5f3a b8b2 4fbd 7215 053d c9a3 703d
00000090: 8c84 2dbd b4ec d93d dc7d adbd 5ff9 65bd
000000a0: b28e 19be 3626 593b b690 ad3d ca16 e4bd
000000b0: 0acb c93d e685 19bd edf9 6c3d fa07 83bd
000000c0: f7d3 fdbd 284c 0bbe 3767 28be f4ed e5bb
000000d0: 56fe 49be 2706 323e 97e3 42bd 2c1a 4dbc
000000e0: a161 c53d 2de8 fabd 8920 bdbd 1838 c0bd
000000f0: f1de 10be 9ac4 583d 4e5e 133d 5741 fbbd
00000100: e5f7 96bc 4867 703e 20a5 bb3d 08d2 583e
00000110: 4c2c 983a 5c2d 29be eb84 0bbe 6209 f63d
00000120: 2ded 40bd f19b df3d 26d7 373d 3360 043e
00000130: eafe 813d 848c c23d 309e 44bd 9b8d 5fbc
00000140: f956 343b fc5b 1bbd e1ad 1fbd 9684 9c3d
00000150: 13af cdbb 4df4 33bc 8b85 54bd ee76 5f3c
00000160: 1a3e c3bc 6971 c33d f1a4 453e 15ce 26be
00000170: a2bc 203c 1a44 40be c3d2 633e 4cf7 49b9
00000180: e065 193e fcda b2bd 12cb c2bc 7693 c5bd
00000190: b487 8f3d 86c7 153d 5958 393e 1380 333e
000001a0: 9c58 f1bd a580 ffbd 0dd2 57be 2923 053d
000001b0: 5942 3b3d c0ec 853d 9eb6 343e 054f 54bd
000001c0: d368 28be 2c03 8ebc 0488 2fbe c0ea e0bd
000001d0: 4b0e a8bd 054a b2bb 1157 ffbc 7692 41bd
000001e0: c6da 563d ce85 8f3c d720 5bbe 8f9d 55bd
000001f0: f254 3abc d6d9 b8bc 33b8 103e 9869 023e
00000200: f451 eebd 4842 4ebd adb3 bebd 81a0 fd3d
00000210: b009 10be ed7d 37bd 9bc1 ff3d 98b8 f93d
00000220: cfcb 50bd 4e0c b0bd 6592 f23d 38ee fd3d
00000230: 667e 1fbe 0390 1a3e 69b1 053e 5cd0 a1bd
00000240: ca06 bbbc 52e3 0f3d 73cc f03d ba47 153e
00000250: 5084 cc3d 40e9 043e 0840 233e 09c5 ec3d
00000260: 72e9 ed3d 1e87 18be 540e d93d 865f cc3d
00000270: 2c39 0a3d be83 b7bd efd8 ecbd add3 e5bd
00000280: d687 1b3e d16c 8e3d f313 213e f0b2 163e
00000290: 9c82 fd3d 0390 0fbb 2f1d afbd 1291 dcbd
000002a0: 74ef a23d 0c7c 08be 3d36 0c3e 91e6 153e
000002b0: 9039 fb3a cf43 b6bd d543 aebd 9970 e8bd
000002c0: f22b f4bd a737 f2bd 7bcd d2bd 22c6 d33b
000002d0: cc8c c0bd c97f e33b 264e 913d ee41 8bbd
000002e0: 4c4d f5bc f720 17be 090d cdbd 883e 0ebe
000002f0: 1d3c 073d 3191 babd 29a9 053e 65ef 023e
-0.013476774 -0.046220433 -0.01847609 -0.045908272 -0.038141202 -0.08508901 -0.08600458 0.02187921
-0.036839895 0.09762715 0.09741656 -0.046052836 0.082955815 0.06865286 -0.01036267 0.018570341
-0.041395817 -0.061558798 -0.13751437 -0.0072921794 -0.098099545 0.013188573 0.115349874 0.057378482
0.1196179 0.017492162 -0.05545067 -0.14627708 -0.08634161 -0.1905918 0.022155488 0.043686334
0.00085277704 -0.05070755 0.032491155 0.058749948 -0.042362735 0.10640851 -0.084712714 -0.056146022
-0.1499584 0.0033134348 0.08474867 -0.11137159 0.0985318 -0.03748121 0.057855535 -0.06398006
-0.12393945 -0.1360327 -0.16445623 -0.0070168916 -0.19725928 0.1738516 -0.047580328 -0.012518447
0.09637762 -0.12251315 -0.09234721 -0.09385699 -0.14147545 0.05292187 0.035978608 -0.12268322
-0.018428752 0.23476899 0.091623545 0.2117387 0.0011609881 -0.1652121 -0.13624923 0.120135084
-0.04710119 0.10918415 0.044882916 0.12927322 0.06347449 0.094994575 -0.04800242 -0.013644601
0.002751766 -0.03792952 -0.038984183 0.07642476 -0.006276974 -0.010983539 -0.05188517 0.013639195
-0.023833323 0.09543116 0.19301201 -0.16289552 0.009810599 -0.18775979 0.22248368 -0.00019260979
0.14980268 -0.08733174 -0.023778472 -0.096472666 0.07008305 0.036567234 0.18100108 0.17529325
-0.11784479 -0.12475709 -0.21076222 0.032504234 0.04571757 0.06539297 0.17647788 -0.05183317
-0.16446237 -0.017335497 -0.1714173 -0.10982275 -0.08205851 -0.0054409527 -0.031169446 -0.047258817
0.052454732 0.017519858 -0.21399246 -0.052152213 -0.011372792 -0.02256481 0.14132766 0.12735593
-0.11636725 -0.05035618 -0.09311614 0.12384129 -0.14066195 -0.044797827 0.12488099 0.121934116
-0.050975617 -0.08596097 0.11844329 0.12398952 -0.15575561 0.15093999 0.13055958 -0.079010695
-0.022830386 0.0351289 0.117577456 0.14578143 0.09986174 0.12979603 0.15942395 0.11561019
0.11616792 -0.14895293 0.10598436 0.09979157 0.03374593 -0.08960675 -0.11564814 -0.112220146
0.15188536 0.06954349 0.15730266 0.14716697 0.123784274 -0.0021905906 -0.08550488 -0.107698575
0.07955828 -0.1332857 0.13692565 0.14638735 0.0019166935 -0.08899652 -0.08509032 -0.11349601
-0.119224444 -0.11827021 -0.102930985 0.0064628283 -0.09401855 0.0069427234 0.07094984 -0.067996845
-0.029944085 -0.14758669 -0.10012252 -0.13891041 0.033016313 -0.09109724 0.1305281 0.12786634

gru.weight_hh_l0 f4 [192, 64]
00000000: c403 a9ba be6b 2bbc a767 efbc 83f4 d2bd
00000010: 2414 ba3d 3884 ebbd ead7 9e3d c8cc 71bd
00000020: f68c 65bc 8850 49bd 99d1 bdbc 7c6a e1bb
00000030: e30a 81ba 4c79 c33d abb5 cabd ea38 843d
00000040: b408 2cbb a45b 44b9 71c4 073e 1a62 9f3c
00000050: d118 053d dbc4 413d a839 ef3d 7522 333d
00000060: 0371 333e 55c4 f0bd 9aae 063d 1de8 8cbd
00000070: b47c 01bd b3e9 d63d 2232 94bd cbb4 583d
00000080: 9585 0f3e 8cc3 9dbc e926 a0bd 836a af3d
00000090: fdc8 cbbd c286 c83d 45b7 523c 646f 453d
000000a0: a999 bcbd b54f 4d3d 926e 48bd 1688 7c3d
000000b0: 47f4 14be 8ede 6abb 560b f5bd befa 833d
000000c0: 2447 cbbd 8b74 a13b 5980 aa3d 0b60 49bc
000000d0: 4773 acbd 8a52 173d 19a3 a03b 5c1b e23b
000000e0: 85c8 80bc 51f3 d6bc 833d acbd 1b3d 18be
000000f0: 7d1c 083c ddd6 033e ca66 cabd a6a0 da3d
00000100: 92af 9f3d 3304 b7bc e652 dabd f4df 373d
00000110: 705b 023e 9218 103e c5fd dbbc cee4 cdbd
00000120: ac16 a63d 7dbd e7bd abda 02bd fef9 d73c
00000130: 630f 1c3d d6a9 053d 30e7 bf3d 11f8 e73d
00000140: b997 623d 2c67 efbd 1f40 43bd 8dc5 efbb
00000150: 90fa 90bd 2794 3bbb f88c a9bc 4dd9 713d
00000160: 67c2 bebc fef7 463c 59b9 a43b 090c f1bd
00000170: 5193 26bd e76e c13c a92a 45bd 2c3c 6a3d
00000180: b029 d9bd 1437 77bd 5756 343d 8612 433d
00000190: fe88 05bd 0643 3cbc 00ba 4dbd a773 8d3d
000001a0: 1c6b 01be cb79 b73d f73e fb3c a156 b3bd
000001b0: 5a87 823b b6a9 e6bd b7e0 8a3d 4984 c6bc
000001c0: 263d 6cbd 3e55 083d 7629 203e 735f 0fbe
000001d0: d791 2cbd 733d e13d f523 513d 762e 8bbc
000001e0: 8c77 833d 55dd abbd 4001 df3c 970e e43c
000001f0: 559f 4abd 3fb2 26be 7d0d 003e 420a b7bd
00000200: 7f34 e53d d580 38bc aa54 bb3d 0260 af3b
00000210: 282c 00be 5770 77bd c81a 08bd 5b34 e33c
00000220: c728 93bd 5d06 cdbd 6fde a03d ff3b 0c3d
00000230: 0241 743d e5f7 09bd 7d27 74bd c835 edbc
00000240: f805 343d 4aad 07be e884 7fbc a939 87bb
00000250: 4bec a53d 5efe 13bd 181c 203d ac0c f7bd
00000260: ebba ef3d 8fc3 fcbc 2869 24bd e7a1 5dbd
00000270: ea93 99bc d913 09be c7c6 e23d d770 06be
00000280: 3c53 febd 676d 443d c5eb 76bc c9fc acbc
00000290: a927 fcbd 37a8 64bd 47fe 12bd 0855 a73d
000002a0: 25cb 6abd 129b 1fbe 6b4f 8e3c ee01 833d
000002b0: 9c16 c9bd 47f5 0c3e 724e e93d 3c8c c03d
000002c0: 2327 80bc 2995 74bd 5596 cbbd 7f8f b7bd
000002d0: 95e7 00be 2272 863d 3836 553d 7d75 d93d
000002e0: 37ef b73d 4bd0 dbbd 067b 1e3c 8198 ffbd
000002f0: 9fc3 9dbb 1b50 263e bf8d 8ebb a3aa 1f3d
00000300: b1a5 6dbc 29e1 ee3d 172c e9bb 2675 ffbb
00000310: 13e5 893c c07d 933d cd8a d7bc 594d 03be
00000320: 40d5 5cbd 41eb b4bd 0bac 26bd 4fbc 0c3b
00000330: c3cd a9bd 77c5 e6bc 2bcd 0c3b 53ea 34bd
00000340: 113d b5bd d6bf 223d d2c2 f93d f6d3 bb3d
00000350: ab5c a6bd 07ee cdbd fbe2 9ebc 7c3f 953d
00000360: 06ff 6a3d 5fbf 6c3d 46ef 89bc 0f3b 7abd
00000370: a65c a1bc 2695 893d 6688 e0bc 75d7 393c
00000380: 0f8c 543d f8c4 b63d 82a2 873d d3a9 83ba
00000390: 2f71 92bd 14d0 a8bd 378d ef3d 6ac5 083d
000003a0: 7da5 cbbd 614d 59bd 034e debd b69d eabd
000003b0: b0ba 623d 779e ff3d e705 613d 1481 303d
000003c0: 55f8 c8bd beee e0bd 59f4 563d ef4f 093d
000003d0: d556 97bd bd2b 0a3e 8328 f0bd c094 ef3c
000003e0: a76e 563d 37b8 583d b09c c93c 925e dc3d
000003f0: 9d21 ad3d 6b0c 02bd 7339 dabb afc7 d2bc
-0.0012894799 -0.010462699 -0.02922423 -0.10300543 0.09085873 -0.11499828 0.07756026 -0.059033185
-0.0140106585 -0.049149066 -0.023171233 -0.006879149 -0.0009845163 0.0954462 -0.09897932 0.06456168
-0.0026250305 -0.00018726155 0.1325853 0.019455958 0.03249437 0.047306877 0.11680919 0.043734033
0.1752358 -0.11756197 0.032881357 -0.068802096 -0.031613067 0.10493793 -0.072361246 0.052906793
0.14015801 -0.019258283 -0.078199215 0.085652374 -0.09950445 0.09791328 0.012861078 0.048201934
-0.09208996 0.050124843 -0.048933573 0.06165322 -0.1454631 -0.003583822 -0.11965053 0.0644431
-0.09925678 0.004927223 0.083252616 -0.012290965 -0.08420425 0.03694395 0.0049022553 0.006900234
-0.015720615 -0.02623907 -0.0841017 -0.1486706 0.008307573 0.12874933 -0.09882887 0.106751725
0.07797159 -0.02234087 -0.10660343 0.044891313 0.12730193 0.14071873 -0.026854405 -0.10053407
0.08109793 -0.11315439 -0.03194682 0.026364323 0.03810061 0.03263267 0.093702674 0.11326612
0.055320475 -0.116896 -0.047668573 -0.007317251 -0.07079041 -0.0028622241 -0.020697102 0.059045125
-0.023286058 0.012144087 0.005026978 -0.11769874 -0.040667836 0.023612453 -0.048136387 0.05718629
-0.106036544 -0.06035526 0.044027653 0.047625087 -0.03260135 -0.011490589 -0.05022621 0.069068246
-0.12638515 0.08958777 0.030669672 -0.087567575 0.0039834203 -0.112628385 0.06781142 -0.024233
-0.057675503 0.03328442 0.15640816 -0.14001255 -0.04213127 0.10998049 0.051059682 -0.016989928
0.06419286 -0.08391825 0.027222276 0.027838988 -0.049468357 -0.16278933 0.12505145 -0.089375034
0.111916535 -0.011261185 0.09147008 0.005352021 -0.12516844 -0.06040987 -0.033228666 0.027734926
-0.07185512 -0.10010979 0.07854926 0.034236904 0.05963231 -0.033683676 -0.05960797 -0.028956309
0.043951005 -0.13249698 -0.015595652 -0.0041267467 0.0810171 -0.036131255 0.039089292 -0.12062964
0.11705574 -0.030854968 -0.040139347 -0.05410948 -0.018747289 -0.13386478 0.1107307 -0.13128982
-0.124182194 0.047955897 -0.01507086 -0.021116631 -0.12312252 -0.055824485 -0.03588703 0.08170515
-0.05732264 -0.15586498 0.017371854 0.063968524 -0.098187655 0.13765441 0.113919154 0.094017476
-0.015643662 -0.059712563 -0.09940783 -0.089629166 -0.12588342 0.06564738 0.05205366 0.10618112
0.089811735 -0.10733088 0.009672886 -0.1248026 -0.0048145796 0.16241495 -0.0043503935 0.03898109
-0.014504836 0.1166404 -0.0071158516 -0.0077959476 0.016832864 0.07201719 -0.026311303 -0.12822475
-0.05391431 -0.088339336 -0.040691417 0.0021474545 -0.08291199 -0.02817033 0.0021484594 -0.04416878
-0.08849538 0.03973373 0.12195362 0.09171288 -0.08123144 -0.10055166 -0.019395342 0.07287499
0.057372116 0.057799693 -0.016837727 -0.06109148 -0.019697499 0.06717901 -0.02740879 0.011342873
0.051891383 0.089242876 0.06622793 -0.0010045118 -0.07150494 -0.08242813 0.116968565 0.033391394
-0.09943674 -0.05305231 -0.10854723 -0.11455862 0.05535382 0.12481397 0.05493727 0.04309185
-0.098129906 -0.109830365 0.05247912 0.033523496 -0.07389609 0.13493247 -0.11726477 0.029245734
0.05235162 0.052910056 0.024610847 0.10760225 0.08453677 -0.031750124 -0.0066596805 -0.025729982

gru.bias_ih_l0 f4 [192]
00000000: 01fc 24bd 8cd0 da3d 579f 05be ffd3 d4bc
00000010: c8f4 fabc b128 00be 3db8 17be a9fa 60bb
00000020: 0edb 01bd 1344 00ba 9d74 f7bd e71a fdbb
00000030: 98ac c939 b348 853c 93f3 d23d 43a1 c2bd
00000040: 316d 0f3c 53f0 db3d 602b aa3d 9fc7 9b3d
00000050: a4e3 a2bc 0103 16be a102 94bd 301b c93d
00000060: 1f66 1fbe 006b ac3d 8f23 2fbd cf52 66bd
00000070: 55e2 003e 1113 84bd b74e c5bd 490c 34bd
00000080: bcec 9d3d 23e3 a8bd ab0a 39bd 64c0 813d
00000090: 6528 8bbc 8c71 c93d 2c27 bcbd 9d97 bc3d
000000a0: 820e 493d 078e 07be 1e16 5f3d e1ef cebc
000000b0: b938 c2bd 635d 223d a578 e23d ba34 88bc
000000c0: 6872 10be 500f a33d 4996 0dbe cfd3 38bd
000000d0: b791 863d cdf3 9cbb 85c8 a8bd a828 0bbd
000000e0: 042f 623d 1ef8 db3d b874 5d3d 20ec febd
000000f0: 2a0a 0dbe ee2a 77bd fd59 ba3b ab23 01be
00000100: 3904 a7be f1da c7be 0319 41be db40 84be
00000110: a335 09bf 680a 90be 23a7 d3be 5bc0 a8be
00000120: f898 b9be f313 00be d7f4 99be 9c2e d1bd
00000130: 69be a7be acb2 60be 484e 4ebe 3628 53be
00000140: 16f1 79be f6c0 c1bd 31d4 0dbf e495 a9be
00000150: d5c7 2abe 14a1 bebe 3298 e9be 52a0 8dbe
00000160: 27ce 8ebe 7468 6abe 2032 c5be d278 0cbf
00000170: 2af2 6dbe 6d92 b4be 7a80 70be 73af aabe
00000180: 9fe9 8cbe c63e 98be 8874 ddbe c508 94be
00000190: eb6e 74be c3f4 07be b9ff 01be 4de6 9abd
000001a0: 551e a3be eaed 25bf 9d45 0ebf ffaf 9dbe
000001b0: c51f 97bd f215 84be 69a0 7fbe 83c2 87be
000001c0: 0a35 b8be f758 b5be a3a4 d5be bcfe 8e3d
000001d0: 07cc e5be 4cd4 88be fd8f 9bbe 999d 93be
000001e0: 899a 9abd 7093 d8be eddd 03bf 1195 debe
000001f0: d36e 68be bc6e f9be 22e6 4ebe 1a98 bfbd
00000200: 1482 b83d 6299 88bd c0e1 96bd 2ff2 013e
00000210: 50c6 db3d 2452 133d cc43 81bd 1e53 c23d
00000220: 76ac 94bd 0414 42bd 7e08 a43d 9106 d23d
00000230: 8e99 623c 5544 5c3c da27 943b 6366 0c3d
00000240: 724f 91bb d671 0e3c f137 a0bd d0c3 11bd
00000250: 368b 4d3d 521b dc3d 4d1a 253c 934c a63d
00000260: acb1 cebd 922d f2bd 4ece 4bbb 0a1c 26bd
00000270: e76a 5a3d 9001 4e3b 961e 8abc fd7a e23d
00000280: 53a4 82bd ec68 a5bd 922b 8c3d e948 97bd
00000290: d071 b73d 081c cabd 1e89 89bd dfa9 b3bd
000002a0: 3880 c0bd 6f22 9d3d 56e1 f1bd 056e a83d
000002b0: f88a d8bb 7ca6 3dbd 612a edbd 19c8 5d3d
000002c0: 5d2e d33d 4a4f 01bc 3409 d03d b633 a1bd
000002d0: 939e 083d 1cf0 cbbd 453a 5bbc abf7 e03d
000002e0: 3c76 273c 95fd a63d f439 ff3d 34d7 1a3d
000002f0: 387a 07be eb48 a2bc 2e7f b73d 00ab 423d
-0.040279392 0.106843084 -0.13049065 -0.025979994 -0.030634299 -0.12515523 -0.14816375 -0.0034329093
-0.031703047 -0.00048929563 -0.12082789 -0.0077241543 0.000384663 0.016270017 0.10300364 -0.095034145
0.008754061 0.107391976 0.083090544 0.07606434 -0.019883938 -0.14649583 -0.07227064 0.09819639
-0.155663 0.08418846 -0.04275852 -0.056231316 0.12586339 -0.06448949 -0.09634154 -0.04395703
0.07711169 -0.08246448 -0.04517619 0.06335524 -0.016987035 0.098361105 -0.09187159 0.092086054
0.0490861 -0.13237773 0.054464452 -0.025260868 -0.09483475 0.03963984 0.11058167 -0.016626704
-0.14106143 0.07961905 -0.1382686 -0.04512387 0.06570762 -0.0047898055 -0.08241371 -0.03397432
0.05522062 0.10740684 0.05406639 -0.12447381 -0.13773409 -0.060343675 0.005686997 -0.12611263
-0.3262041 -0.39034227 -0.18857197 -0.2583073 -0.5359747 -0.2813294 -0.41338453 -0.32959256
-0.36249518 -0.1250761 -0.3006961 -0.10213968 -0.3276246 -0.21943158 -0.2014705 -0.20620808
-0.24408373 -0.094606325 -0.55401903 -0.3312217 -0.16677792 -0.37232268 -0.45623928 -0.27661377
-0.27891657 -0.22891408 -0.38514805 -0.5487186 -0.2323691 -0.35267964 -0.2348651 -0.33336982
-0.2752199 -0.29735392 -0.4325297 -0.2891294 -0.23870437 -0.13276963 -0.12695207 -0.07563458
-0.3185908 -0.64816153 -0.5557497 -0.30798337 -0.073791064 -0.25797993 -0.24963535 -0.26515588
-0.35977966 -0.35419437 -0.4172717 0.069821805 -0.44882223 -0.2672447 -0.30383292 -0.28831175
-0.075490065 -0.42299986 -0.51510507 -0.43473104 -0.22698526 -0.48717296 -0.20204976 -0.09355183
0.090091854 -0.066698804 -0.07367277 0.12690042 0.107311845 0.035967007 -0.06311759 0.094885096
-0.07259457 -0.04738237 0.08009432 0.10255159 0.013830556 0.013444026 0.0045213522 0.03427733
-0.0044345194 0.008694133 -0.0782317 -0.035587132 0.05018159 0.107473984 0.010077071 0.08120074
-0.10092482 -0.11825098 -0.003109831 -0.040554084 0.053324606 0.0031434037 -0.016860288 0.110586144
-0.063789986 -0.08076653 0.06844248 -0.073869534 0.08957255 -0.09868628 -0.06715606 -0.08772635
-0.09399456 0.07672583 -0.118105575 0.082241096 -0.0066083632 -0.04630135 -0.11580349 0.054145906
0.103115775 -0.007892439 0.10158005 -0.07871191 0.033354353 -0.099579066 -0.013380592 0.10984739
0.01022106 0.08153836 0.124622256 0.03780289 -0.13230217 -0.01981016 0.089598045 0.04752636

gru.bias_hh_l0 f4 [192]
00000000: f298 703d 1c72 603d 894f e4bd df4e 15be
00000010: d68b 7bbd d5c4 e1bc 55b2 023d 1620 4f3d
00000020: 4aaf f53d 7302 933d 7f54 8fbd 5082 97bd
00000030: 9dd9 3bbc 206b efbd d339 ed3d efde a0bd
00000040: 09b0 c6bd 12e3 00bd 14e6 ab3c cf12 c6bd
00000050: 7776 88bd 5565 3ebc 12d7 a2bb 7f21 743d
00000060: f195 e6bd 3e5f a73b 87d4 b33d 12b3 72bd
00000070: d8f3 c33d 9a26 243d 4a94 febc 4903 04be
00000080: dd81 983d 595a 983d d0ac 09bd 35f2 a83d
00000090: 02e2 7a3d 1e47 873d 1603 0fbd 10e6 b43c
000000a0: ddb0 0f3d 38de f5bd 3211 b4bd c736 b7bd
000000b0: ace4 87bd cb50 e1bd 936f 753c c394 e1bd
000000c0: 7b67 8e3d d4d2 e53d 8922 c53d 939c da3d
000000d0: d273 fbbd 3fa8 58bc 4b9b f93c bc0a de3d
000000e0: 2164 9e3d 39a0 ddbd 8c20 123d ff01 c0bd
000000f0: f77d 4c3d 58b7 bb3d 136e 0ebd aa95 4c3d
00000100: 4b48 02bf 8b08 cdbe dc09 6dbe 662d 7ebe
00000110: b867 fcbe 2cdd 71be f2c9 cdbe c16d 2ebe
00000120: 0ad8 71be 466e 8cbe 4e6b bcbe ab04 4cbe
00000130: c31a aebe d8c2 94be f772 7abe d3a3 babe
00000140: bb33 c2bd 9a95 6cbe 0f8b c6be 340d 84be
00000150: 6f35 95be 57a0 6cbe a1c0 9dbe b5ad 89be
00000160: 6aa9 a6be fd28 cfbd 8739 bbbe 2df1 17bf
00000170: 372b 3cbe e680 16bf 9003 6cbe 8a59 07bf
00000180: 1e9e a2be 796a abbe e84d 75be deeb 8dbe
00000190: e825 9abe 3e2d 00be 9e28 c4bd b032 70be
000001a0: a295 8ebe 9bd5 f8be bc1e 11bf 320a b7be
000001b0: d9cf d3bd 8c4d 82be 00e8 18be 1498 d7be
000001c0: 2550 0ebf b4e9 89be ef00 f4be 4009 42bd
000001d0: a822 0ebf 3494 2bbe 3a51 bebe 7f3d 29be
000001e0: 931a d2bd 2b26 6abe 7d68 bdbe 8c58 a5be
000001f0: ec24 86be 32ac cabe 9f3e 49be 2116 1abe
00000200: 51c3 73bc ede5 cf3d 973d 7fbd 0cf6 a3bd
00000210: 71aa 183d 0a4c a03c 3bd9 51bd 6b04 93bd
00000220: fa4f 943d 346f e0bc a8e9 563d b6d0 bbbc
00000230: b883 b4bd 09c3 863d dd8d fe3c eee8 94bd
00000240: 2e52 cbbd 1e1f 523d 8b59 7dbd 4150 fb3d
00000250: cf62 d93d f732 00b9 dbec 753c 41bb 653d
00000260: 8a8f 253d 0084 e03c f3ed 29bc 0342 adbd
00000270: 121e febd 0e4c 923d d94f 23bd 4198 42bd
00000280: 1324 833d bd33 c03d 4cd5 173d 0646 c4bd
00000290: 3fef aabd f632 583d 7db3 aabd e1df d63c
000002a0: 5654 28bd c0d6 c439 7fdb d33d 904e 8b3c
000002b0: 7ebf fd3c 599a fbbd 23a4 9bbd 5a9d ddbd
000002c0: 3738 4abd e42d e8bd 1ac2 b13d 664a b7bc
000002d0: 225e d63c d681 eebc 2abe b1bd 9fdc babd
000002e0: c07c bd3c 9405 fd3a d001 8bbc d53a 243d
000002f0: c6af 8d3c 1d20 623c 2047 393c 526a e33d
0.05873961 0.054796323 -0.111479826 -0.14580868 -0.061412655 -0.027559677 0.031908352 0.05056771
0.11996324 0.071782015 -0.06998538 -0.07397902 -0.011465457 -0.11690354 0.11583295 -0.07855021
-0.09701545 -0.03146655 0.020983733 -0.09671556 -0.066632204 -0.011620839 -0.004969486 0.059602257
-0.11259068 0.0051077893 0.08780771 -0.059252806 0.09567994 0.040075876 -0.03107657 -0.12891878
0.074466445 0.074391074 -0.033612072 0.08249322 0.061250694 0.066053614 -0.034915052 0.022082359
0.03508078 -0.120052755 -0.08792342 -0.08945995 -0.066354126 -0.11001738 0.014980215 -0.11014702
0.06953331 0.11221853 0.09625728 0.106743954 -0.1227795 -0.013223707 0.030469557 0.10841891
0.07733942 -0.10821576 0.03567557 -0.09375381 0.049924817 0.091658294 -0.034772944 0.04994742
-0.5089156 -0.4004558 -0.23148292 -0.24822006 -0.4929788 -0.23619527 -0.40193135 -0.17034055
-0.23617569 -0.27427882 -0.36800617 -0.19923656 -0.34004793 -0.29054904 -0.24457918 -0.36453113
-0.09482523 -0.23103943 -0.38777968 -0.25791323 -0.2914233 -0.2310804 -0.30811027 -0.2689034
-0.32551128 -0.1011524 -0.36567327 -0.5935238 -0.1837586 -0.58790433 -0.23048234 -0.52871
-0.3176126 -0.3347967 -0.239555 -0.27719015 -0.30107045 -0.12517259 -0.095780596 -0.23456836
-0.27848536 -0.48600468 -0.5668752 -0.35749966 -0.10342378 -0.2544979 -0.14932251 -0.42108214
-0.5559104 -0.26936114 -0.47656962 -0.047372103 -0.5552163 -0.16755754 -0.37171346 -0.16527365
-0.10258975 -0.22866122 -0.3699378 -0.32294118 -0.26200044 -0.395845 -0.19652794 -0.15047504
-0.01487811 0.10151277 -0.062314596 -0.08005914 0.03727192 0.019567508 -0.051232558 -0.07178577
0.07241817 -0.027396776 0.052468926 -0.02292667 -0.08814186 0.06580169 0.031073505 -0.0727099
-0.09927784 0.051299207 -0.061852973 0.122711666 0.10614549 -0.00012226017 0.015010084 0.056086782
0.040420093 0.027406693 -0.010371673 -0.08459856 -0.12408079 0.071434125 -0.03987107 -0.047508482
0.06403365 0.09384868 0.03706865 -0.095836684 -0.08346414 0.052782975 -0.08335016 0.0262298
-0.041096054 0.00037544034 0.103446 0.017005235 0.0309751 -0.12285299 -0.07599666 -0.10821028
-0.049370017 -0.11336878 0.086796 -0.022374343 0.026167933 -0.029114645 -0.08678849 -0.091241114
0.023130774 0.001930403 -0.016968638 0.04009517 0.01729573 0.013801602 0.011308461 0.11104263

gru.weight_ih_l1 f4 [192, 64]
00000000: c432 e0bd f943 403d 61d0 b43d a703 1b3c
00000010: f21e 463d 07ea 1d3c 1e65 c13d 1d6a 0c3d
00000020: 841a af3c db4a 96ba 4d5d a7bd f532 fb3c
00000030: 6b2e 8abd 9660 f5bb a8f2 d13d 9994 31bb
00000040: 1e95 0a3e cdfd 91bd 797d 16bd 41b0 883d
00000050: bb46 b33c 4d30 47bd aac8 763d 5ad8 173d
00000060: a848 d8bd 5485 273d 20b5 26bd f224 f03c
00000070: cccd 14bd acde 9ebd fbe9 ca3c 5f5d 713d
00000080: 7bf6 0fbd 3d40 703b dca0 9b3d a996 973d
00000090: 8b34 85bd 6456 a3bb cf6f 0a3e 045e e73d
000000a0: 047f 77bd 0781 913d d23e a33c a5a9 253d
000000b0: ddc8 d5bd 6b3e b7bd 9588 893d cd40 cabd
000000c0: 8787 d33d 0eab ae3c c5da e33c a9fa c2bd
000000d0: c184 a33d 55e9 bdbd 7a02 4fbd 0518 08be
000000e0: 3b24 013d 12dc 08be df27 1d3d 2b95 803d
000000f0: 9e1e 373a 3b9f 7cbd f226 8f3d c64b 563d
00000100: 2dce 153d f35b 98bd f6a7 c13d 126c eabc
00000110: cd9e 1bbd d391 c3bd e017 143d 4fe1 e43d
00000120: be70 1f3d 5670 f1bd df3f 0a3e e2f6 b4bd
00000130: 972c bbbd 024b 063e 5706 163e 699a 85bd
00000140: 354c 9bbd 2f73 3e3d 0fa2 583e 191b 193e
00000150: 6183 13bd 836c 283e 6f2c 3cbd 6222 cf3c
00000160: 6777 573e db01 80bd 9153 d23d 1585 d43d
00000170: 28a8 b63d d6c7 e8bd caab d9bc 4f34 c1bd
00000180: 5dcb 113c 91bb ef3d 1974 273e 7bca 103e
00000190: 9511 603e 8d49 a63d ab8d 28bc 9475 9cbd
000001a0: 654f 203e 6b5c 55bc 1188 2f3e 60bb b83c
000001b0: b2d1 6f3d 8974 a53d bde9 bd3d 5fc3 2c3d
000001c0: 2df9 13be 662a 42be fc5d abbd 6789 f0bd
000001d0: 7a05 a0be 72e8 b13b be84 6c3e 0840 fbbd
000001e0: d06e c33d e0d1 09be 89a9 a3bd 4c61 8bbe
000001f0: 10bc 003e e64e 07be 1c5d a2bd d641 053d
00000200: 3ad5 8a3d a27f a83d 8a13 163d df36 1e3d
00000210: 1c01 a93d 2ced 95bd 4f7a 123e d5da dbbd
00000220: 6482 863d 54d8 ee3d e3a9 26bd ef60 5cbd
00000230: 05af e2bc d43a aabc a4dc 053e 3881 ae3d
00000240: 81ec 813a 7b2d d43d 266a f43d 9fb9 133d
00000250: 43c1 81bd 8a93 c03c 8dc6 c8bd acab 983d
00000260: 4bf7 683c 2596 e53c 82bc 783c 1b04 0dbd
00000270: 5554 edbd dba7 92bd a925 c7bd 0061 373c
00000280: ddd7 b8bd 4d04 843d 2f5e bfbd a8ec 933d
00000290: 5c0b 2bbc ab5c 73bd 163c 2d3d 686c 0ebd
000002a0: 8f54 b83d a60d cdbd b404 293d e85d 073e
000002b0: 1be4 433d 76d0 e93d 58c3 c4bd 2fea 9a3d
000002c0: 8b87 5c3d ed22 81bc e9e8 d43d 3653 c93d
000002d0: 6015 18be 0986 033d 4815 27bd 0198 5b3d
000002e0: 1082 6bbd b480 acbd 99c4 7fbd 54ba e8bb
000002f0: 7066 793d 4525 423d a079 ccbd fb15 edbd
00000300: 1fd1 a03d 58e1 243d 79e9 9f3b 31f2 08be
00000310: 42cd 0abe ad93 c8bd 8a90 943c 06d3 c43b
00000320: e4e7 e0bd 637d ef3c 3c7a 41bd 9949 973d
00000330: 3f11 aabc 09f9 e3bc b769 60bd 4305 2ebb
00000340: d560 763c 681f 50bd b077 19bd d507 e03b
00000350: 41f1 203d 96f6 893d a223 81bd aec2 8dbc
00000360: 01c5 ac3d ba67 d1bd a422 483a 2fe4 8dbd
00000370: b8b1 ca3d f3b6 9dbd 6643 2cbd c09f c1bd
00000380: 2f1c c9bd 11bd b63d 2777 333d ac99 203e
00000390: e6ac 903d d7d4 b8bd c7fa 5bbd bf5c bbbd
000003a0: 7a81 f83d e499 033d 3278 67bd 09e9 95bd
000003b0: cef1 97bd 95d7 ad3d ac34 a53d 5b21 ef3d
000003c0: 4f18 463d 988e a83d 68ba cebd 4b7e c23d
000003d0: 7948 983d 3817 893d 9dda 323d 04f9 a23d
000003e0: 4039 693c 7537 253d afb9 643d ad42 7e3b
000003f0: 35c3 0a3e f923 99bb 10f9 d33d 83ab b03d
-0.10947183 0.046939824 0.088288076 0.00946132 0.048369355 0.009638316 0.09443115 0.034280885
0.021374948 -0.00114664 -0.081720926 0.030663947 -0.06747135 -0.0074883206 0.10251361 -0.0027096628
0.13533446 -0.07128487 -0.036740754 0.06674243 0.021884313 -0.048630048 0.060249962 0.037071563
-0.10560733 0.040898636 -0.040700078 0.029314492 -0.036329076 -0.07757315 0.024769774 0.058926936
-0.03514717 0.0036659383 0.07599041 0.07401783 -0.065041624 -0.004984664 0.13519214 0.11297229
-0.060423866 0.07104688 0.019927416 0.04044499 -0.10438702 -0.08947452 0.06715504 -0.09875641
0.10328584 0.0213218 0.027814278 -0.09520466 0.07984305 -0.0927302 -0.05053947 -0.13290413
0.031528693 -0.133652 0.038368102 0.062784515 0.00069854583 -0.06167529 0.0698985 0.052318357
0.036573578 -0.07439413 0.09455864 -0.028615985 -0.03799324 -0.09549298 0.03615558 0.11175787
0.03892588 -0.117890045 0.13500927 -0.08836152 -0.09139364 0.1311455 0.14650856 -0.06523592
-0.07582895 0.046496566 0.2115557 0.14951743 -0.036013965 0.16447644 -0.045940813 0.02528495
0.21041642 -0.06250354 0.10269845 0.10376946 0.08918792 -0.11366241 -0.026571173 -0.09433805
0.008898583 0.11705697 0.16352881 0.1413974 0.21881707 0.081194974 -0.0102876825 -0.07639614
0.15655287 -0.013022522 0.17141749 0.022550285 0.05854959 0.08078868 0.09273098 0.042178508
-0.14450522 -0.18961486 -0.083675355 -0.117449574 -0.31254178 0.005429321 0.23097512 -0.12268072
0.0954262 -0.13458967 -0.07991321 -0.2722267 0.1257174 -0.13213691 -0.079279155 0.03253349
0.06778951 0.08227469 0.036639728 0.038626548 0.08252165 -0.073206276 0.1430447 -0.10735098
0.06567839 0.11662355 -0.04068936 -0.05380338 -0.027671346 -0.020780005 0.13072449 0.0852074
0.0009912403 0.10360237 0.11934309 0.036065694 -0.0633569 0.023507852 -0.098034956 0.07454619
0.0142191155 0.028025696 0.0151816625 -0.034427743 -0.11588351 -0.07160922 -0.0972398 0.01119256
-0.09025548 0.06446133 -0.09344136 0.07222873 -0.01043972 -0.059414547 0.04229363 -0.034771353
0.09000503 -0.10012369 0.04126425 0.13219416 0.04782496 0.11416714 -0.09607571 0.07564198
0.0538402 -0.015763724 0.103959866 0.09830324 -0.14851904 0.032110248 -0.04079178 0.05361176
-0.057497084 -0.08422986 -0.06244335 -0.00710229 0.060888708 0.047398824 -0.09984136 -0.11576458
0.07852387 0.040253967 0.004880127 -0.13373639 -0.13554862 -0.09793792 0.018135328 0.0060066013
-0.109817296 0.029234594 -0.047235712 0.073870845 -0.020760177 -0.02782871 -0.054788318 -0.002655343
0.015037735 -0.0508112 -0.03746766 0.006836871 0.039292578 0.06736486 -0.063056245 -0.017304745
0.08436013 -0.102248624 0.00076345564 -0.06928288 0.098971784 -0.077009104 -0.042056464 -0.09454298
-0.09819829 0.0892278 0.043814804 0.15683621 0.07064228 -0.09024971 -0.053705957 -0.09148549
0.12134071 0.032129183 -0.05651111 -0.073198386 -0.074191675 0.08488385 0.08066687 0.11676284
0.048363026 0.082303226 -0.10094148 0.09496745 0.07435698 0.06693882 0.043665517 0.07957652
0.014234841 0.04033609 0.055841144 0.0038797066 0.13551028 -0.0046734777 0.10350239 0.08626463

gru.weight_hh_l1 f4 [192, 64]
00000000: a859 ea3d acb8 e7bb 7b19 69bc 9b5a 373c
00000010: 8905 b33d bd37 d7bd 0211 57bd 19ff 18bd
00000020: 689d a7bd 6c9f 62bb 7daa a53d 27af c83d
00000030: c62e a63c 796b 743d 9cc8 5fbc 007c 573d
00000040: 85e8 a8bd db22 74bd 4f76 353d 0c70 edbb
00000050: a37b 023e 8c31 423d 8553 44bc 09f1 41bc
00000060: 3fde ce3c 6a6a 873d cf6d e0bd 31a4 cf3c
00000070: 2da0 963d 1ecc dfbd 0ac4 9a3d 176b c13c
00000080: a17d efbd f84c d5ba 6e17 a13d d4d4 823d
00000090: 1056 2c3c d5f2 06bb e133 f1bd 91dd 8f3d
000000a0: 2a7f 5f3d 196c b1bd 7923 f6bd b5aa 83bd
000000b0: 1630 d7bd a777 1fbd e5c0 573d 3d0e 843d
000000c0: acee 983c b774 fabd 5865 2f3d 6665 093e
000000d0: 707f 9dbd a32b 9f3d 9c2e 72bd fe95 16be
000000e0: e10e a5bd cc95 7bbd b8c7 7d3d 1076 0f3d
000000f0: 712b 68bd 4764 27bd 17c8 793d 94bb 913d
00000100: 29ce 12bd 1611 aa3d 5b33 1f3d 8486 193e
00000110: 20be 313e 7a85 f63c 156b 983d 3e4f 103e
00000120: 30a1 013e ddda 9bbd 49c1 efbd 4d40 483c
00000130: b80b 0c3b a3aa 63bd 1992 193b 4592 a33c
00000140: 8c58 133d 25c0 073b 41c6 773d 45c3 6d3d
00000150: f84a 443e 4c8e 1ebe d38c 61bb 4769 013e
00000160: fd51 ddbd 63ab 523b cd59 92bd d6d4 013d
00000170: e650 083c 2499 0b3c 11bf bfbd ca0c 983d
00000180: 9566 5ebd 4ee0 2a3d 6f0f e1bd fe64 273d
00000190: ee4b 803d e6b9 173d 6e33 e2bc a061 0e3e
000001a0: 6a21 bd3d c27c 0fbd a0a4 1d3e 60c9 043d
000001b0: c634 823b 01f1 9c3d 8f7f 8dbc e090 d3ba
000001c0: ef2d dbbc 568e e53c 68b2 f8bc 252f d63d
000001d0: fcca d53d f933 973d 9324 ea3c 57b8 213d
000001e0: b16f 32be ce11 80bd 728d 1d3d 1b1b 3abd
000001f0: e7c4 97bc bf38 fe3b fe43 4fbc 047e eb3d
00000200: 2ca2 f73d 1955 5ebd 8119 153d 2d30 b33d
00000210: f687 f13c 3fd2 5fbd da0b 0a3e f494 65bd
00000220: 9c36 a43d b088 7b3d 6ef4 84bc d0e7 1ebd
00000230: a0f9 ef3c 8308 b1bd 5010 0c3d f893 5f3d
00000240: 3d5b 3dbd 10fd e73d 6c2d f3bd 3df1 0abc
00000250: 5e7c ee3d c841 19bd 9e74 a53d b403 f2bd
00000260: bd29 e0bd 3c2f f53d 1d77 aebd e530 41bd
00000270: 7890 8f3c 5bdb 893d 4a81 403d 4385 ef3d
00000280: 525c db3d f020 163d 3fbe 1dbe 3289 c23d
00000290: db5b 903c 4579 72bc c5a9 27bd ebd7 b2bc
000002a0: 20ea 1ebd 8920 b5bc 270e 93bc 80bc bb3b
000002b0: 5236 cdbd 0da7 62bd a444 5bbb 221d 49bd
000002c0: dae3 78bd 9ed4 acbd d230 b03d f6db b53d
000002d0: ed4c acbd 25f4 f93c 849f 2a3d 2501 543d
000002e0: 37cc c1bd 3fd6 d4bd d873 ff3c f2f3 713d
000002f0: 25ff 73bb 1b0d cdbd e0f5 c23b 89eb 53bd
00000300: f8e0 753b 9fad 1b3e 8bf4 17bd ef92 bfbc
00000310: ca31 d13d 1904 063c 4adf b83d 0e79 4d3c
00000320: 3ee6 033e 962e 08bd bdb4 0f3d 7e83 16bd
00000330: c019 1c3d d090 a33c 8d93 9fbc 158b cabd
00000340: 6f54 b3bd 9699 a6bd 46b1 6e3d 2556 0e3d
00000350: bcb9 a0bc 32e6 403d 3dd8 6abd 37e5 aa3b
00000360: bac7 c2bd 2195 a9bd a203 053e 7fb4 24bb
00000370: 358c 88bd bc9f b1bd ecea e2bd 4b3e 1d3e
00000380: 7ac7 243d c712 2abd 99dd acbd b378 fbbc
00000390: 1a57 023e eaa8 b3bd 9ddc e8bd 6388 d43d
000003a0: 25c6 313d 8c75 74bd 7004 bb3d 26fd 463d
000003b0: 1a31 d2bd 5ff7 e1bc 0fe7 e93d 2a8e 58bb
000003c0: 66d6 1dbd 15fc 59bd c259 7fbd fb12 54bd
000003d0: 4620 5e3d ce17 063d 86b0 acbd ac5d ad3d
000003e0: 52e5 773d 6023 87bd 7492 59bd 35b8 813c
000003f0: b2fe a0bd a868 e93d 48ac 99bd 34cd b6bd
0.11442882 -0.007071575 -0.014227266 0.011191036 0.0874129 -0.10508678 -0.052506454 -0.037352655
-0.0818432 -0.0034579886 0.08089159 0.09799033 0.020285975 0.059672806 -0.013658669 0.05260849
-0.082474746 -0.059603553 0.04430228 -0.007246023 0.12742476 0.047410533 -0.011982803 -0.011837252
0.02525246 0.06612094 -0.10958444 0.025346847 0.0735477 -0.10927604 0.07556923 0.023610635
-0.11693884 -0.0016273549 0.07865797 0.0638825 0.010518566 -0.0020591517 -0.11777473 0.07024682
0.054564632 -0.08663196 -0.120184846 -0.06429044 -0.105072185 -0.03893247 0.052674193 0.06448028
0.018668495 -0.12229293 0.04282126 0.13417587 -0.076903224 0.07771995 -0.05912648 -0.14705655
-0.080594786 -0.061422154 0.061958045 0.035024703 -0.056682054 -0.040867116 0.060981836 0.07115856
-0.03584114 0.0830404 0.038867336 0.1499272 0.17357683 0.030092943 0.07442299 0.14092728
0.12659144 -0.07610104 -0.11706788 0.012222362 0.002136929 -0.055582654 0.0023433028 0.019967208
0.035973117 0.0020713892 0.060491804 0.05804755 0.19169223 -0.1548397 -0.0034416213 0.12637816
-0.10806654 0.0032145611 -0.071460344 0.031697117 0.008320069 0.008520398 -0.09362615 0.07424314
-0.05429705 0.04171782 -0.10989272 0.040867798 0.062644824 0.03704252 -0.027612414 0.13904428
0.09234889 -0.035031088 0.1539483 0.03241861 0.0039735762 0.07663155 -0.017272739 -0.0016141199
-0.026755301 0.028021973 -0.030358508 0.10458211 0.10439107 0.0738296 0.028581893 0.03948244
-0.1742542 -0.06253396 0.03846497 -0.045436006 -0.018526508 0.0077582295 -0.012650488 0.11498645
0.12091479 -0.054280374 0.036401276 0.08749423 0.029483777 -0.054643866 0.13481084 -0.056050256
0.080182284 0.061409652 -0.016229834 -0.038795292 0.029293835 -0.086442016 0.034195244 0.054584473
-0.04622959 0.11327565 -0.11873898 -0.008480367 0.11644815 -0.03741625 0.080788836 -0.118171126
-0.10945461 0.119719 -0.08518813 -0.04716577 0.017524943 0.06731292 0.0469983 0.116953395
0.10710968 0.036652505 -0.15404604 0.09498824 0.017621925 -0.014799421 -0.04093339 -0.021831473
-0.038797498 -0.02211024 -0.017951084 0.005729258 -0.100201264 -0.055335093 -0.003345766 -0.04910005
-0.06076417 -0.08438991 0.08603062 0.08879845 -0.0841311 0.030511925 0.041656032 0.051758904
-0.09462779 -0.10392427 0.031183168 0.059070535 -0.0037230935 -0.10012265 0.0059497207 -0.051738296
0.0037518125 0.1520295 -0.03709845 -0.023385493 0.10214575 0.008179688 0.09026964 0.012541069
0.12880799 -0.033247553 0.035084475 -0.036746494 0.038110495 0.019966513 -0.019479537 -0.09889809
-0.08756339 -0.08134763 0.05827453 0.034750123 -0.019619815 0.04709453 -0.057335127 0.005215313
-0.09510751 -0.08280397 0.12989667 -0.0025131998 -0.06667367 -0.08673045 -0.11079964 0.15355794
0.0402293 -0.041521814 -0.08440704 -0.030697202 0.12728539 -0.08772452 -0.11370204 0.10377576
0.043401856 -0.059682414 0.09131706 0.048581265 -0.10263272 -0.027583776 0.11421024 -0.003304372
-0.038534544 -0.05321892 -0.06234146 -0.051775914 0.054229997 0.032737546 -0.08432107 0.08465132
0.06052143 -0.06598544 -0.053118184 0.015834907 -0.07861079 0.11396915 -0.07503563 -0.08925858

gru.bias_ih_l1 f4 [192]
00000000: 3fc8 d33d fe27 0dbd 37b8 0b3d 8c2b 90bc
00000010: b2d6 91bd 94b5 583e 09e1 cf3c 014b ee3d
00000020: 3a8b 47bd ce3f 253d 34ec 643d ef49 46bd
00000030: 71f0 e53c be61 ba3c f32e 393a b743 453d
00000040: 6178 87bd ac1a d93d 7899 a7bc 5778 19bd
00000050: a1d6 4abd 0523 ccbd 1e96 113d 760f b73d
00000060: ad8f 1abd c881 babd d163 a73d c35f e63d
00000070: 430c c1bd 854f f4bc c3aa b43d 78ef 09be
00000080: 0f3a 74bb f12c fbbd d131 e2bd a21c b6bd
00000090: 352d e6bd e61d 06be 59fe 1f3d b1b0 033d
000000a0: 701b 96bd e35e cc3d 847d c1bc 7317 b9bd
000000b0: 3e36 b93d 4b67 94bc 2278 44bd b4ea 623d
000000c0: 5caf 47bd 1f45 51bd c4ce c13c b749 8bbd
000000d0: b7f4 d6bd 21c4 aebc 3941 2e3d a3ab cf3c
000000e0: 9604 9dbd c827 543c 06ef 5d3b ecac f3bd
000000f0: 17bb eebd 68f9 523b 4062 4bbc 0caa 23bd
00000100: d9e4 d6bd 035b 80be d8fb 5e3d 530a 6ebd
00000110: 8e5e a6be a8bb 8bbe 8166 963d ba8d 31be
00000120: 3fac 92be 7c3b acbd 6dd8 0abe 8ca5 74be
00000130: 12ad 9cbd 5ed8 88be 361a 64be 4058 b03c
00000140: 4a2f 06be 9ed9 89be 9af9 05be 21ba 863d
00000150: 00bc 39be 6915 66be 22e2 2bbe c5c1 05be
00000160: 7f9e 00be f718 1bbe 40e0 c8bd 44c1 21be
00000170: b4df 08be 4814 fdbd 6e7b 303d df98 68be
00000180: 156e a6bd 0c40 bc3d 34f9 95be 1770 0cbe
00000190: 9584 aabd 849e 91be 62e4 20be a4b4 9ebe
000001a0: beeb ae3c ee75 6cbe b5d7 aebd 6121 f3bd
000001b0: 46f5 4fbe bef3 69be 2921 85be f14b 35be
000001c0: ebaf 953b 12da 76be a32a b3bd 6300 b2be
000001d0: 7955 8bbe 245f a3be 54c6 88be 94dd 7cbe
000001e0: 84b0 5ebe 0bb3 5ebe bc12 8ebe 814b 133d
000001f0: 8b56 95be aa93 94be 2f3e 7fbd 97a5 c8bd
00000200: 66a2 193d cdce cb3d 4ab8 d0bd 87d0 4c3d
00000210: e094 e1bd a1d4 82b9 36a8 31bd 588e d8bd
00000220: eed2 e2bd 91d7 bf3c f9c3 4dbd e1c9 f83c
00000230: 4fa3 b5bd a338 cbbd ad44 a63d c2db 203d
00000240: ae39 9cbd 3326 c6bd 1cb5 c3bd b196 63bd
00000250: e2a8 fcbd a302 93bd 4d0f 2ebd 99f7 eabc
00000260: 8b5d 4dbb 5636 bc3d 714d bbbd 983a 013d
00000270: e3bc 0f3d ad04 a5bd 2b85 03bd 5d1c 22ba
00000280: fc1e 07bd 8e23 87bc 1fe4 823d 60a7 bf3d
00000290: 1f66 cdbd 6cf7 92bd 2ece 383c 77ce 6c3c
000002a0: 01e9 a4bd 1ac8 b93d 98a0 d53d 0ab8 e2bd
000002b0: c4b4 e5ba c36c fdbd 9f08 62bd 3df1 ca3d
000002c0: 8691 b7bd 7b50 d43d 5717 f4bd 524e adbc
000002d0: 2444 e3bd 9f2f a83d 460d 4abd b4a9 3b3d
000002e0: bb5d d5bd 26ee cdbc 38b3 61bd 3205 ac3d
000002f0: 39de e73d b6a0 21bd add0 7abb a48d 74bd
0.10340928 -0.034461968 0.034111228 -0.01759889 -0.07121028 0.21163017 0.02537586 0.116353996
-0.04871676 0.040344052 0.055889323 -0.048410352 0.028068753 0.022751685 0.0007064186 0.04816028
-0.06614757 0.106007904 -0.020458922 -0.03746828 -0.049521092 -0.09967617 0.035543554 0.08938496
-0.037734676 -0.09106785 0.08173335 0.11248734 -0.09426167 -0.029823074 0.08821633 -0.13470256
-0.003726605 -0.12264431 -0.11044658 -0.0889218 -0.11239091 -0.13097343 0.039060924 0.032150928
-0.07329452 0.09979036 -0.02361942 -0.09037676 0.09043549 -0.01811566 -0.04796613 0.05539961
-0.04875122 -0.05109131 0.023658164 -0.06801169 -0.104958944 -0.021333756 0.04254267 0.025350397
-0.0766689 0.012948938 0.0033864393 -0.118982166 -0.11656778 0.0032192115 -0.012413561 -0.03995709
-0.10492868 -0.25069436 0.054439396 -0.058115315 -0.32494015 -0.27291608 0.0734377 -0.1733922
-0.28647038 -0.08409783 -0.13559122 -0.23891276 -0.07650198 -0.26727575 -0.22275624 0.021526456
-0.13103977 -0.2692384 -0.13083497 0.0657847 -0.18138123 -0.22469105 -0.16785482 -0.13062198
-0.12560461 -0.15146242 -0.09808397 -0.15796381 -0.13366586 -0.12357384 0.04308646 -0.22714566
-0.08126465 0.091919035 -0.2929169 -0.13714634 -0.08326069 -0.2844125 -0.15712121 -0.30997193
0.021352645 -0.23091862 -0.085372366 -0.11871601 -0.20308408 -0.22846887 -0.26001862 -0.1770475
0.00456809 -0.24106625 -0.08748367 -0.3476592 -0.27213648 -0.31908524 -0.26713812 -0.246939
-0.21747023 -0.21747987 -0.27748668 0.035960678 -0.2916759 -0.2901891 -0.062315162 -0.09797209
0.03750839 0.099515535 -0.101914 0.050003555 -0.11014724 -0.00024953953 -0.04337331 -0.10574025
-0.11075388 0.02341822 -0.050235722 0.0303697 -0.08869039 -0.09922912 0.081185676 0.039272077
-0.07628189 -0.09675255 -0.09556028 -0.055563632 -0.12336899 -0.07178237 -0.04249506 -0.028682517
-0.0031336274 0.09190051 -0.0914563 0.03155002 0.035092246 -0.080575325 -0.03210942 -0.0006184036
-0.032988533 -0.016496446 0.06391167 0.09358096 -0.10029244 -0.07176098 0.011279626 0.014453522
-0.080522545 0.090713695 0.104310215 -0.11070259 -0.0017525186 -0.1237426 -0.055184003 0.09909294
-0.08963303 0.10366913 -0.11918514 -0.02115551 -0.11096981 0.08212208 -0.049329065 0.04581614
-0.10418268 -0.025137972 -0.055102557 0.083994284 0.113216825 -0.039459907 -0.0038271353 -0.05970539

gru.bias_hh_l1 f4 [192]
00000000: ab47 9dbd 7af1 0fbc 5be8 a53d 4802 80bd
00000010: 124c 00bd 02c6 dc3d 65e5 ed3d f5ea b8bd
00000020: d99b b33d ee13 663b cfec 28bd 7b1b 593d
00000030: 6d17 3c3c 491c 04bd 6119 703d 799c 8a3d
00000040: 2dc5 b1bd 972b 173d 271f 3cbd eacd 82bd
00000050: a76f d9bd 184d a4bd 5fc9 03bc 38df 0bbd
00000060: eabb 0c3d 2bed 19bd e020 f6bd 949d 2e3d
00000070: b434 4d3d b39f bd3d 617d aa3d a3f7 a83d
00000080: 812c 4f3d 2511 9abd d192 353d 8b52 ca3d
00000090: 5dce ccbd 905a 8d3d 162e 313a cd1b 2b3d
000000a0: 4979 973d 334b cd3d 703d 7c3d 19c4 8b3d
000000b0: b012 793c 2d43 c3bc 11b8 bbbd 6578 d63c
000000c0: a8fb e53d 9a7f b03d 45cf e73d ce1c 903c
000000d0: da43 803d 0ea4 b0bd 6318 f2bc 86d7 a5bc
000000e0: 5139 a6bd a332 833d 32ba ca3d 1a37 f13d
000000f0: a259 bbbd ba73 053e a70d cbbd 505d 2d3d
00000100: df48 69be 42d9 48be ec64 863d a694 16be
00000110: c0a2 91be 9de7 b6be a3d4 c8bd 058f a6be
00000120: 557d dfbd df5b 6abe 267a 64be 696d 10be
00000130: c9bf 7abe b009 71be 6813 27be e86c 193e
00000140: 1e40 f1bd b471 2abe 13e7 0bbe 2326 06be
00000150: c694 9bbe 1836 90bd 0aa1 b9bd 6adb 78be
00000160: 1a14 11be 08d8 0ebe 986b 2cbe 7402 03bc
00000170: 9ad1 2cbd af6e bbbd 5ffa 4fbd 3d5d 4cbe
00000180: d5a7 c9bd 243d 543d a987 6bbe a0ff c3bd
00000190: 76b0 a5bd 0510 86be 7c4b cebd 2847 c7bd
000001a0: b090 c3bd b956 17be 4bf6 13be c250 adbe
000001b0: f8b8 64bd a74c 60be f133 63be b050 e8bd
000001c0: 9a08 80bd 5ab9 30be 3a32 02be 5873 23be
000001d0: c4fa 36be 4554 95be 2331 81be d791 86bd
000001e0: b4d8 07be c3a8 83be 6867 8cbd f87b c53d
000001f0: 88e2 1cbe bdeb 9abe e156 55bd 3b4c 96be
00000200: 9802 753d 88f2 003d 2be1 9abd 0f8d ecbd
00000210: f8d8 153d f35c d2bc 404f 48bd e21f 02be
00000220: 414d de3c 0b79 d73d 8178 ee3c 3757 383d
00000230: 2798 233d 6df4 a2bd 39d4 0f3d edf1 d73d
00000240: fe30 a13c f23f ad3d 848c dcba 46c4 583d
00000250: d50f 9d3d 2ac0 98bd aa20 a33d 1e89 3b3d
00000260: f33c 853d e168 aabc 9c31 ce3c edff e53d
00000270: e7c9 143c ba40 c73d 2a28 34bd 276b aabc
00000280: 38d0 613d 6878 c7bd 7a09 efbc 6748 88bd
00000290: 5812 e13d 2e02 c73d 800b e23d e396 b73d
000002a0: 006b 93bb 009a b1bc 52ea 813d 704f f7bd
000002b0: 21d3 ef3b 4586 c23d b1a6 d33c 86ed 73bd
000002c0: 1dce 593c 3f79 cebc 8980 d13c 5ac6 f7bd
000002d0: fc4d adbd bf59 c9bd 6acd e1bd c221 313d
000002e0: 9d3f a73d 3631 fd3d 2ead a2bd adb1 c8bd
000002f0: 4251 3ebd c75d c63d 2b2b 0b3d c4d5 db3d
-0.07679685 -0.0087856 0.08100959 -0.06250435 -0.031322546 0.107799545 0.11616019 -0.090291895
0.0876996 0.0035107094 -0.041241463 0.053004723 0.0114801945 -0.032253537 0.058617953 0.06768126
-0.086801864 0.036906805 -0.045928147 -0.06386931 -0.10616999 -0.08022517 -0.008043616 -0.034148425
0.034358896 -0.037579697 -0.12017989 0.042630747 0.05009909 0.09258976 0.083246954 0.08250358
0.05057955 -0.07522801 0.04432947 0.09879025 -0.10000298 0.06902039 0.00067588815 0.04177456
0.0739618 0.10024109 0.06158203 0.06824512 0.015202209 -0.023835743 -0.09165967 0.026180455
0.1122964 0.08618088 0.113188304 0.01759186 0.06262942 -0.08625041 -0.029552644 -0.020244371
-0.08116401 0.064061426 0.09898795 0.11778088 -0.091479555 0.13032427 -0.09914713 0.042325318
-0.22781704 -0.19614127 0.06562218 -0.14705142 -0.2844448 -0.35723582 -0.09806182 -0.3253099
-0.10912577 -0.22886609 -0.22312221 -0.14104237 -0.24487223 -0.23538852 -0.16315997 0.1498295
-0.117798075 -0.16644937 -0.13662367 -0.13100486 -0.30386943 -0.070415676 -0.09063919 -0.2430245
-0.14167824 -0.13949597 -0.16837919 -0.00799619 -0.04219208 -0.091519706 -0.05077588 -0.19957443
-0.098464645 0.05181612 -0.23000969 -0.09570241 -0.08090298 -0.26184097 -0.10072991 -0.09730369
-0.09549081 -0.14779176 -0.14449422 -0.33850676 -0.055840462 -0.2190424 -0.22187783 -0.11343515
-0.062516406 -0.17258206 -0.12714472 -0.15961969 -0.17869097 -0.29165855 -0.252328 -0.065707855
-0.1326626 -0.25714692 -0.06855661 0.09642786 -0.1532079 -0.3025798 -0.052084807 -0.29355034
0.059816927 0.031481296 -0.07562479 -0.11550342 0.03658387 -0.025679087 -0.048903704 -0.12707475
0.027136447 0.10521134 0.029110195 0.04500505 0.039940026 -0.07956777 0.0351145 0.105441906
0.019676682 0.08459462 -0.0016826545 0.052921556 0.07669035 -0.074585274 0.079652146 0.045785062
0.06505766 -0.020801963 0.02517014 0.112304546 0.00908134 0.097291425 -0.043983616 -0.020803047
0.055130213 -0.097397625 -0.029179323 -0.06654435 0.10989827 0.097172126 0.1103735 0.08964326
-0.0044988394 -0.021679878 0.06343521 -0.120756984 0.0073188697 0.09498266 0.02583632 -0.059552692
0.01329377 -0.025204299 0.025573986 -0.120983794 -0.0846214 -0.09831571 -0.11025508 0.043245085
0.0816643 0.12362902 -0.07943188 -0.09799514 -0.046464212 0.09685855 0.033976715 0.10734132

fc.weight f4 [1, 64]
00000000: 2bf2 16be d431 e1bd 090e 0dbd 35c7 96bd
00000010: d98e e8bd 9869 f93c 49ad 97bc 9231 babd
00000020: a503 a3bd 14a4 cc3d 5a7e ab3d 4d32 a3bd
00000030: 09e7 703d 8af8 d3bd 629f 56bd e8f4 ea3c
00000040: b19b 4ebd e001 6ebd 1d2b a93d 4c2c 8f3b
00000050: f22a eabd 0255 043e bd73 a2bd 97f5 02be
00000060: 2768 063e 71d2 09be d2ec 113e 92b5 61bd
00000070: bb57 a2bd 258c 8e3d e857 0e3d 4fb3 66bd
00000080: 4fa5 09be 9171 2cbc 9280 223e 8985 033e
00000090: f46c 07bd 4308 13be f4c9 d23d e019 afbd
000000a0: 3998 563b 9792 243e 9ed1 b0bd c6b7 b7bd
000000b0: 3ca2 33bd 2749 0bbe a5f4 b33d 7a26 91bd
000000c0: e57f 2d3b 2303 52bd 3e91 fcbd 7cce 18be
000000d0: 643c dabd 440d 80bd f15f 153e bd97 093e
000000e0: 4a06 033e 61cf a23d 7272 f8bd b840 943b
000000f0: 71d5 c1bd c287 623d cf3d f83d c4c4 ecbd
-0.14740817 -0.10995832 -0.034437213 -0.073622145 -0.11355371 0.030445859 -0.018515246 -0.09091486
-0.079596795 0.09992233 0.08373709 -0.079685785 0.058814082 -0.103501394 -0.052398093 0.028681234
-0.050441448 -0.058107257 0.08260176 0.0043692943 -0.114339724 0.12923053 -0.079322316 -0.12788998
0.13125668 -0.13459183 0.14250496 -0.0551048 -0.079268895 0.06960324 0.034751803 -0.056323346
-0.13441966 -0.010525123 0.15869358 0.12843908 -0.03306289 -0.1435862 0.10292426 -0.08549857
0.003274454 0.16071545 -0.08633731 -0.08970599 -0.04385589 -0.13602124 0.087868966 -0.07087417
0.0026473936 -0.051272523 -0.1233239 -0.14922518 -0.1065605 -0.0625253 0.1458738 0.1343679
0.12795368 0.07949711 -0.12131204 0.0045243166 -0.09464539 0.05530525 0.12121164 -0.115609676
