data/models/uniANDbtc_gru.pth (torch, 155685 bytes, 9 tensors)

gru.weight_ih_l0 f4 [192, 1]
0	0x3e0863c6	0.1331931
1	0x3dd4832b	0.10376581
2	0x3c2fbe0d	0.010726464
3	0x3d2206bb	0.0395572
4	0x3b880dd4	0.004152039
5	0x3c63f21c	0.013912704
6	0x3de346b8	0.11097473
7	0x3df83c30	0.12120855
8	0xbb8a43d1	-0.00421951
9	0x3daceddd	0.08443806
10	0xbdd1bf24	-0.10241535
11	0x3e142cf1	0.14470269
12	0x3dd6daa0	0.10490918
13	0x3e0d0352	0.13770798
14	0x3d4bd350	0.04976207
15	0xbcb258a0	-0.021770775
16	0x3cf1258d	0.02943685
17	0xbe2a4471	-0.16627671
18	0xbcdfccd6	-0.027319353
19	0x3d238268	0.039919287
20	0x3ca35021	0.01993567
21	0x3dd210bd	0.10257099
22	0xbced06be	-0.028933879
23	0x3da60103	0.08105662
24	0x3cd91618	0.026499793
25	0xba781398	-0.0009463369
26	0x3c7ab502	0.015301945
27	0x3d00e240	0.03146577
28	0x3cde6354	0.027146973
29	0xbe1ed0b2	-0.15509298
30	0x3d84880a	0.0647126
31	0xbe0ab726	-0.13546428
32	0x3df7d3b3	0.12100925
33	0xbe26b2b0	-0.16279101
34	0x3da77786	0.08177094
35	0x3db0a295	0.0862476
36	0xbd9c7cc6	-0.07640986
37	0xbe363ba3	-0.17796187
38	0xbdef52aa	-0.11685689
39	0x3d82d276	0.063877985
40	0xbe1e7d22	-0.15477422
41	0x3dbd15c0	0.09232664
42	0xb913a323	-0.00014079786
43	0xbe229259	-0.1587614
44	0xbd39d96d	-0.04537337
45	0x3e1c8b11	0.15287425
46	0xbdc7d664	-0.09757689
47	0x3e0b9c72	0.13633898
48	0xbe221edb	-0.15832083
49	0xbe0ab768	-0.13546526
50	0x3d895d9d	0.067073084
51	0xbd95a00a	-0.07305916
52	0x3d5c54e3	0.05379189
53	0xbd4c9904	-0.049950615
54	0x3c7e87c0	0.015535295
55	0x3cf5bb75	0.029996613
56	0x3dcbca48	0.099506915
57	0x3d7c9ce2	0.061673053
58	0x3d87064d	0.06592999
59	0xbcd10cda	-0.025518823
60	0xbd80cfc9	-0.06289632
61	0x3b4d915d	0.003136716
62	0xbbc03d57	-0.0058666873
63	0xbc9f3f83	-0.019439464
64	0x3dd9439a	0.10608597
65	0x3cf7271b	0.030170014
66	0x3e8ebe2e	0.2787947
67	0x3c805edb	0.01567023
68	0xbd2cab6f	-0.04215568
69	0x3dd151dc	0.102206916
70	0xbddacf2a	-0.10684045
71	0xbcf9c5fa	-0.03048991
72	0xbe3bbff6	-0.18334946
73	0xbeb76d03	-0.35825357
74	0xbc31a66d	-0.010842902
75	0xbe13005e	-0.14355609
76	0x3de359cb	0.11101111
77	0x3e534813	0.20632963
78	0xbdc79a7d	-0.09746263
79	0x3e6aeb18	0.22941244
80	0x3e610893	0.21975927
81	0x3e8d7875	0.27630964
82	0x3e710da2	0.23540357
83	0xbc34ee09	-0.01104308
84	0xbe413bc1	-0.1887045
85	0xbb64073b	-0.0034794349
86	0x3e4f6f19	0.20257224
87	0x3d61937a	0.055072285
88	0x3d855c50	0.06511748
89	0xbbb2e9ec	-0.0054600146
90	0x3b1ed69b	0.0024236802
91	0x3cd481a7	0.02594073
92	0x3e1c32d0	0.15253758
93	0x3e7c708f	0.24652313
94	0xbe1a19ba	-0.15048876
95	0x3cf368b4	0.029713012
96	0x3e873d0a	0.26413757
97	0xbe81492a	-0.25251132
98	0x3c837f2d	0.016051853
99	0x3e2d1d2d	0.16905661
100	0xbde758b5	-0.112962164
101	0xbe21d126	-0.1580244
102	0xbd10b674	-0.03533025
103	0x3d90a8f5	0.07063476
104	0x3d3356b7	0.04378387
105	0x3e452223	0.19251303
106	0xbd9a5f29	-0.075376816
107	0xbe13c1d0	-0.14429402
108	0xbc18f760	-0.009336323
109	0x3d2d3b88	0.0422931
110	0x3ea33f85	0.318844
111	0xbe499e22	-0.19689229
112	0x3e1f2437	0.15541159
113	0x3d39c970	0.04535812
114	0xbd887afa	-0.06664081
115	0xbccf7452	-0.02532402
116	0x3e607d8e	0.21922895
117	0xbd76b55a	-0.060231544
118	0x3d564eeb	0.052321356
119	0xbdcb1dd9	-0.09917802
120	0x3e7053b8	0.23469436
121	0x3e1def89	0.15423407
122	0xbd098b13	-0.033579897
123	0x3d2d9d98	0.04238662
124	0xbe27e498	-0.16395795
125	0x3e9eb5c0	0.3099804
126	0x3ccc9d7f	0.024977444
127	0x3dda8f29	0.10671837
128	0xbde5b2d9	-0.11215753
129	0xbe3811ec	-0.17975587
130	0x3d5478b8	0.05187294
131	0x3e235a29	0.15952362
132	0x3dafb0da	0.08578654
133	0x3e080c46	0.13285932
134	0x3d86a78b	0.06574925
135	0xbdc3601e	-0.09539817
136	0x3c2241fd	0.009903428
137	0xbbe15e55	-0.0068777003
138	0xbdf243b2	-0.11829318
139	0x3dc08be2	0.094016805
140	0xbe22c9f4	-0.15897352
141	0x3c888b46	0.016667973
142	0x3ccb5503	0.02482081
143	0x3d892492	0.06696428
144	0xbe29fb34	-0.16599733
145	0xbde5f559	-0.11228437
146	0x3e1a08fa	0.15042487
147	0x3d06113d	0.032731283
148	0xbd4af85a	-0.049553253
149	0xbdca3985	-0.09874252
150	0xbb087a1a	-0.0020824731
151	0xbe1a5437	-0.15071188
152	0x3e225c62	0.15855554
153	0x3dd08d7b	0.10183235
154	0x3e0705b6	0.13185772
155	0xbcb36207	-0.021897329
156	0x3e29e422	0.16590932
157	0x3d83840e	0.06421672
158	0xbdc0c3a3	-0.09412315
159	0xbdf24441	-0.11829425
160	0xbda5f5a4	-0.08103493
161	0x3d794e0b	0.060865443
162	0x3e274f63	0.16338877
163	0x3e19aaaa	0.1500651
164	0x3e36c30b	0.1784784
165	0xbdc9838d	-0.098395444
166	0xbe01744a	-0.12642017
167	0xbe26c397	-0.16285549
168	0xbe0a8643	-0.1352778
169	0x3db3c923	0.08778598
170	0xbd0331ec	-0.03203003
171	0x3e23e581	0.16005518
172	0x3e23d378	0.15998638
173	0xbdf9970e	-0.121870145
174	0xbde732c0	-0.11288977
175	0x3d1542c7	0.036440637
176	0x3e28350a	0.16426483
177	0x3d9f67cc	0.077834696
178	0xbdffc9f5	-0.12489692
179	0x3e0c46d8	0.136989
180	0xbd992530	-0.07477796
181	0x3e1dea68	0.1542145
182	0x3debe84e	0.11518918
183	0x3e25a498	0.16176069
184	0x3d8969d6	0.0670964
185	0xbe0ad0bd	-0.1355619
186	0xbe12dfdb	-0.14343207
187	0x3e120c80	0.14262581
188	0xbd3d2c73	-0.04618497
189	0xbe064887	-0.13113604
190	0xbd93c1d7	-0.072147064
191	0x3db09434	0.086220175

gru.weight_hh_l0 f4 [192, 64]
0	0x3cf19895	0.029491702
1	0x3d0c2f42	0.034224756
2	0xbd108c8e	-0.035290293
3	0x3d25916f	0.0404219
4	0x3c71c2b7	0.014755896
5	0xbd1df947	-0.038567808
6	0xbd3463f2	-0.044040628
7	0xbdba0e52	-0.09084763
8	0xbdf614e8	-0.12015706
9	0x3d78fc95	0.060787756
10	0xbdeb1e9b	-0.11480447
11	0x3dc5a360	0.09650302
12	0xbd2cda00	-0.04220009
13	0xbe14fff2	-0.1455076
14	0x3d813236	0.06308405
15	0xbd4f7aa8	-0.050654083
16	0xbcfa49e8	-0.03055282
17	0x3cee4357	0.029084845
18	0xbe16cb25	-0.14725931
19	0x3d1767bd	0.036964167
20	0xbd759526	-0.059956692
21	0x3bf5dfc0	0.0075034797
22	0x3e034660	0.12819815
23	0x3e027111	0.12738444
24	0x3e0b7972	0.13620546
25	0xbd9e5a00	-0.0773201
26	0x3dbaed9a	0.0912735
27	0xbcf0b3a2	-0.02938253
28	0xbd7a0af3	-0.0610456
29	0xbe001e4a	-0.12511554
30	0xbdf09ddf	-0.117488615
31	0x3daeae93	0.08529391
32	0x3dfab298	0.12241095
33	0x3be1179a	0.0068692686
34	0xbbf0864a	-0.0073402273
35	0x3da2f721	0.07957292
36	0x3e1c0f6d	0.1524026
37	0xbd9e030f	-0.07715427
38	0xbe031c9b	-0.12803881
39	0xbc0269a5	-0.007959758
40	0xbda271ea	-0.07931884
41	0x3d211b33	0.03933258
42	0xbc9fed00	-0.01952219
43	0x3e24e2df	0.1610217
44	0x3e00dd77	0.12584482
45	0xbdecc583	-0.1156111
46	0x3dcaf8b8	0.099107206
47	0x3d93fd05	0.07225994
48	0xbdde1339	-0.1084351
49	0x3d2aedcd	0.04173069
50	0xbb6ea80a	-0.0036416077
51	0x3dbfbeb9	0.09362549
52	0xbdbfbdeb	-0.09362396
53	0xbd90a68d	-0.07063017
54	0xbdfc4e61	-0.12319637
55	0xba85ed14	-0.001021775
56	0x3ca3fd51	0.020018252
57	0x3dacab08	0.08431059
58	0x3e0ada0c	0.13559741
59	0x3c5d20b6	0.013496568
60	0x3dc8c1c6	0.09802584
61	0x3da2fcb9	0.07958359
62	0x3dc8f662	0.09812619
63	0xbe084a0c	-0.13309497
64	0x3df40e84	0.11916831
65	0xbcf5e05e	-0.030014213
66	0xbcd1a21b	-0.025589993
67	0xbd52a819	-0.05142984
68	0xbc333fba	-0.010940487
69	0x3b9420ec	0.004520526
70	0x3c995809	0.018718736
71	0x3d8476f7	0.06468003
72	0x3d3f96a4	0.04677452
73	0x3cc8af6e	0.024497714
74	0x3cdbde6f	0.026839463
75	0x3a96b965	0.0011499344
76	0x3dde9cb6	0.10869734
77	0xbd7723dd	-0.060336936
78	0xbcf5c0d6	-0.029999178
79	0xbdb91df7	-0.090389185
80	0x3dc45181	0.09585858
81	0x3e601911	0.21884562
82	0xbe2752b2	-0.1634014
83	0xbe1e3456	-0.15449652
84	0xbe248d4e	-0.16069528
85	0x3d85cdfa	0.065334275
86	0x3e3bd4e7	0.18342935
87	0x3b84202f	0.004032157
88	0x3d9c5e5a	0.07635184
89	0xbcf7de28	-0.0302573
90	0xbe828106	-0.25489062
91	0x3ca84151	0.020538958
92	0x3c41cef3	0.011829126
93	0xbd5098c6	-0.050926946
94	0x3c805582	0.015665773
95	0xbd8b5a17	-0.06804293
96	0x3d178896	0.036995493
97	0x3d11d7bc	0.03560613
98	0xbda371c1	-0.07980681
99	0xbe033530	-0.12813258
100	0x3df3a1d1	0.118960984
101	0x3cac6494	0.021044053
102	0x3d120566	0.03564968
103	0x3e727106	0.23675928
104	0xbdf46ed4	-0.11935201
105	0xbe2d5556	-0.16927084
106	0x3c2fc2b7	0.010727576
107	0xbd43b7b0	-0.0477826
108	0x3e0c91c0	0.13727474
109	0xbd0219a7	-0.031762745
110	0x3db0173f	0.08598184
111	0x3e0116b2	0.12606314
112	0xbdb42930	-0.087969184
113	0xbdfd5463	-0.12369611
114	0xbd66e5c1	-0.056371454
115	0xbccaa044	-0.024734624
116	0x3c643e19	0.013930821
117	0xbd88ec6b	-0.06685718
118	0x3d086bbd	0.033305872
119	0x39fe38f4	0.0004848909
120	0xbd371019	-0.044693086
121	0x3e2a3f05	0.16625603
122	0x3dbbe1bf	0.09173917
123	0xbd2c3b4e	-0.042048745
124	0xbc6d02a3	-0.014465961
125	0x3dd4cf82	0.103911415
126	0x3d97c2ea	0.07410224
127	0xbdc17cb3	-0.094476126
128	0x3e08cded	0.13359804
129	0x3e30d2c4	0.172679
130	0xbe0ef249	-0.13959612
131	0xbd7b86bf	-0.0614078
132	0xbd4483ac	-0.047977135
133	0x3d2a453d	0.041569937
134	0xbce47440	-0.027887464
135	0xbd586af8	-0.05283639
136	0x3bb68c72	0.0055709416
137	0x3de77c81	0.11303044
138	0x3d36c0c7	0.04461744
139	0xbe08062a	-0.13283601
140	0x3de53021	0.111908205
141	0x3cae0fda	0.021247793
142	0x3cd3a230	0.025834173
143	0x3d06a89e	0.03287565
144	0xbc568f8f	-0.0130957505
145	0x3e259066	0.16168365
146	0xbde22eee	-0.110441074
147	0x3d36e8a8	0.044655472
148	0x3d446a85	0.047953147
149	0x3db356d1	0.08756793
150	0x3daa18cc	0.08305511
151	0x3c1403bc	0.0090340935
152	0xbdda5b18	-0.10661906
153	0xbe24e23d	-0.16101928
154	0xbd863e08	-0.065548
155	0x3ccf38a8	0.02529557
156	0xbde5a351	-0.11212791
157	0xbd413007	-0.047164943
158	0xbc823258	-0.015893146
159	0x3dc9f848	0.09861809
160	0x3ad2482d	0.0016043239
161	0xbe4bb1ed	-0.19892092
162	0x3d10bb56	0.035334907
163	0x3d0dd748	0.034629136
164	0x3a95b5e8	0.001142201
165	0x3de2c5d5	0.1107289
166	0x3e50e573	0.20400028
167	0x3e081435	0.13288958
168	0xbd9ced2a	-0.07662423
169	0xbe065469	-0.13118137
170	0x3dd7f8e2	0.105455175
171	0xbe01cbeb	-0.12675445
172	0xbdb9959e	-0.0906174
173	0x3d3186ee	0.04334157
174	0x3e39dd6f	0.18150876
175	0x3c12aac0	0.008951843
176	0xbd95a90f	-0.07307636
177	0xbe0cd47b	-0.1375293
178	0xbd3113af	-0.043231662
179	0xbe0ac465	-0.13551481
180	0x3dbdd6d2	0.09269489
181	0xbbfbc33c	-0.007683186
182	0xbdd04853	-0.10170045
183	0xbd1af944	-0.037835374
184	0xbe18b9bb	-0.149146
185	0xbcf9540d	-0.030435586
186	0x3d893bf9	0.06700892
187	0xbe01f5c0	-0.12691402
188	0x3dfdf2b8	0.123998106
189	0xbc1553bc	-0.009114202
190	0x3d84b731	0.064802535
191	0x3ba14eea	0.0049227374
192	0x3dfeb86a	0.12437518
193	0x3e14ac87	0.14518939
194	0xbdf46c48	-0.119347155
195	0xbe1528b7	-0.14566313
196	0xbe9fe95d	-0.3123273
197	0xbb0fee3f	-0.0021962074
198	0x3d6977c1	0.05699897
199	0xbbdd212f	-0.0067483406
200	0xbd9c541b	-0.07633229
201	0xbd2f8a20	-0.042856336
202	0xbd17bdf0	-0.037046373
203	0x3b1ddd43	0.002408818
204	0x3d65f343	0.056140196
205	0xbddf71a0	-0.10910344
206	0x3c4c51b2	0.01247065
207	0xbd88d5b1	-0.066813834
208	0x3e05aff1	0.13055398
209	0x3e5c2a8a	0.21500602
210	0xbc6b0867	-0.014345265
211	0xbdc9a093	-0.0984508
212	0xbde53ae7	-0.11192875
213	0x3d2578b9	0.040398333
214	0x3e25b48a	0.16182151
215	0x3e2df961	0.16989662
216	0xbdc00140	-0.093752384
217	0xbd0dee7a	-0.034651257
218	0xb98f8377	-0.00027373034
219	0x3d8266fa	0.063672975
220	0xbe06f06b	-0.1317765
221	0xbdd0b3ad	-0.101905204
222	0x3d2efce0	0.04272163
223	0x3dffc35d	0.124884345
224	0x3d7c2d2c	0.061566517
225	0xbd646f61	-0.05577028
226	0xbe2a65a5	-0.16640337
227	0xbbd3d1fc	-0.006464241
228	0xbcee811b	-0.029114297
229	0x3af62c36	0.0018781486
230	0x3d68a5df	0.056798812
231	0xbc182556	-0.009286245
232	0x3d312e90	0.043257296
233	0xbe0e3df2	-0.13890818
234	0xbe0095ae	-0.12557098
235	0xbd9bf07e	-0.076142296
236	0xbbd40144	-0.0064698774
237	0x3c83b2d4	0.016076483
238	0x3d75a7d3	0.059974503
239	0xbe3e57ba	-0.18588153
240	0xbd72dcbf	-0.05929255
241	0xbd8a77c3	-0.06761124
242	0x3d44b14f	0.048020657
243	0xbdbbac45	-0.09163717
244	0x3e333014	0.17498809
245	0xbe1c0d16	-0.15239367
246	0xbb9ea9ee	-0.0048420345
247	0xbdadda56	-0.0848891
248	0x3d48fd70	0.04906982
249	0x3d7f5838	0.06233999
250	0x3e044c36	0.12919697
251	0xbce3f821	-0.027828278
252	0x3dfbcd72	0.12295045
253	0x3dfc70e9	0.123262234
254	0x3d0e893c	0.034798846
255	0x3cff2a90	0.031148225

gru.bias_ih_l0 f4 [192]
0	0xbdf2fb05	-0.118642844
1	0xbe447fe9	-0.19189419
2	0x3d91758f	0.07102501
3	0x3d9566c1	0.072949894
4	0x3dd040fb	0.10168644
5	0x3cc665f9	0.024218546
6	0x3c3f9402	0.011693003
7	0x3c371cb2	0.011176275
8	0xbe0641c8	-0.13111031
9	0x3d988edb	0.074491225
10	0xbe5ed1e7	-0.21759759
11	0x3db6d1ff	0.08926772
12	0x3d0b1568	0.03395596
13	0xbd995813	-0.07487502
14	0xbdfb3c58	-0.12267369
15	0xbd467189	-0.04844812
16	0xbc3f3ecc	-0.011672687
17	0x3dd11717	0.10209482
18	0xbde16e5a	-0.11007376
19	0xbd06aef2	-0.032881685
20	0xbe1301b8	-0.14356124
21	0xbe02af9f	-0.12762307
22	0xbdc77118	-0.09738368
23	0xbe193817	-0.14962803
24	0x3d5bc245	0.053652067
25	0xbe22bce6	-0.15892372
26	0x3d7b5a96	0.061365686
27	0x3dd6af30	0.10482633
28	0xbe3df98b	-0.18552224
29	0xbd5926aa	-0.05301539
30	0xbd5405b5	-0.051763255
31	0xbded5053	-0.11587586
32	0x3d8b7013	0.06808486
33	0xbd55e7bd	-0.052222956
34	0xbd5008ff	-0.05078983
35	0xbd09f8e9	-0.033684645
36	0xbe4fc4a1	-0.20289852
37	0x3ce92b68	0.02846308
38	0x3ce03eb5	0.027373651
39	0xbca68d1f	-0.020330964
40	0xbe36d055	-0.1785291
41	0x3cc8e5c4	0.024523623
42	0xbe0c4b1d	-0.13700528
43	0x3d700a49	0.05860356
44	0xbe3007cb	-0.17190473
45	0x3cd0e4f8	0.025499806
46	0xbcd5ea2a	-0.026112635
47	0xbdf40c58	-0.11916417
48	0xbd594f27	-0.053054
49	0x3a7e252d	0.00096948707
50	0xbc877bd6	-0.016538542
51	0xbdeab283	-0.1145983
52	0xbe046aca	-0.12931362
53	0xbdba5f57	-0.09100216
54	0x3db7311d	0.089449145
55	0x3d518cd4	0.051159695
56	0x3b6f35a6	0.0036500483
57	0xbd35d4b3	-0.0443923
58	0xbe0be9bf	-0.13663386
59	0xbe39174c	-0.18075293
60	0xbc217aa5	-0.009855901
61	0xbd82cb9a	-0.0638649
62	0xbd331419	-0.04372034
63	0xbd3645e4	-0.044500247
64	0xbe6eacf4	-0.23308164
65	0xbeedd629	-0.46452454
66	0xbe63493b	-0.22195904
67	0xbf10682d	-0.5640896
68	0xbee3c9f0	-0.44490004
69	0xbe9c4b0e	-0.30526012
70	0xbeee5a78	-0.46553397
71	0xbee3c949	-0.44489506
72	0xbbc3d974	-0.00597685
73	0x3a4096e5	0.0007346704
74	0xbf338fe5	-0.7014144
75	0xbec8ca7b	-0.3921698
76	0xbece0099	-0.4023483
77	0x3de62cd1	0.11239017
78	0xbda20fe1	-0.07913185
79	0xbdc8a533	-0.09797134
80	0xbee13fdd	-0.43994036
81	0xbe9890e6	-0.2979805
82	0xbd1d3b44	-0.0383866
83	0xbe482406	-0.19544992
84	0xbf106376	-0.56401765
85	0xbecd66b6	-0.40117425
86	0xbdb8223e	-0.08990906
87	0xbf0e68f2	-0.55628884
88	0xbf2d264e	-0.67636573
89	0xbecae866	-0.3963043
90	0xbf0d2408	-0.55133104
91	0xbd3f7bfb	-0.046749096
92	0xbec6ae3b	-0.38804802
93	0xbe49b6f7	-0.19698702
94	0xbe85cb19	-0.26131514
95	0xbecac356	-0.39602154
96	0xbe78b365	-0.24287184
97	0xbebec510	-0.37259722
98	0xbf17a269	-0.59232193
99	0xbe7c413e	-0.24634263
100	0xbf44ae75	-0.768287
101	0xbed2453e	-0.41068453
102	0xbf22c4f8	-0.635818
103	0xbf0570b7	-0.52125114
104	0xbec91bc3	-0.39278993
105	0xbec22074	-0.37915385
106	0xbe68ed87	-0.2274686
107	0xbf08acd6	-0.53388727
108	0xbefb2269	-0.4904969
109	0xbef2e3a8	-0.47439313
110	0xbe1ee334	-0.15516359
111	0xbe290cb9	-0.1650876
112	0xbeccdfa3	-0.4001437
113	0xbf0c8f77	-0.5490641
114	0xbed183f0	-0.40920973
115	0xbf0d226c	-0.5513065
116	0xbe454b81	-0.19267084
117	0xbf18fb4d	-0.59758455
118	0xbeaa88e0	-0.33307552
119	0xbf426017	-0.7592787
120	0xbc671f01	-0.014106513
121	0xbeabeec6	-0.33580607
122	0xbf53be37	-0.8271212
123	0xbee6a446	-0.45047206
124	0xbd7438e1	-0.059624556
125	0xbea20df5	-0.31651273
126	0xbefc2a07	-0.49250814
127	0xbeadc296	-0.3393752
128	0xbd976ba3	-0.07393577
129	0xbcf06264	-0.029343791
130	0x3b52db86	0.0032174303
131	0xbd982bb1	-0.074302085
132	0xbd69c4ba	-0.05707238
133	0x3d5e4229	0.054262314
134	0x3d38ea30	0.045145214
135	0x3d23ac5d	0.0399593
136	0x3c2cd518	0.010548852
137	0xbd786523	-0.060643326
138	0x3d6384e9	0.055546675
139	0xbd277c93	-0.040890288
140	0x3ddd3ba8	0.10802394
141	0x3d175cac	0.036953613
142	0x3c9b3c98	0.018949792
143	0x3d49f9c7	0.04931047
144	0xbcf4189c	-0.02979689
145	0xbd4cee7c	-0.050032124
146	0x3dc736d4	0.097272545
147	0xba81d40e	-0.0009905116
148	0x3b3603d4	0.0027773278
149	0x3d3aafa6	0.045577668
150	0xbdaf6853	-0.0856482
151	0x3b4161e7	0.0029507817
152	0xbde15fa3	-0.110045694
153	0x3c83eb12	0.016103301
154	0x3c732656	0.014840683
155	0xbc672fca	-0.014110515
156	0x3d38622d	0.045015503
157	0x3cf61061	0.030037107
158	0x3db5676d	0.088576175
159	0xbca3de44	-0.020003445
160	0xbd7b4547	-0.061345365
161	0xbd5b17b1	-0.05348939
162	0xbca15bb5	-0.01969705
163	0x3da52063	0.08062818
164	0xbdc7f14e	-0.09762822
165	0x3dba71c8	0.09103733
166	0x3dd1cebc	0.102445096
167	0xbdcf9e3b	-0.10137602
168	0x3da73730	0.08164823
169	0xbc954502	-0.018221382
170	0x3d38c827	0.045112755
171	0xbda969dc	-0.08272144
172	0xbb31f12c	-0.0027151806
173	0x3d05c28b	0.032656234
174	0xbdc0393f	-0.09385919
175	0xbdb3b17b	-0.08774086
176	0x3d7d81a7	0.061891224
177	0x3d7c4594	0.061589792
178	0x3dd5f643	0.10447361
179	0xbd97157b	-0.07377144
180	0xbcfeab52	-0.031087551
181	0xbd6a07ee	-0.05713647
182	0x3dc0ba04	0.0941048
183	0xbc20d1c8	-0.009815641
184	0x3db2123a	0.08694883
185	0xbdb31098	-0.087433994
186	0x3c1037f0	0.008802399
187	0xbd060d99	-0.03272781
188	0xbcbc6137	-0.022995574
189	0xbdca2dab	-0.09871992
190	0xbdb59155	-0.088656105
191	0x3d9969f2	0.074909106

gru.bias_hh_l0 f4 [192]
0	0xbe286b92	-0.16447285
1	0xbdde47fe	-0.10853575
2	0xbc75e100	-0.015007257
3	0xbdac031d	-0.08399031
4	0xbde22307	-0.11041837
5	0xba2eff56	-0.0006675621
6	0x3dd25af9	0.10271258
7	0xbd3d555a	-0.046223976
8	0xbdcd5848	-0.10026604
9	0x3d77b33d	0.06047367
10	0xbdbde617	-0.09272402
11	0xbd9ff4bf	-0.078103535
12	0x3d6ac273	0.057314347
13	0xbe0db522	-0.13838628
14	0xbe0e2118	-0.13879812
15	0xbd4d6971	-0.050149385
16	0xbe05b120	-0.13055849
17	0x3e013a35	0.1261986
18	0xbc6bf01f	-0.014400511
19	0x3d9b5745	0.07585005
20	0xbe01b9b8	-0.12668502
21	0x3d701baa	0.058620133
22	0x3b05e612	0.0020431322
23	0xbdbda5be	-0.092601284
24	0xbddb4e73	-0.107083224
25	0xbd33d102	-0.043900497
26	0xbb983b21	-0.0046457206
27	0xbc4da82c	-0.012552302
28	0xbe500e71	-0.20318009
29	0xbc8b5103	-0.017006403
30	0xbdf4d759	-0.11955137
31	0x3d0261a4	0.0318314
32	0xbe2825f1	-0.16420723
33	0x3dc8a5e9	0.0979727
34	0xbdc6e5e9	-0.09711821
35	0xbe25e756	-0.16201529
36	0xbe2647d6	-0.1623834
37	0xbdd57128	-0.104219735
38	0xbcfe4cd7	-0.0310425
39	0xba167e54	-0.000574087
40	0xbd6e2384	-0.05813934
41	0xbe104dca	-0.14092174
42	0xbe07ab72	-0.13248995
43	0xbe13ba31	-0.14426495
44	0xbbb0244d	-0.005375421
45	0xbdbdcbe9	-0.092674084
46	0xbe1bc1f9	-0.15210713
47	0xbcce005b	-0.025146654
48	0xbc7a52a6	-0.015278494
49	0xbd87e6eb	-0.06635841
50	0xbdb54a58	-0.088520706
51	0xbdab6da8	-0.08370525
52	0x3c2981ff	0.010345935
53	0xbe098d00	-0.13432693
54	0xbc146543	-0.009057346
55	0xbd9b9d35	-0.07598344
56	0xbe08c614	-0.13356811
57	0xbda19e8f	-0.07891571
58	0x3c911cdc	0.017713957
59	0xbe0ac82c	-0.13552922
60	0x3d955e72	0.07293405
61	0xbdfd8360	-0.123785734
62	0xbd2b5334	-0.041827396
63	0xbc7c1603	-0.015386107
64	0xbea65b42	-0.324915
65	0xbedce72e	-0.43145126
66	0xbe4bae84	-0.19890791
67	0xbf27617c	-0.65383124
68	0xbf14c593	-0.58113974
69	0xbed2793d	-0.41108122
70	0xbf1fd258	-0.62430334
71	0xbeac5452	-0.3365808
72	0x3dcd82bb	0.100347005
73	0x3d14085c	0.036140785
74	0xbefde3c6	-0.4958784
75	0xbf188762	-0.5958158
76	0xbf13f238	-0.5779147
77	0x3cb289fd	0.021794314
78	0xbda9cc9a	-0.08290978
79	0xbe28b05c	-0.16473526
80	0xbe920f52	-0.28527313
81	0xbee4b559	-0.44669607
82	0xbd9894d4	-0.07450262
83	0xbdbfc92d	-0.09364543
84	0xbedb1758	-0.42791247
85	0xbedd7501	-0.4325333
86	0xbd47f5c9	-0.048818383
87	0xbf11bef4	-0.56931996
88	0xbf21ce32	-0.63205254
89	0xbf0ec06f	-0.5576238
90	0xbf2e764e	-0.6814927
91	0x3c8dc039	0.017303573
92	0xbe995c29	-0.29953125
93	0xbeb74e0c	-0.35801733
94	0xbe0f0cc1	-0.13969709
95	0xbf18b30a	-0.5964819
96	0xbe803e05	-0.25047317
97	0xbec34503	-0.3813859
98	0xbedafea6	-0.42772406
99	0xbdceca11	-0.10097135
100	0xbf3118ec	-0.6917865
101	0xbf138948	-0.5763135
102	0xbf25a475	-0.64704067
103	0xbf15f19e	-0.58571804
104	0xbedc378e	-0.43011135
105	0xbec000e1	-0.3750067
106	0xbe1bca11	-0.15213801
107	0xbf3f7d28	-0.7480035
108	0xbed6e2a7	-0.41969797
109	0xbecad947	-0.39618894
110	0xbde43b5d	-0.11144135
111	0xbda39a52	-0.07988419
112	0xbee9502e	-0.45568985
113	0xbed9873e	-0.42485994
114	0xbeeb8a39	-0.46003893
115	0xbf0cc166	-0.549826
116	0xbe736085	-0.23767288
117	0xbf096275	-0.5366586
118	0xbec1775c	-0.37786376
119	0xbf3dac18	-0.7409072
120	0x3d5b8a2c	0.053598568
121	0xbeb8e77b	-0.36114106
122	0xbf687b6e	-0.9081334
123	0xbed0e82e	-0.4080214
124	0xbe50f58d	-0.2040617
125	0xbec58df3	-0.3858486
126	0xbed3f49e	-0.41397566
127	0xbec2f186	-0.38074893
128	0xbd6690f4	-0.05629058
129	0xbce1e5a1	-0.027575316
130	0x3cb8a92c	0.022541605
131	0xbc130407	-0.008973128
132	0x3d5ebac5	0.054377336
133	0x3cc04ebe	0.023475047
134	0xbbaf6a4a	-0.005353247
135	0x3d29d10c	0.04145913
136	0xbde92551	-0.11384071
137	0x3dcd2ebe	0.10018681
138	0x3d8d54ce	0.06900941
139	0x3dea291e	0.11433624
140	0xbe0391af	-0.12848543
141	0xbd1fe3b2	-0.039035507
142	0xbd8c2ea8	-0.068448365
143	0xbc072cfa	-0.008250469
144	0x3d83c405	0.06433872
145	0x3d1b8f8e	0.0379787
146	0x3da73fbd	0.08166454
147	0xbaffb6f7	-0.0019509484
148	0xbc497c32	-0.012297677
149	0xbdd6cfe6	-0.10488872
150	0x3e16b1ee	0.14716312
151	0xbdbd8664	-0.092541486
152	0x3da5e20e	0.08099757
153	0xbd17cdd3	-0.037061524
154	0x3cca3d57	0.024687452
155	0x3c839962	0.01606435
156	0x3cebc32b	0.028779587
157	0x3bb770d1	0.0055981656
158	0xbdb1aec2	-0.086759105
159	0x3dfcf997	0.12352293
160	0xbd5a27d3	-0.053260636
161	0x3d895245	0.06705145
162	0x3db0edde	0.086391196
163	0x3dd49c67	0.10381394
164	0xbd34f515	-0.04417904
165	0x3df34a83	0.11879446
166	0xbdf0b5ae	-0.11753403
167	0x3bf19fc9	0.007373784
168	0x3ddac9a2	0.1068299
169	0x3d2a0a6a	0.041513838
170	0x3d1ce9bb	0.03830884
171	0xbdb69c5c	-0.08916542
172	0xbdd18725	-0.10230855
173	0xbcd497a2	-0.02595121
174	0xbdd0c9a7	-0.10194712
175	0x3da23ffb	0.079223596
176	0xbdd64bc0	-0.10463667
177	0xbde4ddae	-0.111750945
178	0x3dd03ea4	0.10168198
179	0x3ced8f0f	0.02899888
180	0xbd7397df	-0.059471007
181	0xbdb14d58	-0.0865733
182	0xbd39cd57	-0.045361843
183	0xbdc57bbe	-0.096427426
184	0x3d7eadd8	0.06217751
185	0xbd8f5296	-0.06998174
186	0x3c6aae35	0.014323761
187	0xbd91832f	-0.071050994
188	0x3de1a6b7	0.110181265
189	0xbd4b1e04	-0.049589172
190	0x3d774ebe	0.06037783
191	0xbd9d1b79	-0.076712556

gru.weight_ih_l1 f4 [192, 64]
0	0xbde29539	-0.11063618
1	0xbdbaacea	-0.09115012
2	0xbc984e8c	-0.018592142
3	0x3e181288	0.14850819
4	0x3ca188a9	0.019718485
5	0x3e1839e8	0.1486584
6	0xbd4866ca	-0.048926152
7	0x3d451f47	0.04812553
8	0x3e0ad2d6	0.1355699
9	0xbcc851ad	-0.024453009
10	0xbdb46b9b	-0.088095866
11	0xbc8a3f50	-0.016875893
12	0x3d4ddd6e	0.05026
13	0x3d8c732d	0.068579055
14	0x3d494407	0.04913714
15	0x3d9a0554	0.075205475
16	0x388141c7	6.163451e-05
17	0xbd165338	-0.036700457
18	0xbdd46ed0	-0.10372698
19	0x3d064816	0.03278359
20	0x3d84b69c	0.064801425
21	0x3d9f6400	0.07782745
22	0xbdea723d	-0.114475705
23	0xbe0e482b	-0.13894717
24	0x3dc4c483	0.09607794
25	0x3b2f736a	0.0026771673
26	0xbd095283	-0.033525955
27	0xbd83ca0f	-0.06435024
28	0x3e0cde60	0.13756704
29	0xbe0e39cd	-0.13889237
30	0x3cc25019	0.023719834
31	0x3c833789	0.016017692
32	0xbdccdf81	-0.100035675
33	0x3c3aeba6	0.011408722
34	0x3d82c7cb	0.06385764
35	0xbcf152ee	-0.02945849
36	0xbc0670a2	-0.008205565
37	0xbe2135b2	-0.1574314
38	0xbdab1794	-0.083541065
39	0xbbf7c90f	-0.00756181
40	0xbe4605c2	-0.19338134
41	0x3ddf2c63	0.10897138
42	0x3d950134	0.0727562
43	0x3e0875be	0.13326165
44	0x3e1b137b	0.1514415
45	0xbdaa1061	-0.08303905
46	0xbcdbd17e	-0.026833292
47	0x3c2f46bc	0.010698017
48	0x3d8a8995	0.06764523
49	0x3ce8fa5a	0.02843969
50	0x3c01bb6c	0.00791822
51	0xba2bc3ab	-0.0006552289
52	0x3c9d7283	0.019219643
53	0x3e39d394	0.18147117
54	0x3e164774	0.14675695
55	0x3e41bb84	0.18919188
56	0xbde343ee	-0.11096941
57	0xbde17180	-0.110079765
58	0xbd8fac44	-0.07015279
59	0x3dbeec40	0.09322405
60	0x3c4e44f9	0.012589687
61	0xbdaa8651	-0.083264
62	0x3da6c8b8	0.08143753
63	0xbd48b8fe	-0.049004547
64	0x3d9c0e5d	0.07619927
65	0x3ca391e7	0.019967033
66	0x3c28f8a5	0.010313188
67	0x3dfe83f6	0.12427513
68	0x3d6dd3e9	0.05806342
69	0x3d8cb73e	0.06870888
70	0xbda2debb	-0.07952639
71	0x3d3d7d1a	0.046261884
72	0x3d8944e6	0.067025945
73	0xbdfa7a07	-0.12230306
74	0xbdbbaaa5	-0.09163407
75	0x3b925e81	0.004466832
76	0xbdac249a	-0.08405419
77	0xbdf4c85e	-0.119522795
78	0xbd4b63be	-0.04965567
79	0xbbc546c4	-0.006020399
80	0xbc77260d	-0.015084756
81	0x3ddcc013	0.10778823
82	0xbdbe1f6b	-0.09283336
83	0x3d6fc440	0.058536768
84	0xbd2717e9	-0.040794287
85	0x3d23dcdf	0.04000556
86	0xbd2ab74c	-0.04167871
87	0xbabc3859	-0.0014360055
88	0x3d88365d	0.06650994
89	0x3d7b029f	0.061281797
90	0xbde261a5	-0.110537805
91	0x3d3e98ae	0.046532325
92	0x3cb32085	0.021866092
93	0xbe2bbad6	-0.16770491
94	0x3d237ea4	0.039915696
95	0x3dd73092	0.10507311
96	0xbdc3d5b8	-0.09562248
97	0xbe017f0c	-0.12646121
98	0x3c9195c9	0.017771618
99	0x3db86034	0.09002724
100	0xbd6521f4	-0.055940583
101	0xbd4babd1	-0.049724404
102	0xbbbccaae	-0.005761466
103	0xbae1ac8b	-0.001721756
104	0x3cd3fd0c	0.025877498
105	0x3dc2360f	0.09482967
106	0x3d7bbff1	0.061462346
107	0x3e16cf04	0.14727408
108	0xbd87ce70	-0.06631172
109	0xbc7a7955	-0.015287717
110	0xbd7bc29b	-0.061464887
111	0x3da640ff	0.08117866
112	0x3d82eb64	0.063925534
113	0x3cf5a450	0.029985577
114	0xbd8af1d8	-0.06784409
115	0x3c9729c4	0.018452533
116	0xbd8d1c87	-0.06890207
117	0x3d68e74c	0.056861207
118	0x3d7c3ab5	0.061579425
119	0x3df01557	0.1172282
120	0xbd642236	-0.05569669
121	0xbd8e6117	-0.06952112
122	0xbca61ebb	-0.020278325
123	0xbc532160	-0.012886375
124	0xbe0da8f0	-0.13833976
125	0x3dc2ba99	0.09508247
126	0x3d33653b	0.043797713
127	0xbdb523c1	-0.0884471
128	0xbdd17185	-0.1022673
129	0xbd8f6302	-0.07001306
130	0xb810c954	-3.4519777e-05
131	0x3db5d2d7	0.08878105
132	0xbd2ed2af	-0.042681392
133	0xbdf64192	-0.12024225
134	0xbcef29dc	-0.029194765
135	0x3d54ea31	0.051981155
136	0x3c9bd8f0	0.019024342
137	0xbb9dc7a0	-0.004815057
138	0xbd78bc8c	-0.060726687
139	0x3cce81fd	0.025208468
140	0xbcaf2b2d	-0.021382893
141	0x3caa6241	0.020798804
142	0x3ddeefee	0.10885607
143	0xbe0678c6	-0.13132009
144	0x3dc678b1	0.09690989
145	0x3d12c4fa	0.035832383
146	0xbb529cac	-0.003213684
147	0x3dd595b2	0.10428943
148	0xbde62227	-0.11236983
149	0x3d8a5eb6	0.06756346
150	0x3d7dbb6b	0.061946314
151	0xbde14c6b	-0.11000904
152	0x3c67fe7e	0.014159797
153	0xbdc13ab7	-0.09435027
154	0x3dc9ddb3	0.09856739
155	0xbd04df9e	-0.03243982
156	0xbc974bd5	-0.018468777
157	0x3de0a495	0.109688915
158	0xbe08f899	-0.13376082
159	0xbc1a66fb	-0.0094239665
160	0x3df4d580	0.119547844
161	0xbcf2ab44	-0.029622681
162	0x3d1d5c61	0.038418178
163	0xbcdd4f43	-0.027015334
164	0x3aa69142	0.0012708085
165	0xbd901b93	-0.07036509
166	0x3d81c718	0.06336802
167	0x3d9a3b54	0.07530847
168	0xbd4ba585	-0.0497184
169	0x3c21bd3f	0.00987178
170	0x3dd3e12b	0.10345682
171	0xbde6ae0c	-0.112636656
172	0x3d21841a	0.039432622
173	0x3c6a78ea	0.014311055
174	0x3dec7a0e	0.115467176
175	0x3cc318a2	0.023815457
176	0xbcd93df8	-0.026518807
177	0x3de958ca	0.11393888
178	0xbd7e2162	-0.062043555
179	0xbdc73d19	-0.0972845
180	0xbd201403	-0.039081585
181	0xbd94abc8	-0.07259327
182	0x3d57aea1	0.052656773
183	0x3c9ece63	0.019385522
184	0xbd56ef59	-0.052474353
185	0xbd8c875d	-0.06861756
186	0xbdabfdd4	-0.08398023
187	0xbded9771	-0.11601151
188	0xbc9e8f89	-0.019355552
189	0x3e089bd1	0.13340689
190	0x3c6684d0	0.014069751
191	0x3d404aa4	0.046946183
192	0x3e02d5a4	0.1277681
193	0xbd77f087	-0.06053212
194	0xbe1ae687	-0.15127002
195	0xbde1bfe5	-0.11022929
196	0x3c23b0bf	0.00999087
197	0xbe114f6c	-0.14190453
198	0xbcd9e843	-0.026600009
199	0xbd414b79	-0.047191117
200	0xbd70fbac	-0.058833763
201	0x3dada087	0.08477884
202	0xbddf307e	-0.10897921
203	0x3ba57445	0.005049261
204	0x3da743d8	0.08167237
205	0xbe1ac064	-0.15112454
206	0x3c9c9e69	0.019118505
207	0x3d07e261	0.033174876
208	0xbb8c8eaf	-0.00428947
209	0x3dd47649	0.103741236
210	0xbd2fce5c	-0.04292141
211	0x3c89ccc4	0.016821273
212	0xbdc7536a	-0.09732707
213	0x3dafff13	0.085935734
214	0xbd487c47	-0.048946645
215	0xbdb456b5	-0.088056006
216	0xbd3cd5d3	-0.046102356
217	0xbdf912ef	-0.121618144
218	0x3cd08bc1	0.025457265
219	0xbc0885a9	-0.008332648
220	0x3d66b983	0.05632926
221	0xbd908316	-0.07056253
222	0xbd58fe1a	-0.052976705
223	0xbdc26246	-0.094914004
224	0x3d197231	0.037462417
225	0xbd847aa7	-0.064687066
226	0x3d5059ba	0.05086682
227	0xbe0f75b8	-0.1400975
228	0x3daa0568	0.083018124
229	0x3d9a2432	0.07526435
230	0xbdaaecfb	-0.08345982
231	0x3e334816	0.17507967
232	0xbca2091b	-0.019779732
233	0xbd9a74c4	-0.075418025
234	0x3c625d3d	0.013816175
235	0x3ac4781e	0.0014989411
236	0x3dbfc0b9	0.09362931
237	0xbdc55b87	-0.09636598
238	0xbd502a5a	-0.05082164
239	0xbcfd5204	-0.030922897
240	0xbdaa5547	-0.083170466
241	0xbd2d57f4	-0.042320207
242	0x3db4ee49	0.08834512
243	0xbdc351f4	-0.09537116
244	0x3d7872cc	0.060656354
245	0x3dcc128f	0.09964477
246	0x3da7d238	0.08194393
247	0x3c3add46	0.011405295
248	0xbe0db50c	-0.13838595
249	0x3bb70d76	0.0055863215
250	0x3c979ccb	0.018507382
251	0x3d14c157	0.036317196
252	0xbdc88cc6	-0.097924754
253	0x3ddbf3ee	0.10739885
254	0xbd3e8581	-0.046514038
255	0x3d016d17	0.031598177

gru.weight_hh_l1 f4 [192, 64]
0	0x3d2bf3c4	0.04198052
1	0x3d9a7bc4	0.07543138
2	0x3ddc6bda	0.107627586
3	0x3d31421f	0.04327595
4	0x3ddfe63f	0.10932588
5	0xbdc857d6	-0.097823784
6	0xbd889d82	-0.06670667
7	0x3dad7dad	0.084712364
8	0x3dbeafde	0.09310888
9	0xbe231186	-0.15924653
10	0x3d2cec49	0.042217527
11	0x3dbb0ac0	0.0913291
12	0xbcad17c6	-0.0211295
13	0x3d9d033b	0.07666632
14	0xbd3140fc	-0.043274865
15	0x3de6b992	0.112658635
16	0xbd1d0c75	-0.038341958
17	0xba366ebd	-0.00069592503
18	0xbda4e765	-0.080519475
19	0x3d8e7ab4	0.069569975
20	0x3d6f6b98	0.05845222
21	0x3d8cd322	0.06876208
22	0x3d30b74e	0.043143563
23	0x3cca7b83	0.024717098
24	0xbdc94a15	-0.09828583
25	0x3ca3ef43	0.02001155
26	0xbd98ef38	-0.07467502
27	0x3c48840f	0.0122385165
28	0x3bb89c46	0.0056338636
29	0x3da7d9f9	0.08195872
30	0xbd94aab2	-0.0725912
31	0xbd8ab433	-0.067726515
32	0xbddb1365	-0.106970586
33	0x3e017e5c	0.12645859
34	0x3d5eb7dc	0.05437456
35	0xbd225328	-0.039630085
36	0xbe0c0129	-0.13672318
37	0xbdbeecfb	-0.09322544
38	0xbda5d122	-0.080965295
39	0xbda0455a	-0.07825728
40	0x3d8670fb	0.06564518
41	0xbce69f2f	-0.028152077
42	0xbd3fe248	-0.046846658
43	0xbd94e2ba	-0.07269807
44	0xbd9a921e	-0.07547401
45	0xbb86b716	-0.004111181
46	0xbca6983f	-0.020336268
47	0xbd93ef81	-0.07223416
48	0xbcae6e6e	-0.021292891
49	0xbdd359b3	-0.10319843
50	0xbd9a4f43	-0.07534649
51	0xbd8acca7	-0.067773156
52	0x3c3b413d	0.011429128
53	0xbdf121f3	-0.117740534
54	0x3d3d67ac	0.046241447
55	0x3e0f94a2	0.14021543
56	0x3cc73491	0.024317058
57	0x3bddbf3a	0.0067671807
58	0x3d8e7f71	0.06957901
59	0x3ce11121	0.027473988
60	0x3d9091e4	0.070590764
61	0x3dc0c496	0.09412496
62	0xbde41f76	-0.11138813
63	0x3e122b0f	0.14274238
64	0xbc0bfe97	-0.008544586
65	0xbde11bf5	-0.109916605
66	0xbda9983e	-0.08280991
67	0xbcaebf47	-0.021331443
68	0x3dcd2865	0.1001747
69	0xbe03d6aa	-0.12874857
70	0x3be15c49	0.0068774563
71	0x3cc9f52d	0.024653042
72	0xbddb0ce3	-0.10695817
73	0xbde847ef	-0.11341845
74	0x3dc47976	0.09593479
75	0xbd533311	-0.051562373
76	0x3e0cd98d	0.13754864
77	0xbdcfb847	-0.1014257
78	0x3ce34798	0.0277441
79	0xbd09011a	-0.033448316
80	0x3bb9620c	0.00565744
81	0xbded3a8b	-0.11583432
82	0xbdf526ee	-0.11970316
83	0x3d212c71	0.039349023
84	0x3dcaa732	0.09895171
85	0x3d979c75	0.07402889
86	0x3dcf008b	0.101075254
87	0x3e233ccf	0.15941165
88	0x3dcc17e3	0.099654935
89	0x3cc0fc39	0.02355777
90	0xbcb96645	-0.022631774
91	0x3d5e11d8	0.054216236
92	0x3ce66620	0.028124869
93	0x3cb63585	0.022242317
94	0xbd9411a2	-0.07229926
95	0x3dc5fb4b	0.09667071
96	0x3d60b81d	0.054863084
97	0x3bb9a667	0.0056655887
98	0xbc8237b9	-0.015895711
99	0xbd514ea0	-0.051100373
100	0xbdd309f5	-0.103046335
101	0x3c091537	0.008366874
102	0x3dc70565	0.09717826
103	0x3d3c2917	0.045937624
104	0xbdb2b12a	-0.087251976
105	0xbc58c916	-0.013231536
106	0x3d82a140	0.06378412
107	0x3ca4b368	0.020105079
108	0xbe19b874	-0.1501177
109	0xbdf9aa60	-0.121906996
110	0xbd8e582a	-0.0695041
111	0xbd043ad4	-0.032282665
112	0x3d871410	0.065956235
113	0x3dded6fe	0.1088085
114	0x3d0f5649	0.034994397
115	0xbd05b238	-0.032640666
116	0xbd639810	-0.05556494
117	0xbd966f16	-0.07345407
118	0x3bdc3530	0.0067202076
119	0x3e0207d1	0.12698294
120	0xbd09f09f	-0.03367674
121	0x3dd5c1db	0.104373656
122	0x3d0e6316	0.034762464
123	0xbc32de51	-0.010917262
124	0x3da1016d	0.078616
125	0xbd8d1902	-0.068895355
126	0xbdc0e1c5	-0.09418062
127	0x3c5b86a4	0.0133988
128	0xbdab658e	-0.083689794
129	0xbd783e78	-0.06060645
130	0x3d174434	0.036930278
131	0x3c5c6630	0.013452098
132	0x3daad0fd	0.083406426
133	0xbd1685b1	-0.03674859
134	0xbdb5aacc	-0.088704675
135	0x3ddcc1ef	0.107791774
136	0xbd99e8d2	-0.0751511
137	0x3c3c1171	0.011478768
138	0x3dc01a95	0.0938007
139	0x3cd9d948	0.026592866
140	0x3d8864db	0.06659862
141	0xbd44202a	-0.047882237
142	0x3c1d97ea	0.009618739
143	0x3d6d7fc8	0.05798319
144	0x3cf6ab50	0.030110985
145	0xbd66a395	-0.056308348
146	0x3dbbbff2	0.0916747
147	0xbd4cf5ba	-0.05003903
148	0x3d804bbc	0.06264445
149	0x3dceabb4	0.100913435
150	0x3df228f5	0.11824218
151	0xbd0ed9b0	-0.03487557
152	0xbcd57239	-0.026055442
153	0xbdfd2cce	-0.123620614
154	0x3c1015fb	0.008794303
155	0x3d8f0ff5	0.069854654
156	0xbb11eb7b	-0.0022265601
157	0x3c91a4e4	0.017778821
158	0x3d167516	0.036732756
159	0x3d815f34	0.06316987
160	0x3d69c537	0.057072844
161	0xbd875af1	-0.066091426
162	0xbde2eda2	-0.11080481
163	0x3dc6a190	0.09698784
164	0x3d83e6ae	0.06440483
165	0xbdabf490	-0.08396256
166	0x3de20aee	0.11037241
167	0xbd5a35d5	-0.053273994
168	0x3d5d443a	0.054020144
169	0x3dd25bc5	0.1027141
170	0xbcc6fc28	-0.02429016
171	0xbc8c4aff	-0.017125605
172	0x3cd6b0d5	0.026207367
173	0xbce589b3	-0.028019762
174	0xbd88c9ab	-0.0667909
175	0xbc336f78	-0.010951869
176	0x3d210526	0.03931155
177	0x3d815b2e	0.06316219
178	0x3d169da1	0.03677142
179	0x3db45373	0.08804979
180	0x3dd54489	0.10413463
181	0xbde70da1	-0.112818964
182	0x3d627bc0	0.0552938
183	0x3dc1e79d	0.09468005
184	0xbd27ffb9	-0.04101536
185	0x3d29efb0	0.04148835
186	0x3d82ebdd	0.063926436
187	0xbd7dd78d	-0.061973143
188	0xbca4ffac	-0.020141445
189	0xbd3c4aab	-0.045969646
190	0xbd4638d3	-0.048394036
191	0x3d9c5478	0.07633299
192	0x3d719aa4	0.058985367
193	0xbde128ce	-0.10994111
194	0xbdd7af80	-0.10531521
195	0x3da573e7	0.08078747
196	0x3d83ae24	0.06429699
197	0x3d55b371	0.05217308
198	0x3ce2dc68	0.027692989
199	0x3d824716	0.06361215
200	0x3d315a0f	0.043298777
201	0x3d1faacf	0.038981255
202	0x3d3a8739	0.045539115
203	0x3c9d2f3c	0.019187562
204	0x3e21b250	0.15790677
205	0xbdd40584	-0.103526145
206	0xbdbdbade	-0.09264158
207	0x3d21797e	0.039422505
208	0xbd28c5b7	-0.04120418
209	0xbd05b09c	-0.03263913
210	0xbda5a2a9	-0.080876656
211	0xbc063d33	-0.008193302
212	0x3dba5c5e	0.09099649
213	0xbdab0891	-0.08351243
214	0xbe0ac34d	-0.13551064
215	0x3d8091e5	0.06277827
216	0xbd7ce733	-0.061743926
217	0x3dac1268	0.08401948
218	0xbdc4fd0d	-0.09618578
219	0xbcbad556	-0.022806805
220	0x3d957ecc	0.07299575
221	0xbdf445af	-0.119273536
222	0x3c0addea	0.00847576
223	0x3ca24432	0.019807909
224	0x3a4f559f	0.0007909182
225	0xbdcf848b	-0.101327024
226	0x3d8801a5	0.06640939
227	0x3e089817	0.13339268
228	0xbdb6751a	-0.08909054
229	0xbc941675	-0.018077115
230	0xbd569de1	-0.05239666
231	0x3db21355	0.086950935
232	0x3d980072	0.0742196
233	0x3e0fc5c0	0.1404028
234	0x3db34bd2	0.08754696
235	0x3de7ab37	0.113119535
236	0x3dbccdb8	0.09218925
237	0xbd163966	-0.036675833
238	0xbc96b554	-0.01839701
239	0xbd1e07b4	-0.038581565
240	0xbd6076d5	-0.054800827
241	0xbde067fd	-0.10957334
242	0x3d806531	0.06269301
243	0xbddcad9d	-0.107753016
244	0x3dbf9b97	0.09355848
245	0x3d84ae1a	0.0647852
246	0x3ce8de38	0.028426275
247	0x3d0ac41b	0.033878427
248	0x3da33ffb	0.07971188
249	0x3ddb5317	0.107092075
250	0x3d58f5c1	0.052968744
251	0xbc978c92	-0.018499646
252	0x3db46f9b	0.088103496
253	0x3dcabc80	0.09899235
254	0xbdb78b3d	-0.089621045
255	0xbdd2f234	-0.10300103

gru.bias_ih_l1 f4 [192]
0	0x3c7bf393	0.015377897
1	0xbda2988a	-0.07939251
2	0x3d69ef42	0.05711294
3	0xbdc86824	-0.09785488
4	0x3b6158fc	0.0034385314
5	0xbdfcdce0	-0.12346816
6	0x3ce0d0f4	0.027443387
7	0xbcea6a41	-0.028615119
8	0xbd0418ad	-0.032250095
9	0xbc0165bf	-0.007897793
10	0xbe04dc2c	-0.12974614
11	0xbe0549fb	-0.13016503
12	0x3dc8b19f	0.097995035
13	0x3dc442d0	0.09583056
14	0xbe0db534	-0.13838655
15	0x3d085f37	0.03329393
16	0x3dd29559	0.10282392
17	0xbd40042c	-0.04687898
18	0xbb2dc27b	-0.0026513624
19	0xbdef5c2a	-0.11687501
20	0xbd8edfae	-0.06976257
21	0xbd104d12	-0.03522975
22	0xbcabddee	-0.020979848
23	0xbe2deac7	-0.16984092
24	0x3cfc0930	0.0307661
25	0x3d23146d	0.0398144
26	0x3d70a24d	0.058748532
27	0x3d0443e6	0.032291315
28	0xbd53c04a	-0.051697053
29	0xbda9201a	-0.08258076
30	0x3cc78f7b	0.024360409
31	0x3c5561fd	0.0130238505
32	0xbd520a79	-0.05127952
33	0xbd599868	-0.05312386
34	0x3d7efa77	0.06225058
35	0x3d174a3e	0.036936037
36	0x3df1ee1f	0.11812996
37	0xbd840972	-0.06447114
38	0xbdfaea3b	-0.12251707
39	0xbdb9a690	-0.090649724
40	0x3db3ef1a	0.087858394
41	0xbe1dbbd6	-0.15403685
42	0xbddde29f	-0.1083424
43	0xbe1b709d	-0.15179677
44	0xbdc769d6	-0.097369835
45	0xbd3bd68b	-0.0458589
46	0x3d562c1b	0.052288156
47	0xbd2d70f9	-0.042344067
48	0xbe2271b0	-0.15863681
49	0xbd5fee08	-0.054670364
50	0xbdb5bc22	-0.08873774
51	0x3d16f8e6	0.03685846
52	0xbd5d8a87	-0.054087188
53	0x3d0e91e5	0.034807105
54	0xbe3955ba	-0.18099108
55	0xbd95cdf0	-0.0731467
56	0x3e0f6a49	0.14005388
57	0xbd2fb619	-0.04289827
58	0xbb865c6f	-0.0041003744
59	0xbdfeecaf	-0.124474876
60	0x3c767463	0.015042397
61	0x3ce5a821	0.028034272
62	0xbd801794	-0.06254497
63	0x3c53de2f	0.012931391
64	0xbec91b69	-0.39278725
65	0xbe6a3c30	-0.22874522
66	0xbd7f1582	-0.06227637
67	0xbe855fd1	-0.26049665
68	0xbea5229b	-0.32252964
69	0xbe139e64	-0.1441589
70	0xbe89c951	-0.26911405
71	0xbea89f1c	-0.3293389
72	0x3caef4b5	0.02135692
73	0x3e2fe8d5	0.17178662
74	0xbe79e5b2	-0.24404028
75	0xbe86885f	-0.26275918
76	0xbe8644eb	-0.26224455
77	0xbe1786cf	-0.14797519
78	0xbe0b01f5	-0.13574965
79	0x3d82c115	0.06384484
80	0x3e12861b	0.1430897
81	0xbe63cd83	-0.22246365
82	0xbece7315	-0.40322176
83	0xbdd434cd	-0.103616334
84	0xbd915d32	-0.07097854
85	0xbdaee16f	-0.08539092
86	0xbd1f7af5	-0.03893562
87	0xbec95f8f	-0.39330718
88	0xbe80a45a	-0.2512539
89	0xbe04940d	-0.12947102
90	0xbe75eb90	-0.24015641
91	0xbe40dd1a	-0.18834344
92	0xbe5c5875	-0.21518119
93	0xbe7a68e7	-0.2445408
94	0xbe83121f	-0.25599763
95	0xbe66d088	-0.22540486
96	0xbea220e9	-0.31665733
97	0xbe8f5a02	-0.27998358
98	0xbc80ac6f	-0.015707223
99	0xbe379ea6	-0.17931613
100	0x3e3f3010	0.18670678
101	0x3d64f74c	0.055899903
102	0xbe38a031	-0.18029858
103	0xbe0b2b25	-0.13590677
104	0xbe1839f9	-0.14865865
105	0xbee9ce57	-0.45665237
106	0xbe22ec0c	-0.15910357
107	0xbedf1745	-0.4357244
108	0xbe84b81e	-0.2592172
109	0xbeba08b1	-0.36334756
110	0xbe914842	-0.2837544
111	0xbec8515c	-0.39124572
112	0xbeb39869	-0.35077217
113	0xbe9afe59	-0.30272177
114	0xbe8501f2	-0.25978047
115	0xbe08e990	-0.13370347
116	0xbe786af8	-0.24259555
117	0xbeb090a9	-0.34485367
118	0xbe99bbc9	-0.3002608
119	0xbed2bd67	-0.41160128
120	0xbd275019	-0.04084787
121	0xbd6c1d5c	-0.057645187
122	0xbecf7165	-0.405162
123	0xbe65f165	-0.22455366
124	0xbecccfb5	-0.40002218
125	0xbe28c6c8	-0.16482079
126	0xbe69112b	-0.22760455
127	0xbe86178b	-0.26189837
128	0x3dda0cc7	0.10646968
129	0xbd58f7bb	-0.05297063
130	0x3d54a76a	0.05191747
131	0x3c7e9f8b	0.015540968
132	0xbd9a75ff	-0.07542037
133	0x3daa0000	0.08300781
134	0xbd600b97	-0.054698553
135	0xbd0f98ea	-0.03505794
136	0x3cd3a3e2	0.025834981
137	0xb9f8f7ce	-0.00047486875
138	0x3cafefbe	0.021476623
139	0x3d8c649a	0.06855126
140	0x3d4d56f6	0.05013176
141	0x3dc96761	0.09834171
142	0x3d3835a0	0.044973016
143	0x3dc048db	0.09388896
144	0x3d496183	0.04916526
145	0xbc8458ca	-0.01615562
146	0x3da8d37e	0.08243464
147	0xbd96b0f5	-0.073579706
148	0xbddc4b8a	-0.107565954
149	0xbc605b97	-0.013693712
150	0xbdc369fb	-0.095416985
151	0x3c4f65d8	0.012658559
152	0xbdb9707d	-0.090546586
153	0x3d62d427	0.055378105
154	0x3d9b1ea2	0.07574202
155	0xbdcad97c	-0.09904763
156	0x3d853033	0.06503334
157	0x3dac8cfb	0.084253274
158	0xbe0239e0	-0.1271739
159	0x3dca6c98	0.09883994
160	0x3dbf2e1d	0.09334967
161	0x3dcb99b9	0.0994143
162	0x3c4b569f	0.012410789
163	0xbdd2128f	-0.10257446
164	0x3d77dbfd	0.06051253
165	0x3daabf5f	0.083372824
166	0xbc1d9d44	-0.009620015
167	0xbd8f4873	-0.069962405
168	0xbb235d8f	-0.0024927591
169	0xbccdc265	-0.025117109
170	0xbdf1b7ca	-0.11802633
171	0xbd8f46d7	-0.069959335
172	0x3d07169b	0.032980543
173	0x3d827809	0.06370551
174	0xbd0af75c	-0.033927307
175	0x3d8be394	0.068305165
176	0x3d313fcb	0.04327373
177	0xbddc80c2	-0.10766746
178	0x3c0b67ad	0.008508605
179	0x3ba3c229	0.004997511
180	0x3d11286d	0.035438944
181	0xbd0462ef	-0.032320913
182	0x3cc3fb41	0.023923518
183	0xbd93cc36	-0.072166845
184	0xbc84a4b1	-0.016191812
185	0x3d2adcfc	0.041714653
186	0xbc6303f2	-0.013855921
187	0x3d9ec918	0.07753199
188	0xbcddf386	-0.02709366
189	0x3d807e49	0.06274087
190	0xbdbbddfb	-0.09173199
191	0xbcf95b61	-0.03043908

gru.bias_hh_l1 f4 [192]
0	0xbd278e30	-0.040907085
1	0xbdbec90d	-0.09315691
2	0x3c995b16	0.018720191
3	0xbe0637b7	-0.13107191
4	0x3d05209b	0.032501798
5	0x3dcacd8b	0.099024855
6	0xbcc7b472	-0.024378035
7	0xbdd567a9	-0.10420162
8	0x3d8072b3	0.06271877
9	0xbc7b4d3b	-0.015338237
10	0x3ca66df6	0.020316105
11	0xbe17d41d	-0.14827009
12	0x3d244786	0.040107273
13	0x3d0095ce	0.031392865
14	0xbd701016	-0.05860909
15	0x3dda24bd	0.106515385
16	0x3dc8ef85	0.0981131
17	0xbe1ff2e2	-0.15619996
18	0xbe1c6e52	-0.15276459
19	0xbbfc5bcd	-0.007701373
20	0x3bff8140	0.00779739
21	0xbd87d398	-0.06632155
22	0x3d912872	0.070877925
23	0xbc81fbc0	-0.015867114
24	0xbdf0f163	-0.11764791
25	0x3c740df6	0.014895907
26	0x3ce3d658	0.027812168
27	0x3d3e269d	0.046423543
28	0xbc240638	-0.010011248
29	0xbdd8998f	-0.10576164
30	0xbd4d1997	-0.050073233
31	0xbdcd33a3	-0.100196145
32	0x3d8a4326	0.06751089
33	0xbe0ee180	-0.13953209
34	0xbda6a1e3	-0.08136346
35	0x3dfd7a29	0.12376816
36	0xbd0a5271	-0.03377003
37	0xbc0d941d	-0.00864127
38	0xbdadc79d	-0.08485339
39	0x3d01186f	0.031517442
40	0x3dade35b	0.0849063
41	0xbd8cc810	-0.068740964
42	0xbe13a90b	-0.14419954
43	0x3cbeeb51	0.023305567
44	0xbdad13fd	-0.08451078
45	0xbd133e26	-0.03594794
46	0x3d34ddc8	0.04415682
47	0xbd7ad9e3	-0.06124295
48	0xbe197128	-0.14984572
49	0x3d2b95e2	0.041890986
50	0xbe104dc2	-0.14092162
51	0xbd5df620	-0.0541898
52	0x3d997eff	0.07494926
53	0xbceb3c8d	-0.028715396
54	0xbe3d8f85	-0.1851178
55	0xbdc2c803	-0.095108055
56	0x3e42e45f	0.19032429
57	0xbd0ba2de	-0.03409087
58	0xbe22e8bd	-0.15909095
59	0x3d8c888c	0.06861982
60	0xbd004c3a	-0.031322695
61	0xbca519da	-0.020153929
62	0x3d7e52d8	0.062090725
63	0x3d8c6e84	0.06857017
64	0xbe7e0bb7	-0.24809156
65	0xbe95ee69	-0.29283455
66	0xbdbc601c	-0.09198019
67	0xbe76ac72	-0.2408922
68	0xbeb08c86	-0.3448221
69	0xbe129d86	-0.14317903
70	0xbe51f0e1	-0.20502044
71	0xbe52633d	-0.20545669
72	0x3be1af1a	0.006887329
73	0x3d133ff6	0.03594967
74	0xbe4b508f	-0.1985495
75	0xbe926869	-0.28595284
76	0xbe21186c	-0.15731972
77	0xbdd05b61	-0.10173679
78	0x3d07190e	0.03298288
79	0x3e451161	0.19244911
80	0x3df84647	0.12122779
81	0xbe81ea25	-0.2537395
82	0xbe8c8182	-0.27442557
83	0xbe98394a	-0.29731208
84	0xbdd11f3c	-0.102110356
85	0xbe9c762e	-0.30558914
86	0xbd06bf74	-0.032897428
87	0xbe4ebf57	-0.20190178
88	0xbe75ff17	-0.2402309
89	0xbe41a694	-0.18911201
90	0xbe6118db	-0.21982138
91	0xbe5476c6	-0.20748433
92	0xbea9e76f	-0.33184382
93	0xbe83250a	-0.25614196
94	0xbe92177d	-0.28533545
95	0xbe3f300e	-0.18670675
96	0xbe4f6c78	-0.20256221
97	0xbe41b761	-0.1891761
98	0xbd9bb2c9	-0.0760246
99	0xbeb940fa	-0.36182386
100	0x3ddb176f	0.10697829
101	0x3c91ec51	0.01781288
102	0xbc0c0a41	-0.008547367
103	0xbe774b1c	-0.24149746
104	0xbe775876	-0.24154839
105	0xbea79d8a	-0.3273738
106	0xbeaca73a	-0.33721334
107	0xbe7c9a7c	-0.24668306
108	0xbe0ff41c	-0.14057964
109	0xbe6a8162	-0.22900918
110	0xbec1d8e4	-0.37860787
111	0xbe884b4d	-0.2661995
112	0xbe8408b9	-0.25787905
113	0xbe219591	-0.15779711
114	0xbecb42c9	-0.3969939
115	0xbe43dcae	-0.19127151
116	0xbec01c9b	-0.37521824
117	0xbe0f14c2	-0.13972762
118	0xbea9feff	-0.3320236
119	0xbe944816	-0.28961247
120	0xbe5b4aed	-0.214153
121	0xbe7b2c7d	-0.2452869
122	0xbe9f7510	-0.31144
123	0xbdb40eaa	-0.087918594
124	0xbe8b744b	-0.27237162
125	0xbe2066ae	-0.15664169
126	0xbe191e57	-0.1495298
127	0xbeb0e879	-0.34552363
128	0xbdf8a1f1	-0.12140263
129	0x3ab9f821	0.0014188328
130	0x3cd4c2bb	0.025971761
131	0x3d9e4815	0.07728592
132	0xbd431765	-0.047629733
133	0x3c9863cd	0.018602276
134	0x3c46dfd2	0.012138324
135	0xbd1ae72f	-0.03781813
136	0xbd38af0d	-0.045088816
137	0xbda80c17	-0.08205431
138	0xbdc6612d	-0.096865036
139	0x3d2fa5c2	0.04288269
140	0xbbdd2329	-0.006748576
141	0x3da78fbe	0.081817135
142	0xbd9cf17d	-0.07663248
143	0x3c8a808b	0.016906997
144	0xbdca738e	-0.098853216
145	0x3da17e3e	0.07885407
146	0x3dbe5b3b	0.092947446
147	0x3da3af2d	0.079923965
148	0xbde02c28	-0.10945922
149	0x3bea776e	0.0071553504
150	0x3c837848	0.016048566
151	0xbcad2f82	-0.021140818
152	0xbc588cde	-0.013217179
153	0x3ce5d427	0.028055264
154	0xbde9a1ad	-0.1140779
155	0x3c7a09a5	0.0152610885
156	0xbcc026dd	-0.023456031
157	0xbd023586	-0.031789325
158	0x3d414a0a	0.04718975
159	0xbdbde368	-0.0927189
160	0xbe053023	-0.13006644
161	0xbd8bb6f6	-0.068220064
162	0xbe07ab92	-0.13249043
163	0x3e0fcbbf	0.14042567
164	0x3d88907e	0.06668185
165	0xbcf2d9f7	-0.02964495
166	0xbca2fab2	-0.019894931
167	0xbd14eb60	-0.036357284
168	0xbdb42e5d	-0.087979056
169	0xbc8a0e93	-0.016852653
170	0x3daf1013	0.08547988
171	0xbd9ada7e	-0.07561205
172	0x3d9895a5	0.074504174
173	0x3d6608ae	0.05616062
174	0x3d6d6e31	0.057966415
175	0x3da1f6a6	0.079083726
176	0xbc7e2878	-0.015512578
177	0x3db9fbd8	0.090812385
178	0x3be1922c	0.00688388
179	0xbd19470d	-0.037421275
180	0xbd5cadf7	-0.053876843
181	0x3d05316b	0.03251783
182	0xbd32cd35	-0.043652732
183	0x3dcd49d2	0.10023846
184	0xbcf54976	-0.029942255
185	0x3c5d7a8e	0.013517989
186	0xbdbb2e6b	-0.09139713
187	0x3db39867	0.08769303
188	0xbdd9734b	-0.106176935
189	0xbd509981	-0.050927643
190	0xbd8bc230	-0.06824148
191	0x3e00bcc5	0.1257201

fc.weight f4 [1, 64]
0	0xbd921efe	-0.071348175
1	0xbdcdfcbd	-0.100579716
2	0x3cb6f2bb	0.02233254
3	0xbe1ffbbb	-0.15623371
4	0x3ddede78	0.10882276
5	0xbdaf2fd2	-0.08554043
6	0x3d727f7b	0.059203606
7	0x3dc9c15b	0.09851333
8	0x3be117ff	0.0068693156
9	0x3c540cb9	0.012942486
10	0x3dd6384a	0.10459955
11	0x3e0a12be	0.13483712
12	0x3d700825	0.058601517
13	0xbdf7616c	-0.120791286
14	0x3b072285	0.002061994
15	0xbc2ae89e	-0.010431437
16	0xbd067d1c	-0.032834157
17	0x3e0d645f	0.1380782
18	0x3d570f95	0.052505095
19	0x3dac1610	0.084026456
20	0x3d787480	0.060657978
21	0xbd809682	-0.06278707
22	0xbd7765cb	-0.06039981
23	0xbdbd331b	-0.09238263
24	0x3d8d4b11	0.068990834
25	0xbc6ba732	-0.014383124
26	0xbe068fe1	-0.13140823
27	0x3e261ec7	0.16222678
28	0xbd3e13dc	-0.046405658
29	0xbe0172d6	-0.12641463
30	0x3e14da2d	0.14536352
31	0x3dc0c974	0.09413424
32	0x3de22c47	0.110436015
33	0x3de9cdd4	0.11416212
34	0x3d1aeafe	0.037821762
35	0x3d740a66	0.05958023
36	0x3d1ae346	0.0378144
37	0xba5614f4	-0.00081665744
38	0xbcaaeeae	-0.020865764
39	0x3cc5700a	0.024101276
40	0xbd333039	-0.04374716
41	0xbdcc0537	-0.09961932
42	0x3e0859b7	0.13315473
43	0x3def955f	0.11698412
44	0xbe09346f	-0.13398908
45	0x3dc1ccaf	0.094628684
46	0xbd6620d7	-0.056183662
47	0x3d95f37c	0.073218316
48	0x3e1fb419	0.15596046
49	0xbe0c45ab	-0.13698451
50	0xbda2b0d3	-0.07943883
51	0x3dd944e4	0.10608843
52	0x3e0f7747	0.14010344
53	0x3d3440d9	0.044007156
54	0xbe187bb6	-0.14890942
55	0xbe0333ec	-0.12812775
56	0xbd67c59d	-0.056584943
57	0x3db3d8a0	0.08781552
58	0xbdc4a1f0	-0.096011996
59	0xbe15927e	-0.14606664
60	0xbdd9119e	-0.10599063
61	0xbdeff577	-0.117167406
62	0xbdb65462	-0.089028135
63	0xbdf5a22f	-0.11993825
