data/models/uniANDbtc_lstm.pth (torch, 206133 bytes, 9 tensors)

lstm.weight_ih_l0 f4 [256, 1]
00000000: 4795 8a3d 33df 963d 7a53 343e 626f 62bd
00000010: 884a febd cb93 48bd 8250 64bd d0d3 f9bd
00000020: 1bd2 c9bd 3753 873d 43a5 3abe 6317 17bd
00000030: 0ffd f43c 3129 2cbe 45dc fdbd 70dc 4cbe
00000040: 6bf4 9cbd f21c debd e535 643d 2a8b 853d
00000050: 12da c6bd 7926 c1bd d890 0c3d 3e28 d63d
00000060: 7acf fbbd ce68 35be 3b1e 65bd 719a 91bd
00000070: aaa5 7e3d 163a e23c 3f41 e13d 1ca6 fe3c
00000080: f8a1 3a3d ca55 22be 66ba ddbd f5d1 263e
00000090: 5f8f f5bd 3eef 0cbe 903e 703c 8a06 39be
000000a0: 465c 12be 321e cc3c a52d b5bd 25bc 27be
000000b0: 2ad9 52be 36de 5cbd cae0 22be 6454 943d
000000c0: 5c24 ecbc 78f1 c33d 9986 66bd f1d6 153e
000000d0: 79bf 843d fd32 773d 76f2 7bbd 6bf9 22be
000000e0: a44d e63d b1f4 9dbd e994 26be b7d9 be3d
000000f0: 2d67 fb3d 529e 06be 84b3 44bd 0d19 113d
00000100: e2ab 7abd bed6 173e 71a1 453d 79a6 c63d
00000110: 61f7 6bbd 8741 123e 0616 4f3a eb3e 69bd
00000120: 092f 44be c3ea 023e 4440 b1bc 6077 0cbe
00000130: cf64 b1bc eec9 f9bd 3e57 703d a392 31be
00000140: 52dc bfbc 2650 04be 0d06 1bbe f95c 0d3e
00000150: 8b9e 573c cfa9 9abd ff52 81bb ecec ef3d
00000160: 034d 06be eb64 98bd 7115 acbc 3538 6a3d
00000170: 1d55 153d 7628 ed3d f293 f73b 5d88 9e3d
00000180: c278 4ebd 4ae4 27be 9f7d 3abe 20e8 2b3e
00000190: 8de2 593c cd91 243c 4808 87bd 3f54 85bc
000001a0: f5cb 40be 9f72 333e 0935 fc3d df70 cbbd
000001b0: b925 cdbd 8b34 2e3e a1f8 dabd 15c7 193e
000001c0: bcab bbbd 6fe8 9d3c 9fdc 16bd 6565 2dbd
000001d0: f100 2f3b a7ca f23d b9af b6bd a282 1abe
000001e0: fa30 123e c462 ef3d 5d1d 3dbd bfa7 3b3d
000001f0: 6305 d23d 4a97 bdbd d82c bbbd 7f4e d2bc
00000200: b347 08be 525e cf3d 816e 153e c627 58be
00000210: d307 37be 1812 06be 1475 02be f8db 113d
00000220: ef19 913c 0681 24be 5072 433e 69ff 853d
00000230: 0ed5 1d3d de82 673c 9a59 0dbe 25ae 6dbe
00000240: a563 1cbe 1521 08be 31bc 3abd f4f9 ac3d
00000250: 96e1 083c 102e 093e 7639 353e 785c dcbd
00000260: 6dcc bc3d 54b7 27be 20ef f0bd b51f ebbd
00000270: 1b37 cf3d 3f74 1fbe cc05 96bd 45c6 0b3e
00000280: 550e 50be 201b 013e 00dc 103e 4711 43bd
00000290: c03f c0bd 530f b13c ad2d 013e 960a 0a3e
000002a0: f186 033e bfab 683d f098 4a3e d27d d83d
000002b0: bd97 3c3e 0d95 cb3d 7599 0c3e df99 ddbd
000002c0: 8f9c a8bd 75d1 bcbd 57ec 38be 5b26 05be
000002d0: 9a18 c4bd 8304 23be 09aa 0a3e a9e9 163e
000002e0: d6a5 403d b66b fd3d 479d 18be a456 033e
000002f0: 2902 4ebc 8197 473e 5fbb 743d 3824 f9bd
00000300: 68ff e13c 14b8 253e fcda 413d c656 433e
00000310: 7d51 15be e742 22be 2a0c 86bd 9080 41be
00000320: bcfb 21be ab1c 2f3e d2bd d6bd 5c87 283c
00000330: 188a d53d 045a 33be 5b19 033d 620b c7bd
00000340: 10d8 f5bc c8a4 29be a4cc 9ebd 5c1c e33d
00000350: eaa9 20bd a1b1 bcbd 10b9 7d3d 1374 f03d
00000360: 37b6 5abc 733e 13be 3116 5c3d 5bfd f63d
00000370: 589f 973d 71e0 8a3d 3d26 4b3e 3ce7 c73d
00000380: 104c a8bd 9eea 56be d6a9 4ebe e8cd 103e
00000390: db58 32be a226 8bbc ad28 69bd 69ba 17be
000003a0: ebc7 59be a01f 213e 4e05 663d c9eb 4bbe
000003b0: 6790 febd 7370 2c3c 02b2 eabd e090 89bc
000003c0: 0e3b 423d 1fdb 67bd 8a06 6c3c 1757 ae3d
000003d0: f360 fe3b cb86 813e 566a 15be a6d4 34be
000003e0: cf9c 5e3c 62db de3d 0ea2 1dbd 5f36 ff3c
000003f0: 8210 3c3e 5f10 75be 549f 18bd e7b1 043e
0.06766754 0.073667906 0.17609969 -0.055282004 -0.124165595 -0.04896907 -0.05574084 -0.12198603
-0.098545276 0.06607669 -0.18227105 -0.036887538 0.029905824 -0.16812588 -0.12395529 -0.20005965
-0.076638065 -0.10845365 0.05571546 0.06520684 -0.09709562 -0.09431166 0.03431782 0.10456894
-0.122954324 -0.17715761 -0.055937033 -0.071095355 0.06216971 0.027615588 0.10998773 0.031085066
0.04556462 -0.15853038 -0.10826568 0.1629103 -0.119902365 -0.13763139 0.014663354 -0.180689
-0.14293012 0.024916742 -0.08846597 -0.16380365 -0.20590654 -0.053922854 -0.15906063 0.07242659
-0.028825931 0.09567541 -0.056280706 0.14632775 0.06481833 0.06035136 -0.061510526 -0.15915458
0.112452775 -0.07712687 -0.16267742 0.093188696 0.122755386 -0.13146332 -0.048022762 0.03542428
-0.061199076 0.14828011 0.048249666 0.09699721 -0.057608966 0.14282809 0.0007899705 -0.05694477
-0.19158567 0.12784867 -0.02163709 -0.13717413 -0.021654515 -0.12196718 0.05867695 -0.17341094
-0.023420487 -0.12921199 -0.15139027 0.13804998 0.013160358 -0.0755192 -0.0039466615 0.11715111
-0.13115315 -0.074411236 -0.021006318 0.05718251 0.036458123 0.11579983 0.0075554783 0.07740853
-0.050408132 -0.16395679 -0.18211983 0.16787767 0.013298643 0.010044527 -0.065933764 -0.016275523
-0.18827803 0.17524193 0.12314803 -0.09933638 -0.10016961 0.17012231 -0.106919535 0.1501735
-0.09163615 0.019275872 -0.036831494 -0.042333025 0.0026703442 0.11855059 -0.08920235 -0.15088895
0.14276496 0.1168876 -0.04617058 0.045814272 0.10254934 -0.09257372 -0.09139413 -0.025672195
-0.13308601 0.10125412 0.14592935 -0.21108922 -0.17874078 -0.1309284 -0.12739974 0.03561017
0.017712561 -0.16064844 0.19086576 0.06542856 0.038533263 0.014130322 -0.13803712 -0.23210962
-0.15272386 -0.1329387 -0.04558963 0.08446112 0.008354565 0.13396478 0.17697701 -0.107598245
0.092186786 -0.16378528 -0.117643595 -0.11480657 0.101179324 -0.15571688 -0.073253244 0.13649853
-0.20317967 0.12608004 0.14146423 -0.0476239 -0.09387159 0.021613752 0.1261508 0.134806
0.12844445 0.056804415 0.19784904 0.10570873 0.18417259 0.099405386 0.13730414 -0.10820364
-0.08232986 -0.09219638 -0.18058906 -0.13002913 -0.09575005 -0.1591969 0.13541426 0.14737572
0.047033153 0.1237406 -0.14903747 0.1282602 -0.012573757 0.19491388 0.059749003 -0.12165111
0.027587608 0.16183501 0.04732798 0.1907607 -0.14581867 -0.15845834 -0.06545289 -0.18896699
-0.15818685 0.1710078 -0.10485424 0.010286178 0.1042673 -0.17514807 0.032006603 -0.09718968
-0.030010253 -0.16566765 -0.07753876 0.110893935 -0.039224543 -0.092135675 0.061944067 0.117408894
-0.0133491075 -0.14379291 0.0537321 0.120600425 0.07403439 0.0678109 0.19838805 0.09760901
-0.08217633 -0.20987937 -0.20181975 0.14141047 -0.17416708 -0.016986195 -0.056923557 -0.14817204
-0.21267669 0.1573472 0.056157403 -0.19914164 -0.12429886 0.010524857 -0.114597335 -0.016792715
0.0474196 -0.056605455 0.014405856 0.08512705 0.007763022 0.2529815 -0.14591345 -0.17659244
0.013587191 0.10881688 -0.038484626 0.031153856 0.18365672 -0.23932026 -0.037261322 0.1295849

lstm.weight_hh_l0 f4 [256, 64]
00000000: a044 36be 910b c23c 8396 9b3d 845e 8fbc
00000010: bbab 26be a374 f0bd ec89 93bd 9bb4 063e
00000020: d6ff e5bd a24f 8e3c ac2a bf3d 424d 8e3d
00000030: f863 02bd 41b1 80bd 846e debd 23ef e03d
00000040: 451c 5f3c f712 11bb 4f51 bfbd e2f5 e33d
00000050: d7b4 e7bd 705d 19bd 1c92 1e3d 0fb6 c9bd
00000060: c25f 81bd f5d8 a43d 150b 3fbd c801 ccbd
00000070: 5f78 55bd 3b7f 763d 39fd 83bd c703 043d
00000080: ad1a 0cbd 46c2 463d 5f77 7c3d 079f 09be
00000090: f3fb c83d bad2 8d3d e4ae c6bd 27ea 5dbd
000000a0: 9b0e 1a3d 90f9 e3bc 41e2 8abc ef76 10be
000000b0: 98f7 b8bd 1c8c fc3d d9c1 143e 9a8f 1fbe
000000c0: bb10 b93d 6bcb 12bd 7798 b63b e00a 96bd
000000d0: 51ad 45bd 0965 77bd 5f86 6d3d c5ff 94bd
000000e0: d0ad 8cbd 0c14 103e 965a e7bd 2233 843d
000000f0: 5241 51bd 6a4c b0bd 8a57 25bc cfae ac3c
00000100: a35c 64bc 660c 4d3d caf4 393d c1aa 193d
00000110: 9c9e a9b9 26b0 eabd 9fe9 ab3d 03a1 d53d
00000120: 8f28 db3b 4e6f b3bd 3f9a dbbd 30f6 7a3d
00000130: 9f71 673d 07eb 113e 27a7 05be 9b28 a3bd
00000140: ff1e 04bd 57c9 423d 93ee ba3a 23a3 183e
00000150: 742b efbd b3df b63d 22c4 44bd c029 a13d
00000160: 6167 973c 7d6b ab3b 1560 f8bb ce97 79bc
00000170: d2bc f93c 8176 5b3d 5e30 7ebd 73f1 233b
00000180: 7676 8e3d f07a 05be 35a2 1dbe 8979 9d3b
00000190: af20 cb3c add6 0a3e 0d11 88bd 7fc4 a63c
000001a0: 2a4e 91bd 2260 61bc d2a7 bb3d 5baa b43c
000001b0: c436 e1bc 6ddb 5f3c 34ca 9d3d 4cf1 703d
000001c0: 1641 7e3d 7294 f6bd 1c4d d1bd e02f 163d
000001d0: 37b7 c0bd 67ee 5d3d 9b32 993c dbad 5b3d
000001e0: a7d6 013e d407 9d3d 7079 8a3d 18e3 c83d
000001f0: d750 32bd dc10 b4bd 5c0d bf3c 3095 e4bd
00000200: d142 d0bb ed4f 1a3d efdf 76bd bc3b 633d
00000210: 3e76 2bbd 929e f7bd d981 833d 3ace 193e
00000220: d870 143d 8b0b c6bd cfa2 c0bd ff2b e0bd
00000230: eff8 85bd ad13 ba3a 2cf9 75bd f943 ee3d
00000240: 7110 4fbd 5fcf d63c 8b45 30bd e269 0a3d
00000250: a05e 6dbd dfd0 5abd b69c 143e 2a46 3ebb
00000260: 4c44 063e 3158 c63d 3768 5dbd eefa efbb
00000270: 0e35 3bbd b38b 82bc 36a1 93bd 48a7 003e
00000280: 07b6 933d f187 d93d a7c2 77bd 462d eebd
00000290: 97ed 123e 187f 303c 614e 1cbd c4e0 ba3d
000002a0: 48db f2bd 5da6 d53d e522 9fbd e9cc 32be
000002b0: f49b 14be c4f9 1f3e a2a5 543d ace2 d1bd
000002c0: bea9 9cbd aa0b 03be 2262 33bc 09fa 73bd
000002d0: dee5 0f3d c21b 0dbe 99c8 ed3c a49a 25be
000002e0: d151 bbbd 93e5 e23c 5188 643d 1953 373d
000002f0: 9219 8a3d 8b28 4bbd 33a8 c8bd 4e63 22be
00000300: f9ac f63c 7970 4dbd 783e 233b e48a 2fbd
00000310: 89b4 8ebd 767f 2fbe 330a 7a3d 2d91 d33c
00000320: 8ff3 21be f5d2 a8bd fca2 cd3d 121a 45bd
00000330: 5344 48bd 6ada c93d e4b2 2ebe 9973 153e
00000340: 8414 f03d 237e a13d cb88 373a 49e2 9a3b
00000350: 8b10 91bd a821 d93d fcfd 013e 20ec 23bc
00000360: b765 cd3d 53b3 1c3c 2fc5 51bd c417 23be
00000370: a835 16bd ff14 2d3d 3297 b5bd a570 7f3d
00000380: b0fe bcbd ba86 51bc b47a 51bd 9312 1fbe
00000390: 17b7 883d 1aef 543e f436 40bc 5774 773d
000003a0: 3c3e 6dbd 2309 e83d d657 ddbb c6f3 36be
000003b0: 9ca5 09bd 0518 80bd 028f 223d fbb5 f2bd
000003c0: 0c89 ae3d 98f8 a23c ad45 b1bd 3a55 51bd
000003d0: 4b42 f0bd 098e 48bc 0f32 a7bc 1f2f 67be
000003e0: 2a7f d53d 9cdd 373d 50e5 813d e12b 3b3e
000003f0: 46f6 393e 45ba b8bc d8a6 bcbd 96f1 583d
-0.17799616 0.023687156 0.07597067 -0.017501123 -0.16276447 -0.11740997 -0.07204041 0.13154833
-0.112304375 0.017371956 0.09334311 0.069483295 -0.03183362 -0.062838085 -0.10860923 0.10983112
0.01361758 -0.0022136548 -0.0934168 0.11130883 -0.11313789 -0.037442625 0.03871356 -0.09849178
-0.063170925 0.08049194 -0.046641428 -0.09961277 -0.052116748 0.06017993 -0.06444783 0.032230165
-0.034205128 0.048525117 0.06163728 -0.1343957 0.098136805 0.069249585 -0.097013265 -0.054178383
0.037611585 -0.027828962 -0.01695359 -0.1410787 -0.090316 0.12331411 0.14527072 -0.15582123
0.09036394 -0.035838526 0.0055723744 -0.07326293 -0.04826099 -0.06039909 0.057989474 -0.07275347
-0.068690896 0.14070147 -0.11296575 0.06455065 -0.051087685 -0.08608325 -0.010091672 0.021079449
-0.013938102 0.050060652 0.045399465 0.03751636 -0.00032352365 -0.11459379 0.08394169 0.10431101
0.0066881846 -0.08761464 -0.107227795 0.06126994 0.056504842 0.14249812 -0.13052045 -0.07966729
-0.032256123 0.047555294 0.0014261774 0.14905982 -0.1167821 0.08929386 -0.04803861 0.07869291
0.018481912 0.0052313195 -0.0075798132 -0.015233947 0.030485544 0.05357981 -0.062057845 0.002501574
0.069561884 -0.13035178 -0.15393908 0.004805748 0.024795858 0.13558455 -0.06643877 0.020357369
-0.07094987 -0.01375583 0.091628686 0.022053888 -0.027491935 0.013663155 0.07704583 0.05882387
0.06207379 -0.120400324 -0.102197856 0.03666675 -0.094099455 0.054182436 0.018700888 0.0536326
0.1267954 0.07667509 0.067614436 0.0980894 -0.043534126 -0.08792278 0.0233218 -0.11161268
-0.0063556214 0.03767388 -0.060272153 0.05547689 -0.04186081 -0.12090792 0.06421251 0.15020075
0.03624043 -0.096701704 -0.09406053 -0.109458916 -0.06541621 0.0014196538 -0.060052082 0.116340585
-0.05055279 0.02622193 -0.04303507 0.033792384 -0.05795157 -0.05342185 0.14512905 -0.002903352
0.1311199 0.0968479 -0.054054465 -0.0073236143 -0.045704894 -0.015935754 -0.07208483 0.12563813
0.07212453 0.10621632 -0.06048837 -0.11629729 0.14348446 0.010772489 -0.038160685 0.09124902
-0.11858231 0.10432122 -0.077703275 -0.1746098 -0.14512616 0.15622622 0.051915772 -0.10248312
-0.07649563 -0.12797418 -0.01094869 -0.059564624 0.035131328 -0.1378012 0.029026316 -0.16172272
-0.091464646 0.02769736 0.055794064 0.044756982 0.067431584 -0.04959921 -0.097977065 -0.15858194
0.030111777 -0.05015609 0.002490906 -0.042857066 -0.06968028 -0.17138466 0.061044883 0.025826061
-0.15815566 -0.08243362 0.100408524 -0.048120566 -0.048893284 0.09856112 -0.17060429 0.14594878
0.11722663 0.07885387 0.000700128 0.0047266823 -0.070832334 0.106021225 0.12694544 -0.010005027
0.10029166 0.009564239 -0.05121344 -0.15927035 -0.036672264 0.04225635 -0.08866729 0.062363286
-0.09228265 -0.012788469 -0.05114241 -0.15534429 0.066755466 0.20794335 -0.011731852 0.060413685
-0.05792068 0.11329868 -0.0067548556 -0.1786643 -0.033605203 -0.06254581 0.039687164 -0.11851116
0.08522233 0.01989393 -0.08655868 -0.05110667 -0.117313944 -0.012240895 -0.020409612 -0.22576569
0.10424645 0.044889078 0.06342566 0.18278457 0.18160352 -0.022549758 -0.092115104 0.05296477

lstm.bias_ih_l0 f4 [256]
00000000: 7740 1c3e 543e 5b3d d46c 923b eed0 d1bc
00000010: 9cfc 913e 2aeb 44bd 11b0 403e 8e7a 5e3c
00000020: c708 c3bd 68e6 773d b985 e13d deb9 06bc
00000030: ce52 853d 7a29 083d 32b8 a93d 158f 2c3e
00000040: 0f36 303d 7617 b03c 1dc3 383d 529b e43a
00000050: 0382 cf3c e37a 4bbd d03a 053e 4423 063d
00000060: 974d 423d f4ea f73d 2321 f93d b54e fe3d
00000070: 2858 163e fd39 f33d a0b4 fbbc 78b1 143d
00000080: bc5b 093d ca19 783d a67b bc3c c70d d4bd
00000090: a71e cf3d 0b22 cdbd f8c1 95bd b6a9 1a3c
000000a0: 16da debb 6572 2b3d 03c0 31bd 9e38 92bd
000000b0: 1b5e 92bd c2de c33d 5a74 fb3d fd26 113d
000000c0: 29f7 223d 4b31 ee3d 479a d13c 4302 bebc
000000d0: 1bf6 ec3c 2545 173e 7cc1 e9bc 0d64 b43d
000000e0: bda4 d5bd 1f8d f73d 1d56 32bc 748f 10bd
000000f0: e2b7 e4bd 2d09 3f3e ce93 403d 7009 d23d
00000100: 89d9 0abe 22a4 88bc a1ef 95bd 4a53 cc3d
00000110: bd94 003d e082 0ebe e679 28be 14cd bbbd
00000120: ed61 9fbd 5cdb fd3c bf11 b9bd 0bf7 d8bd
00000130: 4fdb 0dbe a71e e5bc 712f a23d cf8f 30bd
00000140: 783c 2cbc 8d86 97bd ba00 63bd f369 25bd
00000150: 98fc b83d 4841 e2bd cc25 023e e220 a53d
00000160: e6b2 f5bd 5bcb e73d 4ca5 84bd a72f 9fbd
00000170: 8539 843d e2fc ac3d 628b fabc d619 e23c
00000180: 4fed cfbd 58de 513d 6da1 fd3d 2e2d 873d
00000190: 7962 fabd 7c71 dcbc d8fb 5a3d e700 1d3d
000001a0: 9f53 22bd 8caa c3bc 1c51 8e3d 92c6 9bbd
000001b0: 0970 a9bd 8b20 8fbd 402c c53d b262 cd3d
000001c0: c2a8 503c 38e9 0dbd d75d fb3c c228 ed3d
000001d0: 7338 013d 262e 74bc 855a 18be 0bd7 763d
000001e0: 7028 b43d 1440 833d 9ca7 35bd bbc3 29bd
000001f0: e418 633d 3e58 cebd e17e aa3c 7abc 253d
00000200: 3eb9 a13c 2d70 c5bd f751 383c 03ca c6bd
00000210: 5504 ec3c 96ea 8cbb a957 913d 6b77 8a3c
00000220: 4d53 893d 902b d0bb c0e9 c33d 81a1 f13a
00000230: 0e0b 6cbd 18e6 053c 59c3 ab3d 3d12 353d
00000240: e4bc 853d 0bb0 9d3d 30ce 4abc d252 c23d
00000250: 9887 d1bd 8c1a 343d 527f 95ba c8d9 0bbe
00000260: f1c3 f2bd f402 403d e03b c1bd 72a3 873d
00000270: 32b3 17bb a7cb 1ebd a747 b5bd d2d7 fabc
00000280: 6661 00be 6e3b df3c bc7a c4bd 61ee 50bd
00000290: 3afd f33d 1492 db3d 5cb4 42bd 9827 6ebd
000002a0: b760 d83b 6208 b83b be20 8f3d 2629 87bd
000002b0: dca5 6abc c52f c93d 917a 06bc a165 ecbc
000002c0: ad72 a1bd 4542 3fbd 51d2 f03d c86d d9bd
000002d0: 5fa2 9e3d 433e d43a 868e 8abc 5087 90bd
000002e0: 07af 9e3d 4b8e 7e3d b55c 73bc a8a2 9bbd
000002f0: cc77 c63d 1f3c 1cbd c5cb 4c3c 5e38 d7bd
00000300: 88f7 aa3d 85fb 2ebc ce4c 8d3d a4fd a83d
00000310: 700e 5b3e 8c2e 5abb 0f0f 19bd 9d9c 22bd
00000320: f207 14be e9a4 a4bd 735f bb3c 9940 1bbb
00000330: 3421 c5bc 296e f8bd 5ad6 8f3b 42f5 573e
00000340: 03c1 b3bc 7780 7a3d 9483 a23d dd6f 4d3d
00000350: 9688 d63c 5934 e83c 4d77 ce3c 14c8 23bd
00000360: 5705 8b3d 3a22 833d a4c7 4e3d cfdd d23d
00000370: 2fc1 003c 4e6c babd 7f87 ae3d 36d9 b13c
00000380: c0e6 403e 8185 abbc dcb8 243d 900b 03bc
00000390: 87f2 99bd bc13 78bc a8fd 9c3d cfbf 6cbd
000003a0: 0479 143e 695b 8cbd 04ac c33d 53e6 cd3c
000003b0: 6640 b43d 0c35 9dbc cd45 c93d 51b1 543d
000003c0: 5609 11be 9420 733d 0a5c 5c3d d5a7 c13d
000003d0: af3e 193c 5348 4a3d aa09 203d 8016 543d
000003e0: b6c4 cc3d 0323 3f3c 30c0 a33c 3740 a23d
000003f0: 5d26 c93d cf17 1bbc 595a d1bd 3bb6 73bd
0.15258966 0.053526238 0.0044685397 -0.02561232 0.28513038 -0.048075832 0.18817164 0.013579024
-0.095231585 0.060522467 0.11011834 -0.008223025 0.06509934 0.03324268 0.082870856 0.16851456
0.043020304 0.021495562 0.04510795 0.0017441309 0.02533055 -0.04967774 0.13010716 0.032748476
0.047437277 0.121053606 0.121645235 0.12417356 0.14682066 0.11876295 -0.030725777 0.03630206
0.03353475 0.06057147 0.023008179 -0.1035419 0.10113268 -0.10016259 -0.07312387 0.009439876
-0.0068009 0.041857142 -0.043396007 -0.07139705 -0.071468554 0.09563972 0.12278052 0.035437573
0.03978649 0.11630496 0.02558626 -0.023194438 0.028925946 0.1477247 -0.028534643 0.08808146
-0.10431812 0.120874636 -0.010884789 -0.035293058 -0.11167885 0.18655844 0.047015958 0.10255706
-0.13559546 -0.016679827 -0.07321096 0.09976824 0.031391848 -0.13917112 -0.1645275 -0.09169975
-0.0778235 0.030988388 -0.09036588 -0.10593995 -0.13853191 -0.027968718 0.07919205 -0.043105897
-0.010512464 -0.073987104 -0.055420615 -0.040384244 0.090325534 -0.11047608 0.12709731 0.080629125
-0.11997013 0.11318084 -0.064768404 -0.07772761 0.064562835 0.08446671 -0.030584041 0.02760021
-0.10152685 0.051237434 0.12384305 0.06600414 -0.122258134 -0.026909582 0.053462833 0.03833094
-0.03963053 -0.023885034 0.06949064 -0.07606234 -0.08273322 -0.06988629 0.09627581 0.1002859
0.0127355475 -0.034646243 0.030684395 0.115800396 0.031547975 -0.014903581 -0.1487828 0.060263675
0.08796775 0.06408706 -0.044349298 -0.04144643 0.05544366 -0.100754246 0.020812454 0.04046295
0.01974165 -0.096405365 0.011250011 -0.097064994 0.02881066 -0.0043004258 0.07096798 0.016902646
0.067053415 -0.0063528493 0.09566069 0.0018434973 -0.05762773 0.008172534 0.08386869 0.044206847
0.06530169 0.07699593 -0.0123782605 0.09488453 -0.102309406 0.04397063 -0.0011405742 -0.13657296
-0.11853779 0.046877816 -0.094352484 0.066229716 -0.002314758 -0.038768437 -0.08851557 -0.03062049
-0.12537155 0.027250018 -0.09593722 -0.051008586 0.119135335 0.107212216 -0.047535285 -0.05814323
0.006603326 0.0056162337 0.06988667 -0.06599645 -0.0143217705 0.098235644 -0.008207933 -0.028857054
-0.07883201 -0.04669406 0.11758865 -0.10616642 0.077458136 0.0016192872 -0.016913664 -0.07057059
0.077482276 0.06214742 -0.014853646 -0.075993836 0.09690818 -0.038143273 0.012499754 -0.10508798
0.08347994 -0.010680084 0.06899415 0.08251503 0.21392226 -0.0033291904 -0.037367877 -0.03970014
-0.14456156 -0.080392666 0.022872662 -0.0023689626 -0.024063684 -0.121303864 0.0043895664 0.21089652
-0.021942621 0.06115767 0.07935253 0.05015551 0.026188176 0.028345274 0.025203371 -0.03998573
0.06788128 0.064030126 0.05048336 0.10296213 0.007858559 -0.09102689 0.085219376 0.02171002
0.18838024 -0.020937683 0.04021536 -0.007998362 -0.075169615 -0.015141424 0.076655686 -0.05780011
0.14499289 -0.068533726 0.09554294 0.025134241 0.088013455 -0.019190334 0.098277666 0.051926915
-0.14163718 0.05935724 0.053798713 0.094558395 0.009353324 0.04938538 0.039071716 0.05177927
0.09998457 0.011666062 0.019989103 0.07922404 0.0982177 -0.009466126 -0.102223106 -0.05949996

lstm.bias_hh_l0 f4 [256]
00000000: f733 98bd cd23 273e 5ec9 073e a798 d63d
00000010: d034 913e 616d aabc 7324 a53d e78e ad3d
00000020: 6d32 1cbd 15ea f13c ad79 0a3d 1174 06bd
00000030: e0c8 9d3d 104d 613d 25dd 6cbd 7d00 803d
00000040: bd3d 34bd e103 d63d 61dd f3bd 3afc c1bd
00000050: f3b4 23bd 2cdb 86bd e79d 0f3e ad87 73bb
00000060: c687 f9bd 5e19 f23d df75 5e3d d7d5 57bd
00000070: 5076 ab3b 30ca 093e b9fc 093e 7a3f 133e
00000080: 3d96 263d c063 b5bc 4e83 0c3d a611 67bd
00000090: 4f0b b9bd bdd4 9dbc a8e5 00bd 651b 9b3c
000000a0: aad8 34bd 6ded 743d 4b82 f53d 566f 3e3d
000000b0: e7a8 b13d 8a40 8dbd aee8 d4bb a7a4 0ebd
000000c0: 8901 b13d 92e5 7b3d 2c09 06bd b829 863d
000000d0: e161 5b3d 4cdb 233e d5cb 203c 33c6 0bbd
000000e0: 8107 c6bd 6d5f 8f3d 37be e73d fd19 2e3e
000000f0: 08b0 4e3d e11a 413e 1463 fb3c 5073 233d
00000100: 4957 bd3d 35b5 14bd 1306 bd3d 11d4 293d
00000110: 53de 11be 5e8b b93c 2ccc b2bd 78bd 01be
00000120: 3210 ddbd 90d5 da3d 6418 fa3d 5ea0 25bc
00000130: 4fd4 e8bd c935 e7bd a7d0 00bc b4a9 23bc
00000140: eb57 bb3d 07cb ed3d fa00 cc3c 446d f83d
00000150: 9fda 35bd e66b 793d 3bfe 3c3d 22b9 edbc
00000160: 8ddc 8dbd 0c88 8a3d 187e 93bc 321a 1abd
00000170: 0522 9dbd e37c 343d ad17 8bbd f850 f53d
00000180: 2938 d1bd 4c65 2b3d f982 a1bd f280 bbbd
00000190: c75f 9e3d a3ec 16be 7f24 a8bd 99c0 f0bc
000001a0: 09f5 2d3c b295 d4bd d2e5 cfbd 44fc 1b3d
000001b0: a5c2 f4bd d39c debd 7e59 72bd 18e4 b73d
000001c0: 921d f8bd 45ff 8f3d 8143 a3ba c648 c1bc
000001d0: f493 f339 b421 de3d a773 853d 517f 74bd
000001e0: 40d1 5bbd 28e5 69bd b8ba 35bd 5727 cfbb
000001f0: f6f8 02bd 8025 4d3d 2b72 ae3d 8bd5 8c3d
00000200: 7d43 30bd 635c b23d 5c6c 863d 53ef 8a3d
00000210: 79c3 f4bc cecf 98bd a795 cabd 7430 b13d
00000220: 9d89 debd f7bb 43bc 981e c0bd bced 89bc
00000230: 8144 f7bd ad46 14ba 5632 0cbd 8c2f a33d
00000240: 2017 5f3d 1923 9dbd c6bf 943d f892 91bd
00000250: cfca 4ebc 76f9 4d3b b867 3f3d d4a3 cf3d
00000260: a76f 713d 0616 b13d 6828 d73c e895 93bd
00000270: e467 9e3d 0180 543d b173 05be 2932 543c
00000280: 3f6f f13d 8ecb c2bd d66b 3d3d 504b 9c3a
00000290: 350e fbbc 3b44 fc3d af65 9fbd e4df 11bd
000002a0: 3e3e 35bd 9855 063e 8441 833c 3bee 02be
000002b0: 40f8 cfbd 50fd d93c 29e1 8a3a 3b37 62bd
000002c0: 2b70 d33d bbe6 45ba 1708 e7bd e4b4 9bbd
000002d0: 39c8 d43c bb00 a1bd d15a 993d 72c7 09be
000002e0: bb5b a43c d423 82bd b5d8 383d 3675 fb3d
000002f0: 4a2e b33d 3479 c9bd a9b7 15bd 02f4 ae3d
00000300: a895 1a3d 16a3 d83c db76 043e 30dd 9b3d
00000310: be80 513e 1f84 ee3d 91a2 393e a526 6fbd
00000320: 1153 52bd f1f4 87bd 6b34 52bb eb93 913d
00000330: 17b7 5cbd 077a 7fbd 369d 483c defe 0c3d
00000340: 0f91 3b3c 46e1 a4bd 3269 aa3d 08dd 3fbc
00000350: 6e26 b63d ff35 8dbd 8261 bf3b 12fa 49bd
00000360: cf04 ab3d f6bf 5d3d 811a 0d3e 65b1 223d
00000370: 2df6 f43c 27d4 573c 6744 793d c458 b53c
00000380: 03c8 053d 0898 a4bd c82a 10bd 6d26 dc3d
00000390: 2df7 82bd 5db5 39bd 744d 1d3d e7ed 4f3d
000003a0: 037a eebc 551c 1ebb 1c17 3f3d 987e 16bc
000003b0: bdb9 e4bc c085 db3d 5d7c a83d 1aee 00bd
000003c0: ac72 18bd f8f5 0c3d 3d93 b43d 77c6 a6bd
000003d0: 0408 b43d 17d1 423e 08e7 a0bc f5b1 193e
000003e0: a9f0 943b d712 033d 8418 fd3d c901 093e
000003f0: 1324 f13d 62d5 4b3e 1739 c2bd df09 24bd
-0.074317865 0.1632225 0.13260409 0.10478335 0.28360605 -0.020804109 0.08063593 0.08474522
-0.038134027 0.029530564 0.033807445 -0.032825533 0.077043295 0.055005133 -0.057828087 0.06250093
-0.04400419 0.104499586 -0.11907459 -0.094719365 -0.03996749 -0.065847725 0.14025079 -0.0037159726
-0.121841 0.11821245 0.05431163 -0.052694168 0.00523261 0.13456035 0.13475312 0.14379683
0.040670622 -0.022142291 0.03430491 -0.056413315 -0.0903536 -0.01926648 -0.031469017 0.018933961
-0.04415194 0.05979674 0.11987742 0.046492897 0.08674794 -0.068970755 -0.006497464 -0.034824993
0.08642871 0.061498232 -0.03272359 0.06550926 0.05356014 0.16001624 0.009814222 -0.034124564
-0.096694 0.07000623 0.113155775 0.17002101 0.050460845 0.1885791 0.030686893 0.039904892
0.09245164 -0.036305625 0.09229674 0.041462008 -0.14244966 0.022649463 -0.08730349 -0.12669933
-0.10794105 0.10685265 0.122116834 -0.010109035 -0.1136862 -0.112895556 -0.007862247 -0.009989191
0.091476284 0.1161099 0.02490281 0.12130216 -0.044397946 0.060893916 0.04614089 -0.029018942
-0.06926832 0.0676423 -0.018004462 -0.037622638 -0.07672504 0.044064414 -0.06791625 0.11978334
-0.1021579 0.04184465 -0.07886309 -0.09155454 0.07733112 -0.14738707 -0.08210086 -0.029388713
0.010617503 -0.103801146 -0.101512566 0.038082376 -0.11951188 -0.108697556 -0.059167378 0.08979052
-0.12115015 0.07031111 -0.0012456031 -0.023594271 0.00046458805 0.10846272 0.065161996 -0.05969173
-0.053666353 -0.057103306 -0.044367522 -0.0063218283 -0.03197571 0.05008459 0.085178696 0.068766676
-0.04303311 0.087090276 0.06563637 0.06783929 -0.029878365 -0.074615106 -0.09891825 0.0865182
-0.108660914 -0.01194667 -0.09380835 -0.016836993 -0.12073613 -0.00056562835 -0.03422769 0.07968053
0.054465413 -0.0767271 0.072631404 -0.0710811 -0.0126215955 0.0031429208 0.046729773 0.101386696
0.05894437 0.08646779 0.026264384 -0.07206327 0.07734659 0.051879887 -0.13032414 0.012951412
0.11788797 -0.09511481 0.04624542 0.00119243 -0.030646423 0.123177014 -0.077830665 -0.03561391
-0.044248812 0.13118589 0.016022451 -0.1278619 -0.10154772 0.026610047 0.0010595667 -0.055228453
0.10324129 -0.0007549335 -0.1128084 -0.076028615 0.02597438 -0.078614675 0.07488025 -0.13454989
0.020063272 -0.0635449 0.045128543 0.122782156 0.08749063 -0.09837571 -0.036552105 0.085426345
0.03774038 0.026444953 0.12935965 0.076105475 0.20459267 0.11646294 0.1812842 -0.058386464
-0.05134875 -0.06638516 -0.00320747 0.07108291 -0.053885546 -0.062372234 0.012244513 0.034422748
0.011448159 -0.0805078 0.08320846 -0.011710413 0.08894049 -0.068950646 0.0058404813 -0.04931075
0.083505265 0.054138146 0.13779642 0.039719958 0.029902542 0.01317314 0.06085625 0.022137053
0.03266145 -0.0803681 -0.03519705 0.10749517 -0.06394801 -0.045338977 0.038403943 0.05076399
-0.029110914 -0.0024125774 0.0466529 -0.009185456 -0.027920598 0.1071887 0.082268454 -0.03147707
-0.037218735 0.03441426 0.08817146 -0.08143323 0.08790591 0.19025074 -0.019641414 0.15009291
0.0045452905 0.03200039 0.123581916 0.13379587 0.11774459 0.19905618 -0.09483545 -0.040048476

lstm.weight_ih_l1 f4 [256, 64]
00000000: 8c46 a3bd c2c7 263e 734e 62bb 40f1 29be
00000010: 806f 98bd fe92 1c3d a98f 87bd 5c58 ad3d
00000020: d888 efbd 64f6 83bd 1e0d d7bc 67e0 6fbc
00000030: 9e24 5f3d 1bf5 98bc d5cc 2fbe 3be5 f1bb
00000040: 031b f0bd 2c75 ccbd ac16 9b3d 33f3 0f3e
00000050: eff1 ebbd 52fe bcbd 6a8b a33d 51f3 9cbc
00000060: fe94 cfb9 7aec 3d3d b920 223a 14dc 633d
00000070: 2900 b23d 6360 a3bd 5930 2abd ddf0 b13d
00000080: 1d4e d2bd f246 75bd 9281 e73d 4cf7 c13c
00000090: bf83 c8bd fd3e 4cbc 7b14 e43d a02f cd3d
000000a0: 96fa 28bc bfbc f0bc a2ae db3d d28a f83d
000000b0: 8f0e c2bd 9f98 e13d 0707 163e 8822 a13d
000000c0: 97f3 803b f750 4b3d a421 03be dcb0 abbd
000000d0: 0b46 10be 0a0d 1abe 6463 d03d 402d 8b3c
000000e0: 1c89 d9bc c67e 903d f0d4 13be 7374 bfbc
000000f0: a53a 853d e607 2c3e a0b6 97bc 3bcd 1cbe
00000100: e05d fe3c 480d 8fbc c1fb ed3c 4562 02be
00000110: 5af3 05be 658a 13bd 22d6 d3bd 202e 033e
00000120: 86a5 0cbe fb47 9dbd c066 8e3d 99b2 81bd
00000130: e2a7 e8bd fbf5 9b3d b221 9a3d 7e46 06be
00000140: c0dc c53d 2961 733c 09c0 ef3d 6a08 a23d
00000150: f80c c03d 7675 e53d 4788 383c 17d6 03bd
00000160: a422 c03c 6578 013e 78ff 233d 5fab 6abc
00000170: f850 a63c 49c9 c2bc f03d 273d 0eea 8c3d
00000180: cd3a 03be cd9b cebb ba85 4bbd a793 81bd
00000190: edbd 26bd 4812 bf3d 1877 9abd dbf3 ab3c
000001a0: a77a 93bc 17d0 e13d ce11 82bd 8da2 5cbd
000001b0: 26a0 f73b 2766 2d3a 3d9b d6bd 2e5b 363d
000001c0: 6b8d acbc 5c47 9fbd 91ce 4ebd 23a7 ca3c
000001d0: 8d7d 9bbd ffe1 07be 7413 d73b 6c2b 673d
000001e0: 6bb9 b33a d67c a13d 85d0 cebc 976e a2bd
000001f0: d630 c5bc 4bdb de3d 6f8f febb a5e4 d0bd
00000200: ad2d 0ebe eaba 113e 1e91 043c ca15 04be
00000210: 0b23 3abd f52e edbd 1e15 9bbc fc21 cbbc
00000220: 7cc9 b83c 5a60 95bc 6f86 01bd a4dd a03d
00000230: d44d 883d bf7c 4c3d ce44 20be d662 89bd
00000240: 11c9 73bd dbf3 d33d 9301 0a3e a057 55bd
00000250: 6702 abbd e558 df3d b8a3 83bd 22d5 e6bd
00000260: 6091 11be 9bb8 66bd 9ace 90bd f6ec 57bd
00000270: 3d22 d2bc 6d1c 833c 7557 c33c 15cb af3d
00000280: 61f7 27be 088d b73d 6941 a9bb 0ca6 06be
00000290: c1e5 e5bc c812 a93d 720e 33bc 8e6d 013e
000002a0: 6f0a bf3d 3a74 0e3e 0fb2 723d 0d4d fcbd
000002b0: c7f6 813d 4e68 4f3d 34a4 313d 0614 e4bd
000002c0: 6de6 afbd 7540 3b3d 15e1 edbc c28e 9ebd
000002d0: 18cf 863d c15f a1bc 970d 103d c4fe 0dbe
000002e0: b930 c13c 64a0 1e3e 58c3 383d f256 573d
000002f0: 5668 9cbd 1554 8fbd a168 c83c 77a7 b6bc
00000300: 5707 8b3d f719 6a3d f89e 083d 5a99 65bd
00000310: 15b1 713c fd18 d1bd 7c8f 13bd 40f3 8abb
00000320: 1f04 a43c 3f4d 13be 6ed8 e6bc 50b4 d23d
00000330: dd5f b9bd 438c 973c 3fbf 76bd 12e0 28be
00000340: b25c 953d dd99 513d ee87 cf3d 30a2 253e
00000350: 0350 f33d 04c0 5fbc ccdd ebbc c07a e7bd
00000360: a812 0f3e 2229 96bd 4ca7 33bc 464b ecbd
00000370: f322 94bc 4b09 3f3c 8a66 9cba 94d5 993c
00000380: bcc7 20be 9fc6 0e3d 630d bd3d 713e 8d3d
00000390: 59fe df3c 879a d7bd 9e7e 5b3d d052 a63c
000003a0: 52f7 093e 8f77 8bbd e26d aabd 1514 463d
000003b0: 206d 113e 0111 24bd 0ba0 b53c 83c2 abbd
000003c0: 418a 473c 5860 81bd a75e b93b da53 6b3c
000003d0: c044 90bd d41b 9ebd 6c8d 9abd 36f9 093e
000003e0: 4f47 9e3d 2086 053e 1c2f eabd 905b 28bd
000003f0: 8001 753b ee45 673d 2f2d 9bbd 0c4e a0bd
-0.0797244 0.16287139 -0.0034531623 -0.16595936 -0.07443142 0.03822612 -0.06619198 0.08464119
-0.11696023 -0.0644348 -0.026251372 -0.014640904 0.05447828 -0.018671563 -0.17167981 -0.0073820627
-0.11723902 -0.09983286 0.07572684 0.14057617 -0.115207545 -0.09228195 0.079855755 -0.019158991
-0.00039593125 0.0463681 0.00061846856 0.055629805 0.08691437 -0.07977369 -0.041550014 0.08688519
-0.10268805 -0.05988211 0.113040105 0.02367749 -0.097907536 -0.012466189 0.11136719 0.100188494
-0.010313651 -0.029386876 0.10726668 0.12135853 -0.09475433 0.11015438 0.14651118 0.078679144
0.003935288 0.04963776 -0.12805802 -0.083833426 -0.1408922 -0.15044037 0.10175207 0.01698935
-0.026554637 0.0705543 -0.14436698 -0.023370957 0.06505326 0.16799888 -0.0185197 -0.15312664
0.031050622 -0.017462388 0.02905071 -0.127328 -0.13081113 -0.036020655 -0.10343577 0.12810564
-0.13735017 -0.07679745 0.06953192 -0.06332893 -0.11360146 0.076152764 0.07525958 -0.13112828
0.09661245 0.014854708 0.1170655 0.07911761 0.093774736 0.112040445 0.01126296 -0.032186594
0.023454018 0.12643583 0.040038556 -0.014323085 0.02030228 -0.02377762 0.040830553 0.0688058
-0.128154 -0.006305194 -0.04968808 -0.063269906 -0.04070847 0.09329659 -0.075422466 0.020990303
-0.018002821 0.11026018 -0.06351052 -0.053865958 0.007556933 0.0006614648 -0.10478828 0.04452055
-0.021063527 -0.077772826 -0.050489966 0.0247379 -0.07592306 -0.13269804 0.0065635983 0.056437895
0.0013711875 0.07885139 -0.025245914 -0.079312496 -0.024071138 0.108816706 -0.0077685635 -0.101998605
-0.13884611 0.14231458 0.008091239 -0.12898937 -0.045443576 -0.11581222 -0.018930968 -0.024796478
0.022557013 -0.01823442 -0.031622346 0.078547746 0.066554695 0.049923655 -0.15651247 -0.067083046
-0.059517924 0.10349246 0.13477163 -0.05208552 -0.083500676 0.10905627 -0.06427711 -0.112711206
-0.14215612 -0.056328397 -0.07070656 -0.052716218 -0.025651092 0.016004765 0.023845414 0.08583657
-0.16402961 0.089624465 -0.005165268 -0.1314928 -0.028063657 0.08255535 -0.010928737 0.12639448
0.09328162 0.13911524 0.05925184 -0.12319384 0.06345897 0.050636582 0.043369487 -0.11136632
-0.08588872 0.045715768 -0.029037992 -0.07742073 0.06582469 -0.01969898 0.03516921 -0.13866717
0.023582803 0.15490872 0.04510817 0.052573152 -0.07637088 -0.06998459 0.024463953 -0.02229665
0.06788509 0.05715367 0.03335473 -0.05605445 0.014751692 -0.10209844 -0.03602551 -0.0042404234
0.020021496 -0.14384936 -0.028179374 0.10288298 -0.090514876 0.0184995 -0.06024098 -0.16491726
0.07293071 0.051172126 0.101333484 0.16175151 0.118804954 -0.01365662 -0.028792284 -0.113027096
0.1397196 -0.07332064 -0.01096518 -0.11537795 -0.018083071 0.01165993 -0.0011932414 0.0187786
-0.15701193 0.03485739 0.09231069 0.068966754 0.027342962 -0.105275206 0.05358755 0.02030316
0.13473251 -0.06809913 -0.0832174 0.048358995 0.14201784 -0.04005528 0.022171041 -0.083867095
0.012178958 -0.06317204 0.0056570354 0.0143632535 -0.07044363 -0.077201515 -0.07546505 0.13473973
0.07728445 0.13039446 -0.11434767 -0.041102946 0.0037384927 0.056463175 -0.075769775 -0.07827386

lstm.weight_hh_l1 f4 [256, 64]
00000000: acad 0e3d 4f06 063d f999 47bd 933a 84bc
00000010: 170a 02bd 106c be3d eb0a b93d 2d7f 913d
00000020: 0f77 bfbd d0d3 19bd e7d9 f7bc 13e1 f9bc
00000030: 0d4a a13d e22f 2dbd 69bb 913d 0561 bfbd
00000040: ac17 9bbc 7d70 b83d 475a 46bd bfd3 a1bd
00000050: ee7b 2b3d 2d54 893d 576b 133c 4af5 213d
00000060: 609b 46bc 3007 31bd cc6e e13b 9a2d 183e
00000070: fffc f8bd 3d30 dcbd 67d0 d0bd 303f 51bd
00000080: 9457 b5bd 99f4 ce3d 8edd b43c 6919 9a3d
00000090: 9dde cb3d c8f5 d9bb a672 4b3d 6cf1 973c
000000a0: bcb8 45be 2e55 42bd 9669 c2bd c8b4 51bd
000000b0: 9221 813d 3dae 4b3c 8ebb 723d 68f7 ba3d
000000c0: e824 e13d 4f68 743d a0ea dfbc 4def b0bd
000000d0: 6c26 c1bc bc98 113d 133d 01be b624 5fbd
000000e0: 14f8 40bc 2462 973b 5f63 69bd a3bf ec3d
000000f0: 1ceb ee3d 5692 dd3c 4c6f 2ebd 4ce3 0d3c
00000100: 52bd 13bc 0037 95bd a649 33bd d9ae e33d
00000110: 3390 a0bd 719f 533d b3cb 1dbd 34a4 903d
00000120: 5a4a 11bd 9fa0 a6bd fd9a 523d ab8f 07bd
00000130: 3fde 343d 2273 a83c a989 9e3d b8e0 ea3d
00000140: 782a 083e 4fea 0a3e a70c fabd 1912 d43d
00000150: 1ca0 83bd bca3 863d 02af fc3a ce3b aebc
00000160: 4de7 153d 47e5 6b3d 3d91 583d 8b2c a6bd
00000170: 4708 d33d 90f8 aabd ad43 ddbd 45fa 61bc
00000180: 2837 043e d4ef 47bd e9d3 b33c 1f8a 5c3d
00000190: fb7b b3bd c5e9 2b3e ffb7 a3bc 551b 94bd
000001a0: e202 acbc 5f88 f3bc cb9c d8bc a59d 393d
000001b0: babf 5c3d 5970 1d3d 9bfb 91bd 6f36 ab3d
000001c0: 0cd8 453b 08ec b2bd 2be9 fe3d 66ee c03d
000001d0: 9764 36bd af39 33bd 3a1c 0fbe 25df 283c
000001e0: fa92 0b3e 3d50 64bd 4d7d 04bc a26f a33d
000001f0: 1eb5 35bd f077 d63d e9d2 26bd 7f77 5e3d
00000200: e1d2 063e 5bc8 b4bd 0586 9e3d da85 473d
00000210: a766 5f3c 6c67 34bd 9ff1 62bd 741e 80bd
00000220: 9ffb c9bd 2264 c6bd 2aa5 a23c b262 5a3d
00000230: 0f4d 17bd 0552 d6bc 5797 943d 3f93 bb3d
00000240: e12b a9bd 2aa6 e73d 6127 10be bf61 babd
00000250: dda9 8ebd eaf2 e03d d23f 773b cd17 ac3d
00000260: 7bf5 82bc a960 0c3e 1940 f0bd 55d5 113e
00000270: a1f8 9e3d aba3 8e3d 2e48 e53d 421f be3c
00000280: 9879 633d 5c24 04be 789d 94bc 0bb3 063e
00000290: ca9e 923d ca5f 353e 2295 9c3d f808 be3d
000002a0: a22c 8fbd f8e0 f53c db18 3cbd 67fc b13d
000002b0: 810b 023e 47e7 77bd ffbb 94bc 70d0 a03d
000002c0: e074 df3d 0891 61bc b9c6 66bd 8002 64bc
000002d0: 8151 6e3d db05 bbbd c3ff 3fbe 50f5 ca3d
000002e0: b9be 593d fae6 5dbd e183 a03d 0a4d 82bd
000002f0: d3d9 a1bd f111 6f3d 10ce 893d 706f a03d
00000300: 213a 4a3d 94e2 ea3d 4fdf 973c d68e a0bd
00000310: 703d c9bb e4bc 8fbc e15f 13bd 1b19 dc3c
00000320: 567b a9bd b340 19bc 7fb9 d7bd c40e 9f3d
00000330: dfce f63d 98a7 e43d 77e4 d3bd db38 c13d
00000340: cc28 4abd 1b46 ed3c d5ac a13d 8263 ebbd
00000350: 9ce6 113c c3ad b3bd e40d 153d 8e6e 79ba
00000360: ebc1 8c3d 98c3 b13d 491b 87bc ccc0 b33d
00000370: 524a f0bc c4da ebbd db03 f8ba 1fb0 2e3d
00000380: 6e28 34bd f808 1b3d 6fc7 bf3d bc1c 5d3d
00000390: e2d1 9f3d a669 d23d 6f73 6fbd 5e47 1a3d
000003a0: 809e 543d bfca 9fbd 8936 96bd d2f8 1cbd
000003b0: 0a0e bbbd 49e0 82bd 455f 87bc b272 bebd
000003c0: 4c76 a9bd 5211 d33c b42f 893d a58e fc3d
000003d0: 9122 583b 42e3 04be fe1d 86bc a418 a13d
000003e0: b572 843d c9c4 e2bd 56a4 8e3d 0b23 023d
000003f0: f97c bd3d e0dc 83bd 3812 b0bd bc0d ea3d
0.034833595 0.03272086 -0.048730824 -0.016141212 -0.031747904 0.09297955 0.090352856 0.07104335
-0.093488805 -0.037555516 -0.030255271 -0.030502832 0.07875452 -0.042281993 0.07115824 -0.09344677
-0.018932186 0.090058304 -0.04842594 -0.079017155 0.041866235 0.067055084 0.00899776 0.039540567
-0.012122005 -0.043219745 0.006879663 0.14861146 -0.1215763 -0.10751388 -0.101959996 -0.05108565
-0.08854595 0.10105247 0.022078302 0.07524378 0.099545695 -0.006651614 0.049669884 0.018547736
-0.19308752 -0.047444515 -0.09492795 -0.051197797 0.06305231 0.012431678 0.059260897 0.0912922
0.109933674 0.05966979 -0.027333558 -0.08639393 -0.023577891 0.03554605 -0.12620954 -0.05447837
-0.011777896 0.0046198536 -0.056979533 0.11559989 0.11665937 0.027047317 -0.04258661 0.008660149
-0.009017305 -0.07285881 -0.04377141 0.11117334 -0.07840004 0.051665727 -0.03852434 0.07062569
-0.035471298 -0.08136105 0.05141734 -0.033095997 0.044157263 0.020562712 0.077411 0.11468643
0.1329745 0.13565944 -0.122094445 0.10355014 -0.06427023 0.065741986 0.0019278231 -0.021268751
0.03659754 0.057591703 0.052872885 -0.08113965 0.10304313 -0.08348191 -0.10803924 -0.013792579
0.12911665 -0.048812702 0.021951633 0.05384266 -0.08763882 0.16788395 -0.019985197 -0.07231776
-0.020997468 -0.029728113 -0.026441952 0.045316357 0.053893782 0.03843722 -0.07128068 0.08359992
0.0030188588 -0.08736426 0.12446817 0.09420471 -0.044529524 -0.043756183 -0.13975611 0.010307108
0.13630286 -0.055740584 -0.008086515 0.07980277 -0.04436218 0.10472095 -0.040728483 0.05431318
0.13166381 -0.08827277 0.07740406 0.048711635 0.013635314 -0.044043943 -0.05540621 -0.062558085
-0.09862446 -0.096870676 0.019854147 0.05331678 -0.036938723 -0.026162157 0.07255428 0.09158944
-0.08260322 0.1131099 -0.14077522 -0.09100675 -0.069659926 0.10983832 0.003772725 0.08402977
-0.015986195 0.13708748 -0.11730976 0.14241536 0.07762266 0.06964811 0.11195408 0.023208264
0.055535883 -0.12904495 -0.018141493 0.13154237 0.07159193 0.17712322 0.07645632 0.092790544
-0.06990935 0.0300145 -0.04592214 0.0869072 0.12699701 -0.060523298 -0.01815605 0.07852256
0.10910964 -0.013767488 -0.05634186 -0.013916612 0.058183197 -0.09131976 -0.18749909 0.09910071
0.053160403 -0.054175355 0.07837654 -0.0636235 -0.07902875 0.05836672 0.067287564 0.07833755
0.049371842 0.114689976 0.018539099 -0.07839744 -0.006141357 -0.017546125 -0.03598011 0.02686744
-0.082754776 -0.009353804 -0.105334274 0.07766488 0.12051176 0.111647785 -0.103463106 0.094346724
-0.049355313 0.028964093 0.07894293 -0.11493589 0.008905079 -0.08773377 0.0363902 -0.000951507
0.068729244 0.08679885 -0.016492503 0.087770075 -0.029332314 -0.115163356 -0.0018922047 0.04264843
-0.04398387 0.03785035 0.09364211 0.05398248 0.07803704 0.10274057 -0.058459695 0.037665717
0.05190897 -0.078023426 -0.073346205 -0.03832323 -0.09133537 -0.06390435 -0.01652492 -0.0929922
-0.082745165 0.025765095 0.06698552 0.12331895 0.0032979588 -0.12977317 -0.016371723 0.07866028
0.06467191 -0.1107269 0.06964938 0.0317717 0.09252352 -0.06438613 -0.08597225 0.11428401

lstm.bias_ih_l1 f4 [256]
00000000: 2ec0 f63d 8321 35bd 182c 883b 5eee 62bc
00000010: fa7e 34bd aedc d73d eba1 d3bc a8cf 98bd
00000020: 3b53 efbb 74cc 8ebd 0a6e 793d 7e21 46bd
00000030: 08d0 21bd d833 0dbe 7cbe 313e ca48 0c3c
00000040: f7d5 02bd b836 d53d db2d 4f3c 7120 58bc
00000050: cd65 0d3e da58 b63d d0cb d9bd d29e 9fbc
00000060: 7aa6 aabd 761b 143e ca35 a63d 67e3 8d3d
00000070: b334 bc3c b5ea a6bb 944f 763c e12f 8a3d
00000080: c072 433d 8705 cdbc 483f a9bc 280d 9a3c
00000090: 1c06 db3d ce57 043e 3c80 b0bd 519a 66bd
000000a0: e971 943d bb2d 54bd 13c2 edbc 36d9 e33d
000000b0: f3df 983e c20e a23d 7216 803d a71e 8ebd
000000c0: f4a2 a83d fa64 a93d a38c 2f3e 38e0 2b3e
000000d0: ecb1 1e3d 3381 1c3e 949a 52bd 4896 01bc
000000e0: 559f d03d 7e4a cebd 8d20 933c 0d76 c03b
000000f0: 1445 993d 243a c83d af0d 863d 2b1d d7bd
00000100: 28a2 013b 7f60 023e 9b3e d23c a1a6 84bc
00000110: e13c adbd 3de1 24bb 4f5b abbd 2291 07bc
00000120: abb2 853d 0346 c73d 130f 2cbc 629f 3dbd
00000130: 9c55 48bd cc70 943d 8fe2 04be a503 ed3d
00000140: e0a8 daba 8b2d f83c 0796 023e 842d 4cbb
00000150: 5358 4fbd 8ae1 043e 5995 6abd 5328 f43d
00000160: 9eec ed3d 1ace df3d 028f 9b3d bdfd c8bd
00000170: 164c 6fbd 985c 023e 5552 9f3b 9c7d 0dbc
00000180: a302 a8bd b26f 723d 80c9 e53d 8ae2 8abd
00000190: ae90 cdbd 7e7a cc3d 00bf d33d 2716 8c3c
000001a0: 454b 51bd 5020 e7bd 93f7 afbd daaf 093e
000001b0: 8360 90bd 0a77 5ebd 6295 4a3d d371 383d
000001c0: 157a 823c a4db 6a3c 70c3 9d3d 5ea5 9bbd
000001d0: bf7a cdbd 0792 f7bc 8348 d93d d7c7 f33d
000001e0: fc49 e6bd 0314 e4bd 8fd4 f13c 452a 82bd
000001f0: 5ad2 d93d 16cf 063e 0977 a73c 6107 f53d
00000200: 510c b73d 662a bf3d ec9b 013d 19cf b7bd
00000210: 0242 093e 09d5 f83d 3aad 093c 9130 af3d
00000220: 3318 53bd 5ffd 803d 1f99 d83d 3b83 043d
00000230: ee1a b7bd 033e 3d3c 6df2 e93c 13c8 0dbc
00000240: 6688 ae3d 8318 8e3d f16f b2bd aeac 8c3d
00000250: 3601 003e 7dbf 1ebd 9a1f d6bc 3bf1 2dbd
00000260: ac05 86bd ef15 723d 791f b5bd b888 5c3d
00000270: b1e4 f3bc c289 dbbd 7b79 5f3d 7eb5 503d
00000280: d902 a23d cdcd 79bd b701 8fbd e859 9b3d
00000290: c54b 00bd 02e3 2e3d cbe8 b63d 9737 cfbc
000002a0: e2f5 26be 0e22 a93d 0db3 da3d 775d 1cbc
000002b0: 6201 94bb ae38 cf3c d466 0cbd 9fea b0bd
000002c0: 87cf 073e 45fe dbbd 9b38 62bd 1c57 12bc
000002d0: 1ec4 a33d 7531 cbbd 64c1 58bd eb72 a5bd
000002e0: 8dcc 243c a375 da3d d954 243d 6b98 293d
000002f0: 625d c8bd 97b3 a13c 4965 623d 153b a83b
00000300: d47f b53c fb79 a23d 9043 ff3d 3761 9bbd
00000310: 112c 663d bb6a 3fbd aa13 5d3b cce3 c3bc
00000320: cb04 773d 7fd7 573c 29c8 e53d f49f 493c
00000330: 04d7 cf3d 45e4 00be a9a9 463e ae2d 5bbd
00000340: 60b3 fd3d ea93 263d e097 b53d f75c 713c
00000350: f541 f93c 3588 473c 3125 953c 8877 f63d
00000360: 7162 8fbc fce4 98bd 1f9c f03c 39f7 193e
00000370: b8fa c6bd eb59 073e a2cd 1c3e 415d 4dbd
00000380: d095 3e3d 9510 003e 7202 223c 28d6 b8bd
00000390: 37fc a73d 25d8 4f3d beb7 b63d 25fb 363c
000003a0: cf03 89bd 56d7 b9bd 69e8 b23c f193 f93d
000003b0: 0894 bd3d ce7a e73c 1890 2e3e f245 cb3d
000003c0: 2e31 94bd 0934 55bc c3d3 023d a6ff 433e
000003d0: c17b b83d 8ead a2bd c3ed f03c 89e6 91bd
000003e0: 409f 5d3d a7ff 8ebd f562 873d ab69 113e
000003f0: 69f8 bcbd 2ff0 1a3d 4528 9bbd c482 eebc
0.12048374 -0.044221412 0.004155647 -0.0138507765 -0.044066407 0.10540138 -0.025834044 -0.07461482
-0.007303623 -0.0697259 0.060895957 -0.048371784 -0.039505035 -0.13789308 0.1735782 0.008562276
-0.031942334 0.104108274 0.01264521 -0.013191328 0.13808365 0.08903666 -0.10634577 -0.019484911
-0.08332534 0.144636 0.08115728 0.06928139 0.022974348 -0.005093897 0.015033621 0.067474134
0.047716856 -0.02502705 -0.020660058 0.018805102 0.10694525 0.1292412 -0.08618209 -0.05629951
0.07248289 -0.051801424 -0.029023206 0.11125414 0.2985836 0.07912971 0.06254281 -0.0693944
0.08234206 0.08271213 0.17143492 0.16784751 0.0387439 0.1528366 -0.05141695 -0.007909365
0.1018664 -0.10072802 0.017959857 0.0058734477 0.07483879 0.097767144 0.06545579 -0.1050361
0.001978049 0.12732123 0.025664618 -0.016192736 -0.08458877 -0.0025158667 -0.08367025 -0.008274348
0.06528219 0.097301506 -0.010501641 -0.046294577 -0.04890977 0.07248077 -0.1297705 0.11572961
-0.0016682409 0.030295154 0.12752543 -0.003115506 -0.050621342 0.12976661 -0.057271335 0.11921754
0.11617397 0.10927983 0.07595636 -0.09814022 -0.05842217 0.12730634 0.0048621097 -0.008635905
-0.08203628 0.059188552 0.11220074 -0.0678149 -0.10037361 0.09984301 0.10339165 0.017100407
-0.051097173 -0.1128546 -0.08592143 0.13445988 -0.07049658 -0.054312743 0.04945887 0.045030426
0.015927354 0.014334593 0.07703292 -0.07599901 -0.100331776 -0.030220998 0.10609534 0.11903351
-0.1124458 -0.111366294 0.029520301 -0.063557185 0.106358245 0.13164935 0.020442503 0.11964298
0.08937896 0.09334259 0.03164284 -0.089750476 0.13404086 0.12150008 0.008403117 0.08554185
-0.05153675 0.06298327 0.105760805 0.032351714 -0.08940683 0.011550429 0.02855798 -0.008653658
0.0852211 0.06938269 -0.087127574 0.068688735 0.12500462 -0.038756836 -0.026138116 -0.042466383
-0.065440506 0.05910295 -0.088438936 0.053841323 -0.029772134 -0.107196346 0.054559212 0.050954334
0.079106994 -0.060987283 -0.06982749 0.07585508 -0.03132226 0.04269696 0.089311205 -0.025295062
-0.16304734 0.082584485 0.106786825 -0.009543768 -0.0045167664 0.025295582 -0.034277752 -0.086385004
0.13262759 -0.107418574 -0.055229764 -0.008931901 0.07996391 -0.099215426 -0.052918807 -0.080785595
0.010058534 0.10666969 0.04011998 0.041405123 -0.09783436 0.019738955 0.055272374 0.0051339963
0.02215568 0.07933422 0.124640584 -0.07586902 0.05619437 -0.046732645 0.0033733645 -0.023912333
0.060307305 0.013173937 0.11219818 0.012306202 0.10148433 -0.12587078 0.19400658 -0.05351036
0.12387729 0.040668406 0.088668585 0.014731637 0.030426959 0.01217847 0.01820621 0.120345175
-0.017502995 -0.0746555 0.02937132 0.15035714 -0.097157896 0.13217895 0.15312818 -0.050137762
0.04652959 0.12506326 0.009888278 -0.09025222 0.08202403 0.05074324 0.08921765 0.011168276
-0.066901796 -0.09074275 0.021839337 0.12186421 0.0925675 0.0282568 0.17047155 0.099254504
-0.07235943 -0.013012894 0.031940233 0.19140491 0.09007979 -0.07943259 0.029410249 -0.07124049
0.05410695 -0.069823556 0.066106714 0.14200465 -0.09227068 0.037826713 -0.0757604 -0.029115088

lstm.bias_hh_l1 f4 [256]
00000000: a515 25bd d983 0c3d c6a1 b2bd 8489 b23d
00000010: 06c1 ad3d 0870 d1bd 4302 c93d a0ca 8fbd
00000020: 0700 f13d 7a8d a13d 851d 373d 529f c2bc
00000030: 4193 933d 0645 cc3d 4b07 d0bc ac90 29bc
00000040: 33ea a6bd 8c30 973d 526a e93d f4d4 e43c
00000050: b10d c23c 3463 f73d 3690 9e3d bf2f 2c3b
00000060: 5c62 953d fb02 86bd 3a73 e43d c649 b1bc
00000070: b37f 8fbd 5c34 4abd 5c0e 283e 8b63 ef3d
00000080: 0cdc 653d e362 4bbc 2732 9cbd e02e 153d
00000090: 6487 eb3d c202 983d b2f9 c63d 0b14 df3d
000000a0: d99d 0d3b b883 d0bc 8673 b13d e677 b6bc
000000b0: a18e ea3d 80f7 0c3e ddfc bd3d 3f1a e53d
000000c0: fe9d 8fbc aa01 b5bd 2fff 2e3e f23a 1e3e
000000d0: b6d2 cd3c d48c 553d 9e9e 123d 06d9 043c
000000e0: 8de8 86bd 08cf eb3d e7e0 d33d 7e4c 703c
000000f0: 2050 3936 3670 8ebd 6c1e 203e dbfe 1a3d
00000100: 76b5 af3d 1556 e33c 18ab 3b3d 94e5 8e3d
00000110: b345 a1bd 7ddb bcbd 9f47 b03b 30eb 09bc
00000120: ec8b 10be bdfa a5bd 8d32 3a3d 5aeb 113c
00000130: 693f e63d 9023 ad3d f5fe 7a3c 1489 233d
00000140: 13e3 ab3d b748 bbbc 35fa d63d a222 a6bd
00000150: 37b8 ecbd 13cc cf3d 1ab5 f3bd aa93 3b3d
00000160: 1117 7a3d f205 cdbd 0e7a f4bd 3950 21bd
00000170: 3afa 99bd 9ec0 213c 26d0 89bd 923e b23d
00000180: 759f 94bd bc4d beb9 92d1 babc acbd ea3d
00000190: 0619 973d 7618 433d 536b 67bc 5ed2 003d
000001a0: dae4 a43d 8237 e4bd 9f8c 3a3d c3ea e23d
000001b0: 7f5b c53c f1c0 ac3b 5cf5 453d 03dc 4e3d
000001c0: a0be 89bc 717a e53d cf93 fb3d 6a7b 033c
000001d0: e1d7 fabc 2e52 cfbd 73dc b53c 2f51 87bc
000001e0: 58bf b4bd 562e 463d 9e5f e9bd 31b6 863d
000001f0: 6f58 f73d 529a ac3d e4db c0bd 65b5 cebd
00000200: 1e78 053e 0d9e d1bc 805c 09bd 5fb6 eabd
00000210: 66f1 97bd 2535 0ebd dba8 a0bd e568 973d
00000220: 7598 063d 2b64 acbd 59e9 48bd 2d9a b63c
00000230: 5f4b 3fbd 2305 da3c f0bf 913a 46a7 5cbd
00000240: c7aa 80bd 0925 0f3c e3e3 0cbe 8ccc a3bd
00000250: 557f 4fbd 9948 12bc 5f0c 1ebd a2de 8ebd
00000260: c5dc c53d 7085 d43d 77b9 90bd 66b9 283d
00000270: a143 cdbd 6bc2 263d 23e5 30bd 9db4 c8bd
00000280: ae17 f7bd 5516 a0bd 3f86 afbd 962a ec3d
00000290: 7f0f bf3d 55b6 cb3d febb 0e3d 4629 5a3d
000002a0: bfda 1a3d 9f04 4c3d 4700 7bbd 2fc2 9c3d
000002b0: 0aaa 683d 9aba e03d 718b a83c 15a0 8abd
000002c0: 63a5 cf3d 3941 c53d d5b5 183d 0bbb f33d
000002d0: d8f1 693d 545b 60ba 9e38 06be 8b89 adbd
000002e0: 8a47 e63d 27a3 813d a75c 14bc 653b 463b
000002f0: b4c1 06be 4951 083d 3476 a13d a300 b53d
00000300: 216c 94bd c4f4 e03c 7a63 86bd 3101 37bd
00000310: 30d2 ef3d c7b6 40bd 1631 dc3c eca2 9f3c
00000320: d15e 7e3d 51fc b8bd a787 a43d 88c5 143e
00000330: 0ccc e1bb 370c b43d 8336 2d3e 8a67 5bbb
00000340: 2ad9 c1bd c9f8 7e3d 5f17 5fbd 2df2 1dbd
00000350: e549 3d3e b382 80bd 7e6f b63a b432 ad3d
00000360: 156c 523d 7ddc a43c 774e c03d ba7c b9bc
00000370: df33 80bd edb7 ccbd 07dd 8d3c 0bd9 87bc
00000380: 0d3c b7bd 93f3 df3d 4c07 ea3c 385a 0dbd
00000390: 394a bcbd 9435 e53d 318c c0bc dd41 863d
000003a0: 1341 993b a764 933c 7b53 ef3b 2002 383d
000003b0: a6d2 573e 4c92 953c 20cb 32bd daab 223e
000003c0: 337a 2e3d a415 80bd 0ce3 0d3e dca2 3c3e
000003d0: 2d52 863d 8a52 3e3d 1052 8abd 7c8d 14bd
000003e0: 3bf7 ee3b cca2 c93d 8ab0 033d 8d8b 55bc
000003f0: 0f78 82bd 425d 1a3e 5e9f 893d bae9 ca3d
-0.040303845 0.034305427 -0.08722262 0.08717635 0.08484082 -0.102264464 0.098148845 -0.070210695
0.11767583 0.07888313 0.044705886 -0.02375761 0.07205821 0.09974103 -0.025394103 -0.010349434
-0.08150139 0.073823065 0.11397232 0.027933575 0.02368817 0.12079468 0.0774235 0.0026273576
0.07294151 -0.06543537 0.1115479 -0.021641623 -0.070067786 -0.04936634 0.16411728 0.11688908
0.056118056 -0.012413713 -0.07626753 0.036421657 0.11500433 0.07422401 0.09715594 0.10892495
0.0021608977 -0.025453433 0.086646125 -0.022273969 0.114529856 0.13766289 0.092767455 0.11186647
-0.017531391 -0.08838208 0.17089532 0.15452173 0.025124889 0.052136257 0.0357958 0.008108383
-0.06587324 0.115140975 0.10345631 0.014666675 2.7613787e-06 -0.06954996 0.15636605 0.037840705
0.08579533 0.027751008 0.045817465 0.06977382 -0.07874622 -0.092215516 0.0053796316 -0.0084178895
-0.14115876 -0.08104465 0.045458365 0.00890621 0.11242563 0.08454049 0.015319576 0.03992565
0.0839292 -0.022861822 0.10496942 -0.081120744 -0.11558574 0.10146346 -0.11899777 0.04579512
0.061057154 -0.100108996 -0.119373426 -0.039383147 -0.0751843 0.009872584 -0.06729154 0.087033406
-0.072569765 -0.0003629754 -0.022805009 0.11461958 0.0737782 0.04763075 -0.014124709 0.03145062
0.080514625 -0.111434 0.045544263 0.110799335 0.02409148 0.005272024 0.048329696 0.05050279
-0.01681453 0.112049945 0.122840516 0.00802503 -0.030620517 -0.101230964 0.022199845 -0.016518204
-0.088255584 0.048384033 -0.11395191 0.06577719 0.12077414 0.08427872 -0.09416941 -0.10093192
0.13034102 -0.02558806 -0.03353548 -0.11460566 -0.0741909 -0.03471865 -0.078447066 0.07393054
0.032860238 -0.08417543 -0.049050663 0.022290314 -0.04670274 0.026613778 0.0011119824 -0.053870462
-0.06282573 0.008736857 -0.13758807 -0.079979986 -0.050658543 -0.008928441 -0.038586017 -0.069760576
0.09661249 0.10377014 -0.070666246 0.041192435 -0.10022665 0.040712755 -0.04318727 -0.09800074
-0.120650634 -0.078167595 -0.08570527 0.1153156 0.093291275 0.099468865 0.034847252 0.053262018
0.03780627 0.049809095 -0.06127956 0.07654225 0.056802787 0.109730914 0.020574303 -0.067688145
0.10138967 0.09631581 0.037282784 0.1190091 0.057115406 -0.0008558531 -0.13107535 -0.084735
0.11244114 0.06329947 -0.009055293 0.0030247804 -0.1315983 0.033280645 0.078838736 0.08838012
-0.072471865 0.027460463 -0.065619424 -0.04467887 0.11710012 -0.04704931 0.026878875 0.019486867
0.062102143 -0.090325005 0.08033686 0.14528477 -0.0068907794 0.08791392 0.16915326 -0.0033478462
-0.09465249 0.06224898 -0.054465648 -0.038561035 0.1848522 -0.06274929 0.0013918725 0.084569365
0.051372606 0.020124668 0.09389966 -0.022642482 -0.062598936 -0.099960186 0.017317308 -0.016582986
-0.08947001 0.1093513 0.028567933 -0.034509867 -0.09193844 0.1119186 -0.023504348 0.06555531
0.004676947 0.01799233 0.007303653 0.0449239 0.2107645 0.018258236 -0.043650746 0.15885869
0.042597007 -0.062541276 0.13856143 0.18421501 0.065586425 0.046465434 -0.067539334 -0.036267743
0.0072926558 0.09845504 0.032150783 -0.01303376 -0.063705556 0.15074638 0.0671985 0.09907861
