data/models/uniANDbtc_lstm_1h.pth (torch, 215909 bytes, 10 tensors)

lstm.weight_ih_l0 f4 [256, 10]
-0.082691595 -0.05903693 -0.12774606 -0.14048998 0.0669386 0.051916007 -0.058957458 0.011069103
-0.03179855 0.008430345 -0.1508069 -0.14952534 0.039981797 -0.17191571 -0.014177394 -0.06768214
-0.2106448 0.0010937725 -0.13869865 0.06368911 0.08987903 -0.013687216 -0.12987828 0.007456907
-0.25824034 -0.27760842 0.20354007 0.2992804 -0.0031745129 -0.40466183 0.097727336 -0.025902875
0.14145128 0.16071887 -0.19494696 -0.12372381 -0.10118228 0.013117717 0.03565635 -0.38796887
0.00630453 0.09811642 -0.0075046825 -0.07847064 -0.31674573 -0.1571111 0.013948718 0.08251194
-0.022003084 -0.3427102 -0.23410451 -0.17555887 -0.26925397 -0.29012498 0.348094 0.34226155
0.1527127 0.05458154 -0.11074338 -0.26736546 -0.041575864 0.021722378 -0.081423834 -0.06977481
-0.10426445 -0.08092239 0.10357212 0.17216475 -0.18982331 -0.30218098 0.1362761 -0.00012889333
0.12593189 -0.10207607 0.030893218 -0.010635014 -0.07358466 0.06468555 0.016468305 -0.17288205
-0.15229644 -0.1780541 0.005244875 -0.14007209 0.17943954 0.103960454 0.3141355 0.10089226
-0.09231362 -0.35552877 -0.048716422 -0.050677188 -0.21704033 -0.14360568 -0.28821498 -0.19788371
-0.12055696 -0.012084683 -0.11346955 -0.0029540753 -0.09702099 -0.030109612 0.052564982 0.03885831
-0.1282445 -0.029828459 -0.10628007 -0.109876335 -0.11978574 0.087053575 0.006528236 0.07839589
0.18166989 0.17394504 -0.035036113 -0.05771926 0.083259985 0.18134837 0.01359172 -0.02928184
0.16279407 0.034492224 0.1725192 0.10692257 -0.13751478 -0.26790223 -0.07028229 0.06378099
0.18785548 -0.104196794 0.07502187 0.2194982 0.12534276 0.076719664 0.024148528 -0.19797729
0.05171176 -0.08189082 0.14992817 -0.23223451 0.12935837 0.13144366 0.07317126 0.10638367
-0.11617626 0.006793544 -0.031685464 -0.0029043616 0.06549451 -0.15210915 0.16553277 0.046945967
0.08867726 -0.024870532 -0.015183356 -0.07185716 0.06911368 -0.01710687 -0.05345426 -0.1940409
-0.19740805 0.030736234 -0.019170977 -0.15525867 -0.16983366 -0.29080802 0.06695009 -0.010821218
-0.08936973 -0.24535848 0.07369548 0.11478767 -0.0115619665 -0.042236336 -0.35220098 -0.26621372
-0.15117116 -0.2067881 0.03236695 -0.22018962 -0.15817504 -0.06483771 -0.11819501 -0.03359004
-0.2496315 -0.33415353 0.23777878 0.20731087 -0.082015865 -0.17181921 -0.11285185 -0.14183302
-0.0072104037 -0.0066125174 -0.20947094 -0.016216263 0.1350087 -0.029297447 0.04311078 -0.14182685
0.07144921 -0.057050504 0.057252675 -0.094753 -0.5287774 -0.58906144 0.033429764 0.24822548
0.116685316 0.14373253 -0.054714784 0.16349992 -0.04072299 0.08736415 -0.21132262 -0.10784283
0.008774398 0.07689826 0.15927444 -0.11538086 0.045775685 -0.011602582 0.06427425 0.03682398
-0.08476328 -0.16266575 0.34632263 0.32150117 0.04904957 0.04828061 -0.07348486 0.0899358
0.103237845 0.026226893 -0.25037685 -0.30691805 -0.060097165 0.0285163 -0.05854072 -0.20718986
-0.09843562 -0.031353846 -0.11348761 -0.0718779 -0.28526166 -0.3677512 0.014957681 0.09624386
-0.07124674 0.031152954 0.028607346 0.16414228 0.06258537 0.0273216 -0.100668095 0.09541736
00000000: 365a a9bd b5d0 71bd ddcf 02be 9bdc 0fbe
00000010: 1b17 893d e1a5 543d 607d 71bd 2f5b 353c
00000020: 323f 02bd 6e1f 0a3c 206d 1abe 2c1d 19be
00000030: f4c3 233d ac0a 30be 4d48 68bc ef9c 8abd
00000040: 45b3 57be ea5c 8f3a 0507 0ebe 706f 823d
00000050: 7f12 b83d 5840 60bc d0fe 04be 1259 f43b
00000060: 1438 84be b122 8ebe cf6c 503e 483b 993e
00000070: 7d0b 50bb d62f cfbe 4525 c83d 4432 d4bc
00000080: 9bd8 103e 7d93 243e 2da0 47be e962 fdbd
00000090: a838 cfbd b1eb 563c 650c 123d dba3 c6be
000000a0: 3b96 ce3b 43f1 c83d d7e9 f5bb 37b5 a0bd
000000b0: 7f2c a2be bbe1 20be 2a89 643c 05fc a83d
000000c0: d03f b4bc b677 afbe 18b9 6fbe b4c5 33be
000000d0: a8db 89be 438b 94be 6039 b23e e83c af3e
000000e0: b860 1c3e e590 5f3d 6dcd e2bd 20e4 88be
000000f0: 744b 2abd 21f3 b13c 8ac1 a6bd 18e6 8ebd
00000100: 9a88 d5bd a3ba a5bd 9f1d d43d f54b 303e
00000110: 0b61 42be 77b7 9abe f68b 0b3e 8a27 07b9
00000120: 4af4 003e 420d d1bd c613 fd3c 7b3e 2ebc
00000130: 8eb3 96bd dc79 843d 8ae8 863c fe07 31be
00000140: 99f3 1bbe d053 36be 33dd ab3b 0f6f 0fbe
00000150: 00bf 373e 38e9 d43d 5ed6 a03e 9aa0 ce3d
00000160: ec0e bdbd de07 b6be df8a 47bd e292 4fbd
00000170: d23f 5ebe 5e0d 13be ea90 93be 07a2 4abe
00000180: 91e6 f6bd d6fe 45bc b962 e8bd 2999 41bb
00000190: f1b2 c6bd 6fa8 f6bc 614e 573d e429 1f3d
000001a0: 8752 03be d05a f4bc 5ea9 d9bd d806 e1bd
000001b0: 3a52 f5bd 2549 b23d d0ea d53b 068e a03d
000001c0: ac07 3a3e a61e 323e 0782 0fbd 086b 6cbd
000001d0: 3684 aa3d 63b3 393e ceaf 5e3c 78e0 efbc
000001e0: 7db3 263e b847 0d3d e0a8 303e 38fa da3d
000001f0: add0 0cbe 7b2a 89be 29f0 8fbd 9c9f 823d
00000200: 305d 403e 2165 d5bd 11a5 993d 23c4 603e
00000210: da59 003e 331f 9d3d 22d3 c53c 8fba 4abe
00000220: b6cf 533d 60b6 a7bd c586 193e e2ce 6dbe
00000230: 8576 043e 2b99 063e d0da 953d aedf d93d
00000240: d2ed edbd 619c de3b 9ec8 01bd 1a57 3ebb
00000250: fc21 863d 80c2 1bbe 6c81 293e 6a4a 403d
00000260: 6c9c b53d 49bd cbbc 9cc3 78bc d929 93bd
00000270: 798b 8d3d b523 8cbc dbf2 5abd a8b2 46be
00000280: 5625 4abe 8eca fb3c 740c 9dbc 21fc 1ebe
00000290: e0e8 2dbe cae4 94be 211d 893d 7a4b 31bc
000002a0: 7a07 b7bd 413f 7bbe a8ed 963d cc15 eb3d
000002b0: 676e 3dbc 0200 2dbd b053 b4be 2a4d 88be
000002c0: 9dcc 1abe 42c0 53be 3593 043d 6379 61be
000002d0: a3f8 21be a2c9 84bd 3a10 f2bd b695 09bd
000002e0: 669f 7fbe 2c16 abbe 487c 733e 4d49 543e
000002f0: eff7 a7bd 60f1 2fbe df1e e7bd ad3c 11be
00000300: 4045 ecbb d1ad d8bb 8d7f 56be f8d7 84bc
00000310: b83f 0a3e 3301 f0bc ee94 303d 0f3b 11be
00000320: f753 923d caad 69bd c881 6a3d dc0d c2bd
00000330: f55d 07bf bbcc 16bf a6ed 083d d22e 7e3e
00000340: b6f8 ee3d 9f2e 133e 9c1c 60bd 866c 273e
00000350: 26cd 26bd faeb b23d f564 58be b4dc dcbd
00000360: 7ec2 0f3c d67c 9d3d d718 233e cd4c ecbd
00000370: 497f 3b3d c218 3ebc 38a2 833d bed4 163d
00000380: 5f98 adbd da91 26be 3351 b13e cd9b a43e
00000390: 34e8 483d e4c1 453d 3b7f 96bd 4330 b83d
000003a0: 5d6e d33d c8d9 d63c 6531 80be 5d24 9dbe
000003b0: 7228 76bd 049b e93c 65c8 6fbd 9429 54be
000003c0: 9d98 c9bd e46c 00bd 316c e8bd b834 93bd
000003d0: d10d 92be e349 bcbe 1011 753c 801b c53d
000003e0: d0e9 91bd 7b34 ff3c f459 ea3c ea14 283e
000003f0: c22c 803d 8cd1 df3c 132b cebd 2d6a c33d

lstm.weight_hh_l0 f4 [256, 64]
-0.03204585 0.09542273 -0.071285844 -0.08320536 0.0671968 0.033489633 -0.0014781358 0.10902234
0.04982729 -0.07464895 -0.010682862 0.22939216 -0.037178468 0.006684384 -0.011553367 -0.14876787
0.069373205 -0.06469204 0.040383786 0.030080803 -0.0210233 -0.0064516063 -0.069509685 0.048692513
0.110348776 0.0038037875 -0.053383447 -0.12929301 0.062011 -0.11114028 0.13062252 0.11543213
-0.040302258 -0.041184153 0.07607827 -0.03101396 0.06821516 0.0030917644 0.29051158 0.08180172
0.02662627 -0.028119931 0.1593641 -0.0827545 0.07008409 -0.03764188 0.097313926 -0.038620964
-0.041872367 -0.07084898 0.15357369 0.10676658 0.17263809 0.061996255 0.14042251 0.04686451
0.17285518 -0.06690877 0.19364014 -0.0070584887 -0.09032454 -0.13839374 -0.06339284 0.15821587
-0.048774812 0.01764892 0.11379936 -0.09028186 0.024531137 -0.0127008585 -0.04348848 -0.025721077
-0.044581793 0.05627981 0.02201389 0.14502946 -0.05342194 0.15256661 -0.06995935 -0.028386593
-0.11190106 -0.09874633 -0.010362697 -0.090589896 0.06622814 0.021241257 -0.05217365 0.037549
0.11135348 -0.16067763 0.13929191 -0.0739865 -0.17267554 -0.0006572623 -0.13303125 0.040320992
0.10836162 -0.09504889 0.085123934 0.12597404 -0.11160154 -0.15236698 -0.105252676 -0.065878294
0.1026786 -0.23970285 0.21311942 0.13242523 -0.05310316 0.18950063 -0.08814349 -0.09656128
-0.17702775 0.06478822 -0.0051363287 -0.07531455 0.06737558 0.07115603 -0.11752401 -0.06415695
-0.15130727 -0.14739153 0.11932199 0.016500507 0.1685624 0.009137544 0.022072433 -0.08970139
-0.08278349 -0.06275423 0.070528805 -0.060029525 -0.09180966 -0.14979386 0.03575283 -0.12871549
0.084846295 0.064121075 0.0636982 0.048143856 -0.09505048 -0.104149275 0.09190568 0.077998415
0.047389276 0.07262375 -0.00097447436 -0.1445585 0.016600337 -0.07290732 -0.013450566 0.02349032
0.013971701 0.12146565 -0.12761453 0.046385266 0.065118656 -0.10453446 -0.13084973 0.042939417
-0.024435466 0.11114605 -0.0009992509 0.014342601 0.08058242 -0.054396227 0.018483415 0.09421591
-0.07364922 0.020915255 -0.05802036 -0.053756345 0.1297778 0.05789951 0.16878879 0.05532506
-0.09144727 -0.10422301 0.013701608 -0.08180785 -0.053689413 -0.06568359 0.0665194 0.09073177
0.17239557 0.0866556 0.10480868 0.11892348 0.0016056022 -0.12535343 -0.023332324 0.026573924
-0.20308457 -0.10553325 0.13056739 0.092547536 -0.044935044 0.1406232 0.18878368 0.08857874
0.08394455 0.049383953 -0.0055251117 -0.111990444 0.08709071 -0.1843513 0.057785735 0.15183182
0.09745489 -0.050429583 -0.09451179 -0.01708629 -0.03771262 -0.08195859 0.04768633 0.13710195
-0.055489875 -0.07687463 0.011029466 0.010503215 -0.03923435 0.11466353 -0.011108074 0.05179388
0.034299765 -0.09797585 0.12776929 0.029788535 0.073463455 -0.08470835 -0.013559094 0.07805299
0.08231768 -0.09030007 -0.15298559 0.07459112 0.059979867 -0.03171392 -0.03200289 0.11337715
0.08928539 -0.0074421642 0.019525073 0.008647901 -0.12608333 -0.11283366 0.122242115 -0.0126953935
-0.0832461 -0.12150882 -0.10055681 -0.027592624 0.018268343 -0.028241444 0.043024383 -0.15221302
00000000: 8242 03bd fe6c c33d 50fe 91bd 9267 aabd
00000010: 7a9e 893d 6d2c 093d 02be c1ba 1b47 df3d
00000020: b317 4c3d 8ce1 98bd 2c07 2fbc c7e5 6a3e
00000030: 7348 18bd ad08 db3b 554a 3dbc 9b56 18be
00000040: 8a13 8e3d 437d 84bd 7869 253d 046c f63c
00000050: 0e39 acbc ff67 d3bb 185b 8ebd cd71 473d
00000060: 8afe e13d f748 793b 9aa8 5abd 6365 04be
00000070: 3fff 7d3d 849d e3bd e9c1 053e ae67 ec3d
00000080: fb13 25bd b7b0 28bd edce 9b3d fd10 febc
00000090: 64b4 8b3d 339f 4a3b efbd 943e a987 a73d
000000a0: 561f da3c c55b e6bc 5830 233e 317b a9bd
000000b0: 3f88 8f3d 5f2e 1abd 864c c73d 0431 1ebd
000000c0: 5c82 2bbd 4519 91bd 6c42 1d3e 70a8 da3d
000000d0: 0ac8 303e c9ef 7d3d ebca 0f3e 00f5 3f3d
000000e0: f300 313e 7707 89bd 9a49 463e e54a e7bb
000000f0: 13fc b8bd 17b7 0dbe 1bd4 81bd 5703 223e
00000100: 19c8 47bd 7894 903c a40f e93d b2e5 b8bd
00000110: 86f5 c83c 4317 50bc fa20 32bd 02b5 d2bc
00000120: 669b 36bd a885 663d 7956 b43c 9a82 143e
00000130: f7d0 5abd 6c3a 1c3e d946 8fbd 008b e8bc
00000140: 622c e5bd 843b cabd 4dc8 29bc 3287 b9bd
00000150: 9ea2 873d 2502 ae3c 0ab4 55bd fbcc 193d
00000160: 4b0d e43d ad88 24be 8aa2 0e3e 3c86 97bd
00000170: dbd1 30be 204c 2cba 5839 08be a027 253d
00000180: b2ec dd3d fea8 c2bd 7555 ae3d 57ff 003e
00000190: 598f e4bd 1706 1cbe b78e d7bd 33eb 86bd
000001a0: 2849 d23d aa74 75be fa3b 5a3e 7b9a 073e
000001b0: b382 59bd 740c 423e 9384 b4bd ecc1 c5bd
000001c0: c346 35be b0af 843d a64e a8bb 843e 9abd
000001d0: 35fc 893d 41ba 913d 6eb0 f0bd b864 83bd
000001e0: 4bf0 1abe ceed 16be 165f f43d 122c 873c
000001f0: 9f9b 2c3e a3b5 153c 3fd1 b43c 5db5 b7bd
00000200: 648a a9bd 4a85 80bd 6871 903d 85e1 75bd
00000210: b406 bcbd 9063 19be 8f71 123d fecd 03be
00000220: e5c3 ad3d e951 833d 3474 823d 7e32 453d
00000230: d3a9 c2bd 374c d5bd 0c39 bc3d a2bd 9f3d
00000240: 421b 423d c3bb 943d de73 7fba 2507 14be
00000250: 6efd 873c 6f50 95bd c35f 5cbc c66e c03c
00000260: 90e9 643c fcc2 f83d 62ad 02be 7afe 3d3d
00000270: ee5c 853d 2a16 d6bd 79fd 05be 3ee1 2f3d
00000280: e32c c8bc 8aa0 e33d 4cf9 82ba 3bfd 6a3c
00000290: 6508 a53d 94ce 5ebd 886a 973c 45f4 c03d
000002a0: 67d5 96bd 7856 ab3c c2a6 6dbd 9d2f 5cbd
000002b0: 79e4 043e 0928 6d3d f8d6 2c3e 889c 623d
000002c0: b548 bbbd e072 d5bd b67c 603c e08a a7bd
000002d0: 6ee9 5bbd 1e85 86bd 533b 883d 94d1 b93d
000002e0: 7788 303e 7e78 b13d efa5 d63d 278e f33d
000002f0: 1273 d23a a65c 00be 6e23 bfbc 8fb1 d93c
00000300: 67f5 4fbe d121 d8bd 75b3 053e 9089 bd3d
00000310: cf0d 38bd 87ff 0f3e 8250 413e c568 b53d
00000320: 1feb ab3d d446 4a3d ff0b b5bb 3f5b e5bd
00000330: 9d5c b23d 96c6 3cbe bcb0 6c3d cd79 1b3e
00000340: 6e96 c73d 408f 4ebd 668f c1bd 8cf8 8bbc
00000350: 8c78 1abd e8d9 a7bd be52 433d 7464 0c3e
00000360: 5a49 63bd 7270 9dbd efb4 343c ad15 2c3c
00000370: 33b4 20bd b6d4 ea3d a4fe 35bc d225 543d
00000380: e97d 0c3d 90a7 c8bd f4d5 023e 1607 f43c
00000390: 0274 963d 927b adbd f626 5ebc 3fda 9f3d
000003a0: 2c96 a83d 3eef b8bd 41a8 1cbe 3bc3 983d
000003b0: 73ad 753d 75e6 01bd 7615 03bd 4732 e83d
000003c0: 42db b63d 66dd f3bb 0cf3 9f3c edaf 0d3c
000003d0: fd1b 01be 5515 e7bd 135a fa3d 5700 50bc
000003e0: ee7c aabd 9ed9 f8bd bbf0 cdbd ed09 e2bc
000003f0: 7ea7 953c 9a5a e7bc 563a 303d bbdd 1bbe

lstm.bias_ih_l0 f4 [256]
-0.1628476 -0.03506717 -0.07574619 -0.1206544 -0.12437309 -0.1039351 -0.03380911 0.06487267
0.0028741143 0.044017762 0.13476647 0.05697637 -0.088646814 -0.086953565 0.075740874 -0.09576588
-0.13583805 -0.12134835 -0.11708098 0.078158304 -0.030850118 0.13845293 -0.12938748 0.06818911
-0.12972455 -0.12681411 0.047639564 -0.08922682 0.06776492 -0.020237833 0.028580897 -0.1305659
-0.03449528 0.10081477 -0.019158402 0.0606913 -0.08131087 -0.16963734 0.040904414 0.028462943
-0.12333854 -0.109871395 -0.0759045 0.010386255 0.08605658 0.05148717 -0.02240239 -0.1343165
0.014873062 -0.049157795 -0.11262933 -0.050269578 -0.14392856 0.060050942 0.1116396 0.022501407
0.031582534 0.090643175 0.046002503 0.08932079 -0.08896867 0.05582797 -0.099315815 -0.10480602
0.0105808005 0.006845768 -0.031175878 -0.046026908 -0.024523951 0.0037707326 0.04357162 0.08141801
-0.059405345 0.030234067 -0.01496819 0.016234463 -0.054837216 -0.037492737 -0.10731733 -0.054429322
-0.116204016 -0.056462288 0.048267815 0.1159845 -0.058071174 -0.01438192 0.10151378 -0.073195264
-0.15502661 -0.108369686 0.047303144 -0.00014739865 0.15243113 -0.12864861 0.065674886 -0.12270014
0.081454255 0.073606595 0.16410598 -0.0405332 -0.03036672 -0.06763727 0.012648814 0.04410961
0.057881523 0.035352916 0.002695689 0.09620041 0.09779425 0.04883895 -0.12979567 0.107726514
0.09451272 -0.083884604 -0.032124665 -0.04084292 0.069601886 0.10023387 -0.0077407467 -0.022645686
-0.027357016 -0.107826546 -0.06843732 0.24945788 -0.046648886 -0.12471254 -0.021027708 0.024831546
-0.078463584 -0.0022029364 0.100452684 -0.014364895 -0.011570618 -0.1255898 -0.09883958 -0.066838935
0.05654341 -0.00664924 -0.102520086 0.04815804 0.09424992 -0.06961191 0.07187226 0.028726563
-0.06911035 -0.050633498 -0.06895609 -0.012247203 -0.047061954 -0.05420025 -0.06542624 -0.0073824553
-0.06979539 0.0017545845 -0.024723046 0.026791802 0.050200786 -0.077813156 0.06945025 0.075389184
-0.06352258 -0.11009308 -0.021558149 0.069675975 0.09530913 -0.011003936 -0.011213196 0.013428536
-0.074606225 -0.03688462 0.08247104 0.053752616 -0.012953928 0.0035280264 0.06380403 -0.029103264
0.10023651 0.058837216 0.024968132 0.10952297 0.052732762 -0.023131521 0.068535656 0.025522081
0.08007588 -0.14439121 -0.013097449 -0.10009757 0.12534054 -0.06826991 0.05637898 -0.043913502
-0.03450573 0.026989844 -0.04580631 -0.07554977 0.046839967 0.09022389 -0.011013434 -0.0033449985
0.07935398 0.009654651 -0.07447392 -0.098724306 0.1227014 0.013364382 0.009687577 -0.035001192
-0.13436842 -0.1807887 0.040516593 0.030275626 0.13045508 -0.053562675 -0.05537866 -0.10383736
0.02257499 0.046763465 -0.13944577 -0.11725938 0.11633691 -0.11279536 0.10659716 -0.07824737
0.14542536 -0.073756985 0.059880245 0.057679534 0.10570197 -0.06537488 0.05916022 0.05291075
-0.028132886 -0.027001524 0.09882931 -0.08623616 0.06559808 -0.13327831 0.14722323 0.0047383374
-0.07121918 0.0146798 -0.062173184 -0.07503203 -0.050345838 -0.15675549 -0.12443097 0.07248463
-0.009165102 -0.13124149 -0.006694171 0.17796643 0.13405916 0.08581211 -0.005219335 0.14646836
00000000: 85c1 26be 98a2 0fbd d220 9bbd a719 f7bd
00000010: 52b7 febd eddb d4bd 6c7b 0abd f6db 843d
00000020: a35b 3c3b f84b 343d 3900 0a3e 0e60 693d
00000030: 768c b5bd b614 b2bd 081e 9b3d e720 c4bd
00000040: 2119 0bbe 7c85 f8bd 27c8 efbd 7611 a03d
00000050: 63b9 fcbc 9bc6 0d3e 277e 04be bba6 8b3d
00000060: 83d6 04be 8fdb 01be b421 433d 8dbc b6bd
00000070: 56c8 8a3d d0c9 a5bc 7c22 ea3c 11b3 05be
00000080: ec4a 0dbd f977 ce3d 15f2 9cbc 7197 783d
00000090: 5086 a6bd 69b5 2dbe 638b 273d 1e2b e93c
000000a0: eb98 fcbd 4104 e1bd d273 9bbd 1c2b 2a3c
000000b0: 6f3e b03d 36e4 523d 3885 b7bc 448a 09be
000000c0: 25ae 733c af59 49bd 35aa e6bd 79e7 4dbd
000000d0: 0262 13be faf7 753d 4da3 e43d df54 b83c
000000e0: b05c 013d 21a3 b93d 1f6d 3c3d d1ed b63d
000000f0: 3535 b6bd dfab 643d 1766 cbbd 8aa4 d6bd
00000100: 185b 2d3c 7752 e03b 8e64 ffbc b686 3cbd
00000110: 74e6 c8bc 651e 773b 2878 323d 7cbe a63d
00000120: 0553 73bd 6fad f73c 243d 75bc 23fe 843c
00000130: fd9c 60bd fc91 19bd 30c9 dbbd 48f1 5ebd
00000140: 5ffc edbd 0045 67bd 79b4 453d 4889 ed3d
00000150: 0adc 6dbd 25a2 6bbc 75e6 cf3d 66e7 95bd
00000160: 4cbf 1ebe edf0 ddbd f1c0 413d 068f 1ab9
00000170: e816 1c3e 76bc 03be 8e80 863d 364a fbbd
00000180: 7dd1 a63d 0ebf 963d 660b 283e 2406 26bd
00000190: a1c3 f8bc 6985 8abd f93c 4f3c 47ac 343d
000001a0: 2d15 6d3d 38ce 103d 28aa 303b b804 c53d
000001b0: 5a48 c83d 5a0b 483d 28e9 04be b89f dc3d
000001c0: e38f c13d b1cb abbd 2795 03bd e84a 27bd
000001d0: 6f8b 8e3d 6a47 cd3d 17a6 fdbb 7283 b9bc
000001e0: d21b e0bc 2ad4 dcbd de28 8cbd e371 7f3e
000001f0: e712 3fbd 4a69 ffbd 4d42 acbc 876b cb3c
00000200: 84b1 a0bd 245f 10bb 23ba cd3d bd5a 6bbc
00000210: b092 3dbc 9d9a 00be 686c cabd dae2 88bd
00000220: 109a 673d dee1 d9bb 0df6 d1bd 5d41 453d
00000230: 1a06 c13d b090 8ebd c331 933d f853 eb3c
00000240: ba89 8dbd 1265 4fbd da38 8dbd 7ea8 48bc
00000250: 09c4 40bd 1501 5ebd 31fe 85bd 86e8 f1bb
00000260: e3f0 8ebd 16fa e53a fc87 cabc 7b7a db3c
00000270: 579f 4d3d 815c 9fbd ef3b 8e3d a565 9a3d
00000280: 2018 82bd 7b78 e1bd b79a b0bc 47b2 8e3d
00000290: 6f31 c33d da49 34bc 8eb7 37bc 5d03 5c3c
000002a0: 26cb 98bd 5414 17bd 94e6 a83d b42b 5c3d
000002b0: b63c 54bc 7636 673b b0ab 823d f869 eebc
000002c0: cd48 cd3d 4bff 703d f889 cc3c 944d e03d
000002d0: 4ffe 573d 517e bdbc 6c5c 8c3d af13 d13c
000002e0: d3fe a33d 4adb 13be af96 56bc f4ff ccbd
000002f0: 4559 003e 18d1 8bbd a5ed 663d a5de 33bd
00000300: e155 0dbd ce19 dd3c 669f 3bbd d6b9 9abd
00000310: 44db 3f3d 4ec7 b83d b171 34bc c337 5bbb
00000320: 5784 a23d 8b2e 1e3c c885 98bd f82f cabd
00000330: df4a fb3d 48f6 5a3c a5b8 1e3c 695d 0fbd
00000340: e097 09be ac20 39be baf4 253d 9704 f83c
00000350: 0496 053e 8964 5bbd bcd4 62bd afa8 d4bd
00000360: 2fef b83c 0c8b 3f3d dfca 0ebe b025 f0bd
00000370: 0c42 ee3d 4101 e7bd 9d4f da3d 2840 a0bd
00000380: 63ea 143e e70d 97bd fd44 753d 6041 6c3d
00000390: 467a d83d 44e3 85bd fd51 723d f1b8 583d
000003a0: f076 e6bc 4d32 ddbc 0567 ca3d 959c b0bd
000003b0: 4958 863d 1c7a 08be b0c1 163e 0e44 9b3b
000003c0: 5ddb 91bd 8b83 703c 4fa9 7ebd 65aa 99bd
000003d0: 7037 4ebd 8384 20be aad5 febd d272 943d
000003e0: 3929 16bc 2b64 06be c75a dbbb d53c 363e
000003f0: ce46 093e 42be af3d f506 abbb cdfb 153e

lstm.bias_hh_l0 f4 [256]
-0.085942194 0.044136737 -0.10755807 -0.0035729103 -0.028860059 0.11932334 0.032422982 -0.00526985
0.08369665 0.12496069 -0.05381836 0.13990031 -0.01101021 -0.06771279 -0.081229866 0.0777264
-0.14060722 -0.19843425 0.01731077 -0.07297346 -0.037838984 -0.015549637 -0.12311596 0.056441218
-0.016712358 -0.05371309 -0.08271127 -0.0013805067 0.05127461 0.06671606 0.045637302 -0.12623729
0.029759062 0.018603789 1.3464916e-05 0.020480992 -0.047444984 -0.11478143 0.08325904 0.06912204
-0.07132474 -0.09363968 0.11785125 -0.03248011 -0.03422789 0.041443884 0.012115828 -0.0067347316
0.06792113 -0.005502065 -0.011463871 -0.11823222 -0.0055137607 -0.039225623 -0.03676499 -0.03851983
0.026087895 -0.120389335 -0.08265995 0.16423823 0.12410245 -0.13424405 0.109950505 -0.07359344
0.0134035945 -0.08862752 0.0690215 -0.033517044 -0.13232957 0.025832685 -0.113248914 0.07327828
-0.07407086 0.0808123 -0.007095235 0.10680212 0.01282642 -0.069949284 0.044754386 -0.14656784
0.11916245 -0.10171421 -0.0070088296 0.08344364 -0.08625942 0.0027891812 0.06500443 0.06668733
-0.15771157 -0.08543981 -0.065747805 0.09357011 0.037458163 -0.053462308 -0.042434238 -0.1391967
0.0028992118 -0.11165123 0.2034154 0.0638887 0.101013735 0.030044788 0.16266063 -0.012756128
-0.04160026 0.030283611 0.0637057 0.116552785 -0.07587767 0.13423939 -0.021044131 -0.10528524
0.10698374 -0.0971907 0.10590543 -0.03732375 -0.050957706 0.00557639 0.10275638 -0.07433168
0.12881877 0.09182273 0.09338987 0.33786035 -0.007139321 0.041648287 -0.10486512 0.018200489
0.070051745 -0.06013153 -0.06188811 0.1069027 0.027117886 -0.025353407 0.10771303 0.01073573
0.012157806 0.013393216 0.09865191 -0.106509745 -0.049485404 0.07124035 0.06433786 0.09612585
-0.056868978 -0.0060454477 0.09798786 0.12765858 0.03905272 0.027171643 0.005457314 0.0085120695
-0.022699825 0.07361142 -0.01557805 -0.021764984 0.11771591 -0.059852645 -0.022941286 0.047484796
0.01340045 0.11853438 0.071669415 -0.10086522 -0.017130472 0.005652282 0.11585517 -0.105885796
0.080756485 -0.06887334 0.0015969077 0.04770437 -0.023658147 -0.037818957 -0.097687155 -0.021724207
-0.130886 -0.018151535 0.013064974 -0.07165027 0.08012725 0.054860085 -0.04811125 0.037137352
-0.014624262 0.08532004 0.012494328 0.028439937 0.021991387 -0.07454726 0.037106078 0.10416189
-0.042546485 -0.07818585 -0.02792326 0.06717175 -0.034622245 -0.026183413 -0.15834676 -0.053100783
0.055156764 -0.07915248 0.029091977 -0.09166278 -0.05051612 0.09619269 -0.09511298 -0.06540451
-0.037175704 -0.0160087 0.017063713 0.059025988 0.06413207 0.14065911 -0.043269683 -0.026906293
-0.08174607 -0.08691891 -0.09384985 -0.007779696 0.030291714 0.05276045 0.074905075 -0.05584299
-0.04022967 0.023662956 -0.058189455 -0.029056538 0.05263969 0.0700535 0.12775393 0.06522857
-0.12838665 -0.018858453 -0.0024846978 0.076292835 -0.04474423 -0.039669406 -0.024943853 -0.114220984
-0.030373855 0.08456635 0.108368896 0.014284065 0.07791598 -0.123333566 0.01095305 -0.035886735
0.060814038 -0.002819837 0.0035907575 0.21459116 -0.0387492 0.079316035 0.13847762 0.1013893
00000000: 7602 b0bd b9c8 343d 6847 dcbd 7d27 6abb
00000010: ee6b ecbc cc5f f43d f6cd 043d b5ae acbb
00000020: 2669 ab3d 64eb ff3d a470 5cbd 0742 0f3e
00000030: 2b64 34bc 01ad 8abd d85b a6bd 052f 9f3d
00000040: 57fb 0fbe 5932 4bbe 51cf 8d3c 1c73 95bd
00000050: 0dfd 1abd e8c3 7ebc 3824 fcbd e82e 673d
00000060: 5be8 88bc 4202 5cbd 8764 a9bd 1ef2 b4ba
00000070: 5305 523d 6ea2 883d 2eee 3a3d 5944 01be
00000080: 47c9 f33c f966 983c 60e7 6137 c1c7 a73c
00000090: ac55 42bd 8712 ebbd b783 aa3d db8f 8d3d
000000a0: b512 92bd 29c6 bfbd ff5b f13d dd09 05bd
000000b0: 8b32 0cbd 10c1 293d 7781 463c 06af dcbb
000000c0: 3c1a 8b3d ab4a b4bb f6d2 3bbc bc23 f2bd
000000d0: c7ac b4bb 0cab 20bd e396 16bd f8c6 1dbd
000000e0: 48b6 d53c af8e f6bd 9f49 a9bd 112e 283e
000000f0: 6d29 fe3d 4677 09be bb2d e13d 28b8 96bd
00000100: c09a 5b3c 5882 b5bd 255b 8d3d 2b49 09bd
00000110: 6781 07be 119f d33c 0cef e7bd ec12 963d
00000120: 77b2 97bd eb80 a53d 257f e8bb 12bb da3d
00000130: e825 523c 9241 8fbd 6050 373d e115 16be
00000140: 710b f43d 8a4f d0bd 53aa e5bb 80e4 aa3d
00000150: c7a8 b0bd b2ca 363b 0b21 853d 5e93 883d
00000160: 247f 21be 11fb aebd c9a6 86bd b0a1 bf3d
00000170: bb6d 193d 4bfb 5abd 86cf 2dbd 9489 0ebe
00000180: b400 3e3b 66a9 e4bd 204c 503e 14d8 823d
00000190: 4ae0 ce3d 7d20 f63c 8290 263e 14ff 50bc
000001a0: 0965 2abd 5615 f83c 2278 823d 3ab3 ee3d
000001b0: c065 9bbd 0d76 093e be64 acbc ca9f d7bd
000001c0: 4b1a db3d eb0b c7bd f2e4 d83d cae0 18bd
000001d0: 07b9 50bd 26ba b63b f071 d23d 353b 98bd
000001e0: 11e9 033e 8e0d bc3d 3043 bf3d 08fc ac3e
000001f0: f7f0 e9bb 6597 2a3d 86c3 d6bd 3119 953c
00000200: 4a77 8f3d 7b4c 76bd 637e 7dbd ceef da3d
00000210: 5426 de3c f3b1 cfbc a698 dc3d eae4 2f3c
00000220: 8931 473c 386f 5b3c 030a ca3d c821 dabd
00000230: 35b1 4abd 76e6 913d 91c3 833d a1dd c43d
00000240: 72ef 68bd e418 c6bb dcad c83d eeb8 023e
00000250: bff5 1f3d 1197 de3c 45d3 b23b 3576 0b3c
00000260: fcf4 b9bc 96c1 963d 143b 7fbc 7b4c b2bc
00000270: 0a15 f13d 0c28 75bd 5def bbbc 6b7f 423d
00000280: 908d 5b3c 27c2 f23d 6ac7 923d 6d92 cebd
00000290: 3455 8cbc c736 b93b 7a45 ed3d a7da d8bd
000002a0: a863 a53d 770d 8dbd 554f d13a a865 433d
000002b0: bbce c1bc 0de8 1abd 3410 c8bd f7f6 b1bc
000002c0: fb06 06be 87b2 94bc 790e 563c 60bd 92bd
000002d0: c119 a43d f8b4 603d 4d10 45bd 561d 183d
000002e0: 9a9a 6fbc 46bc ae3d 03b5 4c3c dffa e83c
000002f0: 4827 b43c 3cac 98bd 8bfc 173d d452 d53d
00000300: 3945 2ebd e71f a0bd 52bf e4bc 5891 893d
00000310: 0ed0 0dbd 997e d6bc a725 22be 3580 59bd
00000320: 0fec 613d b21a a2bd 4c52 ee3c b2b9 bbbd
00000330: fee9 4ebd ac00 c53d 98ca c2bd cdf2 85bd
00000340: 8d45 18bd ad24 83bc 33c9 8b3c 3cc5 713d
00000350: ad57 833d f108 103e 8d3b 31bd 966a dcbc
00000360: 7c6a a7bd 8b02 b2bd 5a34 c0bd d2ec febb
00000370: 5426 f83c 571b 583d d567 993d 9ebb 64bd
00000380: dec7 24bd d1d8 c13c 1158 6ebd fa07 eebc
00000390: b79c 573d 3678 8f3d edd1 023e 8e96 853d
000003a0: ca77 03be 0b7d 9abc 50d6 22bb 6b3f 9c3d
000003b0: ba45 37bd 637c 22bd 0d57 ccbc b1ec e9bd
000003c0: 97d2 f8bc 1f31 ad3d 83f0 dd3d b607 6a3c
000003d0: 6a92 9f3d 4f96 fcbd 6c74 333c f8fd 12bd
000003e0: 2418 793d 04cd 38bb ea52 6b3b c9bd 5b3e
000003f0: 7bb7 1ebd 7270 a23d 14cd 0d3e 31a5 cf3d

lstm.weight_ih_l1 f4 [256, 64]
-0.05003223 -0.12140289 -0.08513293 0.007024358 -0.12356676 0.033198703 -0.018018449 0.019549133
-0.007193636 -0.17649598 -0.16163178 0.0027372167 -0.11380584 -0.12122405 0.11645985 0.004027628
0.06956025 0.21701434 0.111505926 -0.123297215 -0.013262646 -0.18620075 -0.16985618 -0.111094445
0.051761203 0.077482305 -0.087843515 0.1453383 0.008542873 -0.060633626 -0.03678649 0.042851377
-0.05082099 0.057771947 -0.24343036 0.011023653 0.013550961 0.07667702 0.08554605 -0.15628769
-0.23054749 0.15266857 0.0014378156 0.10991738 -0.010158608 -0.0034037495 0.0015095966 0.18988492
-0.008199082 -0.21468097 -0.006947625 -0.079622746 -0.14802529 0.15601829 0.02639164 0.050543405
0.07940207 0.14507926 -0.049406543 0.21618621 -0.09539641 0.10918978 0.072943404 0.12812133
-0.09729185 -0.19337808 0.043944392 -0.031183323 -0.047203578 0.3407868 0.15637138 -0.12805226
-0.12837555 -0.15837832 0.0027418796 -0.17275767 0.015336719 0.0049667014 0.06380057 0.053033505
-0.128628 0.09418169 -0.025017485 0.1702196 -0.0078867655 -0.045261145 -0.0355192 0.09870002
0.01780215 0.10144488 -0.08454901 -0.07799461 0.014573183 -0.091398865 0.006566825 -0.020614492
0.12233734 -0.12138529 -0.1472455 -0.17274146 0.14068489 0.10683395 0.1420353 0.005088565
-0.03329486 0.087432265 -0.15914488 -0.008234071 0.017316485 -0.058538765 -0.0111677535 -0.06843083
0.3446468 0.120693766 0.1317714 0.08799907 0.09479989 -0.0688553 -0.030796928 0.018684646
0.08263937 -0.019338684 0.23734696 0.018312145 -0.185843 -0.012573849 0.07991453 -0.00037365296
0.12873046 -0.024205752 0.0137470355 -0.05556962 0.029954003 0.18879674 -0.04435839 -0.086349376
-0.035249773 -0.1532359 0.002243428 -0.06347513 -0.010748059 -0.25179622 -0.038563777 0.08949732
0.0047459984 0.023284754 -0.13557836 0.021717839 -0.15503639 -0.18647811 -0.04970458 0.012017505
-0.07042014 0.00487384 0.08693892 0.009220287 0.06552184 0.08285862 0.055702962 0.091589294
-0.14511794 0.013142306 0.0038830463 -0.08306895 0.113243364 0.0053856634 0.2922078 -0.048162967
-0.09482736 0.15731873 -0.22137795 0.039953895 0.16715902 0.0712138 -0.013341329 0.099158876
0.19767302 -0.16924436 -0.11783647 0.14746526 -0.077970855 0.03227693 -0.048526958 -0.011218784
0.05606857 0.09846263 0.007144436 0.08158939 0.031568043 0.057462864 -0.04683441 0.06663924
0.13067842 -0.069634475 0.018791927 -0.050007585 0.029254192 0.13251904 0.10985819 0.012401871
-0.15240675 -0.047366414 -0.09428594 -0.13275045 -0.13919714 -0.03421862 0.004289197 0.113136075
0.08781287 0.017714404 0.0024368225 -0.032904387 0.009989943 -0.09601857 -0.044498246 -0.062632695
0.106496245 0.07891954 -0.0123376725 0.044389643 0.20530628 0.05617458 -0.04345483 0.08426495
0.06142123 -0.07256913 0.05452519 -0.16061169 -0.13135709 -0.007521229 0.08383821 -0.12090649
-0.26731148 0.0958008 -0.26827413 0.08359676 0.10148837 -0.0125691155 0.08473809 0.2041849
0.2403556 -0.13423371 -0.008464991 0.0867164 -0.20345463 -0.11042115 0.02822425 0.0035766729
0.09094891 0.006987411 -0.07416792 0.087969154 -0.13404478 0.055948954 0.09838641 -0.014220878
00000000: 98ee 4cbd 14a2 f8bd 2c5a aebd 962c e63b
00000010: 9210 fdbd 5dfb 073d 6d9b 93bc 8125 a03c
00000020: 98b8 ebbb 5dbb 34be cd82 25be e062 333b
00000030: 0913 e9bd 5144 f8bd 8082 ee3d 31fa 833b
00000040: 9b75 8e3d 0239 5e3e 385d e43d 4083 fcbd
00000050: 924b 59bc 69ab 3ebe c7ee 2dbe 7c85 e3bd
00000060: 8e03 543d 0baf 9e3d 4de7 b3bd 90d3 143e
00000070: 68f7 0b3c f75a 78bd 6ead 16bd ed84 2f3d
00000080: ac29 50bd 47a2 6c3d cf45 79be 8d9c 343c
00000090: da04 5e3c d708 9d3d c432 af3d e109 20be
000000a0: a414 6cbe 2655 1c3e 1675 bc3a 5d1c e13d
000000b0: 4a70 26bc 7111 5fbb a8dd c53a 3171 423e
000000c0: 7155 06bc 54d5 5bbe e7a8 e3bb 4011 a3bd
000000d0: f193 17be 42c3 1f3e 4833 d83c 9a06 4f3d
000000e0: 8d9d a23d a88f 143e 845e 4abd eb5f 5d3e
000000f0: 315f c3bd e49e df3d 5a63 953d 3d32 033e
00000100: f340 c7bd e704 46be 09ff 333d 2b74 ffbc
00000110: 8a58 41bd 9c7b ae3e d21f 203e 2220 03be
00000120: e174 03be ed2d 22be 1bb1 333b 63e7 30be
00000130: dd46 7b3c b6bf a23b e0a9 823d a939 593d
00000140: 0fb7 03be 54e2 c03d 78f1 ccbc 0c4e 2e3e
00000150: 7e37 01bc c063 39bd 957c 11bd 3c23 ca3d
00000160: d1d5 913c 55c2 cf3d 0828 adbd a3bb 9fbd
00000170: 5cc4 6e3c 542f bbbd 852e d73b b9df a8bc
00000180: 008c fa3d da98 f8bd 86c7 16be 23e3 30be
00000190: b30f 103e c2cb da3d b471 113e fabd a63b
000001a0: 3160 08bd b00f b33d e0f6 22be 32e8 06bc
000001b0: 4ddb 8d3c 58c6 6fbd f4f8 36bc 7725 8cbd
000001c0: 8c75 b03e 4b2e f73d 15ef 063e db38 b43d
000001d0: 7226 c23d 0204 8dbd d749 fcbc 8b10 993c
000001e0: d43e a93d 296c 9ebc 150b 733e 5a03 963c
000001f0: a14d 3ebe 8c02 4ebc 3baa a33d dae6 c3b9
00000200: ebd1 033e 244b c6bc 3f3b 613c f89c 63bd
00000210: 1962 f53c ef53 413e 25b1 35bd f1d7 b0bd
00000220: 1162 10bd dfe9 1cbe 7a06 133b 40ff 81bd
00000230: a018 30bc 6feb 80be 0df5 1dbd 5f4a b73d
00000240: 5284 9b3b abbf be3c 0ed5 0abe 9ce9 b13c
00000250: dcc1 1ebe 1ef4 3ebe 0897 4bbd 12e5 443c
00000260: 6f38 90bd bcb4 9f3b 080d b23d b010 173c
00000270: 5030 863d c8b1 a93d ca28 643d 2b93 bb3d
00000280: cc99 14be d452 573c b57a 7e3b 0e20 aabd
00000290: 23ec e73d 387a b03b 439c 953e 8846 45bd
000002a0: d934 c2bd 2918 213e e7b0 62be b2a6 233d
000002b0: bc2b 2b3e 8ad8 913d 9795 5abc cf13 cb3d
000002c0: cc6a 4a3e 654e 2dbe 3f54 f1bd 2201 173e
000002d0: 2faf 9fbd d034 043d 34c4 46bd fece 37bc
000002e0: 28a8 653d c6a6 c93d df1b ea3b 5718 a73d
000002f0: 7e4d 013d 2e5e 6b3d 70d5 3fbd 277a 883d
00000300: 90d0 053e 859c 8ebd 87f1 993c c1d4 4cbd
00000310: 7da6 ef3c 12b3 073e 55fd e03d 3831 4b3c
00000320: 8410 1cbe 4903 42bd fd18 c1bd bcef 07be
00000330: b289 0ebe d328 0cbd 648c 8c3b e3b3 e73d
00000340: 3cd7 b33d cc1d 913c 19b3 1f3b c0c6 06bd
00000350: dcac 233c 62a5 c4bd cb43 36bd 9245 80bd
00000360: b41a da3d 91a0 a13d f323 4abc ead1 353d
00000370: cf3b 523e 5117 663d b1fd 31bd 1a93 ac3d
00000380: d494 7b3d 209f 94bd ce55 5f3d 6477 24be
00000390: 7982 06be a474 f6bb 5eb3 ab3d d29d f7bd
000003a0: 0ddd 88be 3633 c43d 3a5b 89be c734 ab3d
000003b0: 22d9 cf3d b1ee 4dbc 2a8b ad3d d915 513e
000003c0: c71f 763e 9074 09be bfb0 0abc 5e98 b13d
000003d0: 6956 50be 7c24 e2bd 8b36 e73c 9d66 6a3b
000003e0: 6c43 ba3d a7f6 e43b 5ae5 97bd 2c29 b43d
000003f0: 0943 09be bb2a 653d d07e c93d affe 68bc

lstm.weight_hh_l1 f4 [256, 64]
-0.13876845 0.09709494 0.14544085 0.11642499 0.047154322 -0.115357555 -0.23451515 0.087803945
0.040866707 -0.115353465 -0.0883009 -0.080641516 -0.16148566 -0.090184465 0.1129569 0.023011712
-0.13386616 -0.23191729 -0.13537467 -0.054285116 0.038274787 0.011096716 0.057644747 0.0062432634
0.05991604 -0.012421157 0.06080123 -0.07647432 -0.06562813 0.06603375 -0.06362131 0.043342832
-0.06634774 -0.102263436 -0.09145746 0.023762837 -0.0669921 0.008074326 -0.091879345 -0.08364922
-0.031686436 -0.13306513 -0.056631725 0.077888 0.012077402 0.030785706 -0.09040589 -0.10417766
-0.1087235 -0.18322422 0.060422353 -0.07746472 0.1469614 0.07709532 -0.1459159 -0.052743454
0.12777428 0.15790433 0.02162354 -0.10451117 -0.14062212 -0.053558685 -0.10133412 -0.023801833
0.116795875 -0.10295129 0.06838691 -0.121979624 -0.010557453 0.033527557 0.012203077 -0.14657833
-0.066805825 0.11232396 0.07448481 0.038383394 -0.11109978 -0.07290406 0.081559375 0.03139217
0.1447843 0.2183584 0.022954699 -0.06128573 0.016532611 0.12836586 -0.020674862 -0.054967742
0.079375 0.07642099 -0.1349637 -0.006682319 0.09324514 -0.028895019 -0.034141313 0.0581722
-0.07083706 0.078415565 0.11045694 -0.005605321 0.09509258 -0.084092565 -0.07533037 0.023634294
0.041928772 -0.041086104 -0.021477744 -0.028561534 -0.119106404 0.00841087 -0.020597342 -0.033783007
0.11241557 0.0063166395 -0.09269475 -0.043253396 0.09740866 -0.030580685 -0.07821734 0.06562967
-0.09072617 0.09484022 0.047655433 -0.11537526 0.036384948 -0.06735225 -0.030896308 0.1098714
-0.030711755 0.07137033 -0.02653538 -0.033916194 0.14306149 0.015013486 0.04679843 -0.121100724
0.0265918 -0.054246496 -0.10913152 0.0029252404 0.10057447 -0.1259958 -0.008805414 -0.085515805
-0.007977193 -0.12849778 0.108954325 0.03900227 -0.09037346 -0.04005476 -0.024337292 0.020695027
0.10753612 -0.043794338 -0.004130058 0.019090967 0.06698286 -0.13511199 -0.014164584 0.11918574
-0.055516355 -0.08841602 -0.020122992 0.070617475 -0.037836123 -0.09104486 0.02320614 0.043459907
0.08050798 -0.016350705 -0.0065451735 -0.12414956 -0.011812528 0.13640536 -0.09129834 -0.08370878
-0.01402835 -0.014275423 0.018001817 0.13796164 0.116367504 -0.049617443 -0.009699098 0.0037507964
0.0744779 0.067769356 0.036286302 -0.04794077 0.05881024 0.06844887 -0.15116884 0.017121429
0.032173518 0.008315716 -0.045240857 0.12350691 0.06810409 0.06782215 0.07268948 -0.044961106
0.081210725 -0.055668335 0.0025625054 0.015556396 -0.066231266 0.005026805 0.09860336 0.09351264
0.09767717 -0.16390729 -0.013218546 -0.012433299 0.055464726 0.0014470373 0.04104879 -0.015172897
0.14770384 0.11891704 -0.07335652 0.0845173 -0.07339401 -0.060665246 0.04648717 0.033848856
-0.056976333 -0.15473899 -0.11143174 0.042607117 -0.012521033 0.078078374 -0.05200464 -0.004742708
0.048086032 -0.007133863 0.12683481 0.14612943 -0.054122176 -0.04768007 0.06645649 -0.040126354
-0.034405544 0.12059414 0.041128572 0.004466872 0.073972784 -0.043913282 -0.075835116 -0.045485698
0.0058448543 -0.0885888 0.012115705 0.016639937 0.053524926 0.13854538 0.013497569 -0.04048094
00000000: 5119 0ebe b6d9 c63d 72ee 143e 3a70 ee3d
00000010: e424 413d 9540 ecbd bd24 70be 8ed2 b33d
00000020: d963 273d 703e ecbd 1ad7 b4bd 6127 a5bd
00000030: 7f5c 25be a2b2 b8bd f255 e73d 0f83 bc3c
00000040: 3614 09be ba7b 6dbe a89f 0abe 125a 5ebd
00000050: 06c6 1c3d 00cf 353c e61c 6c3d 4a94 cc3b
00000060: 866a 753d 1c82 4bbc b60a 793d 919e 9cbd
00000070: 0b68 86bd b43c 873d e44b 82bd 4188 313d
00000080: 53e1 87bd 7e6f d1bd 0c4e bbbd 48aa c23c
00000090: 2733 89bd 2e4a 043c 3d2b bcbd 4850 abbd
000000a0: a3c9 01bd 3a42 08be abf6 67bd be83 9f3d
000000b0: 4ce0 453c 4e32 fc3c b926 b9bd 195b d5bd
000000c0: 6daa debd 219f 3bbe 6e7d 773d d3a5 9ebd
000000d0: 0d7d 163e 27e4 9d3d fa6a 15be 8509 58bd
000000e0: 43d7 023e acb1 213e da23 b13c f409 d6bd
000000f0: 3fff 0fbe 5a60 5bbd 4388 cfbd 10fc c2bc
00000100: ad32 ef3d 20d8 d2bd 700e 8c3d 74d0 f9bd
00000110: 2bf9 2cbc 3154 093d 6aef 473c a118 16be
00000120: 7ed1 88bd 1b0a e63d 7e8b 983d e837 1d3d
00000130: 4888 e3bd b94e 95bd 9a08 a73d 1395 003d
00000140: 5642 143e 5899 5f3e 7e0b bc3c bf06 7bbd
00000150: 666f 873c 5772 033e 545e a9bc db25 61bd
00000160: 5c8f a23d 9c82 9c3d ed33 0abe 5bf7 dabb
00000170: 4ff7 be3d 3fb5 ecbc c3d7 0bbd f945 6e3d
00000180: 0513 91bd 5798 a03d 4037 e23d d7ac b7bb
00000190: e6bf c23d b938 acbd cf46 9abd b59c c13c
000001a0: 81bd 2b3d e749 28bd 18f2 afbc e1f9 e9bc
000001b0: 0fee f3bd bfcd 093c c2bb a8bc 0d60 0abd
000001c0: 223a e63d d0fb ce3b bfd6 bdbd 792a 31bd
000001d0: 317e c73d 5884 fabc 6a30 a0bd d968 863d
000001e0: a4ce b9bd 973b c23d 5832 433d dd49 ecbd
000001f0: 6208 153d faef 89bd 411a fdbc 4204 e13d
00000200: 3897 fbbc 9c2a 923d ba60 d9bc b5eb 0abd
00000210: b67e 123e 20fb 753c b6af 3f3d a803 f8bd
00000220: 0cd7 d93c 9331 5ebd 5980 dfbd 64b5 3f3b
00000230: fdf9 cd3d 0b05 01be 9544 10bc e922 afbd
00000240: c6b2 02bc ec94 03be 7223 df3d d8c0 1f3d
00000250: b815 b9bd 7610 24bd 005f c7bc 9e88 a93c
00000260: e63b dc3d b161 33bd 7055 87bb a964 9c3c
00000270: 4f2e 893d cc5a 0abe 9212 68bc a717 f43d
00000280: 1e65 63bd 7513 b5bd f9d8 a4bc e59f 903d
00000290: 0dfa 1abd ba75 babd ce1a be3c 0403 323d
000002a0: 5ee1 a43d eaf1 85bc e578 d6bb 2042 febd
000002b0: 5589 41bc d9ad 0b3e a0fa babd 826f abbd
000002c0: 2ad7 65bc 77e3 69bc 8c78 933c d145 0d3e
000002d0: 1652 ee3d a93b 4bbd f7e8 1ebc eccf 753b
000002e0: df87 983d a9ca 8a3d f2a0 143d 8a5d 44bd
000002f0: 02e3 703d ec2e 8c3d 01cc 1abe 3d42 8c3c
00000300: 61c8 033d a43e 083c 7a4e 39bd 31f1 fc3d
00000310: 287a 8b3d 57e6 8a3d 39de 943d 2329 38bd
00000320: cf51 a63d 7b04 64bd b5ef 273b 41e0 7e3c
00000330: 42a4 87bd e6b7 a43b 8ff0 c93d 8e83 bf3d
00000340: f80a c83d 50d7 27be 9a92 58bc 09b5 4bbc
00000350: fb2e 633d 84aa bd3a c722 283d be97 78bc
00000360: ad3f 173e c78a f33d f13b 96bd 6817 ad3d
00000370: 994f 96bd 1f7c 78bd 5569 3e3d 19a5 0a3d
00000380: 0460 69bd e673 1ebe 5336 e4bd cd84 2e3d
00000390: 0525 4dbc 8ee7 9f3d d102 55bd b868 9bbb
000003a0: dcf5 443d 2ec3 e9bb fce0 013e f4a2 153e
000003b0: 37af 5dbd 2d4c 43bd 571a 883d 885b 24bd
000003c0: d4ec 0cbd 0ffa f63d 6f76 283d d75e 923b
000003d0: 0b7f 973d 6ade 33bd 714f 9bbd 364f 3abd
000003e0: 3186 bf3b 0b6e b5bd f380 463c 7a50 883c
000003f0: f43c 5b3d d7de 0d3e e824 5d3c 58cf 25bd

lstm.bias_ih_l1 f4 [256]
0.13238847 -0.08524324 0.12769859 0.038642988 -0.0040830183 0.12092134 -0.16103946 -0.029587561
-0.12914759 -0.13380295 -0.070080034 0.16111943 -0.14491388 0.103071995 -0.0219006 0.036080252
-0.07179376 0.06439546 0.069234125 0.113303 -0.15488577 -0.011048493 0.069054976 -0.018700652
-0.084752336 0.0011163561 0.037708536 0.113725565 0.07116662 -0.07862674 -0.16879594 0.108282015
0.0017312957 -0.19051334 -0.12513597 -0.083772086 -0.13484688 -0.032057453 0.11428384 0.0028318525
-0.119108886 0.05107957 -0.10932846 -0.07146876 -0.06898918 0.08872414 0.12360093 0.0405278
-0.10332024 0.050001208 0.011551874 0.07485625 -0.09714041 -0.00736621 -0.23332469 0.05644523
-0.08951617 0.0130408555 0.06671088 -0.018116925 0.025636895 -0.12681021 -0.098932184 0.04949442
0.14517005 -0.12593664 0.08842731 -0.05402312 -0.09372933 0.045316476 0.061367754 -0.0028696596
0.009414275 -0.026367122 -0.08842239 -0.04921003 -0.0063556633 -0.07508934 0.017786698 0.104283586
0.085191324 -0.027123338 0.048071828 0.10236917 -0.17692842 0.16240272 0.028078048 0.12179108
-0.010976257 0.013408741 0.049207486 0.1367963 -0.08446044 0.0046573626 -0.0065683364 0.028900534
0.15174033 -0.017956393 -0.017118117 -0.047766663 -0.17252226 -0.08980292 -0.030710716 0.1724005
-0.15352614 0.09624166 -0.19266586 0.099516176 -0.11490379 0.06197955 -0.07468112 0.1047452
-0.0043180706 0.009158384 -0.114527196 0.040932808 -0.008861072 0.069396675 -0.1680087 -0.13664445
0.0035775097 -0.12777099 -0.07527588 -0.105866164 0.06510808 -0.0634274 -0.010757452 0.014477266
-0.10178693 0.07201905 0.10964688 -0.048511796 -0.026284302 -0.08155497 0.03652628 0.07919091
-0.02493842 0.09253363 -0.013326971 0.052075036 -0.048716914 -0.075138554 -0.008042463 0.11547243
0.051026694 0.0045057796 0.063053615 -0.040602557 0.098159924 -0.061877564 -0.062369052 0.16488476
0.10232202 0.09373219 -0.14174585 0.019839367 -0.031933762 0.07412558 0.07289219 -0.0067222617
-0.1084113 -0.10735091 0.06914956 0.08810308 0.05627742 0.139574 -0.13173349 0.0940676
-0.0072368137 -0.044005416 -0.04105785 -0.15996915 0.023769379 0.0031770729 0.14070578 -0.14284341
-0.08237438 -0.04530593 -0.09348851 0.117834434 0.121288456 0.09040678 -0.032879878 -0.059854545
0.15792835 0.12834106 -0.13687326 -0.097615354 -0.037227813 -0.053968724 0.03773256 0.16703346
-0.01211843 -0.0034961526 0.0019081361 -0.07313578 -0.043193698 -0.030302858 -0.096961565 0.11315755
-0.1374272 -0.05133135 -0.090572104 -0.03599901 -0.09199619 0.09932734 0.109339334 -0.056391817
0.14215176 -0.07994613 0.046109542 0.07465611 -0.011821102 0.12851755 0.10749181 -0.08464217
0.004996203 0.0673088 -0.01536129 0.058576383 -0.090108894 0.076053396 -0.1392232 -0.017296722
0.12180912 -0.10583752 -0.15774709 0.026005913 -0.063751675 -0.01471771 -0.094642185 0.080951735
-0.101848625 0.038671743 -0.021264369 -0.019043827 0.020294957 -0.046937905 0.0540192 -0.022883607
-0.059926536 0.08768773 -0.12250973 0.08737918 0.025395408 -0.010395194 -0.13547236 -0.05665778
-0.009216504 0.11947932 0.071556464 -0.05081622 0.06631678 -0.051817875 -0.041473098 0.086582854
00000000: d890 073e 0294 aebd 6bc3 023e 1c48 1e3d
00000010: d7ca 85bb 9ca5 f73d 87e7 24be 9d61 f2bc
00000020: 443f 04be a403 09be 1f86 8fbd 7efc 243e
00000030: 4e64 14be 6917 d33d e368 b3bc e3c8 133d
00000040: 9b08 93bd c4e1 833d 9fca 8d3d 670b e83d
00000050: 609a 1ebe bd04 35bc b26c 8d3d 1c32 99bc
00000060: a292 adbd b252 923a 4474 1a3d f3e8 e83d
00000070: cebf 913d 0e07 a1bd d8d8 2cbe f6c2 dd3d
00000080: a5ec e23a ee15 43be a523 00be b390 abbd
00000090: 4d15 0abe ad4e 03bd a50d ea3d 9a96 393b
000000a0: 5cef f3bd d038 513d 9ae7 dfbd 375e 92bd
000000b0: 334a 8dbd 00b5 b53d 7c22 fd3d 7a00 263d
000000c0: 9099 d3bd 11ce 4c3d 1244 3d3c 3c4e 993d
000000d0: 8df1 c6bd 4060 f1bb abec 6ebe 1d33 673d
000000e0: 4154 b7bd 50a9 553c b79f 883d f269 94bc
000000f0: 7704 d23c 89da 01be f59c cabd a9ba 4a3d
00000100: 75a7 143e 89f5 00be 6119 b53d 5947 5dbd
00000110: 2af5 bfbd c59d 393d c15c 7b3d e610 3cbb
00000120: 553e 1a3c ddff d7bc cc16 b5bd 7590 49bd
00000130: 2b43 d0bb 71c8 99bd 69b5 913c a292 d53d
00000140: ca78 ae3d c331 debc f7e6 443d eda6 d13d
00000150: b92c 35be e64c 263e ef03 e63c 9a6d f93d
00000160: c2d5 33bc 56b0 5b3c ca8d 493d 5414 0c3e
00000170: 98f9 acbd ca9c 983b 333b d7bb d0c0 ec3c
00000180: d161 1b3e 4919 93bc 4b3b 8cbc faa6 43bd
00000190: ada9 30be 98ea b7bd 0a95 fbbc c289 303e
000001a0: f535 1dbe 591a c53d 334a 45be 23cf cb3d
000001b0: ae52 ebbd 45de 7d3d 6af2 98bd a784 d63d
000001c0: 9a7e 8dbb 0c0d 163c 3c8d eabd 29a9 273d
000001d0: 082e 11bc d81f 8e3d 790a 2cbe 86ec 0bbe
000001e0: a774 6a3b 66d6 02be 3e2a 9abd 5cd0 d8bd
000001f0: 6357 853d 3ae6 81bd 0640 30bc 0e32 6d3c
00000200: aa75 d0bd b97e 933d 8b8e e03d 4eb4 46bd
00000210: 2d52 d7bc 4b06 a7bd 959c 153d d82e a23d
00000220: a84b ccbc 4682 bd3d 5e59 5abc a24c 553d
00000230: 638b 47bd 3ee2 99bd 89c4 03bc cf7c ec3d
00000240: 5e01 513d 38a5 933b 4122 813d de4e 26bd
00000250: 1208 c93d 5473 7dbd b176 7fbd 8dd7 283e
00000260: 358e d13d aaf6 bf3d d325 11be 2b86 a23c
00000270: facc 02bd 27cf 973d 8048 953d 6b46 dcbb
00000280: be06 debd cbda dbbd 499e 8d3d 636f b43d
00000290: 2783 663d 7dec 0e3e 25e5 06be 84a6 c03d
000002a0: cb22 edbb 063f 34bd 472c 28bd f4ce 23be
000002b0: 00b8 c23c 7036 503b 2d15 103e 8b45 12be
000002c0: e6b3 a8bd b692 39bd e776 bfbd 2e53 f13d
000002d0: 1566 f83d 3127 b93d 0dad 06bd 0a2a 75bd
000002e0: f8b7 213e d76b 033e 8128 0cbe 8fea c7bd
000002f0: 317c 18bd 4f0e 5dbd 758d 1a3d d20a 2b3e
00000300: 618c 46bc b51f 65bb 6c1a fa3a 36c8 95bd
00000310: e0eb 30bd b33d f8bc c993 c6bd 25bf e73d
00000320: b7b9 0cbe d240 52bd de7d b9bd b373 13bd
00000330: 8068 bcbd 226c cb3d 4ded df3d 1bfb 66bd
00000340: 3b90 113e ccba a3bd 5cdd 3c3d 4de5 983d
00000350: 4cad 41bc 1b9a 033e ab24 dc3d e058 adbd
00000360: 30b7 a33b 32d9 893d ecad 7bbc caed 6f3d
00000370: 038b b8bd e2c1 9b3d 8790 0ebe dbb1 8dbc
00000380: 0f77 f93d 57c1 d8bd 7488 21be 5a0a d53c
00000390: 3d90 82bd 8d22 71bc c3d3 c1bd 06ca a53d
000003a0: 0396 d0bd 4366 1e3d 9d32 aebc cd01 9cbc
000003b0: 9c41 a63c f641 40bd 3d43 5d3d 6776 bbbc
000003c0: 8775 75bd a095 b33d 62e6 fabd dbf3 b23d
000003d0: 080a d03c 9b50 2abc 44b9 0abe fd11 68bd
000003e0: d200 17bc 93b1 f43d 328c 923d ab24 50bd
000003f0: 18d1 873d fb3e 54bd b2df 29bd 5a52 b13d
