data/models/uniswap_gru.pth (torch, 155653 bytes, 9 tensors)

gru.weight_ih_l0 f4 [192, 1]
00000000: df0b 81bd 56c4 ecbd 6c0f b03c 2952 0c3d
00000010: 5690 153e a448 23bb aab8 44bc 1141 553d
00000020: 8823 93bd 3237 7d3d 78de 57be a74a 6abe
00000030: 2c1e c23d 986c c5bd 8e89 dbbd 183f 85bd
00000040: a836 20bd 5441 a0bd 00ca 9abd e299 1bbe
00000050: 3c90 05be 9cc3 05be f006 133e 3737 02be
00000060: 66c3 eabd 94ca 4b3d 43f7 67bd 864b 55bd
00000070: 34a2 6f3c 9d96 60bd 616f 59bd 2499 afbd
00000080: 9b12 c1bd 5db5 d3bc 5ace e5bd 6c33 0b3e
00000090: 96de 37be 078b e9bc f36c cabd cf1b 043e
000000a0: e920 a9bc 58a1 82bc d22a 1bbe 7881 e53d
000000b0: fe3b 29be c243 1abe c0b5 323d 0495 89bd
000000c0: aaaf 3d3c bc31 16be 58da 08be 68b6 23be
000000d0: aea5 8d3d 6332 5a3c 7210 0b3d ed48 34be
000000e0: 1808 6fbd 6b25 2d3d 8a1d b9bd 7049 9dbc
000000f0: cb76 ac3d 75ea b6bd aee3 3ebe b49a a8bd
00000100: 01e9 aebc c47e 93bb 70df 6c3d 8f54 ddbd
00000110: 2367 9cbc 4b47 9dbd ebc2 dfbd a627 52bd
00000120: e762 173d d51a 47bd 8a31 29be c6e0 73be
00000130: fedb acbd 3519 92bd 46b6 c7bc 46f1 313d
00000140: 2c40 ebbd ea10 74bd 8d96 d5bc 6c75 033e
00000150: 7092 253d 6f5d 9ebc 30a4 bebd 5673 82bd
00000160: 8fc9 88bd c09f 153c 3288 55bc a2d8 8c3c
00000170: 8e77 aebd a4ed 4ebb 2669 7fbd 9efb 8f3d
00000180: b603 1fbc 52d1 73bb 1946 60bd 50f2 febc
00000190: 9579 993d 72a9 94be a017 c8bd 27c4 77be
000001a0: e727 243e 3545 13be bd9c 65be e1fe a4bd
000001b0: e913 d03c 35dc 59be f7c7 2fbe 7dd2 54be
000001c0: e117 5fbd 34dc 88bd 552c 893d cef0 f6bd
000001d0: 6a5b 163b e383 5f3d af30 0c3d ea73 b5bd
000001e0: 3b4b 97bd 9753 613d a29a 57be 140a 4ebd
000001f0: 9f60 96bd 9134 30bd f6da 44be 0535 7abd
00000200: c695 43bd f2d5 9b3d 763b 223e cd22 e5bd
00000210: 3d47 e0bc 3c2d 2dbc dda7 263d 0ad8 b43d
00000220: 1007 b13d 0ad4 4dbc 5a55 08be 7981 ab3d
00000230: 3dc6 523c 5ca6 143e 5964 8ebd 67b4 e93d
00000240: 8990 a3bd 7421 00be 8ab9 afbd 4f3a 023e
00000250: 8e75 05be 69a9 343d 180f 07bc 02f1 f7bd
00000260: 824e 0ebe 37f2 963d c9e7 c0bc 8048 dfbd
00000270: 3906 0f3e fa25 edbd cb23 653d 60d1 dabd
00000280: 8f7b 81bd d36d acbd 218b d63d c3b7 f2ba
00000290: a4bb d7bd a61b 863c d92b e33d fd08 cd3d
000002a0: e988 c4bc 50d7 0e3e 077e f2bd 0b46 36bd
000002b0: 18da 93bd 2732 c8bd 6f65 e23d 0a8b 823d
000002c0: 86c0 15be 6526 dfbd 2fbe b03d 01e2 e13d
000002d0: bfd9 b63d 1546 b43d ec71 fcbd 2ea3 583d
000002e0: 053c f9bd 259c 2abd 4727 46bd 47c7 17bc
000002f0: b0aa bf3d 0876 aebc 6256 d3bd 0a82 ff3d
-0.06301092 -0.115608856 0.021491729 0.03425804 0.14605841 -0.0024915123 -0.012006918 0.052064005
-0.071845114 0.061820216 -0.21080959 -0.2288004 0.09478411 -0.09639853 -0.10719596 -0.06506175
-0.039114624 -0.0782496 -0.0755806 -0.1519542 -0.13043302 -0.130629 0.14358115 -0.12716375
-0.114630505 0.04975374 -0.05663229 -0.052073978 0.014626075 -0.054831136 -0.053084735 -0.08574131
-0.09427377 -0.025843317 -0.11220999 0.13593835 -0.17956004 -0.028508676 -0.09884062 0.12901233
-0.020645576 -0.015946075 -0.15153053 0.11206335 -0.16526791 -0.1506491 0.04363036 -0.067178756
0.011577526 -0.1466741 -0.13364542 -0.15987551 0.069163665 0.013317677 0.03395123 -0.17605944
-0.05835733 0.042272013 -0.09038837 -0.019200057 0.084210955 -0.08931438 -0.1864154 -0.08232632
-0.02135134 -0.0045011956 0.057830274 -0.10807144 -0.019092148 -0.07679614 -0.109258495 -0.051307343
0.036959555 -0.048609573 -0.16522804 -0.23816213 -0.08440398 -0.07133714 -0.024378907 0.043442987
-0.11486849 -0.059586443 -0.026072765 0.12837762 0.040422857 -0.019331662 -0.0930866 -0.06369655
-0.06679069 0.009132326 -0.01303296 0.017193142 -0.08518897 -0.003157475 -0.062356137 0.07030414
-0.009705475 -0.0037203622 -0.05475435 -0.031121403 0.07493893 -0.29035527 -0.09770131 -0.2419592
0.16030847 -0.14381869 -0.22423072 -0.08056427 0.025400119 -0.21275409 -0.17166124 -0.2078342
-0.054466132 -0.066826254 0.06697909 -0.120576486 0.002294267 0.054569136 0.034226116 -0.088599995
-0.07387396 0.055011358 -0.21055081 -0.05030258 -0.07342648 -0.04301888 -0.19224152 -0.06108572
-0.047750257 0.07609166 0.15842995 -0.11188278 -0.027377719 -0.010569867 0.04068743 0.08830269
0.08643925 -0.012562761 -0.13313809 0.08374304 0.0128646465 0.14516586 -0.069527335 0.11411362
-0.07986552 -0.12512761 -0.08580311 0.12717555 -0.13033125 0.044106875 -0.008243345 -0.121065155
-0.13897136 0.073704176 -0.023548024 -0.109025 0.13967218 -0.11579509 0.055942338 -0.10684466
-0.06322395 -0.08419385 0.104757555 -0.00185179 -0.105338365 0.016370606 0.11092348 0.1001148
-0.023991065 0.13949323 -0.11840444 -0.044500392 -0.072193325 -0.09775191 0.11054503 0.06374176
-0.14624223 -0.10895995 0.08630025 0.11029435 0.089282505 0.088024296 -0.123264164 0.052889995
-0.12169651 -0.041652817 -0.0483773 -0.00926382 0.09358728 -0.021296516 -0.103192106 0.12475975

gru.weight_hh_l0 f4 [192, 64]
00000000: 0777 a63d d2bd 64bd 778e 183e ee2b 0d3e
00000010: 0ecc 96bb 4be2 e03a ab30 f83d f3c1 5ebd
00000020: e15c 9cbd 441d d2bd ef68 a03d 5738 e3bd
00000030: e93e ad3c aff0 63bd 98dd b13d aa7d 0b3e
00000040: cbdc 193d 5361 b83d d319 d23c b803 53bd
00000050: 8a48 703d 9162 c9bd f9a5 a2bc ab62 093d
00000060: 5e30 ff3d 09df e8bd 50c5 bf3d ea21 f4bc
00000070: 8855 1fbe 0dd0 083e a299 0cbe c5ea 873d
00000080: fca0 303d d7e6 f1bb 0639 32be 1650 60ba
00000090: 4a77 d3bc d6a9 cdbd e2f9 f0bd 0682 e53c
000000a0: d516 cebd 0cdf 8e3a 2288 553e a1a4 66bd
000000b0: 7468 c73d 3850 d9bc 66e5 813d 4979 73bd
000000c0: daa2 f5ba 0062 78bc eb69 3dbe ef71 c1bb
000000d0: 8d9b 0cbd dbd8 43be 9316 e4bb 4e27 403c
000000e0: 95dc 243d ad4f 723d aa7e 2f3e ff61 c039
000000f0: f557 593d ec84 293d eb2a 273e 6592 6fbd
00000100: 2226 e73d 6b5e 83bd 797d c23d ffcd 99bd
00000110: 4e3c b03c 0105 173d e000 f9bd 946b a83d
00000120: 2d37 18bd cd6c a43d b253 83bd f5a8 2dbe
00000130: a610 bcbc 3867 09bd 47f6 ea3d 4c74 ab3c
00000140: 8087 1cbb deed 82bd b616 8cbd a37d 8b3b
00000150: 903b 4a3d 95f5 a93d 5e70 f03d 28d6 603c
00000160: 120c 60bd 1f5e 313c 449c 173d dde5 823d
00000170: b5b6 61bd a3f6 1a3e dd54 71bd ea9c d63d
00000180: 181c ef3d 2f75 9abd 16a7 90bb 31e9 063d
00000190: 4a51 d23d b8d3 803d bad0 89bd 45e7 0cbc
000001a0: 3856 0fbe 896f e9bb 612e fa3c f745 bdbd
000001b0: c811 4ebb 0c67 70bd f052 bf3c 424e c9bd
000001c0: fcfe ba3d ae68 913d 3ad2 18bd cb8b b73d
000001d0: 05b1 afbd 08d4 7d3d 6e60 de3d 1587 38bd
000001e0: 7dad d33d df94 a43b 8d99 4abd 1fc3 aa3c
000001f0: c86e 3e3d b50d da3d 433b 113e 21ea 313d
00000200: 06e2 5e3d d899 0abb d100 023e ea2f 84bd
00000210: 8117 083e d442 123e 5a0e 55bd 9132 bc3d
00000220: a11a debc 0289 003d 0c89 a93c 6a97 25be
00000230: c56b d83c b68c 153d d9a8 ed3d bb59 7bbc
00000240: c3ba 81bd 8f4d 95bd 100c c0bc fb21 82bc
00000250: abf1 ff3d 1e9f a53b 3dcb cbbd 7d56 863d
00000260: 2f65 b5bd 1f84 ff3d 6cd3 8ebd 9990 af3d
00000270: 0604 af3d ded1 163e 7060 843d e0e0 8b3c
00000280: 7db5 a83c 1fbd 033c 32f7 8bbd 60ad 023d
00000290: bacd bfbd fc32 dcbd b48b f7bd 58aa cfbd
000002a0: 08f2 00be 8c70 7ebc c5ae 293e 6d01 0fbe
000002b0: c4f8 743c 145a 3f3e bb57 c5bd 06d2 9d3d
000002c0: 1c6d 733c e0e1 eb3d 8e0b c23c 2e0b 233c
000002d0: 77f4 64bd f4e1 97ba a961 263e f60c 023d
000002e0: 837e 73bd 7b72 a7bd 80de d43c bf5f 4e3e
000002f0: 98d2 13be 9adb 5b3d dae7 18bc 8c30 c8bc
00000300: 8c8d c83d d7c1 01be 0b49 393d 9e65 383e
00000310: 7803 54bd f1cd ea3b 4c48 d83d 886f 763c
00000320: 35b6 673d 3dda cabd 1ca9 223e 8893 69be
00000330: 4782 953d 7150 0ebe 4a59 053e 3279 65be
00000340: e38c 33bd 82b8 1ebd 88e0 893d bf67 edbd
00000350: bd3d 403e 885d 24be a117 8a3d 83ba 223d
00000360: 9286 873a e201 303d d1bd 8d3d 2ae7 cdbc
00000370: 00ed 2cbd d86a 37bd 4419 4dbd 3db8 503c
00000380: 4748 6b3e ea73 be3c 21eb e2bd 9720 c43d
00000390: 4cce 503c 0614 28be ef9e 19b9 0fb2 e1bd
000003a0: 90ef 03be 1649 263c bb3f 7d3e 0022 173c
000003b0: 76cf 263e 5478 55bc d535 27be 426b edbd
000003c0: 36d6 053e 5e06 1d3e a911 afbd ccff ae3b
000003d0: d0f1 16be 1ec1 26be 6fcb 9cbc 2819 05be
000003e0: 8053 443e f8c1 2c3e 2468 06bd df31 6b3d
000003f0: f208 63bd 1576 a8bd ed5f ed3d 4a54 9ab9
0.081281714 -0.05584509 0.14898096 0.13786289 -0.004601962 0.0017157284 0.12118658 -0.054384183
-0.07634903 -0.10259488 0.078325145 -0.1109473 0.021148162 -0.055649456 0.08684844 0.13622156
0.03756408 0.09002938 0.02564708 -0.05151722 0.05866293 -0.09833253 -0.019854533 0.033541363
0.12460397 -0.113706656 0.09363806 -0.029801328 -0.15559971 0.13360615 -0.13730481 0.066365756
0.043122277 -0.0073822546 -0.17404565 -0.00085568556 -0.025813717 -0.10042159 -0.11766411 0.028016102
-0.100629486 0.0010900213 0.20852712 -0.056309346 0.0973672 -0.02652751 0.063425824 -0.05944184
-0.001874055 -0.015160084 -0.18497436 -0.0059034745 -0.034328032 -0.19125693 -0.006960699 0.011728121
0.040249426 0.059158016 0.17138162 0.00036694107 0.053062398 0.04138653 0.16324966 -0.058489222
0.1128657 -0.06414493 0.09496588 -0.07509994 0.02151313 0.036870006 -0.1215837 0.08223644
-0.037161995 0.080285646 -0.06412448 -0.16958983 -0.022957157 -0.033545703 0.11472755 0.020929478
-0.0023884475 -0.06393026 -0.06840269 0.0042569204 0.04937321 0.08298794 0.11740182 0.013722934
-0.05469901 0.010825663 0.03701426 0.06391499 -0.055105884 0.15133147 -0.058918823 0.10479148
0.1167528 -0.07541882 -0.0044144494 0.032937232 0.10269411 0.06290382 -0.067292646 -0.008600061
-0.13997734 -0.0071238917 0.030539693 -0.0924186 -0.0031443704 -0.058692023 0.023354977 -0.098293796
0.09130666 0.07100044 -0.037309863 0.0896221 -0.08578686 0.061969787 0.10858236 -0.0450507
0.10335825 0.0050226296 -0.049462844 0.020844994 0.046492368 0.10647146 0.14182763 0.043436173
0.05441477 -0.0021148827 0.12695624 -0.064544514 0.13290216 0.14283305 -0.05201564 0.09189332
-0.027112307 0.03138066 0.020695232 -0.16171041 0.026418576 0.036511146 0.11604471 -0.015341218
-0.0633445 -0.07290184 -0.023443252 -0.015885344 0.124972664 0.0050543686 -0.09950874 0.06559465
-0.0885719 0.12476372 -0.06973919 0.08572502 0.08545689 0.14728495 0.064637065 0.017075002
0.020594353 0.008040695 -0.06834258 0.031903625 -0.09365411 -0.10751912 -0.12087193 -0.10139912
-0.12592328 -0.015529763 0.16570576 -0.13965388 0.0149518885 0.18686706 -0.09635874 0.077060744
0.014857557 0.115176916 0.02368715 0.009951396 -0.055897202 -0.0011587725 0.16248192 0.03175064
-0.059446823 -0.08176132 0.025985003 0.20153712 -0.14435804 0.053676225 -0.0093326215 -0.024437211
0.09792623 -0.126716 0.045235675 0.18007514 -0.05176112 0.0071656634 0.105606645 0.01504124
0.05657025 -0.09904907 0.15884823 -0.22810185 0.07300239 -0.13897873 0.13022342 -0.22409514
-0.043835532 -0.03875018 0.06732279 -0.115920536 0.18773551 -0.16051304 0.06742788 0.039728653
0.0010339788 0.042970546 0.0692097 -0.025134642 -0.04221821 -0.04477963 -0.050072923 0.012739238
0.2297679 0.023248632 -0.110800035 0.095765285 0.0127444975 -0.16413888 -0.00014650424 -0.1102029
-0.12884355 0.010149261 0.24731342 0.009224415 0.16290078 -0.013029177 -0.16329129 -0.115927234
0.13069996 0.1533446 -0.0854829 0.005340552 -0.14740682 -0.16284606 -0.019139973 -0.12997878
0.19172478 0.16870868 -0.03281416 0.057420608 -0.055428453 -0.08225647 0.11590562 -0.0002943597

gru.bias_ih_l0 f4 [192]
00000000: 05e4 cebc 1708 36be 8602 09be 54ce 60bd
00000010: 832b 4ebe 503d 3fbe 47c2 093b b0c8 33bc
00000020: d3b7 a73c bddf 89bd a142 d83d deb8 0d3b
00000030: e90a 893c 49f7 343c 44f2 36bb 348a 083e
00000040: abe6 0bbe 98c8 f8bc 2f85 86bd f461 50be
00000050: 7c51 4a3e 8115 a4bd 3407 88bc be10 dabe
00000060: 9698 2fbe 676b 14be 273b 80bd c63c 86be
00000070: 57f9 e7bd fa6a 05be 12e9 9d3d a65e 27bd
00000080: 280e 81be 1507 c3bd 2dbe 63bd 1572 bfbc
00000090: 5859 f2bb ed9a 863d 676b c5bd cce1 b83c
000000a0: 2f31 5b3d ed77 1bbd 8a83 1abd 9196 5bbe
000000b0: 7eaa d9bd 66a0 5b3d d86a 2fbe 6570 19be
000000c0: 1dd3 04bc bc36 b5bd b478 d43d 6f5a 5a3d
000000d0: 10f0 92be 921d adbc c034 4fbe 5292 d03d
000000e0: 5f42 fa3c 1797 8bbd fe28 d13d f301 08be
000000f0: e181 6b3d 5013 82bd aa4e 19be 4c7b 9c3d
00000100: 6c80 7f3d 05fc 60be de90 2cbe 1ea3 9cbe
00000110: d988 ca3c 5066 8ebe dfbe 86be 0b45 89be
00000120: a162 9d3c e445 433e b6e6 97be 5151 cabe
00000130: f95a dbbc 701f 9abe f1c4 29be ba35 14be
00000140: 3064 05bf 9de1 98be 3929 32bd 9f14 e3bc
00000150: ae9e 64be 1971 95be b6f0 883d fddc 82be
00000160: dac4 c7be c6a7 7ebd a01c 2fbe 5bb0 1cbe
00000170: 36d3 09bf e644 34be cf59 92be 9201 19be
00000180: 97f9 31bc 4ef8 9cbd 609f 39be a8a5 883d
00000190: 68ee 0cbe 3a56 aebe 325b a6be 20ad a7be
000001a0: 1cfc 963e 46f7 d5be 35fe 02bf 0653 a03d
000001b0: fe17 9bbd cf53 87be 65bf d1be 2b4c bfbe
000001c0: 55b0 86be 3c56 c0be 7032 82bd 09ed 9ebe
000001d0: c454 01be c1e3 aabc 3a28 8dbe d64e 1bbd
000001e0: 7498 4fbe 6d5f 343d 790d d0be ef50 4b3e
000001f0: 5728 b7bd 1846 cb3d d0c7 bebe a1b1 ccbe
00000200: 4f3d a9bd a4bd 513d b748 07be 7944 c63c
00000210: cd24 83bd cc1c bfbc 08d2 21bd e7ae dcbd
00000220: 8296 9dbd bfae 013d 2fba ac3d 5c24 75bd
00000230: 8dcb cd3c 8a0f 41bd 9a29 8a3c 9bc0 35bd
00000240: 147c 6ebd 6118 0fbc 4a3c 5cbd 2f19 07be
00000250: 73c7 ac3d d42f 2f3c ff8a 813d 27a4 9bbc
00000260: 6cd5 5b3d 06e8 25bd 000e 15bd 17cf c13d
00000270: 414e 243d eff7 663d 67ae 383d 643b da3d
00000280: 37f2 b1bd c5d5 773d 44d5 153d 7ceb 79bd
00000290: d6b1 443d 3591 9b3d 1d7c b3bd 2c49 903d
000002a0: 8d20 273d 6d05 023d 75b6 4abd a5c8 c43d
000002b0: 84d5 29bd 9f98 83bd 79f7 eabd a100 9dbd
000002c0: ea7a 9f3c f7ef 693d 5025 05bc 7474 c1bd
000002d0: c104 b2bd 82d4 edbc 69ec 92bd d92b 65bc
000002e0: 3abd aabd 8a53 55bc 5c28 03bd dc74 1abd
000002f0: 908b 403d 0e46 e43b eb68 2d3c ddb9 a2bd
-0.025255213 -0.17776524 -0.13379869 -0.05488427 -0.20133786 -0.18675733 0.002102034 -0.010973141
0.020473396 -0.06732128 0.105595835 0.0021625082 0.016728835 0.0110452855 -0.0027915398 0.1333397
-0.13662212 -0.030369088 -0.065683715 -0.20349866 0.19757646 -0.08011914 -0.016604997 -0.42590898
-0.1714805 -0.14494096 -0.062612824 -0.2621824 -0.11326855 -0.1302909 0.0771047 -0.04086175
-0.25206113 -0.09522835 -0.055601288 -0.023369828 -0.0073959045 0.065725185 -0.09639626 0.022568606
0.053513702 -0.037956167 -0.0377231 -0.21444155 -0.10628222 0.053619765 -0.17130601 -0.14984281
-0.008106974 -0.088483304 0.10374585 0.0533089 -0.28698778 -0.021132264 -0.20234966 0.101841584
0.030549226 -0.068159275 0.10212897 -0.13281994 0.05749691 -0.0635134 -0.14971414 0.076407045
0.062378332 -0.21971138 -0.16852137 -0.305932 0.024723457 -0.27812433 -0.26317498 -0.26810488
0.019212069 0.1906963 -0.29668206 -0.39515164 -0.026776778 -0.3010211 -0.16579033 -0.1447362
-0.52106 -0.2985963 -0.043496344 -0.027719794 -0.22326156 -0.2918785 0.06686537 -0.25559226
-0.39017373 -0.06217172 -0.17100763 -0.1530165 -0.5383791 -0.17604408 -0.28584144 -0.14942005
-0.0108627295 -0.07664548 -0.18127203 0.066722214 -0.1376282 -0.3405016 -0.32491452 -0.3274927
0.2948922 -0.41790217 -0.5116914 0.078283355 -0.075729355 -0.26431128 -0.40966335 -0.373628
-0.26306406 -0.37565792 -0.063572764 -0.31040218 -0.12629992 -0.020860555 -0.27569753 -0.03791698
-0.20273 0.044036318 -0.4063528 0.19855092 -0.08943241 0.09925479 -0.3726182 -0.3997927
-0.08263647 0.051206246 -0.13211332 0.024202572 -0.064035036 -0.023329161 -0.039506942 -0.107755475
-0.07694723 0.03166079 0.08433949 -0.059849128 0.025121475 -0.04713396 0.01686554 -0.044373136
-0.0582238 -0.00873384 -0.053768434 -0.131932 0.084364794 0.010692555 0.063253395 -0.018999172
0.05367033 -0.040504478 -0.036390305 0.094633274 0.04011369 0.05638879 0.045088198 0.10655859
-0.08688777 0.0605066 0.03658034 -0.06101559 0.04802116 0.075960554 -0.08763907 0.070452064
0.040802527 0.031743456 -0.04949041 0.096085824 -0.04146339 -0.064255945 -0.11472983 -0.076661356
0.01946779 0.057113614 -0.008126572 -0.0944604 -0.08692313 -0.029031996 -0.07173998 -0.013987505
-0.08336873 -0.013020406 -0.03202091 -0.037709102 0.047008097 0.006966359 0.010584096 -0.07945607

gru.bias_hh_l0 f4 [192]
00000000: e276 61be b6dd 24be 4d9c 0dbe 1c85 73bc
00000010: 2381 2ebe 8b60 00be 392b 16be 57aa 0bbd
00000020: 9e62 d0bd 59c8 e5bd fba9 c43d 915f e13d
00000030: 06fe d23b d978 703c c201 0ebe 71f5 993d
00000040: 37d7 10be 1bf5 0f3d 7afb 00be 0752 51bd
00000050: ba05 383e 36d2 1a3d af52 2cbe 0664 dbbe
00000060: 24cb 4cbe 4dd2 a7bd c8bf 233d 14ae 45be
00000070: ebda ecbd 73b8 47be e11d c2bd cd7c 4dbd
00000080: 2ef1 dfbd 7fd0 8dbe bf31 153d 2e9d ecbc
00000090: 3ad3 24be a671 07be 821b debc 070a 10bd
000000a0: bcfb 1ebd 2017 77be 3b6e 153d dfbe 6cbe
000000b0: e04e d33c 5359 ec3d 2fd4 ebbd 441d 74bc
000000c0: 72a0 2e3c be41 043c 6da5 213d 45db 19bd
000000d0: 40ce 85be a892 96bc a9fd 15be 4bd5 05be
000000e0: 367a 09bd 7eeb aabd 0ee7 b8bd 3458 fbbd
000000f0: b38a 913d a4bb 613d 7bf2 bcbc ea8a c43d
00000100: a08f 873d 8cfa 1abe 20f6 d3bd 506a 86be
00000110: 81cd 393e f668 a9be 010d 8fbe 3b42 75be
00000120: 5ae5 663d 9055 213e 9819 bbbe fa13 cebe
00000130: 9596 68bd c6ef 11be d0dc 00be cb67 d2bb
00000140: 0fa0 f0be 7db4 9cbe 1289 acbd ea5a b33d
00000150: 064a 91be 8aad 28be 8d4a ec3d 7659 80be
00000160: d16d 59be e0e3 58be ccac 1fbe f8a3 97be
00000170: dfc1 09bf d776 2abe e881 b1be 7fff 05be
00000180: 8985 c2bd a64b 37be ee39 49be 259e 1a3e
00000190: de7c 98be db0b 0bbf deb7 a1be aa62 b5be
000001a0: bff9 383e c81b d9be 34d4 c9be 4f78 ab3c
000001b0: 3908 a4bd 8fc6 9ebe ded9 fcbe 0821 c2be
000001c0: bb56 85be 2dfc 14be b2c3 213b 2503 d6be
000001d0: aec8 9bbe e2d8 83bd 837f c0bd f1c8 4abe
000001e0: 2cba 27be 6038 433c 3617 87be cb80 9f3c
000001f0: 77a3 853d ae26 a13d 691f b4be 8139 b0be
00000200: 0d6b 8d3d 1be8 a3bd 3b14 babd 5814 42bd
00000210: e120 1a3d b4e8 c4bc 59c5 df3c b034 803c
00000220: 596b 0dbd a616 843c fc96 59bc d5a9 733d
00000230: 5967 8cbc 993e 8f3c 66cd adbd b21f 41bd
00000240: 19df 383d 6abd 8c3d 217c 0e3d 23f3 973d
00000250: 3a79 08bd 946b 39bd a15c d1bd d8eb 2ebd
00000260: 2ce6 6b3d a7d6 9ebd 2709 043d ef74 88bc
00000270: 901c b3bd 1b3e 88bd a1bd da3b ef81 f1bc
00000280: e171 893c 3319 a33d f7dd 3bbd f73a 013e
00000290: 3753 033e 9eb4 d4bd de74 423c 804e 19be
000002a0: f0fa a5bc 25cd 6b3d 76bf cfbd 6433 d93d
000002b0: 0963 e33d fd89 333d 6c7c f53d 6d93 d23b
000002c0: 9835 033e 2a54 443d 0943 8abc da1a 833d
000002d0: 2ff7 61bd 267e 05bc 21e8 4cbd 2501 da3c
000002e0: 9b58 cd3d f494 fa3c a090 f43c e391 c53d
000002f0: 7bfc b4bd 0aa9 10b8 ee74 74bd 6fb4 eabc
-0.22018006 -0.16100201 -0.13829155 -0.014863279 -0.17041449 -0.12536828 -0.14664926 -0.034097996
-0.1017506 -0.11219854 0.09602734 0.11004556 0.0064389734 0.01467725 -0.13867858 0.07517517
-0.14144598 0.03514586 -0.1259593 -0.051103618 0.17970935 0.03779813 -0.16828416 -0.4284975
-0.19999367 -0.081944086 0.03997782 -0.19304687 -0.11565193 -0.19503956 -0.09478355 -0.050167847
-0.10934673 -0.27698132 0.036424395 -0.028883543 -0.16096202 -0.13226947 -0.027112726 -0.035165813
-0.03881429 -0.24129915 0.036482077 -0.23119687 0.025794446 0.11540475 -0.1151508 -0.014899556
0.01065837 0.008072315 0.039464403 -0.037562627 -0.2613392 -0.018380478 -0.14647545 -0.13069646
-0.033563815 -0.08345698 -0.09028445 -0.12272683 0.07106533 0.05511059 -0.023064842 0.09596808
0.06619191 -0.15134639 -0.10349679 -0.26252985 0.181448 -0.3308789 -0.2793961 -0.23951046
0.05637107 0.15755296 -0.36542964 -0.40249616 -0.05678423 -0.14251623 -0.12584233 -0.0064210645
-0.46997115 -0.30606452 -0.084245816 0.08757575 -0.28376788 -0.1647245 0.11537657 -0.25068253
-0.21233298 -0.21180677 -0.1559326 -0.29617286 -0.5381145 -0.16646896 -0.34669423 -0.13085745
-0.09498126 -0.17899951 -0.19651005 0.1509939 -0.29782766 -0.54314965 -0.31585592 -0.35426837
0.1806402 -0.42404008 -0.3941971 0.020931391 -0.08009381 -0.31010863 -0.4938497 -0.37915826
-0.26042733 -0.14549322 0.0024683294 -0.41799274 -0.30426544 -0.064378515 -0.09399321 -0.19803216
-0.16379613 0.011915296 -0.26384896 0.019470593 0.06525319 0.07868706 -0.35180214 -0.34418872
0.06905184 -0.08003255 -0.0908589 -0.047382683 0.037629012 -0.024036743 0.027315782 0.015650123
-0.034526203 0.01612408 -0.013280626 0.059488136 -0.017139124 0.017485904 -0.08486442 -0.047149368
0.045134638 0.06872065 0.034786347 0.074194215 -0.033318736 -0.04526861 -0.10222746 -0.042705387
0.057592556 -0.077557854 0.03223529 -0.01665732 -0.08745682 -0.06652471 0.0066754376 -0.029480902
0.016777935 0.07963791 -0.04586598 0.1262015 0.12824713 -0.103860125 0.011868684 -0.14971352
-0.020261258 0.057568688 -0.1014394 0.10605505 0.11102874 0.043832768 0.11986622 0.006426266
0.12813413 0.047931828 -0.016877668 0.06401606 -0.055167373 -0.008147752 -0.050026063 0.026611874
0.10026666 0.030588605 0.029854119 0.09646966 -0.08837219 -3.4489705e-05 -0.059681825 -0.02865049

gru.weight_ih_l1 f4 [192, 64]
00000000: 0dc7 043d 38c6 f2bd 3054 2bbe 4e82 8bbc
00000010: d080 1ebe d1aa a3bd d40c 0cbe 7c4b a7bc
00000020: 6fd8 e1bc 67fe d93d b724 403e cf3d 09be
00000030: 97bb 69bd 5d15 a73d 2b6a d8bd 55fa 88bd
00000040: 6658 313d 0791 72bd bb84 3a3d 3d73 78bc
00000050: 2e03 443e 0300 c2bd 3a5b 4ebd f698 57bd
00000060: 6eae fe3d 1c5c 26be 9df2 8b3d 288a de3d
00000070: deda 0fbe 7cbb fd3d 51ac b1bc bb2f b73c
00000080: 0240 b7bd edde eb3d 1e3e 7f3d e95e 823d
00000090: e0e2 cf3d fb29 fbbd 322e 923d 1d73 e2bd
000000a0: c130 c1bd 44b0 7f3c aead 203e e118 2b3e
000000b0: af08 e73d fdde 373d b08b b7ba c06a bb3c
000000c0: c846 8d3c 3db8 4e3d 6f8c 84bd b203 49be
000000d0: bb7e 82bd d2a6 e4bc ffa7 b03c 89d4 babd
000000e0: 14fe 163e d95a b43d acc2 b13c 6c5c 0bbc
000000f0: 9c08 40bd 7365 87bd 4f37 7abd b225 25be
00000100: f08c 373e 0cf7 6b3d ddac bb3d a70d 0a3e
00000110: c91c ec3d 6226 1c3e 918d a0bd a5b2 3fbd
00000120: 0334 293e ee8b 5abe 353c 103c 7dfe 4abe
00000130: 371e f5bd 303b f9bc b736 0b3e fba7 c1bd
00000140: 6274 0dbd 4e0c 8dbd ff97 61bd 83cd 6ebd
00000150: f6c6 5e3d ea8d f9bd b7e5 75bd e58b 413e
00000160: bcbc 0c3e 23f0 a83d 7602 a33d cdd7 51bd
00000170: 4101 b0bd 70e2 133e de9c fa3c 8266 dbbd
00000180: cb59 e63d 3638 3bbb 410a d4bd 999d 013d
00000190: 7b3b 08be 720d 9f3c f56d c0bd 2ac6 b5bd
000001a0: f075 84bc a5d0 8ebd e466 e53d a4d8 09be
000001b0: 89e2 f7bc bd4c cd3d 88a8 0cbe 4fdd 333d
000001c0: b586 8e3d cf33 8c3d 5fe4 09be 9942 c33c
000001d0: 020f 3e3d a07b e9bc 053c 313e a838 393d
000001e0: 37e3 433b b50c 143e af47 b53d 81f2 eb3d
000001f0: aa44 a7bd bdb6 73bc 7d42 f33c a3e7 9abd
00000200: b842 bebd 34da 7e3d 55e4 6a3d 7d5d bebd
00000210: ac01 063e 1163 513d 174a 023e 89a1 7abc
00000220: eca1 92bd 7f53 9bb9 3687 e23d 9188 40be
00000230: fec9 26bd d604 f93b c081 f33d cad5 7dbd
00000240: 8fbd bebd a0e4 e53d d086 cabd f595 a93d
00000250: 85f1 7a3d 53c6 75bd 5d24 a3bd d1f9 1f3d
00000260: e924 03bd f3e3 11bd 3788 ecbd b6f4 edbd
00000270: 114a 643d 11ac 8a3d 727b 983d ef07 c5bd
00000280: 8033 ff3d de95 60bd 6779 0ebd 8200 163d
00000290: 7b12 16be 01e5 8bbd 0757 05bc 77bd 25bd
000002a0: 4445 af3b 7ed3 fcbd 304b 463e a8d8 04bc
000002b0: e809 d13d dcb5 003e 9d19 eebd b4ac 1d3c
000002c0: 85e4 3b3d 7929 81bd ccd7 62bd 58b9 62bd
000002d0: 3154 3d3d 997c 753d f14b de3d 26c1 84bd
000002e0: 154b d43b efbd d13d 71e7 55bc b49f a53d
000002f0: b563 a5bd cf0b 96bd 23b9 803d eaa5 30be
00000300: 9654 e83d 715a 963d 1ad1 b1bd a523 2c3e
00000310: 7938 47bd a6c7 40bd 286f bcbd 5443 08bd
00000320: b1ab 61bd ee19 193d 849d 893e cfe2 a2be
00000330: 9221 b63c 1fde ebbd fbc8 3bbc 0499 20be
00000340: 6cac 923d 5f9a 28ba e1da 023e 0abb cdbd
00000350: 2f05 333e bc7a bb3a 9d0c 223e 4fb9 023d
00000360: e102 103e e89c 3bbe 9717 be3d 7da0 133b
00000370: a96b 2dbe 5a0c 223e f4b1 07be c319 62bd
00000380: ca98 3cbb 0b4a b8bc dd39 a6bd d40b 4abd
00000390: c908 0ebd 653b 0ebe 9d88 a7bd e126 163d
000003a0: 495f 04be 6315 fbbd 6cfb cdba 015c 863c
000003b0: 4b52 9fbd c573 403e 910c a5bc 0d05 29be
000003c0: 3e3d a4ba 0b02 013e cb3e 01be dd3a 71be
000003d0: 9376 b4bd 3317 d93b 2b17 a63d 452f 1abd
000003e0: 0d56 3c3d a26d a53d 55c5 003e 6569 033d
000003f0: de1c 2f3c 2b62 0f3d d9d0 8b3c e88d a3bd
0.032416392 -0.118542135 -0.16731334 -0.017029908 -0.15478826 -0.07991565 -0.13676769 -0.020421736
-0.027569024 0.106442265 0.18764006 -0.13402484 -0.057063665 0.081583716 -0.10567125 -0.06688372
0.043297194 -0.05922034 0.045536738 -0.015164194 0.19141838 -0.094726585 -0.05037997 -0.05263611
0.124356136 -0.16246074 0.06833384 0.10866195 -0.14048335 0.123892754 -0.021688612 0.022361627
-0.089477554 0.11517129 0.0623151 0.06365759 0.10150695 -0.122638665 0.07137717 -0.11057112
-0.09433127 0.01560599 0.15691254 0.1670871 0.11280953 0.044890393 -0.0014003422 0.02287805
0.017245665 0.050468672 -0.06472098 -0.19630316 -0.06371828 -0.027911577 0.021564482 -0.09122569
0.1474536 0.0880639 0.021699272 -0.008505922 -0.04688321 -0.06611147 -0.061087903 -0.16127661
0.17924857 0.05760865 0.091638304 0.1348177 0.11528928 0.15249017 -0.07839502 -0.046801228
0.16523747 -0.21342441 0.008803417 -0.19823642 -0.11968654 -0.03042373 0.13595091 -0.09455868
-0.03453482 -0.068871126 -0.055076595 -0.05830146 0.054388963 -0.12185271 -0.060033526 0.18901022
0.13743871 0.082489274 0.07959454 -0.051231194 -0.08593989 0.14441848 0.030592378 -0.10712911
0.112475954 -0.002856744 -0.10353518 0.031644437 -0.1330394 0.01941559 -0.09395973 -0.088756874
-0.016169518 -0.069733895 0.112012655 -0.13461548 -0.030259388 0.10024402 -0.13736165 0.04391223
0.06959287 0.06845819 -0.13466023 0.023835467 0.04640103 -0.028501332 0.17308052 0.045220047
0.002989007 0.14457972 0.08851563 0.11520863 -0.081673935 -0.014875111 0.02969479 -0.075637124
-0.09290069 0.062219813 0.05734666 -0.09295175 0.13086575 0.051119868 0.12723576 -0.015297302
-0.071597904 -0.00029626113 0.11060946 -0.18802096 -0.04071998 0.0075994534 0.11889982 -0.061971463
-0.09313499 0.112252474 -0.09888995 0.08280555 0.061265487 -0.06000359 -0.0796592 0.039056603
-0.032017622 -0.03561778 -0.115494184 -0.116189405 0.055734698 0.067711 0.0744542 -0.09620654
0.12460995 -0.054830424 -0.034783747 0.036621578 -0.14655487 -0.068307884 -0.008138425 -0.04046389
0.0053488333 -0.123450264 0.1936462 -0.0081082955 0.102069676 0.12569374 -0.11625979 0.009623695
0.04587223 -0.063067384 -0.05538158 -0.05535254 0.04622287 0.05993328 0.108543284 -0.06482153
0.006478677 0.10241305 -0.013055668 0.080871016 -0.08075658 -0.07326471 0.06285312 -0.17250791
0.113442585 0.07341469 -0.08682461 0.16810472 -0.04863784 -0.0470654 -0.09200889 -0.033267334
-0.05509538 0.037378244 0.26877987 -0.31813666 0.022232804 -0.115169756 -0.011461492 -0.15683371
0.07161793 -0.00064316945 0.12778808 -0.100454405 0.17482446 0.0014303545 0.15825124 0.031915005
0.14063598 -0.18321574 0.09281843 0.0022526078 -0.169356 0.15825024 -0.13251477 -0.05520035
-0.0028777593 -0.022496244 -0.08116505 -0.049327686 -0.034676347 -0.13889845 -0.08180354 0.03665817
-0.12926973 -0.122599386 -0.0015715188 0.016401293 -0.07779368 0.18794163 -0.020147594 -0.16505833
-0.0012530459 0.12598436 -0.1262161 -0.23557611 -0.08811679 0.00662508 0.08109888 -0.037642736
0.045980502 0.080775514 0.12575276 0.032082934 0.010688035 0.03500573 0.01706736 -0.07986051

gru.weight_hh_l1 f4 [192, 64]
00000000: 3fe8 ba3d f38e 343c 691a d33d 7849 a33d
00000010: e7d8 1abd 4cf1 613c 8c10 ac3d 0ee9 fabb
00000020: 4ca3 ad3c 1aa2 b13c 91ff 103e 7055 abbd
00000030: a9c1 d13c 0954 b83d fa8a b33d 9fe4 18bd
00000040: 67ee 763d e169 c33c b762 f43c 648d 03bd
00000050: 8d7c a83d 18c0 85bc 9ab8 b2bd 5382 c73d
00000060: f744 39bd 28fb febd 4641 06be af4a 33be
00000070: 8330 a53d 048d 433d 5887 afbc 80fb 24be
00000080: 64a4 0abc da8c 923d 5eb7 043d d12e fabd
00000090: f536 4abd 69da ad3d aae0 b23c 4d20 b23d
000000a0: 37c8 7f3c 215a b1bd 5b05 483d 09e9 23be
000000b0: b547 e7bd 505f f3bd 0aca 563d 74ec eabd
000000c0: d862 843d a9b9 d43c 4a2e 0fba fe20 a93c
000000d0: d24c 3dbd 4248 ae3d 1c77 e53c 355a b5bd
000000e0: 58ac 27bc 0e10 cb3c 6d11 b73d 0b6c b3bd
000000f0: 856e 663d 85c1 773d 577d 22be 41d9 a0bd
00000100: f21f 49be 017a b1bd de21 0dbe 3373 673d
00000110: 838d 8d3d c463 f43b 6224 25bd a491 353d
00000120: 8576 f4bc ac3b 4cbd 79b1 36bd 5614 46be
00000130: 623c 19be c532 31bd 9b9e 333b cb9f 0f3c
00000140: 95a6 0e3d 1068 33be 5aac 1b3b b29d cd3d
00000150: cdfa ce3d 7f3c f6bd caa2 da3d 95d2 f53c
00000160: ebf3 383e 1c80 2b3c bce6 f93d 1935 313d
00000170: c1c8 b43d e06a 263c 7542 fbbd d0b8 3f3e
00000180: 0e6f c83d 1643 673d a76d cebd bf7f ab3c
00000190: 64b1 b7bd 2cf7 603e 8882 7cbc 1ac2 b13d
000001a0: 43dd 10be 1ac3 b63d e736 493a bea6 c73d
000001b0: e093 893d bb83 563d bb29 b7bc 52c0 c43d
000001c0: 40da 53be 8127 0fbd 12fc 56be 2db7 2d3d
000001d0: 1b96 1e3e 78ce 7a3d f2cd da3d e6d2 dabd
000001e0: 5b7d 2fbe 0b61 6e3d ca03 85bd 2d0d 0abd
000001f0: d3ab 6e3e 3ad8 bebc 299d 2b3d 698c b5bb
00000200: cbc8 98bd 05d2 4bbd 365b 3d3e 6a79 b6bd
00000210: a882 34be ec85 e2bd 410e 0fbc 65b4 e6bc
00000220: b9ba 313d 447e 16bd 1c50 263e 537e 003e
00000230: 0205 523d d622 95bd 4287 103d 5255 f3bc
00000240: 3c46 833d 11a8 55bd 5091 1dbe 5157 6fbe
00000250: f404 75bd 09aa 4c3c f1ed 66bd a626 083e
00000260: 1de3 9ab8 210f c9bd f997 27be 7e77 953d
00000270: bcaf 913c 971b e13d 5035 91bd ef3f 1c3c
00000280: 1f7f 5fbd 2006 76bd 0044 95bd 0b12 9c3d
00000290: b9e4 5b3d f65c da3c 90f2 913d 51a4 053e
000002a0: 8046 ad3d d5eb 4b3d 9fc1 00bd 0251 d1bb
000002b0: 772d 46be 839e 1bbc ae40 23be 30d5 dcbd
000002c0: 0eee ac3b acaa d23c 5406 bbbd b1e5 0a3e
000002d0: 2d83 04be 36d0 f9bd 9d8b 34bd b9f2 1dbc
000002e0: a3e0 233e c532 96bd c768 d3bd ca73 9a3d
000002f0: 5729 1fbe 5134 d93c b7c2 84bd ed97 cc3d
00000300: b579 483d 2b4b af3d c6b6 fc3c e287 b9bc
00000310: 34a6 fabd 73af b03c 548f b8bb 7022 7ebd
00000320: ae88 00be 39f2 263d 2274 bc3d 7917 0cbd
00000330: ceea 1f3d d688 923d 30fa c23d 0841 57bd
00000340: b5ed 0ebe a76b 9fbd 5fc8 83bd 3bf4 43bd
00000350: 6cfa db3d 1fb4 bd3d d387 9ebb ac8b 7bbd
00000360: c684 3abe f7d1 433d 7255 93bd 2319 a1bd
00000370: 26c4 303d 4750 febd 1a6f db3d 9ac5 a63c
00000380: 1886 983d a732 913c aa19 b23d b439 1e3d
00000390: 0712 6dbd acb2 c33d 8205 b63d 6721 773d
000003a0: ea4d 2f3b b3e0 a5bd f6b6 563c 7572 1fbd
000003b0: eecc ecbd d8a2 c0bd b8a3 083d 0c03 30be
000003c0: b4a2 4e3d 772b 85bd 2d50 eabd 68e4 c3bc
000003d0: 5e76 f43c b9cb f4bc 2570 a83d 613c b8bd
000003e0: 0491 81bc df3a 0abe fca6 97bd 28b1 2f3d
000003f0: 2936 2cbd 98c7 3c3d 794f d83d a10e a43d
0.09126329 0.01102041 0.10307772 0.079729974 -0.03780451 0.01379044 0.084015936 -0.007657177
0.02119603 0.021683741 0.14159991 -0.08365905 0.02560504 0.090004034 0.08766742 -0.037327405
0.060285952 0.023854198 0.029832227 -0.032117262 0.08226881 -0.016326949 -0.08726616 0.09741654
-0.045231786 -0.12450248 -0.13110837 -0.17508958 0.080658935 0.047741905 -0.021426842 -0.16111565
-0.008462045 0.071557716 0.032401435 -0.12215961 -0.049368817 0.08488924 0.021835644 0.08697567
0.0156117 -0.08659769 0.048833232 -0.16006865 -0.11292974 -0.11883414 0.052438773 -0.11470881
0.064641654 0.025967436 -0.00054619147 0.020645615 -0.04621584 0.08509876 0.028010897 -0.08855096
-0.010233961 0.024787929 0.089388706 -0.08760842 0.056257743 0.06048729 -0.15868126 -0.07853938
-0.19641092 -0.086658485 -0.1378245 0.056506347 0.06911757 0.007458182 -0.0403179 0.044328347
-0.02984167 -0.049861595 -0.044602845 -0.19343695 -0.1496444 -0.04326131 0.0027407769 0.008766125
0.034826834 -0.17520165 0.0023753853 0.100398436 0.1010643 -0.120232575 0.10675581 0.03000764
0.18061797 0.010467555 0.12202212 0.04326353 0.08827353 0.010157317 -0.12268535 0.18722844
0.09786807 0.056460463 -0.10079508 0.020934938 -0.089693815 0.21969289 -0.01541198 0.086796
-0.14146905 0.089239314 0.00076757226 0.097486004 0.06717658 0.05237172 -0.022358766 0.09606995
-0.20688725 -0.034949783 -0.20994595 0.04241102 0.15486948 0.06123206 0.10683812 -0.10684757
-0.17137663 0.058198016 -0.06494863 -0.03370397 0.23307733 -0.023296464 0.041897926 -0.00554042
-0.07460173 -0.049760837 0.18491825 -0.08909877 -0.17627966 -0.110607 -0.008731426 -0.02816219
0.043390963 -0.03674151 0.16241497 0.12548189 0.051274307 -0.07282035 0.035285242 -0.02970377
0.064098805 -0.052162234 -0.15387464 -0.23373152 -0.059819177 0.012491711 -0.056379262 0.13295993
-7.3855954e-05 -0.09817339 -0.16366567 0.07298182 0.017783992 0.109915905 -0.07090247 0.009536727
-0.05456459 -0.060064435 -0.072883606 0.07620629 0.053684924 0.026655655 0.07126343 0.13050963
0.084607124 0.049785454 -0.03143465 -0.0063878307 -0.19353281 -0.009498241 -0.15942642 -0.1078285
0.005277402 0.025716148 -0.09132066 0.13564183 -0.12940665 -0.12197916 -0.044078458 -0.009640389
0.16003661 -0.07333902 -0.10322719 0.07541616 -0.15543114 0.026514204 -0.064824514 0.09989915
0.048944194 0.08559259 0.030848872 -0.022647802 -0.12238732 0.021568036 -0.0056323204 -0.06204456
-0.12552139 0.040758345 0.09201838 -0.034202073 0.039042287 0.07155006 0.09520376 -0.052552253
-0.13957866 -0.07784205 -0.06434702 -0.04784034 0.107411236 0.09262871 -0.004837969 -0.0614125
-0.18214712 0.04780766 -0.07194032 -0.078661226 0.04315581 -0.124176554 0.1071455 0.020357896
0.07447451 0.017724348 0.08696301 0.03862925 -0.05787852 0.09555563 0.08887769 0.06033459
0.0026749321 -0.080994986 0.013105145 -0.038927514 -0.11562525 -0.0940606 0.03335926 -0.17188662
0.050448135 -0.06502431 -0.114410736 -0.023912624 0.029841598 -0.029882299 0.08224515 -0.08995891
-0.01581622 -0.1349902 -0.074048966 0.04289356 -0.04204384 0.046088785 0.10562033 0.08010603

gru.bias_ih_l1 f4 [192]
00000000: 81cd dfbd 47a1 ddbd b979 2b3d 228a 0fbe
00000010: 4f22 e4bd ed75 abbd 15cf 793c 91b7 b4bb
00000020: afb5 b0be 6574 b1bd 7a49 a7bd b12e 42be
00000030: 4b33 02be b9dc 723c 6591 a7bd 7770 0abe
00000040: 19f2 c93b c8c6 efbd 63be d6bd 800e f5bd
00000050: 1ac9 edbd 5979 963d e94a fa3b c3c2 3fbe
00000060: b7d8 093e 17f5 81be 46e7 05bc 59fd 0a3e
00000070: 790a 29be 9d2d f3bd 5de6 9fbd e926 a6be
00000080: a3dd 1bbe c097 d9bd d4fd 5abc 169e f1bd
00000090: 151d 22be f83f 06be fb26 89be 6e6e 3fbd
000000a0: 1a43 52be 395f 8a3b d6e4 04be 451a fcbc
000000b0: c047 5bbe c398 16be 915e bb3d 0f51 edbd
000000c0: feaa b4be 4d14 e4bd 0ea9 49be 33f7 60bd
000000d0: 8817 6dbd 759e a13a 8ae2 a3bd 42b6 8d3d
000000e0: 20cf f7bb edd1 48bd 0c1c 87bd f68e ebbd
000000f0: 68fe 31be a613 1fbe 1d3e b9bc 4581 2bbe
00000100: 9b8b 22bc 8169 c5be d37a 02bf 9c74 77be
00000110: a681 c6bd 6cb2 55be 60fc 9abe 7fb9 62be
00000120: 8120 9dbe 0ca4 85be 1d5f 4cbe ecf8 a9be
00000130: 42b0 9dbe cbc9 f0bd db2f 7abc 5d3b dbbe
00000140: 431d 9b3d 4800 3cbe f894 cbbe f284 babe
00000150: 5544 6ebe f9bd bbbe 9215 7dbe e70c bebd
00000160: 6484 a13d 3f50 c4be 5375 0fbe 3608 bdbe
00000170: 1132 72be 78e3 a7be 9e38 1dbd 7907 e0be
00000180: cd29 f6bc 9d24 fabe f3ba c3be 6179 e1bd
00000190: 016d cdbd 95f9 b2be d277 ccbe ccb2 adbe
000001a0: 5214 b0be d67d 64be 29aa bfbe 4f9a 81be
000001b0: 4717 97be 0c4b cabe bba5 ddbe d930 86be
000001c0: db2f e1be 306c b3bd 5b96 b0be 8e12 5dbe
000001d0: e588 59be 3f75 26be b515 0ebe a380 c0be
000001e0: 0341 1bbe 1cbb 23be b644 33be e044 e1be
000001f0: bb16 fcbe e37e 95be 7c46 ddbe 6815 c6be
00000200: 2a81 de3b 39e3 b33d 15b6 c33d 5b97 293c
00000210: 979e a43d b892 7abd 38a8 24bd f96e 763c
00000220: ddf6 cabd 8f3c dabb 9def 583c 3bf9 0a3e
00000230: 4d12 37bb 9ea0 823d 413e 5dbd 92dd e8bd
00000240: 9621 993d 8c51 633c e2b3 79bd 7b40 be3d
00000250: 66c5 6ebd fb20 ce3c c7ef cdbd b6ce d0bd
00000260: 1a08 85bd 880a b3bd 2149 733d 011e b93d
00000270: 5e65 72bd 69fd b5bd 16e7 ecbd 2b7a fabd
00000280: e042 89bd a4b2 f13a 8822 cf3d 3134 f8bc
00000290: a9b0 473c b097 c4bd f83c 01be a5a5 f83c
000002a0: a611 553d 8a1f c4bc 31f9 683d 8519 f6bd
000002b0: 8e49 babc 79c7 cfbc 30ba b83c d74a fdbd
000002c0: 6f94 f13d 6198 b9bc 595e ff3d af11 cbbc
000002d0: 4873 603b b4ea 823d 72b4 023d 3d27 433c
000002e0: 702c a03c edf0 173c f4a2 4fbc 9519 563d
000002f0: 9c96 f7bc 1f65 893d c9fb f2bc cd71 a63d
-0.10927869 -0.10821777 0.04186413 -0.14017537 -0.11139356 -0.08372102 0.015247126 -0.005515047
-0.34513614 -0.086647786 -0.081683114 -0.18963124 -0.12714879 0.014823132 -0.08182029 -0.13519464
0.0061628935 -0.117078364 -0.10485532 -0.11965656 -0.11610623 0.07347364 0.0076383245 -0.1872664
0.13461576 -0.253823 -0.008172816 0.13573207 -0.16507901 -0.118739344 -0.0780761 -0.3245156
-0.15221266 -0.10624647 -0.013366181 -0.117977306 -0.15831406 -0.1311034 -0.26787552 -0.046736173
-0.2053341 0.004222777 -0.12977919 -0.030774245 -0.21414089 -0.14706711 0.091488965 -0.11587726
-0.35286707 -0.111366846 -0.19693395 -0.054923248 -0.05788377 0.0012330549 -0.08002193 0.069195285
-0.007562533 -0.049028326 -0.065971464 -0.11501877 -0.17382205 -0.15534839 -0.022612626 -0.16748531
-0.00992098 -0.38557056 -0.50968665 -0.24165577 -0.09692697 -0.20868844 -0.30270672 -0.22141074
-0.3068886 -0.2610172 -0.19958158 -0.33197725 -0.30798537 -0.11757239 -0.015270199 -0.42818728
0.075739406 -0.18359482 -0.39762092 -0.36429554 -0.23268254 -0.36668375 -0.2471526 -0.09279805
0.0788658 -0.38342473 -0.140096 -0.36920327 -0.23651911 -0.32790732 -0.038384072 -0.437557
-0.030049229 -0.4885606 -0.38228568 -0.11009479 -0.100305565 -0.3495604 -0.39935166 -0.33925474
-0.34390503 -0.22313628 -0.3743451 -0.2531304 -0.29509947 -0.3951038 -0.43290505 -0.26209143
-0.43981823 -0.087608695 -0.34489712 -0.2158911 -0.21243627 -0.16255663 -0.13875468 -0.37598142
-0.15161519 -0.15989345 -0.1750668 -0.4399786 -0.49236092 -0.2919837 -0.43217838 -0.38688207
0.0067903 0.08783574 0.09556214 0.010351027 0.08038061 -0.06117508 -0.04019949 0.015041106
-0.09910367 -0.006660051 0.013240722 0.13571636 -0.0027934492 0.063782915 -0.054014448 -0.11370386
0.07477109 0.013874423 -0.060962565 0.092896424 -0.058293723 0.02516221 -0.100554995 -0.10195677
-0.06495686 -0.08742243 0.059395913 0.09038926 -0.059178703 -0.08886225 -0.11567514 -0.12230333
-0.067022085 0.001844008 0.10114008 -0.030298324 0.012188115 -0.095992446 -0.12620914 0.030352423
0.052018784 -0.02394082 0.056878272 -0.12016586 -0.022740152 -0.02536367 0.022549719 -0.1236779
0.117958896 -0.022655668 0.12469167 -0.024788706 0.00342484 0.06392422 0.031910367 0.011911211
0.01955244 0.00927375 -0.012673128 0.05227049 -0.030223183 0.067087404 -0.029661076 0.081271745

gru.bias_hh_l1 f4 [192]
00000000: 9007 cbbd b2cb 66bd 37ec 533d c41b 933d
00000010: 1005 24be 90c9 0dbe 4fd2 18bd 8685 83bd
00000020: b413 69be aef4 ecbc c2da 89bd c2ba bebd
00000030: 12ef 1abe cbd0 f8bd 3b59 8fbd e495 86bd
00000040: 7456 a53d d76a 6dbe f2e2 6d3c b4d6 80bd
00000050: 06bf 32bd 6320 01be 2724 d4bc 8b88 2abd
00000060: 9a22 943a 6999 8abe f999 8f3d d18b a7bd
00000070: 1207 06be 70d6 58be 8de9 7cbd 2419 1dbe
00000080: ef17 f9bd 4c8a 43bd 9a48 c53c 4bd7 8e3d
00000090: 993b 173b 5e9f a2bd 6dbb a8bd b1d5 f43c
000000a0: 2677 82be c610 e3bd 8d13 b23c 3d3c 1ebe
000000b0: 6d8f 71be df03 ec3c 15ef a73d 18fb 0cbd
000000c0: edf9 9dbe fac9 0d3d 2f0f fabd 60ae 95bd
000000d0: 8e56 003e c314 6abc 231d d2bd 7863 863d
000000e0: fe87 d6bd 38dc c7bd 19fa a93b 09ca 32bd
000000f0: fd6c c5bd 936f 423d 2185 4cbd aa5e 1abe
00000100: 74c0 7e3d 432c 6dbe cb90 d4be 3520 f4bd
00000110: 460e 63bc 61ba 8cbe 0596 05bf 390e b5bc
00000120: d49a 90be dd60 bfbe e089 cbbe 2ffa a3be
00000130: 34f5 8abe 1093 aa3b 7ab2 17be 6bd0 eabe
00000140: 4fb6 b63d 5d57 29be ac8c 62be 558f b0be
00000150: 694e 18be 3c22 0dbf a8d3 96be 21d7 02be
00000160: cc6b a3bb b57b babe fd42 8bbc a10a 01bf
00000170: cf34 14be f606 b4be bdce a53d e8a4 79be
00000180: ff45 7f3d b82f cbbe 9ead 9fbe d5b3 65be
00000190: 4df8 0bbe 86c6 9dbe 82da 02bf 3a4f a5be
000001a0: de32 92be 6dd1 e8be 659c d8be 107f 3ebe
000001b0: 7e74 b5be 8b5b 83be f17d aabe 64ac 6ebe
000001c0: 08e6 c4be 3d4a eabd 4090 b4be 28ec 15be
000001d0: 1820 6abd c0cc b8bd 4055 7cbe 4765 c7be
000001e0: 1bfa 94be c3c3 9bbe 3230 88be fd56 a7be
000001f0: bddf d6be ae3c 96be 9511 0ebf bffb 8ebe
00000200: 2471 513d 84d1 babd b890 d23a cd31 463d
00000210: 9167 90bd 5a0c b3bd 6d97 393c 1802 f53d
00000220: 3579 9cbc a978 36bd dc77 86bd e824 6b3d
00000230: 6b35 b03d d08d 673c db75 3d3d a162 cebd
00000240: 85dc b8bd d626 7a3d 9a3d b43c e48b 02be
00000250: 5c79 693d 7d47 0e3d deb5 ec3a cb24 0d3e
00000260: f750 963d 114c 0f3d 509a 84bd a61a b73d
00000270: 11b8 a83d 4c8c 9d3d 9e8a c93d b6f1 bebd
00000280: cc19 b4bd 56ac 48bd d35b e6bc f96c 8fbd
00000290: 57bc 0e3e dd37 fabc 4847 6abc 512e aebd
000002a0: c556 553d 62c4 10be ef04 6d3d a29c 0cbe
000002b0: ae13 f6bc a249 0cbe f29c e43c b9f8 c2bd
000002c0: 1edb 4e3d 4524 0c3d c616 653b c76f 2a3d
000002d0: d446 063e 6d2b a7bb 9195 d93c d3b3 9b3d
000002e0: 2191 023e 205a 223c 93f3 01be 8544 3e3d
000002f0: d5a6 e3bd 87d2 4c3d 2386 fdbd ecb0 0b3e
-0.09913552 -0.056346603 0.051738944 0.0718303 -0.16017556 -0.13846421 -0.03730994 -0.06421952
-0.22761422 -0.028925266 -0.06731178 -0.09312965 -0.1513026 -0.12149199 -0.06999441 -0.06571558
0.0807313 -0.23185287 0.01451944 -0.06290951 -0.043639205 -0.12610011 -0.025896145 -0.041634124
0.0011301816 -0.27070168 0.0701179 -0.08180965 -0.13088635 -0.21175551 -0.06174617 -0.15341622
-0.12162768 -0.047739312 0.02408247 0.069746576 0.0023076294 -0.07940553 -0.08238874 0.029887052
-0.25481528 -0.11087184 0.021737838 -0.15452667 -0.23589869 0.02881044 0.08199898 -0.03441915
-0.3085474 0.034616448 -0.12209927 -0.0730865 0.12533018 -0.014287177 -0.10259464 0.06561941
-0.10475157 -0.097588 0.0051872847 -0.043649707 -0.096399285 0.047469687 -0.04993165 -0.15075174
0.062195256 -0.23161416 -0.41516718 -0.119202055 -0.0138583835 -0.27485946 -0.52182037 -0.022101508
-0.28243124 -0.37378588 -0.39753628 -0.32026812 -0.271402 0.0052055195 -0.14814177 -0.45862135
0.08921491 -0.16537233 -0.22123975 -0.34484354 -0.14873661 -0.5513036 -0.29458356 -0.12777378
-0.0049872156 -0.36422506 -0.016999716 -0.50406843 -0.1447327 -0.3516156 0.08096073 -0.24379313
0.062322613 -0.39684844 -0.31187147 -0.22431882 -0.13668938 -0.30815524 -0.51114666 -0.32287008
-0.28554434 -0.4547228 -0.4230682 -0.18603158 -0.3544044 -0.2565578 -0.3329921 -0.2330795
-0.3845675 -0.11439941 -0.35266304 -0.14640868 -0.057159513 -0.09023428 -0.24641895 -0.38944456
-0.29097065 -0.30422792 -0.2659927 -0.32683554 -0.41967574 -0.2934317 -0.5549558 -0.27926442
0.05113329 -0.09121993 0.0016064858 0.048387337 -0.07051004 -0.0874259 0.011327607 0.1196329
-0.019100765 -0.044548664 -0.0656583 0.057408243 0.08603939 0.014132932 0.046254974 -0.10077406
-0.09026436 0.061072193 0.02200203 -0.12748677 0.057000503 0.034736145 0.0018059572 0.13783567
0.073396616 0.034984652 -0.06474745 0.0894063 0.08238233 0.07692775 0.09840892 -0.093234465
-0.08793983 -0.048992477 -0.028119957 -0.07003207 0.13939033 -0.030544216 -0.014299221 -0.08504928
0.052084703 -0.14137414 0.057866033 -0.13731626 -0.03003868 -0.13699964 0.027906869 -0.09520096
0.050501935 0.034214277 0.00349562 0.041610505 0.13112956 -0.0051016123 0.026560577 0.07602658
0.12750675 0.009909183 -0.12690572 0.046452064 -0.11115805 0.050005462 -0.123791 0.13641709

fc.weight f4 [1, 64]
00000000: 5490 39bc 4dd8 0ebe adfb a03d f99e 94bd
00000010: 6836 f5bd 8a3d 02be 60fc fa3d 8cf0 5a3d
00000020: e37d 16be 2ca0 25be c86c b13d 9014 063e
00000030: 858a 723d 5f78 f93c 1a6a 2c3e c9a6 2fbe
00000040: c276 e93a 7d4c 213e 2b4d 7dbd 4fc0 bfbd
00000050: 7b91 6ebd c1ee ee3d fba7 01bd ce83 063e
00000060: bbb9 25bd a446 8abd 11de 29bd cd96 643e
00000070: e91e b3bd 8059 163e ab16 1abd c4e0 3dbe
00000080: 4745 2fbd 426b 07be 2cff d9bd 6351 05bd
00000090: 5b79 343e 22b6 8bbd 44c4 29be 2d62 143e
000000a0: 4831 3b3e ed97 3bbe 88c5 a7bd 37a1 e7bd
000000b0: 50f5 39be ba4c 29be 17d1 22be 3d69 fcbd
000000c0: 3e26 453e b7eb 37bd aaa2 133e 2e60 0e3e
000000d0: 3947 cbbd 34da 8fbd f7e3 f3bd 91ad c03c
000000e0: 541c f73d 5709 a2bd 0f4f 22be d249 413e
000000f0: c885 06be ff83 263e 8bfa e5bd 5e25 373e
-0.011325914 -0.139497 0.07860503 -0.07256884 -0.11973268 -0.12718788 0.12255168 0.05345206
-0.1469646 -0.16174382 0.086633265 0.13093781 0.059214134 0.030452905 0.1683735 -0.17153467
0.0017811882 0.15751834 -0.06184117 -0.09362852 -0.05824421 0.116666324 -0.03165434 0.13136217
-0.04046033 -0.06751755 -0.041471545 0.22323151 -0.0874613 0.14682579 -0.037619274 -0.18542773
-0.042790677 -0.1322451 -0.10644373 -0.03254832 0.17624418 -0.068218485 -0.16578776 0.14490576
0.18280518 -0.18319674 -0.08191973 -0.11310046 -0.18159986 -0.16533175 -0.15900074 -0.1232476
0.1925287 -0.04490253 0.1441752 0.13903877 -0.09925694 -0.07024041 -0.11908715 0.023520263
0.1206595 -0.07911938 -0.15850471 0.18875816 -0.13136971 0.1626129 -0.11229428 0.17885348
