data/models/uniswap_lstm_1h.pth (torch, 215877 bytes, 10 tensors)

lstm.weight_ih_l0 f4 [256, 10]
0.17175022 0.18676484 0.3056004 0.17129673 -0.2581476 -0.2398169 0.2815598 0.25848868
0.23108366 0.051622324 -0.57849205 -0.56528956 -0.6954854 -0.47667593 -0.039953362 -0.09286442
0.045751028 0.06508522 -0.55081373 -0.48767978 0.0059256237 0.120236605 0.016758539 0.18321891
-0.019040471 -0.04168104 0.08705585 -0.017878514 0.12517908 0.10807645 0.19445294 0.31497177
0.2134162 0.17547709 -0.23896629 -0.030120626 0.26886696 0.23133153 0.26759577 0.080077276
0.30139503 0.45174 0.42629576 0.4329244 -0.09255121 -0.028832968 -0.08656486 -0.04857898
0.29146165 -0.05045711 -0.06943817 0.012837171 0.19176458 0.15217859 -0.28020465 -0.32563812
0.2089794 0.3992946 0.067938365 0.48420888 0.012041898 -0.06488897 -0.07431756 -0.038302943
0.083886765 0.041692037 0.64214444 0.5676936 0.0819797 0.010011511 0.30692926 0.22442831
0.3381367 0.2829376 -0.21616384 0.11152341 0.26946065 0.27443063 0.21504591 0.114823416
0.44576246 0.29086563 0.43865526 0.3585654 0.06934943 0.13226995 -0.07385145 -0.030908145
0.21943031 -0.10738277 0.06706321 0.07589555 0.14769498 0.12681381 -0.010849167 -0.08164612
0.054073337 -0.06766621 -0.056815106 -0.005555747 0.41275236 0.30756387 0.29069492 0.50610703
-0.12258259 -0.12237823 -1.699786e-05 -0.00819746 0.18461572 -0.075886235 0.07578394 0.013389321
-0.0207611 0.07234674 0.15988907 0.35403168 -0.26241678 -0.3078682 0.06606034 -0.4866161
-0.3037316 -0.35903427 -0.3169555 -0.5348611 -0.06975084 0.09690727 -0.06878695 0.0568092
-0.31955037 0.0796059 0.13877171 0.18711695 -0.06123642 0.19775523 -0.27361193 -0.31458223
-0.07121369 -0.20261252 0.049720936 -0.20715797 -0.030695695 -0.30457306 -0.11331777 -0.26201358
0.17550455 0.063057914 -0.0746116 0.046633106 -0.11272087 0.16832896 -0.17842992 -0.23444712
-0.3899669 -0.3752536 -0.12565872 -0.2117267 -0.14581169 -0.021483736 -0.11883574 0.0029451596
-0.08008252 -0.187176 -0.18115553 -0.21035096 0.228837 0.14915405 0.13589826 0.20164217
-0.0977833 -0.0397884 0.18275027 0.20728044 0.19845356 0.09987864 0.07688461 0.112913914
0.20356043 0.27938166 0.14495035 -0.048982847 0.23037393 0.050736398 0.10136585 0.27579686
-0.32066688 -0.23476854 -0.1061067 -0.0035985855 0.12469201 0.042198237 -0.020671897 -0.06302157
-0.11626292 -0.15018623 -0.3112681 -0.53644127 -0.6904634 -0.6881438 -0.13600928 0.17999607
0.093711264 -0.120588556 0.079334974 -0.05670585 -0.6184393 -0.54698926 0.013005059 -0.14240459
0.037059557 0.013886162 0.21761844 0.22706218 0.23912865 0.2308111 0.101425536 0.09113227
-0.073348746 -0.068537585 0.13141519 -0.075857766 -0.27467185 -0.18778378 -0.29289106 -0.09959601
-0.25698966 -0.121869035 0.12581256 0.03278924 -0.13693379 -0.032209948 0.24303116 0.24119653
0.3499069 0.34333074 0.327252 0.37689784 -0.15755099 -0.017424963 0.2337612 -0.046048358
-0.12757504 -0.3179696 -0.22229633 -0.1530753 -0.15014555 -0.29138523 0.115399234 0.036702484
-0.09881657 -0.028352994 0.07556328 -0.020708077 0.026825998 0.050438073 0.3451219 0.26759827
00000000: 4adf 2f3e 483f 3f3e a877 9c3e 6968 2f3e
00000010: ec2b 84be 9092 75be 9b28 903e a158 843e
00000020: 32a1 6c3e ee71 533d 0e18 14bf d1b6 10bf
00000030: 550b 32bf de0e f4be 23a6 23bd b32f bebd
00000040: 6e65 3b3d 664b 853d 2102 0dbf 2ab1 f9be
00000050: bc2b c23b 9c3e f63d 3449 893c bd9d 3b3e
00000060: c3fa 9bbc bdb9 2abd 564a b23d f675 92bc
00000070: f22e 003e 3057 dd3d ac1e 473e fb43 a13e
00000080: c789 5a3e 44b0 333e 94b3 74be 88bf f6bc
00000090: eea8 893e 2ce2 6c3e 5002 893e 8eff a33d
000000a0: 7350 9a3e 774a e73e 7043 da3e 44a8 dd3e
000000b0: 7d8b bdbd 1e33 ecbc eb48 b1bd c1fa 46bd
000000c0: 763a 953e 1dac 4ebd 9935 8ebd ff52 523c
000000d0: ef5d 443e b4d4 1b3e fc76 8fbe 0aba a6be
000000e0: b2fe 553e 5870 cc3e 4523 8b3d 3aea f73e
000000f0: 624b 453c 82e4 84bd ce33 98bd 8ce3 1cbd
00000100: d3cc ab3d 45c5 2a3d 9463 243f 5e54 113f
00000110: f9e4 a73d 5207 243c d525 9d3e 89d0 653e
00000120: 4120 ad3e 32dd 903e 0e5a 5dbe 6366 e43d
00000130: bff6 893e 2c82 8c3e ff34 5c3e 8a28 eb3d
00000140: fa3a e43e 57ec 943e 6c97 e03e e295 b73e
00000150: 1307 8e3d c671 073e 6e3f 97bd 1433 fdbc
00000160: 57b2 603e 7feb dbbd 7058 893d 206f 9b3d
00000170: 5a3d 173e 7bdb 013e b4c0 31bc 1536 a7bd
00000180: 017c 5d3d 9594 8abd f5b6 68bd fc0c b6bb
00000190: 4754 d33e 0379 9d3e f7d5 943e 3b90 013f
000001a0: 950c fbbd 70a1 fabd a096 8eb7 a44e 06bc
000001b0: e70b 3d3e 3e6a 9bbd 9c34 9b3d e25e 5b3c
000001c0: 2f13 aabc 872a 943d f6b9 233e a443 b53e
000001d0: 7e5b 86be e7a0 9dbe a54a 873d bf25 f9be
000001e0: b582 9bbe 57d3 b7be fe47 a2be a8ec 08bf
000001f0: 87d9 8ebd 5277 c63d 2ce0 8cbd c4b0 683d
00000200: 1b9c a3be 6b08 a33d 2c1a 0e3e 969b 3f3e
00000210: 0ad3 7abd 5980 4a3e dd16 8cbe ec10 a1be
00000220: 7cd8 91bd a879 4fbe 2ea8 4b3d 3821 54be
00000230: 8a75 fbbc 00f1 9bbe 2613 e8bd a526 86be
00000240: 77b7 333e 8224 813d f7cd 98bd 5b02 3f3d
00000250: 33da e6bd 6d5e 2c3e 55b6 36be e812 70be
00000260: bea9 c7be 3d21 c0be aeac 00be e2ce 58be
00000270: a94f 15be a9fe afbc 2760 f3bd 9403 413b
00000280: 4e02 a4bd 11ab 3fbe d680 39be 3e66 57be
00000290: 3f54 6a3e d7bb 183e ea28 0b3e 497b 4e3e
000002a0: 9c42 c8bd 29f9 22bd e322 3b3e 5341 543e
000002b0: 6937 4b3e 2c8d cc3d ae75 9d3d 693f e73d
000002c0: 2572 503e 1d0b 8f3e dd6d 143e 3da2 48bd
000002d0: 25e7 6b3e f8d0 4f3d e698 cf3d 3f35 8d3e
000002e0: 732e a4be 2a67 70be 784e d9bd 3fd6 6bbb
000002f0: 865e ff3d 0fd8 2c3d 1c58 a9bc 7411 81bd
00000300: 411b eebd 6bca 19be 885e 9fbe 3754 09bf
00000310: 36c2 30bf 312a 30bf 0446 0bbe e450 383e
00000320: b1eb bf3d 22f7 f6bd 607a a23d 6544 68bd
00000330: 0a52 1ebf 7d07 0cbf 2c13 553c 82d2 11be
00000340: c3cb 173d c982 633c 5ed7 5e3e fd82 683e
00000350: 24de 743e bf59 6c3e 31b8 cf3d 8ea3 ba3d
00000360: de37 96bd 6f5d 8cbd b491 063e 515b 9bbd
00000370: caa1 8cbe 644a 40be d1f5 95be fef8 cbbd
00000380: 2694 83be 7996 f9bd 02d5 003e 034e 063d
00000390: 5f38 0cbe 94ee 03bd 29dd 783e 39fc 763e
000003a0: ff26 b33e 0cc9 af3e 938d a73e c1f8 c03e
000003b0: 0c55 21be ccbe 8ebc 195f 6f3e 349d 3cbd
000003c0: 08a3 02be e9cc a2be a6a1 63be c5bf 1cbe
000003d0: c1bf 19be 7230 95be 6f56 ec3d 5855 163d
000003e0: 5860 cabd 8a44 e8bc ecc0 9a3d fca3 a9bc
000003f0: 32c2 db3c 2798 4e3d d1b3 b03e a402 893e

lstm.weight_hh_l0 f4 [256, 64]
-0.010927488 0.057988018 0.07779881 -0.06387421 -0.06136038 0.054543827 -0.12508342 -0.013025497
-0.06254373 -0.09036756 -0.08148821 -0.13260463 -0.012277297 0.026041439 0.10187755 -0.051337905
-0.07552096 -0.067979485 0.06256176 -0.13306415 0.19816393 -0.061440688 -0.058966484 0.0030602743
-0.21567915 0.02804613 0.03703972 -0.11466957 0.037357055 0.08012799 0.0636319 -0.10704954
-0.13200067 -0.12355624 -0.060500674 0.034128267 0.1560766 -0.0053571886 -0.019651005 -0.003168519
-0.11809318 0.07843487 -0.13772152 0.12179813 -0.13040015 -0.004807488 -0.03053397 -0.052800488
0.03405081 -0.23942676 0.0074997637 0.023711849 0.0037604156 -0.122979306 -0.0144574605 -0.03240513
0.0072947205 0.056794938 0.18656115 -0.0998462 -0.0063523366 -0.014075501 0.19576803 0.14813021
-0.17222546 -0.0035949089 0.3173738 0.04435801 -0.14177279 0.07911545 -0.12075832 0.0811854
-0.07510653 0.016513918 -0.014713418 0.027640956 -0.35146302 0.24787366 -0.45925388 0.27326506
0.26285642 0.03024098 -0.036572006 0.111556925 -0.3214511 -0.012559611 0.38519263 -0.023560755
0.2502713 0.56721425 -0.17938235 -0.18260717 -0.4913177 0.08748373 -0.13734344 0.27605817
0.28362027 0.49829337 -0.059612803 -0.18015599 0.05185689 0.29789987 0.12146703 -0.12591618
0.22412995 -0.32173285 -0.020070948 -0.28508246 -0.13295235 -0.12743925 -0.21241802 -0.27778116
-0.5541686 0.31890425 -0.15042236 0.038097538 0.28095424 0.32119286 0.42146447 -0.22810723
-0.13631022 0.49413607 0.023603871 -0.00059986534 0.40857822 -0.081699334 -0.21740982 -0.09866434
-0.16660605 0.15909243 0.08303591 0.061033223 0.2083689 0.08026972 -0.23314758 -0.19072296
-0.23312728 0.10606677 0.18222007 -0.003294274 0.14186953 0.16390677 -0.20163855 -0.011603707
0.14782822 0.13539864 -0.027554251 -0.26836586 -0.114364974 -0.31202355 0.055679493 -0.11907551
-0.04198536 0.18692827 -0.22239655 -0.047027715 0.07949196 0.02239733 0.14352527 -0.0798518
0.17759563 0.104981124 0.052097775 0.17329942 -0.0052251816 0.07712415 0.002412141 0.16813228
0.021186106 -0.2494935 0.05242463 -0.07507383 -0.1249856 0.08961743 0.16013828 0.00797043
-0.036611907 0.1066171 -0.124193385 0.13823296 -0.25721893 -0.07973957 0.06514549 0.033855744
-0.13286597 -0.026465852 0.12783007 0.21413957 0.292614 0.2803473 0.1570965 0.23398577
-0.1240205 0.00615726 0.22943623 0.058095723 0.08551732 0.45375243 -0.23347248 0.103430346
-9.494362e-05 0.1290522 0.13365169 0.07161677 0.35038128 0.13058685 0.05074738 -0.193376
0.13506998 0.03919179 0.021402884 -0.18403031 0.1224978 -0.038138255 -0.09228766 -0.040666755
-0.14740707 0.26818267 -0.099792406 0.18029673 0.151074 -0.19087686 -0.0027719385 -0.24265192
0.0061207335 0.1977179 0.04744529 0.21223074 0.02791779 0.08750915 -0.0944245 0.25927323
0.00078510575 0.07577602 0.12496655 -0.069073595 -0.17421608 -0.14535223 0.11941178 0.111442
0.02593513 -0.26208195 -0.22301504 -0.050674 0.13019499 -0.25237027 -0.15136337 0.27687627
-0.41483518 -0.17124444 -0.08432079 0.07287615 -0.007030732 0.21342063 0.16862506 0.016218118
00000000: 3509 33bc d884 6d3d fc54 9f3d 7bd0 82bd
00000010: 0655 7bbd 5969 5f3d de15 00be e568 55bc
00000020: ed16 80bd a112 b9bd 4ae3 a6bd 82c9 07be
00000030: b726 49bc db54 d53c 2da5 d03d b247 52bd
00000040: bcaa 9abd d438 8bbd 6120 803d f841 08be
00000050: 7ceb 4a3e 3ba9 7bbd d786 71bd e28e 483b
00000060: ffda 5cbe ffc0 e53c f6b6 173d e1d7 eabd
00000070: b603 193d 251a a43d 7151 823d ca3c dbbd
00000080: 2f2b 07be 0e0b fdbd 8ecf 77bd 15ca 0b3d
00000090: 8bd2 1f3e 5b8b afbb 25fb a0bc eda6 4fbb
000000a0: d6da f1bd 76a2 a03d df06 0dbe 4c71 f93d
000000b0: 9e87 05be 2288 9dbb 6022 fabc 5345 58bd
000000c0: dd78 0b3d 4a2c 75be 94c0 f53b 5a3f c23c
000000d0: 4e71 763b 93dc fbbd fcde 6cbc 3ebb 04bd
000000e0: 8d08 ef3b cfa1 683d e309 3f3e 2a7c ccbd
000000f0: 4327 d0bb ee9c 66bc 6a77 483e 72af 173e
00000100: df5b 30be 9098 6bbb d27e a23e bfb0 353d
00000110: e32c 11be 4807 a23d 2350 f7bd 8844 a63d
00000120: 74d1 99bd 3248 873c 8c10 71bc 496f e23c
00000130: f6f2 b3be 98d2 7d3e 5323 ebbe 66e9 8b3e
00000140: 1e95 863e efbb f73c 87cc 15bd f577 e43d
00000150: 3d95 a4be d4c6 4dbc f837 c53e 7c02 c1bc
00000160: 8f23 803e f434 113f 02b0 37be 60fd 3abe
00000170: fe8d fbbe ab2a b33d c2a3 0cbe 7f57 8d3e
00000180: ad36 913e 4f20 ff3e 8e2c 74bd d07a 38be
00000190: e467 543d 5586 983e b5c3 f83d 2cf0 00be
000001a0: 5282 653e 2bba a4be d46b a4bc 54f6 91be
000001b0: a924 08be 6f7f 02be 1c84 59be 5539 8ebe
000001c0: fedd 0dbf 6b47 a33e 5208 1abe 2a0c 1c3d
000001d0: 3cd9 8f3e 6473 a43e 31ca d73e f194 69be
000001e0: e894 0bbe 67ff fc3e e85c c13c 4840 1dba
000001f0: 2a31 d13e fb51 a7bd aea0 5ebe 8810 cabd
00000200: c79a 2abe 20e9 223e bb0e aa3d f9fd 793d
00000210: a85e 553e 7364 a43d 3dbe 6ebe e14c 43be
00000220: ebb8 6ebe 8939 d93d e697 3a3e bfe4 57bb
00000230: 3f46 113e 2dd7 273e 567a 4ebe 7a1d 3ebc
00000240: 4860 173e f1a5 0a3e 74b9 e1bc 4067 89be
00000250: 2f38 eabd 8dc1 9fbe 2e10 643d dcdd f3bd
00000260: d7f8 2bbd 206a 3f3e ecbb 63be 22a0 40bd
00000270: aecc a23d 9b7a b73c 4af8 123e 5789 a3bd
00000280: a1db 353e 5800 d73d 7a64 553d 6775 313e
00000290: 0038 abbb 44f3 9d3d 0315 1e3b de2a 2c3e
000002a0: 7c8e ad3c 397b 7fbe 35bb 563d 4fc0 99bd
000002b0: 73f8 ffbd 5889 b73d 4afb 233e 6896 023c
000002c0: 5ef6 15bd 115a da3d 1a59 febd f18c 0d3e
000002d0: 33b2 83be 804e a3bd 006b 853d 52ac 0a3d
000002e0: 040e 08be eace d8bc e3e5 023e 6747 5b3e
000002f0: 81d1 953e ae89 8f3e e8dd 203e f799 6f3e
00000300: 76fe fdbd d7c2 c93b 55f1 6a3e c8f5 6d3d
00000310: b423 af3d 3d52 e83e 6913 6fbe 4ad3 d33d
00000320: 781c c7b8 4326 043e fddb 083e d0ab 923d
00000330: 2d65 b33e 8fb8 053e 7cdc 4f3d 5c04 46be
00000340: c94f 0a3e 9287 203d 1a55 af3c 7172 3cbe
00000350: 20e0 fa3d dc36 1cbd 5001 bdbd 2f92 26bd
00000360: e1f1 16be 3d4f 893e f65f ccbd b59f 383e
00000370: 25b3 1a3e 3975 43be 69a9 35bb bf79 78be
00000380: 6f90 c83b 9076 4a3e fe55 423d 0453 593e
00000390: d9b3 e43c ff37 b33d a261 c1bd 76bf 843e
000003a0: 8ecf 4d3a 7530 9b3d 76ee ff3d 7576 8dbd
000003b0: b365 32be 37d7 14be 2a8e f43d b43b e43d
000003c0: e975 d43c 9b2f 86be 0e5e 64be 8a8f 4fbd
000003d0: d651 053e ad36 81be 00ff 1abe bac2 8d3e
000003e0: 4765 d4be b45a 2fbe 61b0 acbd 1740 953d
000003f0: 0e62 e6bb f08a 5a3e 0cac 2c3e dcdb 843c

lstm.bias_ih_l0 f4 [256]
0.038048103 0.38634428 0.13511705 -0.047147904 -0.022858143 -0.018329246 -0.14681248 -0.13674024
-0.035160813 -0.101004556 -0.031678375 -0.23724371 0.10739346 -0.05704512 -0.016088793 0.01223458
0.09388771 -0.034385767 -0.11379292 -0.01970725 0.21186785 -0.04781519 -0.0041217837 0.015750594
0.004666075 -0.16420762 0.13025245 0.100603715 -0.0042519188 -0.010854714 0.14571638 -0.059999835
-0.13402031 -0.15788871 -0.010409398 0.051688332 -0.16434872 0.3091574 0.05684234 -0.08313418
-0.1723919 -0.09881705 -0.009024168 -0.11119673 -0.24926902 -0.039541803 0.0155559 0.025969971
-0.010042446 -0.13339317 -0.0055216635 -0.1608906 0.4419489 -0.02362111 0.045109704 -0.06937944
-0.038309418 -0.03016603 0.25556672 -0.1736919 0.104220636 -0.13252705 0.07652477 0.011919653
0.071579024 -0.38834947 -0.37024292 0.020500144 0.22479369 -0.26050508 0.008560472 -0.16592218
-0.06586927 -0.06484266 -0.10836557 -0.13602993 0.0022728709 -0.07835105 -0.07900644 0.02110362
0.020238115 -0.027226603 -0.14914905 -0.07223739 0.0194969 0.18372335 -0.008699898 -0.010348335
-0.10654872 -0.01776447 0.010953906 0.13548264 0.11536719 -0.06992399 -0.21120271 0.028283378
0.085416295 -0.13712841 -0.056180187 -0.14396627 -0.043035466 -0.3258586 -0.26400703 0.10251452
0.08018153 0.16146116 0.08055077 -0.0023198174 -0.14569756 -0.11843034 -0.047297254 0.02810689
0.16451702 -0.076886654 0.112696335 0.03527216 -0.34410143 -0.12278117 -0.20126632 0.049779095
-0.12360945 -0.089207284 0.10509187 0.051476628 -0.12422644 -0.052938685 -0.10254233 -0.040968988
0.10014601 -0.04755953 0.03945078 0.099751994 -0.026523659 -0.047387667 -0.017083809 -0.023721887
-0.074939154 -0.029119257 -0.014324079 0.023509776 0.14213206 -0.10813811 -0.081506856 -0.103339836
0.00213473 0.07730904 0.03919383 0.07276984 0.03507221 -0.09149833 -0.035240952 0.06726761
0.03101513 0.09684034 0.031821694 0.117811605 0.077946424 -0.053264182 0.22256117 -0.13854009
-0.115661345 0.0049318476 -0.067111865 0.13787867 0.064742684 -0.0890606 0.026803408 -0.05551374
-0.013409542 -0.09482282 0.07598242 0.017917227 -0.07326949 0.11086822 0.059970338 0.014620374
-0.05244128 0.078431666 -0.06594705 0.018343166 0.07544268 -0.071876705 -0.06928988 0.04855192
0.06728776 -0.023985643 0.07738679 -0.059064757 0.035981856 -0.083025865 -0.063822195 0.04807078
-0.0512736 0.4135518 0.1371586 -0.0021675285 0.068494745 0.08605216 0.2286446 -0.038805906
0.030324535 -0.1458147 0.059515238 0.06702465 -0.03324067 -0.107469656 -0.12444724 0.0015071627
-0.012098447 0.038902853 0.028165672 0.1480803 -0.046922598 -0.042374007 -0.01691796 0.038157158
-0.04679934 0.1864664 -0.08675395 0.057437215 -0.0047048 -0.09968432 0.22204621 -0.052999865
-0.13179074 -0.22098723 0.15816346 0.0007807954 -0.07900613 0.29876605 0.07689064 -0.08805194
-0.12558877 0.14170681 0.0040157763 -0.077432856 -0.058194965 0.277639 -0.10437793 0.13066424
-0.16144717 0.024676759 -0.053682607 0.023647059 0.6116004 0.06493005 -0.09562323 -0.08825761
-0.15754554 -0.1557805 -0.04513505 -0.036926504 -0.06855371 0.13693641 0.16863415 -0.049210865
00000000: 54d8 1b3d ebce c53e 205c 0a3e 291e 41bd
00000010: 0041 bbbc 3727 96bc 0356 16be a205 0cbe
00000020: c904 10bd 7adb cebd 2fc1 01bd 04f0 72be
00000030: 1af1 db3d 25a8 69bd a5cc 83bc 8c73 483c
00000040: 3348 c03d 17d8 0cbd 430c e9bd 1971 a1bc
00000050: e3f3 583e dcd9 43bd 0710 87bb 6407 813c
00000060: e0e5 983b 0b26 28be e660 053e 5209 ce3d
00000070: ae53 8bbb f8d7 31bc ad36 153e 63c2 75bd
00000080: 9f3c 09be 94ad 21be 2e8c 2abc 25b7 533d
00000090: 084b 28be e149 9e3e 83d3 683d 4142 aabd
000000a0: 8187 30be 9860 cabd 1bda 13bc 1cbb e3bd
000000b0: 6140 7fbe 96f6 21bd 2cde 7e3c fabe d43c
000000c0: 1289 24bc 3898 08be 12ef b4bb 81c0 24be
000000d0: 2047 e23e 0f81 c1bc f4c4 383d cf16 8ebd
000000e0: 56ea 1cbd c01e f7bc a4d9 823e 4adc 31be
000000f0: a171 d53d 2cb5 07be 05b9 9c3d a64a 433c
00000100: 0698 923d bed5 c6be 7b90 bdbe ebef a73c
00000110: 5130 663e ec60 85be 3941 0c3c 81e7 29be
00000120: 78e6 86bd 3bcc 84bd c5ee ddbd 6e4b 0bbe
00000130: 72f4 143b 8476 a0bd 21ce a1bd 80e1 ac3c
00000140: 67ca a53c 530a dfbc 87ba 18be 32f1 93bd
00000150: f6b7 9f3c f921 3c3e 048a 0ebc 108c 29bc
00000160: 3736 dabd cb86 91bc 0378 333c f6bb 0a3e
00000170: a245 ec3d 4f34 8fbd 8645 58be 8bb2 e73c
00000180: bdee ae3d 646b 0cbe 321d 66bd e56b 13be
00000190: f545 30bd f0d6 a6be ee2b 87be 22f3 d13d
000001a0: 3736 a43d 1356 253e cdf7 a43d 1408 18bb
000001b0: be31 15be 9b8b f2bd c4ba 41bd 6c40 e63c
000001c0: 2677 283e c076 9dbd 56cd e63d 8a79 103d
000001d0: 102e b0be b274 fbbd c218 4ebe 2ae5 4b3d
000001e0: f426 fdbd 4fb2 b6bd 683a d73d 28d9 523d
000001f0: 6f6a febd 3cd6 58bd b701 d2bd 19cf 27bd
00000200: 5a19 cd3d c8cd 42bd 2497 213d c64a cc3d
00000210: 2548 d9bc 9219 42bd 58f3 8bbc 6754 c2bc
00000220: b379 99bd 828b eebc 8baf 6abc 9397 c03c
00000230: 118b 113e 8377 ddbd 11ed a6bd d6a3 d3bd
00000240: d4e6 0b3b 3454 9e3d b689 203d 5b08 953d
00000250: e1a7 0f3d 7a63 bbbd d158 10bd 9ac3 893d
00000260: 7113 fe3c 3a54 c63d 7757 023d 3647 f13d
00000270: 60a2 9f3d 8b2b 5abd 13e7 633e 74dd 0dbe
00000280: dbdf ecbd 569b a13b f271 89bd 1130 0d3e
00000290: d097 843d 6765 b6bd d292 db3c 6062 63bd
000002a0: b2b3 5bbc 7732 c2bd ac9c 9b3d 26c7 923c
000002b0: 500e 96bd e10e e33d 75a3 753d 4b8a 6f3c
000002c0: abcc 56bd c8a0 a03d 3f0f 87bd 6844 963c
000002d0: b181 9a3d 1834 93bd dae7 8dbd 61de 463d
000002e0: 2ace 893d 8a7d c4bc f77c 9e3d e3ed 71bd
000002f0: b661 133d 7709 aabd 36b5 82bd dee5 443d
00000300: 4404 52bd 10bd d33e 4e73 0c3e 180d 0ebb
00000310: f946 8c3d 1d3c b03d cf21 6a3e f1f2 1ebd
00000320: 296b f83c 7350 15be 40c6 733d 3844 893d
00000330: 5e27 08bd 0d19 dcbd 32de febd fd8b c53a
00000340: 9138 46bc 9958 1f3d b2bb e63c 5da2 173e
00000350: e931 40bd 5e90 2dbd 8997 8abc ae4a 1c3d
00000360: aab0 3fbd 0cf1 3e3e 0eac b1bd 4943 6b3d
00000370: b92a 9abb 4b27 ccbd 1560 633e 6316 59bd
00000380: 27f4 06be 7a4a 62be 9af5 213e 4bae 4c3a
00000390: f7cd a1bd ddf7 983e d778 9d3d 9354 b4bd
000003a0: 589a 00be 971b 113e c696 833b 1e95 9ebd
000003b0: d85d 6ebd b326 8e3e 19c4 d5bd d9cc 053e
000003c0: 6852 25be ea26 ca3c 4be2 5bbd 7ab7 c13c
000003d0: d891 1c3f 0cfa 843d 1dd6 c3bd 68c0 b4bd
000003e0: 9e53 21be ec84 1fbe 88df 38bd 3f40 17bd
000003f0: e365 8cbd 0f39 0c3e 6eae 2c3e 5591 49bd

lstm.bias_hh_l0 f4 [256]
-0.07913579 0.5296396 0.19473378 0.016209228 0.0032676952 0.045634568 -0.11342424 -0.16756003
-0.10206224 0.0848645 -0.016297795 -0.18643823 0.11060343 0.0129681425 -0.07179989 0.11503477
-0.06135809 0.029986253 -0.022751277 -0.038375445 0.060868144 0.015617255 -0.122339666 -0.1820446
-0.12147462 -0.036856577 0.019988015 0.069978 0.13574673 0.05427144 0.06219043 -0.17139864
0.020846495 -0.16780671 0.020871738 -0.036223445 -0.09504643 0.20300923 0.053535294 -0.2055428
-0.20936498 -0.0023526154 -0.062158104 -0.06796629 -0.09385478 0.10760677 0.14571786 -0.053562835
0.1329202 0.046516996 -0.03516945 -0.009240045 0.46481386 0.07433705 0.10219385 0.13015516
-0.19238065 -0.114867195 0.23006344 -0.10219754 -0.0069152536 -0.09260399 0.20860574 -0.06517102
-0.14945777 -0.52452093 -0.19649483 0.07377618 0.1704485 -0.26076964 0.04520741 -0.13429175
0.0065898243 -0.11936374 -0.031918455 0.052070428 0.0037749866 -0.03484652 -0.09954206 0.17754689
-0.094799995 0.06315495 -0.17853874 -0.08069024 -0.18605159 0.15738659 0.07833956 0.11635085
-0.0001205414 0.102818966 -0.027152989 0.0919808 0.075930625 -0.14002444 -0.10386474 -0.10155309
0.071379565 0.014097825 -0.005919773 -0.0011160345 -0.083641484 -0.18461075 -0.2512819 0.09043196
0.1326578 0.10702464 -0.05455111 -0.03260333 -0.034797207 -0.025053859 0.19288975 0.17806605
0.1410596 -0.0535409 -0.011098153 0.08890902 -0.51673067 -0.06870504 -0.23271799 -0.0067481357
-0.056525137 -0.13099295 0.004129504 -0.024601068 0.03539431 -0.10823287 -0.045048907 0.10661383
-0.090093434 -0.117326446 0.029436544 -0.017772902 0.045845676 -0.1183243 -0.060285334 0.009531473
0.06060679 0.12887795 -0.010513281 -0.092686996 -0.04730889 0.01822382 0.049018465 -0.07083381
-0.11845996 0.06215819 0.006402678 0.060994767 0.022907237 -0.066034295 -0.0031122887 -0.02752472
-0.067104794 0.014002783 -0.030501489 0.08999729 -0.0014001983 -0.018863633 0.14409973 0.08491199
0.03540713 -0.026647413 0.06633047 -0.07437822 -0.039239913 0.088169254 0.038130287 0.085427925
-0.13655886 0.004779301 0.09379853 0.03626699 -0.047186535 0.19852415 0.1571184 0.108278304
0.022438033 -0.010008119 0.05513621 0.109214105 0.0542302 -0.0009485813 0.02308572 -0.019541213
0.11133009 -0.0766134 -0.030480832 0.031942155 0.04352714 0.112481765 0.01729914 -0.05695191
-0.11886429 0.3645506 -0.036651343 0.045570143 0.030979907 0.17605887 0.20488457 -0.18864906
0.054659024 -0.034451935 0.054194547 -0.042220704 -0.030806893 -0.017682467 -0.006602891 0.06451375
0.13828696 -0.07504533 -0.14749464 0.20591085 0.123291746 0.022408238 0.0022451035 0.14095105
-0.13247478 0.322324 -0.08218318 0.0017067459 -0.124155864 -0.2335574 0.06885648 0.03585225
-0.0949204 -0.034701552 0.14153355 -0.016335392 -0.0717261 0.21962392 0.21017334 -0.12144288
-0.008860277 0.06429401 0.0779223 -0.0084899645 -0.059019435 0.16317241 0.02560029 0.03512894
-0.3197759 0.1361526 -0.12691759 0.05900591 0.45454004 -0.08219098 -0.12768096 -0.0146622695
-0.1566845 0.069075786 -0.027797936 -0.072823144 0.13426748 0.051726647 -0.021696964 -0.12250214
00000000: f211 a2bd 7696 073f 4b68 473e 37c9 843c
00000010: d426 563b 50eb 3a3d f84a e8bd db94 2bbe
00000020: 0206 d1bd 70cd ad3d f482 85bc aae9 3ebe
00000030: 0d84 e23d 5578 543c d20b 93bd 5997 eb3d
00000040: 9f52 7bbd bba5 f53c e360 babc 922f 1dbd
00000050: e050 793d 84df 7f3c 388d fabd e669 3abe
00000060: b0c7 f8bd ecf6 16bd e8bd a33c a050 8f3d
00000070: 3101 0b3e bb4b 5e3d 64bb 7e3d 2083 2fbe
00000080: 45c6 aa3c 86d5 2bbe 35fb aa3c 095f 14bd
00000090: b4a7 c2bd a7e1 4f3e d347 5b3d d079 52be
000000a0: c663 56be 562e 1abb 7f99 7ebd e931 8bbd
000000b0: ef36 c0bd f060 dc3d 1037 153e b464 5bbd
000000c0: 3c1c 083e 9b88 3e3d d70d 10bd 8f63 17bc
000000d0: 15fc ed3e 063e 983d 024b d13d 6547 053e
000000e0: 6fff 44be 7e3f ebbd c095 6b3e f24c d1bd
000000f0: 5a99 e2bb 29a7 bdbd be9c 553e 6278 85bd
00000100: 750b 19be 0147 06bf f135 49be f717 973d
00000110: 0d8a 2e3e 9983 85be 682b 393d c783 09be
00000120: 74ef d73b fa74 f4bd edbc 02bd cd47 553d
00000130: c465 773b 39bb 0ebd b5dc cbbd dace 353e
00000140: 8026 c2bd 6257 813d dcd2 36be ed40 a5bd
00000150: 4f84 3ebe f329 213e 7e70 a03d 5b49 ee3d
00000160: 2ccb fcb8 c092 d23d f26f debc 6e60 bc3d
00000170: 8481 9b3d 9162 0fbe 09b7 d4bd 11fb cfbd
00000180: 732f 923d 90fa 663c a8fa c1bb e747 92ba
00000190: 3a4c abbd 9a0a 3dbe 05a8 80be 6434 b93d
000001a0: 72d7 073e bc2f db3d fc70 5fbd 128b 05bd
000001b0: 8487 0ebd c03d cdbc e484 453e f256 363e
000001c0: ee71 103e b44d 5bbd 07d5 35bc ef15 b63d
000001d0: 7648 04bf 3ab5 8cbd a04d 6ebe 771f ddbb
000001e0: e786 67bd 0423 06be ca50 873b 2e88 c9bc
000001f0: a0f9 103d 32a9 ddbd 3485 38bd 5a58 da3d
00000200: e882 b8bd d948 f0bd e824 f13c 7a98 91bc
00000210: adc8 3b3d 0354 f2bd c1ed 76bd e529 1c3c
00000220: d33e 783d 95f8 033e e63f 2cbc aed2 bdbd
00000230: f7c6 41bd 1f4a 953c 96c7 483d 5111 91bd
00000240: 239b f2bd 9699 7e3d 8ecd d13b a6d5 793d
00000250: f5a7 bb3c fd3c 87bd 8af7 4bbb 867b e1bc
00000260: 3d6e 89bd ee6b 653c 42de f9bc 8050 b83d
00000270: dc86 b7ba e887 9abc e18e 133e 56e6 ad3d
00000280: 1107 113d ad4b dabc 45d8 873d 9c53 98bd
00000290: 08ba 20bd 1592 b43d 812e 1c3d d6f4 ae3d
000002a0: 16d6 0bbe af9b 9c3b 7219 c03d b28c 143d
000002b0: ab46 41bd ea49 4b3e a5e3 203e 04c1 dd3d
000002c0: f7cf b73c 18f9 23bc 82d6 613d a5ab df3d
000002d0: 7c20 5e3d 37aa 78ba 441e bd3c e514 a0bc
000002e0: 0801 e43d 7ce7 9cbd f0b2 f9bc c7d5 023d
000002f0: 8449 323d d75c e63d edb6 8d3c 6846 69bd
00000300: 1f6f f3bd 60a6 ba3e b81f 16bd c2a7 3a3d
00000310: 93c9 fd3c c748 343e 43cd 513e 382d 41be
00000320: 24e2 5f3d 791d 0dbd 1afb 5d3d 9eef 2cbd
00000330: bd5e fcbc d2da 90bc 105d d8bb c91f 843d
00000340: 199b 0d3e 5eb1 99bd d608 17be 4bda 523e
00000350: 6280 fc3d 7b91 b73c 9622 133b 7955 103e
00000360: 78a7 07be a707 a53e a84f a8bd e4b4 df3a
00000370: 6e45 febd ac29 6fbe a004 8d3d cfd9 123d
00000380: a065 c2bd 3723 0ebd 2cee 103e cdd1 85bc
00000390: 22e5 92bd 18e5 603e ae37 573e 0bb7 f8bd
000003a0: b22a 11bc 94ac 833d ba95 9f3d 7e19 0bbc
000003b0: 5dbe 71bd ab16 273e b3b7 d13c 5de3 0f3d
000003c0: abb9 a3be 966b 0b3e aff6 01be 2eb0 713d
000003d0: 79b9 e83e bf53 a8bd ccbe 02be 043a 70bc
000003e0: e771 20be 9b77 8d3d 7fb8 e3bc 4d24 95bd
000003f0: 6a7d 093e 52df 533d d5bd b1bc 67e2 fabd

lstm.weight_ih_l1 f4 [256, 64]
-0.024024658 0.2006174 0.24861382 0.11867799 0.055905078 0.29750535 -0.19596994 0.19186218
-0.03544831 0.052167762 0.15034966 -0.018660454 -0.0822887 0.20055604 -0.18430707 0.16683011
0.122359 -0.019268783 -0.026536759 0.045872606 -0.19128971 -0.18242656 0.11046612 -0.073553175
0.0753272 0.018415947 0.0039214073 -0.06078845 -0.04389453 -0.01809134 -0.32063863 0.121465445
-0.00045413818 -0.047958765 0.28543022 -0.2306865 -0.0022642503 0.15998366 0.30093998 -0.106845155
-0.023229796 0.1081558 -0.06773642 -0.08468121 -0.23275281 -0.31218368 -0.01189105 -0.16683733
0.038374044 0.007921728 -0.031613518 0.18084697 0.14458592 -0.01684382 0.020490676 -0.0060761976
-0.19725275 0.018627312 -0.18774892 -0.10287112 0.12716271 -0.044640515 -0.054102678 0.08816879
0.050256368 0.20222095 0.021350328 -0.05773469 -0.0359587 0.27798885 0.08735368 -0.0026590442
0.012825825 -0.07314376 0.07167872 0.061705194 -0.20061365 0.17217627 0.07492774 0.0017470466
0.22632182 0.071835466 0.083338715 0.099161044 -0.00015897315 -0.020154923 0.020661036 0.058747385
-0.030188195 -0.056222815 -0.07064364 -0.1027114 -0.012251979 -0.027096955 -0.16248062 0.08507141
0.06223869 -0.02370918 0.022347068 -0.16773224 -0.035409924 -0.024408521 0.12681356 -0.12943037
0.060809914 -0.0033466746 -0.30988464 -0.00049158506 -0.2097226 -0.26079306 -0.16609788 -0.24805644
0.010945111 -0.037704 0.012543084 0.02197677 0.26759234 0.0738776 0.14427805 -0.18918167
-0.12038814 0.080518536 -0.1554569 0.020193186 -0.010831981 0.027075669 0.06959191 -0.02954256
0.042815115 0.25673348 0.02794649 0.056777157 -0.051066976 -0.06505164 0.06806777 0.20836174
0.18747626 0.21128672 0.042700678 0.43588245 -0.29252383 0.10208618 -0.033530314 0.037514824
0.13148054 -0.06914148 0.18772075 0.105141796 0.06594824 0.11930993 0.16067538 0.1367694
-0.02149084 0.008751343 0.04999884 -0.110414036 -0.11237929 -0.022847056 -0.23462054 0.38494503
0.27909878 0.0038714372 0.20041448 -0.33831236 0.073172204 -0.382594 0.23484488 -0.33626774
0.22035702 -0.1715311 -0.2457622 0.073552914 0.21591745 -0.15022518 -0.18269111 -0.2383217
-0.33537745 0.12902367 0.19144747 -0.1177512 0.22551836 0.09699796 0.2309676 -0.06581563
0.036765758 0.24560125 -0.24461003 -0.060471967 -0.044545382 -0.23106545 -0.19023517 -0.13068192
-0.1292727 0.43321997 0.031883456 0.06757485 0.17352659 0.18632378 -0.03481642 -0.003909395
-0.039216336 0.0028818154 0.044473514 0.2211709 -0.22660315 -0.12062053 -0.12354975 -0.026878685
0.0094709825 -0.02016604 0.16988182 0.1477811 -0.13134871 -0.060221437 0.1413429 0.06256514
0.15885039 0.066553004 -0.17592207 -0.21482818 -0.093052246 -0.17732342 -0.3141079 0.1732382
-0.14988323 0.16407102 0.050173756 -0.21216217 -0.22711521 -0.01533904 0.19455007 -0.044896357
0.003909659 -0.0549148 -0.07788563 -0.086138055 -0.01016899 -0.24176447 -0.14438707 0.0027625929
-0.1811286 -0.044697795 -0.113224864 0.104220696 0.12695473 0.10906839 0.023437511 -0.16230218
0.038511686 0.13485588 -0.34571052 -0.118734926 -0.17861359 -0.100611314 -0.15364158 0.0019337251
00000000: 5ccf c4bc a66e 4d3e 9f94 7e3e 720d f33d
00000010: b9fc 643d 9f52 983e 58ac 48be 8577 443e
00000020: 3f32 11bd ddad 553d 43f5 193e cfdd 98bc
00000030: fa86 a8bd 905e 4d3e feba 3cbe 83d5 2a3e
00000040: 5b97 fa3d 91d9 9dbc 9e63 d9bc eae4 3b3d
00000050: 73e1 43be 07ce 3abe 103c e23d 0ca3 96bd
00000060: 2645 9a3d 0add 963c 267f 803b 4ffd 78bd
00000070: c0ca 33bd 4a34 94bc bf2a a4be e0c2 f83d
00000080: 6519 eeb9 6970 44bd e923 923e 1539 6cbe
00000090: d163 14bb c2d2 233e ce14 9a3e a2d1 dabd
000000a0: 6a4c bebc ca80 dd3d 64b9 8abd 586d adbd
000000b0: c156 6ebe 8ad6 9fbe aed2 42bc 68d7 2abe
000000c0: 1a2e 1d3d 23ca 013c 2d7d 01bd f32f 393e
000000d0: 550e 143e 0dfc 89bc 10dc a73c d71a c7bb
000000e0: a0fc 49be 4e98 983c 4141 40be 18ae d2bd
000000f0: f136 023e f9d8 36bd c59a 5dbd d791 b43d
00000100: 9fd9 4d3d 0213 4f3e e2e6 ae3c 367b 6cbd
00000110: 6e49 13bd 8e54 8e3e 7ce6 b23d 5c43 2ebb
00000120: 6923 523c 65cc 95bd 4bcc 923d 96be 7c3d
00000130: aa6d 4dbe fa4e 303e b773 993d 28fd e43a
00000140: e8c0 673e 791e 933d 7dad aa3d f214 cb3d
00000150: 08b2 26b9 f01b a5bc 5541 a93c 19a1 703d
00000160: 3c4d f7bc e549 66bd 9dad 90bd 5b5a d2bd
00000170: 86bc 48bc 6ffa ddbc 5261 26be eb39 ae3d
00000180: ffed 7e3d c139 c2bc 3311 b73c 00c2 2bbe
00000190: ff09 11bd 61f4 c7bc 6adb 013e 6589 04be
000001a0: d113 793d e253 5bbb 33a9 9ebe b7dd 00ba
000001b0: 85c1 56be ab86 85be 9015 2abe 8202 7ebe
000001c0: 1f53 333c 826f 1abd 8281 4d3c a108 b43c
000001d0: dd01 893e 244d 973d a0bd 133e d7b8 41be
000001e0: 0f8e f6bd e7e6 a43d 1830 1fbe 2e6c a53c
000001f0: 9f78 31bc cbcd dd3c 3486 8e3d 3d03 f2bc
00000200: e75e 2f3d 9272 833e 0af0 e43c 2a8f 683d
00000210: 9b2b 51bd cb39 85bd 1d67 8b3d c85c 553e
00000220: c7f9 3f3e 8c5b 583e e8e6 2e3d fc2b df3e
00000230: afc5 95be 8f12 d13d 1557 09bd 25a9 193d
00000240: d6a2 063e 0c9a 8dbd de39 403e 9554 d73d
00000250: df0f 873d c458 f43d 1688 243e 470d 0c3e
00000260: 8f0d b0bc cb61 0f3c 95cb 4c3d c120 e2bd
00000270: 1d27 e6bd c029 bbbc 5e40 70be 8417 c53e
00000280: 09e6 8e3e f0b7 7d3b 7439 4d3e 4737 adbe
00000290: 4fdb 953d 5ce3 c3be 2d7b 703e 492b acbe
000002a0: 45a5 613e d9a5 2fbe 16a9 7bbe e9a2 963d
000002b0: 7719 5d3e a1d4 19be 6113 3bbe 9b0a 74be
000002c0: 98b6 abbe c81e 043e ce0a 443e 8b27 f1bd
000002d0: 49ee 663e dea6 c63d c582 6c3e 58ca 86bd
000002e0: b197 163d e57e 7b3e 0d7b 7abe 74b1 77bd
000002f0: 3875 36bd 6c9c 6cbe 02cd 42be 7bd1 05be
00000300: 1060 04be 02cf dd3e 3a98 023d af64 8a3d
00000310: f4b0 313e a9cb 3e3e aa9b 0ebd 621a 80bb
00000320: 4fa1 20bd d7dc 3c3b dc29 363d a07a 623e
00000330: a80a 68be e507 f7bd a707 fdbd b030 dcbc
00000340: 2e2c 1b3c 4033 a5bc 80f5 2d3e ee53 173e
00000350: 4780 06be c1aa 76bd 31bc 103e 2722 803d
00000360: ada9 223e f14c 883d ea24 34be ebfb 5bbe
00000370: 2d92 bebd 4594 35be c0d2 a0be 5b65 313e
00000380: fd7a 19be 3c02 283e ff82 4d3d 0a41 59be
00000390: e490 68be 9950 7bbc 2238 473e 3ee5 37bd
000003a0: 991c 803b 57ee 60bd 8082 9fbd 2669 b0bd
000003b0: d69b 26bc 1b91 77be 34da 13be 9e0c 353b
000003c0: c779 39be 0915 37bd 70e2 e7bd a971 d53d
000003d0: 6c00 023e 405f df3d 0600 c03c 8b32 26be
000003e0: 6ebe 1d3d a917 0a3e f800 b1be 4c2b f3bd
000003f0: 7be6 36be 4e0d cebd 3854 1dbe 0c75 fd3a

lstm.weight_hh_l1 f4 [256, 64]
-0.020149628 -0.023407774 0.011793809 -0.05306789 0.024383781 0.010429249 0.16637713 0.07176893
-0.05076622 0.08566116 -0.009220097 0.108456664 -0.08948521 -0.08501981 0.21438117 -0.027770715
0.0546834 -0.06183604 -0.113442756 0.113086686 0.023778511 0.056855537 0.050019898 -0.07514031
-0.08861275 -0.00790923 0.19674018 -0.022857998 0.0034261202 0.09437323 0.1963156 0.2186912
0.17583393 0.15444472 0.051173896 -0.059270922 -0.13421375 0.008042765 0.02189878 -0.0077332924
-0.25217924 0.08427867 -0.13461506 -0.16906662 0.001639468 -0.0038130293 -0.16747901 -0.12048409
0.07248633 -0.004816717 -0.046390276 0.05066935 -0.14813083 0.10318498 -0.0039300113 0.13523287
-0.16469406 0.07477178 -0.082015306 0.016509775 -0.007963358 0.10501236 0.016784787 -0.11999065
0.0079066465 0.041941896 0.08763729 -0.02138649 -0.035907753 0.11171203 0.08023741 0.032734603
-0.08462768 0.03213446 0.100118555 -0.07561854 0.053249035 0.05774313 -0.013301566 0.041571133
0.03312907 0.07417843 0.027981238 0.054407455 0.059760954 0.04120704 0.11303666 -0.11305986
0.063871205 -0.08437118 0.13138497 -0.03862837 -0.019329656 0.07911526 -0.032577675 -0.02914676
0.029487459 0.04945 -0.06381277 -0.11729334 -0.10728267 0.010971025 -0.14865214 0.01347177
-0.12646548 0.11192875 0.11369969 0.04337838 0.072622575 -0.07156819 -0.01267233 -0.0074889245
0.09630634 0.059604563 -0.17600332 0.0014887309 -0.018386211 0.021948878 0.04262372 0.13792345
0.02167761 0.12401583 -0.06278747 -0.0029318328 0.00473341 -0.056256354 -0.1127827 -0.05459787
0.13183151 0.008420531 -0.18456101 0.08641061 -0.014065714 0.07765449 -0.3198046 0.044110827
0.08555347 -0.13446383 0.06700775 0.16135195 0.0248115 -0.0354624 0.2347908 -0.0761815
-0.2858991 -0.07652733 -0.21125132 -0.16141488 0.043146048 -0.09417023 0.14565253 0.09092006
0.069156796 0.0107258065 -0.14155428 -0.106846906 0.043909557 -0.014856684 -0.12260699 -0.08352124
-0.08434135 0.028827792 0.07543728 -0.083408445 -0.005655961 -0.04183436 0.01619257 0.188332
-0.020928187 -0.050497312 -0.12681611 0.1593642 0.045007635 0.22793958 -0.24558774 0.24179447
-0.27503812 -0.0331092 0.008521152 -0.029146647 0.007825751 0.02862573 0.049408957 -0.058466926
-0.012547742 -0.0201522 -0.24169873 -0.06202656 0.06451435 -0.1642717 0.12755091 0.088220954
0.094440974 -0.15760717 0.033103574 -0.02618619 0.07706884 -0.09995461 0.08355582 0.077483274
0.061086033 0.046015974 0.13775705 -0.19265911 -0.040847875 -0.047910623 -0.05410161 -0.019529175
0.054878235 -0.07741858 0.26481867 -0.037198722 0.07904382 -0.13540599 0.0198482 -0.10466765
-0.13514894 0.07196796 0.04998694 0.003034535 0.05376205 -0.1413458 -0.07167525 -0.008513588
0.16099972 0.17613328 -0.23965311 0.059454925 0.009320981 0.2634273 -0.0044069584 0.11730032
-0.07339002 0.03616839 0.2743457 -0.13908412 -0.13932265 -0.11554198 0.23581454 0.06337586
0.13516808 0.026593486 -0.14470862 0.025101656 -0.0792694 0.05497968 -0.00507312 0.032616775
-0.01364332 -0.1265297 0.0834959 0.0789296 0.09315167 0.04742692 -0.09343019 0.04329527
00000000: d510 a5bc a9c1 bfbc d23a 413c b75d 59bd
00000010: 7fc0 c73c 71df 2a3c c45e 2a3e 97fb 923d
00000020: 3df0 4fbd 1e6f af3d e40f 17bc 871e de3d
00000030: 0644 b7bd de1e aebd bd86 5b3e 697f e3bc
00000040: b3fb 5f3d ca47 7dbd ad54 e8bd fe99 e73d
00000050: 27cb c23c 5ae1 683d aae1 4c3d 2ae3 99bd
00000060: 9a7a b5bd b795 01bc 4276 493e b240 bbbc
00000070: c288 603b c146 c13d f506 493e 96f0 5f3e
00000080: cf0d 343e c226 1e3e b89b 513d 11c6 72bd
00000090: 546f 09be cdc5 033c 1265 b33c 8f67 fdbb
000000a0: a31d 81be 4c9a ac3d 88d8 09be cd1f 2dbe
000000b0: 6be3 d63a 04e4 79bb 9e7f 2bbe 5dc0 f6bd
000000c0: b773 943d 8dd5 9dbb bb03 3ebd aa8a 4f3d
000000d0: 9caf 17be a652 d33d 53c7 80bb 7c7a 0a3e
000000e0: 8fa5 28be f221 993d a4f7 a7bd 823f 873c
000000f0: bf78 02bc b810 d73d 4080 893c a8bd f5bd
00000100: e18a 013c 44cb 2b3d 2e7b b33d b832 afbc
00000110: 0214 13bd 47c9 e43d 8353 a43d b814 063d
00000120: 4751 adbd 6c9f 033d f50a cd3d e5dd 9abd
00000130: a91b 5a3d 0f84 6c3d d0ee 59bc 7e46 2a3d
00000140: 59b2 073d dcea 973d e938 e53c 5ada 5e3d
00000150: e7c7 743d b7c8 283d c47f e73d ee8b e7bd
00000160: e8ce 823d ccca acbd c889 063e c838 1ebd
00000170: 3a59 9ebc 2e07 a23d 2b70 05bd 30c5 eebc
00000180: af8f f13c 158c 4a3d 45b0 82bd 7e37 f0bd
00000190: 04b7 dbbd d0bf 333c 4438 18be b3b8 5c3c
000001a0: 2b80 01be e73a e53d 62db e83d 87ad 313d
000001b0: 25bb 943d 5892 92bd 9b9f 4fbc a765 f5bb
000001c0: 423c c53d ea23 743d 373a 34be 8521 c33a
000001d0: ae9e 96bc 22ce b33c 3696 2e3d ce3b 0d3e
000001e0: 3e95 b13c 03fc fd3d b896 80bd fe23 40bb
000001f0: b91a 9b3b 106d 66bd 9efa e6bd 04a2 5fbd
00000200: d7fe 063e 44f6 093c 90fd 3cbe 0cf8 b03d
00000210: e173 66bc 5109 9f3d 6ebd a3be 8ead 343d
00000220: a836 af3d e3b0 09be 5c3b 893d 7239 253e
00000230: 7d41 cb3c 0641 11bd 006d 703e 0c05 9cbd
00000240: 5e61 92be 5cba 9cbd 4452 58be f149 25be
00000250: e9b9 303d 52dc c0bd f025 153e 4c34 ba3d
00000260: 14a2 8d3d 4bbb 2f3c 9bf3 10be 8dd2 dabd
00000270: 82da 333d 7369 73bc 6019 fbbd 2f0d abbd
00000280: 28bb acbd 4328 ec3c dc7e 9a3d 0cd2 aabd
00000290: a455 b9bb 825a 2bbd 48a6 843c 1bda 403e
000002a0: 9771 abbc 45d6 4ebd 15dc 01be 5e30 233e
000002b0: ed59 383d fe68 693e 5a7b 7bbe f898 773e
000002c0: ccd1 8cbe 839d 07bd 4d9c 0b3c f3c4 eebc
000002d0: 9437 003c 8280 ea3c 0c61 4a3d 047b 6fbd
000002e0: 0b95 4dbc 3a16 a5bc df7f 77be 900f 7ebd
000002f0: 1920 843d d736 28be b59c 023e 30ad b43d
00000300: 456a c13d c663 21be 9d97 073d 6c84 d6bc
00000310: 45d6 9d3d 01b5 ccbd 501f ab3d 8daf 9e3d
00000320: 5935 7a3d 3f7b 3c3d 2f10 0d3e 6e48 45be
00000330: 1a50 27bd ee3d 44bd a699 5dbd a6fb 9fbc
00000340: 00c8 603d a28d 9ebd 5096 873e b05d 18bd
00000350: bae1 a13d dea7 0abe b198 a23c fe5b d6bd
00000360: 7c64 0abe f063 933d 1bbf 4c3d 0ddf 463b
00000370: 9835 5c3d f4bc 10be 79ca 92bd 947c 0bbc
00000380: 1cdd 243e 485c 343e a067 75be 0287 733d
00000390: 07b7 183c f1df 863e 3f68 90bb 263b f03d
000003a0: 824d 96bd 4e25 143d 0a77 8c3e 116c 0ebe
000003b0: 99aa 0ebe 46a1 ecbd 5e79 713e 34cb 813d
000003c0: 8069 0a3e 95da d93c 7f2e 14be fda1 cd3c
000003d0: ff57 a2bd 5f32 613d 6a3c a6bb 2b99 053d
000003e0: 3b88 5fbc 0091 01be e6ff aa3d d8a5 a13d
000003f0: 4ec6 be3d bb42 423d 5458 bfbd 6256 313d

lstm.bias_ih_l1 f4 [256]
-0.086235985 -0.0842507 -0.002045653 -0.055147886 -0.12111998 0.10216897 0.1900845 -0.12861878
-0.008718756 0.036093805 -0.1504133 0.006313116 -0.20400786 0.15964244 0.0022953325 0.060735714
0.05373487 -0.06517842 -0.0796237 0.07643149 -0.17960526 -0.16395546 -0.088561945 0.07406249
0.28077593 0.065714814 0.16184625 0.00014342359 -0.1220663 -0.16099015 0.36877835 0.08394846
-0.03327518 -0.0060442556 -0.05274905 0.038452968 -0.09802003 -0.110267326 -0.037629716 0.5001164
-0.09057595 -0.19210768 0.14133707 0.0053782472 -0.105577506 -0.15534495 0.081125066 0.3139366
0.16473778 0.09886208 -0.099687435 0.024514621 -0.12688561 -0.07175902 -0.06309332 0.003058531
0.111427285 -0.11570366 -0.093728825 -0.01562513 0.018355697 0.09330264 0.05116074 -0.15922794
-0.09535489 0.07750277 -0.136756 -0.1784485 -0.15312542 0.13904539 -0.24193712 0.008515135
-0.21692942 -0.14482762 0.029603088 0.035845697 -0.005881652 0.06107331 -0.06031274 -0.1006447
-0.102611266 -0.08563732 0.14277585 -0.027311224 -0.012739791 0.016680658 -0.013026436 0.10329751
-0.15264888 0.036267523 -0.29621464 -0.08844989 -0.11848085 -0.05959869 -0.3644313 -0.016451836
-0.28138652 0.006672408 -0.09461822 -0.04916441 0.073447786 0.082762286 -0.17946391 -0.54640836
-0.07509578 0.012388373 0.071996726 -0.2302978 -0.085952245 0.039954763 -0.06775939 -0.5359794
-0.20685548 0.05502476 -0.0004347985 0.16901127 -0.069733895 0.105406016 -0.12538056 0.10455823
-0.07765239 -0.026939902 -0.0031674982 -0.12625946 -0.21664584 -0.23095676 -0.08156655 -0.031872384
-0.061138995 -0.037668932 -0.13469158 -0.075855106 -0.08047732 -0.17535934 0.0863987 -0.086273976
0.027892862 -0.071454346 -0.1432129 0.028972471 -0.051430684 -0.001938235 -0.046628702 -0.019947851
0.062698945 -0.09720631 0.22283633 0.10256253 0.011490452 -0.13119666 0.09684865 0.13867034
0.046162806 0.0068320096 -0.15819117 -0.029004514 0.021839196 0.11810657 -0.010823267 -0.076455384
0.1203557 0.024379574 0.027370865 -0.008220401 0.13010143 0.040240746 0.14599487 -0.04442549
-0.014433213 0.08267906 0.043552022 -0.0046760035 0.097135656 0.11189383 0.0856776 -0.07618093
-0.012397756 -0.043434866 0.12337015 -0.04582851 -0.051319856 -0.17318623 -0.031860285 -0.084992334
0.034853097 0.10884753 -0.050833214 -0.002724505 -0.061852682 -0.0009115612 0.06594908 0.07536931
-0.1451597 -0.039740194 0.041760184 0.052094277 -0.0052663125 0.030556217 0.19629377 -0.1459199
-0.09018167 -0.041016206 -0.039268922 0.017420394 -0.14097495 -0.052730788 0.013241904 0.010844041
0.06846149 0.029402822 0.082324535 0.27595806 0.026281303 0.030583143 -0.036529094 -0.17670365
0.21640722 0.040665727 -0.03909003 -0.18173616 -0.033557218 -0.0052631614 0.20068778 -0.07280417
0.15114626 -0.13408953 -0.08391706 0.0039397404 -0.19219095 -0.11081229 -0.09155106 0.38025874
-0.0418388 -0.0814781 0.164145 -0.07031757 0.074819066 0.022463618 -0.009098828 0.25373745
0.1685857 -0.12624359 -0.15016755 0.051230073 -0.03418281 -0.12208776 -0.048497148 -0.033884376
0.005124117 0.009754431 -0.012546881 0.067930356 0.11207075 0.024656825 0.031779632 -0.03507005
00000000: 7e9c b0bd a28b acbd 5d10 06bb c0e2 61bd
00000010: c10d f8bd f73d d13d 83a5 423e a4b4 03be
00000020: 1dd9 0ebc 19d7 133d f205 1abe 41de ce3b
00000030: 70e7 50be 4f79 233e 4a6d 163b 03c6 783d
00000040: 1819 5c3d 437c 85bd c011 a3bd 1d88 9c3d
00000050: 71ea 37be f1e3 27be f75f b5bd 13ae 973d
00000060: ddc1 8f3e 7d95 863d 06bb 253e fa63 1639
00000070: e5fd f9bd 9ada 24be 84d0 bc3e 2ced ab3d
00000080: 8e4b 08bd e40e c6bb 630f 58bd dc80 1d3d
00000090: babe c8bd d6d3 e1bd 9e21 1abd a107 003f
000000a0: e27f b9bd e0b7 44be aaba 103e 023c b03b
000000b0: 0539 d8bd bf12 1fbe e624 a63d 4cbc a03e
000000c0: 05b1 283e 3478 ca3d ed28 ccbd e3d2 c83c
000000d0: 4dee 01be 65f6 92bd 1237 81bd a371 483b
000000e0: fd33 e43d 0af6 ecbd e6f4 bfbd 4600 80bc
000000f0: b05e 963c 7415 bf3d ed8d 513d a60c 23be
00000100: 6d49 c3bd c6b9 9e3d c409 0cbe 34bb 36be
00000110: e9cc 1cbe ea61 0e3e 5dbe 77be 1183 0b3c
00000120: bf22 5ebe b14d 14be 2d82 f23c f0d2 123d
00000130: dfba c0bb 0228 7a3d 7e0a 77bd cf1e cebd
00000140: db25 d2bd 9f62 afbd d533 123e cabb dfbc
00000150: 8eba 50bc e0a5 883c d56c 55bc a58d d33d
00000160: fd4f 1cbe 418d 143d 72a9 97be 3725 b5bd
00000170: 16a6 f2bd c21d 74bd bd96 babe 00c6 86bc
00000180: e511 90be 37a4 da3b 33c7 c1bd 9f60 49bd
00000190: cb6b 963d 467f a93d 63c5 37be 6be1 0bbf
000001a0: d1cb 99bd 9af8 4a3c 0573 933d 30d3 6bbe
000001b0: bb07 b0bd 9ba7 233d 6fc5 8abd f235 09bf
000001c0: ecd1 53be a561 613d abf5 e3b9 4a11 2d3e
000001d0: a5d0 8ebd 1cdf d73d c363 00be a022 d63d
000001e0: 3708 9fbd 12b1 dcbc cd95 4fbb 294a 01be
000001f0: 68d8 5dbe ee7f 6cbe 5d0c a7bd 9e8c 02bd
00000200: e26c 7abd bd4a 1abd 97ec 09be ec59 9bbd
00000210: 4bd1 a4bd 6691 33be cdf1 b03d 69b0 b0bd
00000220: 927f e43c a856 92bd 67a6 12be ad57 ed3c
00000230: fba8 52bd 600c feba bdfd 3ebd ad69 a3bc
00000240: 4e68 803d 1a14 c7bd 352f 643e 4e0c d23d
00000250: 7342 3c3c 6b58 06be 9658 c63d 99ff 0d3e
00000260: 3615 3d3d 0ddf df3b defc 21be e09a edbc
00000270: 1de8 b23c dbe1 f13d 1254 31bc a494 9cbd
00000280: 0d7d f63d acb7 c73c dd38 e03c dcae 06bc
00000290: 4f39 053e 7bd3 243d ae7f 153e 81f7 35bd
000002a0: 4879 6cbc a453 a93d 9b63 323d 2939 99bb
000002b0: 0fef c63d 9828 e53d bd77 af3d bf04 9cbd
000002c0: f51f 4bbc c2e8 31bd 7da9 fc3d adb6 3bbd
000002d0: c534 52bd bb57 31be ee7f 02bd 7610 aebd
000002e0: 1fc2 0e3d 74eb de3d 7d36 50bd 9c8d 32bb
000002f0: 3d59 7dbd d6f5 6eba 5010 873d 3a5b 9a3d
00000300: bfa4 14be 9dc6 22bd ba0c 2b3d cf60 553d
00000310: 0891 acbb 0851 fa3c 3c01 493e 076c 15be
00000320: 2bb1 b8bd 9c00 28bd 73d8 20bd 37b5 8e3c
00000330: bd5b 10be 3dfc 57bd 92f4 583c 34ab 313c
00000340: 8a35 8c3d 30de f03c c499 a83d 604a 8d3e
00000350: e34b d73c 8089 fa3c 889f 15bd cdf1 34be
00000360: db99 5d3e 1b91 263d de1c 20bd 0b19 3abe
00000370: 4b73 09bd 9976 acbb 1981 4d3e 5a1a 95bd
00000380: 16c6 1a3e c44e 09be b5dc abbd f018 813b
00000390: b4cd 44be 8ef1 e2bd 1f7f bbbd 46b1 c23e
000003a0: 295f 2bbd fddd a6bd a015 283e a802 90bd
000003b0: bd3a 993d 9f05 b83c 4013 15bc e0e9 813e
000003c0: bba1 2c3e 0046 01be 86c5 19be a0d6 513d
000003d0: 4603 0cbd 2609 fabd f2a4 46bd 58ca 0abd
000003e0: 35e8 a73b 0dd1 1f3c 6f91 4dbc 121f 8b3d
000003f0: 5985 e53d 1cfd c93c 5c2b 023d 9da5 0fbd

lstm.bias_hh_l1 f4 [256]
-0.09263381 0.037416264 -0.11834205 0.04727491 0.07930767 0.11208265 0.10708168 0.054352228
-0.11207335 -0.048971623 -0.08951252 -0.037641153 -0.13810195 0.013949262 -0.016315999 -0.035147186
0.044670045 0.0024206773 0.085741416 0.10560907 0.017552746 -0.14573158 0.06467826 0.09418508
0.14960212 -0.0103641255 0.2466938 0.0022835983 -0.05822382 -0.042285074 0.36183906 0.073043436
0.14284338 -0.0012999283 -0.08696153 0.069566615 -0.07993221 -0.12627587 0.061281435 0.5193259
-0.12584837 -0.115110785 0.22048531 0.094212964 0.07476536 -0.112591594 0.064788386 0.18273717
0.007776756 0.06667577 -0.005570461 0.021202294 -0.044669103 0.121146575 -0.033714257 0.05034986
0.08664731 -0.09128018 -0.1273423 0.17089917 -0.014692584 0.19981723 -0.046869326 -0.09872822
0.088801615 -0.009661476 -0.012279013 -0.14345218 -0.14025678 0.07482476 -0.29535273 0.083792895
-0.14640823 -0.16781019 0.06703564 -0.07566659 -0.0040164315 -0.021520736 0.0026187901 -0.022240669
-0.04873475 -0.11545498 0.09301072 -0.15005535 0.013315683 0.04966288 0.026154904 0.15995863
-0.23842058 -0.19079094 -0.23255317 -0.04596947 -0.008616982 -0.09316418 -0.250352 -0.056874536
-0.27997616 0.003950203 -0.118535034 -0.012509583 0.04535993 0.0047220406 -0.19368644 -0.59882146
-0.2097802 -0.050402723 -0.007289886 -0.13572913 0.0645084 -0.08295611 0.060795747 -0.41635585
-0.199523 0.040468786 0.069201574 0.09180271 0.12986073 0.02382977 0.04193146 0.016588727
-0.10122254 -0.101004824 0.04695363 -0.055589277 -0.039281838 -0.100883275 -0.1352674 0.07113567
0.112688325 0.12150856 0.0031215034 -0.008878055 0.08183094 -0.19813699 0.012486612 -0.06365041
0.023243457 -0.03738906 0.074197225 0.042515624 -0.07995535 0.13870503 0.038243014 -0.15766583
-0.069087565 -0.018432325 0.009160342 0.04495819 0.058530234 -0.033140443 0.027174009 0.12636048
0.03072884 0.03629722 -0.043779533 0.044347234 -0.038684543 0.12632605 -0.05106496 -0.12034792
0.047551207 0.023286842 -0.055856682 0.15093285 0.1260731 0.09154838 0.011059622 -0.039160285
-0.0027970155 -0.14664648 0.1029723 0.04876859 0.058197062 0.10278113 0.026407225 -0.04224989
-0.055269852 0.047156356 0.05702494 0.086666405 0.13276006 -0.18326296 -0.092012726 -0.07815869
0.025503311 0.035512235 -0.08176905 -0.08038221 -0.019151444 -0.15485956 0.004598002 0.12726739
0.045266755 -0.18868738 0.0010313377 0.019435046 0.02501422 -0.12782805 0.24515863 -0.17952363
0.0032371168 0.009846878 -0.05448844 -0.021415005 -0.08386541 0.05073869 -0.035536904 -0.13735607
-0.037220486 -0.05621917 0.08881411 0.2392627 0.104385115 -0.12449259 0.051926926 0.043403704
0.16269003 -0.06943566 0.10552206 0.050561503 -0.15225086 -0.09324071 0.36292937 0.026564185
0.13935459 -0.1708688 0.11061404 -0.17674132 -0.014264699 -0.07255755 -0.16338825 0.5101176
-0.12347989 -0.12488719 0.13178805 -0.0073746243 0.003550342 -0.15397267 0.03105662 0.26269546
0.06721695 -0.10483456 -0.17520759 0.057836458 -0.003858576 0.016143126 -0.058449183 -0.10149762
-0.18768154 -0.05188203 0.05350377 0.091936484 0.057977375 0.16063614 -0.1360259 -0.0666762
00000000: ccb6 bdbd cc41 193d 515d f2bd 56a3 413d
00000010: 0f6c a23d 978b e53d a44d db3d 71a0 5e3d
00000020: b686 e5bd 7896 48bd 5752 b7bd 9c2d 1abd
00000030: 996a 0dbe 728b 643c 21a9 85bc 7ff6 0fbd
00000040: f0f7 363d 3aa4 1e3b 3299 af3d 9149 d83d
00000050: c7ca 8f3c a93a 15be 0976 843d 1be4 c03d
00000060: 4c31 193e 4bce 29bc 4d9d 7c3e 6ca8 153b
00000070: 1a7c 6ebd 1d33 2dbd f842 b93e cc97 953d
00000080: 8945 123e 5b62 aaba e318 b2bd f178 8e3d
00000090: 80b3 a3bd 764e 01be 3e02 7b3d 8bf2 043f
000000a0: 65de 00be 34bf ebbd e7c6 613e baf2 c03d
000000b0: 951e 993d 6c96 e6bd c6af 843d 741f 3b3e
000000c0: 28d4 fe3b 4e8d 883d 6a88 b6bb 6fb0 ad3c
000000d0: f3f6 36bd b21b f83d f617 0abd a83b 4e3d
000000e0: 2574 b13d 1af1 babd 0566 02be 3100 2f3e
000000f0: 2ab9 70bc e39c 4c3e 0dfa 3fbd 0532 cabd
00000100: 9fdd b53d 2b4b 1ebc ea2d 49bc 21e5 12be
00000110: 799f 0fbe b93d 993d 7938 97be 9c9b ab3d
00000120: 0aec 15be 6fd6 2bbe fb49 893d 16f7 9abd
00000130: 459c 83bb 414c b0bc 02a0 2b3b 1032 b6bc
00000140: 179e 47bd a973 ecbd 687c be3d 1ca8 19be
00000150: 062a 5a3c 4e6b 4b3d cf42 d63c 32cc 233e
00000160: 8624 74be b35e 43be 6b22 6ebe 7c4a 3cbd
00000170: 3e2e 0dbc ddcc bebd 232e 80be 46f5 68bd
00000180: 0959 8fbe b470 813b 7fc2 f2bd fef4 4cbc
00000190: 55cb 393d 59bb 9a3b bd55 46be 5d4c 19bf
000001a0: 9fd0 56be 1673 4ebd ffdf eebb 94fc 0abe
000001b0: fb1c 843d e5e4 a9bd f604 793d 982c d5be
000001c0: c24f 4cbe 99c2 253d 8eb9 8d3d 0f03 bc3d
000001d0: 36fa 043e a636 c33c 53c0 2b3d 15e5 873c
000001e0: c34d cfbd 9edb cebd 7352 403d 95b1 63bd
000001f0: fee5 20bd e49b cebd 8a83 0abe 94af 913d
00000200: 23c9 e63d 7bd9 f83d 2392 4c3b 4375 11bc
00000210: fb96 a73d 6ce4 4abe a694 4c3c 255b 82bd
00000220: 1069 be3c 4525 19bd b7f4 973d dd24 2e3d
00000230: a1bf a3bd b108 0e3e b5a4 1c3d 2773 21be
00000240: c87d 8dbd 63ff 96bc 4215 163c 1426 383d
00000250: 66bd 6f3d 46be 07bd 079c de3c a464 013e
00000260: 0cbb fb3c 65ac 143d 2b52 33bd 72a5 353d
00000270: af73 1ebd 9e5b 013e 7e29 51bd f878 f6bd
00000280: 0ec5 423d 0cc4 be3c fac9 64bd 248e 1a3e
00000290: 4f19 013e b87d bb3d 6b33 353c 8966 20bd
000002a0: 224e 37bb 7f2a 16be 24e3 d23d 93c1 473d
000002b0: 0b60 6e3d ea7e d23d f753 d83c 380e 2dbd
000002c0: a462 62bd 0627 413d fc92 693d 287e b13d
000002d0: 41f2 073e 49a9 3bbe 2b71 bcbd aa11 a0bd
000002e0: 52ec d03c 4775 113d 8876 a7bd 6e9f a4bd
000002f0: 7de3 9cbc 8193 1ebe d6aa 963b 6252 023e
00000300: a269 393d 4437 41be f32d 873a 3f36 9f3c
00000310: 9fea cc3c 5be5 02be dd0a 7b3e 0bd5 37be
00000320: cf25 543b cd54 213c 452f 5fbd 856e afbc
00000330: a1c1 abbd 5fd3 4f3d 258f 11bd 12a7 0cbe
00000340: 8274 18bd 1346 66bd 2ce4 b53d 4801 753e
00000350: ddc7 d53d f9f5 febd 54b1 543d 15c8 313d
00000360: 3798 263e 4934 8ebd f31b d83d 9419 4f3d
00000370: a6e7 1bbe fcf4 bebd e1d1 b93e 229d d93c
00000380: f8b2 0e3e 3bf8 2ebe 9d89 e23d adfb 34be
00000390: 7cb6 69bc 0e99 94bd 404f 27be 1197 023f
000003a0: 06e3 fcbd dbc4 ffbd 72f3 063e d5a6 f1bb
000003b0: dbac 683b 03ab 1dbe 746a fe3c 0580 863e
000003c0: 0aa9 893d 80b3 d6bd 9e69 33be ece5 6c3d
000003d0: 2ae0 7cbb 973e 843c 6968 6fbd fcdd cfbd
000003e0: 972f 40be 4082 54bd c526 5b3d 3249 bc3d
000003f0: af79 6d3d cd7d 243e 604a 0bbe 888d 88bd
