data/models/uniswap_lstm_d.pth (torch, 215861 bytes, 10 tensors)

lstm.weight_ih_l0 f4 [256, 10]
00000000: 58ed a7bd df83 05bc fcbb 19be 8ee5 17be
00000010: 822e 81bd 26c7 c2bd c512 853d 0882 bcbc
00000020: b1c7 4b3d 2246 85bd 4e8b 06be 4c0c b7bd
00000030: 1e03 32be f24a 2dbe 1924 593c fdda d7bc
00000040: c262 8e3c 15e3 003d 719c c03c 1914 a6bd
00000050: a7d3 60bc 7095 77bd 80ba e23c 1a3c aa3d
00000060: 90fc ecbd f3dc b73b 6a12 7d3d a17d 5e3d
00000070: b4cd 0fbe 59b3 823d fa4e afbd e8d8 44bc
00000080: edc8 90bd d92d 61bb a4fd 213e 5c51 063e
00000090: 4570 52be 6bbb 44be d553 90bd b623 a3bd
000000a0: f666 b03c ca5b bbbd 2d61 f43c 4ff3 253d
000000b0: 4a7d e9bd a44b aebd 1ed5 8b3b 6cb8 72bd
000000c0: 1d80 b0bd c625 c43d 3dfe 963c e02f c3bd
000000d0: 11c4 dbbd 0a89 06be fcbd 01be 4bd6 e3bd
000000e0: 5399 2cbd 334b c2bd ca64 f2bd 28d0 a83c
000000f0: 994f 1bbc bd68 833d 1f3a 9a3d 338c 23be
00000100: 34b4 67bd a5c2 79bd 5f7c abbd d009 c93d
00000110: 970e 0abe 2f5a 973d 8d6f d7bd 3f0a 1abe
00000120: 5455 88bd d880 03be ed13 b5bd 0ad5 de3d
00000130: 3e41 21be 9cb0 063d b502 4cbd b3f1 b53d
00000140: a063 18be d329 40be 4311 46bd dbf3 49be
00000150: ca12 c5bd a90b 213d 0131 91bd bd0e c43d
00000160: 3e80 43bd 2c0a 903d 25f8 b4bc 605f 2fbe
00000170: c944 e8bd 3b7f 103c 58d5 eabc 5078 603d
00000180: 4cea 07bd a6f7 903d 3248 293c 7107 14be
00000190: 3c6a e93b f53a 7d3d b9a5 9f3d 5bdd 843c
000001a0: 2dd7 a63d 6d9f ddbc bee0 cb3d a74e 003e
000001b0: 0c34 ba3c d365 5b3d 15a8 013e 0754 56bb
000001c0: 61a2 e33d 5885 bd3d f47c 88bd 30e2 323d
000001d0: 0981 b03d 0a27 c0bd 9e03 6cbb 8262 5fbd
000001e0: 0635 73bb 3285 2cbd fc36 acbd c70b 17be
000001f0: 12fc d0bd d9a6 06be 8f84 ffbc a2d6 4a3d
00000200: 3caa 963d 14c6 8abd 91c8 a43c 6963 2a3c
00000210: 2ed4 86bd a889 f6bc 622d 9e3b f845 85bd
00000220: 2679 9abd 20eb cb3c 45aa 76bd 7d31 a0bd
00000230: ef0e 25bd a153 f03d 239b 9ebd a6ce 8c3d
00000240: ddee bbbd 5b22 1dbd 8353 993d 60f6 583d
00000250: 9bcb 01be db0a 06be c25a aebd b9a7 843d
00000260: 70db c63c a7f2 e1bb 4406 55bd fda6 14bd
00000270: e77f 083e ff47 0c3e 78bf c8bd d8d5 26bd
00000280: 323f f4bd 822e 2f3d 90f7 0ebd 5369 5ebc
00000290: f555 05be 3f78 753d d641 5bbe a041 1fbe
000002a0: 9098 a0bb bc82 26bd e589 d5bd 7773 653d
000002b0: 7f68 dbbc dda2 49bc 0614 21bd 038a b93d
000002c0: d141 d7bb d88d ea3b 26ab 9f3d d130 cebd
000002d0: 9da9 efbb 6c04 08bd 454d a83d 9936 083e
000002e0: 53f8 81bd c8d7 cdbc f20a 633c 48a1 05bc
000002f0: 7062 183e ea73 08bd c3f5 1f3c 7106 adbd
00000300: 218d efbd 94f3 d5bd 6144 11be 357b 333d
00000310: 509f a43d 607a 0bbe 1dbb e23a 7d63 c53d
00000320: 332f d93d 7965 103e f7e2 f83d 8272 113e
00000330: 7723 93bd 3ecd c3bd b439 a5bd ac8b 333d
00000340: 4e2d fa3d d7e8 2c3d 6af3 ab3c 497d 84bc
00000350: 947f 0bbe 346f 053d 9338 0abe 5361 c73a
00000360: 5360 2e3d 6b72 10be 8e5f 14bd dcd2 7dbd
00000370: af84 763d e8cb 9b3d 44ee 82bc 357d 1cbe
00000380: 8616 d8bd f8a8 eebb a640 f83b c6db e1bd
00000390: c6df 1abe eb9a 343e ea53 05be 2291 333d
000003a0: b3ae fcbd 1d8f 52bd 9949 12be 8a02 01be
000003b0: 229a 8c3d d614 073e fc50 203c 04de 0d3d
000003c0: e7bb ac3d 9e98 ccbd f907 6bbd 027c 97bd
000003d0: 55f9 b1bc 2db7 febd 8596 f23d 034e 113e
000003e0: a237 1dbe 5fcd a0bd b7d7 23be 9459 593c
000003f0: 0b96 0ebe 5021 12bd 0073 5cbd c9fa 823d
-0.081995666 -0.008149116 -0.15013117 -0.14833662 -0.06307699 -0.09510641 0.06497721 -0.023011222
0.049750987 -0.065075174 -0.13139078 -0.08937892 -0.17384002 -0.1692312 0.013253235 -0.026349539
0.017381076 0.031466562 0.023512097 -0.08109302 -0.013722337 -0.06044525 0.02767682 0.08312245
-0.1157161 0.005611056 0.06178514 0.054319028 -0.14043313 0.06381864 -0.085599855 -0.012014605
-0.070695736 -0.0034359603 0.15819412 0.13116974 -0.2055064 -0.1921212 -0.0704724 -0.07965796
0.02153347 -0.09148367 0.029831493 0.04051524 -0.1140085 -0.08510521 0.004267349 -0.05925791
-0.08618186 0.09577517 0.018431777 -0.09530616 -0.10730756 -0.13138214 -0.1267013 -0.111248575
-0.04213841 -0.09486999 -0.1183563 0.02060707 -0.009479427 0.064164616 0.07530617 -0.1597145
-0.05656834 -0.060976643 -0.08373331 0.09816325 -0.13482128 0.07390248 -0.105193235 -0.15042971
-0.066569 -0.12842119 -0.08841691 0.10880478 -0.15747544 0.03288327 -0.04980727 0.08883991
-0.14881754 -0.18765955 -0.048356306 -0.1972193 -0.09622724 0.03931776 -0.07089425 0.095731236
-0.047729723 0.0703319 -0.02209098 -0.17126226 -0.11341245 0.008819397 -0.028666183 0.05480224
-0.033182427 0.07078485 0.010332154 -0.14455964 0.00712326 0.061823804 0.07795281 0.016218832
0.0814651 -0.02705356 0.099549755 0.12530003 0.022729896 0.053563904 0.12661774 -0.0032703893
0.11114956 0.09253949 -0.06664458 0.04367274 0.086183615 -0.09382446 -0.0036012898 -0.054537304
-0.0037110462 -0.042119212 -0.08408925 -0.14750586 -0.102043286 -0.13149585 -0.031191139 0.049521096
0.073566884 -0.06776062 0.020115169 0.010399678 -0.06583439 -0.030094936 0.0048271874 -0.06507486
-0.075426385 0.02489239 -0.060220975 -0.07821939 -0.040297445 0.11734701 -0.07744434 0.068753526
-0.09176419 -0.038362842 0.07486632 0.052969337 -0.12675326 -0.13090079 -0.085134044 0.06477303
0.024274558 -0.0068953815 -0.05200793 -0.036292065 0.13330041 0.1369934 -0.09802145 -0.04073128
-0.11926116 0.042768963 -0.034904063 -0.013574916 -0.13021071 0.05992913 -0.21411833 -0.15552378
-0.0049009994 -0.04065202 -0.10426692 0.05601832 -0.026783226 -0.012306896 -0.039325736 0.09059527
-0.006569125 0.0071580224 0.07796316 -0.10067905 -0.0073139207 -0.033207342 0.08217863 0.13302077
-0.06346192 -0.025127307 0.01385759 -0.008156128 0.14881301 -0.03331367 0.009763184 -0.08448494
-0.1169684 -0.104468495 -0.1418624 0.04381867 0.08038199 -0.13620901 0.0017298196 0.096381165
0.10604706 0.14101209 0.12152665 0.14203838 -0.07184499 -0.09560631 -0.080676466 0.043834373
0.122156724 0.04221424 0.020990092 -0.016173022 -0.13622886 0.032576755 -0.13498144 0.00152115
0.04257233 -0.14106147 -0.03622394 -0.06196867 0.06018513 0.076072514 -0.015982755 -0.15282138
-0.10551171 -0.0072833262 0.007576066 -0.110282466 -0.15124425 0.17637222 -0.13020292 0.04383958
-0.12338009 -0.051406015 -0.14285888 -0.12598625 0.06865336 0.13191542 0.009784933 0.03463556
0.08434277 -0.09990047 -0.05738065 -0.073966995 -0.021725336 -0.12437282 0.118451156 0.14189915
-0.15353253 -0.078516714 -0.16000257 0.013265986 -0.13924424 -0.0356763 -0.05382061 0.0639549

lstm.weight_hh_l0 f4 [256, 64]
00000000: fcad bf3d 3460 20b9 5977 3e3c d11d 0d3e
00000010: a64f ad3d e320 4d3d a626 fb3c 40a0 923c
00000020: 3443 a53c 3d86 69bd 00dd 603d 19c8 1bbd
00000030: 4479 12bd 8b5a 7bbc fa84 d2bc 0b4e 0c3e
00000040: 36e2 c63d 0139 ac3d 610f c13d eeed c93d
00000050: 18dd 86bb 1ea6 6b3d f684 c3bd e064 833b
00000060: 8197 d03a 8d24 17bd 10d5 0a3d c58d 0ebe
00000070: dc86 963c b456 f8bc 4da9 0dbe 7d87 ebbd
00000080: bf61 62bd 9c5c 70bc 149d b0bc 71fe 13bd
00000090: 15d2 e53d 044f 76bd 5dc3 e6bd 28d6 873d
000000a0: 3d13 95bd 8088 e7bd 7cc1 7ebc f133 36bd
000000b0: 026d 43bd 41a2 dabd dd5d b03d c066 5fbc
000000c0: c4ea 063b ac58 4ebc 5841 a93c 144a ed3c
000000d0: f9cf 963d c2a1 ad3d cec1 2f3c 6402 05bd
000000e0: 91d5 a43d 91a3 18bd cc56 07bd 676b 0a3e
000000f0: 7dd7 f2bb 89c5 c93d 12c9 e23d ae45 d7bd
00000100: 698b 043e dedb ca3d dd48 ad3d eec2 923d
00000110: 7e11 683d 1f61 c93c 2cbc cebd a910 02be
00000120: 675b 343d d985 35bc b567 8d3c dce5 b1bd
00000130: 4283 fc3c 7d76 95bd 8d8f 823d 74c7 f23d
00000140: 8acc 323d c645 883d b64e af3c 5b10 28bd
00000150: 9855 dd3c 19e7 91bb 08d4 01be 6de6 883d
00000160: 13c3 bebd 254d a5bd 9860 8f3d 0997 b7bd
00000170: 066f f5bd 5efc c1bd 4ea7 96bd 505d b63d
00000180: dd0f 013d a319 aa3d ebfb bc3d e579 09be
00000190: 636c 133d 2f00 af3d 7ec2 2f3d 4d2e 14bc
000001a0: 3058 923d dc92 9ebc b03a b63d cb8a 953d
000001b0: c3ea cdbd b372 793d fa2d d63d 72d8 8cbd
000001c0: 24ec ccbc 9b05 0dbd c4c1 c53d 4a12 c33d
000001d0: 6b83 af3d dfa3 f6bc 0a93 efbd 05af 9fbd
000001e0: a6bb 9a3d 9717 123e de12 113d 8939 043e
000001f0: 886f 94bd b74d 123b f1f9 623d 8f5f d73d
00000200: c30f e53d 59df 313c 1260 a83c 7378 66bd
00000210: c1e1 7bbd 0b88 943d 006a d13d f059 7dbd
00000220: 97e3 46bd 4577 993d 6288 d4bc b36f 9d3d
00000230: 4b55 943d da05 e83d d0f4 f1bc ac82 c3bd
00000240: 9b8d 8c3d 1dba 50bd 7860 ce3d ad69 6f3d
00000250: 713f 34bd efb6 afbd f118 bc3c 3137 eabd
00000260: 5d72 86bd f77b 963d 8fbf 4c3d 24bc 9bba
00000270: ce90 983d e3e8 b03d 767d a03d 60f1 c63d
00000280: 85df 06be 96d3 96bd 371b ed3a ba2e 373d
00000290: 069d d0bd 9772 eb3c 9bfe 063c 901c c93d
000002a0: c72d d83d 2eb1 bf3d cf42 343c 2efe a9ba
000002b0: 493b be3c 2566 f43d 117e cc3d fb34 af3c
000002c0: 3a2c e13d 109f cbbd cad4 903d c7c1 a8bd
000002d0: 1f16 853d 1370 82bd 691e dfbd a2cc 743d
000002e0: 604e 763d c2ac 653c 0575 e43c f186 8a3d
000002f0: 6d3e e4bd 4a63 01be 5953 a23d 4ae9 043e
00000300: 4fec 8b3d fedf 2abd badd 7b3d 9a1c ff3d
00000310: ffc9 023e 7a5f 713d 8a59 c4bd 591c f3bd
00000320: 2dda 573d b3c3 a5bc e532 57bd 09b6 febc
00000330: 8632 6c3d fe5f d03a 596a 1c3d c394 31bd
00000340: bc5c 9a3d b725 adbd 42d5 d03c 11b1 c9bd
00000350: 909d 73bd 5b23 b33d ab2f a33d 0a3f 9d3d
00000360: a907 dbbb 49e2 653d c8a2 70bd 86c2 ce3d
00000370: 84d6 0c3d c366 6e3b 5b5f 223b 6ce5 5a3d
00000380: 6c59 483d 67c2 24be ba9c 583d 13af a6bd
00000390: 2993 aebd a2ca 9a3d 247b bbbd b350 68bd
000003a0: 6ae0 a2bd f1f6 d0bd e8fa 383e 8288 a7bd
000003b0: cb41 37bd 08a8 833c eb1b 06bd eecd cebd
000003c0: 76c3 88bd 6fa1 45be 2ee2 8abb 8e5c 263c
000003d0: 2382 923c 3847 d03d 2605 80bc f6e1 8dbc
000003e0: 598a 003e ff55 5c3d 0233 643c 4ca7 0b3e
000003f0: 9bfa 3abd 6189 e1bd 0a95 3e3d 5077 eabd
0.09359357 -0.00015294628 0.011625134 0.13780905 0.08462457 0.05008019 0.030658077 0.017898679
0.020173647 -0.057012785 0.054898262 -0.038032625 -0.03576018 -0.015341411 -0.025698174 0.13701646
0.09711115 0.0840931 0.094267614 0.098598346 -0.004115712 0.05753147 -0.09546845 0.004009828
0.0015914292 -0.036900092 0.0338946 -0.13921268 0.018374853 -0.03031478 -0.13834114 -0.11500452
-0.055269 -0.014670517 -0.021559276 -0.036131326 0.112217106 -0.06013395 -0.11267731 0.06632644
-0.0727906 -0.11305332 -0.01554906 -0.04448313 -0.04771138 -0.10675479 0.08611653 -0.013635337
0.0020586709 -0.012594383 0.020661041 0.028965987 0.073638864 0.084781185 0.010727359 -0.032472983
0.08048547 -0.037265364 -0.03304176 0.13517533 -0.007410942 0.0985213 0.11073507 -0.10511337
0.12943806 0.099052176 0.08461163 0.07166086 0.056657307 0.024582444 -0.10094485 -0.12701668
0.04403248 -0.011079275 0.017261365 -0.0868642 0.030824307 -0.072979905 0.063750364 0.11854449
0.043652095 0.06653933 0.021399837 -0.041031223 0.027018353 -0.004452598 -0.1267854 0.06684575
-0.09314551 -0.08071355 0.07000846 -0.089643545 -0.11984067 -0.09471963 -0.073561296 0.08904517
0.03150927 0.08305671 0.09227737 -0.13425405 0.035992038 0.08544957 0.04291009 -0.009044242
0.07145727 -0.019357137 0.088979125 0.07301863 -0.10054543 0.0609004 0.10457988 -0.06877221
-0.025014944 -0.034429174 0.096560985 0.09524973 0.08569988 -0.030107437 -0.11697967 -0.07797054
0.07555322 0.14266811 0.035418384 0.12912573 -0.072478354 0.0022324154 0.055414144 0.10516273
0.11184647 0.010856473 0.020553622 -0.056267213 -0.061494593 0.07252511 0.10225296 -0.06185335
-0.04855689 0.07493452 -0.025943939 0.076873206 0.07242831 0.11329241 -0.029535681 -0.09546408
0.068629466 -0.05095874 0.10076994 0.05845039 -0.044005815 -0.08579814 0.022961112 -0.11436308
-0.06564782 0.07347863 0.049987372 -0.0011881632 0.07449494 0.086381696 0.0783643 0.097140074
-0.13171203 -0.073645756 0.0018089776 0.044722296 -0.101862 0.028741164 0.008239414 0.09819901
0.10555606 0.09359966 0.011002257 -0.0012969428 0.023221629 0.11933545 0.09984983 0.021387568
0.10994764 -0.09942448 0.07071836 -0.08240085 0.0649836 -0.06369033 -0.10894472 0.059765466
0.060133338 0.014018239 0.02788783 0.06764019 -0.11144719 -0.12635532 0.079260536 0.12979618
0.06832182 -0.04171752 0.06149075 0.12456627 0.12772368 0.058928944 -0.09587391 -0.11870641
0.052698303 -0.020234918 -0.05253877 -0.03109266 0.05766537 0.0015897749 0.03818736 -0.04335476
0.07537219 -0.08454459 0.025492314 -0.09848226 -0.059476435 0.08746978 0.07968076 0.07678039
-0.006684263 0.056124005 -0.05874899 0.10095696 0.034384266 0.0036377169 0.0024776075 0.05344145
0.048913404 -0.16089784 0.05288384 -0.081388615 -0.08524162 0.075581804 -0.091543466 -0.056717586
-0.0795296 -0.1020335 0.18064463 -0.08180334 -0.04474048 0.016071334 -0.03274147 -0.10097872
-0.06677906 -0.19299863 -0.0042383885 0.010153903 0.01788432 0.10169834 -0.015627455 -0.01731966
0.12552775 0.05379295 0.013928177 0.13638037 -0.045649152 -0.11012531 0.046528853 -0.11448538

lstm.bias_ih_l0 f4 [256]
00000000: a0dd 49bd 7df6 34bd 5663 ac3c e064 febb
00000010: 4a53 babd 91fa 133d 2f24 82bd 1a84 723a
00000020: 0a43 45bd 63c9 d2bc 6ee7 9e3a 0e45 b73d
00000030: 5027 34bd 692d 14bc 381e 0bbd bcb9 b639
00000040: 40bf 8ebc a576 a63d dcd0 91bd fe71 4b3d
00000050: 1f33 f13d 6d6f 893d 6f1c d1bd 697d bebd
00000060: f36d a13d eeef 313d 0a55 263d 3f9f e73d
00000070: 3a43 a33d ae53 f63d 2aff fc3c 907c 093e
00000080: 8821 543c 2833 c13d 2f2d 2b3d bd15 403e
00000090: bbb0 423d a3a2 d23d 4f66 90bc dfe3 eebb
000000a0: b023 fa3c 599a ed3c 879f 123e e05b 0dbc
000000b0: d6f4 ed3d bad6 fcbd f92f d3bc 302d 7dbd
000000c0: b2c8 12bd 2690 923c 05c6 fd3c 3502 ad3d
000000d0: 4858 23bd 460e 843c a7a5 083e 45ad e53d
000000e0: ba8a fe3d 4226 723d 9e55 cb3d e60f c4bc
000000f0: 5525 0dbc e3da e03c 1ce9 31b9 6e17 1a3b
00000100: b15b 45bd cf57 003e 53cb e13d 1513 9fbd
00000110: f744 023e f852 ae3d afbf 6d3d 7b23 65bd
00000120: 8b80 723d 7abe 843d 7bdb 89bd 9f49 673c
00000130: b8fe 36bd a4f0 a7bd de2f c3bd aaf1 4f3d
00000140: 4ff2 98bc 3375 4e3d f1fe d83d f182 b4bc
00000150: 7161 053b c86b c13b 45d1 f2bc 6a4a 883d
00000160: 615e 33bd 767b 013e 635d 4dbc 1c7f 82bd
00000170: a33f 49bd 13f5 1b3e 4658 883d f6f4 c0bd
00000180: 9071 84bd a926 0ebc 3299 7dbd b074 1a3d
00000190: da2f d93d 7bb6 c33d 7178 5b3d f462 28bc
000001a0: 7418 a3bd f415 95bd 2014 ba3d 7f31 f1bd
000001b0: fa57 ca3b 96ff af3d 4656 4ebd b63c 17bd
000001c0: 4933 833b 1726 e73d d90f de3c 3e62 a4bd
000001d0: acab 86bd 56c4 8bbd cf35 7ebc b0cc 03bd
000001e0: f3c8 da3d 8cc0 67bd b18d eb3c 600c ff3d
000001f0: 552a bc3d c243 b6bd 305e c2bd c8e2 c13d
00000200: 605e 9a3d fe27 8e3d 82a2 663d 2a08 0e3c
00000210: 1e96 323d 8f2d d5bd 7452 803b ea21 85bd
00000220: 0b89 90bd e06f 2dbc db3f e93d e5d3 c8bd
00000230: 7c0a d1bc bde2 0dbd f952 b83d eb99 04be
00000240: 027c ca3d 9ae3 9e3d 8645 22bd 2542 883c
00000250: 720d 583d cfe9 80bc 604d 87bd c717 fcbd
00000260: 218a 063e 1b7c 9fbd 3a4f 043e 8bbb c3bc
00000270: dfdf 50bd a541 853d bed4 aebc 79a0 203d
00000280: bf6e bc3c 6846 dd3c d39c 1bbd e20e d4bb
00000290: 5b0d 24bd b89e 413c bcdf e1bd a567 d1bd
000002a0: 6bac 953b 6e4e ebbd ebc9 20bd f5f1 9a3d
000002b0: 3906 893d 624e e23c ef54 fd3d 97db 25bc
000002c0: dee1 f3bd 0fab ea3d 657c a7bd a314 983c
000002d0: 1220 073e 43a3 8dbd fade c2bd a956 e4bd
000002e0: 37b2 db3d b4ad 22bd da9c 0f3c 0f28 82bd
000002f0: 64cf 0d3d 2f66 7bbc 6ea7 1abd 8682 e03d
00000300: b115 92bd 5c1f d9bd e8d0 9a3c 9a5c 2fba
00000310: 7ff7 9abd 763b 4b3c fde9 b33d 63d9 8cbd
00000320: 106a cf3d a2c9 033e 3733 003e 5fcb 0e3d
00000330: 54a8 843d e189 663d 20b1 85bb ae5d e03d
00000340: a659 903d f58c ce3d cda2 8a3d e1fa bb3d
00000350: 02b6 4c3d 74ca 243d f8cc 0d3d c1f3 b8bd
00000360: 5182 0d3d 261b d83d 71cb 213d 0d8c c03c
00000370: dd5a a83d 8543 2b3e 10aa 7bbc 2ca1 5ebd
00000380: 2dd0 6d3d d0fb a63d b52c 95bd 8371 5f3e
00000390: 2dd2 b1bc b3ce d6bd 15dd 903d 069e 8c3d
000003a0: 5531 7dbd 2350 2d3e 008f bc3d f447 4f3c
000003b0: 9218 8ebd ba96 be3c a499 88bd 665b 173e
000003c0: 389e 073d 59bb d63d d28f ed3d 9cbe 21bb
000003d0: 423b 033e 1ad7 39bd da82 0e3c f2d6 37bd
000003e0: 7ff5 ca3d 3200 3f3d be4f af3c 2081 95bc
000003f0: 8023 b2bd 0025 a73d b2ca 9f3d ad4a be3d
-0.049283624 -0.044180382 0.02104346 -0.00776349 -0.090979174 0.03612763 -0.06354558 0.0009251252
-0.048159637 -0.025730794 0.0012123415 0.08948718 -0.043982804 -0.00904403 -0.033964366 0.00034852128
-0.01742518 0.081280984 -0.07119915 0.04966926 0.11777329 0.06710706 -0.102105014 -0.09301264
0.07882299 0.043441705 0.040608443 0.11309671 0.07971807 0.120276794 0.03088339 0.13426423
0.012947448 0.094335854 0.041791137 0.18758292 0.047531825 0.10284927 -0.01762691 -0.007290348
0.030534595 0.029004263 0.14318667 -0.008627862 0.116189644 -0.12345643 -0.025779711 -0.061810672
-0.03583593 0.017891001 0.030978212 0.084476866 -0.039879113 0.016120087 0.13344441 0.11214689
0.12428804 0.059118517 0.099284396 -0.023933362 -0.008614858 0.027448123 -0.00016966875 0.00235125
-0.048183147 0.12533496 0.11025109 -0.077673115 0.1272162 0.08511919 0.05804413 -0.05594204
0.05920462 0.06481643 -0.06731316 0.014116674 -0.044676512 -0.082001954 -0.09530614 0.05076758
-0.01867023 0.05040474 0.10595501 -0.022035094 0.002035227 0.005902741 -0.029640803 0.06654818
-0.04379118 0.12644753 -0.012534472 -0.063719004 -0.049132954 0.15230207 0.06657462 -0.094217226
-0.06466973 -0.0086762095 -0.061913677 0.037708938 0.1060483 0.0955629 0.05358166 -0.0102774985
-0.079636484 -0.07279578 0.0908587 -0.11777019 0.0061750384 0.08593671 -0.050375246 -0.036923133
0.0040039164 0.11286562 0.027107166 -0.08026551 -0.065757126 -0.068245575 -0.015515759 -0.032177627
0.10682859 -0.05658011 0.028754087 0.12453532 0.09187762 -0.088996425 -0.09490621 0.09467083
0.07537532 0.06941222 0.056307323 0.008668939 0.043600194 -0.1040908 0.003916079 -0.06500609
-0.07057389 -0.010585755 0.113891326 -0.09806041 -0.025517695 -0.034640063 0.09000201 -0.1294934
0.09886934 0.07758255 -0.039617084 0.016633103 0.052747197 -0.015736489 -0.06606555 -0.12309223
0.1313863 -0.07787343 0.12920848 -0.023893138 -0.05099475 0.06506661 -0.021341678 0.03921554
0.023002027 0.027011111 -0.037991356 -0.0064715007 -0.0400518 0.011817627 -0.11029002 -0.10224847
0.004567673 -0.11489569 -0.039255064 0.07565681 0.0669064 0.027625266 0.123697154 -0.010123155
-0.11908315 0.11458408 -0.08178023 0.018564528 0.13195828 -0.06915905 -0.09515186 -0.111493416
0.10727351 -0.039716437 0.008765424 -0.06355297 0.03462161 -0.015344187 -0.03775733 0.10962395
-0.071330436 -0.106016845 0.018898442 -0.0006689519 -0.075667374 0.012404313 0.08784864 -0.06877401
0.10127652 0.12869886 0.12519537 0.03486192 0.064774185 0.056283835 -0.004079953 0.10955368
0.07048349 0.10085479 0.06769333 0.09178711 0.049978264 0.040232137 0.0346193 -0.09030867
0.034548108 0.10552053 0.039500657 0.023504281 0.08220456 0.16724975 -0.01536037 -0.054352924
0.05805986 0.08153498 -0.07283918 0.21820645 -0.021706665 -0.104886435 0.07073418 0.06866078
-0.061814625 0.16925101 0.092069626 0.012651432 -0.0693828 0.023265231 -0.066699296 0.1478096
0.033109874 0.104849525 0.11599697 -0.0024680262 0.12815574 -0.045371152 0.00869819 -0.044882722
0.09910106 0.046631046 0.021400329 -0.018250048 -0.08698177 0.08161354 0.07802333 0.09291587

lstm.bias_hh_l0 f4 [256]
00000000: f1ab ddbd b5d0 b2bc 123b 38bd 401d 1fbc
00000010: 5575 43bd ce1f fbbd fddf 45bd 805e ef3d
00000020: 6831 babc 2d85 ee3d 6f8d 00be 86b1 9abd
00000030: 0a2e 643b 51fe e4bd 0bd2 6cbd 1219 6cbd
00000040: 0680 513d 1a9c f63d a650 6fbd 86e7 983d
00000050: 1efa 073e 1185 6dbb 1a06 8c3c 92d8 9bbb
00000060: e30e cf3d 8c42 d3bd 076a 89bd e8b6 0b3d
00000070: 9031 abbd ae0d 913d 6c9f 883c 583c f73d
00000080: 07d8 3d3c 5e22 bb3d cb92 3b3c 64d0 f23d
00000090: 3b90 e93d 85e7 0bbc b00d de3d 2b06 c9bd
000000a0: 50be f43d 7fcf 19bd c5d2 f23b 2e98 b33d
000000b0: 2799 553d 00ad ffbd f359 efbc 3816 033d
000000c0: 35a4 c23d 0011 883b 7084 ea3d a321 c7bd
000000d0: 6218 973d b597 bcbc 33a0 053e bbeb 933d
000000e0: b0bc 233e c9b6 1c3e d281 b0bd ca03 43bd
000000f0: 0b86 65bd f29e c03d f172 d53d 7538 3f3d
00000100: 675a f3bd 981d cf3d 0c86 f73d 4974 e23d
00000110: ec4b 153e 7856 87bd 0a9a 5dbc dae2 83bd
00000120: 09c0 173d c458 163d 02c9 d8bd 7ba5 a03d
00000130: b711 d33d 5e69 8c3d 748a 0ebc 9088 9c3c
00000140: 925e e83d ae40 f73d 188d 543d 269d bd3d
00000150: 6ef2 7cbd 1e73 95bd cba3 a1bc fbe0 12bd
00000160: c86f 58bd e841 96bd 069f f33d 3d42 c43d
00000170: cf7f bb3d c971 c53d 28a6 bf3d 18a2 353d
00000180: 1a43 c8ba 84ce 0039 e109 acbd 7373 0bbd
00000190: 47db 223d 8953 ddbd d154 3a3d 6fcf 3b3d
000001a0: 11c1 b23d 58c4 9b3d 2c7b a83d 54ea 95bd
000001b0: be2d e03d 4605 773d 4994 6ebd ece3 cbbd
000001c0: ef1a 8bbd 2628 303e a230 a83d e255 ec3d
000001d0: 8648 2ebd d80b bcbc bd03 a93c d28c 67bb
000001e0: f6e9 5d3e 77e9 893d e228 2e3d 5766 cc3d
000001f0: dda5 df3d 1190 1ebd 24ff 963d 7c51 b63d
00000200: 7f38 583d 245e 43bd 4689 b4bd 4128 00be
00000210: d047 aabb 2971 a73d 70e6 bbbd 50be b3bd
00000220: 05df ab3d 7e3d adb9 0ae4 083d 4d4a aa3c
00000230: d1cb cb3b 342c 21bd 5447 41bd 08f3 68bd
00000240: fc8a febd ad89 523d 9fe4 abbd 672e b4bd
00000250: 782a a5bd c597 943d 34b9 dbbd 8faf 49bd
00000260: 9960 003d 1926 82bc e96b cb3b 7c15 a43b
00000270: f121 41bd dd88 043d 3e93 093e 9eef a83b
00000280: 1812 7a3d dba2 813c f983 ca3d 4e16 41bd
00000290: b966 4abd acc4 b63d ac68 82bc 24be 313d
000002a0: 72e8 863d 32af 093d 7890 89bd b3bd 843d
000002b0: 9da6 a23d 8a75 873c 8025 30bd 6cf6 be3c
000002c0: 6927 56bc 4bf3 07be d66e e2bd 6a10 78bc
000002d0: 9d61 bebd f38f b9bd 685e dc3d 7bca 8b3b
000002e0: e67c 533c a8c2 dc3d b6ba 523c 30b0 4d3d
000002f0: 4738 f5bd c378 153d b199 a93d 2cc8 da3d
00000300: e898 60bd 649c d1bd 04ba 90bd 7070 80bd
00000310: 0760 a8bd 95f9 b13c 1830 023e d385 99bd
00000320: 2239 12bc e02b 8f3c a1ea 8cbd 644f 5b3b
00000330: d4a0 ed3c dff2 e93d a5ce 0c3e 4522 0d3e
00000340: 329f 07bd 35aa 35bd ba25 15bd 8e14 62bd
00000350: 3f91 7d3d 2a29 bcbd fc28 cdbd 11d4 f33d
00000360: 86db 193a 8c9f 37bc f16f f1bc 39af b2bc
00000370: 4950 c23d 6473 883d a028 923c e136 f0bb
00000380: a1d0 dd3c ea6a 74bd 5450 9b3c 7d9c 503e
00000390: ef68 183c 6163 b03d 2d80 0fbd 2447 2bbd
000003a0: 52e4 dd3c fee2 5d3d c114 963d d3de 0abe
000003b0: 5de8 95ba e008 05be 8cee 48bd a683 153d
000003c0: 6690 59bd 513d 68bd 976e f53c c480 f0bd
000003d0: 74ba 663d 10c9 093d 30f5 3d3d 2895 21bd
000003e0: ce10 ff3d 1f45 063e a9cb 4d3d a042 1c3d
000003f0: 0f78 0dbd 2e5e c13d c896 98bc ffaa e23d
-0.10823811 -0.021828035 -0.04497821 -0.009711564 -0.04771932 -0.12261926 -0.048309315 0.11687946
-0.022728637 0.11646495 -0.12553953 -0.07553391 0.003481748 -0.111813195 -0.0578175 -0.057641096
0.051147483 0.12041493 -0.05842652 0.074660346 0.13279006 -0.0036242644 0.017092753 -0.004756042
0.10110261 -0.10315427 -0.06709676 0.03410998 -0.08359063 0.07082687 0.01667758 0.120720565
0.011587149 0.091374144 0.011448572 0.118561536 0.11404463 -0.008539085 0.108424544 -0.098156296
0.11950362 -0.0375514 0.0074103796 0.0876926 0.05214801 -0.12484169 -0.029217696 0.03200361
0.09503976 0.004152417 0.11451042 -0.097232126 0.073776975 -0.023021558 0.13049392 0.072226964
0.15989947 0.15304102 -0.08618511 -0.047611035 -0.056036036 0.094053164 0.10422314 0.0466847
-0.11882477 0.101130664 0.12086114 0.11057336 0.14579743 -0.066082895 -0.013525495 -0.06439753
0.037048373 0.036705747 -0.10585214 0.07844063 0.10306113 0.06856035 -0.008700002 0.019108087
0.11346163 0.120728835 0.05189237 0.09258489 -0.061754636 -0.072973475 -0.019731423 -0.03585909
-0.052840978 -0.07336789 0.11895566 0.095829464 0.09155237 0.096408434 0.09357864 0.044344038
-0.0015278787 0.00012283964 -0.08400322 -0.034045648 0.0397599 -0.10806949 0.045491043 0.04585212
0.08728231 0.07605809 0.08226618 -0.07320085 0.10946225 0.060307764 -0.058246884 -0.09955582
-0.067922466 0.17202815 0.08212401 0.11539818 -0.042549632 -0.022954866 0.020631665 -0.0035331738
0.2167128 0.06733983 0.042519458 0.09980457 0.10920308 -0.03871161 0.07372883 0.08902261
0.052788254 -0.0476972 -0.08815245 -0.12515356 -0.005196549 0.081758805 -0.09174812 -0.087765336
0.08392147 -0.00033042947 0.0334206 0.020787382 0.006219365 -0.039348796 -0.047187164 -0.056872398
-0.12428853 0.05140083 -0.083932154 -0.08797913 -0.08064741 0.0725551 -0.10728684 -0.04923969
0.031342123 -0.015887307 0.0062079323 0.005007444 -0.04715151 0.032357085 0.13435075 0.0051555177
0.06105241 0.015824726 0.09888453 -0.047140412 -0.04941437 0.08924231 -0.015919052 0.043394223
0.06587304 0.033614345 -0.06717008 0.06481495 0.07941935 0.01653554 -0.043004513 0.023310862
-0.01307092 -0.13276403 -0.110562965 -0.015140632 -0.09295962 -0.09060659 0.10760194 0.004266081
0.012908196 0.10779315 0.012861898 0.050216854 -0.11973625 0.03649212 0.082812674 0.10682711
-0.054833323 -0.10234907 -0.0706673 -0.06271446 -0.08221441 0.021725455 0.12713659 -0.07496228
-0.008924754 0.017476976 -0.068806894 0.0033464069 0.029007353 0.11423277 0.13750704 0.13782604
-0.033110805 -0.044351775 -0.036412932 -0.055195384 0.061906096 -0.09187539 -0.10017583 0.11905683
0.00058691984 -0.0112074725 -0.029472323 -0.021812068 0.094879694 0.06662634 0.017841637 -0.007330761
0.027077021 -0.059672274 0.018959202 0.20372196 0.009302362 0.08612705 -0.035034347 -0.04181589
0.02708641 0.054171555 0.07328177 -0.13561563 -0.0011437048 -0.12991667 -0.04905562 0.036502503
-0.053116225 -0.0566991 0.02995996 -0.1174331 0.05633016 0.033639014 0.046376407 -0.039448887
0.12454377 0.13112305 0.050243054 0.038149476 -0.034538325 0.094417915 -0.018626586 0.11067771

lstm.weight_ih_l1 f4 [256, 64]
00000000: f3fa 9abd cecc 9b3d 9c59 a13d 9786 bcbd
00000010: 4150 ee3d e6c2 063e d7e1 25bd a151 21bd
00000020: 5dda 62bd e477 7f3c d62d 903d 5eba cf3c
00000030: caf2 003e a061 a1bd ee0b e23c f333 063e
00000040: 0d6e 4ebc db6d 9c3d 822f bdbc 3325 dabd
00000050: ad38 bfbd ef9a f33d 8b71 b13d 3649 03be
00000060: 7df7 123e 4eb1 f5bb 4792 1a3e 8e05 c4bd
00000070: f67d f0bd 0b6c 4dbd 0fa4 febd 7454 a3bd
00000080: cac9 f3bd 14dc b0bc c3b0 083d b2a2 52bd
00000090: b1de d0bd 4342 833c 8038 963c 9bd9 3b3d
000000a0: d854 0e3d b270 3ebd c076 b7bc 0686 683c
000000b0: b9b7 8ebd 9b1b 10be 58fb 1cbe 8fc8 15bd
000000c0: d9f8 9b3d a644 d0bd 28b5 edbd 76c5 9a3d
000000d0: 45ae b0bc a809 403b 88de b4bd ebde 54bd
000000e0: a117 cb3c c2dc 27bd 9c9b 58bc 77ea 0e3d
000000f0: 4c63 f4bd 27a2 a8bd 99b1 993d 5742 dfbd
00000100: 8c2d 4e3d 84c2 9c3d 727d b43d 220d 383d
00000110: 1689 bd3d 03a3 aa3d 5877 26bc 6c2e 58bd
00000120: 6d8e f43c 2f10 77bd d369 a0bd 24f3 c6bd
00000130: aaa5 043e c682 e13c 006c 8a3c abb7 32bd
00000140: 4da0 973b 6ba8 e63d b929 673c 6996 7bbd
00000150: 153d 4b3d 4205 973d 5750 8a3c acb7 b8bc
00000160: 7aa0 76bc 8fa7 96bd a64d 833d b69a 743c
00000170: ba68 993d 63ec 18bd 91fa 393d ca36 c6bd
00000180: ad95 b4bc c172 a53c 1e36 cdbb 1375 8bbd
00000190: 5748 d83c 3089 eabc ac0c 35bc 1ffa e5bd
000001a0: f187 04be 8622 d93d ba7e 923d ce4c 0b3b
000001b0: e162 25bd bda7 163c 7a7b c8bd e0ed 273e
000001c0: b75a 09be f5dc b53d ac77 66bd 4930 83bd
000001d0: 4d6f 93bd 9614 eb3d f462 13be bc87 dcbd
000001e0: 5dfa 47bc b8df 5a3d d923 3b3e 8fd7 223c
000001f0: 1ab7 ba3d 59ab 87bd 90e7 0f3d 9070 fabc
00000200: 6f4b ddbd 411a 89bd 7d4f 08bd fe43 e1bd
00000210: 3f83 edbc 58f1 d43d 95b1 2dbd fba0 4a3c
00000220: 93c4 bc3b d29a dfbd 33ab f43b 27e1 9a3d
00000230: 2c09 323c 8457 40bd 847a 863c 8cc2 43bb
00000240: c3c4 92bd 63e5 aebc 6b6a 39bb ebaf e5bd
00000250: 3bb3 51bc a0f3 a33d 4c75 5b3d c684 fe3b
00000260: e753 e33d 03dd 7a3d 5e42 38bc 2faa ad3d
00000270: 7555 8bbc aa7f 153e 787a 12be bf9d 91bd
00000280: 9d67 7dbd c1de 2ebd 33e3 833d 558c c7bd
00000290: eff5 48bc 5239 0e3e e5c9 cabc 9fe1 1dbd
000002a0: 2c8f f63d f18a dd3a 0536 9dbd 96b8 aabd
000002b0: c3c8 023d 5014 053b 1229 b4bd b416 9d3d
000002c0: 1972 c4bc abf4 00be 00e7 5cbc 4a2e 8c3d
000002d0: 5b81 4bbc 66f7 3abd e38f 54bd e758 c93d
000002e0: 4421 293d 513b 033e 87f4 153d f9b2 c63c
000002f0: 7c44 c53d 01e8 3abd 56f9 aebd 16be a4bd
00000300: c43b 6f3c aac4 1b3e 0e6b d3bd 4679 bd3c
00000310: 2028 003d 1ccb 89bb 38b2 633d 5229 ef3c
00000320: 127c 0cbe 0c55 8bbd 017f dfbc 3137 81bc
00000330: f4f6 5f3d 4a18 843b 4fbe a53c 2eb7 10be
00000340: 8fe2 1ebd c795 1b3d a1db 3fbd 8a3e 3fbd
00000350: d81d 353c 1fab 01bd 454e e9bd dbb1 98bd
00000360: 1391 e63c 75ac 66bd a697 97bd e036 20be
00000370: 9b4b a13d 05a1 b7bc be3a a7bd 8c84 87bd
00000380: f3f5 5ebd d8fd 03bd bebb 2dbd 55ba cd3d
00000390: 5cb4 f5bd 4927 ac3b 587c 4fbd b0c0 893c
000003a0: b5cf 01bd ea26 ec3d fc01 d4bc 3c94 073d
000003b0: f4f5 603c 637b 303d 413f 74bd 0bab babd
000003c0: bbc7 eabd 391d eabb d032 08bd d1e5 a93d
000003d0: 9631 bfbd cd1a e2bc d59b 81bd 4cc7 ba3d
000003e0: 003c 0ebe df97 0ebe dda5 7cbd 3b13 6d3d
000003f0: a0a9 0bbc 53b4 0abd 4ca6 84bd bb71 bf3d
-0.07567396 0.07607423 0.0787842 -0.092053585 0.11636401 0.13160285 -0.04049858 -0.039384488
-0.05538403 0.015592549 0.070399925 0.025357421 0.12592617 -0.078799486 0.02759358 0.13105755
-0.01259948 0.07638141 -0.023093943 -0.106516264 -0.09336982 0.118947856 0.08664235 -0.12820897
0.14352222 -0.007497943 0.15094863 -0.09571372 -0.11742775 -0.050151866 -0.124336354 -0.079750925
-0.119037226 -0.021589316 0.033371698 -0.05142469 -0.10198725 0.016022807 0.018337488 0.04586182
0.034748882 -0.046494193 -0.022395492 0.01419211 -0.06968636 -0.1407303 -0.15330255 -0.03656822
0.07615823 -0.10169344 -0.116068184 0.07557194 -0.021567473 0.002930263 -0.08831507 -0.051970404
0.02479154 -0.040982015 -0.013220694 0.03489157 -0.11933002 -0.08234053 0.07504577 -0.10901325
0.050336406 0.076542884 0.08812989 0.0449344 0.09254663 0.08331873 -0.01016029 -0.052778646
0.02985307 -0.06031817 -0.07832684 -0.09714344 0.12953821 0.027528178 0.016897202 -0.04363219
0.0046272636 0.11262592 0.014109069 -0.06142274 0.0496188 0.0737405 0.016884012 -0.02254852
-0.015052909 -0.07356178 0.06411295 0.014929464 0.07490678 -0.03733481 0.045404974 -0.09678419
-0.022044027 0.02019632 -0.006262555 -0.068094395 0.026401682 -0.02862987 -0.0110503845 -0.112293474
-0.12942483 0.10602288 0.071530774 0.0021255496 -0.0403775 0.009195265 -0.09789176 0.16399336
-0.13413511 0.08880035 -0.05626647 -0.06405694 -0.07198963 0.11478536 -0.14393216 -0.10768077
-0.012205687 0.05343601 0.18275394 0.0099390885 0.09116955 -0.06624479 0.035132945 -0.030571252
-0.108054034 -0.06694461 -0.03327893 -0.109992966 -0.028993247 0.10397595 -0.042405684 0.012367482
0.005760738 -0.109182015 0.0074666976 0.07562476 0.010866445 -0.04695846 0.016415842 -0.0029870598
-0.071664356 -0.021349614 -0.002829219 -0.11215194 -0.0127990795 0.08005452 0.05357866 0.0077672927
0.110999875 0.06124593 -0.011246292 0.084797256 -0.017008523 0.14599481 -0.1430453 -0.07110166
-0.06186639 -0.042692903 0.06439819 -0.09743563 -0.012265666 0.13889053 -0.024754474 -0.038545247
0.120390266 0.001690237 -0.07676319 -0.08335988 0.031929743 0.0020306297 -0.08796896 0.07670346
-0.023980187 -0.12593333 -0.013482809 0.068447664 -0.0124209775 -0.045646094 -0.051895034 0.0983141
0.04129149 0.12815596 0.036610153 0.024255263 0.09632203 -0.045631412 -0.08543651 -0.080440685
0.014601652 0.1521174 -0.103231534 0.023129117 0.031288266 -0.0042051207 0.055589885 0.029194508
-0.13719204 -0.06803331 -0.02728224 -0.015773388 0.054678872 0.004031216 0.020232348 -0.14132378
-0.03879028 0.037984636 -0.046840314 -0.0466905 0.011054479 -0.031657334 -0.11391882 -0.07455798
0.028145349 -0.05631681 -0.074019715 -0.15645933 0.07875749 -0.022415647 -0.08165501 -0.06617078
-0.054433774 -0.032224506 -0.042415373 0.10045306 -0.119972914 0.0052537066 -0.050655693 0.016815513
-0.031692225 0.1153086 -0.025879852 0.03310035 0.013730515 0.04308642 -0.059630636 -0.09114655
-0.11463877 -0.007144597 -0.033251584 0.08295787 -0.0933563 -0.02760067 -0.06328551 0.09120044
-0.13890076 -0.13925122 -0.061681617 0.057879668 -0.0085243285 -0.033863377 -0.06477031 0.09347864

lstm.weight_hh_l1 f4 [256, 64]
00000000: 1a2d 9ebd e8dc 3bbd f63e bcbc 7fa5 9dbd
00000010: 41b6 0dbd 3665 2dbc fd74 053e 1749 80bd
00000020: 2db1 41bd 5333 bc3d 5a72 01bd 508d d0bd
00000030: a284 d83d d5b8 3aba f2c1 fa3d 5c72 da3d
00000040: ec3a dfbd 7852 a6bc 69ac a53c 5e0b a4bd
00000050: 4802 0ebe 7975 983d 904f 143c 2a93 bbbd
00000060: 98b6 053e def2 2fbc 48a7 cfbd d5bf 5a3c
00000070: 0626 b3bd 12da 93bc bfe2 a53d ffae 553d
00000080: d23d 233d cacf 11bd 1655 943d 2878 d13d
00000090: 2825 ca3d 4c34 893d a7a0 d23c 09eb 9c3c
000000a0: 58a0 79bd 9b70 91bc 910d ddbc 59e5 a4bd
000000b0: 8c14 903a 0a1d ca3c 7948 803c f310 843d
000000c0: 55f8 693d fc14 33bd b066 f83d beea 883d
000000d0: 293e 043e cda1 923d d25a 013e d51d 203d
000000e0: 2286 5ebd 0f68 443d b7e5 0ebd a6a1 b6bc
000000f0: ef6d f13d a598 963c 6ef5 3c3d ded4 c73d
00000100: 6ede 733d 596d 0a3e c7b4 8abd 835a 50bd
00000110: 87b1 c9bc 3a2d 8abd 6f7f 7f3c 1da8 79bd
00000120: 5680 51bc 1fe9 a23a 24c1 97bc d5ad dabd
00000130: bab1 5e3d 552a 84bd 69f4 c9bd 447c d1bc
00000140: 5dd5 f6bd 6258 e5bd 9658 37bd 264a 883d
00000150: e25a 4d3c f4d6 9d3d 136f 093e f820 3a3c
00000160: b08b ffbd 23aa e33b b180 bc3d cdf4 aebc
00000170: b5fa 08bd 503b 923d bac6 af3d 6cec edbd
00000180: f135 2cbc c9d2 3ebc 4a81 ebbd ce2f ddbd
00000190: 87ed 133d e201 843d dea5 0ebd f7ee b5bd
000001a0: d5d4 46bc 91ef f4bd 019a 863c b171 083e
000001b0: cfd0 c2bd 5d72 9d3d 89db 66bd d95f b33b
000001c0: 1cf6 84bd 298a 0abd 83fa 633c e817 c93b
000001d0: 7cce d6bd e5a1 ed3b 9c82 833d 827b 983d
000001e0: d0ab fd3d 19b8 d6bd 9760 b9bd d719 bb3c
000001f0: a993 6b3b 0e1a e73d 9557 9abd da23 c73d
00000200: 7a4b d2bb 954a 9a3d bf0a 39bd 7d9c ab3d
00000210: 9266 a4bd 1402 d23d 08da 913d 6113 f03c
00000220: 1942 e9bd 1896 f4bc a1d9 593d d6ea f4ba
00000230: cd96 a0bd a177 d3bd 8c27 393d 1950 4fbc
00000240: 8afa 40bd ac78 3e3d 4576 9b3d 0d71 4bbd
00000250: bb0c 8dbc f122 cabb 57da 7f3d fbe5 91bd
00000260: 4146 56bc b85a 643a e3b8 183b 34e0 d83c
00000270: 1f52 f9bd 59bd 6a3d 4ae5 913c e92b 013d
00000280: c191 d8bd 776a 68bc a81d b4bd d486 48bb
00000290: d01e 043d 7f13 a4bd ba09 4dbd 013f ccbd
000002a0: 7924 e0bd f799 d73d 3884 2e3d 2a3e 74bd
000002b0: 3be6 d63d 87dc c8bd 3694 793c ea79 c03c
000002c0: f852 01bd 9687 dcbc bb66 d9bd dbe8 dfbd
000002d0: c47b 063d 21a0 a73d c07b b73b a1ba a7bd
000002e0: 8272 d7bd 5932 53bd edd6 a33d ddf1 9f3d
000002f0: 42e9 2ab9 5122 773d 8ab2 7839 aa84 64bd
00000300: 3f1e b63d e562 9dbd 8e6a a63c 939d c2bd
00000310: 3c8c 8f3d 92e5 a5bd cb29 c93d 96ad 0a3d
00000320: 3ac5 a93d 7841 37bd c28e e53d 4f59 2c3d
00000330: 49f3 f53d 0e45 9dbd ca4d 0fbe d9e0 973d
00000340: 1e28 66bd afd8 dfbd f0b5 a13d 229e a03d
00000350: 6041 2b3d edaf c03c 1aba 01bc e448 c73d
00000360: f58e 44bd 4c7d cfbd d57f 1b3c 7965 3f3b
00000370: 2f14 83bd 8cec 18bd 404f bb3d 89d0 4dbd
00000380: 93ef ba3b ffb0 983d ae8d 42bd e435 c93c
00000390: 8deb 4bbd f24c 10bd 78b1 7a3d b019 e33d
000003a0: abd0 17bd 573d e33d 8cdd 1b3c b2d2 e4bd
000003b0: 0371 7dbd ee13 ea3d ef5c a3bd 990f a93d
000003c0: 6192 e13d 26cb e53c 1b68 d4bc 9b7a 043e
000003d0: de92 88bc 4599 a43c eda2 8f3d eb85 b9bd
000003e0: c22d a73c 2a38 6d3d 4c2f 99bc e36c 46be
000003f0: c4da 0cbd 6167 89bc 4a5f babd 6569 f23d
-0.07723446 -0.04586497 -0.02297924 -0.076975815 -0.03459764 -0.010583213 0.13032909 -0.06263941
-0.04728811 0.09189477 -0.031603195 -0.10183203 0.10572173 -0.0007122879 0.122440234 0.106663436
-0.1089991 -0.020302996 0.020223813 -0.080099806 -0.13868058 0.07444281 0.009052172 -0.09158929
0.13057935 -0.010739056 -0.10139328 0.0133514 -0.08747487 -0.01804832 0.08099889 0.052168842
0.03985388 -0.035598554 0.07242791 0.10227996 0.09870368 0.06699428 0.02571137 0.019155042
-0.06094393 -0.01775389 -0.026984008 -0.08051557 0.0010992452 0.02467205 0.015659558 0.06448545
0.057121594 -0.043721184 0.12128961 0.066853985 0.12914337 0.07159767 0.12632301 0.03909095
-0.054327138 0.0479508 -0.034887042 -0.022293877 0.11788546 0.018383333 0.046132497 0.09757398
0.059538297 0.13518275 -0.06772762 -0.05086757 -0.024620784 -0.067469075 0.015594347 -0.06095134
-0.012786945 0.0012429095 -0.018524714 -0.10677687 0.054368712 -0.06453387 -0.09861071 -0.02557195
-0.120524146 -0.11198498 -0.044762217 0.06654768 0.012533875 0.07707015 0.13421278 0.011360399
-0.12477815 0.006947772 0.092042334 -0.021356964 -0.033442218 0.07140219 0.08582826 -0.116173595
-0.0105109075 -0.011646935 -0.11499269 -0.10800134 0.036115196 0.064456716 -0.034826152 -0.088834696
-0.012135704 -0.11959756 0.016430857 0.1332462 -0.09512483 0.07687829 -0.05636171 0.0054740724
-0.06492254 -0.033823166 0.013914707 0.006136883 -0.104886025 0.0072519653 0.06421396 0.07445432
0.12386286 -0.104843326 -0.09051626 0.02283947 0.0035946167 0.112842664 -0.07536236 0.09723635
-0.006417689 0.07533757 -0.045176264 0.08379457 -0.08027376 0.102543026 0.07121664 0.029306116
-0.1138956 -0.029856727 0.053186063 -0.0018685709 -0.07841263 -0.10325552 0.04520373 -0.012653374
-0.047113933 0.0465018 0.075909175 -0.04966836 -0.017217984 -0.006168716 0.062464084 -0.071239434
-0.013078273 0.0008711028 0.002330356 0.026474096 -0.121738665 0.057309482 0.017809529 0.031536017
-0.10574675 -0.014185539 -0.08794719 -0.0030597942 0.032255948 -0.08011531 -0.050058104 -0.099729545
-0.109444566 0.10527413 0.042606562 -0.059629597 0.10493132 -0.09807687 0.01523309 0.023495633
-0.031573266 -0.026920121 -0.106152974 -0.109330855 0.032832876 0.08184839 0.005599469 -0.081898935
-0.105198875 -0.051561687 0.07999978 0.07809804 -0.00016299359 0.06033546 0.00023717634 -0.05579058
0.08892488 -0.07684878 0.020314481 -0.09502711 0.070091695 -0.08100428 0.098224245 0.03385695
0.08289571 -0.04474017 0.112088695 0.04207736 0.120092936 -0.07679187 -0.13994518 0.07415933
-0.056190602 -0.10930001 0.0789603 0.078426614 0.041810393 0.023521388 -0.007917905 0.097307
-0.047987897 -0.1013132 0.009490927 0.002920477 -0.06400334 -0.037334964 0.09145975 -0.050247703
0.005704829 0.07455634 -0.047498398 0.02456183 -0.049785186 -0.03522963 0.061204404 0.11088884
-0.037064236 0.11095684 0.00951327 -0.111729994 -0.061875354 0.114295825 -0.0797671 0.08254928
0.11014248 0.02805097 -0.025928548 0.12937395 -0.016671594 0.020092616 0.070134975 -0.09058746
0.020407561 0.05791489 -0.01869931 -0.19377474 -0.03438832 -0.016772928 -0.09100206 0.11836509

lstm.bias_ih_l1 f4 [256]
00000000: 5714 573d a039 693d 5057 3abc 766b f9bd
00000010: a423 82bd e7a6 60bd 657a 09bd aeca 63bd
00000020: 23bd bbbd 3a4f 003e 2559 e2bd fca1 89bd
00000030: d684 a43d 4a3d 113d e2a6 1b3e 84e0 e43d
00000040: fbd7 8e3d 99e4 fc3d 6d85 893d 7638 9abd
00000050: 6701 e03d 82b6 833b 9196 88bd 84e1 5ebc
00000060: 7194 7b3d e6eb 1c3e 18ea 513d 3418 573d
00000070: 61e1 9cbd 5402 8ebd 28cb 543d 9429 d93c
00000080: 5430 5b3d 8e63 0f3e b41c ab3d 5e6c c5bd
00000090: 34c5 b6bd 99b0 ccbc 1e77 e1bd 7c5a c23c
000000a0: 7901 8b3d 892f 2abd 2899 76bc a14b 573d
000000b0: 13f8 28bd 6b34 b9bd c79b 2abd ee3e 9b3c
000000c0: 5c8f 383a f335 103e 8b44 3cbd ec83 773d
000000d0: 53e4 9f3c 3fb6 053e 95f4 84bb 55b6 3b3d
000000e0: 3c84 47bd 79da c23d 0c4f f93d de81 50bb
000000f0: a978 0fbd 64b5 94bd 55c8 013e 6ebc 54bd
00000100: d280 a63d 6427 98bd 57d7 b53c 12c0 0e3d
00000110: 2ddd 3a3d 9ddc 513d d785 fdbb 036d d13d
00000120: 44cb c33c 58cd c93c 8466 14be d1e5 09bd
00000130: a806 4cbd b391 ce3d 1b71 f13d f1ff 21bd
00000140: cd97 edbc 2d06 a5bd 51b5 443c 6c8b c93b
00000150: d90d 09bd bfb8 45bd 5310 fabd c2a3 8a3d
00000160: 3bf4 ac3d b503 86bd ee33 65bd db4f b8bd
00000170: f061 a9bc 2466 b8ba 1168 34bd 52f3 adbb
00000180: 7e60 42bc 8277 683c 51e4 fe3c 1235 833c
00000190: 3b0b a7bd 9b69 8cbd 55f9 0e3d 7b6e 7cbc
000001a0: 6ef0 c4bc 6dce fa3d fcb2 70bc e3fd 6c3d
000001b0: fa28 6cbd 0a4c 6e3d 402d 833d 6c18 91bd
000001c0: a314 1abe 0f8a e33c 090c e73c 798a a03d
000001d0: 35d3 c7bd bca1 853d f86c e3bc b9fb e2bd
000001e0: 8589 c0bd 6453 863c 8887 363c fbf4 8b3d
000001f0: cc08 aabc ff6a 73bc b4d5 31bc 03b0 963d
00000200: 4752 8dbd ae61 833c d218 bcbd c2f4 903c
00000210: f220 f2bd 6539 6dbd 838f 26bc ea1c b9bc
00000220: a40a f43d c2e4 873c bef5 fa3c ae95 173c
00000230: 4e19 d43d b393 b4bd 3fe9 e73d d1df a9bd
00000240: 8dda aebd 6416 ad3c d1d8 a0bb a192 c6bd
00000250: e117 c93d c2ed d63d c214 a1bd b206 813d
00000260: a1f8 c7bc 7c16 ecbd 04ce c0bd 3733 53bc
00000270: a237 ebbd 59f0 cabc 0c8e a3bc bb57 7b3d
00000280: 211f c13d 1c61 c63d 3b56 723d cdf4 b33c
00000290: b182 acbd b82d d9bd 1e0a cd3b 0256 77bd
000002a0: d827 023c 2f7c 98bd 0279 10bd 5d2d 82bc
000002b0: 2caf 5e3d 794c 573d 9784 e7bd bdda fe3d
000002c0: b262 9f3d 0eba 5d3c 7bf3 293c 8af0 5abd
000002d0: c51f 9f3d 9ec9 963d 2347 043e ae12 e4bc
000002e0: a4fd 843d 8acc 3e3c 689e febd 67fa 213d
000002f0: 1180 ed3d 32c9 ee3a 1d4f a63d 1f37 20be
00000300: 471d a7bd 8009 5abd 975b 04bd 51bc 213d
00000310: 80d1 4fbd 9ba9 9f3d 565a b4bd 409c a0bd
00000320: 4f26 063d 0309 2abd 6314 633d 784d 2cbc
00000330: 1fe6 a0bc 1496 50bc d938 9bbd 2d3e 97bc
00000340: 2653 183e 64b3 c8bd 915a fa3d 3407 f63c
00000350: e37e 723d a85e 0ebd 7308 bbbd 65db f63d
00000360: c10c 9ebd 2349 1c3c f8ef dcbd 9cd7 653d
00000370: e49f b83d 9716 813d 8473 2dbc 4cca 5d3a
00000380: e02f 033e 1bdd f73d 7dc2 20be 9af2 ed3d
00000390: bf18 3c3d 1bb5 7ebd dccc a13a ef20 cbbd
000003a0: 2a3b da3d c39f a33d 5bb9 e9bd e757 4abc
000003b0: 2ec5 9d3d 501b a03d b057 9b3d da6b 65bc
000003c0: c0d1 963c 0f3e 5cbd 6e68 6b3c 1dcd a33d
000003d0: 1114 16be 17af 01bd 1fa0 913d b2e2 adbd
000003e0: a0a9 033d 9215 7bbd a2e5 01bd 14a7 bf3d
000003f0: 6883 303b 84f4 c23d e05c c2bd 6a2d c8bc
0.052509632 0.05693972 -0.011373356 -0.121787 -0.06354454 -0.05484667 -0.03356399 -0.055613212
-0.09166934 0.12530223 -0.11052159 -0.06720349 0.08033149 0.03545884 0.1520038 0.111756355
0.06974789 0.12348289 0.06714902 -0.075303 0.109377675 0.0040195594 -0.06669343 -0.013603572
0.06142086 0.15324363 0.05124864 0.052513316 -0.07660175 -0.06934038 0.051951557 0.026509084
0.053512886 0.14002821 0.08355084 -0.0963981 -0.08924332 -0.024986552 -0.11009048 0.023724787
0.0678739 -0.04154924 -0.015051164 0.05256236 -0.041252207 -0.09043201 -0.041652467 0.018950906
0.0007040405 0.1408308 -0.045963805 0.060428545 0.019518053 0.13057803 -0.0040574768 0.045828182
-0.048710093 0.095143266 0.1217328 -0.0031815688 -0.03502718 -0.0726116 0.12674077 -0.051937513
0.08130039 -0.07429388 0.022197409 0.03485114 0.045621086 0.051235784 -0.007736902 0.102258705
0.023900636 0.024634048 -0.14492232 -0.033666436 -0.049811035 0.10086384 0.11789151 -0.039550725
-0.029003048 -0.080578186 0.01200612 0.0061506536 -0.03346047 -0.04827189 -0.12210145 0.067695156
0.08445021 -0.06543676 -0.055957727 -0.08999606 -0.020676583 -0.0014068526 -0.044044558 -0.005308547
-0.011863826 0.014188649 0.03111473 0.016016517 -0.08156439 -0.0685608 0.03490575 -0.0154072
-0.024040427 0.12246404 -0.014691111 0.057859313 -0.057656266 0.058177985 0.06405115 -0.07084736
-0.15046935 0.027775792 0.028203981 0.078389116 -0.097570814 0.06524989 -0.027761921 -0.110831685
-0.0940123 0.016397186 0.011140712 0.06833836 -0.020756148 -0.014857053 -0.010854173 0.0735779
-0.06900459 0.016037788 -0.091844216 0.017694835 -0.1182269 -0.057916064 -0.010166052 -0.022596795
0.11916092 0.016588572 0.030634757 0.009251995 0.10356389 -0.08817234 0.11323785 -0.08294643
-0.08537779 0.02112884 -0.004908659 -0.09695936 0.09819008 0.104945675 -0.07865287 0.06300105
-0.024410548 -0.11527726 -0.09414294 -0.012890629 -0.114852205 -0.02477281 -0.019965194 0.061362963
0.094297655 0.09686491 0.059164267 0.021967316 -0.08423365 -0.10604423 0.0062573096 -0.060384758
0.00794407 -0.07445561 -0.035271652 -0.015890772 0.054366276 0.052563164 -0.113045864 0.12444065
0.077824965 0.013533128 0.010372992 -0.053452052 0.077697314 0.07362674 0.12917762 -0.027840938
0.064936906 0.011645446 -0.12432557 0.039545443 0.11596692 0.001821792 0.081205584 -0.15646027
-0.08159881 -0.053231716 -0.03231391 0.039486233 -0.050736904 0.077960216 -0.08806293 -0.07842302
0.032751378 -0.0415125 0.055439364 -0.010516517 -0.01964098 -0.012731094 -0.07579202 -0.018462265
0.14875469 -0.09799841 0.122243054 0.030032732 0.05920304 -0.03475824 -0.09132471 0.12053565
-0.07717276 0.0095389215 -0.10787958 0.056113824 0.09014872 0.06303137 -0.010586623 0.00084606255
0.12811232 0.121027194 -0.15699191 0.11618538 0.045922037 -0.062184434 0.0012344378 -0.09918391
0.10655816 0.079894565 -0.11412307 -0.012350059 0.07703625 0.078177094 0.075850844 -0.014002765
0.018410563 -0.05377012 0.01436816 0.07998107 -0.14656092 -0.03166112 0.07110619 -0.08490504
0.03214419 -0.061299868 -0.031713136 0.093580395 0.0026933793 0.09519294 -0.09490371 -0.024435718
