data/models/xrpANDbtc_gru.pth (torch, 155685 bytes, 9 tensors)

gru.weight_ih_l0 f4 [192, 1]
000000 e6 f3 a6 bd 13 d6 21 be 5e a1 1c bd 1d d3 6b bd
       -0.08151989 -0.15804319 -0.03823983 -0.05757438
000010 41 db 3b 3d d7 0b d6 bd 15 a7 43 bc cb 20 51 3c
       0.045863394 -0.10451477 -0.011941691 0.012764166
000020 f9 41 b5 bd a1 3d 87 bd cc ce ec bd f0 b8 d0 bc
       -0.08850474 -0.06603552 -0.11562881 -0.02547881
000030 34 55 65 bd 9d 67 48 3d 8d 45 12 3c 00 a7 07 be
       -0.05598946 0.04892694 0.008927715 -0.13247299
000040 c4 69 d9 3b cd df a5 3d 99 95 de 3d e8 b5 32 be
       0.0066349227 0.08099327 0.10868377 -0.17452204
000050 3d fb 8d bd 68 4a ba 3b 55 72 06 3d e3 bf 23 be
       -0.069326855 0.0056851394 0.03282388 -0.15991168
000060 04 37 92 bd 2b c4 1a 3e 38 f8 2b bd 67 aa 89 bd
       -0.071394 0.15113895 -0.041984767 -0.06721955
000070 c8 ec e9 bd cd bb 9f bd 15 c9 02 bc 25 85 91 bc
       -0.114221156 -0.07799492 -0.007982512 -0.017763684
000080 14 c9 0d 3e 68 a6 f3 3c b9 77 0d 3e 1c d8 ed 3c
       0.13846236 0.029742435 0.13815202 0.029033713
000090 8b 5c 53 bb 6c 55 f8 bd 34 6d ca 3c 8a ab b9 bd
       -0.0032251205 -0.12125668 0.024710275 -0.090659216
0000a0 d6 2d 36 be 8a 7b bd bd e8 95 5b 3d 0c d8 b5 bd
       -0.17790923 -0.09252079 0.05360976 -0.08879098
0000b0 d1 1a 72 bd b7 2f 8c bd b6 7a d5 bd a8 6e d0 bd
       -0.059107605 -0.068450384 -0.10423796 -0.10177356
0000c0 1b 5a 46 be 2d ca dc bb c2 b2 ba 3d 22 a8 84 bd
       -0.1937031 -0.0067379684 0.091161266 -0.06477381
0000d0 f1 ea 23 bd 48 de e9 bd 61 4e 01 be ee 6d 6b 3d
       -0.04001898 -0.1141935 -0.12627555 0.057477884
0000e0 07 b5 a3 3d 72 a2 2f 3c 8e 58 2a 3e a6 8c 5f bd
       0.079935126 0.010719882 0.16635343 -0.054577492
0000f0 98 bb 08 3d b9 25 0e be 51 3a 70 3d f1 4f a5 3d
       0.03338203 -0.13881578 0.058649365 0.08071888
000100 30 d1 27 bd b7 e5 1f be 78 3b 12 ba f8 39 02 be
       -0.04097098 -0.15614973 -0.00055783195 -0.12717426
000110 b6 fd d4 bd 24 87 24 be 25 0c cc bd 6a 6c cf bd
       -0.10399954 -0.16067177 -0.09963254 -0.101281
000120 67 6f 3d bd e3 5e c4 bd 95 37 50 be 24 be 3f 3e
       -0.04624882 -0.09588411 -0.20333703 0.18724877
000130 65 db 55 be 7e c9 83 be c9 16 26 be 5f c1 15 be
       -0.20884474 -0.25739664 -0.1621963 -0.14624546
000140 bf 80 a1 bc 69 3a f2 bd 7d 0e 86 bd cf fc e5 bd
       -0.019714711 -0.11827547 -0.06545732 -0.1122986
000150 b4 a5 fd bd 31 54 1d be b6 35 f9 3d 33 d0 26 be
       -0.12385121 -0.15364148 0.12168448 -0.16290359
000160 4b cc 2c be 46 e2 af bd be 2f 51 be 1a a6 17 3c
       -0.16874807 -0.0858808 -0.20428368 0.00925591
000170 44 d1 03 be b4 0a d8 bd 50 23 0b bd f3 e6 2a be
       -0.12872797 -0.105489165 -0.033969223 -0.16689663
000180 5f e9 91 3b 4b 4b 7b be 87 01 2a 3d 10 b4 26 bd
       0.004452869 -0.2454044 0.041505363 -0.040699065
000190 06 8d ae bd 3e 30 03 be ed b6 3c be f4 b6 da bd
       -0.08522992 -0.12811372 -0.18429156 -0.10679427
0001a0 53 e2 e4 bd 95 a7 32 be f3 d0 53 be 77 72 2d be
       -0.111759804 -0.1744674 -0.20685177 -0.16938196
0001b0 0f 2d 85 be 8c 4f 29 be 78 08 4a be 68 11 66 be
       -0.2601094 -0.16534251 -0.19729793 -0.22467577
0001c0 df f0 77 be f4 d7 d6 bd e5 03 2c be 28 fe 97 bd
       -0.24212979 -0.104904085 -0.1679836 -0.07421523
0001d0 1b 1b e9 bd 6d 56 d2 bd 13 93 cf bd 0f 79 77 be
       -0.11382123 -0.10270391 -0.10135474 -0.24167274
0001e0 43 33 66 bd d1 17 32 be c7 26 28 3e a5 f2 0c be
       -0.05620123 -0.17391898 0.16421042 -0.13764437
0001f0 97 3b e5 bd 27 e5 f0 bd fd c0 78 be b2 da c5 bd
       -0.111930065 -0.11762457 -0.24292369 -0.096608534
000200 6a f7 01 3e 66 94 00 be cd e9 57 3d 69 7f 68 3d
       0.12692037 -0.1255661 0.052713204 0.056762133
000210 da 49 9e 3d 53 74 92 bd 5c e5 a0 bd cb 24 a0 3d
       0.0772893 -0.07151093 -0.07856247 0.07819518
000220 50 62 ee 3d fc 85 13 3e 11 a3 89 3d 68 4b 90 ba
       0.11639845 0.1440658 0.067205556 -0.0011008801
000230 d8 7e c2 3d 43 fe 39 be 0a 20 8c bd c5 0b ee bd
       0.0949685 -0.181634 -0.068420485 -0.116233386
000240 01 74 5c 3a 4a c1 e7 3c 38 b0 c4 3a 53 20 e1 3d
       0.000840962 0.02829041 0.001500613 0.109924935
000250 f7 3a a4 bd 44 32 f5 bc 32 03 4d 3d 8b 4d 02 3e
       -0.08019059 -0.029931195 0.050051875 0.12724893
000260 5c 1d 14 be 27 0d ec bd 73 18 cf bd ea c6 64 bd
       -0.14464325 -0.11525946 -0.10112085 -0.05585376
000270 03 e5 da bc 26 31 0f be c1 83 d2 bd 85 89 7d bd
       -0.02672053 -0.13983592 -0.10279036 -0.061898727
000280 1d ab 62 ba a6 1c ad bd bc 29 51 3c 4e e4 ce bd
       -0.00086467137 -0.0845273 0.012766298 -0.101021394
000290 13 f1 36 bd 07 dc d1 bd 5d 7b c0 3d 80 ba 07 be
       -0.0446635 -0.10247045 0.0939853 -0.13254738
0002a0 52 40 e1 bd 13 db c7 bd fd e3 ce 3d 0c a7 f4 3d
       -0.10998596 -0.09758582 0.10102079 0.11945924
0002b0 59 1e a2 3d 23 ad 85 bd 0c 5d e3 3d 17 3a 8b bd
       0.079159446 -0.06527164 0.11101732 -0.06798189
0002c0 95 25 96 bd 14 6e c4 3d 18 42 43 bd 27 f4 14 be
       -0.07331387 0.09591308 -0.047670454 -0.14546262
0002d0 ef db 0f be 08 a5 bc bd 88 07 06 3e 25 a2 21 3e
       -0.14048742 -0.09211165 0.1308881 0.1578451
0002e0 43 ac 8b ba 44 0a 07 be 48 9c 8b 3d 6b 79 f2 bd
       -0.0010656196 -0.1318751 0.06816918 -0.11839565
0002f0 12 7f 24 3e 28 6d 3e 3d 2d 41 e4 3d fc 20 e2 bd
       0.16064098 0.04649082 0.11145244 -0.110414475

gru.weight_hh_l0 f4 [192, 64]
000000 e5 57 7d 3d 5e d1 ba 3d c7 f3 b2 3d af b4 99 bd
       0.0618514 0.09121965 0.08737903 -0.07505166
000010 64 67 ee bc 6a 7b d1 bd 31 49 b6 bc 2d ff 47 3c
       -0.029102035 -0.102286175 -0.022251697 0.012206835
000020 80 93 9d 3d 95 17 66 3d b4 3d 5b 3d 28 09 7f bd
       0.07694149 0.056174833 0.05352564 -0.06226459
000030 7b 15 1b 3e 09 81 fd bd fd e0 eb bc db ef cf 3d
       0.15144913 -0.12378127 -0.028793806 0.10153171
000040 44 ba e2 3d 03 6e 7d bc 1f 65 18 3e a0 e5 53 3c
       0.110706836 -0.015468123 0.14882325 0.012933165
000050 6a fb f6 3c 03 56 16 3d 60 fc a3 bd e1 4f 86 3c
       0.03014918 0.03670312 -0.08007121 0.016395511
000060 60 52 91 bd 0b 85 5e bd d8 4a 88 3d ec 9a a9 3d
       -0.0709579 -0.0543261 0.066549 0.08281502
000070 7d ec b5 bd d5 1a 1f 3b fd 47 d8 bc a5 9a bb 3b
       -0.08882997 0.0024277468 -0.026401514 0.005725222
000080 32 0e 2e 3c ef 24 7c bd 4a c7 d2 3d 10 03 95 3b
       0.010623502 -0.06155866 0.102919176 0.004547484
000090 ad d9 2f 3d 29 4f 4c bd ca 55 7b 3d 84 41 48 3d
       0.0429322 -0.04988018 0.06136111 0.048890606
0000a0 b0 25 e5 3b 73 3c ea 3d 2d d1 6e bd 0f 1a ee 3d
       0.006993018 0.11437311 -0.058304954 0.11626064
0000b0 0e 6c 9f bc db a7 4d bc 5d 23 75 3d 64 8a cb 3d
       -0.019460704 -0.012552227 0.05984818 0.09938505
0000c0 f9 e0 d2 3d d7 fc 05 3e ff c1 c7 bd 44 74 e7 3d
       0.102968164 0.13084732 -0.09753799 0.11301473
0000d0 46 20 02 3e c0 31 af bd e2 07 0d bb 5e 08 73 bd
       0.12707624 -0.08554411 -0.002151959 -0.05933415
0000e0 17 b0 c8 3d b2 49 85 ba 28 65 85 bd 36 88 4e bd
       0.097992115 -0.0010169058 -0.06513435 -0.05042287
0000f0 62 a9 69 3d 0f 77 0d 3e 4d 48 9b 3d 70 e3 57 3d
       0.0570463 0.13814948 0.0758215 0.052707136
000100 f3 0b 05 3d b9 89 b8 3d c0 3e 82 b6 f4 54 fb bd
       0.0324821 0.090106435 -3.881607e-06 -0.12272063
000110 3d 2d 9c bd fb 0f 32 3d a9 18 b4 bb 80 76 2d bd
       -0.07625816 0.04347227 -0.005496104 -0.04234934
000120 ca 3c cb bd a2 40 bd 3d 16 6c 90 3d 91 ef d3 3c
       -0.09923704 0.09240843 0.07051866 0.02587107
000130 61 41 d1 bd b1 37 1a be 59 78 99 3c 52 58 2e bd
       -0.10217548 -0.15060307 0.018734144 -0.042564698
000140 c7 e6 98 bd 01 82 59 3d cb 16 03 be e3 58 66 be
       -0.07465892 0.053102497 -0.12801664 -0.22494845
000150 e0 f6 89 bd d5 41 c4 3c be 73 94 bc bc 24 9d 3d
       -0.06736541 0.023957172 -0.018121596 0.07673022
000160 ef 1e ad bd 51 c5 54 3c 55 1b 22 3d 54 02 9b 3d
       -0.08453166 0.012986497 0.039576847 0.075688034
000170 a4 cf dd 3d 5a c8 1f 3d ce 6f de 3d 6e 05 c0 bd
       0.1083062 0.03900943 0.10861169 -0.09376036
000180 ef d7 ca 3d d1 61 d4 3d 0a 38 e8 3c 2f 60 1c ba
       0.09904467 0.103702195 0.028347034 -0.000596526
000190 ec 82 14 bd 6f a6 81 bd 56 85 34 be 1c 4e e0 bc
       -0.03625767 -0.06330573 -0.17628989 -0.027380995
0001a0 da e3 9f bd 9b 5d cd 3d 2b b0 8c bd e1 74 1c bd
       -0.07807131 0.100276195 -0.06869539 -0.038197402
0001b0 6f 4e a2 3d 0d 37 95 bd 70 a3 d9 bd 72 60 51 bd
       0.07925116 -0.07285891 -0.10626876 -0.051117368
0001c0 31 de 6b 3d c2 92 e2 3d 55 c1 24 bd e1 0e d7 bd
       0.057584945 0.11063148 -0.04022344 -0.10500885
0001d0 6a 30 9e 3c 06 77 57 3d 99 a8 97 3d 3f 8e ad bd
       0.019310195 0.052603744 0.07405204 -0.08474397
0001e0 78 06 67 3d 01 5e 15 3c 0d b9 93 3c eb 7b 8f bc
       0.056402653 0.009116651 0.018032575 -0.017515143
0001f0 75 fa ef 3b 0d ed 8c bd 1d 90 cf ba 0f 97 b9 bd
       0.007323558 -0.06881151 -0.0015835796 -0.09062015
000200 8a 40 1b bb 3c 6d e5 bd ae ac fc 3d 73 f6 ce bd
       -0.0023689591 -0.112024754 0.123376235 -0.101056
000210 62 ad 42 3e f8 02 e1 3d 93 48 ad bd 67 50 c0 3d
       0.19011453 0.10986894 -0.08461108 0.093903355
000220 77 17 db 3c c3 87 3e 3e a1 3c 89 bd 69 d4 ef bd
       0.026744587 0.18606476 -0.06701017 -0.11710436
000230 df eb 15 bd 26 ea 80 3d 25 31 fb bd d2 4f 14 bc
       -0.036601897 0.0629466 -0.12265233 -0.009052234
000240 8f 90 f5 3c d4 36 b4 3d 13 3f 11 3e 50 38 92 3e
       0.029976157 0.0879952 0.14184217 0.28558588
000250 23 65 3f be 0e e6 77 3c e0 67 04 be 2e de 1f 3e
       -0.18690924 0.015130533 -0.1293025 0.15612099
000260 67 3b 9d bd ba 1f 76 bb 3f 62 f1 bd fa 83 dd bc
       -0.07677346 -0.0037555532 -0.11786317 -0.02704047
000270 3c 80 cb bc de c0 c1 bd d2 a7 e4 bd 38 5f 8d bd
       -0.02484142 -0.094606146 -0.11164822 -0.06902927
000280 e0 5c 51 be b1 b6 26 be bf 0c 00 be 62 d4 44 be
       -0.20445585 -0.16280629 -0.12504862 -0.19221643
000290 03 03 a3 3c 97 ad 9d 3a ac db bd 3d f3 8e 92 bb
       0.019898897 0.0012029883 0.09270415 -0.0044726073
0002a0 d1 2c 68 be 5d 5d 07 bd 1e d6 28 3e f6 30 4c 3e
       -0.22673346 -0.033048023 0.16487929 0.19940552
0002b0 ea 0f 42 3e 79 58 08 bc 3c ec c2 3d ae b3 ed bc
       0.18951383 -0.008321875 0.095177144 -0.029016342
0002c0 f7 56 03 be b5 53 17 3e 72 f7 5f 3d 0a b4 f0 bc
       -0.12826143 0.14778025 0.05467934 -0.029382724
0002d0 6f 00 eb bd 08 3b 52 bb ac 58 21 bc 15 6d 47 bd
       -0.11474692 -0.0032078642 -0.009847801 -0.048688013
0002e0 85 3c 0e 3e 66 17 6c 3d fb 1e 5c 3c b9 25 e9 3c
       0.13890274 0.057639502 0.013435121 0.02846037
0002f0 1f de fb 3d df f3 8e bd d3 da dd bc b7 c8 48 3d
       0.122982256 -0.069801085 -0.027081883 0.04901954
000300 d0 7e 82 3d cc 87 d2 3d f3 4c 12 be 15 a4 30 3d
       0.06371844 0.102798074 -0.14287166 0.04312523
000310 0d f0 bd bd b2 1e 52 be a0 43 59 3d c2 b5 81 bd
       -0.09274302 -0.20519522 0.053043008 -0.06333496
000320 f4 2e fd bc 7e 76 ef bd 92 8a 89 bd 28 1e 27 bd
       -0.030906178 -0.116925225 -0.06715883 -0.040800244
000330 74 1d ec 3d 54 6f 92 bd 7b 36 e2 bd 10 26 fe bc
       0.11529055 -0.071501404 -0.110455476 -0.031024009
000340 f9 e8 6f be e0 51 71 bc de 47 ee bd 02 65 bc bd
       -0.23428716 -0.014728993 -0.11634801 -0.09198953
000350 b8 87 e7 3d 81 e8 15 3d 1e c4 4b 3e 2b da 7a bd
       0.11305183 0.036598686 0.19899032 -0.061243217
000360 bb 1e e7 bd bb 3f 2d 3d 32 23 3d ba 5a 5c 20 3e
       -0.11285158 0.042297106 -0.00072150223 0.1566023
000370 4b 3b d9 bc cf 2f 37 3d 1a 70 b0 ba f8 12 e5 bd
       -0.02651753 0.04472333 -0.0013461143 -0.111852586
000380 59 36 03 3e 1d 69 da bc 94 8b bd 3d fe f7 f7 3b
       0.128137 -0.02666145 0.09255138 0.007567405
000390 70 de 68 3c d2 ba aa 3d c2 02 36 bd 86 f4 ef bd
       0.0142131895 0.083364144 -0.044436224 -0.11716561
0003a0 7a 1b be 3b a6 51 72 3c 8f 2b 6f 3a e5 21 35 3d
       0.0058016153 0.014789974 0.0009123617 0.044221777
0003b0 97 42 58 bd 63 c0 e7 bd 7a a6 2e bd 08 3a ff 3b
       -0.05279788 -0.11315992 -0.042639233 0.0077889003
0003c0 ac f0 d6 bd 21 3b 02 3d 1c cf 08 3e a0 93 10 3e
       -0.10495123 0.03179467 0.13360256 0.14118814
0003d0 e2 24 e0 3b 88 0c a5 bd c1 8f c6 bd 38 98 45 3d
       0.0068403343 -0.08059031 -0.09695388 0.04824087
0003e0 06 54 2b bd a6 7e dd bc 71 b4 93 bd ef 41 00 be
       -0.041828178 -0.02703793 -0.07212151 -0.12525152
0003f0 d1 31 fb 3c eb 6a da bb c6 55 fb bc 85 11 c1 bd
       0.030663403 -0.0066655776 -0.030680548 -0.0942717

gru.bias_ih_l0 f4 [192]
000000 fb ee f3 3c 40 f7 17 be 0f 5f 33 3d fc be 7f bd
       0.02977704 -0.14840412 0.043791827 -0.062437996
000010 98 c4 10 be 81 05 c4 bd bd f2 10 be 21 4f 9c bd
       -0.14137495 -0.09571362 -0.14155097 -0.0763228
000020 2a 62 4e bd 75 09 22 3d a5 0a 21 be 30 06 a7 3c
       -0.050386585 0.0395598 -0.15726717 0.020388693
000030 17 5b 07 be eb 4b d2 3c 57 b7 8e bb d1 61 81 bd
       -0.13218342 0.025670966 -0.004355352 -0.06317485
000040 f7 d9 b8 3d 42 b7 e1 bc 02 97 63 bd f8 4a 12 3e
       0.090259485 -0.027553204 -0.055563934 0.14286411
000050 45 54 78 3d cd 46 46 bd ca 98 e0 bd 74 3d 12 be
       0.06062724 -0.048407365 -0.10966642 -0.14281255
000060 e2 f9 22 be 12 d8 79 bc 17 5c 0b 3e 7e 95 3a 3d
       -0.15915635 -0.015249269 0.13609348 0.045552723
000070 74 6a 29 be d7 0c 9b 3d 8b ad ca bd de 71 24 3d
       -0.16544515 0.075708084 -0.09896382 0.040147655
000080 d6 95 c3 bd da 0c e2 bd b1 e2 be 3d 50 93 14 be
       -0.09550063 -0.110376075 0.09320582 -0.1450932
000090 17 5e b9 3d e7 10 a6 bd db 88 93 3d 6b c3 dc 3c
       0.09051149 -0.081086926 0.072038375 0.026948651
0000a0 4d 4f 1e bd c2 5f 02 3d 6e da 41 be 60 c4 94 bc
       -0.038649846 0.031829603 -0.1893098 -0.018160045
0000b0 cc 9b 7d bd 02 45 a9 3d 83 f7 94 3c 7d 21 15 be
       -0.061916158 0.08265115 0.018184429 -0.14563556
0000c0 e7 3c 12 bd 8d 1c 25 ba 85 ec 05 be 15 6b f2 ba
       -0.035702612 -0.0006298505 -0.13078506 -0.0018495048
0000d0 1f 55 83 bd 23 97 ce bc 1d b2 f7 bc 8b cd 29 be
       -0.0641272 -0.025218552 -0.030236298 -0.16582315
0000e0 76 a8 c5 bd f3 3d 24 be dc f9 31 3d d4 eb 7a be
       -0.09651272 -0.16039257 0.043451175 -0.24504024
0000f0 a7 26 26 be 7a 05 6b 3c 56 b6 2d be 3a b1 ec bd
       -0.16225682 0.014344567 -0.16964087 -0.11557241
000100 d4 07 82 bd 65 d9 2c be 15 2c cf bd 4e b5 1e be
       -0.06349149 -0.16879804 -0.1011583 -0.1549885
000110 75 a6 57 3d 84 b5 f6 bd f7 18 66 be c9 b1 c3 bd
       0.05264898 -0.1204634 -0.22470461 -0.09555394
000120 3a ca 58 be a4 71 9b bd 3c 41 be bd 4b 99 1b 3e
       -0.21170893 -0.075900346 -0.09289786 0.15195195
000130 23 b4 54 be 11 f8 e9 be 40 fd 81 be 34 fc 23 be
       -0.20771842 -0.45697072 -0.25388527 -0.16014177
000140 9e a6 fb bd f7 f3 3a be 20 91 88 3c 77 bf 91 be
       -0.12287639 -0.18257128 0.016670763 -0.2846639
000150 17 62 61 be e9 3d 9a bd 45 e2 07 3e 92 a7 db bd
       -0.22010075 -0.0753134 0.13269909 -0.10725321
000160 bc 24 41 be 50 03 de bc a0 f4 8b be 4b 16 68 be
       -0.1886167 -0.027101189 -0.27335072 -0.22664754
000170 ea da bb bd 55 64 ab bd f0 cc f8 bd 6d 9f 3c be
       -0.09172614 -0.08368746 -0.12148464 -0.18420191
000180 b9 7b d7 3d bf 30 27 be 39 07 28 3e 47 93 56 be
       0.10521645 -0.16327189 0.16409005 -0.2095462
000190 11 cf 36 be 92 17 67 3d 41 2a 92 be c3 2c 4b bd
       -0.17852427 0.056418963 -0.28547862 -0.049603235
0001a0 ab cf 9b be 8a 97 9d be 11 7c 95 be d7 f2 02 be
       -0.30431876 -0.30779678 -0.29196218 -0.12787949
0001b0 2e 7c 75 be 7c 90 a8 be bc 7d 0e be 41 eb 4a be
       -0.23973152 -0.32922733 -0.13915151 -0.19816305
0001c0 3d 95 db be 3d cb 99 be 8c 18 5a be 35 b3 3e be
       -0.42887297 -0.3003787 -0.21298426 -0.1862305
0001d0 89 09 d1 bd be 04 84 3d 20 04 0d bd ee a8 b9 bd
       -0.10206897 0.06446217 -0.034427762 -0.09065424
0001e0 2f 6b 9f 3b 8a 8b 4b bd 6f 96 b2 3c bc a8 72 be
       0.004865072 -0.04969362 0.021800248 -0.2369718
0001f0 e6 74 83 be 62 f3 5a be eb 24 cf bd 89 a2 13 be
       -0.25675124 -0.21381906 -0.101144634 -0.14417471
000200 7d b9 83 3d 0f d5 b7 bc 90 0c db 3c 33 64 9d 3c
       0.064318635 -0.022440461 0.026739389 0.019212818
000210 82 c7 c2 bd af d1 01 3d ad 0a 1a bd 2a 79 a4 bd
       -0.09510709 0.03169411 -0.037607837 -0.08030923
000220 5e 0b 9c 3d 05 90 b3 bd 9e fb a2 3d 99 53 37 3d
       0.076193556 -0.08767704 0.079581484 0.04475746
000230 c6 97 73 3d b8 e4 f7 3c 43 25 c2 3d b2 fb a2 3c
       0.059470914 0.030260429 0.09479763 0.019895408
000240 45 d8 e7 bb 27 24 af 3c 5b 5e 07 3d 36 13 0a be
       -0.007075342 0.021379543 0.03304897 -0.13483891
000250 da 4f 2b bc 2d 12 9c bd 40 3b 1a bc 0a 2c 0b 3d
       -0.01045605 -0.07620654 -0.00941354 0.033977546
000260 cc ae 71 bd b3 06 51 3b 43 e8 a2 3c 67 29 e0 3d
       -0.05900459 0.0031894862 0.019886142 0.10945397
000270 9a 69 c7 3a 24 a4 d0 3d 90 f2 1a bc bc f9 c2 3d
       0.0015213967 0.10187557 -0.0094572455 0.09520289
000280 f7 1a 76 3d 4b fd 1c 3d 50 1c ea bc a6 ad 91 3d
       0.06008431 0.038327496 -0.028577954 0.07113199
000290 8a d6 cc bc 0e b3 82 3d ca 53 3e bd 61 38 22 3d
       -0.025004644 0.06381808 -0.046466626 0.03960455
0002a0 d6 3b 3a 3d 63 91 9e 3d 5c c7 29 3c 64 6a 2b 3d
       0.04546722 0.07742574 0.010362472 0.04184951
0002b0 d9 5b d8 3c d2 75 d4 bc 52 dc 99 3d 02 82 8e 3d
       0.026410984 -0.025935087 0.07512726 0.06958391
0002c0 8d e5 20 3d c4 b4 5d 3d 10 38 18 3c 98 e3 f0 3d
       0.039281417 0.05412747 0.00929071 0.1176216
0002d0 19 f1 de 3d 33 5b 95 3d 0c ed f5 bc 52 6f 34 3d
       0.108858295 0.072927855 -0.03002026 0.044051476
0002e0 01 01 7a bd 22 50 af bb ba 89 4e bd 45 f8 8a 3c
       -0.061036114 -0.0053501287 -0.050424315 0.016964087
0002f0 70 b0 5c 3d 13 18 5a 3d 0a fd e7 bc 8f a8 78 bc
       0.0538792 0.053245615 -0.0283189 -0.015176906

gru.bias_hh_l0 f4 [192]
000000 f5 95 7c 3d 4f 50 2a 3c 25 18 9d bd 79 0a 63 3d
       0.061666448 0.010395124 -0.07670621 0.05542991
000010 fc ba 0c be ff 66 dd 3d f1 e6 86 bd 55 94 62 be
       -0.13743204 0.108106606 -0.06587017 -0.22126897
000020 76 d8 88 3d 0f 87 d0 bd 0f d0 8a bd d5 61 c9 3d
       0.06681912 -0.101820104 -0.06777965 0.09833113
000030 cc ba 1d bd dd be ef 3d ef e6 c0 3d d7 1e 38 bd
       -0.03850822 0.11706326 0.09419047 -0.044951286
000040 14 4e e5 bd 25 bf dd bd 7c d7 07 3d 95 ff 97 3d
       -0.11196533 -0.108274736 0.033164486 0.07421795
000050 7c 5b 92 3d 05 65 00 be 7f f3 8a 3d a8 42 ed bd
       0.071463555 -0.12538536 0.067847244 -0.11584979
000060 e2 ac 93 ba c5 1a 0f 3c a0 4e 9b 3d 55 15 ce 3c
       -0.0011266733 0.00873441 0.07583356 0.025156656
000070 14 02 9a 3d 4a d7 e6 3d d5 11 f5 bc 1b be d4 3d
       0.075199276 0.11271532 -0.02991573 0.10387822
000080 34 ad 79 3d 2f 45 9a bc 15 95 04 be 31 5f 8b bd
       0.060956195 -0.018831817 -0.12947495 -0.06805266
000090 4a 23 94 bd 45 76 a7 3b 5d 03 94 3d b2 30 80 bd
       -0.07233293 0.0051105344 0.07227204 -0.06259288
0000a0 f5 af d3 bc 95 5d 92 bd 93 09 04 be 2b 6d 1a be
       -0.025840739 -0.071467556 -0.12894277 -0.15080707
0000b0 19 f2 b9 bd a1 80 5c 3c 2d 00 dd bd d9 cb 8a 3d
       -0.090793796 0.013458402 -0.10791049 0.06777162
0000c0 bc 87 79 3d b5 0a d0 3d c3 fd ea bd 1c 7a 1b bd
       0.060920462 0.10158292 -0.114741825 -0.03795825
0000d0 03 97 63 3d 2b 92 d0 3d 4d 73 86 bd 8a cd ed bd
       0.055563938 0.10184129 -0.06564961 -0.11611469
0000e0 f2 17 e5 3c 0b ea cb bd 4c 33 66 3c ef a3 ac bd
       0.02796552 -0.099567495 0.014050316 -0.08429705
0000f0 e0 f4 90 bc ac 53 53 3d 4d 98 c5 bb 78 c3 9f bd
       -0.01769489 0.051593468 -0.0060301186 -0.078009546
000100 92 54 11 be bb 76 73 be ae a4 fd bd b0 03 4c be
       -0.14192417 -0.23775761 -0.12384926 -0.19923282
000110 6a 3c 64 3c ac 2d 18 be f0 f2 16 be cb 15 99 be
       0.013930419 -0.14861172 -0.14741111 -0.2989944
000120 37 84 02 be a9 c7 58 bc 88 02 cd bd 67 e1 3d bd
       -0.12745748 -0.013231196 -0.100102484 -0.04635754
000130 61 6b 6b be ac c4 81 be d5 bc 59 bd 35 b3 59 be
       -0.2299018 -0.2534536 -0.0531586 -0.21259768
000140 88 18 48 bd 03 45 1b be 08 78 91 bd 0e 8b b0 bd
       -0.04885152 -0.15163045 -0.07102972 -0.086202726
000150 30 0d 47 be 99 c2 ed bd 24 73 0f 3e db f1 1b be
       -0.19438624 -0.11609382 0.14008766 -0.1522898
000160 1b c9 8c be f6 85 1e 3c 69 99 25 be 53 ee 98 bd
       -0.2749718 0.009675493 -0.16171803 -0.07467332
000170 03 b7 58 be cf e3 4f be a5 c7 6a bc e7 7a 39 be
       -0.21163563 -0.20301746 -0.0143298255 -0.1811329
000180 1a 1a 60 bd db 03 ab be b8 58 f3 3b 53 39 1e be
       -0.054712392 -0.3340138 0.0074263476 -0.15451555
000190 d2 ab 15 be 77 b0 80 3c 8a 18 5d bd 6f 88 d8 bc
       -0.14616325 0.015709145 -0.05397848 -0.026432244
0001a0 36 45 5e be 4a 18 18 be c8 04 f1 bd c1 03 91 bd
       -0.2170609 -0.14853016 -0.1176849 -0.07080794
0001b0 53 f0 3b be 53 93 c7 be 20 e9 23 be 6a a5 a3 bd
       -0.18353395 -0.38979587 -0.16006899 -0.079905346
0001c0 16 5e ba be 89 9a 8a be ef 7d 52 bc 61 2e 49 bd
       -0.36399907 -0.27071026 -0.012847408 -0.049116496
0001d0 e9 b2 04 3d 74 73 61 bc 24 56 70 be 7b 4a 82 bd
       0.032397185 -0.013760436 -0.2347036 -0.06361862
0001e0 29 72 40 3e 64 2d e5 bd f6 dd 51 3d c4 a8 64 bd
       0.18793549 -0.11190298 0.05123707 -0.05582501
0001f0 c4 b0 91 be 29 19 34 3b 0b cb f6 bd 94 21 2c bd
       -0.28455174 0.0027480817 -0.12050446 -0.04202421
000200 82 65 f9 bd 67 10 a1 3d 6c 1e c5 bd 07 03 02 bc
       -0.12177564 0.078644566 -0.09624943 -0.007935292
000210 66 85 94 bc 4e 8a 8b bd 83 03 37 3c de 99 35 3d
       -0.018130016 -0.06813489 0.011170271 0.044336192
000220 1b 80 94 bc 24 24 c7 bb 0d c3 43 bd 10 b9 7d bd
       -0.018127492 -0.0060773063 -0.047793437 -0.061944067
000230 29 2e e4 bd 34 18 80 3d eb 38 d9 bd e5 2f 8e 3d
       -0.11141617 0.062546164 -0.10606559 0.06942729
000240 d4 c5 f9 3c 41 73 2c bd f4 a9 6b 3b cb 8e cf 3d
       0.03048984 -0.042102102 0.0035959454 0.101346575
000250 65 75 27 3d 8c 4b fc 3d 84 34 02 bd 22 f5 0d bb
       0.04088344 0.12319097 -0.031788364 -0.0021661003
000260 99 cf 07 bd ad 30 8e 3d 9a 53 80 bd 93 b6 e5 bd
       -0.033156965 0.06942878 -0.06265946 -0.11216464
000270 51 db 17 bb 59 0f 8a bd f1 e3 ba bd 98 1e e7 bd
       -0.0023171494 -0.067412086 -0.091255076 -0.11285132
000280 1a 30 8d bd 82 3d 9f bd 92 3c cd 3d 32 aa 34 bd
       -0.0689394 -0.077754036 0.100213185 -0.044107623
000290 52 00 02 bd 4b 70 46 3d fc 7b ad 3d 88 db 7d 3d
       -0.031738587 0.048446935 0.08470914 0.06197694
0002a0 ef 53 97 3d 9b 10 55 3d 27 d7 78 bd b1 ec ee bd
       0.07389056 0.05201779 -0.06075206 -0.11666239
0002b0 7c 93 b7 bd 9a b7 97 3d a1 24 d4 bc b3 9c 80 bd
       -0.08963677 0.07408066 -0.025896372 -0.06279888
0002c0 a9 8c f3 3c 6b 14 97 bd 56 6f 41 bd 27 68 03 bd
       0.029730158 -0.07376941 -0.04722532 -0.03208175
0002d0 3e b9 e1 bd c7 59 da 3d 30 37 9c 3a 61 1c 91 3d
       -0.1102166 0.10661655 0.0011918303 0.07085491
0002e0 ff 97 4b 3d 29 e1 b8 3c b3 9e f3 3c cc 02 2c 3d
       0.0497055 0.022568302 0.02973876 0.041994855
0002f0 59 6c 82 3d 73 f1 e1 bd b1 20 65 3d 5d ad 95 bd
       0.06368322 -0.11032381 0.05593938 -0.07308457

gru.weight_ih_l1 f4 [192, 64]
000000 60 83 8a bc 8e 62 e2 3c a7 db 82 bd 3d 9e 09 3e
       -0.016908348 0.027634885 -0.063895516 0.1343927
000010 77 f7 bf ba 4f ea a6 3d d5 d8 fe bd 67 ce b9 3c
       -0.0014645894 0.081501596 -0.12443701 0.022681428
000020 e1 39 89 3d 81 cc a9 bd dc 95 75 bd 1e 49 3f 3d
       0.06700493 -0.08290959 -0.05995737 0.04670059
000030 a6 4e 8d 3d 59 b0 36 be aa 93 c8 bd 0a 90 4e bd
       0.068997666 -0.17840709 -0.0979379 -0.050430335
000040 10 c1 b8 3d 8c a1 e1 3d 1e e6 ee 3d 62 08 3e 3e
       0.09021199 0.11017141 0.11664985 0.18557885
000050 23 ad 30 bb 5d c8 af bd 16 f5 38 39 eb d8 c3 3d
       -0.0026958666 -0.08583138 0.00017638909 0.09562858
000060 64 2f 88 3d 01 0b 49 bd f5 5e c8 bd e6 5d 9a bd
       0.06649664 -0.04908276 -0.097837366 -0.07537441
000070 11 f5 c3 3b dc a7 9a bc f9 95 e4 bd cd bb 1b be
       0.005980142 -0.01887887 -0.111614175 -0.15208359
000080 6e 71 7c 3d c5 53 9c 3d 6b da 14 bd f7 c6 16 3d
       0.061631612 0.07633165 -0.036341112 0.03681084
000090 17 a6 7b 3d e9 e5 19 be 07 d3 a3 bd 65 05 8b 3d
       0.061437692 -0.1502911 -0.07999235 0.06788138
0000a0 3d 35 87 3c 79 47 10 be 9f 9b 0f 3d 71 a1 17 bd
       0.016504878 -0.14089765 0.03506052 -0.037019197
0000b0 b2 13 9c bd 32 51 48 bd 1f 0f ef 3c f7 6d b4 bd
       -0.07620944 -0.04890556 0.029182015 -0.08810037
0000c0 5e a4 40 bd fd 38 4f 3c 34 23 51 bd 70 68 0d be
       -0.047031753 0.012647864 -0.051058963 -0.13809371
0000d0 2c 0b 5a bd aa 1a 1d be ef b1 86 3d f6 09 b2 3d
       -0.05323331 -0.15342203 0.06576907 0.08693306
0000e0 a7 7f 3f bd ca 06 86 3d 3a a3 17 3e 8d a8 a3 bd
       -0.046752598 0.06544264 0.1480836 -0.07991133
0000f0 99 38 d2 3d 2e 09 82 3d 66 72 94 3d 51 61 c5 bd
       0.102647014 0.06349407 0.07248382 -0.09637702
000100 e3 c9 25 bd b0 c8 c7 3d 1e 8a 99 bc 94 43 81 bd
       -0.040475737 0.09755075 -0.018742617 -0.06311718
000110 dd 0e f8 bd b5 b2 45 bd 6b e2 d7 3c 4e e0 b7 bd
       -0.1211221 -0.04826613 0.026353082 -0.089783296
000120 d5 4b b4 3c 49 da 36 3c e5 64 d7 bd 32 1b bc bd
       0.022008816 0.011160442 -0.10517291 -0.091848746
000130 a9 df 76 3b 52 c3 75 3d e3 81 80 3d fa 60 02 3c
       0.0037669933 0.060000725 0.06274774 0.007957691
000140 77 a1 8a bd 3d 3c d2 bd 54 a7 a3 3d 85 b4 8b be
       -0.06769078 -0.10265396 0.079909 -0.27286163
000150 90 ba 91 bc 25 40 e0 3b 2d 02 c1 bd 89 04 44 bd
       -0.017789155 0.006843584 -0.09424243 -0.047855888
000160 e7 22 11 bd a8 3d 0b 3e e1 5c 48 3e b8 74 4e 3e
       -0.035433676 0.13597739 0.1956668 0.20161712
000170 17 b7 21 bc 78 ac 8f 3e a6 a9 ec 3d a3 13 48 3d
       -0.009870312 0.2806127 0.11555795 0.048846852
000180 ed 9c 9e 3d ab dd e7 3c bd f9 f2 bc a1 ff 30 3d
       0.07744775 0.028303942 -0.0296601 0.043212537
000190 fd da 7c 3d ad 2f 8a 3d fb 58 53 bd 92 0a ae 3d
       0.06173228 0.06747375 -0.05159853 0.0849811
0001a0 fe 28 0c 3e d9 95 39 3e 9c 1f 93 bd cb 65 05 be
       0.13687512 0.18123569 -0.071837634 -0.13027112
0001b0 0f b9 01 be 56 5b d7 3b e9 c8 af bc 2d f1 10 bd
       -0.1266825 0.0065721674 -0.021458106 -0.035386253
0001c0 b7 70 9b 3d 27 fa ff bd 72 30 e8 bb 62 25 27 3e
       0.07589858 -0.12498885 -0.0070858533 0.16322854
0001d0 90 6f 43 3e dc f9 49 3e 19 d7 40 bb 8b fc 8a bd
       0.19085526 0.1972422 -0.0029425083 -0.0678645
0001e0 1d e8 06 be 13 1e 22 3c 11 77 bc 3d 38 56 7d 3d
       -0.13174482 0.009894866 0.092023976 0.061849803
0001f0 d7 b1 20 3d 3b 08 db bd 33 c4 0a 3d 01 63 c1 3d
       0.0392321 -0.10694929 0.033878516 0.094427116
000200 dd 6d a7 bc c9 46 54 bd 7a 65 53 3d 69 0f 4f 3d
       -0.02043813 -0.05182532 0.051610447 0.050551806
000210 5c 63 64 3d a2 63 48 bd f0 a3 d8 3d d3 66 82 bd
       0.05575882 -0.048923142 0.105781436 -0.063672684
000220 73 5c 80 3d 2e f8 63 bd 94 b9 3e 3c ee c5 83 3d
       0.06267633 -0.055656604 0.011640925 0.064342365
000230 b7 03 89 3d fc 16 86 bd 84 5d 01 3c 76 6e 32 bc
       0.06690162 -0.06547353 0.007895831 -0.010890594
000240 82 ef 97 bd 9b 75 de bd 5a bf e9 3d 3b 88 1f 3e
       -0.07418729 -0.10862275 0.114134505 0.15579312
000250 04 f5 ab ba 42 42 d8 3d fb 92 a1 bd 08 74 b3 3b
       -0.0013119285 0.10559513 -0.078893624 0.0054764785
000260 90 0d 14 ba db a6 ee bd 4f ef d6 3c 3f 24 9c bd
       -0.0005647773 -0.11652919 0.026237158 -0.07624101
000270 8d 6f 87 bb 42 62 3d 3d 72 65 60 3d 40 e8 3d bd
       -0.004133171 0.046236284 0.054784246 -0.04636407
000280 be ce 30 3d bc 33 85 3d 8b fb 52 3d 20 d3 5b bd
       0.043165915 0.06504008 0.05150942 -0.05366814
000290 d9 0d 43 bd a1 c7 ec bd cd a7 c4 3d 8a db 30 bd
       -0.047620628 -0.11561514 0.09602318 -0.04317812
0002a0 84 a2 2a bd 72 95 6d 3d 77 43 f2 3d e0 7b af 3d
       -0.041658893 0.05800385 0.11829274 0.08568549
0002b0 7c bf d4 3d 83 82 04 be ee d3 36 3d 05 17 f1 bc
       0.10388085 -0.12940411 0.044635706 -0.029429922
0002c0 f5 32 33 be 8b 6e a3 bd bd 4e 3f 3d f1 28 13 be
       -0.17499907 -0.07980069 0.04670595 -0.14371087
0002d0 5e e6 9a 3d 89 10 2a 3d 9e 48 2f bd 45 ad 94 3c
       0.0756347 0.041519675 -0.042793863 0.018149028
0002e0 f3 31 25 3d 76 18 34 3d c1 1c 39 bd a1 f0 c4 bd
       0.04033084 0.04396864 -0.045193437 -0.09616209
0002f0 bf 5e bd 3d e4 54 6c bd 58 36 c3 3c 55 6b df bd
       0.09246587 -0.057698146 0.023829624 -0.10909144
000300 19 94 14 3e c2 78 cc 3d 06 c6 86 bb 8e 03 42 bd
       0.1450962 0.0998397 -0.0041129617 -0.04736667
000310 1f d6 a3 3d d7 09 07 3e 04 e9 7d 3b 6b 0c 13 3d
       0.07999825 0.13187347 0.0038743624 0.035900515
000320 41 0a d3 bb 40 81 7a bd 19 39 2c bd 84 cb e8 bd
       -0.0064404313 -0.06115842 -0.04204664 -0.113669425
000330 cd 63 0c 3e 08 a0 01 3d 04 d3 70 bd 78 88 2d bc
       0.13709946 0.03164676 -0.05879499 -0.010591619
000340 b6 7d 75 3c 48 7b fa bc bd 02 10 bd 0a c9 68 3d
       0.014983585 -0.030576363 -0.03515886 0.05683235
000350 85 71 14 bd 71 58 f1 3d 5f 00 bf 3d 0f 57 5e bd
       -0.036241073 0.11784447 0.09326243 -0.054282244
000360 65 54 ee 3c cc 8a cd bd d4 a0 be bd 50 2b e0 bd
       0.029092977 -0.10036239 -0.09308019 -0.10945761
000370 2a 0b f0 bc 4e fa c4 bb 3c 72 bb 3d 89 3e 00 be
       -0.029302198 -0.006011284 0.09152648 -0.12523855
000380 21 e6 df bd 9a cf 57 bc 90 14 57 3d b1 f1 aa 3b
       -0.109325655 -0.013172055 0.052509844 0.0052168
000390 54 11 6b 3d 74 9d 6a 3d 15 49 1c bc 3e c5 30 3d
       0.057389572 0.057279065 -0.0095389085 0.043156855
0003a0 d6 6b f9 bd 87 45 20 be 71 77 06 3e ed 1f 45 3d
       -0.12178771 -0.15651523 0.13131501 0.04812615
0003b0 df 01 a7 3d d2 f7 83 bd ef 01 74 bd cf 7a 94 3c
       0.08154654 -0.06443752 -0.059572157 0.018124966
0003c0 20 66 c4 3c ef 1f 7c 3d ac 7b c5 3d 16 73 27 be
       0.023974478 0.06155389 0.09642729 -0.16352496
0003d0 2c e2 fa bd 01 5e ff bb 72 73 9c bc fc 42 d7 bd
       -0.1225017 -0.0077931886 -0.019098017 -0.10510823
0003e0 c4 29 21 3e c0 f6 d8 bd d3 eb 4f 3e ad 34 07 be
       0.15738589 -0.10593939 0.20304804 -0.13203688
0003f0 7f 30 38 bd 14 11 09 ba 0e dd 66 bd d7 0b 90 3c
       -0.044968124 -0.000522868 -0.056363158 0.01758377

gru.weight_hh_l1 f4 [192, 64]
000000 ca aa c1 3d f3 f6 b5 bd 71 fd f8 bd a3 32 d2 3d
       0.094564036 -0.088849925 -0.12157715 0.102635644
000010 f8 76 90 3d 6e 67 96 3a 00 38 59 bd 51 9e 9d 3c
       0.070539415 0.0011474916 -0.05303192 0.01924053
000020 8a a1 ee 3d 38 21 ad bd 51 c4 3f 3d b0 70 dd ba
       0.11651905 -0.084536016 0.04681808 -0.0016894545
000030 05 59 93 3d af 6f 65 bd 2a 1c 16 be 4f 67 81 3c
       0.071947135 -0.056014713 -0.14659181 0.015796332
000040 06 6d 3f bd 1f 21 08 3d 64 ae c7 bd 51 c2 00 3e
       -0.046734832 0.03323471 -0.09750059 0.12574126
000050 c5 fd 3d 3d a3 ac fd bd f4 05 84 bd cf 05 12 3d
       0.04638459 -0.123864435 -0.06446448 0.03565007
000060 89 c4 83 3d 16 78 51 3c a3 78 60 3d 6a 35 2c be
       0.064339705 0.012784978 0.05480255 -0.16817251
000070 9f f4 80 3d 77 a1 8b bd 48 02 20 be 6c eb 82 bd
       0.06296658 -0.06817906 -0.1562587 -0.063925594
000080 0d 42 fd bd 6f be d6 3d 2d 8d 1a bd ef a1 86 3c
       -0.12366114 0.10485541 -0.037732292 0.016434638
000090 de b7 01 be 89 c0 eb 3d 38 50 09 3d 3a 02 1b be
       -0.12667796 0.115113325 0.03352377 -0.15137568
0000a0 6f 2c a4 3c 10 73 96 bd 12 c5 62 bd 36 2d 9e 3d
       0.020040719 -0.07346165 -0.055363722 0.07723467
0000b0 1d 29 b1 3c 87 c4 4e 3a cc 74 c5 3d 2d ad 6d bc
       0.02162605 0.0007887561 0.09641418 -0.01450662
0000c0 97 96 d2 bc 05 e2 f2 3c 3f 8d b4 bd d8 11 b0 3d
       -0.025706572 0.02964879 -0.08816003 0.085971534
0000d0 6c c4 a3 3d c4 a3 57 3d dd cb c6 3d 5a 11 3f 3d
       0.07996449 0.052646413 0.097068526 0.046647407
0000e0 a3 ff ad 3d 46 b9 8b bd 3f fb 71 3c 8d 5c 07 3e
       0.084960245 -0.068224475 0.014769374 0.13218899
0000f0 52 43 1b 3c b3 93 92 3d ca 43 f5 3d ad 23 ab 3d
       0.0094765 0.07157078 0.1197582 0.08356414
000100 c2 ee a1 bc ba 4d be bd 5d 83 56 bd 9f 7a 1d 3d
       -0.019767169 -0.09292169 -0.05237137 0.03844702
000110 92 04 02 be db b9 bd 3c 10 72 4d 3d fa 67 27 3d
       -0.12697056 0.023159912 0.050157607 0.040870644
000120 40 a6 b9 3b dd ba 32 3e f5 f2 90 bd 25 43 61 bc
       0.0056655705 0.17454095 -0.070775904 -0.013748919
000130 d8 59 db 3c 50 4f 02 be ca 40 0a 3b 5e cd 3f bd
       0.02677624 -0.12725568 0.0021095746 -0.046826713
000140 68 76 dd bd 77 ff eb bd f8 a3 a3 3b 3c 0e 4e bd
       -0.108136 -0.115233354 0.004993912 -0.050306544
000150 a9 70 74 bd 5d b5 ee 3d ea 2d 85 bd cb bc ea 3c
       -0.059677754 0.11655686 -0.06502898 0.028654477
000160 33 c8 21 bb 88 c6 83 3d b5 5e 13 3e 44 64 7c bd
       -0.0024685978 0.06434351 0.14391597 -0.06161906
000170 7b 7d d5 3c 76 ea 88 bc 6f 41 76 bc 4c 8b 15 bc
       0.02606081 -0.016713362 -0.015030249 -0.009127449
000180 6b 27 13 3d 69 3b 6e 3d ca 6b f6 3d d8 0c ae bd
       0.035926264 0.058162127 0.12032278 -0.084985435
000190 b9 bb 0e 3e 36 56 0f 3e a1 c2 2c be 3f 15 00 be
       0.13938798 0.1399773 -0.1687112 -0.12508105
0001a0 f4 c7 27 bd 35 d4 33 bd ba c0 2c 3b f3 17 e0 3c
       -0.040962175 -0.04390355 0.0026359991 0.02735517
0001b0 e1 a4 70 bc 87 59 d6 bd eb f6 40 be ad db 9e 3d
       -0.014687748 -0.10466295 -0.18844192 0.077567436
0001c0 d4 61 4f bd de 04 c8 bb 30 72 b2 bc 29 8c c6 bc
       -0.050630406 -0.006104096 -0.021782964 -0.024236755
0001d0 fd f1 ae bd 52 12 e1 bd c2 41 ea 3d b0 e1 20 3d
       -0.08542249 -0.109898224 0.114383236 0.039277732
0001e0 f8 62 a2 bc 32 43 59 3d 4c fb 92 bd d4 a7 0a 3b
       -0.019822583 0.053042598 -0.07176837 0.0021157162
0001f0 e0 f8 53 3d 20 2e 06 3e be 08 c5 3d 82 97 c2 bd
       0.051751018 0.13103533 0.09620808 -0.09501554
000200 dd c9 54 bc 5c 28 58 bd 09 39 e7 bb 01 6b dc 3d
       -0.012987581 -0.052772865 -0.0070563597 0.10762597
000210 77 0f 12 bc 4b c2 62 3d 06 4c 85 bd cf f6 b1 bc
       -0.00891482 0.055361073 -0.06508641 -0.021724133
000220 1d 7d 34 3c 71 4f 11 3d 94 fb 96 3d 0d 9f c2 3c
       0.011016157 0.03547615 0.073722035 0.023757482
000230 79 37 2b bd 0c e0 30 bc 67 d4 05 be 69 96 ce bd
       -0.04180095 -0.010795604 -0.13069306 -0.10087282
000240 15 2f b4 bd a2 eb db 3d 5e a5 99 3c 39 c9 71 3d
       -0.08798043 0.10738303 0.018755611 0.05902979
000250 d5 78 b7 bd 42 eb bf 3d 39 b6 ac bd e5 38 2b bb
       -0.08958594 0.09371044 -0.08433194 -0.002612644
000260 13 12 1d be 58 4a b4 3c 96 49 91 3d 28 b3 c8 bd
       -0.15338926 0.022008106 0.070941135 -0.09799796
000270 7d 29 5f bd 32 18 99 3d 0d 56 b1 3d 67 0a ff 3d
       -0.054482926 0.07475318 0.08658991 0.12453156
000280 e0 bd b1 bd a9 8d 97 bd f1 5b 4e bd eb bb 9d 3d
       -0.08678794 -0.074000664 -0.05038065 0.07701858
000290 de 54 0f 3d 59 a2 1c 3e cd 26 88 bd 0d b8 0d bc
       0.034993045 0.15296306 -0.06648026 -0.008649838
0002a0 b4 64 86 bd 16 33 b5 bd 17 20 95 bd 80 28 9f bd
       -0.06562176 -0.088476345 -0.07281511 -0.07771397
0002b0 c5 20 9c 3c 98 88 64 3d 25 14 fa bc 3a 69 a0 3c
       0.019058594 0.05579433 -0.030527184 0.019581426
0002c0 00 91 ca 3d d5 a8 80 bd 0b 60 ac 3d b8 34 a9 bd
       0.09890938 -0.06282202 0.08416756 -0.082620084
0002d0 2f 28 de bc de df 6d 39 12 8b 02 be fb 35 b6 3d
       -0.02711877 0.00022685478 -0.12748364 0.08897015
0002e0 85 6d ef bd 72 24 d6 3c 59 79 79 3c 69 a6 2d 3d
       -0.11690811 0.026140425 0.015226685 0.04239503
0002f0 87 da 6a bb 18 04 28 3d ec 61 52 3d 72 c6 87 3c
       -0.003583582 0.04101953 0.051362917 0.016574118
000300 8c fe 8f bc 8f 81 48 bd 79 a9 d2 3c fe 84 44 3e
       -0.017577432 -0.04895168 0.025715576 0.19191357
000310 d8 f6 1d bd 75 d0 c6 3b ff 11 86 3d 59 51 19 bd
       -0.038565487 0.0060673305 0.06546401 -0.037431095
000320 33 8e 01 3d 44 eb 4c bd db 74 07 3e de 2e f3 bd
       0.031629752 -0.050029054 0.1322817 -0.118741736
000330 95 59 a0 3d b6 66 ef 3d ee a8 3f be af 13 a8 3d
       0.078295864 0.116895124 -0.18716785 0.08206879
000340 25 2d d1 bd 92 03 15 bd ff c3 e3 bc aa f3 e6 3d
       -0.10213689 -0.036380358 -0.02780342 0.11276944
000350 1e ec cf bc 8f 54 92 bd 6a 75 e0 bc e2 23 8b 3d
       -0.025381144 -0.071450345 -0.027399737 0.067939535
000360 1c 58 13 3e 0a e3 09 be fc 5e e0 bd f9 38 6c bd
       0.1438908 -0.13465515 -0.10955617 -0.05767152
000370 59 40 9b 3c cb 1b fb bd b7 b7 58 be 13 c2 36 be
       0.018951582 -0.122611605 -0.21163832 -0.17847471
000380 d0 7b 54 bd 0a f5 3b bd 13 d2 9d bc 06 d6 96 bd
       -0.05187589 -0.045887984 -0.01926521 -0.073650405
000390 e0 c4 3b be 5e 69 ce bc 0e 62 a7 bd 8c c6 cd bd
       -0.1833682 -0.025196727 -0.08172999 -0.100476354
0003a0 87 08 9b 3d b1 b5 57 bd ca 55 1f be c6 70 40 3e
       0.07569986 -0.05266351 -0.1556007 0.1879302
0003b0 ae c1 0e 3d 07 4f 6a bd be 70 08 3e 10 85 f1 bc
       0.034852676 -0.057204273 0.13324258 -0.029482394
0003c0 73 79 ff bd c7 98 6b 3c 2e 70 dc 3c 24 70 43 3d
       -0.124743365 0.014379687 0.02690896 0.047714368
0003d0 bc 4f 43 bd 37 68 24 3d 07 d6 ea bd e3 6a 09 3d
       -0.047683463 0.04013845 -0.11466604 0.0335492
0003e0 84 93 bf bc ad 4f ec 3d 04 37 12 3c 74 4e 70 bd
       -0.02338577 0.115386344 0.00892425 -0.05866857
0003f0 88 c1 2c be 6e b3 f9 bd 83 74 ca 3d 43 3d 0f be
       -0.16870701 -0.121924266 0.09885504 -0.13988213

gru.bias_ih_l1 f4 [192]
000000 1a 45 80 3c b3 ed 1c bd a6 68 cb bd e3 2a 84 bd
       0.01565795 -0.038312625 -0.099320695 -0.064534925
000010 c5 c6 af bd 2c 1c 59 be 93 3c a5 bd 98 d1 31 3d
       -0.08582834 -0.21202153 -0.08068194 0.043412775
000020 49 43 74 3d f6 db 0f b9 a6 0e 9f bd be d3 55 be
       0.05963448 -0.00013719485 -0.07766466 -0.20881554
000030 3f 6d 08 be 23 d6 4f be 50 f3 47 be 46 83 32 3d
       -0.13322924 -0.2029653 -0.1952641 0.043582223
000040 6e cf 60 3a 69 96 c8 bd 13 55 89 bc 47 29 05 3e
       0.00085758313 -0.097943135 -0.0167642 0.13004027
000050 49 5a bc 3c 24 96 cd 3b 4d c1 ce bc de ec 6f bc
       0.02299227 0.0062740017 -0.025238657 -0.014643876
000060 b6 3c 29 be 88 1f 1c be 9f f3 9b bd 94 15 2e be
       -0.16527066 -0.15246403 -0.076148264 -0.17000419
000070 b0 32 70 3c 3e b7 df bd d9 9d 27 3e 4e 59 73 bd
       0.014660522 -0.109236225 0.16368808 -0.05941134
000080 c1 b8 7f bd 63 cb ae bd 74 2c 75 bd bb aa a6 bc
       -0.062432054 -0.08534887 -0.059856847 -0.020345083
000090 e4 9c 8a 3d e3 4a 03 be 9c ad 66 3d 7f 26 8a 3d
       0.06768206 -0.12821536 0.05631791 0.06745624
0000a0 89 da 27 be 99 23 de bc 37 d1 23 bd d5 fa 4e bc
       -0.16391958 -0.027116584 -0.039994445 -0.012633045
0000b0 52 8c 15 bc b1 0e f5 bd 6c ce aa bc 6f 82 9b bd
       -0.009127693 -0.11965693 -0.020850383 -0.075932376
0000c0 3a 3a b4 bd 9a d7 81 be 06 7b 11 be 89 17 09 bd
       -0.08800168 -0.25359803 -0.14207086 -0.03346971
0000d0 de 78 90 bd 46 cd 99 3c d7 2c 71 bd 32 22 4f be
       -0.070543036 0.01877464 -0.058880653 -0.20227888
0000e0 c8 25 dd bd f3 19 32 bc 00 2e 2e 3d 7b 4c 9c 3d
       -0.10798222 -0.010870445 0.042524338 0.07631775
0000f0 a0 cf 44 bd 19 df fa bd cc b5 99 3d 4d e4 c6 3c
       -0.04804957 -0.12249584 0.07505378 0.024278784
000100 04 be a8 3c e9 0c 4c be 4b b1 76 bc e2 43 39 bd
       0.020598419 -0.199268 -0.015056918 -0.045230754
000110 de 6a 94 be 2e f4 72 be f3 26 28 be a3 a4 42 be
       -0.28987783 -0.2372596 -0.16421108 -0.19008116
000120 5c 04 71 bd b1 bd a2 be 8b 9b 17 bd 02 a7 97 be
       -0.058842048 -0.31785348 -0.03701357 -0.29619604
000130 ab f9 c9 bc e4 8b 79 3b b4 ec 0d bd 21 8d 5e be
       -0.024655184 0.0038077766 -0.034649566 -0.21733524
000140 20 02 c0 bc a9 27 50 be ab 60 ad bd 6c a3 dc be
       -0.023438513 -0.20327629 -0.084657036 -0.4309343
000150 23 89 86 be 23 f3 b9 bc 78 cd 54 be 5a 73 98 bd
       -0.26276502 -0.022698944 -0.20781505 -0.074438766
000160 02 ab 80 be b1 95 b1 bd 2d 5f 6d bc c4 92 6e be
       -0.2513047 -0.086711295 -0.014488024 -0.23298174
000170 e7 2e de bd 00 21 91 be e2 4e 89 be dc 54 73 be
       -0.1084879 -0.2834549 -0.26817995 -0.2376284
000180 d1 ae 8a bd be 60 89 be 7a 59 1c be 0c 6c 16 be
       -0.06771625 -0.2683162 -0.15268508 -0.14689654
000190 21 30 a6 bd 4a 1c ec bd a5 2d 1d bd cc 92 12 bd
       -0.081146486 -0.11528833 -0.03837361 -0.035784528
0001a0 c2 d8 8a 3c d4 cd a2 bc 8c 19 10 be d5 7d 22 be
       0.016949061 -0.019873537 -0.14072245 -0.15868314
0001b0 bd 52 50 be 36 da 29 be 7a 17 81 bd cc 31 26 be
       -0.20344062 -0.16587147 -0.06303306 -0.16229934
0001c0 9c fc 94 bd 30 51 77 3c 05 82 b5 bd 5d 32 d3 bd
       -0.07274744 0.01509504 -0.0886269 -0.103123404
0001d0 0c 67 73 bd 05 fe 5b be 82 3c f3 bd 3e cb 21 be
       -0.059424445 -0.2148362 -0.11876775 -0.15800187
0001e0 be 44 16 be 08 0c 8e bd 48 bc 1e be 16 83 1e bd
       -0.1467466 -0.069358885 -0.15501511 -0.038699232
0001f0 37 da 00 be f1 5d 00 3c 01 75 03 be fd 51 f0 bd
       -0.12583242 0.007834897 -0.12837602 -0.11734388
000200 01 9d 80 bd a2 85 08 3d 47 27 51 3d 61 c8 a1 bd
       -0.06279946 0.033330567 0.05106285 -0.07899547
000210 16 2e a8 3d 67 d6 fc bd 8e 79 b4 3b 1c b4 00 3c
       0.08211915 -0.123455815 0.0055076545 0.007855441
000220 ae 77 a8 bd 78 f5 e9 3c fe b2 19 3d 20 44 2b 3c
       -0.08225952 0.028559431 0.037524216 0.010453254
000230 42 8c a1 bd f0 14 32 bd b0 08 92 3d e4 55 b2 bd
       -0.0788808 -0.043477 0.07130563 -0.087077886
000240 88 f2 81 bb c5 b1 be 3d 78 a2 57 bd c7 60 aa ba
       -0.0039656796 0.093112506 -0.052645177 -0.0012998813
000250 27 21 be bd 34 cd ab bb ac b5 a3 bd 63 29 bc bd
       -0.09283667 -0.005242968 -0.079936355 -0.091875814
000260 6e 53 4a 3c 6a e8 a3 3d 53 1f 06 3e fb b5 0c 3d
       0.012348993 0.08003314 0.13097887 0.034353238
000270 cd 31 90 3d 59 e7 a7 3d ef 73 c7 3c 9c a8 89 3d
       0.07040749 0.08198423 0.024347274 0.06721613
000280 0e be e2 3c e3 b7 b8 bd 96 36 c7 3b 99 36 95 bc
       0.027678516 -0.090194486 0.006079505 -0.01821451
000290 04 b1 80 bc fd b5 64 3c 2f 79 f0 bb 70 0b 81 3d
       -0.015709408 0.013959405 -0.007338665 0.0630101
0002a0 08 9b 2a bd 14 6a a5 3d 44 5f d0 3d c5 f4 1d bd
       -0.041651756 0.080768734 0.101744205 -0.03856351
0002b0 8f db 05 3d 44 40 5b 3d 3c 2c da 3d 6b 06 58 3d
       0.03268009 0.053528085 0.10652968 0.052740496
0002c0 8d bc 9b bc 9e a2 13 bd 56 c4 07 bc 09 86 da bd
       -0.019010806 -0.036043756 -0.008286556 -0.106700964
0002d0 33 9a ac 3d 89 a1 c2 bd 26 09 c5 3c b9 b4 f8 bc
       0.08427849 -0.09503467 0.024052214 -0.030359613
0002e0 e0 d6 bc bc 6f db 07 bc 6d 73 81 3c e4 5a a0 38
       -0.02305168 -0.008292063 0.01580211 7.646324e-05
0002f0 91 dd a8 3d c9 d9 e2 3d b3 6d 57 bd 57 8d c6 3d
       0.082453854 0.110766955 -0.05259485 0.09694927

gru.bias_hh_l1 f4 [192]
000000 a3 de 8a 3c cb 2a 9d 3d 65 1c 1f 3c 33 07 85 bd
       0.016951865 0.07674178 0.00971136 -0.06495514
000010 d8 4a c5 bd 17 3d a2 3b 7e 4d 95 3c 3b 3e c6 3c
       -0.09633416 0.00495113 0.018225428 0.024199596
000020 d2 6c b5 bc 43 60 0b 3d c7 b6 a1 bd f6 d6 7b bd
       -0.022146616 0.03402735 -0.0789619 -0.0614843
000030 f9 97 f1 bc e8 ef e9 bd 39 17 06 be fd f8 e8 3c
       -0.029491412 -0.114227116 -0.13094796 0.02843904
000040 95 8c ff 3d 27 88 8f bd a9 33 ec 3d 67 aa 1a 3c
       0.12477986 -0.07008391 0.11533291 0.009440041
000050 60 51 93 bc 1f 54 09 3d f1 de 53 bd 45 db 7b bb
       -0.017983139 0.03352749 -0.051726285 -0.0038430255
000060 6d 32 9b 3c f3 b0 36 bc 66 2f df bd e0 12 53 be
       0.018944943 -0.011150586 -0.108977124 -0.20612669
000070 8a 4b 23 be d3 69 0d be 6f 15 d1 bb ad a6 f9 bc
       -0.15946785 -0.138099 -0.006380729 -0.030474985
000080 af 18 64 be d3 a6 8d 3c 71 3f 3f be 01 fc 43 3d
       -0.22275041 0.017291462 -0.18676545 0.04784775
000090 95 70 a1 bd b1 d1 ca bd 6b b2 8c 3d 06 25 8c 3d
       -0.078828014 -0.09903277 0.06869968 0.06842999
0000a0 15 37 38 be 91 f1 0f be 92 49 35 3d c7 3a 29 be
       -0.17989762 -0.14056994 0.044259615 -0.16526328
0000b0 41 a8 43 bd 90 ac b4 3b 9b 33 ca 3d 49 b2 81 bd
       -0.04776788 0.005513735 0.09873124 -0.06332833
0000c0 a7 be 17 3d d5 91 6f be 5c 04 ed bd 9c dc 81 bd
       0.037047055 -0.23395474 -0.11573097 -0.06340906
0000d0 45 d5 b6 3d 27 4a 1a 3b 25 21 11 3d 7f 39 aa bd
       0.08927397 0.0023542733 0.035432 -0.08311748
0000e0 2e 24 04 bd 21 6d 82 3c ed 21 2e 3d 2d 14 88 3d
       -0.032261066 0.015921177 0.042512823 0.06644473
0000f0 f6 06 81 3d d2 b8 a0 3d 3d 63 31 bd 2b 00 0a be
       0.06300156 0.07847752 -0.04330753 -0.13476627
000100 fb e1 7e 3c 7d 53 3e be b3 f4 4e be 29 6b 6c be
       0.015556808 -0.18586536 -0.20210533 -0.23087753
000110 fd 80 69 be 29 7e 46 be 8c c7 14 bd 09 d8 54 be
       -0.22803111 -0.19384064 -0.036323115 -0.20785536
000120 e0 3d 9f bd 1f 6f 5b be 87 fd 10 be 56 6a 51 be
       -0.077754736 -0.21429108 -0.14159213 -0.2045072
000130 05 71 10 be a4 7f a3 bd ab 94 4d bd 21 de 84 be
       -0.14105614 -0.0798333 -0.05019061 -0.2595072
000140 3e c6 a1 3c 4a 69 54 be 6f d6 42 be fd 75 c2 be
       0.01974785 -0.2074329 -0.19027112 -0.37980643
000150 2e 9d ca be ac 13 42 be 32 00 e2 bd 3f 77 de bd
       -0.39573044 -0.18952817 -0.110351935 -0.10862588
000160 1e 1b 98 be 81 fe 5f be 20 14 74 bd f8 c2 d5 bd
       -0.2970819 -0.2187443 -0.059589505 -0.10437578
000170 b9 ac 62 be 2d 94 8c be 05 bd 81 be 35 ae 68 be
       -0.22136201 -0.274568 -0.25339523 -0.22722705
000180 1e 8e e3 bc 1f 7d a3 be 4e d5 f6 bd 3d c4 90 be
       -0.027777728 -0.31931397 -0.120524034 -0.28274718
000190 52 9e f7 bd 51 95 75 be c7 2c 4c be 51 72 93 bd
       -0.12090744 -0.23982741 -0.19938956 -0.071995385
0001a0 6d 5d d5 bd 8d 24 22 3d 87 56 84 be f3 e2 5c be
       -0.1041821 0.03958564 -0.25847265 -0.2157095
0001b0 86 3a a0 bd 3d 25 6c be 97 04 8d bd 48 cb c8 bc
       -0.078236625 -0.2306108 -0.06885641 -0.024510995
0001c0 d4 10 95 bb 4e 89 90 bd 74 5c 70 bd 70 af ac bd
       -0.004549125 -0.07057439 -0.05868192 -0.084318995
0001d0 6a a1 66 be 67 d2 42 bb d6 b8 1a 3b c1 3b a9 bd
       -0.22522512 -0.002972746 0.0023608706 -0.0826335
0001e0 a5 d2 85 be fa c8 86 bd da 99 32 be 75 90 1f be
       -0.26137272 -0.06581302 -0.17441502 -0.1558245
0001f0 26 65 09 be 72 5e 0b 3d cd a9 7c 3b 9c fd 2a bd
       -0.13417491 0.034025617 0.0038553358 -0.041745767
000200 b2 ed e9 bc 6a 45 aa 3d a9 65 93 3b c9 71 a8 bc
       -0.028555725 0.08314021 0.004498203 -0.02056207
000210 b8 f8 e5 3d 54 3b 42 bd 2f 49 e9 bd 28 eb 63 3b
       0.1122908 -0.04741986 -0.11390912 0.0034777615
000220 55 66 93 bc 40 dd b8 bd 05 a5 d7 bd 08 18 0f 3d
       -0.017993132 -0.09026575 -0.10529522 0.034935027
000230 8d 06 a1 bd 60 19 49 bc dc 9d b9 3d 39 72 5e bd
       -0.078625776 -0.012274116 0.090633124 -0.05430815
000240 04 78 57 3d ce 74 af ba 70 cd 89 3d b1 74 80 bd
       0.05260469 -0.0013386251 0.06728637 -0.06272257
000250 fb 07 d0 3c 7d 6a 62 3d 45 60 1d 3c d9 b4 f2 bc
       0.02539443 0.055277336 0.009605472 -0.02962725
000260 0f c5 9f bd 52 a5 89 bd 25 d5 83 bb 9e 8e 45 bd
       -0.07801258 -0.067209855 -0.0040232115 -0.048231713
000270 a5 14 43 3d cf e9 7b bd 20 2a 1f bd e1 7a 2a bd
       0.04762711 -0.061502274 -0.038858533 -0.041621093
000280 6f d9 8d bc b3 c4 a7 3c 9c cb 1f 3d f8 64 05 bd
       -0.017315594 0.020479536 0.039012536 -0.032566994
000290 d0 5a 04 bd af 6c 62 3d cb b6 e2 bd 78 62 57 bd
       -0.032313168 0.05527943 -0.11070021 -0.05258414
0002a0 51 0e e8 bd 06 34 36 3d cd 88 a0 3d 61 87 5b 3d
       -0.11330856 0.044483207 0.07838593 0.053595904
0002b0 25 3f f7 bd 42 79 b6 3d bf f3 b2 3c 50 6a 5d 3c
       -0.12072591 0.08909847 0.021844743 0.013514116
0002c0 01 48 8d 3d b2 af 63 3d ae 56 a3 bc 84 22 8c 3d
       0.06898499 0.055587478 -0.019938793 0.06842521
0002d0 fe 2f a9 bd cd 41 79 bc 06 a1 36 3d 55 3a 83 bb
       -0.08261107 -0.015213442 0.044587158 -0.0040047565
0002e0 7b ac d5 bd 2b 70 11 3c c5 8f 95 bd c6 6c a8 bd
       -0.10433289 0.008876841 -0.073028125 -0.08223872
0002f0 5a 71 f7 3c 75 5c a0 bd c5 25 23 3d 96 38 d5 bc
       0.030205417 -0.07830135 0.03983094 -0.026027959

fc.weight f4 [1, 64]
000000 c2 75 ae 3d eb e2 17 be 29 78 8a bd 8d b4 1a be
       0.08518554 -0.14832656 -0.067612 -0.15107937
000010 bc 32 45 3e 4d f7 24 be 46 dd 20 be 69 5b cd 3d
       0.19257635 -0.16109963 -0.15709409 0.10027201
000020 2a 2c cc 3d ca 41 c5 3d c7 da e6 bd 00 01 35 3e
       0.09969361 0.09631689 -0.11272197 0.17676163
000030 0b 9e 3f 3e 5a 56 49 be 7c 9a 48 3e d6 43 0b be
       0.18712632 -0.19661847 0.19590181 -0.13600096
000040 60 70 cb bd 3e e7 11 3e 1c 0c 03 3e 3b 34 02 be
       -0.09933543 0.14248368 0.12797588 -0.12715237
000050 c8 d8 01 be 8f 5d 08 3e 16 1a 21 3e d9 e8 3e 3e
       -0.12680352 0.1331694 0.15732607 0.18643512
000060 25 65 34 be 65 ab f5 3d 82 f1 48 3e 64 fd 36 3e
       -0.17616709 0.119955815 0.19623378 0.17870098
000070 88 27 ae 3d 43 74 be 3d f6 1b f9 3d 4c cb bc 3d
       0.08503634 0.09299519 0.12163536 0.09218463
000080 60 b4 e2 3d 0c 26 f4 bd e2 6b 05 3e b4 a5 fb 3d
       0.1106956 -0.11921319 0.13029435 0.12287465
000090 ad 4d ce 3d 2b 12 03 3e 27 df a2 bd f8 6b 51 bd
       0.10073409 0.127999 -0.07952719 -0.051128358
0000a0 cf 93 f4 bd 72 ad f3 bd 40 dc 2e 3e 53 fe 26 be
       -0.11942255 -0.118983164 0.17076206 -0.16307954
0000b0 d9 da 40 be 1f 16 18 be 58 45 4c bd 19 6f 33 3e
       -0.18833484 -0.14852189 -0.04987082 0.17522849
0000c0 59 31 0c 3e dc d5 38 be 84 9d 18 be c0 5e 40 be
       0.136907 -0.18050331 -0.14903837 -0.18786144
0000d0 48 d1 c8 bd a6 39 df bd ea 4f e1 bd 4e 9a 0a be
       -0.09805542 -0.108996674 -0.110015705 -0.13535425
0000e0 55 8b 5a be bd 37 22 be a0 38 55 bd 63 43 ba 3d
       -0.21342213 -0.15841575 -0.052055955 0.09094884
0000f0 22 39 92 3d 83 ce e8 bd da a4 14 3e 57 24 73 bd
       0.071398035 -0.11367514 0.14516011 -0.05936083
