data/models/xrpANDbtc_lstm.pth (torch, 206133 bytes, 9 tensors)

lstm.weight_ih_l0 f4 [256, 1]
-0.18294385 0.17797148 0.15339293 -0.11513965 0.0011205806 0.04878539 0.13293278 0.04247165
0.00062060746 0.17743143 0.016221395 0.021187497 -0.023889618 0.053779162 0.052075233 -0.025775312
0.14395592 -0.009196445 -0.10798931 -0.05019789 0.1300701 0.09109544 0.02324633 0.11767122
-0.0053111673 0.1665623 -0.011398727 0.10418358 -0.21710677 -0.08506229 0.019963758 0.1369803
0.0504367 -0.10932771 0.0762411 0.09582337 0.11047004 0.009417019 0.13403058 0.063893564
0.052342895 0.043738708 0.14848241 0.16394919 0.08990222 0.04703372 -0.001324487 0.09768258
0.12619048 0.1076591 0.087915145 0.03975674 -0.14540206 0.034620337 0.023222871 0.0132249845
0.13904384 0.13796666 0.0943778 0.06702727 0.054619163 -0.031455666 0.088203035 0.023878396
-0.27359813 0.10642575 0.06964806 -0.1032538 0.060658056 0.13671064 -0.037555967 0.111401364
0.108059354 0.1401139 -0.058754772 -0.04485646 -0.054991964 0.014990439 0.13060413 -0.066679806
6.369132e-05 0.13043125 -0.017614586 -0.24390319 -0.059306465 0.17389154 0.12745275 -0.0147256795
-0.03759182 0.08898247 0.1270949 0.0068656206 -0.26534548 -0.1778641 -0.25973266 0.047751505
-0.075454436 -0.100526266 0.054991663 0.0073650205 0.15477116 -0.11643181 0.037018705 0.13460773
-0.0045166076 0.18418637 0.065755434 -0.18396981 -0.08196453 0.07762127 0.0075537204 0.0057668085
-0.035079326 0.077017784 0.096280195 0.12864646 -0.049777236 0.033110306 -0.0037119216 0.0071143736
-0.08567364 -0.07991681 0.16974302 0.091515265 -0.030976597 0.06033376 0.11845208 0.04605723
0.15508346 -0.15647162 0.20932354 0.15205237 -0.05945206 -0.13782267 0.072979674 -0.15856464
0.13259876 0.15481585 0.193655 0.17373897 -0.26669574 0.16234912 -0.1292124 -0.15995303
-0.21898618 0.0988395 0.09203779 0.18832667 0.14282054 0.11803066 0.11534128 0.1315627
0.13897832 -0.12640423 -0.13834108 -0.14849311 0.14588617 0.0027629265 0.13414183 0.17231132
0.13338219 -0.05317627 0.09923731 0.17944358 0.14230984 -0.092200674 -0.22905439 0.18339936
0.1528041 0.15266857 0.062229585 0.22036405 0.18154767 0.13203049 0.01724813 -0.11643733
-0.18310364 0.13420796 -0.17111032 0.07611427 -0.17120112 -0.12658104 0.17992269 0.05051085
0.13173234 0.15414234 -0.14638244 -0.0063923476 -0.14342965 0.14980018 -0.093019076 -0.1724289
-0.23498271 0.09655567 0.13807082 -0.15187046 0.03230851 -0.020910127 0.05175159 0.031320747
0.103981555 0.21692058 0.01103879 0.08001766 0.012108392 0.12699036 0.17090793 0.007131946
0.2590585 0.12940378 -0.13727157 0.0022706 0.14879715 0.19164887 0.16584702 0.121112876
0.0026846547 0.13158512 -0.027414802 0.027581993 -0.16823854 -0.060358513 -0.13222067 0.10252057
0.099158354 0.024616674 0.03278923 0.08895433 0.1882531 0.011180853 0.17428859 0.078659825
0.06057136 0.18987553 0.1957584 0.12233724 0.024676004 0.057386324 0.08735471 -0.052814938
0.19993313 0.2136992 0.17446506 0.19606455 -0.302936 0.17152174 0.19114232 0.08122556
0.07290621 0.11946618 0.11587811 0.098584525 0.17864077 0.16289215 -0.045783263 0.055632632
00000000: a255 3bbe 283e 363e 0913 1d3e 56ce ebbd
00000010: 72e0 923a 30d3 473d 881f 083e c1f6 2d3d
00000020: 43b0 223a 96b0 353e bbe2 843c 6791 ad3c
00000030: 29b4 c3bc 8a47 5c3d d74c 553d bf26 d3bc
00000040: 2e69 133e b0ac 16bc 8029 ddbd 4d9c 4dbd
00000050: 1931 053e 3f90 ba3d 166f be3c 9cfd f03d
00000060: 4d09 aebb 4f8f 2a3e bac1 3abc 335e d53d
00000070: 3d51 5ebe 2335 aebd 098b a33c 9044 0c3e
00000080: b796 4e3d 35e7 dfbd 4b24 9c3d 0b3f c43d
00000090: 1e3e e23d d749 1a3c 503f 093e a1da 823d
000000a0: 8165 563d 5c27 333d c60b 183e 4ce2 273e
000000b0: a81e b83d 6ea6 403d 699a adba ce0d c83d
000000c0: 1438 013e 607c dc3d db0c b43d f7d7 223d
000000d0: 47e4 14be 0ece 0d3d e43d be3c 9bad 583c
000000e0: 8261 0e3e 2247 0d3e 2649 c13d 9845 893d
000000f0: 58b8 5f3d a8d7 00bd cba3 b43d a09c c33c
00000100: 0e15 8cbe bef5 d93d a4a3 8e3d ba76 d3bd
00000110: 9574 783d e0fd 0b3e 49d4 19bd 6626 e43d
00000120: 394e dd3d 057a 0f3e d8a8 70bd 68bb 37bd
00000130: 413f 61bd 759a 753c 17bd 053e 6c8f 88bd
00000140: 0492 8538 c58f 053e 774c 90bc c2c1 79be
00000150: 56eb 72bd a010 323e f982 023e fa43 71bc
00000160: e1f9 19bd 713c b63d 2a25 023e 00f9 e03b
00000170: 5ddb 87be 0222 36be aefb 84be 1597 433d
00000180: db87 9abd b7e0 cdbd f03e 613d 4556 f13b
00000190: 557c 1e3e cd73 eebd eda0 173d 9cd6 093e
000001a0: 0d00 94bb 5a9b 3c3e c9aa 863d 9562 3cbe
000001b0: 05dd a7bd e7f7 9e3d 3385 f73b 7ff7 bc3b
000001c0: 57af 0fbd 80bb 9d3d 8d2e c53d e6bb 033e
000001d0: 37e3 4bbd ac9e 073d b643 73bb b11f e93b
000001e0: a975 afbd 6dab a3bd 1dd1 2d3e 5b6c bb3d
000001f0: a2c2 fdbc 8820 773d 0197 f23d 82a6 3c3d
00000200: 33ce 1e3e 193a 20be e958 563e 9eb3 1b3e
00000210: 0184 73bd 6321 0dbe 5e76 953d c55e 22be
00000220: f8c7 073e 0c88 1e3e 7f4d 463e a1e8 313e
00000230: 588c 88be d93e 263e 4150 04be baca 23be
00000240: ea3d 60be 5d6c ca3d 4f7e bc3d b5d8 403e
00000250: 8c3f 123e 0fba f13d 0d38 ec3d 5fb8 063e
00000260: 5550 0e3e 1c70 01be 49a9 0dbe 940e 18be
00000270: 2f63 153e 3712 353b 7a5c 093e 6172 303e
00000280: 5795 083e 5ccf 59bd ee3c cb3d 0fc0 373e
00000290: acb9 113e b5d3 bcbd 3c8d 6abe 0bcd 3b3e
000002a0: ae78 1c3e 2655 1c3e 73e4 7e3d 1da7 613e
000002b0: a2e7 393e 0033 073e f34b 8d3c b276 eebd
000002c0: 857f 3bbe d06d 093e 8b37 2fbe cce1 9b3d
000002d0: 594f 2fbe 769e 01be a73d 383e 77e4 4e3d
000002e0: d8e4 063e 7dd7 1d3e 47e5 15be e676 d1bb
000002f0: 39df 12be 3865 193e c980 bebd 3491 30be
00000300: 4f9f 70be fbbe c53d 7062 0d3e ee83 1bbe
00000310: ee55 043d b74b abbc 7af9 533d 2f4a 003d
00000320: 48f4 d43d 6e20 5e3e 0bdc 343c 4de0 a33d
00000330: 4762 463c c309 023e 7d02 2f3e 19b3 e93b
00000340: 51a3 843e 6d82 043e eb90 0cbe 59ce 143b
00000350: 485e 183e 9a3f 443e cdd3 293e 070a f83d
00000360: 08f1 2f3b 40be 063e 0295 e0bc a2f3 e13c
00000370: b946 2cbe 7d3a 77bd db64 07be 4ef6 d13d
00000380: 8913 cb3d e8a8 c93c 004e 063d b02d b63d
00000390: 6cc5 403e e52f 373c b578 323e 6718 a13d
000003a0: ad19 783d bb6e 423e e474 483e f28b fa3d
000003b0: 5525 ca3c ec0d 6b3d 07e7 b23d 7a54 58bd
000003c0: 45bb 4c3e f7d3 5a3e f8a6 323e 25c5 483e
000003d0: 6d1a 9bbe 65a3 2f3e d0ba 433e 9659 a63d
000003e0: da4f 953d afaa f43d 8151 ed3d afe6 c93d
000003f0: 9bed 363e 33cd 263e 3b87 3bbd 0bdf 633d

lstm.weight_hh_l0 f4 [256, 64]
0.045854606 -0.012766168 0.00024989963 0.07980967 -0.07490878 -0.06989596 0.12581655 -0.086430475
-0.12509355 0.080130644 0.031627297 0.0667674 -0.103022896 -0.17962274 -0.059135266 -0.11743316
0.031106014 -0.047966424 -0.14095727 -0.1057894 0.031836785 -0.009547054 0.053782023 0.0656333
-0.06458731 0.008123662 -0.08357292 0.020193875 0.02176713 0.09586788 -0.088941544 -0.069837
0.06782442 -0.04037122 0.073444344 -0.06101282 0.093962446 -0.021222403 0.07891332 -0.032254234
0.056385987 -0.05025431 -0.04603436 -0.11682375 0.01825408 -0.17252254 -0.0352117 0.052616127
-0.08371558 0.044072963 0.08182617 0.07224066 -0.039907027 0.019051997 0.110820696 -0.100861415
0.096545726 -0.0082557965 -0.038748335 0.08856906 0.057226576 -0.039249696 -0.07032861 -0.018255552
-0.16540137 0.06776892 0.054495037 -0.227121 -0.062142324 -0.05723948 0.039207987 0.08994355
-0.03167836 0.11997405 -0.20220187 0.09746712 -0.12700877 -0.07447255 -0.09019275 -0.06533863
-0.011044692 0.06879804 -0.20716427 -0.25626957 0.04587198 0.07188957 -0.020105021 -0.045891006
0.074320324 -0.06248805 0.013055729 0.1391249 -0.15241493 0.053008076 -0.107855275 -0.09475395
0.08107579 0.053773623 -0.009095454 -0.08800428 0.096588366 -0.22268598 -0.10431662 -0.08557294
-0.09718168 0.10676028 0.096559405 -0.009436747 -0.026135981 0.057326015 0.037121966 -0.02929203
0.10645346 0.06560172 0.05895823 -0.054704238 0.29791757 0.04946044 -0.0014674149 0.06111909
0.020220984 -0.07649621 0.12019184 0.02799124 -0.105369784 -0.076334916 -0.08878849 0.040874038
-0.13810486 -0.021651223 -0.05545093 -0.15496647 0.014191667 -0.12826353 0.1310481 0.031239245
0.112982646 -0.05749314 0.04712309 -0.10656176 -0.14932378 0.0072367145 -0.09325318 -0.10608661
-0.06805411 -0.044287216 0.018584399 -0.17159979 -0.010118952 -0.005579673 0.14046416 -0.047482945
-0.033737727 0.0828996 -0.027685666 -0.07194943 -0.26138708 0.09774878 -0.1904508 -0.017266285
-0.015551717 0.13448785 -0.011024683 0.049385138 -0.014312782 -0.033282198 -0.14240384 0.054595057
0.05819552 0.095114574 -0.016524967 0.043863837 0.104829915 0.14799131 -0.025838707 -0.039208405
0.13571902 -0.057074204 0.07385963 -0.04653997 0.091494836 -0.028791577 0.06326609 0.013998904
-0.045434 0.04056021 0.056552093 -0.015152055 -0.04241428 -0.05347088 -0.06286215 0.056596443
-0.02869655 0.021111907 0.026663622 -0.043261643 -0.057574786 0.11939837 0.025344698 0.02998447
-0.057315715 -0.1515747 0.10205572 0.05712827 -0.018091766 -0.14425163 -0.01051056 0.110927165
0.05503557 0.060541946 -0.07616668 0.017914835 0.031352527 0.0942704 -0.07918198 -0.006294272
-0.006059038 -0.022566877 0.019321011 -0.01361261 -0.03222257 -0.09447486 0.06355308 0.05807728
-0.0013951928 0.106651425 0.10333162 -0.05898113 -0.11205536 0.11525952 -0.03874738 0.073218435
-0.0015359542 -0.034975894 -0.06901774 0.07951056 -0.07643746 0.089628935 0.08421994 0.035122037
-0.03991411 0.004719749 0.12608209 0.045629296 0.0048220083 -0.08564044 0.11212477 -0.020156497
0.072179906 0.03172321 0.11094764 -0.04322665 0.0625023 -0.12385032 0.012331737 -0.096502244
00000000: 0ad2 3b3d 3129 51bc f604 8339 4173 a33d
00000010: c669 99bd 9d25 8fbd 0ed6 003e 7602 b1bd
00000020: 8618 00be 891b a43d a08b 013d 59bd 883d
00000030: abfd d2bd 06ef 37be d237 72bd cc80 f0bd
00000040: 0ad2 fe3c 7178 44bd 1a57 10be 1da8 d8bd
00000050: 4a67 023d 3f6b 1cbc 8a4a 5c3d c06a 863d
00000060: 5a46 84bd 1c19 053c 4728 abbd a06d a53c
00000070: fb50 b23c 6156 c43d fc26 b6bd b306 8fbd
00000080: 88e7 8a3d 4b5c 25bd fd69 963d 94e8 79bd
00000090: 626f c03d 9bda adbc 4f9d a13d 041d 04bd
000000a0: fef4 663d 77d7 4dbd 868e 3cbd 4a41 efbd
000000b0: 9589 953c c0a9 30be 253a 10bd 0284 573d
000000c0: 1373 abbd da85 343d 7b94 a73d e9f2 933d
000000d0: 8d75 23bd ef12 9c3c f6f5 e23d 6e90 cebd
000000e0: c4b9 c53d 5243 07bc 93b6 1ebd b263 b53d
000000f0: 6a66 6a3d 4ac4 20bd 7208 90bd ab8c 95bc
00000100: fa5e 29be 6eca 8a3d 3036 5f3d 6892 68be
00000110: f388 7ebd f273 6abd 8e98 203d 5334 b83d
00000120: 2bc1 01bd f4b4 f53d 020e 4fbe d79c c73d
00000130: 960e 02be 1085 98bd fab6 b8bd 42d0 85bd
00000140: ccf4 34bc fde5 8c3d df22 54be c435 83be
00000150: 42e4 3b3d d73a 933d 49b3 a4bc 35f8 3bbd
00000160: 4135 983d 78f3 7fbd b2e7 553c c276 0e3e
00000170: a912 1cbe ff1e 593d 3ae3 dcbd 5c0e c2bd
00000180: 100b a63d bb41 5c3d 1905 15bc 973b b4bd
00000190: 1fd0 c53d cb07 64be f4a3 d5bd de40 afbd
000001a0: 3007 c7bd 22a5 da3d f0c0 c53d 969c 1abc
000001b0: 201b d6bc afce 6a3d 340d 183d d7f5 efbc
000001c0: 4604 da3d 325a 863d 2f7e 713d 8d11 60bd
000001d0: a788 983e 0897 4a3d 4656 c0ba 0358 7a3d
000001e0: 7aa6 a53c 0caa 9cbd 2427 f63d e34d e53c
000001f0: 1dcc d7bd 7b55 9cbd bdd6 b5bd 896b 273d
00000200: 5c6b 0dbe e85d b1bc 8420 63bd 88af 1ebe
00000210: 2a84 683c 8457 03be 7931 063e 72e9 ff3c
00000220: 7263 e73d ed7d 6bbd 2404 413d 0d3d dabd
00000230: 55e8 18be f621 ed3b 86fb bebd f043 d9bd
00000240: f45f 8bbd 8366 35bd 4f3e 983c dbb7 2fbe
00000250: f6c9 25bc b1d5 b6bb d6d5 0f3e 7a7d 42bd
00000260: 9230 0abd 44c7 a93d 0dcd e2bc 395a 93bd
00000270: 87d4 85be 8330 c83d 8905 43be 0672 8dbc
00000280: a1cc 7ebc 2fb7 093e dfa0 34bc 1248 4a3d
00000290: 2980 6abc ea52 08bd 50d2 11be 119f 5f3d
000002a0: 6d5e 6e3d 6ecb c23d 5e5f 87bc 91aa 333d
000002b0: 11b1 d63d 098b 173e b2ab d3bc fe98 20bd
000002c0: edf9 0a3e a4c6 69bd b843 973d b2a0 3ebd
000002d0: a561 bb3d 50dc ebbc a791 813d a95b 653c
000002e0: 0119 3abd 7622 263d 2ba3 673d 5340 78bc
000002f0: 99ba 2dbd 4804 5bbd dfbd 80bd acd1 673d
00000300: 0715 ebbc e1f2 ac3c ab6d da3c 1f33 31bd
00000310: 8ad3 6bbd 2287 f43d af9f cf3c fea1 f53c
00000320: e2c3 6abd 6636 1bbe 9702 d13d 55ff 693d
00000330: 2f35 94bc b3b6 13be 7c34 2cbc c82d e33d
00000340: fa6c 613d d5fa 773d 47fd 9bbd 22c2 923c
00000350: 826b 003d d710 c13d 292a a2bd 2e40 cebb
00000360: e58a c6bb 2cde b8bc 1947 9e3c 6d07 5fbc
00000370: d0fb 03bd 097c c1bd 1e28 823d 71e2 6d3d
00000380: e7de b6ba 106c da3d 879f d33d 3396 71bd
00000390: 487d e5bd 2f0d ec3d 93b5 1ebd 8cf3 953d
000003a0: 1252 c9ba e242 0fbd 2c59 8dbd 6fd6 a23d
000003b0: 3e8b 9cbd 608f b73d 817b ac3d 20dc 0f3d
000003c0: fa7c 23bd 20a8 9a3b aa1b 013e c9e5 3a3d
000003d0: f001 9e3b 4164 afbd aca1 e53d 3d1f a5bc
000003e0: 0fd3 933d 32f0 013d 8438 e33d 6e0e 31bd
000003f0: 3501 803d 3da5 fdbd 0e0b 4a3c f8a2 c5bd

lstm.bias_ih_l0 f4 [256]
0.08370516 0.10880491 0.07994764 -0.078985326 0.039848737 0.100998335 0.09657366 0.13774793
-0.07562629 -0.07468948 0.011502106 0.07068646 0.10409793 -0.02864477 -0.09954216 -0.04004963
0.2647392 0.028615098 0.0053377575 0.10762151 0.08295257 0.016968014 -0.014605799 0.08813599
0.012973737 -0.035564143 0.1340128 0.002262898 0.08145155 -0.11055994 0.15449229 0.15197693
0.100684814 -0.0619496 0.005315206 0.12686166 -0.05463166 0.012490874 0.053811144 -0.06447711
0.07116264 -0.008728273 0.03708803 0.13374588 0.09925495 -0.114207804 -0.10363056 0.10024076
-0.020812951 -0.020551316 0.0844936 -0.13756165 0.033166964 0.09850888 0.1311572 0.06089885
0.09581725 0.092227496 0.0020690877 -0.007582471 -0.102687 0.033781756 -0.08004182 0.042421274
0.118768424 -0.028807757 -0.047143772 0.015386947 0.0245414 0.029781213 -0.077291615 -0.0725099
0.069539815 -0.10264297 0.05829889 0.044477955 0.03008353 -0.004157674 0.050556097 -0.13894075
-0.17185327 -0.020749189 0.017238567 0.0031114225 0.021132395 -0.046741307 -0.08512516 0.010614644
-0.017731795 -0.0058368673 0.09365182 0.035187587 -0.0387545 0.043881293 0.100638844 -0.041424535
-0.163766 0.055534445 -0.12543647 0.023957148 -0.0777679 -0.18334104 0.0062437663 -0.033967294
0.05547208 0.06512049 0.08152126 -0.098336495 -0.06407399 0.07063725 -0.012615983 0.07812115
-0.02865375 0.02057014 0.08432481 0.0969424 -0.05299275 0.05430237 0.040870547 0.014705709
-0.12171286 -0.08044212 0.06708855 -0.10598622 0.04758759 -0.114033945 -0.08703706 0.10507231
0.028837532 -0.06711162 0.009204462 -0.08739117 9.647644e-05 0.021298058 0.010218526 0.071731284
0.012529418 -0.006176409 -0.11742837 0.0388021 -0.047125682 -0.037758432 -0.10847057 0.02271708
-0.069273725 0.024247967 -0.024569571 -0.11053557 0.056308657 -0.05814608 0.07023852 -0.10268109
0.087688595 -0.07299531 -0.02057023 0.055852078 -0.08727061 -0.014144744 0.000692877 -0.077244475
-0.07445359 0.11336367 -0.09006059 -0.023857718 0.0994094 0.0076471 -0.05362569 0.07663204
0.08616911 -0.1149332 0.09330543 0.048435204 -0.039390832 -0.07766691 -0.051805843 0.0124108065
0.02265687 0.007419523 0.01789819 0.035229236 0.12012649 -0.06318466 0.07390438 -0.11213307
-0.037096083 -0.0053967033 -0.029947642 0.06320456 0.011343471 -0.1020093 0.009755256 0.04788392
-0.04598501 0.21235855 0.0029309469 0.001027911 0.07556249 -0.036595084 -0.044896934 0.06923675
0.0074486416 0.05511334 0.10023082 0.13091752 0.20110117 0.13900273 0.055979572 0.086064495
0.08897175 0.045568425 0.0044643437 0.014463748 0.1604423 -0.06405541 0.03122317 0.052231103
0.04776167 -0.04063432 0.07186668 0.07494131 0.044993527 0.031905 0.033037465 0.18212564
0.09707595 0.06910972 0.087962285 0.113668725 0.13819607 -0.102186844 -0.009226133 -0.052356422
0.1083511 -0.059549667 0.085955076 0.14855385 -0.03786752 0.047285907 0.016137924 -0.028816346
0.07118839 -0.10946614 -0.043817967 -0.13684678 -0.037901744 0.018333605 0.11734237 -0.012181643
0.011873954 0.048392285 0.06304735 0.0116037065 0.08049758 0.13995332 0.07159676 -0.033701573
00000000: 9c6d ab3d 1cd5 de3d 97bb a33d 0fc3 a1bd
00000010: 6e38 233d 37d8 ce3d 69c8 c53d cb0d 0d3e
00000020: f5e1 9abd ccf6 98bd 5473 3c3c 10c4 903d
00000030: 4c31 d53d 70a8 eabc c3dc cbbd 150b 24bd
00000040: e58b 873e 366a ea3c 5be8 ae3b ab68 dc3d
00000050: 09e3 a93d 8100 8b3c 294d 6fbc a480 b43d
00000060: cc8f 543c b5ab 11bd a73a 093e 214d 143b
00000070: 12d0 a63d 406d e2bd 3a33 1e3e d79f 1b3e
00000080: d733 ce3d ddbe 7dbd 2e2b ae3b 06e8 013e
00000090: 73c5 5fbd 86a6 4c3c 1369 5c3d 930c 84bd
000000a0: b8bd 913d 0801 0fbc 9ee9 173d aef4 083e
000000b0: 2e46 cb3d c8e5 e9bd 423c d4bd 074b cd3d
000000c0: ec7f aabc 3c5b a8bc fb0a ad3d f6dc 0cbe
000000d0: 15da 073d 06bf c93d 134e 063e 1371 793d
000000e0: d63b c43d c5e1 bc3d 8899 073b 6076 f8bb
000000f0: 904d d2bd bd5e 0a3d f7ec a3bd eec1 2d3d
00000100: dc3c f33d 3ffe ebbc d419 41bd 8919 7c3c
00000110: 0c0b c93c bbf7 f33c 114b 9ebd 1280 94bd
00000120: e46a 8e3d 7a36 d2bd d1ca 6e3d 842e 363d
00000130: bc71 f63c 193d 88bb e913 4f3d 7c46 0ebe
00000140: 4efa 2fbe 34fa a9bc e537 8d3c 02e9 4b3b
00000150: d81d ad3c d073 3fbd 1a56 aebd 0be9 2d3c
00000160: 4542 91bc 3143 bfbb 87cc bf3d dc20 103d
00000170: 0abd 1ebd dfbc 333d bd1b ce3d c6ac 29bd
00000180: 46b2 27be 1678 633d 6b72 00be c841 c43c
00000190: c744 9fbd c1bd 3bbe 8298 cc3b 4a21 0bbd
000001a0: b136 633d e45d 853d 9ef4 a63d a564 c9bd
000001b0: 3939 83bd 43aa 903d 45b3 4ebc fbfd 9f3d
000001c0: 45bb eabc b682 a83c 7cb2 ac3d bd89 c63d
000001d0: ed0e 59bd 296c 5e3d e067 273d 37f0 703c
000001e0: 9844 f9bd d7be a4bd b965 893d 4e0f d9bd
000001f0: 34eb 423d a18a e9bd 7c40 b2bd 2730 d73d
00000200: b03c ec3c d171 89bd 50ce 163c 24fa b2bd
00000210: 6553 ca38 4479 ae3c 9b6b 273c dae7 923d
00000220: 3048 4d3c 7963 cabb 497e f0bd f3ee 1e3d
00000230: dc06 41bd 96a8 1abd d125 debd 2b19 ba3c
00000240: 62df 8dbd aca3 c63c 2046 c9bc 7960 e2bd
00000250: e8a3 663d 952a 6ebd 37d9 8f3d 774a d2bd
00000260: 1496 b33d 917e 95bd e682 a8bc 26c5 643d
00000270: efba b2bd 5bbf 67bc 30a2 353a 5a32 9ebd
00000280: 207b 98bd 362b e83d b071 b8bd 4371 c3bc
00000290: 2897 cb3d 8694 fa3b 9da6 5bbd 42f1 9c3d
000002a0: 6e79 b03d 1962 ebbd eb16 bf3d fe63 463d
000002b0: 4858 21bd d40f 9fbd 5d32 54bd b256 4b3c
000002c0: e69a b93c 781f f33b 3a9f 923c 884c 103d
000002d0: e104 f63d f666 81bd 2e5b 973d 06a6 e5bd
000002e0: 10f2 17bd d4d6 b0bb c254 f5bc 6471 813d
000002f0: f7d9 393c 40ea d0bd 82d4 1f3c ee21 443d
00000300: c75a 3cbd 8574 593e 2115 403b f8ba 863a
00000310: 82c0 9a3d bae4 15bd d9e5 37bd ffcb 8d3d
00000320: bc13 f43b 87be 613d d145 cd3d 3e0f 063e
00000330: 77ed 4d3e bb56 0e3e d64a 653d 9542 b03d
00000340: d236 b63d f5a5 3a3d a149 923b 5bf9 6c3c
00000350: fc4a 243e 7c2f 83bd bcc7 ff3c 48f0 553d
00000360: bea1 433d 2c70 26bd d72e 933d d47a 993d
00000370: 224b 383d d1ae 023d 4b52 073d 257f 3a3e
00000380: c1cf c63d 6689 8d3d 9225 b43d 26cb e83d
00000390: 4583 0d3e 5647 d1bd 3529 17bc b073 56bd
000003a0: 2ee7 dd3d 5aea 73bd 3709 b03d 801e 183e
000003b0: f91a 1bbd deae 413d ae33 843c 4210 ecbc
000003c0: 38cb 913d c92f e0bd 787a 33bd 9021 0cbe
000003d0: dc3e 1bbd 5b30 963c 3251 f03d 8495 47bc
000003e0: f98a 423c fd36 463d f81e 813d 791d 3e3c
000003f0: eadb a43d ec4f 0f3e 52a1 923d a90a 0abd

lstm.bias_hh_l0 f4 [256]
0.0768636 0.06394186 0.10619896 0.07072764 -0.07340974 -0.021150786 -0.07174102 -0.011849643
0.07206359 0.1224132 0.012700738 0.09224756 0.02388643 0.18771249 0.010868934 0.06994532
0.21648166 0.034222785 0.03659353 0.116783716 0.17542775 -0.06987223 0.0006422303 -0.04753846
-0.03466034 -0.026478833 -0.06776866 -0.015035529 -0.009787397 -0.12737001 0.07413119 0.11239995
0.09832855 -0.059233133 -0.069534235 0.14402165 0.01381677 -0.16569562 0.03985631 -0.0033888512
-0.016612679 0.033274654 0.013514205 0.02818569 0.054353725 0.12243976 0.025204213 -0.07702618
-0.046182804 0.1262148 -0.08689212 -0.04612398 -0.04483288 -0.0032083075 0.0603571 -0.07818776
0.14286132 0.1863239 -0.016110832 0.040671732 0.05896545 0.015272924 -0.03167843 0.17260316
-0.0008853319 -0.059285864 -0.05858685 0.06574434 -0.025174446 -0.08561098 -0.13645105 0.06416312
-0.05830595 -0.032920033 -0.06310518 0.085706145 -0.061330333 -0.08494856 -0.0057251765 -0.07440428
-0.111186154 0.0002557796 0.014101204 -0.0034289649 0.047252446 -0.109723546 -0.016839392 0.03808203
0.05664645 -0.13407136 0.019062312 -0.005863497 -0.05812815 -0.05458482 0.002473656 -0.045735672
-0.10586026 0.019593826 0.03472148 -0.113608405 0.02281966 -0.0007899709 -0.008106304 0.027744045
0.07771569 -0.0649056 -0.08262487 -0.14262258 0.055650666 -0.031218123 -0.11624535 0.072811894
0.07043408 -0.13092399 -0.037206095 -0.025849417 0.03392492 -0.06717796 -0.080352485 0.0924935
-0.13221398 -0.098568015 -0.09610375 -0.1171124 -0.10586043 0.0363011 0.08629261 -0.06095405
-0.13249733 0.083688445 0.046955213 -0.088215604 -0.037836876 -0.020527896 -0.011296243 -0.019192953
-0.03698138 0.11059472 -0.06881774 -0.025216974 0.0027908457 -0.010506136 0.07425163 -0.031666063
0.035505317 -0.07080353 -0.09959956 -0.047781006 -0.12182005 0.11870899 0.054442223 0.0738982
-0.031658106 -0.10802049 0.050880834 0.05219028 -0.020224364 0.03627488 -0.05465403 0.009252237
0.035990864 -0.05804138 0.07231614 0.009914472 -0.116704464 -0.070030145 -0.07484936 -0.12072812
-0.1241706 0.115681924 -0.05586731 -0.080593385 -0.10132664 0.031635433 0.00651998 0.09124685
0.035652608 -0.07626453 -0.023767442 0.07609 0.0462135 0.019762827 -0.037127566 0.069819406
0.02748075 -0.056860752 0.10369658 -0.034322456 0.059906084 0.027803712 -0.009572454 -0.072009444
0.09185949 0.2383027 0.063628376 -0.017104307 0.01765871 0.08226987 0.018815748 0.015528664
0.03864585 0.076689936 -0.022897318 0.08168009 0.025779499 0.19031675 -0.118704945 0.10280784
0.17783381 -0.020317653 -0.033525273 0.022805944 -0.057767298 0.11805365 -0.14884749 -0.004524047
0.096105084 0.09305328 -0.008759662 0.009569643 -0.05951894 -0.021899235 -0.03026179 -0.033444844
0.093980245 -0.061213728 0.12639925 0.07055682 -0.08094207 0.0413889 0.04678843 0.16471022
0.04208924 -0.082104556 -0.12593754 0.18620864 0.013763699 -0.07022092 -0.19642961 -0.004839319
0.015581426 0.01854109 0.09906844 0.046566587 -0.03622236 -0.06656402 0.13013366 -0.11210852
-0.011559061 0.0053653102 -0.0771261 -0.124681026 -0.09690124 -0.051217202 0.019113865 0.14879489
00000000: aa6a 9d3d f3f3 823d d77e d93d a7d9 903d
00000010: d957 96bd 6a44 adbc f5ec 92bd 0125 42bc
00000020: 1396 933d c6b3 fa3d c216 503c 4aec bc3d
00000030: 79ad c33c b437 403e 9d13 323c 7e3f 8f3d
00000040: 5ead 5d3e 312d 0c3d 19e3 153d 4d2c ef3d
00000050: 55a3 333e 2c19 8fbd 595b 283a b0b7 42bd
00000060: 00f8 0dbd 23ea d8bc 4cca 8abd 9457 76bc
00000070: 525b 20bc 496d 02be 18d2 973d f231 e63d
00000080: 7b60 c93d 719e 72bd f767 8ebd 697a 133e
00000090: bc5f 623c 1dac 29be 5f40 233d 7d17 5ebb
000000a0: 5017 88bc 014b 083d af6a 5d3c ade5 e63c
000000b0: 03a2 5e3d b2c1 fa3d 1179 ce3c e7bf 9dbd
000000c0: 2e2a 3dbd 743e 013e 7ff4 b1bd 80ec 3cbd
000000d0: afa2 37bd 7842 52bb 0239 773d e820 a0bd
000000e0: 3d4a 123e b1cb 3e3e ddfa 83bc 6797 263d
000000f0: c185 713d 493b 7a3c 3ec1 01bd e2be 303e
00000100: 9e15 68ba bcd5 72bd c4f8 6fbd f8a4 863d
00000110: a43a cebc cf54 afbd d3b9 0bbe f467 833d
00000120: 38d2 6ebd 28d7 06bd 4a3d 81bd b486 af3d
00000130: 8435 7bbd 83f9 adbd 439a bbbb 4561 98bd
00000140: 91b5 e3bd 281a 8639 bd08 673c 7cb8 60bb
00000150: c88b 413d bdb6 e0bd c4f2 89bc e7fb 1b3d
00000160: 1c06 683d 014a 09be 9128 9c3c 9422 c0bb
00000170: c817 6ebd 5594 5fbd 101d 223b 5455 3bbd
00000180: 44cd d8bd 3b83 a03c 1c38 0e3d 86ab e8bd
00000190: 4cf0 ba3c 0d16 4fba 4ed0 04bc 7b47 e33c
000001a0: 6729 9f3d 3aed 84bd 3a37 a9bd a70b 12be
000001b0: f4f1 633d 26bd ffbc 0b12 eebd 671e 953d
000001c0: be3f 903d f010 06be 6b65 18bd 28c2 d3bc
000001d0: dbf4 0a3d 9994 89bd d88f a4bd 3b6d bd3d
000001e0: 1a63 07be 07de c9bd 0bd2 c4bd a0d8 efbd
000001f0: 5acd d8bd 76b0 143d 2eba b03d f4aa 79bd
00000200: 61ad 07be d964 ab3d 1c54 403d 62aa b4bd
00000210: d7fa 1abd 1e2a a8bc e113 39bc 8a3a 9dbc
00000220: ca79 17bd 7c7f e23d 51f0 8cbd d493 cebc
00000230: 9fe6 363b ee21 2cbc 3d11 983d 46b4 01bd
00000240: 066e 113d 7101 91bd dbfa cbbd 04b6 43bd
00000250: ca7c f9bd b31d f33d cffe 5e3d f157 973d
00000260: eeab 01bd d939 ddbd 6c68 503d 7ac5 553d
00000270: 91ad a5bc f894 143d e7dc 5fbd b296 173c
00000280: 286b 133d ccbc 6dbd 7c1a 943d 4f70 223c
00000290: c002 efbd f76b 8fbd 9f4a 99bd 4e40 f7bd
000002a0: 284d febd a5ea ec3d 1fd5 64bd 250e a5bd
000002b0: 5784 cfbd 2894 013d 8ea5 d53b a1df ba3d
000002c0: 7808 123d 9430 9cbd f0b3 c2bc 13d5 9b3d
000002d0: 5e4a 3d3d a7e5 a13c 1313 18bd 7afd 8e3d
000002e0: 4f1f e13c d2e6 68bd df5e d43d b495 0cbd
000002f0: 1560 753d 9cc4 e33c c8d5 1cbc b079 93bd
00000300: d420 bc3d 9f05 743e 984f 823d 551e 8cbc
00000310: 00a9 903c 1b7d a83d 7c23 9a3c f06b 7e3c
00000320: 1c4b 1e3d 9d0f 9d3d 2893 bbbc e447 a73d
00000330: 872f d33c 65e2 423e 941b f3bd eb8c d23d
00000340: 111a 363e 3571 a6bc cc51 09bd 88d3 ba3c
00000350: 679d 6cbd 1dc6 f13d 7a6b 18be 753e 94bb
00000360: bed2 c43d b892 be3d af84 0fbc fec9 1c3c
00000370: 22ca 73bd 0666 b3bc 93e7 f7bc 76fd 08bd
00000380: b778 c03d 3fbb 7abd ce6e 013e 1880 903d
00000390: f5c4 a5bd 6887 293d 3aa5 3f3d cca9 283e
000003a0: c465 2c3d 6f26 a8bd c5f5 00be 7aad 3e3e
000003b0: 2381 613c fccf 8fbd d824 49be 2693 9ebb
000003c0: 3d49 7f3c 7ce3 973c 65e4 ca3d 9bbc 3e3d
000003d0: e65d 14bd b852 88bd c241 053e 2799 e5bd
000003e0: 3762 3dbc 7ccf af3b 4af4 9dbd c458 ffbd
000003f0: 2874 c6bd 21c9 51bd ae94 9c3c b05d 183e

lstm.weight_ih_l1 f4 [256, 64]
-0.13019004 -0.07577777 -0.04212171 -0.042330626 -0.07716475 -0.009264825 0.15271173 -0.060526848
-0.02388555 -0.020383283 -0.0073467162 0.052626282 0.062095813 0.07248565 0.046076957 -0.15241478
0.048983384 0.0911186 0.05665076 0.106404245 0.13241835 0.06348972 0.003384082 0.04684281
-0.030543981 -0.13116753 -0.008071927 -0.16784768 0.056375463 -0.05871229 0.13199563 0.13753483
0.14215855 0.0667602 -0.07145781 -0.04755962 0.09159457 -0.026592568 -0.015079264 -0.055173125
0.12309999 0.057032097 0.0019571427 0.13805881 0.034741048 0.14085823 -0.0768786 -0.10963854
-0.041751437 -0.027204987 -0.116979375 0.17992489 0.024528194 -0.09804471 0.18495171 -0.085727245
0.14802274 0.16960494 -0.034133956 0.017100623 -0.07965931 0.16787304 -0.023027034 -0.09772841
-0.12487443 -0.061586034 0.102685526 -0.049378034 0.08011753 -0.04732387 -0.03510695 -0.10487614
0.13008367 -0.022000615 0.1221768 0.07788329 0.020732239 0.17255673 -0.07656932 -0.073860444
-0.14440878 0.056643553 0.047893148 0.17900313 0.06488083 -0.013378657 0.18181834 -0.0125133805
0.09755926 -0.0730449 0.026836371 -0.0035775448 -0.109025955 0.18352847 0.033956964 0.17004365
0.07049811 -0.10977848 0.16383098 0.00541169 -0.00030915183 -0.05712591 -0.03314155 0.13078476
-0.01716208 0.15322445 0.08617706 0.16469744 -0.00544226 0.108913004 0.061670624 0.06849781
-0.13127832 0.03417927 -0.09365087 0.14261855 0.19876604 -0.13628297 0.098655865 -0.010044853
0.07303494 0.18914098 -0.0306864 -0.018921023 0.020685995 0.00677512 -0.15179883 -0.03039938
-0.14974405 0.083388396 0.15933907 -0.085929155 0.0068989857 0.13504109 0.16840884 -0.04656725
0.090337165 0.09352079 -0.07206191 -0.1393969 -0.108724184 -0.0648855 -0.042329382 0.010096958
-0.21247832 0.14540747 -0.18193963 -0.06252727 0.03425144 0.06476804 -0.031540547 0.12695685
-0.19966425 -0.15099066 0.021484047 0.06382535 -0.20755851 0.07311045 -0.13444227 0.008506717
-0.14901504 0.13151936 0.0752349 -0.11140264 0.18178725 0.04286836 0.0529124 0.013187256
0.051805064 -0.014560662 0.19474316 -0.049960885 -0.0861191 -0.06327459 -0.09517353 0.057834852
-0.15787175 -0.0046990383 0.046184994 0.099708736 0.05184691 -0.17072819 0.022938445 0.18852171
-0.062974066 -0.12402276 -0.08050242 0.022276448 0.1225244 -0.15007675 -0.09257144 -0.05529815
-0.20828137 0.003516315 0.17455545 -0.0787728 -0.07625765 -0.090108156 0.15456207 -0.050594542
0.06400141 -0.023393597 0.04809032 -0.08791296 0.037252884 -0.07323097 0.0061207786 -0.06202896
-0.08618593 0.16572402 -0.03286838 0.043007176 0.105550736 0.0749545 -0.056300648 0.13587444
0.0062962994 0.029482301 -0.11191143 0.109668314 -0.20064643 0.019329488 -0.09140315 0.16225162
-0.06962043 0.14482287 -0.050441235 0.025736514 0.10277837 -0.012052497 0.029299278 -0.049091738
0.0022802467 -0.059030235 0.03559025 -0.11772119 -0.026262296 0.015138594 0.02744776 0.124221765
-0.13944578 -0.012695693 0.0004544969 0.16541316 0.199949 -0.069508106 0.104979314 0.16098472
0.070533805 0.06836588 -0.09968216 -0.0561364 0.06772712 0.061362185 0.024801562 -0.085506365
00000000: 8a50 05be 6031 9bbd d087 2cbd e162 2dbd
00000010: 8d08 9ebd 7ecb 17bc 7760 1c3e 00eb 77bd
00000020: a1ab c3bc d8fa a6bc b9bc f0bb a88e 573d
00000030: 2e58 7e3d 5b73 943d 31bb 3c3d 9f12 1cbe
00000040: cda2 483d 639c ba3d a10a 683d 78ea d93d
00000050: ad98 073e e606 823d 7ac7 5d3b 3fde 3f3d
00000060: 5f37 fabc c850 06be 1e40 04bc 43e0 2bbe
00000070: f5e9 663d 4c7c 70bd dd29 073e eed5 0c3e
00000080: 0392 113e 92b9 883d 7958 92bd e0cd 42bd
00000090: ef95 bb3d a8d8 d9bc 040f 77bc 37fd 61bd
000000a0: d91b fc3d 7d9a 693d 6843 003b 4a5f 0d3e
000000b0: a14c 0e3d 243d 103e 8772 9dbd 2c8a e0bd
000000c0: 8e03 2bbd fedc debc e292 efbd 3b3e 383e
000000d0: 5aef c83c aacb c8bd fb63 3d3e c491 afbd
000000e0: 4693 173e ebac 2d3e 0cd0 0bbd 9b16 8c3c
000000f0: 6c24 a3bd e9e6 2b3e 31a3 bcbc d525 c8bd
00000100: 2abe ffbd a341 7cbd ca4c d23d 9f40 4abd
00000110: a914 a43d add6 41bd 4ecc 0fbd 4dc9 d6bd
00000120: a734 053e a23a b4bc d537 fa3d 4681 9f3d
00000130: a8d6 a93c b6b2 303e 60d0 9cbd 2544 97bd
00000140: e5df 13be 1203 683d 9b2b 443d 994c 373e
00000150: 3ee0 843d 2832 5bbc 962e 3a3e ec04 4dbc
00000160: 26cd c73d 9198 95bd f3d7 db3c 3e75 6abb
00000170: 0049 dfbd e3ee 3b3e 7516 0b3d ec1f 2e3e
00000180: 5061 903d 8ad3 e0bd 4fc3 273e 8c54 b13b
00000190: a815 a2b9 dcfc 69bd 6fbf 07bd 71ec 053e
000001a0: 7e97 8cbc dfe6 1c3e 997d b03d 72a6 283e
000001b0: fc54 b2bb c80d df3d 569a 7c3d 9448 8c3d
000001c0: d36d 06be 90ff 0b3d 07cc bfbd 990a 123e
000001d0: 5389 4b3e c38d 0bbe 160c ca3d 2b93 24bc
000001e0: 5893 953d 2cae 413e 0c62 fbbc 4300 9bbc
000001f0: ad75 a93c d301 de3b 2771 1bbe 1f08 f9bc
00000200: 8156 19be 89c7 aa3d c829 233e a0fb afbd
00000210: e310 e23b 3648 0a3e 5e73 2c3e 4dbd 3ebd
00000220: b102 b93d d487 bf3d 3295 93bd 10be 0ebe
00000230: c9aa debd b0e2 84bd 9361 2dbd b66d 253c
00000240: eb93 59be b2e5 143e 624e 3abe 4c0e 80bd
00000250: 3d4b 0c3d 1ba5 843d a930 01bd fa00 023e
00000260: c974 4cbe 4c9d 1abe 50ff af3c ddb6 823d
00000270: 388a 54be eeba 953d 3cab 09be c25f 0b3c
00000280: 6697 18be 03ad 063e c114 9a3d 1127 e4bd
00000290: 7026 3a3e bc96 2f3d acba 583d 5c0f 583c
000002a0: 8c31 543d d88f 6ebc c06a 473e c9a3 4cbd
000002b0: 365f b0bd 1c96 81bd 57ea c2bd 3de4 6c3d
000002c0: 22a9 21be 64fa 99bb 7a2c 3d3d 1834 cc3d
000002d0: 6d5d 543d 5fd3 2ebe 68e9 bb3c d60b 413e
000002e0: 8cf8 80bd a5ff fdbd 74de a4bd 197d b63c
000002f0: 13ee fa3d b8ad 19be 1896 bdbd 5080 62bd
00000300: b647 55be fa71 663b aabe 323e a253 a1bd
00000310: f92c 9cbd a08a b8bd 8545 1e3e 393c 4fbd
00000320: 2c13 833d eea3 bfbc 5bfa 443d b60b b4bd
00000330: 7b96 183d 1efa 95bd d090 c83b 1412 7ebd
00000340: 4082 b0bd 8fb3 293e ffa0 06bd 4b28 303d
00000350: fc2a d83d bf81 993d 829b 66bd ab22 0b3e
00000360: 3051 ce3b de84 f13c d231 e5bd c899 e03d
00000370: 4276 4dbe e058 9e3c 9331 bbbd 4a25 263e
00000380: 2895 8ebd 724c 143e 789b 4ebd 62d5 d23c
00000390: 777d d23d d677 45bc 0a05 f03c 6b14 49bd
000003a0: 3170 153b b0c9 71bd 15c7 113d cf17 f1bd
000003b0: 0724 d7bc de07 783c 20da e03c fb67 fe3d
000003c0: e0ca 0ebe 9901 50bc 8b49 ee39 1162 293e
000003d0: 6ebf 4c3e 445a 8ebd 65ff d63d 2ed9 243e
000003e0: 0774 903d 6903 8c3d 2926 ccbd 48ef 65bd
000003f0: 84b4 8a3d ea56 7b3d a52c cb3c f61d afbd

lstm.weight_hh_l1 f4 [256, 64]
-0.062173747 -0.0038836764 -0.0452465 -0.067764014 0.0775608 -0.02062066 0.103443146 -0.08063508
0.11747235 0.0926703 -0.0022128504 0.054391354 -0.024343574 -0.040722698 -0.047634225 0.068581715
-0.0341863 -0.041417506 0.0847224 -0.051824722 0.056572318 0.09901637 0.0665962 -0.013148516
-0.021177705 0.06567461 -0.09577428 -0.09392931 -0.029982192 0.11946864 -0.12229193 0.06360526
-0.044007026 0.108624615 0.032121815 -0.07456753 -0.0711628 -0.114485614 -0.13807833 -0.077192605
0.005754294 -0.050897297 0.065830655 -0.10254394 -0.13541864 -0.11523689 -0.033973627 -0.10837287
-0.00031254505 -0.11737367 0.15573418 0.13670965 -0.14782348 -0.082585104 0.059959866 0.013715864
0.08176502 -0.1079223 -0.05421787 0.111091144 0.000646509 -0.13546251 -0.0075241053 0.09121604
-0.08888726 0.020475272 -0.3324148 -0.113601625 -0.045661185 0.1853407 -0.12558791 0.051876802
0.080730945 -0.10737399 0.089339145 -0.11466258 -0.0054391036 0.10965916 0.10987637 0.11031745
-0.03624531 0.0116089275 -0.039366312 0.062600814 0.089980274 -0.056320682 0.0971748 -0.072635084
-0.11219404 0.035609987 0.06255758 0.10587574 -0.19496043 0.038260873 0.0241712 -0.09525236
0.041654002 0.08635131 0.009635422 -0.11410776 0.09112871 0.037858017 -0.054833658 0.10856094
0.09127598 0.00026228104 0.012306112 -0.052840326 -0.08526929 -0.12902148 0.12021111 -0.13682026
-0.08205319 -0.08515946 0.08466054 0.16614829 -0.10409397 -0.08622748 0.07353316 0.11863601
0.08328759 -0.073880464 -0.06009303 0.06083376 0.08337151 -0.036734853 0.1280046 -0.026024463
0.13674405 -0.005170243 -0.024727687 0.020693623 -0.02700481 0.047630202 0.11806673 0.06796168
-0.007893241 0.1965816 0.13233817 -0.086007215 0.08224558 -0.039812136 0.09571874 0.08006284
-0.016996 -0.09537353 -0.063697405 0.16483101 -0.022713458 -0.018715313 -0.031588454 0.113850854
-0.13278922 0.05984914 0.15383552 -0.11744311 -0.11850613 0.038443036 0.0115328375 0.1543937
-0.117460795 -0.027919821 0.15490825 -0.08424342 0.012630961 -0.12678877 -0.022545092 0.14638563
-0.015787844 -0.071886145 0.06998718 0.037560448 -0.020747045 0.09957046 -0.06392895 -0.040860362
-0.1015968 0.01643496 0.07841566 -0.040816594 -0.16149771 -0.1325314 -0.19791962 0.042521678
-0.12530223 -0.005763025 -0.17447668 -0.14740598 -0.090947896 -0.046645906 -0.000536031 0.061658286
0.014987584 0.13896619 -0.1742927 -0.014715919 0.11725932 0.22456072 -0.028049108 0.020365726
-0.0045784437 -0.04653084 0.04793517 0.017407682 -0.040629987 0.05357623 -0.022588965 -0.008649875
0.010469886 -0.1460534 -0.114537 -0.016605474 -0.10836012 -0.04920314 0.05708337 0.10109962
-0.046519637 0.15695271 0.08559442 -0.15668963 0.006875906 -0.10664307 -0.086467825 0.1607589
-0.13721408 0.05243718 0.049755227 -0.021232568 0.14799726 -0.02843227 0.116225466 0.033204507
-0.0800897 0.034577265 -0.024089446 0.062191814 0.08540134 -0.008245128 -0.10496933 -0.10620838
-0.108912386 0.05029499 0.08724383 0.10243504 -0.0021314004 0.012667863 -0.15562524 0.08907345
-0.07779511 0.08104011 -0.047034487 -0.07945009 0.043390807 -0.040915776 0.11990309 -0.027144374
00000000: e6a9 7ebd 4785 7ebb 6554 39bd dcc7 8abd
00000010: 32d8 9e3d a9ec a8bc 00da d33d 0124 a5bd
00000020: 5895 f03d edc9 bd3d 7805 11bb 78c9 5e3d
00000030: 2d6c c7bc d8cc 26bd 1b1c 43bd 9274 8c3d
00000040: ef06 0cbd 67a5 29bd f082 ad3d 2946 54bd
00000050: 60b8 673d 18c9 ca3d 9763 883d e06c 57bc
00000060: de7c adbc 6980 863d 4e25 c4bd 035e c0bd
00000070: 379d f5bc f9ab f43d 3174 fabd 7943 823d
00000080: b640 34bd 9576 de3d 2a92 033d dcb6 98bd
00000090: cdbd 91bd 6f77 eabd 6864 0dbe 2817 9ebd
000000a0: 848e bc3b af79 50bd 39d2 863d 8f02 d2bd
000000b0: 2fab 0abe 5201 ecbd ee27 0bbd 98f2 ddbd
000000c0: 16dd a3b9 9b61 f0bd c878 1f3e 9dfd 0b3e
000000d0: 0a5f 17be 6122 a9bd 7a98 753d 81b8 603c
000000e0: 6b74 a73d 5e06 ddbd 8f13 5ebd c183 e33d
000000f0: 7c7a 293a afb6 0abe c58c f6bb 7acf ba3d
00000100: 860a b6bd c2bb a73c 4632 aabe f8a7 e8bd
00000110: 3907 3bbd f4c9 3d3e 1e9a 00be c57c 543d
00000120: 4456 a53d e5e6 dbbd 71f7 b63d 37d4 eabd
00000130: 823a b2bb fb94 e03d dd06 e13d 1dee e13d
00000140: f675 14bd 5f33 3e3c 923e 21bd db34 803d
00000150: 9447 b83d 84b0 66bd 9503 c73d b4c1 94bd
00000160: fdc5 e5bd c7db 113d 301e 803d 61d5 d83d
00000170: b5a3 47be 6fb7 1c3d ae02 c63c ab13 c3bd
00000180: 639d 2a3d f5d8 b03d e4dd 1d3c 54b1 e9bd
00000190: b0a1 ba3d 0211 1b3d 4299 60bd 3355 de3d
000001a0: e7ee ba3d c482 8939 939f 493c 196f 58bd
000001b0: aaa1 aebd 351e 04be 3e31 f63d 9c1a 0cbe
000001c0: 810b a8bd 1568 aebd 8162 ad3d c722 2a3e
000001d0: 382f d5bd 0898 b0bd 8e98 963d 70f7 f23d
000001e0: af92 aa3d a44e 97bd 1c24 76bd d22c 793d
000001f0: afbe aa3d 4977 16bd a313 033e 4131 d5bc
00000200: a206 0c3e 246b a9bb b891 cabc ac85 a93c
00000210: 3139 ddbc e317 433d f8cc f13d 7e2f 8b3d
00000220: a752 01bc b04c 493e a883 073e 8d24 b0bd
00000230: 5f70 a83d 0d12 23bd 3008 c43d fcf7 a33d
00000240: 323b 8bbc 3353 c3bd c973 82bd 76c9 283e
00000250: 9311 babc db50 99bc e562 01bd a32a e93d
00000260: e6f9 07be 5f24 753d 0f87 1d3e 0386 f0bd
00000270: 58b3 f2bd 7276 1d3d 3af4 3c3c 6219 1e3e
00000280: 498f f0bd 1cb8 e4bc 45a0 1e3e d087 acbd
00000290: 17f2 4e3c ead4 01be 7cb0 b8bc 1de6 153e
000002a0: 8255 81bc 0b39 93bd 7055 8f3d fcd8 193d
000002b0: b5f5 a9bc 99eb cb3d 2eed 82bd 325d 27bd
000002c0: fc11 d0bd 9ca2 863c 6498 a03d 4d2f 27bd
000002d0: a85f 25be 50b6 07be 71ab 4abe 362b 2e3d
000002e0: 3a4f 00be c2d7 bcbb 04aa 32be 98f1 16be
000002f0: e442 babd c70f 3fbd 6e84 0cba 668d 7c3d
00000300: 7c8e 753c 274d 0e3e c979 32be 0a1b 71bc
00000310: a825 f03d 3ff3 653e 3ec7 e5bc 06d6 a63c
00000320: c506 96bb 1f97 3ebd ab57 443d 8e9a 8e3c
00000330: a16b 26bd c072 5b3d 7e0c b9bc 35b8 0dbc
00000340: e289 2b3c 068f 15be 6092 eabd 3408 88bc
00000350: e9eb ddbd 3b89 49bd 40d0 693d 510d cf3d
00000360: 608b 3ebd 36b8 203e 214c af3d 3f73 20be
00000370: 484f e13b af67 dabd 0b16 b1bd fb9d 243e
00000380: d981 0cbe 5ec8 563d 23cc 4b3d ecef adbc
00000390: 988c 173e cbea e8bc 9e07 ee3d 7301 083d
000003a0: 1206 a4bd e4a0 0d3d 3b57 c5bc d8bc 7e3d
000003b0: e6e6 ae3d 9316 07bc 29fa d6bd c783 d9bd
000003c0: 750d dfbd 1f02 4e3d e5ac b23d 76c9 d13d
000003d0: f7ae 0bbb de8c 4f3c 395c 1fbe 246c b63d
000003e0: 0b53 9fbd 5bf8 a53d 3ca7 40bd bbb6 a2bd
000003f0: 8fba 313d 4d97 27bd c08f f53d e15d debc

lstm.bias_ih_l1 f4 [256]
0.08232479 0.026152492 0.03299993 0.07813411 0.06928166 -0.047343962 0.12495044 0.2139082
-0.12799075 0.04769222 0.0712861 0.19471094 0.043046642 0.033099793 0.13556683 0.16823494
-0.14857846 -0.019244127 -0.041011013 0.11329867 0.1259415 0.14299628 0.011505362 0.00017990472
0.13281739 0.032084323 0.024948252 0.067232855 0.10100261 0.1326245 0.09702598 -0.030835623
-0.015549655 0.051438913 -0.13868108 0.1529296 0.10003595 0.101331934 0.04260798 -0.015843565
-0.060561374 0.11363595 0.08266948 -0.006924877 0.11198067 -0.027353501 0.19678952 -0.030641245
-0.08144169 0.041267335 0.077327535 0.099664174 0.110476546 0.070400864 0.08748143 0.12225853
0.08864808 0.14788625 0.012907502 0.0024465865 0.009974008 0.08018631 0.102113016 -0.105595514
-0.020060359 -0.04873064 -0.05977338 -0.1667326 -0.032953456 -0.0029995968 -0.1305397 0.09187583
-0.034382764 -0.12357881 -0.041525483 -0.096817285 -0.10054291 0.120532535 -0.041476704 0.08829589
-0.08446609 0.085003614 0.01045624 -0.04528352 0.016062627 -0.0746125 0.03195886 -0.05260288
-0.033172265 -0.004500597 -0.115983926 0.06748909 0.0747139 0.05444567 -0.10673899 -0.10628093
0.08283053 0.065787055 -0.03704475 0.11550047 0.086703405 0.0108287595 0.115596384 0.08725927
-0.0068542063 -0.04347046 -0.01604902 -0.054207534 -0.07070832 -0.16951016 0.013015271 -0.12402826
-0.0015019173 -0.15744922 -0.05110243 0.044769958 -0.03235379 0.06894248 0.037634928 -0.07438509
0.027848015 -0.11666898 0.012219093 0.03881321 -0.0009815075 -0.008354247 0.028525133 -0.07022854
-0.03401925 -0.071621254 0.0058841864 0.018890057 0.08097155 0.094913416 0.10029869 0.08946735
0.034882043 0.09148427 0.003180374 -0.008890867 0.08424354 0.08293828 -0.04194009 -0.107392676
-0.10608413 0.06041989 -0.035381626 0.04564055 -0.01756551 0.11117291 0.12879573 0.08277378
0.0031341468 0.06457379 0.14537741 -0.12130985 -0.008413781 -0.14903592 -0.0052838023 0.0969904
-0.07063862 -0.08468756 0.038692 0.022244465 0.14679627 -0.043121386 0.08605995 0.073183104
-0.027639028 -0.10574879 -0.051508736 0.018403023 0.07900658 -0.06964551 -0.022671008 -0.016846582
-0.14327148 0.09959852 0.13366483 0.18448915 -0.08193993 -0.089234695 -0.061097026 0.07291274
0.021886969 0.063354656 -0.14868927 0.017060371 -0.12422581 0.004634481 0.02693919 -0.05769384
0.14320426 0.14467593 0.008209582 0.045245446 0.085353754 -0.022462687 -0.09524481 0.106455274
0.05294786 -0.019607913 -0.04477966 0.0050644185 0.23553295 0.12657207 -0.064185 -0.023125138
0.006942289 0.03740374 -0.039610945 -0.02889792 0.11574107 -0.11195452 0.05708789 0.0037789552
0.1289145 0.058411166 0.109591044 0.06298553 0.11946612 0.0074739126 0.015124562 0.0019087278
0.10695293 -0.046734422 0.004700658 0.006593722 0.032171093 -0.014510198 0.094034344 -0.062115163
0.04947684 0.06090491 0.16146606 0.05944797 -0.00449863 -0.0082729645 0.23005937 -0.06282386
-0.050456993 -0.023268947 0.05664416 0.07583024 0.13854088 0.04144372 -0.006722181 0.07566428
0.16253214 0.087558486 0.09717928 -0.04335226 0.17360719 -0.041881595 0.008113599 -0.04053017
00000000: e699 a83d c03d d63c ef2a 073d c704 a03d
00000010: 8be3 8d3d beeb 41bd 04e6 ff3d c00a 5b3e
00000020: 0210 03be eb58 433d 72fe 913d 4e62 473e
00000030: ad51 303d a693 073d 08d2 0a3e c845 2c3e
00000040: f424 18be dca5 9dbc 2afb 27bd 2209 e83d
00000050: cff6 003e 9e6d 123e fc80 3c3c cea4 3c39
00000060: 4801 083e da6a 033d 4760 cc3c 61b1 893d
00000070: 75da ce3d b8ce 073e 8fb5 c63d fd9a fcbc
00000080: fbc3 7ebc 9cb1 523d 6a02 0ebe 9499 1c3e
00000090: a6df cc3d 1e87 cf3d b585 2e3d 5dca 81bc
000000a0: 340f 78bd f7b9 e83d 9e4e a93d 14ea e2bb
000000b0: 1f56 e53d 7314 e0bc 3183 493e 5903 fbbc
000000c0: e7ca a6bd f007 293d e65d 9e3d bb1c cc3d
000000d0: 8741 e23d 542e 903d 7729 b33d ae62 fa3d
000000e0: 208d b53d 7e6f 173e fd79 533c e956 203b
000000f0: 066a 233c b838 a43d a120 d13d 7642 d8bd
00000100: 9f55 a4bc c899 47bd efd4 74bd f3bb 2abe
00000110: 34fa 06bd e294 44bb 33ac 05be 6529 bc3d
00000120: f1d4 0cbd e316 fdbd a016 2abd 2448 c6bd
00000130: 71e9 cdbd c3d9 f63d 7ae3 29bd 7ad4 b43d
00000140: 8ffc acbd 6016 ae3d a650 2b3c 367b 39bd
00000150: c595 833c 70ce 98bd 4be7 023d 1e76 57bd
00000160: a4df 07bd be79 93bb fb88 edbd b837 8a3d
00000170: 9a03 993d 6c02 5f3d f999 dabd d1a9 d9bd
00000180: 0ea3 a93d 5dbb 863d 3cbc 17bd 838b ec3d
00000190: 8e91 b13d 1c6b 313c ccbd ec3d fdb4 b23d
000001a0: 4099 e0bb 150e 32bd 3c79 83bc b808 5ebd
000001b0: 86cf 90bd 1294 2dbe 013e 553c 8702 febd
000001c0: fbdb c4ba 5e3a 21be c850 51bd b460 373d
000001d0: 6885 04bd b731 8d3d 1527 1a3d 3657 98bd
000001e0: 8521 e43c 25f0 eebd 9732 483c 9afa 1e3d
000001f0: eda5 80ba 40e0 08bc 8aad e93c fbd3 8fbd
00000200: c557 0bbd 2aae 92bd 22d0 c03b 52bf 9a3c
00000210: 69d4 a53d f761 c23d 6669 cd3d a83a b73d
00000220: 79e0 0e3d 1b5c bb3d d26d 503b 00ab 11bc
00000230: e187 ac3d 8cdb a93d 5fc9 2bbd b1f0 dbbd
00000240: a342 d9bd d97a 773d 53ec 10bd 96f1 3a3d
00000250: 8be5 8fbc 9fae e33d 07e3 033e 4d85 a93d
00000260: 4266 4d3b 433f 843d d1dd 143e 4c71 f8bd
00000270: f5d9 09bc df9c 18be bf23 adbb e7a2 c63d
00000280: fbaa 90bd ac70 adbd 817b 1e3d 063a b63c
00000290: c351 163e 0da0 30bd 3340 b03d 06e1 953d
000002a0: 3e6b e2bc d292 d8bd d3fa 52bd f0c1 963c
000002b0: 34ce a13d 4ea2 8ebd 8db8 b9bc d801 8abc
000002c0: c2b5 12be 4ffa cb3d 6fdf 083e b9ea 3c3e
000002d0: 1fd0 a7bd aec0 b6bd e040 7abd 4653 953d
000002e0: 4d4c b33c 16c0 813d 0042 18be 31c2 8b3c
000002f0: 1a6a febd d8dc 973b 94af dc3c 6050 6cbd
00000300: 23a4 123e ed25 143e 7c81 063c 4a53 393d
00000310: f3cd ae3d ab03 b8bc b60f c3bd 3905 da3d
00000320: dbdf 583d c6a0 a0bc e06a 37bd 6cf3 a53b
00000330: 8d2f 713e 1c9c 013e 6d73 83bd ee70 bdbc
00000340: 247c e33b aa34 193d 163f 22bd 55bb ecbc
00000350: a709 ed3d 6948 e5bd fed4 693d 59a8 773b
00000360: 2a02 043e 8c40 6f3d 4571 e03d 8ffe 803d
00000370: a7aa f43d b9e7 f43b 03cd 773c 472e fa3a
00000380: 230a db3d 986c 3fbd fa07 9a3b 2610 d83b
00000390: d6c5 033d 2ebc 6dbc 1495 c03d 786c 7ebd
000003a0: 3aa8 4a3d 6d77 793d 5c57 253e b77f 733d
000003b0: 3e69 93bb 548b 07bc af94 6b3e cca9 80bd
000003c0: feab 4ebd 859e bebc b503 683d e34c 9b3d
000003d0: a9dd 0d3e e4c0 293d be45 dcbb e0f5 9a3d
000003e0: d36e 263e dd51 b33d ee05 c73d 2492 31bd
000003f0: 15c6 313e 098c 2bbd e7ee 043c f702 26bd

lstm.bias_hh_l1 f4 [256]
-0.07326025 0.04773779 0.16138414 0.069073625 -0.04774291 0.09024456 0.09942159 0.24732362
-0.071906574 0.0015295189 0.05176055 0.07403597 0.17370638 0.081043705 0.086722665 0.08377998
-0.13668534 -0.012937365 0.014420244 -0.022353102 -0.05023065 0.082251936 -0.022557499 -0.100086965
0.058531713 0.05621132 -0.026885314 0.09475411 0.21374169 0.13132739 -0.009732483 -0.088979885
0.07435078 0.01067434 0.03331059 -0.029628431 -0.06323292 0.07723872 0.16790436 -0.077772975
0.14799856 0.0054102275 -0.015068676 -0.026550522 -0.03310711 -0.15457672 0.14654098 0.033139084
-0.05488415 -0.10655188 0.15200971 0.07773601 0.1542552 0.093318254 0.024701571 0.12329642
0.012355631 -0.0008167717 0.13522959 -0.0103190765 0.021232415 0.062482636 -0.058353905 0.018910868
0.11526931 -0.03383839 0.09036464 0.069257826 0.0067280107 -0.10589101 -0.07586701 0.0014079821
-0.0888194 0.02258642 -0.10731196 0.005818466 0.053271223 -0.072290964 -0.063214704 -0.120574996
-0.12180211 -0.14652628 -0.0520961 0.00552267 0.0121434955 -0.07019995 -0.018788746 -0.07035848
-0.03245324 0.01853109 0.008084265 -0.11303508 -0.05841763 -0.05945509 -0.0006519975 0.056029923
-0.09880473 0.0020377077 0.038248368 0.08637669 -0.106385514 -0.0055152285 -0.12347859 0.0692574
-0.0030165284 -0.096106246 -0.09548244 -0.15618727 0.055924244 -0.10209185 0.095765166 0.024611067
-0.031105964 0.048071347 0.017118875 -0.09353431 -0.034567904 0.041690946 0.10870777 -0.0033655064
-0.08847425 0.029494755 -0.0038515888 -0.01549936 -0.072010286 -0.11365179 0.00015673415 -0.11850614
0.03165331 -0.011969398 -0.048023034 0.0680696 0.07762147 -0.018040353 -0.039218307 -0.04204041
-0.1173373 0.094519414 -0.049247433 -0.042445034 -0.0020033736 0.08468832 -0.040935125 -0.0082928315
-0.026069224 -0.0050949804 0.04687566 -0.0010268074 -0.14019604 -0.05755054 0.07673532 0.13543908
-0.016841799 0.095407985 -0.034583494 -0.05056011 -0.045503907 0.048869234 0.0046464796 0.051906355
-0.08292376 -0.0047650086 0.14276783 -0.15085818 0.004752831 -0.05068979 0.08459935 -0.0048565194
-0.023403939 -0.02931303 -0.051984344 0.13102087 -0.039679132 0.101736814 -0.05103025 -0.07559069
-0.07735862 -0.010273411 -0.08166308 0.042479657 0.02241641 -0.1319095 0.025208555 0.092710644
-0.13369296 -0.0654815 -0.019594945 -0.13853522 -0.08521967 -0.043957915 0.0025022787 -0.12366292
0.09747793 0.085649975 0.032242786 0.20331506 0.028413184 0.06689837 0.03152016 0.123071186
-0.077510305 0.020554602 0.053020895 0.0805179 0.06991931 0.12978745 -0.010014269 0.00033739113
-0.073149 0.052026123 0.068271 0.073722355 0.13665101 0.0017679746 -0.074331604 0.04226164
0.29625663 -0.07638258 0.0605934 0.05160694 0.098051496 -0.072573625 -0.020824505 -0.05445857
-0.0634937 0.0969711 0.034162562 0.009537161 0.10901003 -0.04202282 0.15722035 -0.07174035
0.12515584 0.16006899 0.15218553 0.16422975 0.010272795 -0.028275035 0.24335422 -0.0045579183
-0.11148476 -0.117499515 0.19321312 -0.0011287541 0.12598212 0.113753654 -0.07449318 0.04373266
0.060164623 -0.066635124 0.060395245 0.1410215 -0.01677189 -0.015614057 0.1056981 0.08063097
00000000: 7809 96bd b388 433d e241 253e 7976 8d3d
00000010: 128e 43bd 24d2 b83d 8c9d cb3d 6742 7d3e
00000020: c143 93bd 237a c83a df02 543d 2ca0 973d
00000030: 16e0 313e 3efa a53d a79b b13d d794 ab3d
00000040: 3ef7 0bbe 3ef7 53bc e342 6c3c da1d b7bc
00000050: a7be 4dbd b473 a83d 81ca b8bc 65fa ccbd
00000060: f3be 6f3d d73d 663d 973e dcbc 710e c23d
00000070: 1adf 5a3e b07a 063e fe74 1fbc 163b b6bd
00000080: 3945 983d 6de3 2e3c af70 083d 53b7 f2bc
00000090: 4380 81bd 562f 9e3d 1fef 2b3e 7047 9fbd
000000a0: ef8c 173e 4748 b13b 9ce2 76bc 7b80 d9bc
000000b0: 529b 07bd 5c49 1ebe d70e 163e d9bc 073d
000000c0: 34ce 60bd df37 dabd 6fa8 1b3e 0f34 9f3d
000000d0: 13f5 1d3e a41d bf3d f35a ca3c d582 fc3d
000000e0: 466f 4a3c 9f1c 56ba a079 0a3e 5811 29bc
000000f0: 9aef ad3c cbed 7f3d 8104 6fbd f7ea 9a3c
00000100: 5112 ec3d 209a 0abd 1911 b93d 0cd7 8d3d
00000110: a576 dc3b 63dd d8bd 2a60 9bbd 0a8c b83a
00000120: f2e6 b5bd 2807 b93c 5fc6 dbbd d5a8 be3b
00000130: ed32 5a3d 490d 94bd b676 81bd 06f0 f6bd
00000140: 6273 f9bd fc0a 16be b862 55bd 84f7 b43b
00000150: 83f5 463c fec4 8fbd dbea 99bc 1b18 90bd
00000160: b0ed 04bd 83ce 973c dd73 043c f07e e7bd
00000170: 5347 6fbd 2e87 73bd d0ea 2aba a27f 653d
00000180: 225a cabd 108b 053b 52aa 1c3d 43e6 b03d
00000190: a6e0 d9bd 17b9 b4bb 58e2 fcbd d3d6 8d3d
000001a0: f3b0 45bb 5ad3 c4bd 4c8c c3bd 8eef 1fbe
000001b0: d210 653d 8815 d1bd 8720 c43d 269d c93c
000001c0: efd1 febc 76e6 443d e23c 8c3c eb8e bfbd
000001d0: 1397 0dbd 20c4 2a3d 2ea2 de3d d48f 5cbb
000001e0: fd31 b5bd fc9e f13c f06a 7cbb 07f1 7dbc
000001f0: 217a 93bd 45c2 e8bd 0159 2439 59b3 f2bd
00000200: e7a6 013d 4b1b 44bc cdb3 44bd 1368 8b3d
00000210: 01f8 9e3d 5dc9 93bc 60a3 20bd 9132 2cbd
00000220: 8a4e f0bd 6593 c13d adb7 49bd d8da 2dbd
00000230: 084b 03bb 1271 ad3d 97ab 27bd a8de 07bc
00000240: 208f d5bc cbf3 a6bb b100 403d f095 86ba
00000250: 8d8f 0fbe 1dba 6bbd 6827 9d3d 8bb0 0a3e
00000260: d0f7 89bc 4365 c33d 6ca7 0dbd 1e18 4fbd
00000270: 4e62 3abd 1b2b 483d 7f41 983b c29b 543d
00000280: efd3 a9bd ca23 9cbb bb31 123e 917a 1abe
00000290: a3bd 9b3b 19a0 4fbd 6d42 ad3d 7023 9fbb
000002a0: 9eb9 bfbc e121 f0bc 89ed 54bd 562a 063e
000002b0: 9686 22bd 645b d03d 1805 51bd 4bcf 9abd
000002c0: 326e 9ebd cf51 28bc f93e a7bd 26ff 2d3d
000002d0: 9ea2 b73c 4913 07be 2c82 ce3c 14df bd3d
000002e0: cfe6 08be 2a1b 86bd 9485 a0bc 2ddc 0dbe
000002f0: a687 aebd 370d 34bd 45fd 233b fc42 fdbd
00000300: 82a2 c73d 4169 af3d 0311 043d d331 503e
00000310: c4c2 e83c 0302 893d 491b 013d bf0c fc3d
00000320: b9bd 9ebd 2062 a83c 702c 593d 92e6 a43d
00000330: db31 8f3d 00e7 043e e312 24bc dfe3 b039
00000340: 25cf 95bd 5819 553d abd1 8b3d bffb 963d
00000350: 3eee 0b3e 62bb e73a 2b3b 98bd 8b1a 2d3d
00000360: f3ae 973e 786e 9cbd c930 783d cc61 533d
00000370: 39cf c83d 7ba1 94bd 2798 aabc f30f 5fbd
00000380: fc08 82bd c998 c63d 0bee 0b3d c141 1c3c
00000390: a740 df3d 1f20 2cbd 5ffe 203e 9bec 92bd
000003a0: da28 003e 20e9 233e 86d6 1b3e d82b 283e
000003b0: 3a4f 283c 0ca1 e7bc d931 793e 975a 95bb
000003c0: 1f52 e4bd 96a3 f0bd a9d9 453e b4f2 93ba
000003d0: 7501 013e adf7 e83d e18f 98bd 0521 333d
000003e0: 2e6f 763d ff77 88bd 0161 773d f167 103e
000003f0: 3465 89bc 1ad2 7fbc 3f78 d83d da21 a53d
